generative_ts/saves/250911_152257_LatentODE/model_LatentODE.pth (torch, 660642 bytes, 87 tensors)

encoder_z0.GRU_update.update_gate.0.weight f4 [100, 42]
00000000: 2f25 fdbd 0d48 84bd 52a4 fc3d bf49 033c
00000010: bc12 a3bc 21f7 d0bd 3246 a9be 1129 ce3d
00000020: a962 0c3c a965 40bd 56de 4dbd a6d4 8b3d
00000030: 2e1b 83bd 28f2 c6bd 8148 8c3d 152c 3f3c
00000040: 9404 2b3d b57c 89be 3746 11bd 4853 0abd
00000050: 870c 603d fc04 a73c df24 053e 53dd bf3d
00000060: c4ae 94be 76cf d9bd 45de 8c3e 8fb4 8bbb
00000070: 8002 c3bc 1519 ac3d efff 77be 2451 8e3d
00000080: 5efc 11be cb4a 0fbd 1e0e 43bd e1fa d23c
00000090: ecc4 5b3d 10c3 d93c 4c92 51bc 879c 473d
000000a0: d2ba 493d 6cb4 093d 0140 e83c a0ae 973d
000000b0: 71e2 e9bd f0d9 263d a0e3 0cbe bc8f 343c
000000c0: 5e22 073e b780 573d ec74 0b3d a5fb 57bd
000000d0: 361c 6abe e7fa a5be d2c8 2a3d e092 223c
000000e0: f542 4cbd 089f 273d 8293 cabd 2b8b 183d
000000f0: 978f 33bd 5b47 b63b 31d3 603c 54cb 543e
00000100: 4c6d 053e f607 353d bd89 f83c 0d49 25bd
00000110: a917 b13d 97fc 1b3d 1bbc d33b 1196 8f3d
00000120: 5a35 ca3c b26c f93d 80c6 203e 3fe5 d1bd
00000130: 38ca ae3c 59bd 363d 54f4 b53d 48b1 0fbd
00000140: eb2d a53d b494 8fbc 5409 20bb ccc4 0c3d
00000150: 919b 71be aa6f 34bd 7977 6b3c 9cdb c93c
00000160: c4b6 933c 2bc5 80bc d1cb b8bd 659b 303e
00000170: 25e1 e8bd 1c1e 973d ad8d 51be 564a 40be
00000180: 93e4 cb3d 8a6a 03be c4ad 223d fa5e f6bd
00000190: 5204 60bd be36 82bd 85aa 63bc 85ed 0e3e
000001a0: bee8 0dbd b2f0 a23d 03cc 523e 43d5 913e
000001b0: 4783 c13d 45e0 be3a c105 863e ed83 e33c
000001c0: 1e0e 3d3e e099 6b3d e22d 23bd 6e5a b73b
000001d0: 7522 07bd 2d99 533c 90e6 1dbd bffe c13d
000001e0: 0858 0dbd a452 abbd 9d36 543e 0215 933b
000001f0: 13c3 443e 16cf 18bc a2ed b63a 43b6 2f3e
00000200: 45e7 1c3c 26a0 673d 5319 ec3d 95bf 7dbc
00000210: 1a83 ff3d 85a9 a33d 490b 703d 0819 c1bd
00000220: bb1a f0bb b006 47bd 9eb6 973b 30ed 0abe
00000230: 42b8 9f3c f817 433d 8955 37bd c901 c0bc
00000240: 6696 ae3d 77bc 873e 9f00 dd3d 18a1 093d
00000250: 780a 1c3e 2461 96bd 110a ba3d 8a41 8a3d
00000260: 89a5 af3d c6ca 083c 1824 afbd d316 c43d
00000270: 5e3d e73d 63f7 043e 4574 f6bc ca28 22be
00000280: 5da1 adbd 2ae5 a73d bc40 47be de2e c03d
00000290: feb2 143e aee9 c73c 15c8 d6bd 7050 42be
000002a0: 914a 93bd 0c38 d53d 600c 05bd 5460 2b3d
000002b0: 579a 9c3d 99b7 a8bc efd3 35bd d94e c1bc
000002c0: 9de5 3f3c 94a5 8b3c c0ae 9bbd 2833 133e
000002d0: 3353 1e3d 54dc b33c ce71 b6bb 4b01 8bbd
000002e0: eebe 703c 54da 2dbd 846f 39bd 4178 ffbd
000002f0: 1079 5bbd a4e0 393e daa8 973d 8b9c 8ebd
00000300: b320 ed3c e27e 03bc d1b1 6d3d 6699 093d
00000310: 6ce7 ce3c bab9 943d 0464 eb3c 6c43 b2bd
00000320: a2d1 44be 5051 bc3d 0c62 043d 40cd c7bd
00000330: 2e75 82bd 82a2 4f3d 19e8 53bd 1b9f ffbd
00000340: 4165 713d 0256 2dbe df83 8a3d b25b 103e
00000350: e999 5f3d 6d35 e83d 4ef2 8dbd 71c3 95bd
00000360: 8642 74bd d745 943d dc44 883e 6f33 403d
00000370: 0f9f 94bd 77e2 413d 813e 393e 806c 19bc
00000380: 9a30 243d 11d5 aabb 8d43 143d df0a 8b3d
00000390: fdc4 88bd 83ec 9e3d db27 533e 951a 193d
000003a0: c010 1ebb d402 463e 0004 003d 6def e0bd
000003b0: 45c1 383d 55af 723d f776 65ba 19ab f6bd
000003c0: f1d5 9a3d 4396 86bd d266 0e3e 8b35 b83d
000003d0: 0c0f 613e 6ed0 933e d652 e73d 2bcb ad3d
000003e0: f5e2 9dbd 57c5 96bc e04e b1bd ac63 c63d
000003f0: 3847 ed3c 7133 1e3c c690 96bd 3ed3 2f3d
-0.12360608 -0.06459055 0.12336029 0.008013188 -0.019906394 -0.10203386 -0.33061367 0.100664265
0.008568444 -0.04697195 -0.050260864 0.06827669 -0.064016685 -0.097141564 0.068497665 0.011668225
0.041752413 -0.26852956 -0.035467353 -0.03377083 0.054699447 0.020388119 0.13002346 0.09368386
-0.29039586 -0.10635273 0.27513328 -0.0042634676 -0.023804903 0.084032215 -0.24218725 0.0694907
-0.14256427 -0.034983438 -0.047620885 0.025754394 0.053654596 0.02658227 -0.012791228 0.04873326
0.04925043 0.03361933 0.028350832 0.07406354 -0.114201434 0.040735185 -0.13758707 0.011020597
0.13196704 0.052612986 0.034047052 -0.05273022 -0.22862324 -0.32417986 0.041695423 0.009922713
-0.049868543 0.04092315 -0.09891416 0.037242096 -0.04383811 0.0055627055 0.013722227 0.20780689
0.13029975 0.044197045 0.030339116 -0.04035287 0.08647091 0.038082685 0.006461633 0.07011045
0.024683643 0.12178935 0.15700722 -0.10248803 0.02133666 0.04461417 0.088844925 -0.035081178
0.08065399 -0.017526962 -0.0024419622 0.034367368 -0.235945 -0.044051804 0.014371746 0.02464085
0.018031485 -0.015719017 -0.0902325 0.17246778 -0.11371068 0.0737879 -0.20464201 -0.18778357
0.099557064 -0.1283361 0.039716497 -0.12029834 -0.05469162 -0.063580975 -0.0138956355 0.13957794
-0.03464579 0.07956065 0.20585637 0.28483018 0.09448867 0.0014562687 0.26176265 0.027772868
0.18462417 0.057519794 -0.03983868 0.005595497 -0.032991845 0.012914938 -0.03854996 0.09472417
-0.03450778 -0.08365372 0.20723958 0.0044885883 0.1921504 -0.009326717 0.0013956318 0.17159371
0.009576623 0.056549214 0.11528268 -0.015487571 0.124761775 0.07991318 0.058604512 -0.094286025
-0.0073274053 -0.048590362 0.004629924 -0.13567042 0.01949704 0.04763028 -0.044759307 -0.023438351
0.0852478 0.26510975 0.10791134 0.033600897 0.15238369 -0.07342747 0.09083951 0.06750782
0.08576495 0.008349126 -0.08551806 0.09574666 0.11291002 0.12984996 -0.030084739 -0.15835872
-0.08478043 0.081980065 -0.19458288 0.09383939 0.14521405 0.02440342 -0.10487381 -0.18975997
-0.07191957 0.10411081 -0.032482505 0.041839913 0.076466255 -0.020595359 -0.04439157 -0.023597168
0.011712459 0.017046727 -0.0760169 0.14374983 0.038653564 0.021955647 -0.005567766 -0.06787356
0.014693959 -0.042444542 -0.045272365 -0.124741085 -0.05358225 0.181521 0.07405253 -0.06963452
0.028946256 -0.008025857 0.058030907 0.033593558 0.025256835 0.07261987 0.028734215 -0.08704266
-0.19220594 0.09195197 0.032320067 -0.09755945 -0.063700065 0.05069209 -0.051735017 -0.12481519
0.058934454 -0.1692734 0.06763434 0.14097479 0.05459014 0.11338315 -0.069309816 -0.07312668
-0.059633754 0.072398834 0.26615036 0.04692405 -0.072569005 0.047335114 0.1809025 -0.009364247
0.040085413 -0.005213388 0.036197234 0.06789183 -0.066781975 0.07759955 0.20620672 0.037378866
-0.002411887 0.19337016 0.031253815 -0.10983167 0.04510619 0.05924924 -0.0008753384 -0.12044353
0.07560337 -0.06571629 0.1390641 0.089945875 0.21978396 0.28869957 0.112950966 0.08486017
-0.07709304 -0.018404646 -0.08657622 0.0968698 0.028964624 0.009655819 -0.07351832 0.042926066

encoder_z0.GRU_update.update_gate.0.bias f4 [100]
00000000: ed3f 6cbc b5c5 8d3c 4b61 843b 4235 0bbc
00000010: 6526 99ba ae83 c53b 92fa e73c 5f32 2c3c
00000020: f9ca b63b a874 e5bb bc02 1fbc 396b f53b
00000030: 2a6d 943c e55a 7fbb a65c 3ebc 8ea2 bab9
00000040: 706d 533c f370 1abc 463b 583c 2e32 363c
00000050: 33df 4fbc 962f b8bb b4d2 e8bc fea6 7bbc
00000060: 3d26 26bc 9601 08bc 92d8 453c 958e ab3b
00000070: a853 a13c 8499 16bc efd3 d23c e21a 2a3c
00000080: b35f 10bc 1e4b 9bbc 48c4 283c d0c2 c23c
00000090: 4dd9 4dbc ff43 763c a5cc 9d3c 9252 8fbc
000000a0: 17ac f83c 9b38 7c3c 3b5a 7dbc 8a20 bc3c
000000b0: 450e 223b bace 9aba a968 253c 2656 95ba
000000c0: 2051 8dbb 1311 1ebd 7877 12bd babd db3c
000000d0: 7fcb 813c c982 473d 3a66 1f3c 6807 08bd
000000e0: c4b7 48bc 89b5 b03c d3ef 533d d0e6 7bbb
000000f0: 4378 193d e16c 913b c1e0 113b a058 9bbc
00000100: 2d37 51bc 82a2 ff3b dad6 68bc c0eb 2a3d
00000110: 32db 803b 131d 853c 1582 bb3c 1aec 9dbc
00000120: 080c 083c 560d 173d 5ccc 3eb9 ff67 b9bb
00000130: 6d40 c3bb cb1a 7c3c e48d 373d f4ac a03b
00000140: 87f9 a23c 9e99 483c 823b 1cbc 4a37 c7bb
00000150: 3ab2 063d e92c 06bc b37d 5c3b c70a 653b
00000160: d571 dbbb 9ac6 8f3c d067 fd3c c55e 81bc
00000170: 4734 01bc 8828 843c 2fb8 203c f50f abbb
00000180: 1a83 493c 1ede e7bc 2e68 3a3c 19f6 e1bb
-0.014419538 0.017306188 0.0040399185 -0.008496584 -0.0011684416 0.0060276603 0.028317723 0.010510056
0.0055783954 -0.007002432 -0.009705242 0.0074895886 0.01811846 -0.003896409 -0.011618769 -0.00035597797
0.01290451 -0.009426343 0.013197726 0.011120362 -0.012687492 -0.005620907 -0.028420784 -0.015359638
-0.010140953 -0.008301159 0.01207556 0.005235503 0.01969321 -0.009191874 0.025735823 0.010382386
-0.008811879 -0.018956717 0.010300703 0.023774534 -0.012564016 0.01503086 0.019262621 -0.017495427
0.030355496 0.015394355 -0.015463407 0.022964735 0.0024727744 -0.0011810877 0.010095754 -0.0011393472
-0.0043126494 -0.038590502 -0.035758466 0.026823867 0.015844105 0.04870871 0.009728963 -0.03321019
-0.012250844 0.021570938 0.051742386 -0.0038437136 0.037468206 0.004438028 0.0022259208 -0.018963158
-0.012769503 0.007801355 -0.014211381 0.041728735 0.00393238 0.016249215 0.022889176 -0.019277621
0.00830365 0.036877953 -0.00018195942 -0.0056581493 -0.005958608 0.015387247 0.04481305 0.00490343
0.019894375 0.012243656 -0.009535672 -0.006079589 0.032884814 -0.008189418 0.0033644259 0.003494905
-0.0066969194 0.017550755 0.03093329 -0.01579226 -0.007885999 0.016132608 0.009809538 -0.005220408
0.012299323 -0.028304156 0.011377377 -0.006895792

encoder_z0.GRU_update.update_gate.2.weight f4 [20, 100]
00000000: 8d23 5ebd 0747 723c 0775 a03d 6e88 e6bd
00000010: 059b e5bc 8e28 d1bd 9819 f23d fbb3 b33d
00000020: 035e 99bc 6323 a9bd ed0e 9f3d 4bbe fb3d
00000030: 23e0 623e c503 8d3d 1751 ff3c 0d92 673d
00000040: fd0a cb3d fd8e c3bd b59a 293c 5962 09bd
00000050: 34d0 b1bc 8ac2 aa3d 7989 6abe 8d1e 01be
00000060: b538 893d 681c c23c a4eb 3d3d 9c9e 133d
00000070: 9827 59bd b956 c63c baab 9c3d c16e ad3b
00000080: 2aa1 2fbc 903c ed3c 25b9 d53d 58b5 513c
00000090: 5cad ee3b 573a 923d 9187 1c3e 2d4b 25be
000000a0: 1cd2 633e 823b f9bd 8597 f5bd 9511 ab3c
000000b0: 4d34 9a3b e623 9d3d 5c28 3d3c fec5 b03d
000000c0: 4a8c 173d 1412 433b d756 a6be 811b 8c3e
000000d0: 4663 8d3d 13e5 983e 7d82 a7bd 2e99 3ebe
000000e0: 7e7b babc a210 5a3d ea39 443e 1531 923c
000000f0: 9aaf 1c3e 0ab4 b43d bf06 2abd 65e5 15be
00000100: ade0 73bc d6cb 323e 5665 12be fe42 f63d
00000110: 8271 a13d a155 803d 3c14 4dbd 530e 11be
00000120: 0fd1 953c b80c 6d3d 97cb d23d 6d5f d9bd
00000130: 32e3 91be 2114 1c3e c4c9 bf3d 0c92 8ebd
00000140: 49d9 aabd d46d 30be 464f 813c 3d7e 37be
00000150: 8fe8 043d c633 cfba 9aa7 93bd 54de 853d
00000160: 0003 02be 2589 9b3d 899e 3a3e 7593 0ebe
00000170: 8fa8 e53b 62df 753d 5b8a c03c 1966 373d
00000180: beb2 863d 8f6f c03d e939 b3bd 86c8 1fbd
00000190: bded 683e 8f7c 88bd 7b1a 41bd 2b4f 00be
000001a0: f829 33bc fb45 26be 6f73 89be 49cf 243e
000001b0: 12cf 74be d3b6 3abe 4edd ca3d 8441 3d3d
000001c0: a799 99bd 2d89 69bd 1665 7f3d 075d 68bd
000001d0: 3be7 1ebe 01d0 25bd 724c d03d 3406 e4bb
000001e0: a3d1 b4bd 0fff b6bd 1d82 623d 2841 a53c
000001f0: d6b3 0abc 1c4f 79be d98c 24bc 98b4 e7bd
00000200: d759 16be cc19 19be 6981 87bb 364a 833d
00000210: 638f a5bc 47c5 1c3e bb18 aebc 86b4 7cbd
00000220: 0cd3 2bbd 4540 6f3d ed58 18bb 581f aa3d
00000230: 44d9 aabc 1bca cfbd 6861 d13d 43df 1b3d
00000240: e0bd 9fbd 981b e0bd b44d 91bd 79fc 09be
00000250: 056b acbd 5909 f83c 1c64 9c3d e895 ee3c
00000260: 6f0d 42bd 937a e3bb fa82 c4bd 716e 913d
00000270: 62de d63d 9fd9 8ebd ad9a 91bd f64a 643e
00000280: ad58 50be 84e6 3a3e 30cb 8e3d 7b7b c0bd
00000290: b9fe 83bd 324a d03d 2351 ee3c b9e9 8e3c
000002a0: 9191 a5bc 52bb 783d a36c 21bd 04bd 1abd
000002b0: ab6e 91bc c207 d8bd aeb0 a63d 0225 a0bc
000002c0: 6beb 96bd 1757 18be 3b86 073c fc26 d1bd
000002d0: 749f b93d 0512 553d 76a4 703d 8b71 263e
000002e0: f392 e1bd f007 6a3c 4091 073e c56e 013e
000002f0: 9794 ae3d 93cb c13d 7ddf d7bd f447 293d
00000300: 61f4 e23a 371a 4e3c 141c 723c 80c0 b5bd
00000310: 4a1b eabd c196 393d 942c c6bc 4f03 f0bc
00000320: 6d7d 563d fa48 6fbd 7c08 b6bc ffc5 1b3e
00000330: 2bdd ad3d 5765 03be ec16 863b d435 a63e
00000340: 6508 163c dcc4 66bd 2050 8dba d8cf c53d
00000350: 1dda 1cbd 7cc3 04bb c9cd 5c3d 3fe9 3d3b
00000360: d802 36be dbf0 a2bc 4b77 033e dc5d 29bd
00000370: a928 093c 06ae b7bd bf61 a03d 42a7 eebc
00000380: 72ee edbc a13e c83c f791 513e d85a e6bd
00000390: 3c5e 773d f75c 053c d19c e73d aed8 6d3d
000003a0: 55b6 54bd e0fc b4bb 14d0 0b3d f908 8c3d
000003b0: b315 ebbc c960 363d 316f 12bd 072e a5bd
000003c0: 8d49 8b3d 7906 cfbd 775a 3e3d d7c1 fabd
000003d0: d648 8a3d 8f63 81be 188a b2bd 959f 6fbd
000003e0: 071e 9c3d fea4 6ebd aebd bb3d 05d7 93bd
000003f0: e59c e83d 64a2 2ebe 654d dfbc 97a2 043e
-0.054233123 0.014787442 0.07834821 -0.11256491 -0.02802802 -0.10212813 0.11821288 0.08774563
-0.018721586 -0.082587026 0.07766519 0.12292155 0.22155814 0.068854846 0.031166596 0.05653577
0.09914205 -0.09548757 0.010351826 -0.033541057 -0.021705724 0.08337887 -0.22904004 -0.1260931
0.06700269 0.023695186 0.046367303 0.036039934 -0.053016275 0.024211274 0.07649942 0.005292744
-0.010719577 0.028959543 0.10435704 0.012799583 0.0072838496 0.07140034 0.1528609 -0.16141959
0.22248119 -0.12169553 -0.11991791 0.020882407 0.004705942 0.07672863 0.011545267 0.08631514
0.036999024 0.0029765414 -0.3248813 0.27364734 0.069037005 0.2986227 -0.081791855 -0.18613121
-0.022763964 0.05323852 0.19162717 0.01784567 0.15301362 0.08823402 -0.04151034 -0.14638288
-0.01488511 0.1746057 -0.14296469 0.120244965 0.07882978 0.062663324 -0.050068125 -0.1416562
0.018288163 0.057873458 0.10292738 -0.10613904 -0.2849365 0.15242054 0.093646556 -0.0696145
-0.08342225 -0.17229396 0.01578487 -0.1791925 0.032448348 -0.0015808276 -0.07209702 0.06536546
-0.12696457 0.075945176 0.18224539 -0.13923438 0.007008619 0.060027488 0.023503473 0.044775102
0.06577061 0.09396278 -0.0875128 -0.039009593 0.2274694 -0.06664383 -0.047144394 -0.125302
-0.010935299 -0.16237633 -0.2684588 0.16094698 -0.23907116 -0.18233804 0.09905492 0.04620506
-0.0750001 -0.057015587 0.062352262 -0.056729343 -0.15517895 -0.04048157 0.10170831 -0.0069587473
-0.088290475 -0.08935367 0.055299867 0.02017267 -0.008465728 -0.24346584 -0.010043346 -0.113137424
-0.14682709 -0.14951247 -0.0041353 0.06410639 -0.020209974 0.1530963 -0.021252027 -0.061695598
-0.041949317 0.0584109 -0.0023246363 0.083067596 -0.020855553 -0.101459704 0.10223657 0.038054716
-0.07799888 -0.10942763 -0.07094899 -0.13475217 -0.0841885 0.030277895 0.07636282 0.029124215
-0.047376093 -0.006942102 -0.09595294 0.07101143 0.10491635 -0.06975102 -0.0710958 0.2229422
-0.20346327 0.18251997 0.06972349 -0.09398552 -0.06445069 0.10170402 0.029091423 0.017445432
-0.020211013 0.060725518 -0.039410245 -0.037777916 -0.017752966 -0.10548355 0.08139168 -0.019548897
-0.07369121 -0.14876972 0.008271749 -0.10212514 0.090636164 0.052019138 0.058750592 0.1625425
-0.110143565 0.014284119 0.13239002 0.12639911 0.08524435 0.09462657 -0.10540674 0.041328385
0.0017315262 0.012579492 0.014777202 -0.08874607 -0.11430986 0.045309786 -0.024191178 -0.029298453
0.05236571 -0.058419205 -0.022220843 0.15212248 0.0848945 -0.12831627 0.004092088 0.32462943
0.009157275 -0.056340083 -0.0010781325 0.09658784 -0.038293947 -0.002025812 0.05390719 0.0028978137
-0.17774522 -0.01989024 0.12838475 -0.041349277 0.008371511 -0.08968739 0.078311436 -0.02913249
-0.029044364 0.024443926 0.20465837 -0.11247796 0.060392603 0.00813984 0.11309207 0.05806797
-0.051931698 -0.005523309 0.034133986 0.06837649 -0.02869687 0.044525895 -0.03575057 -0.0806542
0.06801138 -0.101086564 0.046472993 -0.12244003 0.067521736 -0.2527127 -0.087177455 -0.0585018
0.07622915 -0.058262818 0.09167038 -0.07218746 0.1135805 -0.17054135 -0.027258584 0.12952648

encoder_z0.GRU_update.update_gate.2.bias f4 [20]
00000000: b1ef 413d 6ba5 96bc 2c48 fb3b 6970 7b3b
00000010: 71eb cd3b 7bd3 bebc 82ab 55bc e46e f33b
00000020: 7e0f 5ebb 8b79 e5bb effd 65bc ba03 0c3d
00000030: b886 99b9 92b4 c9bc 1d79 363c b5c6 86bb
00000040: b23c 923b e416 ac3c bf15 18bc ec0c a2bc
0.04734773 -0.018389424 0.0076685157 0.0038366562 0.0062841703 -0.023294201 -0.013041379 0.0074289907
-0.0033883746 -0.0070030144 -0.014037593 0.03418324 -0.00029282807 -0.024622235 0.011137274 -0.004113043
0.004462802 0.021007009 -0.009282528 -0.019781552

encoder_z0.GRU_update.reset_gate.0.weight f4 [100, 42]
00000000: 9d78 1a3d 14d2 fc3c 8c84 d2bc 34e4 903d
00000010: 2829 87be 2453 b3bd b0c2 893d 8b79 97ba
00000020: d6e6 dfbb 7c2f ae3d f181 babc 9352 a6bd
00000030: aba4 bbbd 2cc2 36bd 43df ddbd 58c7 88bd
00000040: 8299 b03d 841c 2a3c 6126 823d 765c 00be
00000050: 7485 4b3d 4a2d 92bd b1c8 9ebd 6f0e 46be
00000060: cc9b f1bd 023d ef3d 53be 81bd 3976 f6bd
00000070: 9f2d 1dbd aff6 033e 54d1 16be 2ee7 ea3d
00000080: 5f01 f4bd 850a 113e 860a 6dbc 549b 173e
00000090: 7ed9 46bd 64ca dd3b 1ad7 e3bd 3e5e 21bc
000000a0: 6010 933d 3ef7 133e 2865 1ebe 7841 07bd
000000b0: 6f8f 5fbe 0c85 3a3c b59a 653d 441b 153d
000000c0: 5a50 383e 455d 053e e7ca e1bc 1d53 dabd
000000d0: 42e6 113e 40e4 cf3d f9e8 ecbd 24fc 2c3d
000000e0: 7d78 c13d 89b6 8e3c 4986 853d 0682 863d
000000f0: b400 3ebe 4757 fdbd 71f1 ca3d 4c07 463d
00000100: 1deb 9ebd f1fb 36be 60ba 24be c0fe d43c
00000110: a712 483e f870 0dbd 7cca a63d 8ebb 9fbd
00000120: a506 643d 107d c33c cd95 1cbd 0cd9 eb3d
00000130: accc 88bd 7983 fe3c 6363 cf3c 730e 0fbe
00000140: 8944 f3bd c0b7 ad3c 74d2 173d fd0f 6f3d
00000150: df47 cd3d 8a54 77be 70cb c93d 4f87 91bd
00000160: 5a9c 4fbe 2666 b93d 27af af3d a8d3 fe3d
00000170: 564f e1bd d1dd 3e3e ad17 5c3c 6ebf 54bd
00000180: 426f 043e a6dd 86bd 7fbd 90bd 2434 193e
00000190: aaf2 ad3d 157b 3f3d 98ed a4bd 309e 01be
000001a0: cff9 9fbc 7721 be3d edf5 3ebc 9a27 833c
000001b0: 758e 3bba 04c0 fabd c7c1 5cbe 3267 76bd
000001c0: 0f3d e53c 7fab 62bd c678 1ebe 39cf 913e
000001d0: de2a 01be 49e4 e5bc 57b5 883e 635a 98bd
000001e0: 3d1e f3bd 42d8 17bc 1188 063e da58 2c3e
000001f0: 53dd 88be a4ee fe3b 2965 81bc 4f99 09be
00000200: 5696 c4bd 29ed 6f3d fa29 e13c 1791 3cbe
00000210: 4372 6bba 4fe7 38bd 52a1 323e 129a 65bd
00000220: f709 103e 1d81 823d fe4b d53d 581a 9c3d
00000230: 087f 46be 69c9 42be 8f40 6dbe 3acf 0d3d
00000240: 4b76 fb3b c60e 98bb 6aac debd 0d50 1d3e
00000250: f543 98bc 70e6 833d 6e05 3bbd 5c64 1dbe
00000260: 3562 8e3d c57a 083e 027f 803c 4823 5ebd
00000270: 554e e03d 9ba2 c2bc 1fe3 ddbd d882 9f3c
00000280: 1c5f 8c3d 4bec 913c 4e83 c4bd b5e9 e03d
00000290: c1ae b53d 4964 233e 226d 0dbe fc01 1dbe
000002a0: c46c 753d f9de 12bd 07f1 0f3e 7ec3 1abd
000002b0: 1236 afbd 5aa2 52ba c08d 91bd 4d8d db3b
000002c0: 13d3 233e 0363 05be 016a 8ebd 23e2 583e
000002d0: e65f 423d 25d6 063e cc9b 13be 748d 7fbc
000002e0: 7781 47be 23b1 1d3d 0649 4fbc 6457 1ebe
000002f0: 86fd 85bd 8136 c23c 79df 23bd b467 8d3d
00000300: ca44 d43d 0dc0 873d 9def 253e 3584 3b3c
00000310: 8648 3f3d f695 d03c 1167 a53d ef83 793d
00000320: da09 06be c5e1 41bc 8fe2 93bd 9791 13be
00000330: a0e5 7abd e9b3 073d 15e6 99bb d00f 0b3d
00000340: 8743 21be 53a8 783b 2a16 063c 739a bf3d
00000350: 056d 9dbc f8d2 aabd 29e6 0e3e b372 38be
00000360: a346 7a3e 837f 243d 4cb6 b1bd 3920 d43c
00000370: 32f8 d3bd e0b4 52be e1de 6e3d dd22 bfbd
00000380: 73d5 233e 70b4 ed3c eddb d23d a705 c1bd
00000390: 7f91 3fbd 86cf 3ebe f302 113d 790f 103e
000003a0: 8452 983c 5acd 893d ab72 30bc 975a 36bd
000003b0: a25b 5c3e 6cd9 f7bc 99a5 3abd 0af9 f3bc
000003c0: c6fa a3bd f146 61bd 8a2c d9bd 853d 38bd
000003d0: 67c1 763c 025a 36be 7d90 a53b 82de 2e3c
000003e0: 9444 96be 2edd 16bd a652 99bd 8283 bebc
000003f0: c8aa 3539 d9ac 8b3e f47b 0d3e 8eff 86bd
0.037712682 0.030861892 -0.025697969 0.07074776 -0.26398587 -0.08756092 0.06726587 -0.0011556608
-0.0068329377 0.08505151 -0.022767039 -0.081212185 -0.09162267 -0.04461877 -0.108335994 -0.06678647
0.08623029 0.010382775 0.063549764 -0.12535271 0.049687818 -0.071375445 -0.077531226 -0.19341443
-0.11797294 0.11681558 -0.063351296 -0.12034268 -0.038373586 0.12887071 -0.1472829 0.11469875
-0.11914324 0.14164169 -0.014467841 0.14805347 -0.04854726 0.0067685116 -0.11125012 -0.009849129
0.07180858 0.14449784 -0.15468276 -0.03302142 -0.2183206 0.01138426 0.056055743 0.036402956
0.17999402 0.13023861 -0.027562572 -0.10660384 0.14247993 0.10150957 -0.115678735 0.042232648
0.094468094 0.017421024 0.065197535 0.06567769 -0.18554956 -0.123701625 0.099093325 0.048346803
-0.07759688 -0.17869546 -0.16086721 0.02600038 0.19538365 -0.034531564 0.081440896 -0.07799445
0.0556704 0.023863345 -0.0382288 0.11516008 -0.06679663 0.03106855 0.025315946 -0.13970356
-0.118783064 0.021205783 0.037065938 0.058364857 0.10023474 -0.24153343 0.09853256 -0.07105886
-0.20274487 0.090526864 0.085783295 0.12442714 -0.1100146 0.18639304 0.013433379 -0.051940374
0.12933066 -0.06585245 -0.070673935 0.14961296 0.0849355 0.04674824 -0.0805313 -0.12658
-0.019528298 0.09283727 -0.011655313 0.016010094 -0.00071547116 -0.12243655 -0.21558295 -0.06015701
0.027983217 -0.055339333 -0.15475759 0.2847841 -0.12614009 -0.028062956 0.2670085 -0.07439115
-0.11871002 -0.0092678685 0.13137843 0.16830769 -0.26731357 0.007779913 -0.015795307 -0.13437389
-0.09598987 0.058575783 0.027485836 -0.18414722 -0.0008981565 -0.045142468 0.17444351 -0.056055136
0.14066301 0.06372283 0.10414885 0.07622212 -0.19384396 -0.19022144 -0.23169158 0.034621455
0.0076740137 -0.004640433 -0.10872729 0.15362568 -0.018587092 0.06440437 -0.045659475 -0.15370315
0.06952325 0.13328083 0.015685562 -0.054232866 0.10952441 -0.023759177 -0.108343355 0.01947157
0.06854078 0.017812869 -0.09595357 0.10982076 0.08871222 0.15956225 -0.13811162 -0.15332788
0.05991818 -0.035857175 0.14056788 -0.037784092 -0.08555235 -0.00080350565 -0.07107115 0.006700194
0.15998487 -0.13026051 -0.069538124 0.21180014 0.047454737 0.13167627 -0.144149 -0.01559769
-0.1948298 0.03849901 -0.0126516875 -0.15463024 -0.065424964 0.02370763 -0.040008042 0.069045454
0.10364683 0.06628428 0.16204686 0.011445095 0.046700023 0.025462132 0.08076299 0.060916837
-0.13089696 -0.011833613 -0.07220947 -0.14411007 -0.061254144 0.03313056 -0.0046966174 0.033950627
-0.15748416 0.0037942126 0.008183995 0.09355631 -0.019217024 -0.0834102 0.13954987 -0.18012504
0.24441008 0.040160667 -0.086773485 0.025894271 -0.10350074 -0.20576811 0.058318023 -0.093328215
0.15999393 0.029016703 0.10295854 -0.09424906 -0.046769615 -0.18633851 0.035403203 0.14068402
0.018594034 0.06728621 -0.0107695265 -0.044519987 0.2151933 -0.030255042 -0.045568082 -0.029781837
-0.080068156 -0.054999296 -0.10604198 -0.044980545 0.015060759 -0.17807773 0.0050526247 0.010673167
-0.29349196 -0.036832027 -0.07486467 -0.023256067 0.00017325126 0.2728031 0.13816816 -0.06591712

encoder_z0.GRU_update.reset_gate.0.bias f4 [100]
00000000: 7029 b53b 4856 323c 6f73 3abc 0ffb 843b
00000010: 2c11 913b 21d5 d1bb a725 4339 3fc2 ee3b
00000020: 4ce1 5dbc 68d4 073c 43dc ccbb 01b6 4cbc
00000030: 659e c7bc 6ba4 82bb e8ed 1a3b 602b 3dbc
00000040: 8929 88bb fea0 0fbc ecdc e13b a363 21bc
00000050: 2e66 813b 15d7 3cbb 9e88 e7bb b43b e23a
00000060: c750 e5bb d365 a73b b428 beba 436d e4bb
00000070: c647 333c 868d 083c 529e ba3b 168e a23b
00000080: 1e01 74bc e22a 9039 1f7b 913c 5295 7cbb
00000090: aae1 a83c a619 3dbb 855a 23bb d07c e43c
000000a0: ed3d 97bc 6ffd 4ebb 58eb 253c dc79 143b
000000b0: 9012 933b 1dc2 583c f740 d93c c85b d9bb
000000c0: 92fd 53bc 9de0 97bb 14ee e63b ceb0 363c
000000d0: 965a 1ebb 15cd 00bc ea92 79bb 03fe 01bc
000000e0: d492 0dbc 5208 633a 8719 aa3b 7b10 50bb
000000f0: f707 f3ba e844 48bc 7a89 863c efd3 b3bb
00000100: 76bf 38bc 033a ddbc 6f09 1f3c 551f 2b3c
00000110: 5467 28bc 220d 7bba 983e fb3b 7118 4a38
00000120: bb6f c53c 976c 8abb 7cac 5c3b c827 0bbc
00000130: d1ac 81bc 17b1 7abb c1c4 1d3b c0ed 043c
00000140: c796 9b3b 0b33 40bc 66ac 343c 63d5 4abc
00000150: 3456 1dbc 3b62 cf3b 1ca6 e3bb f5b6 403b
00000160: 5aac f43b 544b 833c 3a25 21bc 2705 a0bc
00000170: 721e e6bb f507 2d3c 9b47 efba c06f d13a
00000180: 9c9f b23b b730 483a e694 5fba cee1 b93b
0.0055286214 0.010884829 -0.011380061 0.004058249 0.004427096 -0.006403581 0.00018610676 0.0072863395
-0.0135424845 0.008290388 -0.006251843 -0.012494565 -0.02436752 -0.0039868853 0.0023640338 -0.011545986
-0.004155342 -0.008766411 0.006892791 -0.009850415 0.0039489483 -0.0028814722 -0.0070658466 0.0017260225
-0.006998155 0.005108574 -0.001450798 -0.006971033 0.010942405 0.008334523 0.005695143 0.0049607856
-0.0148928445 0.0002749777 0.017758904 -0.003854115 0.020615418 -0.00288544 -0.002492578 0.027891546
-0.018462146 -0.0031584164 0.010126911 0.0022655642 0.004488297 0.013229874 0.026520235 -0.0066332556
-0.012938874 -0.0046349303 0.007047424 0.011150552 -0.002416288 -0.007861395 -0.0038081952 -0.007934096
-0.008640964 0.00086606026 0.0051910314 -0.0031748104 -0.0018541802 -0.01222346 0.016422976 -0.005487911
-0.011276117 -0.027005201 0.009706839 0.010444482 -0.010278542 -0.0009576847 0.007667374 4.8183316e-05
0.024101129 -0.0042243707 0.0033672145 -0.008493371 -0.015829476 -0.0038252526 0.0024073573 0.008113325
0.0047481987 -0.01173092 0.011027431 -0.012379977 -0.009603072 0.0063288487 -0.006947292 0.0029405926
0.007466835 0.01602713 -0.009835536 -0.019533707 -0.0070226723 0.010560979 -0.0018255593 0.0015978739
0.005451156 0.00076366536 -0.00085289625 0.00567267

encoder_z0.GRU_update.reset_gate.2.weight f4 [20, 100]
00000000: e584 43be cbc3 ac39 9064 e53c 6e7e 173d
00000010: 57d5 f7bc fa43 a23c e8f7 f33d 8e86 573e
00000020: 85ee 36bd 7d39 823e b946 a3bd bff7 083e
00000030: 246d e4bc 1074 6b3d 5bc7 173e f30e 5fbd
00000040: c11c e03c ac0c 38be 3278 2e3e be98 f13d
00000050: 906e dabd 1636 3b3d 1301 cfbd 9deb d53d
00000060: ce74 df3d ce53 083d 02b9 083c dd50 72bc
00000070: d932 b13d cd4b 9e3d f462 153d b8b0 8a3d
00000080: 6b3f de3c f4a6 583e edce 35bd b6f1 a83d
00000090: adb2 543d 965f d23d f2cc 883d 98b6 863d
000000a0: ed56 16bd 965d 07be 3eca c0bc c17c 43bc
000000b0: 8de3 8dbc 9c9c a83d 0270 043e 2651 f1bc
000000c0: 7626 cb3c c9b8 a8bd 4889 b23b 9183 253e
000000d0: c22b 213a e498 1cbe ac8a 193e 5db9 4a3d
000000e0: 0948 b6bb 8a31 0d3e 3f47 a83d e060 2cbc
000000f0: 128e b23c 5696 babb e08b 383d 53a7 77bc
00000100: 190e d5bd 5d7b b33c 5f26 283d 15fb e03c
00000110: dc7e 89bb 9303 b43d 3968 ad3d 4876 22bc
00000120: 47f7 ffbd 471f 3b3e 60e2 14be c17a df3d
00000130: b305 d2bc 9ec7 75bd 2296 2fbe cb1a 2f3d
00000140: 8780 5ebd 8543 263d 98f6 8f3d 51be 3abc
00000150: 2c49 f9bc ee62 3d3e 0e4f 62bd 6bc4 f1bd
00000160: 66ef b83b 8905 24bd fcc6 73bd 5d24 3ebc
00000170: 2029 ecbd 64a9 c5bc 9751 383e 4177 0cbc
00000180: a199 e6bb b446 c1bc 8c14 693d ff87 933d
00000190: a103 59bc 653c c23d c239 563d 8c5a a9bc
000001a0: 560d 843d a663 54bd 64f2 3abd c9c1 45bc
000001b0: 5514 41bc e51e 3b3e 7b33 e43d 262f 2bbe
000001c0: 13ca 11be 6a2c 41be 2fa0 d53d 77fc 3abd
000001d0: 1fac 9b3d e661 0ebd f944 38bd da52 a73c
000001e0: 551c c2bc a06f 91bd eab6 cdbc 45c1 123d
000001f0: 5a66 b43c 0a4b 03bd 13e8 013d 760d 88bc
00000200: da69 343e 2a44 a43c 7360 113e 7651 0e3d
00000210: 0552 e03c eafa f4bc 57ca 04bd d2cb e33d
00000220: b45a a6bc e89c 00be 59b5 d5bd 399f d33d
00000230: 5384 783d 693e a0be 9679 dc3d 04f3 633d
00000240: bd9e 853e 136c 123d b091 c33c fbcc 123e
00000250: a023 13be 82eb dbbd f56a 9b3d 66e2 263e
00000260: 4bad 64be 1431 9ebd f146 4c3d bdb7 a2bc
00000270: c2cb 633c eb12 253e 5195 433d c1f9 cfbc
00000280: 632c 823d 6a32 acbd cf4e fabb bf09 efbd
00000290: 3c97 71bd 281a 7a3d dc5f 46bd 5a20 89bd
000002a0: a368 9d3b 3f03 ca3d e84b 3b3d e685 f63d
000002b0: 5d36 d3bd 813c 293e 7fb6 5fbd 5340 c7bd
000002c0: 7a50 423d eb76 23bd 9319 813b 4cd7 463e
000002d0: a59b adbd e1be 1bbe f3a1 d43c 765e f73b
000002e0: 275c 20bd 9705 e9bd 670d 3fbe 613f a53d
000002f0: 3a8d 7abd 4280 32bd 58d9 d4bd 860f 41bd
00000300: 022e 07be 89a1 69bd 1fed 16bd 17d8 c33d
00000310: bb09 833d 740a e23d b7d0 48bd 2dc8 41bd
00000320: 60ae 34bc d1d1 52be 9c84 513d 8d88 21be
00000330: 6b25 b43d 3111 183e 8752 2abe 7071 a53d
00000340: 9956 0bbe 9012 9bbd bb06 a039 f2d4 113e
00000350: 1b4a 48bd b142 3d3e 6125 a7bc f219 653c
00000360: 8562 53bd 6d46 103e 3ff7 e5bd 57d5 783d
00000370: 614f 1c3d 7c13 06be 5014 673e 0df7 013d
00000380: f447 9ebd 8847 7c3d 2635 53be 20f5 cf3d
00000390: 3530 31be f056 af3d 0729 17be 1497 2abd
000003a0: 7282 703e 6929 a3bc d95f c93d b9a8 373d
000003b0: b01a d23b 4557 9fbd fc2a ac3d 0d73 c0bc
000003c0: aed5 463b 2d2c f2bd 52c6 09be bc68 de3d
000003d0: a923 adbd 6888 c5bd 534a 083d eb2c 0ebe
000003e0: 11f6 573d 5241 a9bd 37d7 debd 7e02 96bd
000003f0: a12d 82be 371e 7b3e a839 6f3d 45e8 343c
-0.19093664 0.00032952274 0.028002053 0.036985807 -0.030253096 0.019807804 0.11912519 0.21047422
-0.044661064 0.25434485 -0.07972474 0.13375758 -0.027884074 0.057483733 0.14822142 -0.054457616
0.02735746 -0.17973584 0.17038038 0.117967114 -0.106656194 0.045705877 -0.10107627 0.1044533
0.109109506 0.033283047 0.008344891 -0.014789787 0.086522765 0.077293016 0.036471322 0.06771988
0.02712985 0.21157438 -0.044386793 0.08249228 0.05192821 0.10272138 0.06679715 0.06577796
-0.036703993 -0.13219294 -0.023533937 -0.011931599 -0.017320419 0.08232996 0.12933353 -0.02945764
0.024798613 -0.0823837 0.005448494 0.1616347 0.0006148183 -0.15292698 0.14994305 0.049493182
-0.0055627865 0.13788429 0.08216714 -0.010521144 0.02179626 -0.005694191 0.04505527 -0.015115577
-0.104030795 0.02190941 0.04105222 0.027463475 -0.004196031 0.08789744 0.084671445 -0.009915896
-0.12498336 0.1827365 -0.1453948 0.10912085 -0.025637483 -0.060004823 -0.17147115 0.04275016
-0.054321792 0.040591735 0.07029456 -0.011397914 -0.030430399 0.1849477 -0.055251174 -0.11805042
0.005643773 -0.04004434 -0.05951594 -0.011605349 -0.115312815 -0.024128623 0.17999874 -0.008573354
-0.007037357 -0.023593284 0.05690436 0.072036736 -0.013245494 0.094841756 0.052301176 -0.020673059
0.06447856 -0.051852845 -0.045641318 -0.012070128 -0.011784633 0.18273504 0.111426316 -0.16717204
-0.14237241 -0.18864599 0.10430943 -0.045650925 0.07601189 -0.034761332 -0.044987652 0.020425249
-0.02369515 -0.07101369 -0.025111634 0.035828847 0.022021461 -0.032053985 0.031715464 -0.016607981
0.17618504 0.020052034 0.14196949 0.034745656 0.02738286 -0.029904801 -0.03241953 0.1112286
-0.020306922 -0.12559855 -0.1043498 0.10333104 0.06067307 -0.31297615 0.10765378 0.05565168
0.2609767 0.0357476 0.02387318 0.14336006 -0.14369059 -0.10738279 0.0758876 0.16297302
-0.22331731 -0.07724205 0.049872342 -0.019863004 0.01390356 0.16120498 0.04774982 -0.025387647
0.06356122 -0.08408053 -0.0076387892 -0.11671781 -0.05898212 0.0610601 -0.048431262 -0.06695624
0.0048037334 0.098639004 0.045726687 0.12037258 -0.10313103 0.16526987 -0.0546174 -0.09729066
0.04744003 -0.03990833 0.0039398163 0.19418067 -0.084769525 -0.15209533 0.02595613 0.0075491024
-0.039150383 -0.11378019 -0.18657456 0.08068729 -0.06116984 -0.043579347 -0.103930175 -0.047133945
-0.13201144 -0.057038818 -0.03684723 0.095627 0.0639834 0.1103715 -0.04902717 -0.047310043
-0.011027902 -0.20587851 0.051151857 -0.15774746 0.087961994 0.14850308 -0.16633044 0.08078277
-0.13607253 -0.075719 0.00030522593 0.14241388 -0.048898797 0.18482472 -0.020403566 0.013983237
-0.051607627 0.14089365 -0.11228799 0.06075033 0.03816164 -0.1309337 0.22566342 0.031729747
-0.07728568 0.061591655 -0.20625743 0.10154176 -0.17303546 0.08561504 -0.14761744 -0.041647986
0.23487261 -0.019917207 0.098327346 0.04483864 0.006411873 -0.07780317 0.08406636 -0.02349236
0.0030339765 -0.11824832 -0.1345456 0.1085982 -0.08454067 -0.09645158 0.033274006 -0.13884322
0.0527249 -0.08264412 -0.10880893 -0.07324694 -0.25425437 0.24523245 0.058404595 0.0110417055

encoder_z0.GRU_update.reset_gate.2.bias f4 [20]
00000000: 9c9f f83b 5af8 c73b 52f1 c4bc cb84 ff3b
00000010: 055d bbbb fd8c bb3b 741c 6dba 97d6 123b
00000020: 51cc 743c 8218 d4bb b705 dabb 4356 5dbc
00000030: 869f 02bc 638c 823c 949b fbba 3dcd c7bb
00000040: aac4 3fbb 545c 6b3c be80 a4ba 5289 cc3b
0.0075873863 0.006102604 -0.024040852 0.0077978126 -0.005717876 0.005723594 -0.00090450724 0.0022405738
0.014941291 -0.006472648 -0.0066535133 -0.013509336 -0.007972604 0.015936082 -0.0019196146 -0.0060974644
-0.0029261508 0.014365274 -0.0012550575 0.006241956

encoder_z0.GRU_update.new_state_net.0.weight f4 [100, 42]
00000000: f34f 53bc 124c d33d 013a 6ebd 54bf b43c
00000010: dbb1 ed3c 4f84 3abc af34 cdbd 31f2 21be
00000020: 0dab 9cbd e47c 75bd a9e5 1d3d 7a5e 0ebe
00000030: 3707 a6bd 3484 ce3d 86e7 12be 2911 c13b
00000040: a27e 273e 7c81 113d 075b 0dbe f99f c53d
00000050: 272b 8dbd a504 2abe f617 37bd 33ee 0a3e
00000060: d2e2 463d e976 dcbd 07f4 7fbd 5e59 2cbd
00000070: ce1c 423d d91d 74bd c767 493a aebe 443e
00000080: b2f9 e4bd ef3f 98bd 1c2f fabd 2f42 b93b
00000090: df0d f93c 9203 ee3c 386e 3dbe 95c5 9b3d
000000a0: 27f7 57be 6f68 67be 7040 133e a6bb 913c
000000b0: 9d35 a0bd 92db d8bd 60cb 24bc b903 aabd
000000c0: fccb 7a3c dd4f c2bb f074 6a3d e8e8 d5bc
000000d0: 6122 81ba 9d19 b7bd 857f 673e 679c 4b3c
000000e0: 5619 dfbc 2156 adbd 710d 9abd efb6 c0bd
000000f0: 2a13 c6bd f425 8b3c d867 743d 2d81 1dbc
00000100: 1041 ae3d dbb6 973d 1748 ad3d 762a a83d
00000110: 23aa 06bd 53fa 243d 6a88 9f3b 4d89 4d3d
00000120: b902 f33c 77bc ad3d 761a 2a3d 854f 4d3d
00000130: 2113 573d 7375 433e bcfc 4a3e 7c6c 40be
00000140: 2977 a33d 1101 bbbd a652 1c3e 1203 743d
00000150: 5a17 353e 2b22 793e 4276 3d3d 0f54 43be
00000160: 96ff 103d 9bdb 6e3d 1458 40be 6e17 883d
00000170: 85ac a63d efe5 7fbd ccc8 893e 3ca0 503e
00000180: d3ef c63a 4b96 58bd 8612 6bbe dbe5 1dbd
00000190: d7b0 843c 60d3 80bd 78cd 91bd cc1b 313b
000001a0: 72d2 93bd ad36 a13c 670d 52bd bc76 933d
000001b0: 758a 633d a0f5 94bd 2dd3 273e 08a0 1fbe
000001c0: 47a7 d6bd 1819 5e3e 2423 0c3e b057 d1bd
000001d0: d864 8f3d d5cb aa3b 915b eb3d 91ca 0a3d
000001e0: 0061 103d fd11 cebd c7bc 73bd 0383 903c
000001f0: e750 4c3e d945 323b 62c0 babc 03de 82bd
00000200: 55be bf3d e661 b93c f0d6 f73d ec66 bebd
00000210: 1dea 07be 2fdb 0fbe 5d58 93bd 1ac2 8e3d
00000220: ca4d 4e3d 3ba2 c4bd 6c7f 8c3d 472f d33c
00000230: ea56 103d afc8 b5bc 627b 78bd 1b78 01be
00000240: e0c5 4a3d c80f 74bd cab8 21bd b148 eb3c
00000250: cf64 233d b838 b2bb b499 773d f31c 16be
00000260: 7810 e2bd 8f9b 9dbd c0a3 bfbd 9aef 083e
00000270: 6f28 9dbd ab61 d0bd 6b46 623c 1cfb 07bd
00000280: ac0d a93d 2d4e 20bb b424 51bd a877 89bd
00000290: 638b 64bb 3db4 1f3d 1b8c 63bd 5e28 c8bd
000002a0: 182a 76bd c59e 9cbc 799a 55bd 8c01 22be
000002b0: 8fa4 6abc 9eea cc3d f8b2 273e 70e0 bbbd
000002c0: cb99 93bd 2411 15bd 9100 8dbb 2e4a 903d
000002d0: cbc2 2abe 5f1b 3cbd 3597 0abe 033c 2b3d
000002e0: 8e8f d5bd f32e 213e fe22 783c 1033 6e3d
000002f0: 47a5 fabd b4d6 47be ef6b 323d eea4 7e3e
00000300: 8492 82bc d320 9abc 09dd 0cbd 5c8b 30be
00000310: 3708 32bd 7597 713e 10f6 523d 068a 9dbd
00000320: 81cb 3bbd a87f d6bd 1a58 943d 747e 3cbe
00000330: 3046 f43d 00d6 83bd d90d 933d 64f6 b93c
00000340: 83a2 55bd 89fa 08bd 4d89 b5bd e097 28be
00000350: fee3 c8bd 90f3 eebb 141f 68bd 3591 c4bd
00000360: 392f 193e e9f7 303e dd47 b8bd 6fb8 32bc
00000370: 2015 2fbd 3235 323d 6da0 b03d 8ebc 973e
00000380: b82b 62bd 7083 4bbc cde5 0a3e 404e 9abd
00000390: d09a 95bd 9a24 8fbd 4acb a83d 696c debd
000003a0: 1bb8 203e 5a5c 3c3c 932c 8f3d 32d0 953d
000003b0: de7c 003e f88d a73b 1035 bfbd e3cc e93c
000003c0: 6473 e5bc 02b8 523d 551c 0fbe a980 d0bd
000003d0: 5d7c 81bd 40df b9bd 91c4 70bd 21bb 79be
000003e0: 8137 04be 6621 13bd 557d 113d e6a0 933d
000003f0: 50de aabd 7c5f fa3d ecf8 933c fe87 863d
-0.012897479 0.10317244 -0.058160786 0.022063889 0.029015472 -0.011384084 -0.10019814 -0.15815045
-0.07649813 -0.059933558 0.0385491 -0.13903227 -0.08106845 0.100838095 -0.14346132 0.005891938
0.163569 0.035523877 -0.13804255 0.09649653 -0.06892996 -0.16603334 -0.044700585 0.13567428
0.048556156 -0.10764868 -0.062488582 -0.042077415 0.04739075 -0.059598777 0.00076830055 0.19213364
-0.11180438 -0.07434069 -0.12216017 0.0056536417 0.030402122 0.029054437 -0.18499076 0.07606045
-0.21090375 -0.22598432 0.1438005 0.017789673 -0.07822726 -0.10588755 -0.010058254 -0.08301491
0.015307423 -0.0059299306 0.057240427 -0.026112035 -0.0009852165 -0.08940432 0.22607239 0.012427426
-0.02723376 -0.084636934 -0.07522095 -0.09409892 -0.09671624 0.01698587 0.059669346 -0.009613317
0.085085034 0.07407924 0.08461016 0.08211224 -0.0328771 0.04027779 0.0048685567 0.05017977
0.029664384 0.084832124 0.04152914 0.050124664 0.052508477 0.19087772 0.19822973 -0.18791384
0.07981712 -0.09131063 0.15265903 0.05957324 0.17684689 0.2432944 0.046255358 -0.19075035
0.035399996 0.0583149 -0.18783599 0.06645094 0.08138374 -0.06247514 0.26911008 0.20373625
0.0015177674 -0.052877706 -0.22956285 -0.038549285 0.016197605 -0.062903166 -0.07119268 0.0027024625
-0.07217874 0.019679392 -0.051282313 0.07200381 0.055551965 -0.07273412 0.16389151 -0.15588391
-0.10481124 0.2168926 0.1368528 -0.10221803 0.07001656 0.005212287 0.11492074 0.03388459
0.035248756 -0.10062025 -0.059506204 0.017640596 0.19952737 0.0027202277 -0.022796813 -0.063900016
0.09362475 0.02262969 0.12101543 -0.092969745 -0.13272901 -0.14048456 -0.07194588 0.06970616
0.050367154 -0.096012555 0.06860241 0.02577938 0.035239138 -0.02219042 -0.060664542 -0.12643473
0.049505115 -0.059585363 -0.03948287 0.028721185 0.03989106 -0.0054388903 0.060449317 -0.14659481
-0.110382974 -0.07695686 -0.09357405 0.1337265 -0.07673728 -0.10174879 0.013810734 -0.03319846
0.08254561 -0.002446066 -0.051060393 -0.06712276 -0.003487312 0.038990248 -0.055553537 -0.097733244
-0.060098737 -0.019118676 -0.05214927 -0.15820903 -0.01432146 0.10005687 0.16376865 -0.091736674
-0.07207068 -0.0363933 -0.004303046 0.07045399 -0.1667587 -0.04592454 -0.13534243 0.04180528
-0.104277715 0.15740566 0.015145062 0.058154166 -0.122385554 -0.19515496 0.043559965 0.24867603
-0.015939005 -0.01881448 -0.034390483 -0.17240661 -0.043464866 0.23592933 0.051504195 -0.076923415
-0.045848373 -0.10473567 0.072433665 -0.18407613 0.1192745 -0.06437302 0.071803756 0.022700496
-0.052156936 -0.033442054 -0.08864079 -0.16464186 -0.09809111 -0.0072922185 -0.056670263 -0.095980085
0.1495942 0.1728207 -0.08998082 -0.01090823 -0.042744756 0.043507762 0.08624349 0.29636043
-0.055217475 -0.012421474 0.13564225 -0.07534456 -0.07304919 -0.06989403 0.08241899 -0.10860521
0.1569523 0.011496628 0.06990924 0.07315101 0.12547633 0.0051133595 -0.09336293 0.02854008
-0.028009124 0.051445015 -0.13975652 -0.1018079 -0.063225485 -0.09075785 -0.05878121 -0.2438779
-0.12911798 -0.035920523 0.035519917 0.07208423 -0.08343184 0.122252434 0.018063031 0.06568907

encoder_z0.GRU_update.new_state_net.0.bias f4 [100]
00000000: 6c8b 3abc 86df dcbb 3cd3 3a3b 5519 5cbc
00000010: 2312 05bb 7289 35bc 4590 57bb cdb6 29bc
00000020: 2f47 3dbb 73af 35bb e981 aa3b 2757 c8bb
00000030: b769 1c3c 8123 9abb 394e 2dbc 85a7 25bb
00000040: b59b 07bc 012e 3a3c 6ab4 1d3c 4c75 f03a
00000050: ba2d 93bc d264 fcbb de35 0cbc aea5 cb3b
00000060: 913a 173c 90d6 063c e938 3f3c ec87 803c
00000070: 453b 35bb 7ea9 34bc 44fd 22bc 2799 04bb
00000080: 7f3a 263c 523e 9c3c 9f5c 513c 9c94 6d3b
00000090: 8017 673c ec21 fcbb b15c 2ebc e0d8 353b
000000a0: 6e1a 3fbc 5a34 e5bb 5511 5fbc 0044 353c
000000b0: b459 0e3c fe8d 6fbc 81fd 8abc 8981 dabb
000000c0: dbad 13bc 7f05 2f3c 806b f1bb 9d74 0abc
000000d0: ac78 c5bb f37b e4bb 07ce d33b 6083 0cbc
000000e0: 1321 09bc 46b2 003b 2b8c 6c3c c4ed 043c
000000f0: a59c a63c a6b3 14bc 2916 4dbc 8a23 f53b
00000100: 9345 bb3b 733c 9f39 29e9 823b 85e9 23bb
00000110: 6163 b3bb 4337 6a3b 5b9e 8d3b 2ea7 38bc
00000120: ba30 613c 0d00 293c 04ac 13bc a624 423c
00000130: 59c8 7f3b 1af8 363c eb17 e43b 08b5 8dbb
00000140: e887 833a 276c e8bb fa9b 133c 26cc 3b3c
00000150: 20b1 9dbc 4163 3f3c 2fd0 ee3b 9583 0d3c
00000160: b7ed 4ebc 9a30 6f3c d8ab d13b 0bd8 9abb
00000170: 96f8 083c b924 09bc 0a59 e1bb 0afc 293c
00000180: 2d78 26bc 647c fcbb a076 5b3c cd2b 163c
-0.01138578 -0.0067405133 0.0028507253 -0.013433774 -0.0020305 -0.011080133 -0.0032892388 -0.0103585245
-0.002888154 -0.0027722984 0.005203475 -0.006113905 0.009546689 -0.0047039394 -0.010577732 -0.0025276851
-0.00827687 0.011363507 0.009625534 0.0018345504 -0.01796614 -0.0077024484 -0.008557765 0.006214819
0.009230272 0.008229867 0.011671283 0.015689813 -0.0027653736 -0.011026738 -0.009948079 -0.0020232887
0.0101457825 0.019072685 0.01277843 0.0036251908 0.014104724 -0.0076944735 -0.010642217 0.0027747676
-0.011664016 -0.006994766 -0.013614972 0.011063576 0.008688379 -0.014621256 -0.016966583 -0.006668274
-0.009013618 0.010682463 -0.0073675513 -0.008450654 -0.006026348 -0.0069727837 0.0064637694 -0.008576244
-0.008369702 0.001963751 0.0144377155 0.008113328 0.020338366 -0.009076035 -0.01251749 0.007481043
0.005715081 0.0003037188 0.00399508 -0.0025011015 -0.0054744934 0.0035738505 0.004321856 -0.0112703275
0.0137445275 0.0103149535 -0.00901318 0.011849558 0.0039029329 0.01116755 0.006960859 -0.004324559
0.001003501 -0.007092971 0.009009356 0.011462247 -0.019249499 0.011681379 0.007288001 0.008637329
-0.012629918 0.01459899 0.006398659 -0.0047254614 0.008360049 -0.008370572 -0.0068770694 0.010375032
-0.010160488 -0.007705258 0.013394982 0.009165716

encoder_z0.GRU_update.new_state_net.2.weight f4 [40, 100]
00000000: e2af 2a3a 965b cd3c 683f c5bd 7960 9f3d
00000010: c90a 1bbd b92e 173c 56e8 3dbe 80e1 42ba
00000020: 13c5 26be 6c5c 6ebe 60b6 d13b 46ce 80bd
00000030: 5447 08bd 0f7d 093d c5f2 ddbc af3d f7bc
00000040: 00ed c5bb e8b6 c33d 2f4e c0bd 7e5a 01be
00000050: f471 68bd a027 e3bd b7d1 903d 1a7d 303e
00000060: 2c11 bb3c 8f73 383d 18f1 f4bd 60df bd3b
00000070: 00b8 ef3d af2e aebd cdb5 4d3b 865a 763e
00000080: 561f 40bd 68f7 883d 9da0 01be 2944 64bd
00000090: 0dde b33b ad82 b7bd 456a 44be c4c3 d93d
000000a0: 396d 15be a66b cc3d 201b 5f3d 19ad 58bd
000000b0: f65a 10be f817 41bd 266b a23c 63a0 3b3d
000000c0: 35b6 723d 6126 2b3c 5efa ee3c bffd 51be
000000d0: f056 08be c7ee a9bd 1736 c33c a250 1d3d
000000e0: 82e2 0d3e e104 463d 572b 033e f1bc 40bd
000000f0: 7b06 a5bd 1fe0 e63d 8e99 80bb e1c7 853d
00000100: 2fd0 07bd e1ef 973d 48b7 4abd ac8b 9a3d
00000110: 7bee adbc 7084 d23d 50a0 203e 44c1 27bd
00000120: 177a 6f3c 7f61 9dbc e34a 5dbc 4fba c3bd
00000130: 1558 6bbd 91a7 023e b0fc 333e 4fbf cabd
00000140: 8d00 563c 391e 823d c8e7 493d f192 0c3e
00000150: 46db 4cbe 3bf4 1bbd a154 543d 7eaf 8f3d
00000160: b4a5 aa3d 0641 67bd fd25 10be 378d 6e3d
00000170: 2ee5 843e 314b a23c de6e 33bd c1f3 263b
00000180: 14f2 c8bc d175 8e3c 418c 203e 7974 833d
00000190: 537a 023e ed9e e1bd f243 27bd fba7 47bd
000001a0: 73bc ea3d 8a3f 953c 2c0b 54bd 010d 01be
000001b0: a4bb 3a3c 006f d73d 7cf7 dc3d 31c2 f23d
000001c0: 0830 7eb9 f0b6 2cbd ae4b 1dbd a54a e23d
000001d0: cd27 8c3c 2e61 23bc 4586 b0bd eeac 08be
000001e0: 2a56 27bc 29f2 94bd f89b 833c 7a5c d93d
000001f0: 7beb 5c3d 5e97 a0bd 2896 89bd 6029 3ebe
00000200: be40 44be 96ce 4cbd 42d1 07be 8bd8 203e
00000210: 2f89 c13d 8b17 91bd b29d 6ebc a769 263d
00000220: 0762 a43d cee8 d33d 5b92 edbc 2341 d53c
00000230: 1573 a93c 1bcd ba3b 0036 fcbd c769 173d
00000240: b3be 78bd 3da1 f33c 531c 343e fde5 90bd
00000250: c202 293c 5d71 ee3d ce8b dbbd 88d6 273e
00000260: 6f73 9d3d aa0c 01be 141a 293d 6e50 88bd
00000270: fa28 cbbd 0343 133e c7c2 223d af2d dcbb
00000280: 40f8 bcbd 5c7a c43c 719f 7dbd d069 a43d
00000290: 2fa1 e43d be81 933d d411 40bc ea11 0c3c
000002a0: 1534 063e b3fd 3a3d f49a b13b 14ad babc
000002b0: 54e9 b9bc 65fc 3e3c 7ab8 2bbe a87c cf3d
000002c0: 51bf f6bc 80be 6abd 1cab 0cbc 556a 143d
000002d0: f0a5 2e3d 3190 8cbd 674b 01be f991 c8bc
000002e0: f2b2 373e 5b20 b23d 344c af3d 6b08 95bd
000002f0: ad6c b83d 3ae1 eebd 565b 133e a103 24be
00000300: be31 21bd acad 4bbc cac6 dabc 5fa4 f7bb
00000310: 39b4 31be 4bb7 20bc 7031 00be 15d2 0b3e
00000320: c80c e7bd 4c7e 8d3e 1061 64bd 8bb4 793e
00000330: f0bf a63d 5a86 243d ba83 b63d 1a12 1b3d
00000340: deb7 f63d e460 663d bed9 973d 3244 373d
00000350: 6544 98bd d7d8 013d 3665 ab3d 4cdd e83d
00000360: 604d 2dbd c16a c0bd a223 27be 73c4 54bd
00000370: b7bc a53d 95ba 00be f76c 38bd 8f09 adbc
00000380: 3071 33bd 63cb b93d 8ac5 fdbc 0072 ddbd
00000390: be1c bcbd f839 04bc 36fb b03b 3a20 d83d
000003a0: 687d 96bd a28c ab3d b4dd 1abe e722 303e
000003b0: 7dfe 10ba 4b76 b2bc b6bd d53d 247c b3bd
000003c0: 13d7 973e a9da 113d 39ae da3d a232 b2bd
000003d0: bbe9 1a3d c357 923d 8661 483e 22e1 38bd
000003e0: e92a e43c 2f18 7bbe d77e 59bd 62a9 c93d
000003f0: 37cd 0d3c db85 a13c 4210 81bc 9921 8cbd
0.0006511194 0.025068086 -0.096312344 0.077820726 -0.037852082 0.009227448 -0.1854566 -0.0007434115
-0.16286115 -0.23277444 0.0063999146 -0.062893435 -0.03327115 0.03356653 -0.0270933 -0.03018078
-0.0060402155 0.09556371 -0.09389912 -0.12632176 -0.0567493 -0.11091542 0.0707125 0.17235222
0.022835337 0.04503208 -0.119600475 0.0057944506 0.11705017 -0.08504998 0.003138888 0.2405797
-0.046904884 0.06687814 -0.12658925 -0.055729065 0.005489117 -0.08960471 -0.19181164 0.106330425
-0.14592446 0.0998147 0.054469228 -0.052899454 -0.14097199 -0.047142 0.019826483 0.045807254
0.059255797 0.010446162 0.029172119 -0.20506953 -0.13314414 -0.08297496 0.023829503 0.038406976
0.13855937 0.048344497 0.12809502 -0.04705519 -0.08057877 0.112732165 -0.003924555 0.065322645
-0.033157524 0.074188 -0.049491197 0.075461715 -0.02123188 0.10279167 0.15686154 -0.040955797
0.014616511 -0.019211529 -0.013506624 -0.0955702 -0.05745705 0.12759234 0.17576861 -0.098997705
0.013061655 0.06353421 0.04929331 0.13727929 -0.20005521 -0.038074713 0.05183852 0.07015894
0.083323866 -0.056458496 -0.14076991 0.05824014 0.259561 0.019811245 -0.043806903 0.0025474878
-0.024529494 0.017390164 0.15678503 0.064187 0.12741975 -0.11016641 -0.040836282 -0.048744183
0.11461725 0.018218774 -0.051768467 -0.12602617 0.011397276 0.105192184 0.107893914 0.11853445
-0.0002424122 -0.04216665 -0.038402252 0.110493936 0.017108822 -0.0099719 -0.0861936 -0.13347217
-0.010213414 -0.07272751 0.016065583 0.10613342 0.05393551 -0.07841371 -0.06718093 -0.18570471
-0.19165322 -0.050001703 -0.1326342 0.15707605 0.09449994 -0.070845686 -0.014563965 0.0406281
0.0802651 0.10347138 -0.029000452 0.026032036 0.020684758 0.00570072 -0.12314987 0.03696611
-0.06072874 0.02973997 0.1758893 -0.07075117 0.010315599 0.11642716 -0.10720025 0.16390431
0.07688033 -0.12602487 0.041284636 -0.06655966 -0.09919925 0.14381032 0.039736535 -0.006719313
-0.092270374 0.023984127 -0.061919633 0.08027995 0.11163556 0.07202481 -0.011723001 0.008549193
0.13105805 0.045652103 0.005420083 -0.022787608 -0.022694267 0.011656855 -0.16769591 0.10131198
-0.030120524 -0.05731058 -0.0085857175 0.03623422 0.04263872 -0.0686344 -0.1262642 -0.024483668
0.17939356 0.086975776 0.085594565 -0.07276996 0.09005103 -0.11664052 0.1439031 -0.1601701
-0.03935408 -0.012431543 -0.026706118 -0.0075574364 -0.17353906 -0.009809325 -0.12518859 0.13654359
-0.11281735 0.2763542 -0.05575663 0.24385278 0.08142078 0.04016719 0.089118436 0.03785906
0.12046789 0.056244746 0.07414578 0.04474277 -0.0743492 0.031700935 0.08368914 0.11370334
-0.04231012 -0.09395362 -0.16322187 -0.05194516 0.08092635 -0.12571175 -0.045025792 -0.021122722
-0.043809116 0.09071996 -0.030977983 -0.108127594 -0.0918517 -0.008070461 0.0054010404 0.10553022
-0.07348138 0.08376433 -0.15123636 0.17200814 -0.0005531086 -0.021784922 0.10436575 -0.08763912
0.29656276 0.03560892 0.106777616 -0.08701064 0.03782056 0.071456455 0.19568452 -0.04513658
0.027852492 -0.24520944 -0.05309948 0.0984676 0.008654884 0.019717148 -0.015754823 -0.06842346

encoder_z0.GRU_update.new_state_net.2.bias f4 [40]
00000000: 0637 f43b 5ab5 043b 90ee 4bbc fd00 e6b9
00000010: e7cd 00bc c908 b4bb b0c9 2a3c 2a5a c43b
00000020: 3e66 01bc c6c7 1a3c 0288 3bbc 6c54 9dbb
00000030: 5db0 163c 2a1c f53a c5b2 bb3b f1d0 f9bb
00000040: 05ca 47bc 3811 533c df79 0abc b74d 85ba
00000050: 7755 12bc 88b3 48b9 753e 153c e655 b0bb
00000060: aea3 dab9 6fc7 043b 6f4f a03b 7315 d23b
00000070: d094 123c cca0 d8bb 0545 6d3c e3d0 41bc
00000080: c6e7 b63a 0981 d53b bb42 29bc 881e 78bc
00000090: 3249 1dbc 08f2 103c aa58 f9bb 1a1a a33b
0.0074528484 0.0020249696 -0.012447014 -0.00043869755 -0.007861591 -0.0054942113 0.010424063 0.0059921937
-0.007897912 0.009447044 -0.011446001 -0.0048013236 0.009197322 0.001870041 0.005728098 -0.0076237847
-0.012194161 0.012882523 -0.008451908 -0.0010170256 -0.008931509 -0.00019140367 0.009109129 -0.0053813336
-0.0004170215 0.0020260473 0.0048922817 0.0064112484 0.0089466125 -0.0066109654 0.014481788 -0.011829588
0.0013954572 0.0065156263 -0.010330851 -0.015143998 -0.009599971 0.008846767 -0.0076094465 0.004977477
