generative_ts/saves/250911_151133_continued/model_VRNN.pth (torch, 17186 bytes, 24 tensors)

phi_x.0.weight f4 [10, 1]
00000000: b0d5 373e 8b96 153f 0c39 abbd e017 553f
00000010: 54da 9b3e 9e7b a8bf 715c 9e3f e9b4 6b3f
00000020: 2cda 103f 1cf8 d33c
0.17952609 0.58432835 -0.0836049 0.83239555 0.3044001 -1.3162725 1.2371961 0.9207292
0.56582904 0.025875144

phi_x.0.bias f4 [10]
00000000: 4c1b 49bf 4062 b33e 026c 9e3f 3227 173f
00000010: 78d7 4dbf 3a47 e93e 59c1 bd3e 3f01 253f
00000020: 1f8c 01bf d46d 363f
-0.78557277 0.35035896 1.2376711 0.5904418 -0.80406904 0.45562154 0.37061575 0.64455026
-0.5060443 0.71261334

phi_x.2.weight f4 [10, 10]
00000000: 1d8e 9fbc 7be6 433d bb83 7dbe 9eaf 5fbe
00000010: 7015 b03d ca36 873e 0b8d afbd ae50 793e
00000020: b8c3 5abe 7864 b9bd ab9d 07be e13a 843e
00000030: 790b 92be a93c 1abe 4d62 87be 2965 3cbc
00000040: c721 f8bc 0689 843e c9b7 b7bd 4884 5b3e
00000050: 9586 9b3e ca3b 093e 8ed0 23be 0e1a 00be
00000060: 5818 0d3e d6e9 7cbe 60b5 21bd 672c 01be
00000070: b6bd 283e 9697 25be c48b 183e 0e2c 3e3e
00000080: 4c59 c8bb e674 08be 8ade 8f3e 331f ed3d
00000090: 1b7e 36bd 8e56 923c 11fd 123e 78c0 df3c
000000a0: cf83 85be 7ab8 223f fdcc 053f 8fa6 293f
000000b0: cb6f dfbd 62b3 8f3e 42db 1d3e 3d31 093f
000000c0: 2cc6 9c3e 7352 e03e b279 9b3e 2342 47be
000000d0: 64e4 aa3d 77aa 8abd 05bb 46be 7144 61bd
000000e0: 5721 47bc dbe1 97be e6af 80bc 2177 a9bd
000000f0: a862 863d e713 62bd fbb8 8dbe 630d 3d3e
00000100: 5356 f73d ac02 583e 71e3 153d 1f94 413d
00000110: d03c e13c c790 dcbc 0f3d dcbd f923 793c
00000120: e0dc 7f3e daa2 103d 021c 04bd bb4d fe3e
00000130: 4a2a d5be 94c1 bc3c b6cc 833c ea45 673e
00000140: 3904 9f3e e41c 113f b6b9 813e 6045 943e
00000150: 8f14 403e f752 13bf de0b 203f ee01 143f
00000160: 1129 10be e4d8 bb3d e1b2 4dbc efc3 9ebe
00000170: d558 78be 66a4 8cbe a2d6 933d fc49 2c3d
00000180: 2402 cfbd 3ccc 19be 3d39 91bc 3bfb 6ebe
-0.019476945 0.047827225 -0.24757282 -0.21844336 0.08597839 0.26408988 -0.08571824 0.24347183
-0.21363723 -0.09052366 -0.1324374 0.2582617 -0.28524378 -0.15062203 -0.26442185 -0.011498728
-0.030289544 0.2588579 -0.08970601 0.2143718 0.30376115 0.13401714 -0.15997526 -0.12509939
0.13778818 -0.24698576 -0.039479613 -0.12614594 0.16478619 -0.16171107 0.14897066 0.18571493
-0.0061141606 -0.13325843 0.2809947 0.115782164 -0.044553857 0.017863538 0.1435435 0.027313456
-0.26077124 0.6356274 0.5226591 0.66269773 -0.10909995 0.28066546 0.15415671 0.53590757
0.30619943 0.43812904 0.30366284 -0.19458823 0.08344343 -0.06770795 -0.1940728 -0.05499691
-0.012153945 -0.29664502 -0.015708875 -0.08274675 0.06561786 -0.05519476 -0.2768019 0.18462138
0.12077012 0.21094769 0.03659386 0.0472604 0.027494818 -0.026924504 -0.107538335 0.01520633
0.24986601 0.035311557 -0.032253273 0.4966868 -0.41633826 0.023041524 0.016088825 0.22585264
0.3105791 0.5668471 0.25337 0.2895918 0.18757842 -0.5754847 0.6251811 0.57815444
-0.14078166 0.09172228 -0.012554855 -0.3100886 -0.24252637 -0.27469176 0.07218672 0.042062744
-0.1010783 -0.15019315 -0.017727489 -0.23338024

phi_x.2.bias f4 [10]
00000000: eb14 8dbd 1aa3 73be efeb 563e f206 59be
00000010: 3847 b83d 72bf 9cbd 9eeb 9dbd 9292 7c3d
00000020: 03a3 ca3e 9648 d0bd
-0.068887554 -0.23792687 0.20988439 -0.21194056 0.08997959 -0.07653703 -0.07710956 0.061663218
0.39577493 -0.10170095

phi_z.0.weight f4 [10, 1]
00000000: 5b9c d83d 8ed5 333f 9f31 5e3f c832 cf3e
00000010: fea7 8d3e 0f21 773f a8fa 113e 9fa4 753e
00000020: 0f9f 393f ef5f 66bf
0.105766974 0.70247734 0.86794466 0.4046843 0.2766723 0.9653482 0.14255774 0.23988579
0.7250833 -0.89990133

phi_z.0.bias f4 [10]
00000000: f55f 8b3f 059f 5e3f 5347 593f 8f93 403f
00000010: 4ac9 573e 91d3 033f e2d8 843f 398a d93e
00000020: 7d84 f2be bb49 833f
1.0888659 0.86961395 0.8487446 0.75225157 0.2107288 0.514947 1.0378687 0.42488268
-0.47366706 1.0256876

enc.0.weight f4 [10, 20]
00000000: 2d7e 35be 501b 8b3d a30e 9cbd ac97 9fbd
00000010: eaee 5a3e b081 2abe 45a4 823d 5ab0 fe3e
00000020: 1653 86be b618 9a3d 8233 973e 153e af3d
00000030: 0072 b73d 4e5f 9cbd edc4 8e3e 8356 0cbc
00000040: de0f 82be beb6 b73e 308c 67be 164f acbe
00000050: 1080 5cbe a8df 1d3e 19ad 643d 9d33 0fbe
00000060: c269 01be 18d9 36bd e31a 98bd ce6c 153d
00000070: ea07 39be d1c3 3b3e 49c8 143d 6ecc 363d
00000080: 2e72 de3d 747c 933b 9662 573d 6569 303e
00000090: 5386 d93d f682 4cbe 0fac 42be 09dd 383c
000000a0: 5e76 353e 678b 27be 59ff 1f3e f6d6 59be
000000b0: 6ee4 c93e c0ad 07be 7b3a f0bd fd20 8dbe
000000c0: f858 ed3e 588e 9abd 8c1d a83e ecd4 8c3e
000000d0: 95cf af3e 30c5 acbe 9903 d13e 91f6 bfbe
000000e0: 51bb a7be 6e71 043e 7484 a3be b723 debe
000000f0: 3bfd 403d b3a1 2e3e 195d b33c 899c 0fbe
00000100: 01cb 59be c298 a33d 26b2 eebc 070d f83d
00000110: a8b7 74be 9f3a 213e bd87 463e e37a 21be
00000120: 4bd3 f8bd c186 50bb a531 443e 5985 133c
00000130: fe8e c3bd ee89 bd3d 7f66 b7bd a88c d0bb
00000140: 95b2 4e3d bd44 fcbd fd59 11bd 4d1c afbd
00000150: 9bcb b43e 1d76 333d 6f7a 3c3d 8ef4 97be
00000160: d537 2e3e 286f adbd 193f 153e 3f93 703e
00000170: 3839 57be eef1 8cbc 894c cbbd 6333 3bbe
00000180: 5356 483e 4662 63be 0578 333e ccc2 c8bd
00000190: 0f12 d83a abfe 4b3e 9adf a5bb 96b1 8a3d
000001a0: 2a27 46be b70a 2a3e fb3d 5d3d e88c c2bd
000001b0: 3805 24bc e0e7 543e f0d3 123d 9cd5 d33d
000001c0: 03bd 863d b4b4 0d3e aaac 9fbd 2fa1 9c3d
000001d0: 6a02 543e 93e1 48be 3fd2 4abe da0f c1bd
000001e0: d864 5b3e 72f8 00be 6323 75bd b321 5d3e
000001f0: 6076 383d 19c3 343e 966c 363d ac64 f03c
00000200: 613f c6bd 3020 1d3e 356b 4fbd 9dc0 1c3d
00000210: 8b13 a43d 9ce7 433e 123e b33d e0f6 01bd
00000220: bfa1 253d 7d67 20bc b1f6 463d 86a9 91bd
00000230: 3da2 143e e47e 5f3d 17f8 053e 9357 c2bd
00000240: a147 fa3e b0f5 56be 08f4 cd3c 099c ae3d
00000250: 7f8d 1b3e 8108 613e 302c ed3d e573 853e
00000260: 6fa6 9c3e 9d1b 66bd 65fe dd3d 8a8d 5cbe
00000270: bb26 b8be f867 e53d fe77 2dbe f7cf 67be
00000280: 1cf7 48be 94d2 c53d 348f 7abd c731 f23d
00000290: 999d af3d 5d32 cbbd 8d9d 713d d39e d83d
000002a0: 9e5b 7fbe 37f6 b5bc 44ec 22be a813 aebd
000002b0: f667 28be c647 1c3e c42b acbd 2c62 a7bc
000002c0: 32e1 843d 8ebf 20bd e5f9 053e e7f1 46be
000002d0: f794 b13d 51de 8fbd b435 7a3d 62ef 543e
000002e0: e9af 45be fc47 7abd 3bd3 95bd 68ca b83d
000002f0: c595 c53c 3313 5c3e 9692 493d 1cd8 67be
00000300: d241 38be aa9a 4a3e 6f7d e13d 44c1 1fbe
00000310: 207c 8d3d 512e 403d 584a 9b3d e264 1e3d
-0.17723913 0.06792319 -0.07619979 -0.07792601 0.21380201 -0.16651034 0.06378988 0.4974392
-0.26235265 0.075242445 0.29531485 0.08556763 0.08957291 -0.076353654 0.27884617 -0.008565548
-0.2540273 0.3588161 -0.22612071 -0.33654088 -0.21533227 0.1541735 0.05582914 -0.13984533
-0.12638 -0.04464063 -0.07427003 0.036480717 -0.18069425 0.18336417 0.03632382 0.044628553
0.10861622 0.00450092 0.052584253 0.17227705 0.106213234 -0.19971833 -0.19010948 0.011283168
0.17720935 -0.16361772 0.15624751 -0.21273407 0.3943209 -0.13249874 -0.11729904 -0.2756423
0.4635694 -0.07546681 0.32835042 0.27506196 0.3433806 -0.33744192 0.40823057 -0.37492803
-0.327601 0.12933895 -0.3193699 -0.43386623 0.0471165 0.17053871 0.021894978 -0.14024557
-0.21268846 0.079881206 -0.029137682 0.1211186 -0.23898184 0.15745018 0.19387718 -0.15769534
-0.12149676 -0.00318186 0.19159563 0.0090039605 -0.09548758 0.092548236 -0.089550965 -0.006364424
0.050463278 -0.12317798 -0.03548621 -0.0855032 0.3531159 0.043813813 0.0460152 -0.29678768
0.17013486 -0.08468467 0.14574851 0.2349367 -0.21017921 -0.017205205 -0.09926707 -0.18281321
0.1956418 -0.22205457 0.17526253 -0.098027796 0.0016484874 0.19921367 -0.005062056 0.06772153
-0.19350877 0.1660565 0.054014187 -0.09499532 -0.01001101 0.20791578 0.03584665 0.10343477
0.0657902 0.13838464 -0.07796605 0.07647931 0.20704046 -0.196173 -0.19806765 -0.094268516
0.21425188 -0.12594774 -0.0598482 0.21594886 0.045034766 0.17652549 0.04453715 0.02934488
-0.09680057 0.1534431 -0.05063935 0.038269628 0.0801154 0.1913132 0.08752073 -0.03172958
0.040437456 -0.0097902985 0.048575107 -0.07112412 0.14515014 0.05456437 0.1308292 -0.0948936
0.48882774 -0.2099216 0.025140777 0.08525855 0.15190695 0.219759 0.11580694 0.26064983
0.3059573 -0.056178678 0.108395375 -0.21538368 -0.3596705 0.11201471 -0.16940305 -0.22637926
-0.19625515 0.09659305 -0.061171725 0.118259005 0.08574981 -0.099217154 0.058988143 0.10577168
-0.24937293 -0.022212131 -0.1591044 -0.08499843 -0.16445908 0.15261754 -0.08406785 -0.020432554
0.06488265 -0.03924518 0.13083608 -0.19428216 0.08670991 -0.07024825 0.06108637 0.20794442
-0.19305386 -0.061103806 -0.0731568 0.09022981 0.024119267 0.21491699 0.04921206 -0.22641033
-0.17993858 0.19785562 0.11010253 -0.15601069 0.069084406 0.04691917 0.07582539 0.038670428

enc.0.bias f4 [10]
00000000: cea7 8b3d bb4c a33d 683d 403d 2bb8 51bd
00000010: 3d86 8c3d 57a4 00be 7407 39be 12cf 313e
00000020: 2d43 24bd 8b1b 3dbd
0.068191156 0.079736196 0.04693356 -0.051201027 0.068615414 -0.1256269 -0.1806925 0.17364147
-0.040103126 -0.046168845

enc.2.weight f4 [10, 10]
00000000: 81d5 943e ce07 e4bd 02f9 d53e 1d5b 61be
00000010: 6694 7b3e d1a9 4d3e 0452 333e 4c47 053d
00000020: a099 82be d2ba 40be b4ee 55bd a1f3 183e
00000030: c96a 013f 4494 a1be 87ae 173e a3c0 7a3e
00000040: ff67 8ebe 40d7 c63e dfce 08be a202 883c
00000050: 22d7 fc3e 52e1 61be c36a 793e b327 b83e
00000060: 1598 dfbe 07e0 fe3d 02c9 9a3e dca3 513e
00000070: 3117 963d 2b5f 89be e431 183f 88da 47be
00000080: f6e0 84bd 6d3f be3d 1ea9 1f3d dba1 6fbd
00000090: ccdd d23d fcc2 e93e 01f8 51bc eb01 91be
000000a0: c0ce 1cbe d012 87bd 4e80 093f f777 c8bd
000000b0: d5b3 1d3f 2417 cabd d259 6b3e a41b 5a3e
000000c0: 880c 07bf f72a 7f3d 2db9 d33c 7d65 9cbe
000000d0: 628b efbd 2471 a3be 1b0e af3d 3199 663e
000000e0: 036d edbd 20a8 88be ea17 8bbd 1176 5d3e
000000f0: 1cba 5bbc f028 123d 904c 023f c632 3fbd
00000100: ce13 4e3e f6e3 1cbe bcfe 333e 60c9 74bd
00000110: b316 0cbe 5834 eb3d c634 703e 1d34 ba3d
00000120: c97b a83d 2150 4c3d c47f b0bd 3095 4c3e
00000130: 2b41 853e c5de 20be 0b97 3ebe f5a9 303e
00000140: 6732 063e d604 3b3e 73e1 f2bd 3716 c43e
00000150: d5f2 0dbe 21a1 863e e6c0 433e a7e0 423e
00000160: 8a38 2fbe 4be6 fe3d 5021 c33d 60bf 543e
00000170: d994 35bd 435c 8dbe 9b91 3bbe 37c3 7f3e
00000180: 0b79 073e b22a 95bd 189d 71be 65b3 233e
0.2906914 -0.11134301 0.4179154 -0.22007413 0.24568328 0.20084311 0.17511755 0.032538697
-0.25507832 -0.18821266 -0.0522296 0.14936687 0.50553566 -0.3155843 0.1481267 0.24487548
-0.27813718 0.38836098 -0.13360165 0.016602818 0.49382883 -0.22058609 0.24357133 0.35967788
-0.43670717 0.124450736 0.30231482 0.20472664 0.07328642 -0.2683042 0.5945113 -0.19516957
-0.064882204 0.09289441 0.038979642 -0.058503967 0.10296211 0.45656574 -0.012815476 -0.28321776
-0.15313244 -0.06595385 0.537114 -0.097885065 0.61602527 -0.09867695 0.22983482 0.21299607
-0.52753496 0.062296834 0.025845135 -0.3054618 -0.11696507 -0.31922257 0.08547612 0.22519375
-0.11593058 -0.2669077 -0.067916706 0.2162707 -0.013411071 0.035683572 0.50898075 -0.04667928
0.20124742 -0.15321335 0.17577642 -0.05976236 -0.13680534 0.11484593 0.23457631 0.09091971
0.08226735 0.049881104 -0.08618119 0.19978786 0.26026282 -0.1570998 -0.18612306 0.17252333
0.13105164 0.18263564 -0.11859407 0.382982 -0.13862164 0.26294807 0.19116554 0.1903101
-0.17111412 0.12446269 0.09527838 0.20776129 -0.044331405 -0.27609453 -0.18317263 0.24976812
0.13229768 -0.07283534 -0.23595083 0.15986402

enc.2.bias f4 [10]
00000000: cf25 a43e 11cd b83e 357a 893e 55bc c53e
00000010: 08bd be3e b8c7 2a3e e2fb bb3e 6116 ebbd
00000020: b70f a63d 53d9 1dbd
0.32060096 0.36093953 0.2685105 0.38620248 0.37253594 0.16677749 0.3671561 -0.11478878
0.08108466 -0.038537335

enc_mean.weight f4 [1, 10]
00000000: 4d00 d53c 12a7 193e 7a41 32be eb37 18be
00000010: bffa 303e 012d 503e 9651 1b3d 90be adbe
00000020: 1670 acbe cf26 e33d
0.02600112 0.15005139 -0.1740779 -0.14865081 0.17283152 0.20329668 0.037919603 -0.3393445
-0.33679265 0.110913865

enc_std.0.weight f4 [1, 10]
00000000: 7bd5 a5be cd81 55be 0559 29be 9733 aebe
00000010: d69f 87be b31c 923d c05f 20be 1215 bc3b
00000020: 98f2 1339 42b1 363e
-0.32389435 -0.20850296 -0.16537865 -0.34023735 -0.26489133 0.0713438 -0.15661526 0.0057398165
0.00014109386 0.17841056

prior.0.weight f4 [10, 10]
00000000: 1ef7 47be b4f4 e83e a376 023f f67f c9be
00000010: 19cc 473e 8868 3fbe 9341 ce3c 93db ce3d
00000020: 1d42 8d3d bda9 d1be 0e4d bbbd 0c4f d23e
00000030: 9e41 a13d 8aec a53d f834 263e dd83 bb3d
00000040: aa69 383d 8981 0dbf 9713 f9bd b1f4 fa3d
00000050: a049 9bbe b693 9dbc 9359 4cbc 79c3 22be
00000060: ff57 1abe e3b7 91bd 66b6 943e c9c0 48be
00000070: 3a3e 7abe 4bd5 513e 5b24 2fbe 87b1 febb
00000080: 15ae 46be 5b8c 43be 16cb 143e 3295 0e3e
00000090: f675 3fbe decc eb3e 9b1d 2dbd ad93 c4be
000000a0: e87e 81bd d152 95bd f575 f53e 9091 f7bc
000000b0: b90f 1fbe 05c0 10be 3417 95be 2585 81bd
000000c0: ef35 49bc c086 99be c0b7 8fbe 9d3e b7bd
000000d0: 5ae1 14be db48 5cbe 5c7f 3cbd 7cc1 62be
000000e0: f40b 7fbe 1850 1b3e eeaa 34be 4907 82bd
000000f0: e718 3b3e c51a 87be c476 873c b658 88bd
00000100: ff88 38be 2ff0 18be d95c 7dbe ffda 96bc
00000110: 4f4a 973e 11ae 8a3e 3e4a 28bd 9cb1 c3be
00000120: ab82 773d 6a89 303e 6aad d1bd 56f7 403d
00000130: a346 0abe 7996 e0bd 9720 5fbe d552 883e
00000140: 3dad 833d 7f3f e5bd 2409 34bd fc8c 6dbe
00000150: b5dc a53e 3186 383e 6079 9cbe dde3 903d
00000160: daeb f9bc 8efb 27be b3b1 1a3e 6ce7 fd3d
00000170: 1f3c 00be f790 77be 96ca 18be 4c20 7c3e
00000180: 8d21 553e 0a77 96be f9e0 8c3e fd3f 3f3e
-0.19527861 0.45499194 0.50962275 -0.3935544 0.19511451 -0.1869222 0.025177753 0.10100474
0.06897376 -0.40949813 -0.091455564 0.41075933 0.078738436 0.08101757 0.16231143 0.0915601
0.045022644 -0.5527578 -0.121619396 0.122537024 -0.3032961 -0.019235473 -0.012472528 -0.1589488
-0.1507263 -0.07115152 0.2904541 -0.19604792 -0.244378 0.20491521 -0.17103712 -0.0077726278
-0.19402345 -0.1909651 0.14530596 0.13924101 -0.18697342 0.4605474 -0.042264562 -0.38393918
-0.063230336 -0.072911866 0.47941557 -0.030220777 -0.15533341 -0.1413575 -0.29119265 -0.063242234
-0.012280925 -0.2998562 -0.28069878 -0.089474894 -0.1453909 -0.21512167 -0.046019897 -0.22144121
-0.24906904 0.15167272 -0.1764333 -0.06349046 0.18271218 -0.2638761 0.016536124 -0.06657545
-0.1802101 -0.14935373 -0.2474245 -0.018414972 0.2954888 0.27085927 -0.041086428 -0.38221443
0.06042735 0.1723992 -0.10238154 0.047110878 -0.13503508 -0.109662004 -0.21789776 0.26625696
0.06429527 -0.111937515 -0.04395403 -0.23198313 0.3239495 0.1801994 -0.30561352 0.070747115
-0.03050797 -0.16404554 0.1510685 0.12397656 -0.12522934 -0.24176393 -0.1492103 0.24621695
0.2081358 -0.29387695 0.2751539 0.18676753

prior.0.bias f4 [10]
00000000: e22d 923e ebd3 c73e 90d5 373e fc94 003e
00000010: 1e90 ab3e 1822 2c3e d6b5 e7bc c176 49bb
00000020: a61e 053e b6ab 063f
0.2855063 0.39028868 0.17952561 0.12556833 0.3350839 0.1680988 -0.028284948 -0.003074095
0.12999973 0.5260576

prior_mean.weight f4 [1, 10]
00000000: 2df0 8b3d 3b51 b13e 92f7 d73e 107e 6cbe
00000010: 4d20 913e 6f08 583e 40a5 943e 9e9b bdbc
00000020: 736f 1bbe 9615 dc3d
0.06832919 0.34632286 0.4218107 -0.23094964 0.28344956 0.21096967 0.29032326 -0.023145493
-0.15179233 0.10746305

prior_std.0.weight f4 [1, 10]
00000000: 8b0b e6be be1c a6be e6b3 0dbe 7201 e2be
00000010: 9efb b7bd 2783 0f3e 13dc 3d3e 54b6 513e
00000020: 4d18 d2be 0520 2ebf
-0.44930682 -0.32443804 -0.13838157 -0.44141728 -0.08983539 0.14014874 0.18540983 0.20479709
-0.41034165 -0.6801761

dec.0.weight f4 [10, 20]
00000000: bc6f 923d 054e 2a3e dd57 053e 9ecd fa3c
00000010: 95ed a83d 0a36 54be 9357 0fbe 5d2d f3bd
00000020: 415b f1bd 3405 3e3e 6833 3a3e 93f1 a5bd
00000030: b9c5 45bc 0dea 233b 1399 213d e768 313e
00000040: 4154 31be 8efb 27bd 24fc b53d 73e8 9e3c
00000050: 1e16 ca3b 2b0a f23d 8d98 fa3d ed50 0d3d
00000060: 13fc bfbd d8b2 013e fcb6 233e 7f7f 1f3b
00000070: 38a5 24be c7cf c2bd 7a1c 5b3e 8beb 913d
00000080: 5e71 09be d1d3 3bbd 6dcd 4a3e c2e5 c73a
00000090: cc5f f23d 7df6 c23d afdb 27be fc5e 2d3e
000000a0: 58ae 6ebd 0817 0abe 81a0 223e d3a8 9a3d
000000b0: cc04 083e 3f97 a2bd 4d4e fabd 42b8 1cbe
000000c0: 1d8c 883c 31d6 d9bb 468e ee3d 411b 39bd
000000d0: 71df eebd 932f 99bd ac07 05be a525 c4bd
000000e0: 5974 c0bc ade4 8fbd adfb 30be 143d 773d
000000f0: e09d 283e ec11 c9bd 3e86 72bd 8c91 94bd
00000100: 0584 203e 8ab5 bdbd 2a98 e53c 57e9 f8bd
00000110: ff09 17be 1fbb 593e 6437 283e e0ba 26bd
00000120: e9b9 a5bd 1106 a1bd 0710 4abe cae3 3e3e
00000130: d00b 48be 8e84 2f3e 8793 efbd 91ae 283e
00000140: f868 01be 7a6f 1a3e 3e74 313e 4c9c a5bc
00000150: cedf 19be 2cc9 07be 7c98 203e eeee 3fbe
00000160: 0572 cbbd 87c5 99b9 ef06 563c 1667 49be
00000170: a1d2 613e 7074 5fbe c302 15bd bc3b 683d
00000180: e927 073e f996 513e f3f1 2b3e fd6b 163e
00000190: 5d96 5abe 9fb0 43be 7e03 09be b5c3 1e3e
000001a0: a911 0b3e 23d1 3fbe 0dd2 33be 924e 99ba
000001b0: 41f8 bcbd c799 453e 8c67 22bc 18e5 5f3e
000001c0: 0086 b2bd e92d 5dbd 6ac5 103e df13 4ebe
000001d0: 38b0 d73d f712 563e 8c23 adbd 74b4 063e
000001e0: e942 c5bc 70ea bebd 5932 21be 2d2d 953d
000001f0: 1c27 953d 9155 2dbe 46d4 7dbd 4c0a 80bd
00000200: 90da 473e 3ae2 36be a199 a7bd 8e7d 64be
00000210: ded6 1dbc c223 26be c105 f23c 76e5 2ebe
00000220: 052a 9d3d 82e0 153e 225d 09be 4107 b7bd
00000230: 2b40 dabd 2eb1 8a38 7bd1 41be 3fdc adbd
00000240: 592f 1bbe 6439 1c3d 30b3 b5bd 9111 3ebd
00000250: 50bb 983d c242 05be 665e 5bbe fe18 0bbe
00000260: 3843 9e3d b783 2abe d7e8 5cba 7a68 54be
00000270: 6043 213d 9ce2 08be c727 2e3e 7e1c 45be
00000280: ca6f cdbd 618b 8b3d 747c 31be 79d2 07be
00000290: 383f db3d 7ef5 11be e906 60be 7ff7 513c
000002a0: c5e6 d93d a85c a83b 0347 03be 98d3 acbd
000002b0: 96bd 213e 6464 9cbd 9332 b53d a05c 87bc
000002c0: b0b2 f4bd b748 6e3c a764 19be 2bad 3e3d
000002d0: 22b1 f23d 78a2 46be b347 54be 321a 84bd
000002e0: 6785 863d 4288 e4bb 9bb3 333d 81d5 263e
000002f0: daf7 cdbd 1e50 793d 99c7 e63b 7baf babd
00000300: d6e8 513e 1014 d23d a7dc 5e3e 283e 62bd
00000310: c801 babd d87f b6bd 9947 e63d cdcb f33d
0.07150218 0.16631325 0.13021798 0.030615624 0.0824844 -0.2072374 -0.1399825 -0.11873887
-0.117849834 0.18556672 0.18183672 -0.08102717 -0.012071067 0.0025011331 0.039452624 0.17325173
-0.17317297 -0.041011386 0.08885983 0.01939795 0.0061671874 0.11818346 0.12236128 0.034501005
-0.09374251 0.1266588 0.15987772 0.0024337468 -0.16078651 -0.09512287 0.21397582 0.071250044
-0.13422152 -0.0458563 0.19804926 0.0015250968 0.11834678 0.0951967 -0.16392396 0.16930765
-0.058271736 -0.13485348 0.1588154 0.07551732 0.1328308 -0.07939004 -0.12221966 -0.15304664
0.016668374 -0.006647848 0.1164823 -0.045192007 -0.11663712 -0.07479777 -0.12991208 -0.095774926
-0.023492979 -0.07026038 -0.17283507 0.060360983 0.16466475 -0.098178715 -0.059210055 -0.07254323
0.15675361 -0.092631415 0.028026659 -0.12153881 -0.14749907 0.21262787 0.1642738 -0.04070556
-0.080921 -0.07862485 -0.19732676 0.18641582 -0.19535756 0.1714041 -0.116980605 0.16472842
-0.12637699 0.15081587 0.17329499 -0.02021613 -0.15026781 -0.13260335 0.15683168 -0.18743488
-0.09933857 -0.00029329603 0.013063177 -0.1966823 0.22053005 -0.21821761 -0.036379587 0.056697592
0.13198818 0.20467748 0.16791515 0.14689632 -0.21346422 -0.19110344 -0.13380238 0.15504344
0.13580956 -0.18732123 -0.17560597 -0.0011696389 -0.09227038 0.19296943 -0.009912383 0.21864736
-0.08716965 -0.05399886 0.14137807 -0.20124768 0.10531658 0.20905672 -0.08454046 0.13154775
-0.024079757 -0.09322059 -0.15741862 0.07284007 0.0728285 -0.16927172 -0.061970018 -0.06251964
0.19516969 -0.17859736 -0.08183599 -0.2231352 -0.009633748 -0.16224578 0.02954376 -0.1707972
0.0767403 0.14636424 -0.13414434 -0.089369304 -0.1065677 6.613355e-05 -0.18927567 -0.08489274
-0.1515478 0.03814067 -0.08872068 -0.04640347 0.07457602 -0.13013747 -0.21422729 -0.13583753
0.07727665 -0.16651808 -0.000842703 -0.2074298 0.039370894 -0.13367695 0.17007361 -0.1924915
-0.10031088 0.06813694 -0.17332631 -0.13263883 0.107054174 -0.14253804 -0.21877636 0.012815355
0.10639719 0.0051379986 -0.12820058 -0.08438796 0.15794978 -0.076363355 0.08847537 -0.01652366
-0.119481444 0.014543704 -0.14979802 0.046551865 0.11850192 -0.19397914 -0.20730476 -0.06450309
0.06568413 -0.006974251 0.043872457 0.16292383 -0.100570396 0.06086742 0.007042837 -0.091155015
0.20498976 0.10257733 0.2176386 -0.055235058 -0.09082371 -0.08911103 0.11244125 0.11904106

dec.0.bias f4 [10]
00000000: 7c27 eebd bad6 ac3d 6cdc 1a3d 9d23 49be
00000010: ca9b b2bb f5cc 09be 9928 cd3d e3c0 46be
00000020: 40ef 85bc 3392 7e3d
-0.11628625 0.08439393 0.037807867 -0.19642492 -0.0054507004 -0.13457091 0.10017509 -0.19409518
-0.016349435 0.062151145

dec.2.weight f4 [10, 10]
00000000: 4b63 12be 9494 2ebe 91d9 6dbe 130b 853c
00000010: bd1d 9e3e 309e 93bd b509 7f3e f714 303e
00000020: e5b9 033d 62ea de3c 03ba 893e bcdb f1bd
00000030: 8d37 72be a193 60bd 6cfa 273e 2152 793e
00000040: e99f 8fbe 3e4e 8abe 10ba 80be 18e3 06be
00000050: 55fa 46be fdee 343c c0a8 abbc a80d 7ebe
00000060: 3431 26bd 63e1 923e 6955 2c3d 3cdc 403e
00000070: 50a0 423e c5c5 36be f6a2 953d 6a79 92be
00000080: d124 87be d29f 8f3e 56c7 5d3e 874c 143d
00000090: d28e 6dbe 8c8f 27be 74ea d93d a362 0ebe
000000a0: a8bf 503e 568c 0c3e 0982 2dbe 2561 87be
000000b0: c6c7 aa3d 8840 11be 0845 383e f29e 943c
000000c0: dafd 8d3e f872 c13d 4012 92be 0310 533e
000000d0: cc08 f8bd cc25 dcbc 4675 40be df7e 083e
000000e0: 414a 893e 2d51 99be d0e4 933e 1644 6bbe
000000f0: 779a 69bb ceb5 6aba c4e6 943e 1465 b2bd
00000100: 5cdc 92bd e6d8 85bd 392c e63d 7563 98bd
00000110: fbba 4bbe 226f 7b3d 8baa a73c 70d0 65be
00000120: d300 72be f045 dd3d 1688 51be 80a9 033e
00000130: 32a8 533e 56eb 5dbe c8cb ed3d 9d72 81bd
00000140: 78a3 5ebc 130f 0bbe 0049 a6bb 8d70 90bd
00000150: 4d55 d13c e599 92be ffa2 f53d ed8a f53d
00000160: 7357 c33d 64a7 8fbe f131 a1be 5ca8 34be
00000170: 6aa9 7a3e 1576 983e 0b80 2c3e 23db 863c
00000180: 8565 8a3e e340 5e3d fe14 103e f0e0 2ebe
-0.1429569 -0.17048866 -0.23227526 0.016240632 0.30882064 -0.07207906 0.24906047 0.17195497
0.032159705 0.027211372 0.26899728 -0.11809489 -0.23654003 -0.05482829 0.16404122 0.24347736
-0.2805169 -0.2701282 -0.25141954 -0.13172567 -0.19431432 0.011043307 -0.02095449 -0.24809897
-0.040574268 0.2868758 0.04207364 0.18834013 0.19006467 -0.1784888 0.07306473 -0.28608257
-0.26395276 0.2805162 0.21658072 0.036205795 -0.23199013 -0.16363353 0.106404215 -0.13904814
0.20385611 0.13725409 -0.16944136 -0.26441303 0.08338885 -0.14184773 0.17995083 0.018142197
0.27732736 0.09445757 -0.2852955 0.20611577 -0.12111053 -0.026873492 -0.18794736 0.13329647
0.26814464 -0.29944745 0.28885508 -0.22975191 -0.0035645047 -0.00089534826 0.2908231 -0.08710685
-0.071709365 -0.06535511 0.112389036 -0.07440845 -0.19895546 0.06138528 0.020467063 -0.22442794
-0.23633127 0.10804355 -0.20462069 0.12857628 0.2066963 -0.21671805 0.11611134 -0.06320689
-0.013588779 -0.13579969 -0.0050746202 -0.07052717 0.02555337 -0.28633037 0.1199398 0.119893886
0.09538164 -0.28057396 -0.31483415 -0.17642349 0.24478689 0.2977759 0.1684572 0.016461914
0.27030578 0.0542611 0.14070508 -0.17077994

dec.2.bias f4 [10]
00000000: 82c9 93be 8e8a 27be 51f7 ac3c f7c6 9b3e
00000010: d2b8 6f3d db7d 513d 9239 1fbe 0308 69bd
00000020: 3cce 64be 9020 533e
-0.28864676 -0.16361448 0.021114023 0.30425236 0.058525868 0.051145416 -0.15549305 -0.056892406
-0.22344297 0.2061789

dec_std.0.weight f4 [1, 10]
00000000: ebed 02be b8d3 a8bc a31d 4e3e 7325 4abd
00000010: 0268 56bd 09ef 22bd 714f 69bd 8e61 02be
00000020: a702 973e 3ae5 3ebe
-0.12786071 -0.020608768 0.20128493 -0.04935212 -0.052345283 -0.039778743 -0.056960527 -0.12732527
0.2949421 -0.1864213

dec_mean.0.weight f4 [1, 10]
00000000: 8c20 6aba cb4b 073a f0ca c1bd 0637 14bd
00000010: d7f8 a0be b9c6 90bd 9a32 c5bd f076 f13c
00000020: ee61 c13c bed7 8ebe
-0.00089312415 0.00051611353 -0.094625354 -0.036185287 -0.3143985 -0.07069153 -0.09628792 0.02947566
0.023606267 -0.27898973

rnn.weight_ih_l0 f4 [30, 20]
00000000: 14cf ac3c 7092 503e f0e2 083e e31a f9bd
00000010: 9cf0 ce3e 3107 7cbe 7ee6 643e 3110 cabc
00000020: 9ff4 963e 4856 89bc 8221 c43e 3d80 b7bd
00000030: c14d ca3e 1485 b83e a0fb 483e 5865 823e
00000040: c0da 36bd 2c5f 8b3e 28e2 54be 2c48 10be
00000050: f901 423d f9f6 a03d 2338 7c3e e09d a13d
00000060: ee24 fabd bfb7 41be b8f0 643e 6f7b 05bf
00000070: 8092 af3e 1f27 81be 4e8a 0a3e c370 17be
00000080: 51f1 d63d 5d2d 673d 3e37 153e 1dcd fabd
00000090: 9d3d 823c 6366 9dbd 2af3 4f3e e3e4 29be
000000a0: 71cf 56be 8188 14be 3cdf 2fbe 8d4c 28be
000000b0: 31ac 2e3e 0c32 45be 7218 9a3e 144d f0be
000000c0: 912e 08be e989 883e 5296 4cbe 1dfd 9c3d
000000d0: 5b21 db3d 5099 2abd f808 8ebe bf4c 25bd
000000e0: f838 32be 72e4 90be 5666 c63d b87e 703e
000000f0: 446c 9ebe 0e0a 933d d740 003e 746a 89be
00000100: 54cf 853d 7d91 52bd 1915 21ba 5d81 a9bd
00000110: 34fb 54be 9539 973e 0608 a63d 8a7b a23e
00000120: 1e8f b73d 716a a23e fb36 633e 5930 60bd
00000130: 1bda 923d 87af dc3d b3eb 2bbe b74e b23e
00000140: 20a4 5e3e 013d 20be 8e30 253e 8bfb 9fbe
00000150: 218d 8fbe 469c 8f3e 0721 6b3e f8ef 00bd
00000160: 9173 1cbe 7be8 25be db46 b53d 40d3 3a3e
00000170: 417c 21bc e259 923e f69c 99bd 8389 3ebe
00000180: 683c 2dbe 191a 12be c30f 6abe 11b5 0dbd
00000190: c315 cc3c 9554 8d3e cfef c9bc effe 74be
000001a0: 4ee3 063e 2562 9abb 6f8c f5bd 2f17 8bbe
000001b0: 1a42 a53d 590e 0f3e 773f 463e d72c 6ebd
000001c0: 632a 883e 05a4 a23e b83e 053e 0590 1f3e
000001d0: 3e76 a9bd dfff ddbd dc11 863e 3848 c73e
000001e0: eb14 e43c 6bfc 18be 21ab 0ebe 00ec adbc
000001f0: 8899 993e c72c 1bbe cbe1 8f3b 5f22 57bd
00000200: 80bf 1d3e bd57 8b3d 06ac 9a3c 2b76 3abe
00000210: 6c38 bc3e 0f3e cc3d 090f 03be 957b 923e
00000220: d6f9 80bd 09df 8c3e 2a6f 043e 893c 943e
00000230: 2d6a 3ebd c4a6 a1be f6c3 3e3e 8608 15be
00000240: 74a6 703e fc38 843e 012a ccbd f899 d33e
00000250: cddf 22bd b204 8a3e ed0f 8d3e 90a6 50be
00000260: 0a9d 04be bc33 133e 9830 753e aedf 2f3e
00000270: f9ea 013e a22d d83d 2056 95be c1d2 7bbd
00000280: 5f74 5c3e f3f6 04be 53ab 79bb 1f9d 54ba
00000290: a08a 823d 72b1 62bd 9252 35be b985 433e
000002a0: 01b5 803d 2782 203e 3036 e9bd fba3 833d
000002b0: ce2f cd3c d385 c9bd da9d 823e e837 093d
000002c0: f57b 593e c069 cebc 5fdf 60be 9360 c1bb
000002d0: c7c3 843e d0ac 503e 8b0e febd 1efb 6d3e
000002e0: 380c b93e e682 c1bc 33f9 7e3e c7ab 163e
000002f0: 8dfc 13bd 486c 2dbe a3a4 e3bd f660 953e
00000300: cc98 a0bd 305e fc3e a4fb f03e e45b ea3e
00000310: bd38 993e c0fb 10bd 6da1 db3e f823 a73e
00000320: f81c 50bd 5776 49be 6335 a13e 683e 663d
00000330: 57ce 53be f74b 363e 97bf 453e 5095 02be
00000340: a61b ccbe ea65 7e3e f308 42be 6825 783d
00000350: 94b3 2c3e 69ab 74be e937 383e 2778 053d
00000360: 499d cb3c ae7f 943e 3946 33be e6f1 dabe
00000370: 989d 30bd b474 51be a068 6f3e c6a0 48be
00000380: c362 29bd 189c 9dbe 0587 dd3d 6afa 1abe
00000390: 465a 313e c9cc 3fbe 1ba1 753e ea2b 55be
000003a0: 388c 34be 2561 5abe 50d7 223d 93a3 1b3d
000003b0: 77fd a0be b7b4 0ebe 2b79 a6bd 63a4 cabd
000003c0: e913 29be f6d9 26be ea69 9fbe e329 69bc
000003d0: 5440 b3be b3ee 9b3e b205 f3ba 2faf 5dbd
000003e0: 5a94 b13c 918e ac3c f4b4 9dbd 8980 c43d
000003f0: e742 433e cc1d 7bbe 1fd7 59be e991 13bd
0.021094836 0.20368361 0.1336782 -0.12163331 0.40417945 -0.24612118 0.22353551 -0.024665924
0.29483506 -0.016764775 0.38306814 -0.089600064 0.39512447 0.3603903 0.19627237 0.25467944
-0.04464221 0.27221048 -0.20789397 -0.14090031 0.047365163 0.07859606 0.2463079 0.078914404
-0.12214075 -0.1891775 0.22357452 -0.5214147 0.34291458 -0.2522516 0.13529322 -0.14789109
0.10495246 0.056439746 0.14571854 -0.122461535 0.01589852 -0.07685544 0.20307603 -0.1659122
-0.2097757 -0.14505197 -0.17175001 -0.16435452 0.17057873 -0.19257373 0.30096775 -0.46933806
-0.13299014 0.26667717 -0.19979218 0.07665465 0.106997214 -0.041650116 -0.27741218 -0.040356394
-0.17404544 -0.2829929 0.09687488 0.2348584 -0.30941975 0.07179652 0.12524734 -0.2683903
0.06533685 -0.05140828 -0.00061448064 -0.08276627 -0.20798951 0.2953612 0.08106999 0.31734878
0.08962844 0.31721833 0.22188942 -0.054733608 0.071705066 0.10775667 -0.16789131 0.3482568
0.21742296 -0.15648271 0.16131803 -0.312466 -0.2803736 0.28048915 0.22961818 -0.031478852
-0.1527846 -0.16201966 0.08851405 0.18244648 -0.009856285 0.285842 -0.07500641 -0.18607144
-0.16917574 -0.14267768 -0.22857575 -0.034596507 0.02491272 0.27603593 -0.024650482 -0.23925374
0.13172647 -0.004711407 -0.11989676 -0.27166125 0.080692485 0.13970317 0.19360147 -0.05814823
0.26594839 0.31765762 0.13012207 0.15582283 -0.08274506 -0.10839819 0.261855 0.38922286
0.027842006 -0.1494004 -0.13932468 -0.021230698 0.29999948 -0.151538 0.0043909303 -0.052523013
0.15405083 0.06803844 0.018880855 -0.1820914 0.36761796 0.09972774 -0.12798704 0.2860991
-0.062976524 0.27513912 0.1293303 0.28952435 -0.046487976 -0.31572545 0.1862944 -0.14554033
0.23500997 0.25824726 -0.09968949 0.41328406 -0.039764214 0.26956707 0.27551213 -0.20376039
-0.1295053 0.14375204 0.23944318 0.17175171 0.12687291 0.10555579 -0.2916727 -0.061480287
0.21528767 -0.12984829 -0.0038096502 -0.0008110571 0.06374097 -0.055345006 -0.1770728 0.1909398
0.06284524 0.15674649 -0.113872886 0.06427761 0.02504721 -0.09839978 0.25511056 0.033500582
0.21238692 -0.02519691 -0.2196021 -0.005901405 0.25930616 0.20378423 -0.124051176 0.23240325
0.36142135 -0.023621988 0.2489975 0.14713965 -0.036129523 -0.16935837 -0.11115386 0.29175538
-0.07841644 0.4929061 0.47066987 0.45773232 0.299261 -0.035396338 0.42896596 0.3264463
-0.050808877 -0.1967405 0.31486043 0.05621186 -0.20684181 0.17802416 0.19311367 -0.1275227
-0.39864844 0.24843565 -0.18948726 0.06058255 0.16865379 -0.23893513 0.17990078 0.03258529
0.024855273 0.29003662 -0.17507257 -0.4276268 -0.043119043 -0.20454675 0.23379755 -0.1959258
-0.041353952 -0.30783153 0.108167686 -0.15134588 0.17319593 -0.18730463 0.23987238 -0.20817533
-0.17631614 -0.2132612 0.03975612 0.037997793 -0.31443378 -0.13936125 -0.0812858 -0.098946355
-0.16511501 -0.16294083 -0.31135494 -0.014231178 -0.35010016 0.3045555 -0.0018541126 -0.054122146
0.021677185 0.021064075 -0.0770053 0.09594829 0.1906849 -0.24523085 -0.21273468 -0.036027823

rnn.weight_hh_l0 f4 [30, 10]
00000000: 9ef9 6d3d dd32 d83e 238f 0dbe 57f7 0a3e
00000010: b74d 993e c038 92be 3cef bdbe 79b1 0abe
00000020: 1b3b 2ebe f001 78bc e5d2 a8bd 2ac2 953e
00000030: 3b8f d63c 6f42 133e f0dc d03e 5384 b33b
00000040: 9dc8 9fbe f5ca 873e e6d7 94be 0bf0 c2bd
00000050: 4de2 f8bc 701c 46be f15b 52be a8a8 833e
00000060: 3c04 97be d52e 1a3e 5924 d6bd 8d0c cabd
00000070: 255d b9bd 5170 81be d4e0 29bd c519 343e
00000080: fc7d 3abe df17 d93d 655a 2d3e 8b8d 2f3e
00000090: c681 8a3d 89f4 463e 6222 95be b355 d43c
000000a0: 693d 203e a729 97be c097 7ebe fdb4 73be
000000b0: 7bbb 213e e05a 2d3e cf4a 54bd 362d a03e
000000c0: 9747 a43e d673 2b3e f5b8 693e 2318 1a3e
000000d0: f4cd fdbc 3095 94be 9086 71bc 03e8 883d
000000e0: 7244 44bd 07ca 1c3d c527 21be c883 ac3d
000000f0: a9d5 83bd 561e cbbd 946b 563d f068 943c
00000100: d43c a13d 1f83 a8be c2d2 48bd 2a88 d23e
00000110: d7b0 e9bd 48f1 0dbe 97fd d83d 8bac c23e
00000120: e930 c83e 6aec ddbd 6c2c 7b3e 27d1 1bbd
00000130: 9223 e4bd d31a 333e 3571 a2be 4507 ba3c
00000140: 4779 9d3e 006b b93e 8233 a83c 6321 52be
00000150: bbc6 1a3e c2be ed3d a674 bb3d f5c1 fabc
00000160: e359 453d bf72 84be 0c94 30be 3a6e d7bc
00000170: 13a9 203e 1ead 46be 198e 163d ffa9 a7be
00000180: 2c85 16be e5f7 ccbd 301a f5be 628a e6bd
00000190: 9254 8b3e aa84 91be 930a 2bbd 7597 cdbd
000001a0: 13c3 8cbe 96c2 ebbd 00fe 4cbe 8216 1d3e
000001b0: 966b 88bd 5f41 c73d 340f 84be c65b c5bd
000001c0: b272 c4be 582b 693e 6974 38be bb18 86bd
000001d0: 777e f5bd a3ba c8bd b44e 983d c82f 3c3e
000001e0: 1553 89be de38 55be b1b1 acbe 8bb3 4a3e
000001f0: ad52 dabc fe1c e23e 440d 663e 2cc3 cfbe
00000200: 628c 493e f79b 813e 6a58 8d3b fb1b 863d
00000210: de88 6cbe 9d3e 7f3e 22ce 033e 35b3 883d
00000220: 5fa8 a93e ca69 a23d 0e3f c43e 7d85 543e
00000230: 70f0 4c3e a698 1fbb 0320 3bbe 0f66 d2bd
00000240: ef69 e53d e9bc 053e 1210 1e3d 826b 633d
00000250: 9fe2 c1bd e1ac 5fbc aa85 2abe 709b 473d
00000260: b996 d1bb 58ea d03d 3507 3fbe 9d6f 98bc
00000270: 3a1f 47bd b826 4d3c 0ef9 003f 1cad a03e
00000280: 443b c7be fa90 d93a 9db0 2cbe b188 1fbe
00000290: 6d43 973d 74ed adbe 95e8 63be 6834 2e3e
000002a0: 78d4 133d 8aa3 58be da6a 2dbd f1e5 3ebd
000002b0: 065f 65be b8e5 d73e 2d4d 18be 8ab5 e43e
000002c0: eb99 673d 5623 8dbe 0897 af3e f922 a53e
000002d0: eb5b d03d 990c b03e 8ee2 8abe 7939 683e
000002e0: 0bfc 853d f7e8 a6bd 18c4 0c3e 9599 7a3d
000002f0: 5ce1 a43d a9d4 acbe 53a7 0ebe 7628 15bd
00000300: c64e 49be 6e64 263e 5cc4 b4bd a8e6 c7bc
00000310: 820d ca3d 8cee f9bd 0329 12be 373f e73c
00000320: 6269 793d c1c3 e53d 6f0c 253e 21a6 80be
00000330: d55c 613e 5665 0b3e b627 34bd 417d 853e
00000340: 7582 08be fbfc e0be 2a26 0a3e 74d1 dc3e
00000350: 0438 61bd caae b33d 64e9 a9bd a7c7 533d
00000360: 7173 b0be d4e3 ec3c d8c0 ddbe 85e5 9abe
00000370: ba76 1c3e a6bb 343e 09b8 81bd 48a5 ee3d
00000380: e73e 073e e039 723e 21b4 743d 49f5 26be
00000390: 00fd 75be 6072 8abe 1a27 d2be 8559 94be
000003a0: 7d32 ebbd dd8d 203d 4681 aabe b0d2 c73d
000003b0: 291e bcbd 348c d8be 7faa 11bd 61c9 8abd
000003c0: a9ac d33c 6d05 5dbd fcb7 d73c 7fdb 9ebe
000003d0: 87bf 543e 7f6a 05be 382f 583e d853 993d
000003e0: cd1a 68bd 20d2 9ebd 46d2 aebe 4009 c2be
000003f0: ce25 7c3d e891 833e 804c 083e d12e 803e
0.05809938 0.42226306 -0.13824134 0.13570915 0.29942104 -0.28558922 -0.37096584 -0.13544263
-0.17014734 -0.015137181 -0.0824335 0.29249698 0.026191344 0.14380811 0.40793562 0.0054784208
-0.31207743 0.2652203 -0.29070967 -0.09518441 -0.030381346 -0.19346786 -0.20542885 0.25714612
-0.29495418 0.15056928 -0.104561515 -0.09865675 -0.09050969 -0.25281003 -0.04147418 0.17587955
-0.18212122 0.10600256 0.16929014 0.17143838 0.067630336 0.1942922 -0.29127795 0.02591977
0.15648426 -0.29523966 -0.24862576 -0.2379951 0.15794174 0.16929197 -0.051829156 0.31284493
0.3208587 0.16743407 0.22824462 0.1504827 -0.030981995 -0.2902007 -0.014741555 0.06684878
-0.047916837 0.038278606 -0.15737827 0.08423573 -0.06437237 -0.099178955 0.05234869 0.018116444
0.0787293 -0.32912537 -0.04902912 0.4111951 -0.11410683 -0.13861573 0.105952434 0.38022265
0.39099815 -0.10836108 0.24528664 -0.03804126 -0.11139597 0.17490701 -0.31726995 0.022708545
0.3075659 0.36214447 0.020532373 -0.20520549 0.15114872 0.1160865 0.09153108 -0.030610064
0.048181426 -0.25868794 -0.17243975 -0.026297677 0.15689497 -0.19401976 0.03675661 -0.32746884
-0.14699239 -0.1000822 -0.47871542 -0.11256863 0.2721296 -0.28421527 -0.04175813 -0.10038654
-0.2749258 -0.11511724 -0.20018768 0.15340617 -0.066611454 0.097292654 -0.2579285 -0.09636645
-0.38368756 0.2277044 -0.18013157 -0.06547686 -0.11987012 -0.09801223 0.074368864 0.18377602
-0.268212 -0.20822474 -0.33729318 0.19795053 -0.026650751 0.44162744 0.22465998 -0.40578592
0.19682458 0.25314304 0.0043135183 0.065483056 -0.23099086 0.24926229 0.12871602 0.06674806
0.3313627 0.07930334 0.38329357 0.20754047 0.20013595 -0.002435246 -0.1827393 -0.102733724
0.11201846 0.13060345 0.038589545 0.05552245 -0.09467053 -0.013652057 -0.16652551 0.04873222
-0.0063961414 0.102009475 -0.18655093 -0.018607909 -0.048613764 0.012521438 0.5038003 0.31382072
-0.38912404 0.0016598993 -0.16864248 -0.15579487 0.07385907 -0.33970225 -0.22256692 0.17012179
0.036091298 -0.21156135 -0.04233823 -0.046606008 -0.2239953 0.4216745 -0.1487319 0.44669753
0.056543272 -0.27566022 0.34294915 0.32253245 0.10173782 0.3438461 -0.27125973 0.22678174
0.06542214 -0.08149903 0.13746679 0.061181623 0.080507964 -0.33755997 -0.13931017 -0.03641554
-0.19658956 0.16249248 -0.08826515 -0.024401978 0.09865858 -0.12203702 -0.14273457 0.028228385
0.060891517 0.11218978 0.16118024 -0.25126746 0.22008069 0.13612875 -0.043983184 0.26072124
-0.13331015 -0.4394301 0.13491121 0.4312855 -0.05498506 0.08773573 -0.08296469 0.051704075
-0.34463075 0.02891723 -0.4331119 -0.30253235 0.15279666 0.17649707 -0.0633393 0.11652619
0.13207589 0.2365489 0.059742097 -0.16304506 -0.24022293 -0.27040386 -0.41045457 -0.28974548
-0.11484239 0.03919779 -0.33301753 0.09756982 -0.0918544 -0.42294466 -0.03556299 -0.06776691
0.025839167 -0.053960253 0.026332848 -0.31026837 0.20776187 -0.13028906 0.21111763 0.07486695
-0.056666184 -0.07754922 -0.341448 -0.37897682 0.06155949 0.25697255 0.13310432 0.25035718
