generative_ts/saves/250925_032402/model_LS4.pth (torch, 246091 bytes, 463 tensors)

encoder.latent.encoder.weight f4 [4, 1]
0	0x3f69aa9a	0.9127594
1	0x3f261200	0.64871216
2	0x3dd3f626	0.103496835
3	0x3e218cc5	0.15776356

encoder.latent.encoder.bias f4 [4]
0	0x3e046284	0.12928206
1	0x3f58c145	0.84669906
2	0x3f80172e	1.0007074
3	0xbf5244ac	-0.82136035

encoder.latent.backbone.d_layers.0.linear.weight f4 [8, 4]
0	0x3df54519	0.1197607
1	0x3d0d0d52	0.03443653
2	0x3d43d7e1	0.0478133
3	0x3eb8fd54	0.36130774
4	0x3e131f86	0.14367494
5	0x3db661db	0.08905383
6	0x3e805e7f	0.25072095
7	0xbf0218f6	-0.5081934
8	0xbd1aa451	-0.03775436
9	0xbebe744c	-0.37198102
10	0xbea108aa	-0.31451923
11	0xbd133f33	-0.035948943
12	0xbce775e5	-0.028254459
13	0x3e8904b6	0.26761407
14	0x3ec9e03b	0.39428887
15	0x3eb885db	0.36039624
16	0xbeacc3be	-0.3374309
17	0x3e4d149d	0.20027395
18	0xbf022475	-0.5083688
19	0x3f01cf6e	0.5070714
20	0x3de903ac	0.113776535
21	0x3e858bb2	0.26083142
22	0xbe665690	-0.22493958
23	0x3ef217a4	0.4728366
24	0xbca8205b	-0.02052324
25	0x3e883947	0.266062
26	0x3e2ac2cb	0.1667587
27	0x3e41940f	0.18904136
28	0x3e5d3644	0.21602732
29	0x3e40f5d7	0.1884378
30	0x3dc4d457	0.09610813
31	0x3e91239c	0.2834748

encoder.latent.backbone.d_layers.0.linear.bias f4 [8, 1]
0	0xbdbf6277	-0.093449526
1	0xbd088545	-0.03333022
2	0x3efa72c4	0.48915684
3	0xbe39e58b	-0.1815397
4	0x3c83c2a2	0.01608402
5	0xbec81bbe	-0.39083666
6	0x3db243d2	0.08704342
7	0xbe4f4178	-0.20239818

encoder.latent.backbone.c_layers.0.layer.D f4 [1, 8]
0	0x3e7c35e1	0.24629928
1	0x3b25a0f4	0.0025272937
2	0xbeae9a0b	-0.341019
3	0x3f47126f	0.777625
4	0x3f1d1fc4	0.61376595
5	0xbea289b1	-0.31745675
6	0x3f796ef2	0.97434914
7	0x3f82f170	1.0229931

encoder.latent.backbone.c_layers.0.layer.kernel.kernel.C f4 [1, 8, 2, 2]
0	0xbe922b33	-0.28548583
1	0x3f967c08	1.1756601
2	0xbfb08a20	-1.3792152
3	0xbd23ee61	-0.040022258
4	0xbe654ddc	-0.22392982
5	0xbeb41332	-0.35170895
6	0x3e3d81f2	0.18506601
7	0xbe105f1d	-0.14098783
8	0x3d213573	0.039357614
9	0x3ecabcec	0.3959726
10	0x3ee81b40	0.4533329
11	0xbf65348e	-0.8953332
12	0x3f59ae40	0.8503151
13	0x3e2b64ae	0.16737625
14	0xc0301378	-2.7511883
15	0xbed437c4	-0.41448796
16	0xbfbbe771	-1.4680005
17	0xbf91fa97	-1.1404599
18	0xbf9496c4	-1.160851
19	0xbf585280	-0.84500885
20	0xbda54432	-0.08069648
21	0x3f16d143	0.5891306
22	0xbf1c3109	-0.6101232
23	0x3ed0829d	0.4072465
24	0xbd10b5f8	-0.03532979
25	0xbf6f0c66	-0.93378294
26	0xbec9b6c8	-0.39397264
27	0x3d729a28	0.059229046
28	0x3eaafd39	0.3339632
29	0xbec6cb4e	-0.38826984
30	0x3fad9f5b	1.3564256
31	0xbf142ff9	-0.578857

encoder.latent.backbone.c_layers.0.layer.kernel.kernel.log_dt f4 [8]
0	0xc0849814	-4.143564
1	0xc0d2b3a3	-6.5844283
2	0xc095aaec	-4.6771145
3	0xc07fc7a4	-3.99656
4	0xc04aca0d	-3.1685822
5	0xc0c219cb	-6.0656486
6	0xc07c467d	-3.9418023
7	0xc01d8022	-2.4609456

encoder.latent.backbone.c_layers.0.layer.kernel.kernel.B f4 [1, 8, 2, 2]
0	0xbdae115e	-0.08499406
1	0xc02b15be	-2.673202
2	0x3f2472ad	0.6423748
3	0x3f1ea220	0.61966133
4	0xbe97ff24	-0.29686844
5	0xc03bf1fe	-2.936645
6	0x3f089ce5	0.533644
7	0x3f3b3070	0.73120785
8	0xbe95f769	-0.2929032
9	0xc029dc63	-2.6540763
10	0x3e92574c	0.28582227
11	0x3f40eeae	0.75364196
12	0xbe8afbb8	-0.2714517
13	0xc029c3a2	-2.6525655
14	0x3f2787bc	0.6544149
15	0x3f36e682	0.71445477
16	0xbe02f92f	-0.12790368
17	0xc05227a1	-3.2836688
18	0x3f3b664b	0.7320296
19	0x3f19c137	0.6006045
20	0xbeb5dabb	-0.3551844
21	0xc02442cf	-2.5665777
22	0x3f4e37b4	0.80553746
23	0x3f5122de	0.8169383
24	0xbe9be581	-0.30448535
25	0xc02a3151	-2.65926
26	0x3f228e82	0.634987
27	0x3f3feb82	0.7496873
28	0xbeca075d	-0.39458743
29	0xc02e0fa4	-2.7197046
30	0x3f164425	0.5869773
31	0x3f47596c	0.7787082

encoder.latent.backbone.c_layers.0.layer.kernel.kernel.P f4 [1, 8, 2, 2]
0	0xbe9081aa	-0.28223926
1	0xc00447d5	-2.0668843
2	0x3ea0c2c2	0.31398588
3	0x3f09b2a3	0.53788203
4	0xbe42ab55	-0.1901067
5	0xbfed328d	-1.8531052
6	0x3ef0dbce	0.47042698
7	0x3efdb2e9	0.4955056
8	0xbe425bc9	-0.18980326
9	0xbfecfb11	-1.8514119
10	0x3f036546	0.51326406
11	0x3ef943a0	0.48684406
12	0xbe80086b	-0.25006422
13	0xc002d4c4	-2.0442362
14	0x3ee73271	0.4515567
15	0x3f05339c	0.52031875
16	0xbea08f6b	-0.3135942
17	0xc0056ab1	-2.084637
18	0x3ec55bc8	0.38546586
19	0x3ef66dcc	0.48130643
20	0xbdb38b1c	-0.087667674
21	0xbfe84e85	-1.8148962
22	0x3f005b14	0.50138974
23	0x3ec438b2	0.38324505
24	0xbe41db33	-0.18931274
25	0xbff672e9	-1.9253818
26	0x3ef3145d	0.47476473
27	0x3f066f89	0.5251394
28	0xbe06ace0	-0.13151884
29	0xbfb98e7c	-1.4496608
30	0x3f1fa480	0.6236038
31	0x3f09ecd0	0.5387697

encoder.latent.backbone.c_layers.0.layer.kernel.kernel.inv_w_real f4 [8, 2]
0	0xbf1bb874	-0.6082833
1	0xbf35e283	-0.71048754
2	0xbf357e83	-0.70896167
3	0xbf35c33d	-0.71001035
4	0xbf410a0c	-0.75405955
5	0xbf453077	-0.77027076
6	0xbf234124	-0.6377127
7	0xbf339de4	-0.70162797
8	0xbf0e3190	-0.55544376
9	0xbf3c8604	-0.7364199
10	0xbf3f8737	-0.74815696
11	0xbf52c47c	-0.8233106
12	0xbf36b27e	-0.7136611
13	0xbf2afc68	-0.6679139
14	0xbf7594f5	-0.95930415
15	0xbf1eccbd	-0.62031156

encoder.latent.backbone.c_layers.0.layer.kernel.kernel.w_imag f4 [8, 2]
0	0xc0910cd2	-4.532815
1	0xbf477feb	-0.7792956
2	0xc092f2c0	-4.5921326
3	0xbf0a308e	-0.5398034
4	0xc0931d58	-4.597332
5	0xbf080a73	-0.53140944
6	0xc0923efb	-4.570188
7	0xbf259dd4	-0.6469395
8	0xc08d8a0a	-4.4231005
9	0xbf229ef0	-0.6352377
10	0xc09693f9	-4.705563
11	0xbedc7120	-0.43055058
12	0xc092619e	-4.574416
13	0xbf04ae93	-0.5182888
14	0xc0916543	-4.543611
15	0xbe851a1e	-0.25996488

encoder.latent.backbone.c_layers.0.layer.output_linear.0.weight f4 [16, 8, 1]
0	0xbd800b7d	-0.06252191
1	0x3da10f54	0.07864252
2	0x3d899964	0.0671871
3	0xbe1ed50c	-0.15510958
4	0xbcdf4292	-0.027253423
5	0xbeb411f9	-0.35169962
6	0x3d8ec7f6	0.06971733
7	0xbe84034c	-0.25783765
8	0x3c076f76	0.00826632
9	0xbce7184c	-0.028209828
10	0x3e4037d2	0.18771294
11	0xbe5f0c52	-0.21782044
12	0xbeb4d033	-0.35315093
13	0x3e235c74	0.15953237
14	0x3eb6ab8f	0.35677764
15	0xbea4161c	-0.32048118
16	0x3e65bfd8	0.22436464
17	0x3eac3e08	0.33641076
18	0x3cdc7847	0.026912821
19	0x3d642ea3	0.05570854
20	0x3eeb4862	0.4595366
21	0xbe17f997	-0.14841305
22	0xbe7cb3d7	-0.24677978
23	0xbcd0497a	-0.025425661
24	0xbe40669a	-0.1878914
25	0x3e3b3d6d	0.18285151
26	0xbf3274d0	-0.6970949
27	0xbe9506da	-0.2910679
28	0x3e93476c	0.28765428
29	0x3e727a4c	0.23679465
30	0xbe2ba2a0	-0.16761255
31	0x3ead123a	0.33802968
32	0x3e8cd9bf	0.27509877
33	0x3c764300	0.0150306225
34	0x3e909eff	0.28246304
35	0xbe0cd0eb	-0.13751571
36	0xbef43095	-0.47693315
37	0x3ea6bd76	0.32566422
38	0x3de78af7	0.11305802
39	0xbe04d342	-0.12971213
40	0x3e4a24fd	0.19740672
41	0x3dc289b2	0.094989195
42	0x3eaca79d	0.3372163
43	0x3e3c51a2	0.18390515
44	0x3d4981fc	0.04919623
45	0x3e8a9d9c	0.2707337
46	0x3eb1ed72	0.3475147
47	0xbe35f9bf	-0.17771052
48	0x3e0d05c8	0.13771737
49	0xbc05524f	-0.0081373
50	0x3c60bc49	0.013716766
51	0xbec168b1	-0.37775186
52	0x3f323e12	0.6962596
53	0xbe010f7a	-0.1260356
54	0xbd6e2ee7	-0.0581502
55	0xbe2c5cfa	-0.16832343
56	0x3db31438	0.08744091
57	0xbcfbe856	-0.030750435
58	0x3ee6ac7b	0.45053467
59	0xbd017d71	-0.03161377
60	0x3a5debc5	0.00084656134
61	0x3c73434b	0.014847587
62	0xbe090088	-0.13379109
63	0xbe13a29e	-0.14417502
64	0xbe35f263	-0.17768244
65	0xbd96aa33	-0.07356682
66	0xbeccc68d	-0.39995232
67	0xbc0c50a6	-0.00856415
68	0xbe4422f2	-0.19153956
69	0x3de8186d	0.11332784
70	0x3e806531	0.25077203
71	0xbe1529f9	-0.14566793
72	0x3da9924e	0.082798585
73	0xbdc46b6f	-0.09590804
74	0x3ec108f2	0.37702137
75	0x3de9d884	0.1141825
76	0x3e44c837	0.19217001
77	0xbe2116a6	-0.15731296
78	0xbe928a3e	-0.28621095
79	0xbe5b799c	-0.21433109
80	0xbe6e3ac8	-0.23264611
81	0x3e54fb96	0.20799097
82	0x3e9ea93b	0.30988488
83	0x3ca16570	0.01970169
84	0xbe9df17a	-0.30848294
85	0xbe87d659	-0.26530722
86	0xbda7556d	-0.081705905
87	0x3dd2e915	0.10298363
88	0xbec9168c	-0.39275014
89	0x3e04eb17	0.12980305
90	0x3f8be3cd	1.0928894
91	0xbd3ea581	-0.046544556
92	0xbed178c7	-0.40912458
93	0x3e836661	0.25664046
94	0x3ec12c32	0.3772903
95	0xbed9742f	-0.42471454
96	0x3e6d52aa	0.23176065
97	0x3ea7616b	0.32691512
98	0x3e98c29e	0.2983598
99	0x3e184278	0.14869106
100	0x3e35218e	0.17688581
101	0xbe59440b	-0.21217363
102	0xbe9dee5c	-0.30845916
103	0x3e08308b	0.13299768
104	0xbde6ff9d	-0.11279223
105	0x3ca544de	0.02017444
106	0x3f0db7ac	0.55358386
107	0x3e8e63d5	0.2781054
108	0xbe9cb610	-0.30607653
109	0x3ccc3400	0.02492714
110	0x3ed925e3	0.42411718
111	0xbe93832b	-0.2881101
112	0xbeb56a43	-0.35432634
113	0xbd04a821	-0.032386903
114	0x3ea057f9	0.31317118
115	0xbec89ccb	-0.39182124
116	0x3e9b01ee	0.3027491
117	0xbd2a7a51	-0.041620556
118	0xbe26811f	-0.16260193
119	0x3df733de	0.1207044
120	0xbea631f9	-0.3246
121	0xbcb79f92	-0.022414956
122	0x3e9ad379	0.30239466
123	0xbe720398	-0.23634183
124	0xbf14d598	-0.5813842
125	0xbe13b4e6	-0.14424476
126	0xbda865fe	-0.082225785
127	0xbf12295d	-0.57094365

encoder.latent.backbone.c_layers.0.layer.output_linear.0.bias f4 [16]
0	0x3e85f3dc	0.26162612
1	0x3e752687	0.23940478
2	0xbd9b58a0	-0.07585263
3	0xbe74b25c	-0.23896164
4	0x3e1caf4d	0.15301247
5	0x3dbedb02	0.09319116
6	0x3ea4ffeb	0.322265
7	0x3d65ab7c	0.056071743
8	0x3ec0dff2	0.37670857
9	0x3d881bef	0.06645953
10	0x3e8ab720	0.27092838
11	0xbdeed28f	-0.116612546
12	0xbe14e910	-0.14542031
13	0x3ea115c5	0.3146192
14	0xbdb378cc	-0.087632746
15	0x3e6a14c7	0.22859488

encoder.latent.backbone.c_layers.0.norm.weight f4 [8]
0	0x3f804180	1.0019989
1	0x3f8327b5	1.0246493
2	0x3f86e0ee	1.0537393
3	0x3f81b39e	1.013294
4	0x3f9f5765	1.2448546
5	0x3f860333	1.0469726
6	0x3f88eeb4	1.0697846
7	0x3f62a5bc	0.8853414

encoder.latent.backbone.c_layers.0.norm.bias f4 [8]
0	0xbafef96a	-0.0019452993
1	0x3d2117a0	0.03932917
2	0x3e32da3f	0.17466067
3	0xbd5d97a6	-0.0540997
4	0xbca4c952	-0.020115528
5	0xbcaaca80	-0.020848513
6	0x3daa5a37	0.08317988
7	0x3d8e5382	0.069495216

encoder.latent.backbone.c_layers.1.layer.ff.0.0.weight f4 [16, 8]
0	0x3e870d73	0.26377448
1	0x3e31d3f3	0.17366008
2	0xbdb0bfc5	-0.08630327
3	0x3e0b7d1c	0.13621944
4	0xbdb8ab97	-0.09017103
5	0xbe0b952c	-0.13631123
6	0x3de04fc2	0.109527126
7	0x3e1b08f1	0.1514013
8	0xbe87fac5	-0.2655851
9	0x3eb6455d	0.35599795
10	0xbd41afdb	-0.04728685
11	0x3ca93628	0.020655707
12	0xbea36b89	-0.3191798
13	0xbbdd7e1c	-0.006759418
14	0xbea13623	-0.31486616
15	0xbe9192f7	-0.28432438
16	0xbe9ecb86	-0.3101465
17	0xbdf7f0a9	-0.12106449
18	0x3e6cff0a	0.23144165
19	0x3d6e713d	0.05821346
20	0xbd9ff684	-0.07810691
21	0x3df17c0f	0.117912404
22	0xbe210397	-0.15724026
23	0x3cd7f2a1	0.026360812
24	0xbe4929c5	-0.1964484
25	0xbd92eb3e	-0.07173775
26	0x3e19eb0f	0.15031074
27	0xbec946a1	-0.39311698
28	0x3d73eb34	0.05955048
29	0x3c8651c4	0.01639641
30	0x3e1d75ee	0.15377018
31	0xbcb72dbd	-0.022360677
32	0xbe4d90e1	-0.20074798
33	0x3e2ae1c7	0.1668769
34	0xbc9443bd	-0.018098706
35	0xbebcbba3	-0.36861905
36	0xbbbe22d6	-0.0058024926
37	0xbde7d252	-0.11319412
38	0x3e852902	0.2600785
39	0x3eb7fd81	0.35935596
40	0x3de107c6	0.10987811
41	0xbe9bf992	-0.30463845
42	0xbe7d3a58	-0.24729288
43	0xbea867fb	-0.3289183
44	0x3dbe759b	0.09299775
45	0xbdac8df8	-0.08425516
46	0xbe961715	-0.29314485
47	0x3e5eda52	0.2176297
48	0xbeb466d0	-0.3523469
49	0x3c6e5b25	0.014548098
50	0x3eae011d	0.33985224
51	0xbd202d51	-0.039105717
52	0x3e8a7a80	0.27046585
53	0xbd96eed4	-0.073697716
54	0x3e27364e	0.1632931
55	0xbd45c587	-0.04828408
56	0x3d943e71	0.07238472
57	0xbebdf706	-0.37102526
58	0x3e85e649	0.26152256
59	0xbdfc1478	-0.123085916
60	0x3eafeb09	0.34359005
61	0xbe1ef0d4	-0.15521556
62	0xbeed1620	-0.46305943
63	0xbe7e5bcc	-0.24839705
64	0x3bd5aa33	0.0065205335
65	0xbeb6e5f6	-0.3572232
66	0xbe080326	-0.13282451
67	0x3ddbac3f	0.10726213
68	0xbe7d3a02	-0.2472916
69	0x3eacd14b	0.33753428
70	0xbe575a78	-0.21030605
71	0x3e229e4b	0.15880696
72	0xbe8358ca	-0.25653678
73	0x3d4ec8fd	0.050484646
74	0x3ebea1a0	0.37232685
75	0x3db5a262	0.08868863
76	0xbdf4a786	-0.11946015
77	0xbcb634b6	-0.022241931
78	0x3c7d7cf4	0.015471686
79	0x3e16a019	0.1470951
80	0x3e474fc0	0.19464016
81	0xbdc11284	-0.0942736
82	0x3e992a78	0.29915214
83	0x3e7cc3c8	0.2468406
84	0xbe55bd9f	-0.20873116
85	0xbec38c4b	-0.38192973
86	0xbe365574	-0.17806035
87	0x3e05f77e	0.13082692
88	0xbe954efb	-0.2916182
89	0x3dc89793	0.097945355
90	0xbe90348c	-0.2816509
91	0xbd25d087	-0.04048207
92	0xbdcc0188	-0.099612296
93	0xbe99edf1	-0.30064347
94	0xbeae247c	-0.3401221
95	0x3d1e9f91	0.038726393
96	0xbe9afb99	-0.3027008
97	0xbe239407	-0.15974437
98	0xbd9ac9d5	-0.07558028
99	0x3e72d1f8	0.23712909
100	0xbe85f008	-0.26159692
101	0x3e8300f4	0.25586665
102	0xbe52381f	-0.20529221
103	0xbdf1600a	-0.11785896
104	0xbe43086b	-0.1904618
105	0xbe93fb69	-0.28902748
106	0xbe6733a9	-0.225783
107	0xbe8006da	-0.25005227
108	0xbe645da6	-0.22301349
109	0x3df40fd4	0.119170815
110	0xbc29ca94	-0.01036324
111	0xbe15943e	-0.14607331
112	0xbd959bc1	-0.07305098
113	0xbc9c379f	-0.019069491
114	0x3e871f6b	0.26391158
115	0xbc08d773	-0.008352148
116	0x3e327fe6	0.17431602
117	0x3e7cb07d	0.246767
118	0x3e03691e	0.12833068
119	0x3e8dc012	0.276856
120	0x3e6d0f6d	0.23150416
121	0xbecfaa9e	-0.40559858
122	0x3e5b5a16	0.21421084
123	0x3ea948bf	0.33063313
124	0x3e523366	0.2052742
125	0x3e3f68b0	0.18692279
126	0xbe81f1bc	-0.2537974
127	0x3ccc1121	0.024910511

encoder.latent.backbone.c_layers.1.layer.ff.0.0.bias f4 [16, 1]
0	0xbd8e7cee	-0.06957422
1	0x3d4cff9e	0.050048463
2	0xbbba4b6c	-0.0056852605
3	0x3df14085	0.11779884
4	0xbec82474	-0.39090312
5	0xbe12b6af	-0.14327501
6	0x3e68ef31	0.22747494
7	0x3e121768	0.14266741
8	0xbe9338f4	-0.2875439
9	0xbe6f575d	-0.2337317
10	0x3d40b5ed	0.047048498
11	0x3e5c756f	0.21529172
12	0x3e940af0	0.28914595
13	0x3df82a33	0.12117424
14	0x3e30bc2c	0.17259282
15	0xbe561192	-0.2090514

encoder.latent.backbone.c_layers.1.layer.ff.2.weight f4 [8, 16]
0	0x3dcd219e	0.100161776
1	0xbd0e6302	-0.03476239
2	0xbe2656bd	-0.16244026
3	0xbe569de2	-0.20958665
4	0xbe335d8b	-0.17516153
5	0xbcaa4c26	-0.020788264
6	0xbe67e300	-0.22645187
7	0xbcf7a09e	-0.030227955
8	0xbcdcff02	-0.026977066
9	0xbdf4bf09	-0.119504996
10	0x3dabd3c3	0.0839
11	0xbe235651	-0.15950896
12	0xbdaeecb6	-0.08541243
13	0xbdc55504	-0.09635356
14	0x3ddfd868	0.10929948
15	0x3e8fb993	0.2807127
16	0x3d90b5ad	0.07065902
17	0x3e524e4c	0.2053768
18	0xbe7c5bf6	-0.24644455
19	0xbddbc942	-0.10731746
20	0xbe477ff1	-0.194824
21	0xbe828752	-0.25493866
22	0x3e34af59	0.17645015
23	0xbdc4cf17	-0.09609812
24	0x3e445530	0.19173121
25	0xbda9b80f	-0.082870595
26	0x3e1032cf	0.14081882
27	0x3e210178	0.15723217
28	0x3d58e346	0.05295112
29	0xbd820328	-0.06348258
30	0x3d9b6ef2	0.075895205
31	0xbe868bd8	-0.26278567
32	0x3e7193a5	0.23591478
33	0x3e92a810	0.28643847
34	0x3c7722ad	0.015083951
35	0xbe0ff6eb	-0.14059035
36	0xbe48ba25	-0.19602259
37	0xbcadb908	-0.021206394
38	0xbda94484	-0.082650214
39	0xbe921c8e	-0.2853741
40	0x3dfc4abd	0.12318943
41	0x3e375a87	0.17905627
42	0x3e99465f	0.299365
43	0xbde05e93	-0.109555386
44	0x3e76ef7e	0.24114797
45	0x3de9be38	0.114132345
46	0xbe57cd87	-0.21074496
47	0xbdfaf4f5	-0.12253753
48	0x3e314407	0.17311107
49	0x3d16dfa5	0.036834378
50	0xbd395ce5	-0.045254607
51	0x3e19a407	0.15003978
52	0x3de63c2f	0.11241948
53	0x3da56f7f	0.08077907
54	0x3e30fa3d	0.17282958
55	0x3cb066c7	0.021533383
56	0x3d950d9e	0.07277988
57	0x3e506700	0.20351791
58	0x3ed55ef2	0.41674
59	0x3e1870de	0.14886805
60	0xbdbd482b	-0.092422806
61	0xbda462da	-0.08026667
62	0xbb774fde	-0.0037736814
63	0xbe6bd0bc	-0.23028845
64	0xbde1f51f	-0.11033081
65	0x3e5d149b	0.21589892
66	0xbe5ed62c	-0.21761388
67	0xbe8f1e00	-0.27952576
68	0xbe0407d0	-0.12893605
69	0x3d13a279	0.036043618
70	0x3e0e6b69	0.13908161
71	0x3ea9c5b6	0.33158654
72	0x3c6d3a96	0.0144793
73	0xbe0b3e95	-0.13598092
74	0xbe2f6b86	-0.1713086
75	0xbe460c02	-0.19340518
76	0x3ead9c1f	0.33908173
77	0x3e49d55d	0.19710298
78	0xbd30fecb	-0.04321174
79	0x3e5df1ac	0.21674222
80	0xbd2a9a63	-0.04165114
81	0x3e4ceb5d	0.20011659
82	0x3df44001	0.1192627
83	0xbdd92e78	-0.10604566
84	0xbdcb8ae4	-0.09938601
85	0xbe90a9d5	-0.28254572
86	0x3dfd8963	0.1237972
87	0x3d649dd2	0.05581457
88	0xbdf35451	-0.118813165
89	0xbd9ff85b	-0.07811042
90	0x3e18c1c1	0.14917661
91	0x3d878688	0.06617457
92	0xbe874015	-0.26416078
93	0xbdd0ec3a	-0.10201307
94	0x3e0ff2f8	0.14057529
95	0x3d8663b6	0.06561987
96	0xbe15b760	-0.14620733
97	0xbe96a4f3	-0.2942272
98	0x3d05aaef	0.032633718
99	0x3e676ee5	0.22600897
100	0x3e7e7e5b	0.24852888
101	0x3e62da8b	0.2215368
102	0x3d777838	0.060417384
103	0x3e3a96c8	0.18221581
104	0xbe13f551	-0.1444905
105	0x3e47a377	0.1949595
106	0xbc73a301	-0.014870406
107	0x3dda13f2	0.106483355
108	0x3db4493e	0.08803032
109	0xbde05e09	-0.10955436
110	0xbdb5364b	-0.08848246
111	0x3dd7659f	0.105174296
112	0xbe386d7b	-0.18010513
113	0x3d5d9126	0.054093502
114	0xbde4dc9b	-0.1117489
115	0xbe129f7f	-0.14318655
116	0xbdd4d588	-0.1039229
117	0xbe6ab84a	-0.22921863
118	0xbe6e8ff6	-0.23297104
119	0x3e1980a4	0.14990479
120	0x3cd640f9	0.026154028
121	0xbe5e453c	-0.21706098
122	0xbee4d58f	-0.44694182
123	0x3e4fbb3e	0.20286271
124	0xbe500c6e	-0.20317242
125	0x3d8b7942	0.068102375
126	0xbdfc3069	-0.12313921
127	0x3dfe5274	0.124180704

encoder.latent.backbone.c_layers.1.layer.ff.2.bias f4 [8, 1]
0	0x3d5d9612	0.054098196
1	0x3dfaae38	0.12240261
2	0x3a56a463	0.00081879477
3	0xbce76585	-0.02824665
4	0xbe7556d0	-0.23958898
5	0xbe00f007	-0.12591563
6	0xbe32c6b5	-0.17458613
7	0x3d05f41c	0.032703504

encoder.latent.backbone.c_layers.1.norm.weight f4 [8]
0	0x3f7b13a8	0.9807687
1	0x3f81acbc	1.0130839
2	0x3f7bc31c	0.9834459
3	0x3f88ee1a	1.0697663
4	0x3f80aa37	1.0051945
5	0x3f7b38f7	0.98133796
6	0x3f7adfa5	0.97997504
7	0x3f85d46d	1.0455452

encoder.latent.backbone.c_layers.1.norm.bias f4 [8]
0	0x3d1d9cbb	0.038479548
1	0x3ca91a0c	0.020642303
2	0x3b80d279	0.0039313403
3	0x3cf7ab34	0.030233003
4	0xbd2bcbe7	-0.041942503
5	0x3d058017	0.03259286
6	0xbcf41dbf	-0.02979934
7	0xbc806d6c	-0.015677176

encoder.latent.backbone.c_layers.2.layer.D f4 [1, 8]
0	0xbf846828	-1.0344286
1	0xbf1f53e8	-0.62237406
2	0x3e63e116	0.22253832
3	0xbd9e0c68	-0.0771721
4	0x3fa3b9ca	1.2791073
5	0xbf7d8353	-0.9902851
6	0xbeb911c0	-0.36146355
7	0x3ebf7c8e	0.37399715

encoder.latent.backbone.c_layers.2.layer.kernel.kernel.C f4 [1, 8, 2, 2]
0	0x3e9f7d56	0.3115031
1	0xbe980759	-0.29693106
2	0x3ddb37b9	0.10703988
3	0xbe753fed	-0.23950167
4	0xbcbe7ee1	-0.02325386
5	0xbf03d6b8	-0.5149951
6	0xbe1bb201	-0.15204622
7	0x3dff1189	0.124545164
8	0xbf4aea67	-0.7926392
9	0xbeaee91a	-0.34162217
10	0xbf09dbbf	-0.5385093
11	0xbe08bc29	-0.13353027
12	0xbfbf35fd	-1.4938351
13	0xbd001cf5	-0.031277616
14	0xbd8b32da	-0.067968085
15	0x3eb33e30	0.35008383
16	0x3e8a9b32	0.2707153
17	0x400e5687	2.2240312
18	0x3f8e6c5d	1.112682
19	0xbe2649c8	-0.16239083
20	0xbe7abdfd	-0.24486537
21	0xbe5dc6e9	-0.2165791
22	0xbe882d49	-0.2659705
23	0x3f9e28a5	1.2356154
24	0x3ebfc553	0.37455234
25	0xbcb98b9f	-0.022649584
26	0xbdae5ea9	-0.08514149
27	0x3fb225f2	1.391783
28	0xbfc273bb	-1.5191568
29	0xbf480c07	-0.7814335
30	0xbf5b4bd5	-0.85662585
31	0x3eefeafe	0.46858972

encoder.latent.backbone.c_layers.2.layer.kernel.kernel.log_dt f4 [8]
0	0xc0d39c3a	-6.6128206
1	0xc0d226de	-6.5672445
2	0xbfe14421	-1.7598916
3	0xc0855b3f	-4.1673884
4	0xc06384a7	-3.5549715
5	0xc03df616	-2.968145
6	0xc09e1023	-4.93947
7	0xc02adae7	-2.6696107

encoder.latent.backbone.c_layers.2.layer.kernel.kernel.B f4 [1, 8, 2, 2]
0	0xbe1d4c2a	-0.15361086
1	0xc02e4bab	-2.7233684
2	0x3f3e97f3	0.74450606
3	0x3f1929d0	0.59829426
4	0xbeb9059b	-0.3613709
5	0xc025c66e	-2.5902362
6	0x3f16eb1d	0.58952504
7	0x3f285366	0.65752256
8	0xbe87dc9e	-0.26535505
9	0xc05fada0	-3.4949722
10	0x3f231cd3	0.6371586
11	0x3f7cf2a8	0.98807764
12	0xbe8f591e	-0.2799768
13	0xc0380224	-2.8751307
14	0x3f364b8a	0.71209013
15	0x3f322ad8	0.69596624
16	0x3eec446f	0.4614596
17	0xc04df48a	-3.2180505
18	0x3f60e527	0.8784966
19	0x3fa8724f	1.3159884
20	0xbed048d9	-0.40680578
21	0xc037db9a	-2.8727784
22	0x3f2faca5	0.6862281
23	0x3f4c45b5	0.79793864
24	0xbec264b3	-0.37967452
25	0xc0327d6d	-2.7889054
26	0x3f09efd4	0.53881574
27	0x3f5cf99b	0.8631837
28	0xbd83c088	-0.06433207
29	0xc0524458	-3.2854214
30	0x3f324102	0.69630444
31	0x3f542d5b	0.82881707

encoder.latent.backbone.c_layers.2.layer.kernel.kernel.P f4 [1, 8, 2, 2]
0	0xbeae1d89	-0.3400691
1	0xbfdaf73f	-1.7106704
2	0x3ea20a9b	0.31648716
3	0x3f236cf9	0.63838154
4	0xbe84ec12	-0.25961357
5	0xbff3ca15	-1.9046046
6	0x3f03db7a	0.5150677
7	0x3f115d84	0.5678332
8	0x3d9e5468	0.07730943
9	0xbffb2bf7	-1.9622792
10	0x3f16cd4c	0.5890701
11	0x3eea48e1	0.45758727
12	0xbe6c843e	-0.23097321
13	0xbfe97566	-1.8238952
14	0x3eb7e080	0.35913467
15	0x3f04af98	0.51830435
16	0xbe9f7156	-0.31141156
17	0xc00beb94	-2.1862535
18	0x3e878247	0.2646658
19	0x3e85cdba	0.2613352
20	0xbdd7bbd4	-0.10533872
21	0xbfdf94ff	-1.7467345
22	0x3f1bd39e	0.6086978
23	0x3ed7f278	0.42177176
24	0xbda667bc	-0.081252545
25	0xbff3eab7	-1.9056004
26	0x3e480fe6	0.19537315
27	0x3e809d0d	0.2511982
28	0x3e05c2a9	0.13062538
29	0xc015cc49	-2.3405936
30	0x3f23142b	0.6370265
31	0x3f12c51b	0.5733201

encoder.latent.backbone.c_layers.2.layer.kernel.kernel.inv_w_real f4 [8, 2]
0	0xbf12053a	-0.57039225
1	0xbf142169	-0.5786348
2	0xbf45b33e	-0.77226627
3	0xbf221198	-0.63308096
4	0xbf214bf5	-0.63006526
5	0xbedfe36a	-0.4372819
6	0xbf399950	-0.7249956
7	0xbf2c3aab	-0.6727702
8	0xbe92bc05	-0.28659073
9	0xbf740f48	-0.9533582
10	0xbf53d269	-0.82742935
11	0xbf45a18b	-0.7719962
12	0xbf35f838	-0.71081877
13	0xbf8dce45	-1.1078573
14	0xbec043ad	-0.37551633
15	0xbeedd9ae	-0.4645514

encoder.latent.backbone.c_layers.2.layer.kernel.kernel.w_imag f4 [8, 2]
0	0xc08f04bd	-4.4693284
1	0xbf2e00ed	-0.6797016
2	0xc0955a48	-4.6672707
3	0xbf1edd51	-0.6205645
4	0xc079e9e8	-3.9049015
5	0xbe8dd583	-0.2770196
6	0xc08e8196	-4.4533186
7	0xbf160178	-0.5859599
8	0xc06481b6	-3.570417
9	0xbe80d950	-0.25165796
10	0xc097c5a6	-4.742877
11	0xbee4c86f	-0.4468417
12	0xc08f4a85	-4.4778466
13	0xbe8eaa9c	-0.2786454
14	0xc05e6216	-3.4747367
15	0xbe6dc397	-0.23219143

encoder.latent.backbone.c_layers.2.layer.output_linear.0.weight f4 [16, 8, 1]
0	0xbe7bce9c	-0.24590534
1	0x3ebbeb83	0.3670312
2	0x3e0fe833	0.1405342
3	0x3eaa07bb	0.33209023
4	0x3f37154e	0.71516883
5	0xbe512fe0	-0.20428419
6	0xbe2f45d5	-0.17116483
7	0x3f079066	0.5295471
8	0x3e8cf748	0.2753241
9	0x3e574d08	0.21025479
10	0xbeeadfd0	-0.4587388
11	0xbda9345c	-0.0826194
12	0xbeacda3a	-0.33760244
13	0xbe63f7b6	-0.22262463
14	0xbe8dcabe	-0.27693743
15	0xbe63fc56	-0.22264227
16	0xbea0a49f	-0.31375596
17	0xbe034917	-0.1282085
18	0xbe8a6501	-0.27030185
19	0x3e44bbd4	0.19212276
20	0xbef1e451	-0.47244504
21	0xbe10513b	-0.14093487
22	0xbdd34bf3	-0.103172205
23	0x3ede56d6	0.43425626
24	0x3e4e0c83	0.2012196
25	0xbd8be517	-0.06830805
26	0x3f2012b4	0.6252854
27	0x3e6ab847	0.22921859
28	0xbe25e1bc	-0.16199392
29	0xbe59692f	-0.2123153
30	0x3de586b4	0.11207333
31	0xbf7880b7	-0.97071403
32	0x3e8d43a2	0.27590662
33	0xbe4d6354	-0.20057422
34	0xbe9a0353	-0.3008066
35	0x3d519c8d	0.05117469
36	0xbf178372	-0.59184945
37	0xbeb217ea	-0.3478387
38	0xbeb3e277	-0.35133716
39	0x3dcc556b	0.0997723
40	0x3dae8c9a	0.08522911
41	0xbe44d96a	-0.19223562
42	0xbf44e23e	-0.7690772
43	0xbe797ee7	-0.24364816
44	0x3cf0ae87	0.029380096
45	0x3b85a1f9	0.0040781465
46	0x3e8552c8	0.2603972
47	0xbcac6d01	-0.02104807
48	0xbcb7b0ef	-0.022423236
49	0x3e2bd6dc	0.16781181
50	0x3f202fe9	0.62573105
51	0x3e969e2e	0.29417557
52	0x3e8b279e	0.27178663
53	0xbe9a1343	-0.3009282
54	0x3e34e3d2	0.17665032
55	0xbee49096	-0.4464156
56	0xbd4bd368	-0.04976216
57	0x3e81826d	0.2529482
58	0xbe6ce0d3	-0.23132639
59	0x3ead62d0	0.3386445
60	0xbeecae7a	-0.46226865
61	0x3e002a79	0.12516202
62	0x3eac77cd	0.3368515
63	0x3edb55a3	0.42838773
64	0xbd87fe9b	-0.06640359
65	0x3e95aa5c	0.29231536
66	0xbea4bf88	-0.32177377
67	0x39e84ca4	0.0004430759
68	0xbf2a3dea	-0.66500723
69	0x3e128671	0.14309098
70	0x3caf5b94	0.021405973
71	0xbed3ef76	-0.41393632
72	0xbe540d65	-0.20708235
73	0x3e23181f	0.1592717
74	0x3decdb24	0.11565235
75	0xbe89546c	-0.2682222
76	0xbfb3f122	-1.4057963
77	0xbeefeb12	-0.46859032
78	0x3ca7b488	0.020471826
79	0x3d0e03ee	0.034671716
80	0xbdb1b87d	-0.086777665
81	0xbebb0f7f	-0.3653526
82	0x3f09b099	0.5378509
83	0xbe40a7df	-0.18814038
84	0x3dfc8461	0.12329937
85	0xbc51a52e	-0.01279573
86	0xbd993a14	-0.07481781
87	0xbe5dc6ea	-0.21657911
88	0xbe9252ef	-0.28578898
89	0x3e518b78	0.2046336
90	0xbf39fe79	-0.7265392
91	0x3b065336	0.0020496375
92	0x3cc9cc36	0.024633508
93	0x3e9feb28	0.31234097
94	0x3e7d2348	0.2472049
95	0x3f2c4a13	0.6730053
96	0x3e85039e	0.25979322
97	0xbe862bb5	-0.2620522
98	0x3ea95803	0.3307496
99	0x3dced8f7	0.100999765
100	0xbf8e336e	-1.1109445
101	0xbd372e60	-0.04472196
102	0xbde659ab	-0.112475716
103	0x3e8bfe49	0.27342442
104	0x3de8cbee	0.113670215
105	0xbe7bbc5a	-0.24583569
106	0xbf85a85c	-1.0442004
107	0xbd056b71	-0.032573167
108	0x3edffa57	0.43745682
109	0x3e96e3df	0.29470727
110	0xbbaccc73	-0.0052733957
111	0xbe6c6a0e	-0.23087332
112	0xbea53263	-0.32265005
113	0xbedb3afe	-0.42818445
114	0xbf73a1e4	-0.951689
115	0x3ee4a7b9	0.44659212
116	0xbece3fd0	-0.4028306
117	0xbe21b7ed	-0.15792818
118	0x3ea561f2	0.3230129
119	0x3ea227ad	0.31670895
120	0x3ee4f40a	0.44717437
121	0x3eaaf1c8	0.3338759
122	0x3f308aad	0.689616
123	0xbc2a94ac	-0.010411423
124	0xbe17df6b	-0.14831321
125	0x3e92b526	0.2865383
126	0xbe655a69	-0.2239777
127	0xbf1ef62f	-0.62094396

encoder.latent.backbone.c_layers.2.layer.output_linear.0.bias f4 [16]
0	0x3e9a375f	0.3012037
1	0x3e46e61b	0.19423716
2	0x3e8a08f8	0.26959968
3	0xbebbc780	-0.36675644
4	0x3e987202	0.2977448
5	0x3e21bb44	0.15794092
6	0x3cefaa13	0.029255902
7	0xbe3490dc	-0.17633384
8	0x3e8043d0	0.25051737
9	0x3e97d35b	0.2965344
10	0x3c94f9f5	0.018185595
11	0xbe4dc2bf	-0.20093821
12	0x3f00a46d	0.50250894
13	0xbd604461	-0.05475271
14	0x3e277101	0.16351701
15	0x3edaf6e3	0.42766485

encoder.latent.backbone.c_layers.2.norm.weight f4 [8]
0	0x3f808045	1.0039145
1	0x3f6a0bad	0.91424066
2	0x400421e6	2.064569
3	0x3f855729	1.0417224
4	0x3f934eee	1.1508462
5	0x3f8700dd	1.0547138
6	0x3f7cce85	0.98752624
7	0x3fb0f5a5	1.3824965

encoder.latent.backbone.c_layers.2.norm.bias f4 [8]
0	0x3b86988c	0.0041075405
1	0xbdb239c1	-0.08702422
2	0x3e13b6b8	0.1442517
3	0x3dad35f3	0.084575556
4	0xbea1f162	-0.31629473
5	0xbc4f3e3d	-0.012649116
6	0x3e0a7114	0.13519698
7	0x3ca093bf	0.0196017

encoder.latent.backbone.c_layers.3.layer.ff.0.0.weight f4 [16, 8]
0	0xbe2fce37	-0.17168508
1	0xbeaa81e4	-0.33302224
2	0xbd6a2a9b	-0.057169538
3	0x3df02d8c	0.117274374
4	0xbe779536	-0.24178013
5	0x3e47a4fe	0.19496533
6	0xbf020b4b	-0.5079848
7	0xbe87d9b0	-0.2653327
8	0x3eb231d1	0.34803632
9	0x3e23c744	0.15993983
10	0xbe8d49f8	-0.27595496
11	0xbd4c1857	-0.0498279
12	0x3db4d9cc	0.08830604
13	0xbd9ca201	-0.07648087
14	0x3e1376f9	0.14400853
15	0xbd586d7b	-0.052838784
16	0xbd6e7605	-0.05821802
17	0xbe3c1ca9	-0.18370308
18	0xbf08d497	-0.53449386
19	0x3f1c4509	0.6104284
20	0xbead471e	-0.3384332
21	0x3e1368ce	0.14395449
22	0x3df1511b	0.11783048
23	0x3d973cf2	0.07384671
24	0x3e4d3318	0.20039022
25	0x3e18b43b	0.14912502
26	0x3e486c1f	0.19572495
27	0x3e086b51	0.13322188
28	0xbc78c064	-0.015182588
29	0x3c879b86	0.016553652
30	0x3d96937d	0.0735235
31	0xbe9c5ef6	-0.305412
32	0x3edf5147	0.43616697
33	0xbdc2a4fe	-0.09504126
34	0xbe9d82ca	-0.30763847
35	0x3e8eaf1d	0.27867976
36	0x3e1d3e2e	0.15355751
37	0xbe049bf9	-0.12950124
38	0xbd4941ce	-0.049135022
39	0x3e1f3021	0.15545703
40	0x3ea679fe	0.32514948
41	0x3e14289a	0.14468613
42	0xbea07bf8	-0.3134458
43	0x3dbb6e09	0.09151847
44	0xbe385f78	-0.18005168
45	0x3ad3d999	0.0016162872
46	0xbd9ea523	-0.07746341
47	0x3e896e81	0.2684212
48	0xbcba3f81	-0.02273536
49	0xbd8bf85b	-0.068344794
50	0x3eb39d26	0.35080832
51	0xbdd22d56	-0.102625534
52	0xbe8c1b56	-0.27364606
53	0x3e9022b3	0.28151473
54	0xbebff24c	-0.37489545
55	0x3dd8be0f	0.10583126
56	0x3e8b3205	0.271866
57	0xbe9f6926	-0.3113491
58	0x3ef25a10	0.47334337
59	0xbd8ca594	-0.06867519
60	0x3eac5bc0	0.3366375
61	0x3b86c27b	0.0041125393
62	0x3e3423fa	0.17591849
63	0x3d010801	0.031501774
64	0xbe9cbae7	-0.30611345
65	0x3df88d22	0.12136294
66	0x3e2f40e8	0.17114604
67	0x3e1786c0	0.14797497
68	0x3dbee34a	0.09320696
69	0x3eaf52e1	0.3424292
70	0x3e0e4e76	0.13897118
71	0x3ea742ca	0.32668144
72	0xbe1c8afd	-0.15287395
73	0xbe4046a6	-0.1877695
74	0x3d62b9ce	0.05535298
75	0xbe6fbaa8	-0.23411047
76	0xbe90f446	-0.28311366
77	0xbe0b6de7	-0.13616143
78	0xbe4a4b42	-0.19755271
79	0xbe45286b	-0.192537
80	0xbdd5621e	-0.10419105
81	0xbbc5a81c	-0.006032003
82	0xbe854ea8	-0.26036572
83	0xbe0f9b04	-0.14023978
84	0x3d6b39e2	0.05742825
85	0x3e8de3e0	0.27712917
86	0xbddcb44d	-0.10776577
87	0x3cb7ee9a	0.022452641
88	0xbce420b9	-0.027847635
89	0x3e0ccfe4	0.13751179
90	0x3e0faabf	0.14029978
91	0xbd2427f7	-0.040077176
92	0x3d224c95	0.039623816
93	0x3e12949e	0.14314505
94	0xbe9e838c	-0.30959737
95	0x3e5eaaec	0.21744889
96	0x3d5fcaea	0.054636873
97	0x3eb556ef	0.35417888
98	0x3d83d9ae	0.064380035
99	0xbe72c403	-0.23707585
100	0x3cc892f4	0.024484135
101	0xbe54202a	-0.20715395
102	0xbd78fa88	-0.0607858
103	0xbdb8152d	-0.08988414
104	0x3dcdd6d7	0.10050743
105	0x3e2c2711	0.16811778
106	0x3e71d600	0.23616791
107	0x3e74bc82	0.23900035
108	0x3e741556	0.23836264
109	0x3e3efc7c	0.18651003
110	0x3c0dc30b	0.008652459
111	0xbdb4f6fe	-0.088361725
112	0x3ece5607	0.4030001
113	0x3d8e3658	0.06943959
114	0xbdf1dcee	-0.11809717
115	0x3e82ef32	0.25573117
116	0x3d5bb19d	0.053636182
117	0x3d00c2d1	0.03143579
118	0x3e49df7e	0.19714162
119	0xbd3ba2ae	-0.04580944
120	0x3b00081d	0.0019536086
121	0xbe227a54	-0.15866977
122	0x3e85479e	0.26031202
123	0xbe1a0efd	-0.1504478
124	0xbea58c5a	-0.32333642
125	0xbea34872	-0.3189121
126	0xbd65942e	-0.05604952
127	0xbdda0f1b	-0.106474124

encoder.latent.backbone.c_layers.3.layer.ff.0.0.bias f4 [16, 1]
0	0xbea52f48	-0.32262635
1	0xbe947e00	-0.2900238
2	0xbeb4f8f5	-0.3534619
3	0x3eb85c28	0.3600781
4	0x3df1ad4b	0.11800631
5	0x3e4de870	0.20108199
6	0x3e5e0fee	0.21685764
7	0x3c9fdb89	0.019513862
8	0x3eb6ebc2	0.35726744
9	0x3e645fbc	0.22302145
10	0x3d158913	0.036507677
11	0xbe281e44	-0.16417795
12	0x3ec75e93	0.38939342
13	0x3e0aef6a	0.13567892
14	0x3e67a7ad	0.22622557
15	0xbd882fd1	-0.06649745

encoder.latent.backbone.c_layers.3.layer.ff.2.weight f4 [8, 16]
0	0x3d1922a1	0.03738654
1	0xbe64e6b5	-0.22353633
2	0xbe07f63b	-0.13277523
3	0xbe6e3815	-0.23263581
4	0xbe16c871	-0.147249
5	0x3d8b10df	0.06790327
6	0xbdd0f635	-0.1020321
7	0xbdb79a09	-0.08964927
8	0xbd0756d0	-0.033041775
9	0xbe599206	-0.2124711
10	0x3d3e5535	0.04646798
11	0x3d5d77dc	0.054069385
12	0x3db9a2db	0.09064265
13	0xbdaa096c	-0.08302578
14	0xbe988406	-0.29788226
15	0x3db993e7	0.09061413
16	0xbe506bbc	-0.20353597
17	0xbdad33fe	-0.08457182
18	0xbd61cb66	-0.055125616
19	0x3d6d79fa	0.057977654
20	0xbe61e3c1	-0.22059537
21	0x3c975295	0.018471995
22	0x3de6b36d	0.112646915
23	0xbdbc10cb	-0.091828905
24	0x3db47e13	0.08813109
25	0xbe212ac1	-0.15738966
26	0x3de8da9e	0.11369823
27	0x3def4dca	0.11684759
28	0xbce80aef	-0.028325526
29	0x3e291960	0.16513586
30	0xbe4afdcf	-0.19823383
31	0xbe4671f0	-0.19379401
32	0xbe3fce84	-0.18731123
33	0x3cdd38f5	0.027004698
34	0x3e78bf32	0.24291685
35	0x3e06a654	0.13149387
36	0x3dc8e3ab	0.09809049
37	0x3e3f8fcf	0.18707202
38	0x3d3f892c	0.046761677
39	0xbded1b68	-0.11577493
40	0x3e1c3a71	0.15256669
41	0xbcbcf66b	-0.02306672
42	0xbe244398	-0.1604141
43	0xbe31ef24	-0.17376381
44	0x3e1d4c4a	0.15361133
45	0x3e676a20	0.22599077
46	0xbddfb697	-0.10923498
47	0xbdb52633	-0.088451765
48	0xbe44f21e	-0.19232985
49	0xbe24fb3f	-0.16111468
50	0xbe488ff4	-0.19586164
51	0xbd8e8e6b	-0.06960758
52	0x3c0e6424	0.008690868
53	0x3ddb4ea5	0.1070836
54	0xbdcbae6d	-0.099453785
55	0x3de24c0e	0.110496625
56	0x3e31ad86	0.1735135
57	0xbde419f7	-0.11137765
58	0x3df3bd1a	0.11901303
59	0xbecdd4da	-0.40201455
60	0x3e2f244b	0.17103688
61	0x3e03a675	0.12856467
62	0x3d78c71a	0.060736753
63	0x3cd08309	0.025453107
64	0xbd892cd5	-0.06698004
65	0x3e53aee7	0.20672189
66	0x3e5b6d82	0.21428493
67	0x3e742c80	0.238451
68	0x3dfcdfd2	0.12347378
69	0xbd39097c	-0.04517506
70	0xbe1d3da6	-0.15355548
71	0xbcb4ea36	-0.022084337
72	0xbe1735af	-0.14766572
73	0x3d83b049	0.06430108
74	0x3bd782b4	0.0065768603
75	0x3e3748a3	0.17898802
76	0x3e1d3a20	0.15354204
77	0xbe09433a	-0.13404551
78	0x3dcf5681	0.10123921
79	0x3d9a7ce8	0.07543355
80	0x3e101137	0.14069067
81	0xbe56ed24	-0.209889
82	0xbe76aedf	-0.24090146
83	0xbe31abc8	-0.17350686
84	0xbe401508	-0.18758023
85	0xbdc00685	-0.093762435
86	0x3e3988ab	0.18118541
87	0xbbaf0ba5	-0.0053419643
88	0x3e99e501	0.3005753
89	0xbd927de3	-0.07152917
90	0xbd8dd18d	-0.06924734
91	0x3ee38cb7	0.44443294
92	0xbcaadc67	-0.02085705
93	0xbe0b016f	-0.13574766
94	0x3d22dd6e	0.039761953
95	0x3dbf8ad6	0.09352653
96	0x3da9d1b5	0.082919516
97	0x3d541288	0.051775485
98	0x3e781534	0.24226838
99	0xbe6efad6	-0.23337874
100	0x3e2b9231	0.16754986
101	0xbe2ad865	-0.1668411
102	0xbe2a304c	-0.16619986
103	0xbe36f9c5	-0.17868717
104	0xbab9785e	-0.0014150252
105	0xbd8e558d	-0.06949911
106	0x3daf3561	0.08555103
107	0xbe52d2df	-0.20588253
108	0xbe8eaf7f	-0.27868268
109	0xbe10f50b	-0.14155976
110	0x3e18788b	0.14889733
111	0x3dc5a363	0.09650304
112	0xbe406ece	-0.18792269
113	0xbdf5269e	-0.11970256
114	0x3e300fb1	0.17193486
115	0xbe8c13d6	-0.27358884
116	0xbe172ae0	-0.1476245
117	0x3e22a233	0.15882187
118	0x3d8ccc2b	0.068748794
119	0xbe298e01	-0.16558076
120	0xbd42c77f	-0.047553536
121	0xbe9dea10	-0.30842638
122	0x3ba3e566	0.0050017117
123	0xbe04faac	-0.12986249
124	0xbe3b2c0c	-0.18278521
125	0xbe27f03a	-0.16400233
126	0x3e0b77a8	0.13619864
127	0xbda32d2a	-0.07967599

encoder.latent.backbone.c_layers.3.layer.ff.2.bias f4 [8, 1]
0	0x3bdb3522	0.0066896835
1	0xbcc2a9dd	-0.023762638
2	0xbdeb4ac4	-0.1148887
3	0xbe6a34e9	-0.22871746
4	0x3e0c23f5	0.13685592
5	0x3e89435e	0.2680921
6	0xbdbfc626	-0.09363966
7	0xbe596d7b	-0.2123317

encoder.latent.backbone.c_layers.3.norm.weight f4 [8]
0	0x3f9221fb	1.141662
1	0x3f84a714	1.0363488
2	0x3f80bebe	1.005821
3	0x3f7a47f8	0.97766066
4	0x3f77cede	0.9680003
5	0x3f76f7e0	0.9647198
6	0x3f8720b4	1.0556855
7	0x3f76a1c1	0.96340567

encoder.latent.backbone.c_layers.3.norm.bias f4 [8]
0	0x3c6ca7a8	0.014444269
1	0x3d04fd4d	0.03246813
2	0x3d202c2e	0.039104633
3	0xbc87e1c6	-0.01658715
4	0x3d60879f	0.05481684
5	0xbc93919b	-0.018013766
6	0x3d163457	0.03667101
7	0xbc8c07a5	-0.017093489

encoder.latent.backbone.c_layers.4.layer.D f4 [1, 8]
0	0x3e53af3c	0.20672315
1	0xbcdcb4ac	-0.02694162
2	0x3e896ae0	0.26839352
3	0xbe5e1b5f	-0.21690129
4	0x3fbd07a1	1.4767953
5	0xbf47763f	-0.77914804
6	0xbe81e943	-0.25373277
7	0x3e30ea1f	0.1727681

encoder.latent.backbone.c_layers.4.layer.kernel.kernel.C f4 [1, 8, 2, 2]
0	0xbe747a11	-0.2387469
1	0xbeb19dcc	-0.34690702
2	0xbe8d3175	-0.27576795
3	0x3e98db0a	0.29854614
4	0x3f38d659	0.7220207
5	0xbeb3499b	-0.35017094
6	0xbf74eef2	-0.956771
7	0xbf8b472e	-1.0881097
8	0x3f3a4945	0.7276805
9	0x3e9c37b5	0.3051125
10	0xbe6014d2	-0.21882942
11	0x3de30868	0.11085588
12	0x40109d57	2.2596033
13	0xbf36aff6	-0.71362245
14	0xbeed8569	-0.46390846
15	0xbf931c47	-1.1493005
16	0xbf8770ff	-1.0581359
17	0x3e9a714c	0.30164564
18	0x3eb2524f	0.3482842
19	0x3e2b9d40	0.16759205
20	0x3d6351ee	0.055498056
21	0x3f52ba35	0.8231538
22	0xbdc55898	-0.096360385
23	0xbecb7771	-0.39739564
24	0x3f72e433	0.94879454
25	0xbfa57f54	-1.2929482
26	0x3f6d7c32	0.9276763
27	0x3eae61a9	0.34058884
28	0x3f227611	0.63461405
29	0x3fd4b919	1.6618987
30	0xbf2bc877	-0.6710276
31	0xbd938096	-0.0720226

encoder.latent.backbone.c_layers.4.layer.kernel.kernel.log_dt f4 [8]
0	0xc0c7d723	-6.245012
1	0xc08bbfed	-4.3671784
2	0xc0ec93df	-7.3930507
3	0xc079a4d5	-3.9006855
4	0xc05a2440	-3.4084625
5	0xc08a2c58	-4.317913
6	0xc006cfea	-2.10644
7	0xc0813f5a	-4.0389833

encoder.latent.backbone.c_layers.4.layer.kernel.kernel.B f4 [1, 8, 2, 2]
0	0xbec6a857	-0.38800308
1	0xc035db9b	-2.8415287
2	0x3f47f03b	0.7810094
3	0x3f5721c5	0.84035903
4	0xbeabcd50	-0.33555079
5	0xc02a00d5	-2.6563008
6	0x3f2675ec	0.65023685
7	0x3f2d4f98	0.67699575
8	0xbec970c8	-0.39343858
9	0xc02dbabb	-2.7145221
10	0x3eda5cba	0.4264887
11	0x3f40c5b2	0.7530166
12	0xbe90d16b	-0.28284773
13	0xc064c1b0	-3.5743217
14	0x3f3565a4	0.70858216
15	0x3f3d9eae	0.7407025
16	0xbe677190	-0.22601914
17	0xc03b6125	-2.9278042
18	0x3ec42418	0.38308787
19	0x3f7bec3a	0.9840733
20	0xbed216f1	-0.41033128
21	0xc02de324	-2.7169886
22	0x3f0cf505	0.5506137
23	0x3f631ee9	0.8871904
24	0xbed0a5b8	-0.40751433
25	0xc038c1d8	-2.8868313
26	0x3ed7b080	0.42126846
27	0x3e05f2e5	0.13080938
28	0xbf4b2ad5	-0.7936223
29	0xc035040f	-2.8283727
30	0x3f3034c5	0.6883052
31	0x3f8d4a7a	1.1038353

encoder.latent.backbone.c_layers.4.layer.kernel.kernel.P f4 [1, 8, 2, 2]
0	0xbd79dd72	-0.061002202
1	0xbfe53036	-1.7905338
2	0x3e998d96	0.29990834
3	0x3eba8775	0.3643147
4	0xbe77efe2	-0.24212602
5	0xbfeb2fa2	-1.8373911
6	0x3ee603ee	0.44924873
7	0x3f06cd8f	0.5265741
8	0xbc1e67a1	-0.009668262
9	0xbfda957d	-1.707687
10	0x3f29f872	0.6639472
11	0x3e9af50b	0.30265078
12	0xbe8dd51c	-0.27701652
13	0xbff1d780	-1.889389
14	0x3eeaedda	0.4588459
15	0x3e68253f	0.22670458
16	0xbe9727c4	-0.29522526
17	0xbff2ca2e	-1.896795
18	0x3f0949da	0.53628314
19	0x3f202b21	0.6256581
20	0xbe216460	-0.15760946
21	0xbfda32bd	-1.7046734
22	0x3e5b8ce4	0.21440464
23	0x3ee6d855	0.45086923
24	0xbe9e1c44	-0.3088094
25	0xbfd81f91	-1.6884633
26	0x3f178540	0.591877
27	0x3fc74c03	1.5570072
28	0x3d056f50	0.03257686
29	0xbeb25178	-0.3482778
30	0x3f26fe56	0.65231836
31	0x3e918fd4	0.28430045

encoder.latent.backbone.c_layers.4.layer.kernel.kernel.inv_w_real f4 [8, 2]
0	0xbf2fd7fa	-0.6868893
1	0xbf553019	-0.83276516
2	0xbf3e5e3f	-0.7436256
3	0xbf2e7b50	-0.6815691
4	0xbf5afc5c	-0.8554132
5	0xbf334432	-0.7002593
6	0xbf2ec816	-0.68274057
7	0xbf3bff0f	-0.73436064
8	0xbf3d5d2e	-0.73970306
9	0xbf82d7a5	-1.022206
10	0xbf513ab3	-0.8173019
11	0xbf28cfc7	-0.65942043
12	0xbf4875cd	-0.7830475
13	0xbe589bf1	-0.21153237
14	0xbfa8a0c3	-1.317406
15	0xbf69aaf1	-0.9127646

encoder.latent.backbone.c_layers.4.layer.kernel.kernel.w_imag f4 [8, 2]
0	0xc08fc296	-4.492503
1	0xbed0f27b	-0.40809998
2	0xc09344e8	-4.6021614
3	0xbf0f4675	-0.55966884
4	0xc0947fce	-4.640601
5	0xbedfa8f2	-0.43683583
6	0xc08c63dc	-4.38719
7	0xbf0d1f71	-0.551261
8	0xc0848d93	-4.142282
9	0xbe678679	-0.22609891
10	0xc093cc31	-4.6186757
11	0xbeac03f2	-0.3359676
12	0xc08a8c34	-4.3296146
13	0xbe858fd4	-0.26086295
14	0xc0909942	-4.518708
15	0xbdb43595	-0.087992825

encoder.latent.backbone.c_layers.4.layer.output_linear.0.weight f4 [16, 8, 1]
0	0xbd8643a7	-0.065558724
1	0x3ded3513	0.11582389
2	0x3df980c1	0.12182761
3	0x3f49b235	0.7878755
4	0x3a0ac868	0.0005294145
5	0xbdc06ef4	-0.09396163
6	0x3f027a92	0.5096828
7	0xbeba4ae8	-0.36385274
8	0x3e7c402b	0.24633853
9	0x3c9557db	0.01823037
10	0xbee8a7b4	-0.45440447
11	0xbf07324c	-0.5281112
12	0xbd8907f7	-0.06690972
13	0xbed816ec	-0.42204988
14	0xbe37a363	-0.17933421
15	0xbdb95016	-0.09048478
16	0xbad74127	-0.0016422615
17	0xbee4017e	-0.44532388
18	0xbeb6c70f	-0.35698745
19	0xbf02daa3	-0.51114863
20	0x3eb4f564	0.35343468
21	0x3d531117	0.05152997
22	0x3d2b3e9e	0.041807763
23	0xbda01ef0	-0.07818401
24	0xbee72137	-0.45142528
25	0xbeba34e4	-0.36368477
26	0x3ee722cb	0.45143732
27	0x3f031219	0.5119949
28	0x3e844a92	0.25838143
29	0xbda30e52	-0.07961716
30	0x3e8b020f	0.27150008
31	0x3cd722f5	0.026261786
32	0x3ed94b22	0.42440134
33	0x3e320ee3	0.17388491
34	0xbd45f43c	-0.048328623
35	0xbecb6b0a	-0.39730102
36	0xbd286c6d	-0.041119028
37	0xbd61fb53	-0.055171322
38	0x3ea5d925	0.3239223
39	0xbe44c79d	-0.19216771
40	0xbec87f74	-0.3915974
41	0x3c6d95d4	0.014501054
42	0x3ea81a50	0.32832575
43	0x3e836eb7	0.25670406
44	0xbed474e9	-0.41495445
45	0x3e9112cb	0.2833465
46	0x3e4fca9f	0.20292138
47	0xbd3edb99	-0.046596143
48	0x3e43225f	0.1905608
49	0x3e75c156	0.23999533
50	0x3d175b2f	0.036952194
51	0x3e971f51	0.2951608
52	0x3f0a2719	0.5396591
53	0xbceb9f60	-0.02876252
54	0x3dc55fe6	0.09637432
55	0xbe45a60a	-0.1930162
56	0xbe808255	-0.25099435
57	0x3e67a54f	0.22621654
58	0x3ea90229	0.3300946
59	0xbecc7eb5	-0.3994042
60	0x3e0f6646	0.14003858
61	0xbd219328	-0.03944698
62	0xbdf4c510	-0.11951649
63	0xbecf3b2d	-0.40474835
64	0xbe11a77e	-0.1422405
65	0x3cd5c82c	0.026096426
66	0x3e5727b8	0.21011245
67	0x3f173c9d	0.59076864
68	0xbc12e997	-0.008966825
69	0xbe1e72e3	-0.15473513
70	0x3eeee39f	0.46658036
71	0xbf000a94	-0.5001614
72	0xbe9c1ce0	-0.3049078
73	0x3bd8a8ff	0.006611943
74	0x3e4613aa	0.19343439
75	0x3ec85b3a	0.391321
76	0x3e6f6ce0	0.23381376
77	0x3ede11af	0.43372867
78	0x3e98cdfb	0.2984465
79	0x3d4bc62e	0.049749546
80	0x3e9f297e	0.31086344
81	0xbd09f380	-0.033679485
82	0xbecf92ee	-0.40541786
83	0xbf144b8b	-0.5792777
84	0x3f15102f	0.5822782
85	0x3db66fa3	0.08908012
86	0xbd6481b1	-0.055787746
87	0x3e91801d	0.28418055
88	0xbeb9fac1	-0.36324123
89	0xbe4dd022	-0.20098928
90	0x3ebf692d	0.3738493
91	0x3e8cc5b4	0.27494586
92	0x3d518e9d	0.051161397
93	0x3e0f4dbb	0.13994496
94	0xbe1bc9de	-0.15213725
95	0xbeb4adda	-0.35288888
96	0x3f1c712d	0.6111019
97	0x3db4981f	0.08818077
98	0x3d57c61c	0.052679166
99	0xbe29d0b7	-0.16583525
100	0x3e279218	0.16364324
101	0xbea50259	-0.32228354
102	0x3e7e164b	0.24813192
103	0x3e749466	0.23884735
104	0xbedf2771	-0.4358478
105	0x3ed218d4	0.41034567
106	0xbdb0301b	-0.086029254
107	0x3e643d39	0.2228898
108	0xbe0b744f	-0.13618587
109	0xbe0e3f09	-0.13891234
110	0xbd024f52	-0.031813927
111	0xbd12f5bd	-0.035878886
112	0xbd725873	-0.059166383
113	0x3e8de178	0.27711082
114	0x3dea5914	0.114427716
115	0xbe659028	-0.22418272
116	0x3f1fedb4	0.6247208
117	0x3ec597b4	0.38592303
118	0x3eef76a8	0.46770215
119	0xbe1e6b1f	-0.15470551
120	0xbea07f1f	-0.31346986
121	0xbd791707	-0.060812976
122	0x3dcefae0	0.10106444
123	0x3daef6a1	0.085431345
124	0x3dca51f1	0.0987891
125	0x3e841bb0	0.25802374
126	0xbda39650	-0.07987654
127	0x3f38c025	0.7216819

encoder.latent.backbone.c_layers.4.layer.output_linear.0.bias f4 [16]
0	0x3e756a0d	0.23966236
1	0xbe894982	-0.26813895
2	0x3d357c55	0.044308025
3	0xbea8ee30	-0.32994223
4	0x3d675b01	0.056483272
5	0x3e5e2089	0.21692099
6	0xbdb93b88	-0.09044558
7	0xbcc1b57b	-0.023646107
8	0xbd28ebbd	-0.041240443
9	0x3eaf88df	0.34284112
10	0xbdd07fdc	-0.10180637
11	0xbde3198d	-0.11088858
12	0x3e128d63	0.14311747
13	0x3e908d72	0.28232914
14	0xbe990ab9	-0.29890993
15	0x3d2b8431	0.041874114

encoder.latent.backbone.c_layers.4.norm.weight f4 [8]
0	0x3fa1bc4e	1.2635591
1	0x3f4deb78	0.8043742
2	0x3f8b8973	1.0901321
3	0x3fb83edd	1.4394184
4	0x3f8aeeec	1.0854163
5	0x3f8e6466	1.1124389
6	0x3f9f1a77	1.2429951
7	0x3fc9fb63	1.5779842

encoder.latent.backbone.c_layers.4.norm.bias f4 [8]
0	0xbeac8ed2	-0.33702713
1	0xbe1db11c	-0.15399593
2	0x3df00f27	0.1172164
3	0xbefa97d2	-0.48943955
4	0xbc12ea26	-0.008966958
5	0xbc58dd1d	-0.013236311
6	0xbe142a92	-0.14469364
7	0xbefc358e	-0.4925961

encoder.latent.backbone.c_layers.5.layer.ff.0.0.weight f4 [16, 8]
0	0xbea933c1	-0.33047298
1	0x3e0ca210	0.13733697
2	0xbaa737dc	-0.0012757736
3	0x3e99e381	0.30056384
4	0xbe19ff92	-0.15038899
5	0x3e2ebb32	0.17063597
6	0xbe4a1668	-0.1973511
7	0x3e0ec57f	0.13942526
8	0xbe979a67	-0.29609987
9	0xbe8b853b	-0.27250084
10	0xbe370de8	-0.17876399
11	0x3e69ec92	0.2284415
12	0x3e765292	0.24054936
13	0xbee0d414	-0.43911803
14	0xbe277631	-0.1635368
15	0xbe018a92	-0.12650517
16	0x3e25abd3	0.16178827
17	0xbe9faed6	-0.31188077
18	0x3e645390	0.22297502
19	0x3eb18cbb	0.3467768
20	0xbd29685e	-0.041359298
21	0xbe6c1819	-0.23056068
22	0xbdadb8d3	-0.08482518
23	0x3eb05e37	0.3444688
24	0x3e6a90a5	0.2290674
25	0xbce0ba61	-0.027432622
26	0x3e0bfc9c	0.13670582
27	0xbe4f5979	-0.20248975
28	0xbeb90658	-0.36137652
29	0x3eb62496	0.35574788
30	0x3a6d6715	0.0009056193
31	0x3e17dcf4	0.1483038
32	0x3db1e524	0.08686283
33	0x3db4bbc0	0.08824873
34	0xbeb69d68	-0.35666966
35	0x3e23435c	0.15943664
36	0x3dc0b428	0.09409362
37	0xbe56db7a	-0.20982161
38	0xbdcbbb92	-0.099478856
39	0xbd8f1945	-0.06987242
40	0xbe58f310	-0.21186471
41	0xbdf996c6	-0.12186961
42	0xbe694c26	-0.22782955
43	0xbd2af754	-0.041739777
44	0xbca5ded7	-0.02024786
45	0xbe9e2b58	-0.30892444
46	0x3e895110	0.26819658
47	0x3b8d3efd	0.0043104873
48	0x3e70fe99	0.23534621
49	0xbe6e4b04	-0.23270804
50	0xbec6ffdb	-0.38867077
51	0xbe8662a6	-0.26247138
52	0xbdf6d483	-0.12052252
53	0x3e55e20b	0.2088701
54	0x3eaa21e7	0.3322899
55	0x3e8fa69c	0.280568
56	0xbd86ca1f	-0.0658152
57	0xbda7b4e0	-0.08188796
58	0x3e2d9d49	0.16954531
59	0x3eadeef9	0.33971384
60	0x3c266f2f	0.010158344
61	0xbe4e25a8	-0.20131552
62	0xbea2f4db	-0.31827435
63	0x3db90a1c	0.09035131
64	0x3de23f17	0.1104719
65	0xbe41c858	-0.18924081
66	0xbe720345	-0.2363406
67	0xbc516198	-0.012779616
68	0x3ced5112	0.028969321
69	0xbe72097d	-0.23636432
70	0x3ec9da71	0.3942447
71	0xbdf63b1c	-0.12022993
72	0xbeb1747a	-0.34659177
73	0xbe191406	-0.14949045
74	0xbea173e3	-0.31533727
75	0xbe999efe	-0.30004114
76	0x3c198ba9	0.0093716765
77	0x3e7c7684	0.24654585
78	0x3e937f2c	0.28807962
79	0xbe7f4fe1	-0.24932815
80	0xbdd479be	-0.10374783
81	0x3b2ee7dd	0.0026688494
82	0xbea3b475	-0.31973615
83	0x3e4fc0b5	0.20288356
84	0x3e981f3f	0.2971134
85	0x3eb6de31	0.35716394
86	0x3e052341	0.1300173
87	0x3e013aba	0.12620059
88	0xbe80b3af	-0.25137088
89	0xbe992d6b	-0.29917464
90	0x3d84506b	0.06460651
91	0x3c87bee8	0.016570523
92	0xbe15d7b6	-0.14633068
93	0x3d3fb0ee	0.046799593
94	0xbc85348a	-0.016260404
95	0xbdef444e	-0.1168295
96	0x3d56b9fa	0.052423455
97	0x3e84d5a0	0.25944233
98	0xbdc0beea	-0.09411414
99	0xbdd91640	-0.10599947
100	0xbbe83af2	-0.007087105
101	0xbdb2b536	-0.087259695
102	0xbea19dbd	-0.31565657
103	0xbebfe4cc	-0.37479246
104	0x3dcc029b	0.099614345
105	0x3e4458ae	0.19174454
106	0x3e7c9d36	0.24669346
107	0xbe9af702	-0.30266577
108	0x3e1de252	0.15418366
109	0x3e765a42	0.24057868
110	0xbe9cadc9	-0.30601338
111	0xbdfb1740	-0.12260294
112	0xbe61e107	-0.22058497
113	0x3ea77771	0.32708314
114	0xbe0961f0	-0.13416266
115	0xbe991792	-0.29900795
116	0xbdf49b8c	-0.11943731
117	0xbe905d78	-0.2819631
118	0x3dcc95ca	0.099895075
119	0xbe9d9815	-0.30780092
120	0x3e780969	0.2422234
121	0x3e9b9181	0.30384448
122	0xbe0b58f4	-0.13608152
123	0x3e60c9ff	0.21952055
124	0xbe922a42	-0.28547865
125	0x3c1eb543	0.009686771
126	0x3e717a5c	0.23581833
127	0xbebe27e4	-0.3713981

encoder.latent.backbone.c_layers.5.layer.ff.0.0.bias f4 [16, 1]
0	0xbe38d8dd	-0.18051477
1	0xbe98915a	-0.29798394
2	0x3e871dc9	0.26389912
3	0x3eaca264	0.33717644
4	0x3eabba70	0.33540678
5	0xbca66b7f	-0.02031493
6	0x3e6b5f06	0.22985467
7	0xbc558933	-0.013033199
8	0xbecbe901	-0.39826205
9	0x3e9fe688	0.3123057
10	0xbe5a57ae	-0.2132251
11	0x3e189acb	0.14902799
12	0xbdef9a1e	-0.116993174
13	0x3e6a40ab	0.22876231
14	0xbeb215f9	-0.3478239
15	0xbe93a58f	-0.2883725

encoder.latent.backbone.c_layers.5.layer.ff.2.weight f4 [8, 16]
0	0xbe33cf95	-0.17559655
1	0x3e00eb70	0.12589812
2	0x3cafbdc9	0.021452801
3	0xbe62a9f1	-0.2213514
4	0xbcb86fd3	-0.02251426
5	0xbdd405fe	-0.103527054
6	0xbe12465b	-0.14284651
7	0xbca9f721	-0.020747723
8	0xbb6b75c0	-0.0035928339
9	0xbe00250c	-0.12514132
10	0xbcf88336	-0.030336004
11	0xbd9fcc97	-0.07802694
12	0x3e4c9046	0.19976911
13	0xbe3af965	-0.18259199
14	0xbe4f9ca9	-0.20274605
15	0x3e78c403	0.24293523
16	0x3b29110c	0.0025797514
17	0xbdce796b	-0.100817524
18	0xbd42d23d	-0.04756378
19	0xbe010bcf	-0.12602161
20	0xbdd5182a	-0.104049996
21	0x3b84c712	0.0040520513
22	0x3e242b64	0.16032177
23	0xbe67db06	-0.22642145
24	0x3debd61a	0.11515446
25	0x3d82e7ce	0.063918695
26	0x3c86f636	0.016474824
27	0x3e15a779	0.14614667
28	0x3bc9b05c	0.006155057
29	0xbe3ff44f	-0.1874554
30	0x3c1a5911	0.009420649
31	0xbe0c9c03	-0.13731389
32	0x3e512612	0.20424679
33	0xbe73cdc0	-0.23808956
34	0xbd1deb32	-0.038554378
35	0xbe89a94f	-0.26886985
36	0xbe0bd6f3	-0.13656215
37	0x3cd4dcb6	0.02598415
38	0xbd37e21b	-0.044893365
39	0x3e81a0ab	0.25317892
40	0xbd9d2274	-0.07672587
41	0x3e52e477	0.20594965
42	0x3e1db08c	0.15399379
43	0xbd81ea36	-0.063435
44	0x3e5b1b7d	0.21397205
45	0xbc29b33e	-0.010357676
46	0xbb3ddb05	-0.0028969657
47	0xbc078a42	-0.008272709
48	0x3e730de1	0.23735763
49	0xbe7a0ec5	-0.24419697
50	0x3c90da44	0.017682202
51	0x3b303237	0.00268854
52	0xbe5eb38f	-0.21748184
53	0x3deb8a58	0.11500996
54	0xbea0ae08	-0.31382775
55	0xbd419e6e	-0.04727023
56	0xbe121649	-0.14266314
57	0x3db9054e	0.09034215
58	0xbe18f706	-0.14937982
59	0xbc7c67e2	-0.015405627
60	0xbe47e00d	-0.19519062
61	0x3e71582f	0.23568796
62	0x3e593f7d	0.21215625
63	0xbe5a412d	-0.21313925
64	0xbe07b8dc	-0.13254112
65	0xbe556a2d	-0.20841284
66	0x3db0c814	0.08631912
67	0x3ad31f45	0.0016107342
68	0x3e462334	0.19349366
69	0xbe320bc3	-0.17387299
70	0x3b1099e9	0.0022064394
71	0xbc998bbd	-0.01874339
72	0x3df94335	0.12171022
73	0xbd70e930	-0.058816135
74	0xbe5c1764	-0.21493298
75	0xbe1e222e	-0.15442726
76	0x3e641d51	0.22276808
77	0xbe3e432f	-0.18580316
78	0x3d5e83df	0.05432498
79	0x3c0be793	0.008539098
80	0x3e1fd70e	0.1560938
81	0x3d51a226	0.051180027
82	0x3e22cf4c	0.1589939
83	0x3e168437	0.14698873
84	0x3de58461	0.1120689
85	0xbe88b753	-0.26702365
86	0xbe1d2d8b	-0.15349405
87	0x3e10a645	0.14125927
88	0xbe7fbe7d	-0.2497501
89	0x3e216ba5	0.1576372
90	0xbc5350d2	-0.012897687
91	0x3e3b1c7d	0.18272586
92	0x3e557b86	0.20847902
93	0xbe14ebe0	-0.14543104
94	0xbcf9d2ea	-0.03049608
95	0x3e6a7b19	0.2289852
96	0x3e221072	0.15826586
97	0x3e48c5aa	0.19606653
98	0x3e2005da	0.15627232
99	0xbe845324	-0.2584468
100	0xbe5dea8d	-0.21671505
101	0x3d7a0a5f	0.061045047
102	0xbe7651b9	-0.24054612
103	0xbe7a9a1c	-0.2447285
104	0x3e02a2cb	0.12757413
105	0xbe2f4df6	-0.17119583
106	0x3ca9de01	0.020735743
107	0x3e49838c	0.19679087
108	0xbe8ae900	-0.2713089
109	0xbe83cfda	-0.25744516
110	0xbc156558	-0.0091184005
111	0xbe92c036	-0.2866227
112	0x3e700afd	0.23441692
113	0xbe494145	-0.19653805
114	0x3e4c3cc7	0.1994506
115	0x3d868cb8	0.06569809
116	0xbd8f3fe7	-0.0699461
117	0x3e5d63c9	0.21620096
118	0xbc0c4d4a	-0.008563349
119	0x3d6d5c00	0.057949066
120	0xbc728e94	-0.014804501
121	0xbd0a8e8c	-0.03382735
122	0x3e134b9c	0.14384311
123	0xbd38588e	-0.045006327
124	0xbe854023	-0.26025495
125	0xbd336ad7	-0.043803062
126	0xbe593298	-0.21210706
127	0x3deb8dab	0.115016304

encoder.latent.backbone.c_layers.5.layer.ff.2.bias f4 [8, 1]
0	0xbe1e0d63	-0.15434794
1	0xbe1a2be2	-0.15055802
2	0xbdf71acd	-0.12065659
3	0x3b9944ec	0.0046774056
4	0xbe3b9cc3	-0.18321519
5	0x3e932fb5	0.28747335
6	0xbd9b5d4f	-0.075861566
7	0xbe36e5ad	-0.17861052

encoder.latent.backbone.c_layers.5.norm.weight f4 [8]
0	0x3f7b0002	0.98046887
1	0x3f7fb656	0.998876
2	0x3f8340fd	1.0254208
3	0x3f89299f	1.0715827
4	0x3f7f3f1d	0.9970568
5	0x3f8018d5	1.0007578
6	0x3f7cef3d	0.9880255
7	0x3f80c727	1.0060776

encoder.latent.backbone.c_layers.5.norm.bias f4 [8]
0	0x3cd24d25	0.025671551
1	0x3c90f725	0.017695973
2	0xbc305b97	-0.010764024
3	0xbc8787a5	-0.016544173
4	0xbc2ce94b	-0.010553668
5	0x3ce160e5	0.027512023
6	0xbc4953c8	-0.012288041
7	0xbc2fc59f	-0.010728269

encoder.latent.backbone.c_layers.6.layer.D f4 [1, 8]
0	0xbf6cd6f2	-0.9251548
1	0x3f5b97fc	0.85778785
2	0x3fe0c2c8	1.7559443
3	0x3f9dd7be	1.2331464
4	0xbe7bedab	-0.24602382
5	0xbd7b68f7	-0.0613794
6	0xbfa246c5	-1.2677847
7	0x3f64d494	0.8938687

encoder.latent.backbone.c_layers.6.layer.kernel.kernel.C f4 [1, 8, 2, 2]
0	0x3f6139c1	0.8797875
1	0x3ef047ed	0.46929875
2	0x3f0e2c2c	0.5553615
3	0xbfc03dd7	-1.5018872
4	0x3c88f0ae	0.016716328
5	0xbe2d3141	-0.1691332
6	0xbdd70997	-0.10499876
7	0x3e2556b8	0.16146362
8	0x3ea4d376	0.32192582
9	0x3f175191	0.59108835
10	0xbebaa18b	-0.36451373
11	0x3f192b6a	0.5983187
12	0xbf12a8d6	-0.57288873
13	0x3f11e49b	0.5698945
14	0xbed2d0f1	-0.41175035
15	0xbeec92b6	-0.46205682
16	0xbf1d20f8	-0.6137843
17	0x3e9fc789	0.3120692
18	0xbde9fde1	-0.11425377
19	0x3d3fc298	0.04681644
20	0xbeab2901	-0.3342972
21	0xbf27654c	-0.6538894
22	0x3d8a1473	0.06742182
23	0x3f1f4f04	0.62229943
24	0x3d3f43e7	0.046695616
25	0xbe016cf3	-0.12639217
26	0xbce67388	-0.028131261
27	0x3db6eada	0.08931513
28	0x3ed53200	0.4163971
29	0x3f142341	0.57866293
30	0x3f108aa1	0.5646153
31	0xbdcda975	-0.10042087

encoder.latent.backbone.c_layers.6.layer.kernel.kernel.log_dt f4 [8]
0	0xc05f44a6	-3.488565
1	0xc0c55aaa	-6.1673174
2	0xc02b1b28	-2.6735325
3	0xc02b5494	-2.6770372
4	0xc0b78a3e	-5.7356253
5	0xc084ff7f	-4.1561885
6	0xc0d37d15	-6.609019
7	0xc0a0884d	-5.0166383

encoder.latent.backbone.c_layers.6.layer.kernel.kernel.B f4 [1, 8, 2, 2]
0	0xbe6aae66	-0.2291809
1	0xc0471100	-3.1104126
2	0x3f43a2b2	0.7642013
3	0x3f35df38	0.7104373
4	0xbdd18a3e	-0.10231446
5	0xc02e7cc4	-2.726365
6	0x3f1fe2d6	0.624555
7	0x3f424ef9	0.7590175
8	0xbec003e1	-0.3750296
9	0xc02525d3	-2.5804336
10	0x3f5a7ffc	0.8535154
11	0x3f52879b	0.8223817
12	0xbeb1d9e2	-0.34736544
13	0xc02ab241	-2.6671298
14	0x3f241870	0.6409979
15	0x3f4043ca	0.7510344
16	0xbde1a92e	-0.110185966
17	0xc033297f	-2.7994077
18	0x3f18bd25	0.5966361
19	0x3f146a50	0.5797472
20	0xbe0d7c46	-0.13816938
21	0xc02aaec3	-2.6669166
22	0x3f078c64	0.52948594
23	0x3f409a38	0.7523532
24	0xbe7b2bdb	-0.24528448
25	0xc02924bb	-2.6428668
26	0x3f29525a	0.66141284
27	0x3f32c360	0.6982937
28	0xbe562e2e	-0.20916054
29	0xc02efacf	-2.7340581
30	0x3f49a3ad	0.78765374
31	0x3f5d8878	0.8653636

encoder.latent.backbone.c_layers.6.layer.kernel.kernel.P f4 [1, 8, 2, 2]
0	0xbe5fe38f	-0.2186415
1	0xbfeef78f	-1.8669299
2	0x3ed2cc34	0.4117142
3	0x3f0a99ff	0.5414123
4	0xbe330261	-0.17481376
5	0xc0049502	-2.0715947
6	0x3ee8b109	0.45447567
7	0x3ef6fb6b	0.48238692
8	0xbd955fca	-0.07293661
9	0xbfed5959	-1.8542892
10	0x3ee3fa18	0.44526744
11	0x3eb253d6	0.34829587
12	0xbe4e053d	-0.20119186
13	0xbfec5c13	-1.8465599
14	0x3ee5cb0b	0.44881472
15	0x3ef05f04	0.4694749
16	0xbeafeb90	-0.34359407
17	0xbfdcaf5f	-1.7241019
18	0x3e8b3b00	0.2719345
19	0x3f254f01	0.64573675
20	0xbe563b1c	-0.20920986
21	0xc0088ca9	-2.1335852
22	0x3f182a73	0.5943977
23	0x3f234a79	0.6378551
24	0xbe71d454	-0.23616153
25	0xbff426d3	-1.9074348
26	0x3f1a12c5	0.6018489
27	0x3f0aff1e	0.5429553
28	0xbd31b1c4	-0.04338242
29	0xbff0d72c	-1.8815665
30	0x3e9e3f98	0.30907893
31	0x3eb6bad0	0.35689402

encoder.latent.backbone.c_layers.6.layer.kernel.kernel.inv_w_real f4 [8, 2]
0	0xbf353cd5	-0.7079595
1	0xbf205cee	-0.626418
2	0xbf24f389	-0.64434105
3	0xbf370e05	-0.7150577
4	0xbf3f6907	-0.74769634
5	0xbf72f6a2	-0.9490758
6	0xbf37937f	-0.71709436
7	0xbf364f91	-0.7121516
8	0xbf516f00	-0.8181
9	0xbf164495	-0.586984
10	0xbec0f444	-0.3768636
11	0xbf1a1bbb	-0.60198563
12	0xbf2886a0	-0.6583042
13	0xbf292eaa	-0.6608683
14	0xbf1b35cc	-0.6062896
15	0xbf5867f0	-0.84533596
