generative_ts/saves/250918_092136_VRNN/model_VRNN.pth (torch, 17186 bytes, 24 tensors)

phi_x.0.weight f4 [10, 1]
0	0x3e7b0ea0	0.24517298
1	0xbef8e6a4	-0.48613465
2	0xbf56b9bb	-0.8387715
3	0x3f03a027	0.5141625
4	0xbf568c32	-0.8380767
5	0x3c8ae780	0.01695609
6	0xbf41b059	-0.7565971
7	0xbf220ebd	-0.6330374
8	0x3f62697d	0.8844221
9	0xbe3e606f	-0.18591474

phi_x.0.bias f4 [10]
0	0xbf5dd14e	-0.866475
1	0x3f5c66f4	0.86094594
2	0x3eb653cb	0.35610804
3	0x3e4a5d47	0.19762145
4	0x3ecf853d	0.4053134
5	0xbdd42d70	-0.10360229
6	0xbf169544	-0.5882151
7	0xbe7e5f96	-0.2484115
8	0xbec587c9	-0.38580158
9	0x3f60dbfd	0.87835675

phi_x.2.weight f4 [10, 10]
0	0xbe5cf230	-0.21576762
1	0x3ea95429	0.33072022
2	0x3e458fd9	0.19293155
3	0xbe00959d	-0.12557073
4	0x3e5042d8	0.20337999
5	0xbe97e5a0	-0.29667377
6	0x3ec70cec	0.38877046
7	0x3ec72733	0.38897094
8	0x3b0815fa	0.0020765052
9	0x3de311df	0.11087393
10	0xbe8b5632	-0.272142
11	0x3d7c0bf1	0.061534826
12	0xbeb77c87	-0.35837194
13	0x3eb1488a	0.34625655
14	0xbea288a1	-0.31744865
15	0x3e2524c4	0.16127306
16	0xbdf3cbef	-0.119041316
17	0xbe5cea1e	-0.21573684
18	0x3ed48a1f	0.41511628
19	0x3df5221c	0.119693965
20	0x3e934ad3	0.28768024
21	0x3cf9d9c5	0.030499348
22	0x3ead32c4	0.33827794
23	0x3d7ab23e	0.06120514
24	0x3f0b09d8	0.54311895
25	0xbe314729	-0.17312302
26	0x3f36eb25	0.7145255
27	0x3f0209a9	0.5079599
28	0xbe2868f1	-0.16446282
29	0x3e953fa3	0.29150113
30	0x3e392eb4	0.18084222
31	0x3edec320	0.43508244
32	0x3eaadee4	0.33373177
33	0xbe44c554	-0.192159
34	0x3d047bd7	0.032344665
35	0xbd52cac4	-0.051462904
36	0x3e3609c1	0.17777158
37	0x3f2296e5	0.63511497
38	0xbdcaef07	-0.09908872
39	0x3ee693f0	0.45034742
40	0xbe80beb8	-0.25145507
41	0xbe20c80f	-0.15701316
42	0xbeb7dadf	-0.35909173
43	0x3e65b172	0.22430971
44	0x3d277a83	0.04088832
45	0xbe83eae3	-0.25765142
46	0xbde73089	-0.11288554
47	0xbf233ca1	-0.6376439
48	0x3e9a4e6d	0.3013796
49	0x3e81b13a	0.25330526
50	0x3e73b373	0.23798923
51	0x3e747733	0.23873596
52	0x3ebbb86f	0.3666415
53	0xbd39e0ba	-0.04538033
54	0x3f0aa819	0.54162747
55	0xbe36b9f4	-0.17844373
56	0x3f26a563	0.6509611
57	0x3eb29377	0.34878132
58	0xbe1c1fed	-0.15246554
59	0x3e81f49e	0.2538194
60	0xbe48e376	-0.1961802
61	0x3ead845a	0.3389004
62	0x3e09991c	0.13437313
63	0xbd17df95	-0.03707846
64	0x3e01f4cd	0.1269104
65	0x3e6e8603	0.23293309
66	0x3f027050	0.50952625
67	0x3f3db28f	0.74100584
68	0x3e46b1f7	0.19403826
69	0x3e937450	0.28799677
70	0x3d6ea81d	0.058265794
71	0x3d980c58	0.074242294
72	0xbd7e6398	-0.0621067
73	0x3f116b8c	0.5680473
74	0xbeaf642a	-0.34256107
75	0x3e5c076b	0.21487205
76	0xbe8fccea	-0.28086025
77	0xbe569f87	-0.20959292
78	0x3f2241e2	0.6338178
79	0x3d94e1e7	0.0726965
80	0xbde3471a	-0.11097546
81	0xbe6bc0aa	-0.23022714
82	0x3e66b727	0.22530805
83	0xbdf0f641	-0.11765719
84	0x3e344be7	0.1760708
85	0x3e0acb85	0.13554199
86	0xbd824680	-0.06361103
87	0xbead1c58	-0.33810687
88	0xbe998b04	-0.29988873
89	0xbe0308d7	-0.12796341
90	0xbe2e7597	-0.17037044
91	0x3ea1b0d2	0.31580216
92	0x3d889508	0.066690505
93	0xbe90c22b	-0.28273138
94	0x3ebb565f	0.36589333
95	0xbdc759b0	-0.097339034
96	0x3e986e38	0.2977159
97	0x3f0953e7	0.5364365
98	0xbc9b2694	-0.018939294
99	0x3ea868a1	0.32892326

phi_x.2.bias f4 [10]
0	0x3e399f8f	0.18127273
1	0x3f0bdbe3	0.54632396
2	0x3e3c1310	0.18366647
3	0x3e76f10e	0.24115393
4	0x3edfd4f0	0.43717146
5	0x3ec2c08f	0.38037536
6	0x3e89a47f	0.26883313
7	0x3e1e1a47	0.15439712
8	0xbe3739bb	-0.17893116
9	0x3ed9b7c0	0.42523003

phi_z.0.weight f4 [10, 1]
0	0xbde5884a	-0.11207636
1	0x3f01aa44	0.5065043
2	0x3e6bc312	0.23023632
3	0xbf158100	-0.58399963
4	0x3d011220	0.031511426
5	0x3ea17bc2	0.31539732
6	0x3f49bde1	0.7880536
7	0x3f6dbc0a	0.9286505
8	0xbd9b9aaa	-0.07597859
9	0x3f7f850d	0.99812394

phi_z.0.bias f4 [10]
0	0x3f760639	0.96103245
1	0x3f7e4847	0.99329036
2	0x3f4d1492	0.8010951
3	0xbf7949cd	-0.97378236
4	0xbf6a6232	-0.91556084
5	0x3f789c04	0.9711306
6	0xbf81aea3	-1.013142
7	0xbf4fb91d	-0.81141835
8	0x3f69f86c	0.91394687
9	0xbcf2c13f	-0.029633163

enc.0.weight f4 [10, 20]
0	0x3e8fcec5	0.2808744
1	0x3f3f21b0	0.7466078
2	0xbde1afbe	-0.11019848
3	0x3e0fd2f1	0.14045312
4	0x3e09f289	0.13471426
5	0xbb2a25da	-0.0025962503
6	0x3eb81140	0.3595066
7	0x3ee0ed38	0.43930984
8	0x3e562a07	0.2091447
9	0x3eac8bc8	0.33700395
10	0xbe8c22c5	-0.27370277
11	0x3e9dd8dc	0.30829513
12	0xbe83c6cb	-0.25737604
13	0xbe35ec70	-0.17765975
14	0x3ddf7409	0.10910804
15	0xbe65525e	-0.22394702
16	0x3e887f9f	0.26659867
17	0xbdb6519c	-0.089022845
18	0x3dc94339	0.09827275
19	0x3e962abb	0.29329476
20	0xbe06bc42	-0.13157752
21	0xbe6b3242	-0.2296839
22	0xbe768f62	-0.24078134
23	0x3cdc4a72	0.026890967
24	0x3dbc7312	0.092016354
25	0xbe2c123a	-0.16803828
26	0x3d23f559	0.040028904
27	0xba8d5cde	-0.0010785123
28	0x3e229771	0.15878083
29	0x3d80fc93	0.06298175
30	0xbd76d364	-0.06026019
31	0xbe2ea7cb	-0.17056195
32	0xbe014562	-0.12624124
33	0xbe153b39	-0.14573373
34	0xbd038d7d	-0.032117356
35	0xbe1331a1	-0.143744
36	0x3d447e8a	0.04797224
37	0xbe21f2eb	-0.15815322
38	0xbc57a26c	-0.013161283
39	0xbe5e1901	-0.21689226
40	0xbeab1256	-0.33412427
41	0x3ea79519	0.3273094
42	0xbe7684c7	-0.24074088
43	0xbe494653	-0.19655733
44	0x3e334a9d	0.17508931
45	0xbe5d9550	-0.2163899
46	0x3ddc6cbe	0.107629284
47	0x3ea68b3d	0.32528105
48	0xbdd260a2	-0.102723375
49	0xbe812535	-0.252237
50	0x3dc29b27	0.09502249
51	0x3deeb4e7	0.11655598
52	0x3d92d823	0.07170131
53	0x3eb07dea	0.34471065
54	0x3dd64ed9	0.10464258
55	0x3da2c51f	0.07947754
56	0x3e191792	0.14950398
57	0x3d26f3c1	0.040759806
58	0x3dd52387	0.10407167
59	0x3d10a217	0.03531083
60	0x3e839fd8	0.2570789
61	0xbe3ac63c	-0.18239683
62	0x3dcf5ab4	0.10124722
63	0x3e684782	0.22683528
64	0x3e7a56ac	0.24447125
65	0x3d0cf793	0.034415793
66	0x3efa0aa0	0.4883623
67	0xbead12f9	-0.33803537
68	0x3e18fb01	0.149395
69	0x3ed6fdfe	0.41990656
70	0xbedb65a5	-0.42850986
71	0xbd981d0e	-0.07427417
72	0xbd09ad70	-0.03361267
73	0xbec812cc	-0.3907684
74	0x3e1fbcdf	0.15599392
75	0x3d41898c	0.047250316
76	0x3e4df3b5	0.20112498
77	0xbe7a78d4	-0.24460155
78	0x3e9fa11e	0.3117761
79	0x3e5cc959	0.21561183
80	0xbe44e66e	-0.19228527
81	0xbd16e968	-0.036843687
82	0xbe737496	-0.23774943
83	0xbd48f083	-0.049057495
84	0x3e08fbce	0.13377306
85	0xbc425eb8	-0.011863403
86	0xbd999404	-0.07498935
87	0xbe526840	-0.2054758
88	0x3df91668	0.12162477
89	0xbc4a09d0	-0.012331441
90	0x3d7e55e8	0.062093645
91	0x3df7534f	0.12076437
92	0x3e482336	0.19544682
93	0xbc709419	-0.014683747
94	0xbd9b7a35	-0.075916685
95	0xbcc8c893	-0.024509704
96	0xbe4077b5	-0.18795665
97	0xbd90dd32	-0.0707344
98	0x3e2da415	0.16957124
99	0x3dd67eb4	0.104733855
100	0xbdcf9b23	-0.10137012
101	0x3eb3fbe0	0.35153103
102	0xbd86f4d4	-0.06589666
103	0xbdea6487	-0.11444955
104	0x3e9f488c	0.31110036
105	0xbdde7e87	-0.10863977
106	0x3e54593b	0.20737164
107	0x3f37812f	0.71681494
108	0x3dfc5016	0.12319963
109	0x3d07cebe	0.03315615
110	0xbec07c71	-0.3759494
111	0x3e76b415	0.24092133
112	0xbecae198	-0.3962524
113	0x3ed10248	0.40822053
114	0x3eaf9f66	0.343013
115	0xbea3686c	-0.31915605
116	0x3eec6e23	0.46177778
117	0xbe9c9567	-0.30582735
118	0x3ec1f679	0.37883356
119	0x3f01e24e	0.5073594
120	0x3d64a775	0.055823762
121	0x3eef16db	0.46697125
122	0xbda6d6da	-0.081464484
123	0x3ec58904	0.38581097
124	0x3f285e45	0.65768844
125	0xbd122642	-0.035681017
126	0x3ea54e5e	0.32286352
127	0x3e6ddc57	0.23228584
128	0x3d4a52da	0.04939542
129	0x3e74ac10	0.23893762
130	0x3e7eaf9b	0.24871676
131	0xbeec6ba9	-0.46175888
132	0x3ee4bab2	0.44673687
133	0x3ef721d1	0.48267987
134	0xbec84cb9	-0.39121035
135	0x3e9cff02	0.30663306
136	0xbec0c0fd	-0.37647238
137	0x3eb2a1d6	0.34889096
138	0xbe221b10	-0.15830636
139	0xbe938213	-0.28810176
140	0x3ec3f894	0.38275588
141	0x3f341bf6	0.70355165
142	0x3d9a5f8e	0.07537757
143	0x3c389d5c	0.011267986
144	0x3ec41b75	0.38302198
145	0x3e21a624	0.15786034
146	0x3e8ac15a	0.2710064
147	0x3efbfde7	0.4921715
148	0x3db4881a	0.08815022
149	0x3e636129	0.22205032
150	0x3ce26f5a	0.027640987
151	0x3cf7c0da	0.030243326
152	0xbe78f7c8	-0.24313271
153	0x3ebe10be	0.37122148
154	0x3ebd00cf	0.3691468
155	0xbebd30f7	-0.3695142
156	0x3eaf9414	0.34292662
157	0xbeac0e31	-0.33604577
158	0x3e4edbf6	0.20201096
159	0x3e2794e6	0.16365394
160	0xbe48289e	-0.19546744
161	0x3edbd9f9	0.42939737
162	0x3db2919d	0.0871918
163	0x3e3d527b	0.18488495
164	0x3d9c691c	0.076372355
165	0x3dd64840	0.10462999
166	0xbd93c4ed	-0.07215295
167	0x3edf2387	0.43581793
168	0x3e088a1f	0.13333939
169	0xbe353b86	-0.17698488
170	0xbdae88dd	-0.08522198
171	0xbd96f52d	-0.07370982
172	0xbe3dc2fa	-0.18531409
173	0x3e75edbd	0.24016471
174	0xbd7f01d0	-0.062257588
175	0xbe535fc3	-0.20641999
176	0x3dde884c	0.1086584
177	0xbd2d407e	-0.042297833
178	0x3e289f5a	0.16467038
179	0x3e1bf185	0.15228851
180	0x3ee040c8	0.43799424
181	0xbe7aae46	-0.24480543
182	0x3ef35d27	0.47532007
183	0x3ef0f518	0.47061992
184	0xbd00f3bc	-0.031482443
185	0x3ea3b927	0.31977198
186	0x3f001e90	0.50046635
187	0xbee960b0	-0.4558158
188	0xbe035608	-0.12825787
189	0x3ea3dc4b	0.32004008
190	0xbe02c073	-0.12768726
191	0x3e80cbd3	0.25155506
192	0xbea5de87	-0.32396337
193	0xbdd6948c	-0.10477552
194	0x3ea74eeb	0.32677397
195	0x3db19198	0.08670348
196	0x3d372a4c	0.04471807
197	0xbe8fa5d9	-0.2805622
198	0x3e0ce5cc	0.13759536
199	0xbcbf7bda	-0.023374487

enc.0.bias f4 [10]
0	0x3e980069	0.29687813
1	0xbd0c5b62	-0.034266837
2	0x3e004adc	0.12528557
3	0x3b2a25e5	0.0025962528
4	0x3dbbec85	0.09175972
5	0x3e8cf813	0.27533016
6	0x3f0e1a7b	0.55509156
7	0x3eb5c1e8	0.354995
8	0xbcf0046f	-0.02929899
9	0x3cb4a56c	0.022051536

enc.2.weight f4 [10, 10]
0	0x3e8d41f3	0.27589378
1	0x3e70c602	0.23513034
2	0xbe1ce7a8	-0.15322745
3	0xbde0304c	-0.10946712
4	0x3df2b1ec	0.11850342
5	0xbe480b8b	-0.19535653
6	0x3ce4636e	0.027879443
7	0xbe03c5d0	-0.12868428
8	0xbe9fb1ec	-0.3119043
9	0xbdc3f859	-0.09568853
10	0xbe27c2e7	-0.16382943
11	0x3e151332	0.14558104
12	0xbd8a22c3	-0.067449115
13	0xbe3b911f	-0.18317078
14	0xbd4400bb	-0.04785226
15	0x3e0edcfa	0.13951483
16	0x3e2698ed	0.16269274
17	0xbe9c9268	-0.3058045
18	0x3e1ce989	0.15323462
19	0xbe7dfa0a	-0.24802414
20	0xbe090c90	-0.13383698
21	0xbe80ff27	-0.25194666
22	0xbe82d48a	-0.2555278
23	0xbe4e1945	-0.20126827
24	0x3e7619b9	0.2403325
25	0x3cb362fe	0.02189779
26	0xbe026dcf	-0.12737201
27	0xbe1754ba	-0.14778414
28	0xbd7927ee	-0.060829096
29	0xbe6e7fc4	-0.23290926
30	0xbe8f5053	-0.2799097
31	0xbe5cad25	-0.21550424
32	0xbe91f2d6	-0.28505582
33	0x3d083f36	0.033263408
34	0xbd431dfa	-0.04763601
35	0xbe6a9453	-0.22908144
36	0xbd9aba50	-0.075550675
37	0xbdf07001	-0.11740113
38	0xbcbd0f7c	-0.023078673
39	0xbdd8aa4b	-0.10579356
40	0x3ee2dbb0	0.44308233
41	0xbe27d902	-0.16391376
42	0xbe88b9ad	-0.2670416
43	0x3f14607e	0.57959735
44	0xbe9a2540	-0.30106544
45	0x3e54adcd	0.20769425
46	0x3f7b3f0a	0.98143065
47	0x3ed10bb1	0.40829232
48	0xbe8d7a4b	-0.27632365
49	0x3f0544ae	0.5205792
50	0x3e2b3998	0.16721189
51	0xbe4cfe75	-0.20018943
52	0x3f0db90b	0.5536048
53	0x3c79a226	0.015236413
54	0x3e942564	0.28934777
55	0x3ebdd3f4	0.3707577
56	0x3eed9fb2	0.464109
57	0x3ec2a41e	0.38015836
58	0x3e4d41a4	0.20044571
59	0xbed00ca3	-0.4063464
60	0xbe7a6aa8	-0.24454749
61	0xbdd9c33a	-0.1063294
62	0xbea80a27	-0.32820246
63	0xbea0559e	-0.3131532
64	0x3d206a13	0.03916366
65	0xbd9adac1	-0.07561255
66	0x3e37013e	0.17871568
67	0x3d1b96a2	0.03798545
68	0x3e495c79	0.19664182
69	0xbd345659	-0.04402766
70	0xbe8ae806	-0.27130145
71	0x3d01bd71	0.031674806
72	0xbd9587ab	-0.07301267
73	0xbcf3c912	-0.029758964
74	0x3e413dbe	0.18871209
75	0xbe055d5f	-0.130239
76	0x3e910a8d	0.28328362
77	0xbe1c560b	-0.15267198
78	0x3e8e8edc	0.27843368
79	0x3dad9dea	0.08477385
80	0xb58dab88	-1.0555241e-06
81	0x3e96d4fb	0.29459366
82	0xbe97773c	-0.29583156
83	0x3e8fc715	0.28081575
84	0x3da865f8	0.08222574
85	0xbc6db08c	-0.014507424
86	0xbc52a143	-0.012855831
87	0xbe92df8e	-0.28686184
88	0xbe83ef9f	-0.25768754
89	0xbe9654c8	-0.29361558
90	0xbe5ad9a8	-0.21372092
91	0xbafea5b9	-0.0019428051
92	0xbd8357e3	-0.064132474
93	0x3dcbc96b	0.09950527
94	0xbe4f282d	-0.2023017
95	0xbe987760	-0.29778576
96	0xbe190779	-0.14944257
97	0xbd955572	-0.07291688
98	0x3e69e0a6	0.22839603
99	0xbd0733e1	-0.03300846

enc.2.bias f4 [10]
0	0xbe223cd0	-0.1584351
1	0x3d3f848c	0.046757266
2	0xbde7fb75	-0.113272585
3	0x3d342052	0.043976136
4	0x3e8622c5	0.26198402
5	0x3d584352	0.052798577
6	0x3e0fe4f2	0.1405218
7	0xbdac24fb	-0.08405491
8	0xbe1890bd	-0.14898963
9	0xbe8403fc	-0.2578429

enc_mean.weight f4 [1, 10]
0	0x3e92c939	0.28669146
1	0x3d7b25d9	0.06131539
2	0xbdc8d760	-0.098067045
3	0xbe11cb01	-0.14237596
4	0xbe2f8a95	-0.17142709
5	0x3eff6235	0.49879614
6	0x3c4202ea	0.011841515
7	0x3e0820f8	0.13293827
8	0xbe344ffc	-0.17608637
9	0x3d468b2b	0.048472565

enc_std.0.weight f4 [1, 10]
0	0x3d670b48	0.056407243
1	0x3e1e5990	0.15463853
2	0x3d31e178	0.043427914
3	0x3e3bd88d	0.18344326
4	0xbed65d1c	-0.41867912
5	0xbf20418b	-0.6260001
6	0x3d8e74b3	0.06955852
7	0xbe64dea1	-0.22350551
8	0x3da1c8ab	0.078996025
9	0x3e82f173	0.25574836

prior.0.weight f4 [10, 10]
0	0x3f1b3ef1	0.60642916
1	0x3db8948b	0.09012707
2	0xbe3ce3a3	-0.18446212
3	0x3f277e4b	0.6542708
4	0x3ed001b1	0.4062629
5	0x3d278af9	0.04090402
6	0xbe03af99	-0.12859954
7	0xbe18f5a8	-0.1493746
8	0x3e33d6d1	0.17562415
9	0x3ec00678	0.37504935
10	0xbe630150	-0.2216847
11	0x3df68121	0.12036348
12	0xbe188517	-0.1489452
13	0x3eef25d3	0.46708545
14	0xbe5df1f4	-0.21674329
15	0xbde5ec6d	-0.11226735
16	0x3c27d78a	0.01024426
17	0x3daf13da	0.08548708
18	0x3e60f083	0.21966748
19	0xbcbfca08	-0.023411766
20	0x3ecdf7f8	0.40228248
21	0xbdd36a5c	-0.10323021
22	0x3e260ee0	0.16216612
23	0x3efe334a	0.49648505
24	0x3eb51070	0.35364103
25	0x3dd049ab	0.10170301
26	0xbe58440e	-0.21119711
27	0xbea5cce0	-0.3238287
28	0xbe52bc05	-0.20579536
29	0xbe278490	-0.16359162
30	0x3da2e138	0.07953113
31	0x3ec98130	0.39356375
32	0xbeb32342	-0.34987837
33	0x3f09b067	0.53784794
34	0xbdd0e55e	-0.10199998
35	0xbd729ce1	-0.059231643
36	0x3cfa7d02	0.030577186
37	0xbeb2a159	-0.34888723
38	0x3e637672	0.22213152
39	0x3dc4f481	0.09616948
40	0x3eb9cb3d	0.3628787
41	0x3df88447	0.12134605
42	0xbe84082f	-0.25787494
43	0x3d24394d	0.04009371
44	0x3e38567d	0.18001743
45	0xbef17da9	-0.47166184
46	0x3e0fea74	0.1405428
47	0xbe82e394	-0.25564253
48	0x3e994226	0.2993328
49	0x3dc73266	0.097264096
50	0xbf471dbd	-0.7777975
51	0xbdcce2ee	-0.10004221
52	0xbe8ebb45	-0.2787725
53	0xbf3d0765	-0.7383941
54	0x3dc8ffbb	0.09814402
55	0xbe0906f6	-0.13381562
56	0xbe8612a3	-0.26186094
57	0xbe592d10	-0.21208596
58	0xbe013f27	-0.12621747
59	0xbea4d75f	-0.32195565
60	0x3eae2fa3	0.3402072
61	0x3dbb6637	0.09150355
62	0xbc9eb4fa	-0.019373406
63	0x3f3b91a2	0.73269093
64	0xbd361b58	-0.04445967
65	0xbe41ba09	-0.18918623
66	0x3d4e9101	0.050431255
67	0xbe83a8b2	-0.25714642
68	0x3eb28fa0	0.34875202
69	0x3e4cf2bb	0.2001447
70	0xbf468d11	-0.77559
71	0xbc1bdc3f	-0.00951296
72	0xbedb236c	-0.42800462
73	0xbf324739	-0.6963993
74	0x3e36a428	0.17836058
75	0xbd9c53da	-0.07633181
76	0xbc0a01e5	-0.008423303
77	0xbe12bb15	-0.14329179
78	0xbe852f02	-0.26012427
79	0xbde02b0b	-0.1094571
80	0xbd586f10	-0.052840292
81	0x3e0ed1b3	0.13947181
82	0x3e9e2362	0.3088637
83	0x3dcb33d9	0.099219985
84	0x3dcdbb06	0.100454375
85	0xbe488b14	-0.19584304
86	0xbeb40664	-0.35161126
87	0xbc934f2a	-0.017982084
88	0x3da29e91	0.079404004
89	0xbe46f47c	-0.19429201
90	0xbf134463	-0.57526225
91	0xbe313025	-0.17303522
92	0xbdfedd18	-0.12444514
93	0xbea26136	-0.3171479
94	0x3d4f8c61	0.050670985
95	0x3c148bf6	0.009066572
96	0xbe04eef0	-0.12981772
97	0xbe8cbe7b	-0.27489075
98	0xbe5e2656	-0.21694311
99	0xbe2ea048	-0.1705333

prior.0.bias f4 [10]
0	0xbd6a3395	-0.0571781
1	0xbe1d0105	-0.1533242
2	0x3f1ea0f7	0.6196436
3	0x3edf9281	0.4366646
4	0x3e7de003	0.24792485
5	0xbe981b3a	-0.29708272
6	0x3e2db33f	0.16962908
7	0xbdfd0858	-0.12355107
8	0xbd34c8d9	-0.044136856
9	0x3f023eee	0.50877273

prior_mean.weight f4 [1, 10]
0	0x3f1c8e53	0.6115467
1	0x3e238b36	0.15971074
2	0x3ef3c583	0.47611627
3	0x3ea0bb4c	0.31392896
4	0x3e1aaff2	0.1510618
5	0xbf70bc5c	-0.94037414
6	0x3f31fdb6	0.6952776
7	0xbf4bbf2d	-0.79588586
8	0xbe992775	-0.29912916
9	0xbf8766fb	-1.0578302

prior_std.0.weight f4 [1, 10]
0	0xbe7c7954	-0.24655658
1	0xbdeaea81	-0.11470509
2	0x3f3741ef	0.7158498
3	0xbe612743	-0.21987633
4	0xbf088644	-0.53329873
5	0x3e62b12d	0.221379
6	0xbe07364e	-0.1320431
7	0xbed5e577	-0.4177663
8	0x3e55ad97	0.20867
9	0xbe49d60f	-0.19710563

dec.0.weight f4 [10, 20]
0	0xbda3389f	-0.07969784
1	0x3d153695	0.036429007
2	0xbe499046	-0.19683942
3	0x3c0f9d51	0.0087655345
4	0x3c60d2d3	0.013722139
5	0xbe348599	-0.17629088
6	0xbdeef2d3	-0.11667409
7	0x3e3b7eae	0.18310043
8	0xbd5cdea4	-0.053923264
9	0xbd42ce37	-0.047559943
10	0x3bdd4210	0.00675226
11	0xbd315b4e	-0.043299966
12	0x3e02dfe1	0.12780716
13	0x3e39ff10	0.18163705
14	0xbe4bdf8f	-0.199095
15	0xbe593424	-0.21211296
16	0xbd19bd50	-0.037534058
17	0xbcf86d5a	-0.03032558
18	0xbca91f15	-0.020644704
19	0x3e2e2771	0.17007233
20	0x3e3d0c1b	0.18461649
21	0xbce150d4	-0.027504362
22	0xbdd6b6a5	-0.104840554
23	0xbd957a59	-0.072987266
24	0xbe4a3c8a	-0.19749656
25	0x3dbf299b	0.093341075
26	0x3e141d1a	0.14464226
27	0xbe06387d	-0.13107486
28	0x3d6a1258	0.0571464
29	0x3e0cceeb	0.13750808
30	0x3a938815	0.0011255766
31	0x3d9c48ae	0.0763105
32	0xbdf0b2dd	-0.117528655
33	0xbe1d3773	-0.15353183
34	0x3e1e5932	0.15463713
35	0x3e38b17f	0.1803646
36	0xbdf4eddc	-0.119594306
37	0x3d64fae2	0.055903323
38	0xbd11307b	-0.035446625
39	0x3d8566e5	0.06513766
40	0xbe2b281d	-0.16714521
41	0xbdfeaa0e	-0.12434779
42	0x3e2a0b0f	0.16605781
43	0xbe4a8b47	-0.19779693
44	0x3e54af9d	0.20770116
45	0x3dbc8cde	0.09206556
46	0xbd38caac	-0.045115158
47	0xbe46e874	-0.19424611
48	0x3dba77ea	0.09104903
49	0xbd6f6109	-0.05844215
50	0x3e2d6edd	0.16936822
51	0x3e647869	0.22311558
52	0xbe58eb7d	-0.21183582
53	0x3d95ecd6	0.073205635
54	0x3e4f3e95	0.20238717
55	0x3e5cc6b0	0.21560168
56	0xbd79e934	-0.061013415
57	0x3e197ba2	0.14988568
58	0xbd31fa26	-0.04345145
59	0xbe4f91c7	-0.20270453
60	0xbc82d7da	-0.015972067
61	0x3da7ec5a	0.08199377
62	0x3cc88899	0.024479197
63	0x3e524807	0.20535289
64	0x3dcc6ecb	0.099820696
65	0xba1dea52	-0.0006023991
66	0xbe2b5973	-0.16733341
67	0xbd007450	-0.031360924
68	0xbe2b266e	-0.16713879
69	0x3e60846a	0.21925512
70	0xbdcac3d8	-0.099006355
71	0xbe537205	-0.20648964
72	0xbd9d4a06	-0.076801345
73	0x3d46fe53	0.048582386
74	0x3dda132f	0.1064819
75	0x3e0a9a5c	0.13535446
76	0xbc5c20d3	-0.01343556
77	0xbd7bd18f	-0.061479148
78	0x3e5d49f1	0.21610238
79	0xbceebe00	-0.029143333
80	0xbcae7ea8	-0.021300629
81	0xbdc9d137	-0.09854358
82	0xbe38a9b3	-0.18033485
83	0x3d8902e4	0.066900045
84	0xbe115c2b	-0.14195316
85	0x3dbd05be	0.09229611
86	0xbe0b909b	-0.13629381
87	0x3ba8594e	0.005137599
88	0x3e331081	0.17486764
89	0xbdc565ef	-0.09638583
90	0x3e32a56d	0.17445917
91	0xbcab9269	-0.020943837
92	0x3e2199c2	0.1578131
93	0xbe02bde4	-0.1276775
94	0xbcd878a4	-0.026424713
95	0xbe3abd68	-0.18236315
96	0xbe5e70af	-0.21722673
97	0x3d67ff96	0.05664023
98	0xbcbd8211	-0.02313331
99	0xbe39e3ee	-0.18153355
100	0xbd560611	-0.05225188
101	0xbcb93caf	-0.022611944
102	0xbd0c4ab0	-0.034250915
103	0xbdbe1df3	-0.09283056
104	0xbe390613	-0.18068723
105	0x3c9bd86d	0.019024098
106	0x3d911d1c	0.0708563
107	0xbd3a09b4	-0.04541941
108	0x3d8f8a85	0.070088424
109	0xbd9c4232	-0.07629813
110	0xbd641a86	-0.055689357
111	0xbe44f9b5	-0.1923588
112	0xbd2dfc7d	-0.04247712
113	0xbde7fc75	-0.11327449
114	0xbe307b03	-0.17234425
115	0x3e1bb7af	0.15206788
116	0xbe5369f8	-0.20645893
117	0x3d199be2	0.037502177
118	0x3e1be04c	0.15222281
119	0x3dab2fff	0.08358764
120	0xbe1d131b	-0.1533932
121	0x3d51975f	0.05116975
122	0xbe0dd444	-0.13850504
123	0x3dd1572f	0.10221707
124	0xbe4cb1f0	-0.19989753
125	0x3dd61a63	0.104542516
126	0x3de4414e	0.111452684
127	0x3dbfe634	0.0937008
128	0x3d4c7dfc	0.049924836
129	0xbd250978	-0.040292233
130	0x3e1bc551	0.15211989
131	0xbe6285cd	-0.22121353
132	0x3bbb995f	0.0057250704
133	0xbd96029c	-0.073247164
134	0xbe5ddc7a	-0.21666136
135	0xba4b4b24	-0.0007755032
136	0x3b84461e	0.004036679
137	0xbd784b96	-0.06061896
138	0x3e286429	0.16444458
139	0x3da4b626	0.080425546
140	0x3c9164c0	0.017748237
141	0xbe29b21e	-0.16571853
142	0x3b03e027	0.002012262
143	0x3dbf80a5	0.09350709
144	0xbe271a5f	-0.16318654
145	0xbd71018f	-0.058839377
146	0x3e60ea77	0.21964441
147	0xbe2218df	-0.158298
148	0xbd47957b	-0.04872654
149	0xbd8a0606	-0.0673943
150	0xbcf2fd49	-0.029661791
151	0xbe1f682f	-0.15567087
152	0xbdc9075f	-0.09815859
153	0x3dcaacc5	0.098962344
154	0x3decc2a6	0.11560564
155	0x3def57e9	0.116866894
156	0xbd1880af	-0.037232097
157	0x3dff2738	0.12458652
158	0x3df89c7a	0.121392205
159	0xbdf00140	-0.117189884
160	0xbdeb9130	-0.11502302
161	0xbd9ed5f2	-0.077556506
162	0xbdbdf59a	-0.092753604
163	0xbdf70387	-0.1206122
164	0x3da8b221	0.082371004
165	0xbc4e4c92	-0.012591498
166	0x3e1aa4cb	0.15101926
167	0x3da18224	0.078861505
168	0x3e3ec49d	0.1862969
169	0x3e1bb93e	0.15207383
170	0x3d076009	0.03305057
171	0xbdc8f9ff	-0.09813308
172	0xbde1445c	-0.10999367
173	0x3b3f46c2	0.0029186462
174	0xbe000c9c	-0.1250481
175	0xbe5ca2a1	-0.21546413
176	0x3d924494	0.071419865
177	0x3e55e2e4	0.20887333
178	0x3e584b26	0.21122417
179	0x3dcaa719	0.098951526
180	0x3d997d18	0.07494563
181	0xbe4c24bb	-0.19935887
182	0xbe02f9b3	-0.12790565
183	0x3db0282e	0.08601414
184	0x3e12b9b5	0.14328654
185	0xbd9b2e7c	-0.075772256
186	0x3e26caed	0.16288348
187	0x3dc74ecb	0.097318254
188	0x3e4a67ab	0.19766109
189	0x3dafa493	0.08576312
190	0xbc2a76a8	-0.010404266
191	0x3e079b45	0.13242824
192	0xbdd5e9b9	-0.1044497
193	0x3d195d0c	0.037442252
194	0x3e1bc888	0.15213215
195	0xbdfafa4f	-0.12254774
196	0xbe5d4ddb	-0.21611731
197	0xbb645b50	-0.0034844466
198	0x3dd33a91	0.10313905
199	0x3db6f744	0.08933881

dec.0.bias f4 [10]
0	0x3de81d50	0.11333716
1	0x3dedbe67	0.11608582
2	0x3df2eab6	0.11861174
3	0x3d577fef	0.05261224
4	0xbd2de86c	-0.042457983
5	0xbe279cd6	-0.16368422
6	0x3d38f60d	0.045156527
7	0x3d089117	0.033341493
8	0xbdbaa50a	-0.0911351
9	0x3dab475d	0.08363221

dec.2.weight f4 [10, 10]
0	0x3ddc44dd	0.10755322
1	0x3e25e2a2	0.16199735
2	0xbdc12579	-0.094309755
3	0xbe846f9b	-0.25866398
4	0x3e26f139	0.16302957
5	0xbe18caa1	-0.14921047
6	0x3e15ecca	0.14641109
7	0x3e317ded	0.17333193
8	0xbc60e0ca	-0.013725469
9	0xbd25dc93	-0.04049356
10	0xbd8eaba8	-0.069663346
11	0xbe2cb86b	-0.16867225
12	0x3e454ad0	0.1926682
13	0xbe00e786	-0.12588319
14	0x3db64113	0.08899131
15	0xbe5e7e04	-0.21727759
16	0xbe9a4578	-0.30131125
17	0x3e48cb47	0.19608794
18	0x3b3d7acf	0.002891231
19	0xbe12476f	-0.14285062
20	0x3e71e6ef	0.2362325
21	0xbe75151f	-0.23933838
22	0x3e815463	0.25259694
23	0x3e5c3d3c	0.21507734
24	0x3be8aee0	0.007100925
25	0x3e5d99b3	0.21640663
26	0xbda17e5f	-0.078854315
27	0xbe513682	-0.2043095
28	0xbde4e1b9	-0.11175866
29	0xbe147172	-0.14496401
30	0x3e164ba1	0.14677288
31	0x3ccc6112	0.02494863
32	0xbe95a2e1	-0.2922583
33	0xbd93d16f	-0.07217681
34	0x3dd228ae	0.10261665
35	0xbde2dd62	-0.11077382
36	0xbe9722c1	-0.29518703
37	0x3d8e0404	0.0693436
38	0x3e5ef7c3	0.21774201
39	0x3d542578	0.051793545
40	0xbe9eff22	-0.31054026
41	0x3d53fb88	0.05175355
42	0x3e12336f	0.14277433
43	0xbe458a76	-0.192911
44	0xbdb0bd0a	-0.08629806
45	0x3e0da3fd	0.13832088
46	0x3e6f00e0	0.23340178
47	0xbd4c0f71	-0.049819414
48	0xbe0ea31e	-0.13929412
49	0xbe8c9e2e	-0.27464432
50	0x3db5d31b	0.08878156
51	0x3e67fe57	0.22655617
52	0xbe64c1d6	-0.22339568
53	0xbe487d10	-0.19578958
54	0xbe418a10	-0.18900323
55	0xbe429125	-0.1900068
56	0x3d25e75d	0.04050385
57	0xbe847d39	-0.25876787
58	0xbdd8f936	-0.10594408
59	0xbe588c7a	-0.21147338
60	0x3e8f1087	0.27942297
61	0xbe681394	-0.22663718
62	0xbdf1ad69	-0.118006535
63	0x3e3cc22c	0.18433446
64	0x3df4bfa6	0.119506165
65	0x3e967313	0.2938467
66	0x3d071db4	0.03298731
67	0xbdc550c3	-0.09634545
68	0x3e8328a4	0.25616944
69	0x3c5ed912	0.013601558
70	0x3d3c47d5	0.045966942
71	0xbe948c8f	-0.29013488
72	0x3d7b7e1d	0.061399568
73	0x3d67b411	0.05656821
74	0xbe43797b	-0.1908931
75	0xbd92cc4a	-0.07167871
76	0xbe94da05	-0.29072586
77	0x3d57a51b	0.05264769
78	0xbe4179d3	-0.18894129
79	0x3e21c563	0.15797953
80	0xbe90f0d7	-0.28308746
81	0xbdce5b7d	-0.10076044
82	0x3e752804	0.23941046
83	0x3e0eef98	0.13958585
84	0x3da69536	0.081339285
85	0xbe166aeb	-0.14689223
86	0x3e5a4dd8	0.21318758
87	0xbe93e862	-0.28888232
88	0xbd0f919d	-0.035050977
89	0x3e6a27c5	0.22866733
90	0xbe90d32a	-0.28286105
91	0x3e337471	0.17524888
92	0x3d2338cc	0.039849088
93	0xbe7d4f35	-0.24737246
94	0x3e7969a8	0.24356711
95	0xbd9e777f	-0.07737636
96	0xbe842d9a	-0.2581604
97	0xbe0478e1	-0.12936737
98	0x3db1b0f8	0.08676332
99	0x3e0fcecb	0.14043729

dec.2.bias f4 [10]
0	0x3e8cc555	0.27494302
1	0xbe1508d5	-0.1455415
2	0xbe7c0e86	-0.24614915
3	0x3e65f572	0.22456911
4	0x3e7a43ef	0.24439977
5	0xbe74cf37	-0.23907171
6	0x3e4b4a4b	0.1985256
7	0xbcc7e14a	-0.024399418
8	0xbe25cb3b	-0.16190808
9	0x3e714c65	0.23564298

dec_std.0.weight f4 [1, 10]
0	0xbe351a82	-0.17685893
1	0xbe032d11	-0.1281016
2	0x3e85c932	0.26130062
3	0x3dba30e9	0.0909136
4	0x3d7c0261	0.061525706
5	0x3e907d79	0.28220728
6	0x3e42a14d	0.19006844
7	0xbe899bde	-0.2687673
8	0x3db74314	0.08948341
9	0x3e75e72a	0.24013963

dec_mean.0.weight f4 [1, 10]
0	0xbd500864	-0.050789252
1	0xbe12e16e	-0.14343807
2	0xbe6c3082	-0.2306538
3	0xbdbb6ddf	-0.091518156
4	0xbdd607d6	-0.10450713
5	0x3e110dc7	0.14165412
6	0x3dcac039	0.09899945
7	0xbd383d22	-0.044980176
8	0xbe8655d9	-0.26237372
9	0x3d126839	0.035743926

rnn.weight_ih_l0 f4 [30, 20]
0	0x3e889c24	0.26681626
1	0xbeb0572f	-0.34441516
2	0x3cb361a4	0.021897145
3	0xbddea3b4	-0.10871068
4	0x3d58be32	0.05291576
5	0x3e235f2e	0.15954277
6	0xbe9afdf4	-0.30271876
7	0xbdb7d87f	-0.0897684
8	0x3e4d8ca6	0.20073184
9	0xbea5391e	-0.3227014
10	0xbe9b4230	-0.30323935
11	0xbe9ce687	-0.30644628
12	0xbe49c460	-0.19703817
13	0x3f5d6bd1	0.8649264
14	0x3e96e25b	0.2946957
15	0xbe6882b4	-0.2270611
16	0xbe8ec044	-0.27881062
17	0xbe38fe57	-0.18065773
18	0xbe2c8d0b	-0.16850679
19	0xbd6c51ed	-0.057695318
20	0x3e4758cc	0.19467467
21	0xbc0b4bbf	-0.008501946
22	0x3e8acacd	0.2710785
23	0xbc3b18e1	-0.011419506
24	0x3d8c2ae0	0.06844115
25	0xbd56750e	-0.052357726
26	0x3d23b20c	0.03996472
27	0xbec959e5	-0.39326397
28	0xbb20b757	-0.0024523342
29	0x3dc27257	0.09494465
30	0x3e7fa277	0.24964319
31	0x3d8e113a	0.069368795
32	0x3e34b431	0.17646863
33	0xbe47a2ce	-0.19495699
34	0xbe74c139	-0.23901834
35	0xbdcf4262	-0.101200834
36	0x3e08d85b	0.13363783
37	0x3e693086	0.22772416
38	0x3e8d680d	0.27618447
39	0xbcdeb8df	-0.027187763
40	0xbced5439	-0.028970825
41	0x3e890389	0.2676051
42	0xbd56f6bb	-0.052481394
43	0xbe918f8e	-0.28429836
44	0xbd587d01	-0.052853588
45	0xbe9d7fe4	-0.30761635
46	0xbe00eaf3	-0.12589626
47	0xbe6972d8	-0.22797716
48	0x3e1c13fc	0.15241998
49	0x3e032935	0.12808688
50	0x3d2721f1	0.040803853
51	0x3e09dab3	0.13462333
52	0x3d4d7c28	0.050167233
53	0xbe91f404	-0.28506482
54	0xbe48c1b6	-0.19605145
55	0xbe30545d	-0.17219682
56	0x3e366f17	0.17815815
57	0x3e871d38	0.2638948
58	0x3da326fd	0.07966421
59	0x3dfb1693	0.12260165
60	0x3edc2f5a	0.43004876
61	0xbea36bd2	-0.31918198
62	0x3ee7a1a1	0.452405
63	0xbdb718fe	-0.08940314
64	0x3e827766	0.2548172
65	0x3eb8d915	0.3610312
66	0x3f236f3a	0.63841593
67	0xbdb19ef8	-0.08672899
68	0x3df2119a	0.118197635
69	0x3eed4a0c	0.46345556
70	0xbd9c927a	-0.07645126
71	0x3dfea2f3	0.12433424
72	0xbe4a2834	-0.19741899
73	0x3dcb312a	0.09921487
74	0xbd9350b1	-0.07193125
75	0xbd98a0ad	-0.074525215
76	0xbe22fb60	-0.15916204
77	0xbe8a57ff	-0.2702026
78	0xbe06937c	-0.13142198
79	0x3e7d6032	0.24743727
80	0x3e0ee1a9	0.1395327
81	0xbf5a210c	-0.85206676
82	0x3df8161c	0.12113592
83	0x3ccf0ec3	0.025275594
84	0x3cd6ecdf	0.026235996
85	0x3ebc3e63	0.36766347
86	0xbe9d87bb	-0.30767617
87	0xbf42c8b3	-0.7608749
88	0xbe536765	-0.2064491
89	0x3ecd1543	0.40055284
90	0xbda8ba45	-0.08238653
91	0xbe3c7e56	-0.18407568
92	0x3e3cc600	0.18434906
93	0x3d5993db	0.05311952
94	0xbde49023	-0.111603044
95	0xbe1fd814	-0.15609771
96	0x3e8b7bca	0.2724288
97	0xbeca2d49	-0.39487675
98	0x3e1fd250	0.15607572
99	0xbed14250	-0.40870905
100	0x3ec84f7b	0.3912314
101	0x3e38dbf7	0.1805266
102	0x3dd8e80b	0.10591134
103	0xbe913795	-0.28362718
104	0x3e2c7080	0.1683979
105	0xbe2ec8b0	-0.17068744
106	0x3c425469	0.011860945
107	0x3f392dbe	0.7233542
108	0x3ea40bb8	0.3204019
109	0xbdbf1bad	-0.093314506
110	0x3e59a114	0.21252853
111	0x3ea0162b	0.31266913
112	0xbda54925	-0.08070592
113	0xbebd173d	-0.36931792
114	0x3db7bcb0	0.08971536
115	0xbe531889	-0.20614828
116	0x3ca827a9	0.020526724
117	0xbdcd7d87	-0.10033708
118	0x3e9fcd7b	0.31211457
119	0x3dca62db	0.098821364
120	0xbd9a3f8f	-0.07531654
121	0x3e8f928c	0.28041494
122	0xbdfef71a	-0.12449475
123	0x3d8b1c03	0.06792452
124	0x3df7658b	0.12079915
125	0x3e783ce6	0.24241981
126	0x3e824824	0.25445664
127	0x3d5a63a3	0.053317677
128	0xbe0bfc2b	-0.13670413
129	0x3e9c72c2	0.30556303
130	0x3e84b60d	0.25920144
131	0x3d1e788e	0.03868919
132	0x3e6e1fa5	0.23254259
133	0xbe8b42c5	-0.2719938
134	0xbe88c3c6	-0.26711863
135	0xbdc954c8	-0.09830624
136	0xbdb41396	-0.08792798
137	0xbec7c977	-0.39020893
138	0x3ed1fb1b	0.4101189
139	0xbd6ccf96	-0.057815157
140	0x3cbc133f	0.022958396
141	0x3da4a2c1	0.08038855
142	0xbe339f1d	-0.17541166
143	0x3e33a4f0	0.17543387
144	0x3e97da7d	0.2965888
145	0xbe27803a	-0.16357508
146	0x3ebef4ee	0.37296242
147	0x3d484651	0.048895184
148	0xbe8f3cc2	-0.27976042
149	0x3eb6490a	0.356026
150	0x3e01f9e9	0.1269299
151	0x3d1a392d	0.037652183
152	0x3df16dc5	0.11788515
153	0xbd82f4ca	-0.06394346
154	0x3ea1114f	0.31458518
155	0xbd9d5da6	-0.07683878
156	0x3e78d751	0.24300887
157	0x3d42c751	0.047553364
158	0x3ed1b192	0.40955788
159	0x3dcbcdfd	0.099513985
160	0x3e68ea9e	0.2274575
161	0x3ea178d2	0.3153749
162	0xbe03ce45	-0.12871654
163	0x3ec61a5c	0.38691986
164	0x3e8973d8	0.26846194
165	0xbd7042fb	-0.058657628
166	0x3da4947b	0.08036133
167	0x3f34d15a	0.70631945
168	0xbe81325c	-0.25233734
169	0x3e328f34	0.1743744
170	0x3e63284d	0.22183342
171	0x3ea1f00d	0.31628457
172	0x3e1c99a3	0.15292983
173	0xbe8d469c	-0.27592933
174	0x3e4a0745	0.19729336
175	0xbdb8f2a8	-0.09030658
176	0x3e95adf3	0.29234275
177	0x3eccace4	0.39975655
178	0xbe36cd17	-0.17851673
179	0x3e9a32dc	0.30116928
180	0x3ec29ace	0.38008732
181	0x3ecb2470	0.39676237
182	0x3e2c4e4b	0.16826741
183	0xbda337a7	-0.07969599
184	0xbe74cdf0	-0.23906684
185	0xbb68e6b5	-0.0035537903
186	0x3ef80fe1	0.48449615
187	0x3f0b599c	0.5443361
188	0x3e1e2037	0.15441976
189	0x3deb31f3	0.114841364
190	0x3e6c5972	0.23080996
191	0xbe0df5d9	-0.13863315
192	0xbe32ceed	-0.17461748
193	0xbe42e5a4	-0.19032913
194	0xbd31da51	-0.043421093
195	0xbe14abc9	-0.14518656
196	0x3eb11a77	0.34590504
197	0xbee91616	-0.45524663
198	0x3ea71716	0.326348
199	0x3dc29fa5	0.09503106
200	0xbf0ebd6f	-0.557578
201	0xbe1426f3	-0.14467983
202	0xbeb1a469	-0.34695747
203	0x3d7c92f3	0.06166358
204	0x3dfec656	0.12440173
205	0xbe6e3f5c	-0.23266357
206	0xbd69cce2	-0.057080157
207	0x3ccc7669	0.024958806
208	0x3de22aba	0.11043306
209	0xbf058df9	-0.5216976
210	0x3db9d228	0.09073287
211	0x3ebfa4c0	0.37430382
212	0xbe99bd33	-0.3002716
213	0x3cbee2a5	0.023301432
214	0xbe8d3d2b	-0.2758573
215	0xbe059717	-0.13045917
216	0x3f0ffbf7	0.5624384
217	0xbe5fe7aa	-0.21865717
218	0xbeaf865b	-0.34282193
219	0x3e8b3dfd	0.2719573
220	0xbf203f2b	-0.62596387
221	0xbe6e5236	-0.23273548
222	0xbeb9259f	-0.36161515
223	0xbeeb613e	-0.45972627
224	0xbe793be6	-0.24339256
225	0xbf20036b	-0.62505215
226	0xbe7ad825	-0.24496515
227	0xbd2b9519	-0.041890237
228	0xbd8c2544	-0.06843045
229	0xbe21a26c	-0.15784615
230	0xbd77708d	-0.06041007
231	0xbd05161a	-0.03249178
232	0xbedb826c	-0.42872941
233	0xbe38e12b	-0.18054645
234	0x3d90fb5b	0.07079192
235	0x3d89d5ff	0.0673027
236	0xbe8b22ae	-0.27174896
237	0xbeff1ff9	-0.4982908
238	0xbea03c2c	-0.31295907
239	0xbe8e3914	-0.27777922
240	0xbf5589e1	-0.8341351
241	0xbead36a7	-0.3383076
242	0xbf23e646	-0.64023244
243	0xbf2aac77	-0.6666941
244	0xbef4baee	-0.47798866
245	0xbe02da24	-0.12778527
246	0xbed9374a	-0.42424995
247	0xbea73a60	-0.32661724
248	0xbe9eb59a	-0.30997926
249	0xbe6a9b41	-0.22910787
250	0xbe2fbad1	-0.17161109
251	0xbd9351ef	-0.07193362
252	0xbecf04c3	-0.4043332
253	0x3eb6d31d	0.35707942
254	0x3e87c662	0.26518542
255	0xbe2248b9	-0.15848054

rnn.weight_hh_l0 f4 [30, 10]
0	0xbe1949e0	-0.14969587
1	0xbd86372a	-0.065534905
2	0x3e0cf960	0.13767004
3	0x3f38c9d8	0.7218299
4	0x3d82345d	0.06357644
5	0xbe825208	-0.2545321
6	0xbe3d852c	-0.18507832
7	0xbca04393	-0.019563472
8	0x3d453d3f	0.048154112
9	0xbe1dffce	-0.15429613
10	0xbe0b3761	-0.13595344
11	0x3e9d5d58	0.30735278
12	0x3bd67846	0.0065450994
13	0x3df290a4	0.11843994
14	0x3e35b09b	0.17743151
15	0x3e2b3c9c	0.1672234
16	0x3c06f65b	0.008237447
17	0xbceda201	-0.029007914
18	0x3dac33cd	0.08408318
19	0xbe688108	-0.22705472
20	0xbe50f0cb	-0.20404355
21	0x3e88c474	0.26712382
22	0xbda6021c	-0.08105871
23	0xbdf0e4a2	-0.11762358
24	0xbe8d3caa	-0.27585346
25	0x3e8143fe	0.25247186
26	0x3e12db37	0.14341436
27	0xbc912b7f	-0.017720936
28	0x3e336592	0.17519215
29	0x3e0d5f19	0.13805808
30	0x3d2d4999	0.042306516
31	0xbe685295	-0.22687753
32	0x3e26628c	0.1624853
33	0xbb99c722	-0.004692928
34	0x3e73212b	0.23743121
35	0xbe71c72e	-0.23611137
36	0xbbebe7b4	-0.007199252
37	0x3d975b08	0.0739041
38	0x3e833c1c	0.25631797
39	0x3e8494a0	0.25894642
40	0xbe1d3fcb	-0.15356366
41	0x3e24f756	0.16109976
42	0xbdf6e71b	-0.120557986
43	0x3ed8a1c8	0.4231093
44	0xbdd34b2a	-0.10317071
45	0xbd19a57d	-0.037511338
46	0x3eb0a8b7	0.3450372
47	0xbe3cfdbe	-0.1845617
48	0xbeac6773	-0.33672675
49	0x3ddb0380	0.10694027
50	0xbed7adb8	-0.42124724
51	0x3e7ffcbe	0.24998757
52	0x3dfbef50	0.123015046
53	0xbe997365	-0.29970852
54	0x3e82e1d6	0.25562924
55	0xbe8aa15f	-0.2707624
56	0x3d9b680c	0.07588205
57	0xbdcbdf99	-0.09954757
58	0x3d9b531c	0.07584211
59	0xbe008e47	-0.12554274
60	0xbe5b7478	-0.21431148
61	0x3ea106dc	0.31450546
62	0xbea34107	-0.3188555
63	0x3b1ac7f1	0.002361771
64	0x3e4bd31d	0.19904752
65	0xbe226a76	-0.15860924
66	0xbdae3e93	-0.08508029
67	0xbe34e60a	-0.17665878
68	0x3e08d840	0.13363743
69	0x3e4dd825	0.20101984
70	0xbea60b9b	-0.3243073
71	0xbd9e6e77	-0.07735913
72	0x3e47c0ae	0.19507095
73	0xbebb5791	-0.36590245
74	0xbdbb543a	-0.09146924
75	0xbe184d1b	-0.14873163
76	0x3e114a42	0.14188483
77	0xbe8df731	-0.27727655
78	0x3ee1bc4f	0.4408898
79	0x3e0b0f83	0.13580136
80	0xbeb2e469	-0.34939888
81	0x3ed77ea2	0.420888
82	0xbd7584fd	-0.05994128
83	0x3c6852f9	0.0141799385
84	0xbc34f9a7	-0.01104585
85	0x3e2309ba	0.15921679
86	0x3d5215e4	0.051290408
87	0x3cfb8d1f	0.03070694
88	0x3e377466	0.17915496
89	0x3e84c954	0.2593485
90	0xbedf18fd	-0.43573752
91	0x3e9e7278	0.30946708
92	0xbe59289d	-0.21206899
93	0x3e3ee13b	0.18640606
94	0x3d2b9a08	0.041894943
95	0xbec02926	-0.37531394
96	0x3e328cfd	0.17436595
97	0x3b962570	0.0045820996
98	0x3da2263d	0.079174496
99	0xbe1cf646	-0.15328321
100	0x3dbbba0a	0.091663435
101	0xbe0976dd	-0.13424249
102	0x3e4dc5c2	0.2009497
103	0x3efa889e	0.48932356
104	0xbec0c005	-0.376465
105	0x3f1a169e	0.6019076
106	0xbe46f962	-0.1943107
107	0x3e0bef8c	0.13665599
108	0xbf0e13f5	-0.554992
109	0xbe35e5b0	-0.177634
110	0x3b019df4	0.0019777985
111	0xbe42bec4	-0.19018084
112	0x3eb8b5ea	0.3607629
113	0x3e94f278	0.2909124
114	0xbe277651	-0.16353728
115	0x3e84d0fe	0.25940698
116	0xbeb7a2de	-0.35866445
117	0xbcf4f563	-0.029902166
118	0xbe4e4b65	-0.20145948
119	0x3e1cc89e	0.15310904
120	0x3ee8055b	0.45316586
121	0x3e8673c2	0.2626019
122	0xbdc05d87	-0.09392839
123	0x3bc6a7cf	0.006062485
124	0xbe919cd3	-0.2843996
125	0xbe1623b1	-0.14662053
126	0x3e017eb9	0.12645997
127	0xbabaf0dc	-0.0014262456
128	0xbd53ccf7	-0.05170914
129	0xbcd61e9b	-0.02613764
130	0x3eb33203	0.34999093
131	0xbe6292ce	-0.22126314
132	0x3e49a8b1	0.19693257
133	0xbeba6ccb	-0.36411127
134	0xbe99e40c	-0.30056798
135	0x3eb3d873	0.35126075
136	0x3d8338d8	0.064073265
137	0x3e0315d4	0.12801296
138	0xbed3fc6b	-0.41403517
139	0xbb9f6a87	-0.004864994
140	0x3e3a9089	0.18219198
141	0xbc41324d	-0.011791778
142	0x3e9413f4	0.28921473
143	0x3e0d9a0b	0.13828294
144	0xbe0e0a05	-0.1387101
145	0x3ec98ab8	0.39363647
146	0x3cfd7202	0.030938152
147	0xbcabd248	-0.020974293
148	0x3cad06bc	0.021121375
149	0xba353b52	-0.00069134415
150	0x3da1bae1	0.078969724
151	0xbf26d84d	-0.651738
152	0x3eaa39e5	0.33247295
153	0x3dbad1ec	0.09122071
154	0xbebff40f	-0.3749089
155	0x3e444b61	0.1916938
156	0xbe06ad75	-0.13152106
157	0x3f011be1	0.50433165
158	0xbe8b15d3	-0.27165088
159	0xbdeac595	-0.11463467
160	0x3e8a47ba	0.27007848
161	0xbe34efb4	-0.17669564
162	0x3ef6b467	0.4818451
163	0x3edeee82	0.43541342
164	0xbe15da4f	-0.1463406
165	0x3e73fc64	0.23826748
166	0xbe464434	-0.19361955
167	0x3f02ae66	0.5104736
168	0xbbc6d7c9	-0.006068204
169	0xbef8f5b0	-0.48624945
170	0x3e94dedc	0.29076278
171	0xbdae4238	-0.08508724
172	0x3decc4a5	0.115609445
173	0x3d0c4231	0.034242813
174	0x3e6b2fba	0.22967425
175	0xbe3c61a5	-0.18396623
176	0x3d2808c7	0.041023996
177	0xbd7c9f61	-0.061675433
178	0x3d57f961	0.05272806
179	0x3e12770c	0.14303225
180	0x3e4d0301	0.20020677
181	0xbdec4555	-0.115366615
182	0x3d702bfc	0.058635697
183	0x3e993b9e	0.29928297
184	0xbeacc051	-0.33740476
185	0x3ee48626	0.44633597
186	0x3d14855c	0.036259994
187	0x3e970a8f	0.29500243
188	0xbe8aa0ba	-0.2707575
189	0xbe26ce18	-0.16289556
190	0x3f296d69	0.6618257
191	0x3d9a270d	0.075269796
192	0xbdf47e18	-0.11938113
193	0x3f01d829	0.5072046
194	0xbee3305f	-0.44372842
195	0xbd848d4f	-0.06472265
196	0x3dd3d347	0.10343032
197	0x3d9073a7	0.07053309
198	0xbe47d0dd	-0.19513269
199	0xbf3a1afe	-0.72697437
200	0x3d82edde	0.06393026
201	0xbe9337c2	-0.28753477
202	0xbdb0dd3b	-0.08635946
203	0xbf0b30b2	-0.5437118
204	0x3def8941	0.11696101
205	0x3e941ff9	0.28930643
206	0x3e6e14f3	0.23250179
207	0x3e57ca0f	0.21073173
208	0x3dd7194f	0.10502874
209	0xbe762caa	-0.24040475
210	0xbeb07505	-0.3446428
211	0xbe0cb908	-0.13742459
212	0x3d8fdf1a	0.07024975
213	0x3e40b9fa	0.18820944
214	0x3daf6439	0.08564038
215	0xbec4b9aa	-0.384229
216	0x3e542dd7	0.20720612
217	0xbdc91c02	-0.09819795
218	0x3d9082c0	0.070561886
219	0x3dcfba8f	0.10143005
220	0x3e2ec152	0.17065933
221	0x3d94849c	0.07251856
222	0x3ed0e7d7	0.4080188
223	0xbe7ae3fe	-0.24501035
224	0x3c84eb29	0.016225414
225	0x3d7c2f1b	0.06156836
226	0x3de1a384	0.11017516
227	0xbcdb35ad	-0.026758993
228	0xbeb48ff9	-0.35266092
229	0xbe7dc7d5	-0.24783261
230	0xbcaf06fd	-0.021365637
231	0xbe73460c	-0.2375719
232	0x3e67f1da	0.22650853
233	0xbe075ccf	-0.13218997
234	0xbdeea265	-0.11652068
235	0x3e7be13f	0.24597643
236	0xbed018b5	-0.4064385
237	0x3ea5625d	0.32301608
238	0xbeb2abf0	-0.34896803
239	0xbed350ab	-0.41272482
240	0xbda4ca1c	-0.08046362
241	0x3d86d57a	0.06583686
242	0xbdad562f	-0.08463704
243	0xbe082d15	-0.13298447
244	0x3e5210ee	0.2051427
245	0xbe82afb0	-0.25524664
246	0xbc2cda73	-0.010550129
247	0xbebcebe8	-0.36898732
248	0x3e086b3a	0.13322154
249	0x3e8b83ec	0.27249086
250	0x3ea62f7f	0.32458112
251	0x3d575dd9	0.052579734
252	0x3e805151	0.2506204
253	0x3ea9fa5d	0.33198825
254	0x3ca36426	0.019945215
255	0xbdf77c01	-0.12084199
