generative_ts/saves/250911_130458/model_LS4.pth (torch, 247755 bytes, 247 tensors)

encoder.latent.encoder.weight f4 [16, 1]
0.83320016 -0.6524816 0.7762579 -0.085872486 0.14468873 -0.13083948 0.9741354 -0.513876
-0.57973456 -0.16997294 0.42997652 0.30280972 -0.60264856 0.5839948 0.62058014 -0.52886945
00000000: 9b4c 553f 0909 27bf d6b8 463f eadd afbd
00000010: 4829 143e c9fa 05be f060 793f 618d 03bf
00000020: 7c69 14bf 630d 2ebe e225 dc3e e009 9b3e
00000030: 2d47 1abf af80 153f 57de 1e3f fd63 07bf

encoder.latent.encoder.bias f4 [16]
0.9444613 -0.011143164 0.88428074 0.13783048 -0.1900106 -0.6122908 0.5486553 0.31153193
0.6591186 -0.1470567 -0.86048937 -0.9265099 -0.659679 0.59244806 0.19217801 0.37788266
00000000: 37c8 713f d191 36bc 3960 623f 6f23 0d3e
00000010: 2492 42be 17bf 1cbf ac74 0c3f 1d81 9f3e
00000020: ffbb 283f 0896 16be 0849 5cbf c12f 6dbf
00000030: b9e0 28bf adaa 173f 50ca 443e d679 c13e

encoder.latent.backbone.c_layers.0.layer.D f4 [1, 16]
0.83614075 -1.3736552 -0.58459425 -0.68345827 -1.6251177 -0.24699731 -0.97813934 0.031028003
-0.91617966 -1.5456897 2.2470605 0.016196283 0.6166195 -1.6798768 0.50847095 0.20489806
00000000: 520d 563f efd3 afbf f8a7 15bf 1ff7 2ebf
00000010: db03 d0bf ddec 7cbe 5767 7abf 702e fe3c
00000020: c08a 6abf 29d9 c5bf d7cf 0f40 11ae 843c
00000030: c7da 1d3f 3406 d7bf 272b 023f ccd0 513e

encoder.latent.backbone.c_layers.0.layer.kernel.kernel.C f4 [1, 16, 8, 2]
0.62322205 0.09290398 -0.54608566 -0.85974467 0.4676971 -0.81643254 -0.025422463 -0.24240923
-0.271896 -1.5110626 -0.4056649 0.08751541 0.37768984 -0.26677418 -0.11778785 -0.95335823
0.75669676 1.2311594 -0.62907803 1.1455014 -0.6050137 -0.2837562 -0.1476514 1.1776946
0.0930758 0.416645 0.59457153 0.28156412 -0.33248284 1.1947385 0.08425543 0.8750977
-0.7919796 -1.3643508 -0.8385858 -0.28774485 0.30540058 1.0844657 1.275252 -0.044423196
-1.2275773 0.040582385 -0.60773635 0.50992745 -0.27353245 -0.58635306 -0.03766885 -0.29788676
0.18513392 -0.33113146 0.6455032 0.7926016 -0.47308958 -0.042148378 -0.67473817 -0.5241977
0.8666818 -0.35107142 -0.29515764 0.76940894 -0.13719223 1.7014282 0.928506 -0.8767218
-0.24625267 1.8087046 -0.65369755 0.12534644 -0.4551812 -0.88863283 -0.5006356 -1.0153327
0.26453653 0.09596419 -0.6360898 -0.16162084 0.8835221 0.26312947 -0.36824653 0.25001276
-0.8568191 -1.3668376 -0.73975325 -0.32489178 -0.724287 -0.108402014 -1.1423807 -0.67509973
0.5316021 1.0478096 0.6397021 0.66470104 -0.19124953 0.4220303 -1.0870328 0.02171257
0.51141816 1.2575984 -0.5365436 -0.55837744 -0.533167 -0.58730185 0.13384819 -0.6283257
-0.33748943 0.7803038 0.14662622 0.95722306 -0.24293454 -0.9470165 0.78184104 -1.2794206
0.35804373 0.75564474 -0.57229906 0.1488183 0.024773236 -0.6114381 0.075483456 2.7095876
0.5678056 0.6748804 -0.51779217 0.045881845 0.244511 0.63381547 -0.10918454 0.25325593
1.1973835 -0.059684087 1.5701685 -1.5615879 -0.044563156 0.19733003 -0.17103401 0.3261311
-0.30853158 0.7270434 -0.10155558 -0.2491369 -0.6627706 -0.13705736 0.07180001 0.019210342
0.30100754 -0.775331 -1.3204035 -0.6298956 -7.053764e-05 1.6018938 -1.0107855 0.08694784
0.82503897 0.32220033 1.0717319 -0.19886285 -1.1732863 -0.7144104 0.30261973 -0.501555
0.59901226 0.39326957 -0.9119682 0.3031939 0.6925134 -0.33329144 0.34073988 -0.11265616
-1.1965204 0.37418276 0.0065922188 -0.31002977 -0.68832403 0.15036114 0.21196386 -0.33538884
0.44496214 -0.20186718 0.10923005 -0.2783581 -0.05913072 0.5742835 0.4381511 0.8313678
-0.81627715 0.49288064 -0.25609887 -1.060945 -1.0153562 -0.9797446 -0.0021281352 -0.03447685
0.43759897 1.1572893 0.5261834 -0.061427046 0.1571573 -0.98690224 -0.8200812 0.47660854
-0.28755215 -1.2498791 -0.06271916 -0.6927106 0.13557875 0.44683164 0.14452323 0.006326406
-0.5074713 -0.46490973 -0.1658543 0.41057077 0.057066213 -0.8536371 0.93955827 -0.24303798
-0.7710553 -0.26426017 0.7239445 -0.30372372 -0.69833 0.74271595 -0.5040588 -0.25984463
-0.05071317 -1.300099 0.411206 1.014459 0.7925283 0.51009244 -0.80020994 -0.99932826
-1.5964605 -0.45810348 -0.8079613 0.64561266 0.45532224 0.18838876 0.4033433 -0.039227806
-0.34202448 0.39306456 0.070771396 -0.72978747 -0.8914911 0.13880678 -0.32694593 0.5693911
1.2396454 0.46293497 -0.1918167 -0.46773714 -0.038187467 -0.10814871 -0.26634276 0.25215584
00000000: 7b8b 1f3f 7144 be3d 45cc 0bbf 3a18 5cbf
00000010: ff75 ef3e b901 51bf c542 d0bc 203a 78be
00000020: f435 8bbe 806a c1bf 4fb3 cfbe 473b b33d
00000030: 9060 c13e a096 88be c23a f1bd 490f 74bf
00000040: e1b6 413f a296 9d3f 420b 21bf ca9f 923f
00000050: 2ee2 1abf 7e48 91be ee31 17be b2be 963f
00000060: 869e be3d 7e52 d53e d735 183f 2c29 903e
00000070: 313b aabe 31ed 983f 1c8e ac3d 6706 603f
00000080: 2dbf 4abf 0ca3 aebf 8fad 56bf 4b53 93be
00000090: 775d 9c3e c6cf 8a3f 753b a33f 19f5 35bd
000000a0: 4121 9dbf b739 263d 9c94 1bbf 9b8a 023f
000000b0: 720c 8cbe 3c1b 16bf a74a 1abd 9d84 98be
000000c0: bf93 3d3e 108a a9be b33f 253f f0e7 4a3f
000000d0: cc38 f2be c7a3 2cbd a4bb 2cbf d231 06bf
000000e0: dcde 5d3f a2bf b3be e71e 97be fcf7 443f
000000f0: 1f7c 0cbe 66c8 d93f 92b2 6d3f d770 60bf
00000100: a929 7cbe a283 e73f b958 27bf d15a 003e
00000110: 830d e9be 717d 63bf a829 00bf 6cf6 81bf
00000120: 5571 873e e088 c43d c8d6 22bf ef7f 25be
00000130: 812e 623f e8b8 863e cf8a bcbe ac01 803e
00000140: 7f58 5bbf 89f4 aebf 7860 3dbf 3758 a6be
00000150: df6a 39bf e001 debd 8839 92bf 56d3 2cbf
00000160: 1317 083f a01e 863f 84c3 233f d929 2a3f
00000170: ebd6 43be 5b14 d83e e423 8bbf 8fde b13c
00000180: 4dec 023f fcf8 a03f ec5a 09bf d3f1 0ebf
00000190: a27d 08bf 6a59 16bf 800f 093e f4d9 20bf
000001a0: 6acb acbe fdc1 473f 2f25 163e 920c 753f
000001b0: d5c3 78be ac6f 72bf bc26 483f 0ec4 a3bf
000001c0: 8251 b73e ef71 413f 3182 12bf d363 183e
000001d0: 3ef1 ca3c 3587 1cbf 1297 9a3d e269 2d40
000001e0: b55b 113f f6c4 2c3f 078e 04bf 9aee 3b3d
000001f0: 1761 7a3e bb41 223f 259c dfbd c3aa 813e
00000200: dd43 993f 4d77 74bd 48fb c83f 1de2 c7bf
00000210: db87 36bd e210 4a3e 8a23 2fbe a8fa a63e
00000220: daf7 9dbe 841f 3a3f 5ffc cfbd be1d 7fbe
00000230: 56ab 29bf c458 0cbe e20b 933d 025f 9d3c
00000240: a91d 9a3e 187c 46bf fb02 a9bf d740 21bf
00000250: 9bed 93b8 db0a cd3f 6b61 81bf b611 b23d
00000260: c135 533f 71f7 a43e 832e 893f b4a2 4bbe
00000270: 3f2e 96bf 9ae3 36bf f9f0 9a3e e965 00bf
00000280: de58 193f a15a c93e bf76 69bf 3b3c 9b3e
00000290: 8f48 313f 2da5 aabe 7575 ae3e 46b8 e6bd
000002a0: 9527 99bf e294 bf3e 8a03 d83b 39bc 9ebe
000002b0: 0136 30bf 45f8 193e 0e0d 593e 16b8 abbe
000002c0: 14d2 e33e 45b6 4ebe 01b4 df3d f484 8ebe
000002d0: 0e33 72bd 3e04 133f 5755 e03e 85d4 543f
000002e0: 8af7 50bf da5a fc3e 641f 83be 0ccd 87bf
000002f0: 31f7 81bf 8bd0 7abf 2f78 0bbb 9937 0dbd
00000300: f90c e03e 0e22 943f f5b3 063f ed9a 7bbd
00000310: d8ed 203e a0a5 7cbf d7f0 51bf 0906 f43e
00000320: 093a 93be 0afc 9fbf e772 80bd 7b55 31bf
00000330: 28d5 0a3e 1ec7 e43e e6fd 133e bd4d cf3b
00000340: a4e9 01bf a608 eebe b6d5 29be 5536 d23e
00000350: 43be 693d f687 5abf e486 703f f3de 78be
00000360: e163 45bf 1c4d 87be 6d54 393f ad81 9bbe
00000370: c1c5 32bf a222 3e3f ff09 01bf 5b0a 85be
00000380: 9db8 4fbd a569 a6bf 9889 d23e cbd9 813f
00000390: 22e3 4a3f 6b95 023f 8fda 4cbf fad3 7fbf
000003a0: d158 ccbf 8a8c eabe 8dd6 4ebf df46 253f
000003b0: ff1f e93e fce8 403e 0383 ce3e 56ad 20bd
000003c0: d51d afbe c23f c93e 98f0 903d 5ad3 3abf
000003d0: c338 64bf 5d23 0e3e 7565 a7be 9dc3 113f
000003e0: b3ac 9e3f d005 ed3e 996b 44be 3e7b efbe
000003f0: 766a 1cbd 127d ddbd 145e 88be 921a 813e

encoder.latent.backbone.c_layers.0.layer.kernel.kernel.log_dt f4 [16]
-3.5594008 -3.5820773 -6.3325024 -3.6474416 -4.407862 -2.9474578 -2.9969387 -6.8152065
-2.8937743 -5.6330748 -6.13116 -3.3736696 -6.8103194 -5.572888 -2.5013847 -6.8058233
00000000: 39cd 63c0 c140 65c0 dca3 cac0 af6f 69c0
00000010: 350d 8dc0 26a3 3cc0 d8cd 3fc0 2c16 dac0
00000020: 9933 39c0 2642 b4c0 7632 c4c0 34ea 57c0
00000030: 23ee d9c0 1955 b2c0 b016 20c0 4ec9 d9c0

encoder.latent.backbone.c_layers.0.layer.kernel.kernel.B f4 [1, 16, 8, 2]
-0.08599789 -10.229734 -0.058542605 -3.5049114 -0.10191571 -2.1870878 -0.111628726 -1.6295936
0.14431842 1.2645723 0.20773819 1.0770235 0.28084037 0.8202921 -0.56006145 -0.4318497
-0.11215194 -10.160166 -0.04397382 -3.4377604 -0.033752546 -2.161071 -0.12641583 -1.5587593
0.08511331 1.3360226 0.13296995 1.0645064 0.27650636 0.8936364 -0.62541264 -0.36043665
0.021021493 -10.275688 -0.0999587 -3.5204747 -0.041324653 -2.2219696 -0.046736214 -1.5740738
0.07549114 1.2454575 0.2168152 1.0126827 0.2573051 0.90116674 -0.6277386 -0.3564681
-0.10177333 -10.251095 -0.11007431 -3.4535058 -0.09248942 -2.1356416 -0.041217398 -1.6298422
0.096829176 1.2474319 0.19136982 1.1011966 0.25645968 0.8781648 -0.6084444 -0.4435128
-0.038511533 -10.234758 -0.068230055 -3.560638 -0.081975274 -2.1766179 -0.09687743 -1.6185131
0.120185725 1.3156081 0.19210619 1.0681956 0.29181916 0.8392074 -0.54431146 -0.38492012
-0.1608988 -10.296695 -0.18129377 -3.5728056 -0.031086067 -2.2689874 -0.025245242 -1.703734
0.06915905 1.3752121 0.11053883 1.1544541 0.408143 0.933064 -0.47779435 -0.34452567
-0.1303174 -10.212809 -0.012078749 -3.54625 -0.014233912 -2.2354321 -0.054831576 -1.6781324
0.08392 1.3600982 0.11371868 1.0918254 0.36800164 0.8721464 -0.52696115 -0.39270276
-0.033857502 -10.259947 -0.13547398 -3.5391078 -0.15016231 -2.09119 -0.010836337 -1.6852341
0.2195921 1.3914171 0.10685209 0.9597626 0.4134195 0.75037557 -0.4719201 -0.516799
-0.06083981 -10.173551 -0.11348768 -3.509526 -0.05847614 -2.1170762 -0.07387376 -1.5591215
0.13610674 1.3328959 0.17876224 1.0241752 0.344355 0.8223713 -0.5464559 -0.39730868
-0.022397064 -10.246445 -0.043306343 -3.409139 -0.09528209 -2.1589417 -0.08361595 -1.5945361
0.11708666 1.2782649 0.1778942 1.0587751 0.30164418 0.83977413 -0.4955616 -0.39604124
-0.034510173 -10.246946 -0.101139046 -3.514664 -0.049700618 -2.138168 -0.067865886 -1.577189
0.097176984 1.2587523 0.15515046 1.0882186 0.279242 0.8153288 -0.60388196 -0.37861103
-0.031401362 -10.146741 -0.027981423 -3.4098487 -0.0976273 -2.11523 -0.16222954 -1.5657662
0.15711328 1.3368047 0.24332508 1.0227824 0.34869584 0.82871395 -0.5413261 -0.4227113
0.07266072 -10.215163 -0.06291028 -3.4846334 -0.054215424 -2.200374 -0.046817373 -1.5741801
0.16668332 1.2542328 0.22743258 1.0207789 0.25914374 0.9082084 -0.6335381 -0.46289364
-0.16118774 -10.318613 -0.15202369 -3.4203217 -0.099978454 -2.260808 -0.18673396 -1.7030717
0.21926357 1.3890822 0.13769943 0.9656308 0.20210873 0.9422328 -0.47770828 -0.31110743
-0.032121304 -10.238443 -0.09117985 -3.4608102 -0.1016005 -2.142909 -0.0721234 -1.635032
0.15056612 1.2974546 0.21227331 1.0827028 0.27839112 0.829571 -0.6081285 -0.40905952
-0.12507565 -10.198753 -0.122223616 -3.436985 -0.1317903 -2.2208867 -0.039844327 -1.6610705
0.18714252 1.35445 0.11781842 0.98463523 0.25526512 0.77334356 -0.60804343 -0.4823041
00000000: a91f b0bd feac 23c1 5fca 6fbd 7850 60c0
00000010: 2fb9 d0bd 3ff9 0bc0 9a9d e4bd 8696 d0bf
00000020: 35c8 133e 81dd a13f 52b9 543e e8db 893f
00000030: 4fca 8f3e aafe 513f 3060 0fbf 671b ddbe
00000040: ebaf e5bd 0a90 22c1 e41d 34bd 4404 5cc0
00000050: 1c40 0abd fd4e 0ac0 2773 01be 6d85 c7bf
00000060: e34f ae3d ca02 ab3f 4629 083e bf41 883f
00000070: 3e92 8d3e 5bc5 643f 0b1b 20bf 278b b8be
00000080: 4435 ac3c 3869 24c1 26b7 ccbd 754f 61c0
00000090: 0a44 29bd c034 0ec0 796e 3fbd 407b c9bf
000000a0: 199b 9a3d 276b 9f3f ce04 5e3e 969f 813f
000000b0: 7ebd 833e ddb2 663f 7ab3 20bf fd82 b6be
000000c0: 896e d0bd 7c04 24c1 a46e e1bd 3d06 5dc0
000000d0: 186b bdbd 5aae 08c0 93d3 28bd ab9e d0bf
000000e0: 604e c63d d9ab 9f3f 73f6 433e 03f4 8c3f
000000f0: af4e 833e 69cf 603f 03c3 1bbf 1c14 e3be
00000100: 45be 1dbd 92c1 23c1 33bc 8bbd 7ee1 63c0
00000110: a7e2 a7bd b54d 0bc0 ad67 c6bd 702b cfbf
00000120: ef23 f63d d965 a83f 7cb7 443e a2ba 883f
00000130: 5269 953e 4cd6 563f ff57 0bbf 4014 c5be
00000140: a8c2 24be 43bf 24c1 13a5 39be d9a8 64c0
00000150: 35a8 febc 1737 11c0 1ccf cebc f513 dabf
00000160: 43a3 8d3d f306 b03f 2f62 e23d 27c5 933f
00000170: 1ff8 d03e 48dd 6e3f 76a1 f4be ab65 b0be
00000180: ed71 05be aa67 23c1 f2e5 45bc c3f5 62c0
00000190: 5b35 69bc 5211 0fc0 1397 60bd 0bcd d6bf
000001a0: 40de ab3d b317 ae3f 57e5 e83d efc0 8b3f
000001b0: b66a bc3e fd44 5f3f ede6 06bf 5610 c9be
000001c0: 2aae 0abd be28 24c1 b1b9 0abe be80 62c0
000001d0: 26c4 19be 0fd6 05c0 e48a 31bc c0b5 d7bf
000001e0: c0dc 603e f519 b23f 45d5 da3d 00b3 753f
000001f0: b9ab d33e 9d18 403f 839f f1be f04c 04bf
00000200: 2a33 79bd ddc6 22c1 3b6c e8bd 139c 60c0
00000210: ad84 6fbd 2d7e 07c0 204b 97bd 4b91 c7bf
00000220: 915f 0b3e 559c aa3f 730d 373e 2c18 833f
00000230: 4c4f b03e ed86 523f 89e4 0bbf 0b6c cbbe
00000240: 0c7a b7bc 70f1 23c1 fe61 31bd 552f 5ac0
00000250: 4223 c3bd 1a2c 0ac0 d73e abbd c219 ccbf
00000260: 21cb ef3d 2f9e a33f e629 363e f185 873f
00000270: 1b71 9a3e 70fb 563f 40ba fdbe ebc5 cabe
00000280: 8a5a 0dbd 7ef3 23c1 fd21 cfbd 41f0 60c0
00000290: e092 4bbd bfd7 08c0 45fd 8abd 54e1 c9bf
000002a0: ba04 c73d cc1e a13f c3df 1e3e bf4a 8b3f
000002b0: cff8 8e3e 63b9 503f 0298 1abf 4ed9 c1be
000002c0: b79e 00bd 0d59 22c1 4c39 e5bc f63a 5ac0
000002d0: d2f0 c7bd ee5f 07c0 801f 26be 076b c8bf
000002e0: 4ee2 203e 6b1c ab3f 362a 793e 89ea 823f
000002f0: 4388 b23e 9926 543f 5994 0abf 9e6d d8be
00000300: 25cf 943d 4f71 23c1 1bd7 80bd 3c04 5fc0
00000310: fe10 5ebd edd2 0cc0 93c3 3fbd bc7e c9bf
00000320: 08af 2a3e b38a a03f 16e4 683e e2a8 823f
00000330: 7dae 843e 5880 683f 8e2f 22bf 6500 edbe
00000340: 660e 25be 0a19 25c1 19ac 1bbe 8de6 5ac0
00000350: 81c1 ccbd 14b1 10c0 3037 3fbe 41fe d9bf
00000360: a186 603e 72cd b13f 1401 0d3e 9533 773f
00000370: 97f5 4e3e 2b36 713f 2e96 f4be 7949 9fbe
00000380: a191 03bd aad0 23c1 80bc babd ea7d 5dc0
00000390: ec13 d0bd 6c25 09c0 6fb5 93bd bb48 d1bf
000003a0: 012e 1a3e fe12 a63f 2d5e 593e 0196 8a3f
000003b0: 4889 8e3e c45e 543f 4fae 1bbf 4070 d1be
000003c0: d513 00be 182e 23c1 6050 fabd 90f7 5bc0
000003d0: 09f4 06be 0223 0ec0 ce33 23bd f59d d4bf
000003e0: 4aa2 3f3e 9e5e ad3f c94a f13d 0e11 7c3f
000003f0: 1cb2 823e d8f9 453f bca8 1bbf 90f0 f6be

encoder.latent.backbone.c_layers.0.layer.kernel.kernel.P f4 [1, 16, 8, 2]
-0.019611806 -7.205809 -0.060843416 -2.442539 -0.046333585 -1.5116646 -0.05787 -1.1114241
0.06931474 0.93608576 0.10141605 0.72770554 0.20121132 0.6190267 -0.429305 -0.25915414
-0.01180755 -7.2499504 -0.017671684 -2.506545 -0.0999227 -1.5644574 -0.025288723 -1.1804852
0.13396963 0.89166814 0.17727275 0.7885078 0.26416337 0.55318075 -0.355741 -0.32083157
0.022219935 -7.306204 0.04159182 -2.4226348 -0.10500651 -1.5290049 -0.1416123 -1.1870252
0.17030923 0.9609046 0.08236834 0.8025044 0.2691364 0.6407956 -0.35621667 -0.3346124
-0.007433371 -7.18163 -0.0074295183 -2.4116719 -0.017458789 -1.5585197 -0.11828259 -1.1852118
0.0400641 0.9512307 0.17887166 0.7164244 0.2584466 0.56800777 -0.39644527 -0.2514168
-0.048744027 -7.216595 -0.06929233 -2.4525096 -0.059166778 -1.4663874 -0.07413105 -1.072427
0.104268946 0.89627266 0.10856538 0.73955595 0.24016602 0.6078987 -0.4054069 -0.3116373
0.051333055 -7.140216 0.048420686 -2.3703856 0.030246533 -1.4209381 -0.14629416 -1.0085198
0.15854834 0.8100929 0.20526062 0.6363806 0.10888243 0.50333613 -0.5140378 -0.3673472
0.018676877 -7.160674 -0.10454886 -2.4703193 -0.13194452 -1.5651286 -0.12658235 -1.1109773
0.15180983 0.8953946 0.19841857 0.78147227 0.19816229 0.54787886 -0.46775103 -0.3192325
-0.08129525 -7.1489906 0.035041053 -2.376008 0.03595805 -1.4949001 -0.16543761 -1.1810526
-0.015048223 0.8139536 0.033626053 0.8535996 0.10987023 0.49530256 -0.51245403 -0.17334764
-0.05782393 -7.239481 -0.044668157 -2.4151328 -0.0713426 -1.5614666 -0.08199215 -1.168587
0.14207463 0.8716781 0.11727395 0.7754714 0.18511397 0.5868215 -0.4362253 -0.27455077
-0.1406981 -7.2459106 -0.048901808 -2.4967916 -0.04896635 -1.4947275 0.006862698 -1.1464139
0.08142452 0.9191707 0.10830473 0.74816924 0.22952813 0.60086083 -0.40505618 -0.30031618
-0.072278686 -7.2544684 -0.07598395 -2.4351869 -0.07758764 -1.5619975 -0.094230935 -1.1658158
0.05964628 0.93859106 0.15687531 0.75216943 0.23751588 0.6234884 -0.3802538 -0.3139034
-0.08626669 -7.262153 -0.09103673 -2.503891 0.033073276 -1.5676749 -0.013398754 -1.1387665
0.1561942 0.8642736 0.08052853 0.7612489 0.1834216 0.5130424 -0.4349283 -0.27224502
0.00884359 -7.300879 -0.0613655 -2.4341424 -0.09816033 -1.4398465 -0.03343464 -1.1872873
0.040392667 0.87460804 0.07994874 0.7115644 0.26811612 0.6352523 -0.33233562 -0.2285228
-0.036342807 -7.1218786 0.0435073 -2.483794 -0.1407682 -1.4386303 0.01939024 -1.0437135
-0.0035474773 0.81535006 0.031637345 0.8423728 0.31392255 0.49794742 -0.5056492 -0.38227576
-0.069687486 -7.207529 -0.025882673 -2.4934156 -0.032794658 -1.5152034 -0.09194851 -1.1559352
0.06412399 0.8908168 0.13632576 0.7257469 0.25114962 0.6164906 -0.37133846 -0.26646224
0.04371616 -7.183796 0.009810081 -2.4658296 0.030801231 -1.4750922 -0.12264074 -1.0697492
0.015952686 0.8452513 0.19837745 0.81445247 0.14443031 0.66321594 -0.47729123 -0.20843874
00000000: f0a8 a0bc fd95 e6c0 f236 79bd 8f52 1cc0
00000010: 49c8 3dbd 3a7e c1bf 1809 6dbd 2543 8ebf
00000020: e3f4 8d3d 51a3 6f3f 38b3 cf3d e94a 3a3f
00000030: 570a 4e3e 8978 1e3f ddcd dbbe daaf 84be
00000040: 7474 41bc 98ff e7c0 35c4 90bc 3c6b 20c0
00000050: 46a4 ccbd 2440 c8bf 4c2a cfbc 241a 97bf
00000060: 562f 093e 5d44 643f fd86 353e a6db 493f
00000070: 6c40 873e 419d 0d3f af23 b6be 0944 a4be
00000080: 9506 b63c 6ccc e9c0 2f5c 2a3d 730c 1bc0
00000090: a70d d7bd 6fb6 c3bf d102 11be 71f0 97bf
000000a0: 8b65 2e3e d8fd 753f bbb0 a83d ee70 4d3f
000000b0: 3fcc 893e 2e0b 243f 0862 b6be 5152 abbe
000000c0: a393 f3bb eacf e5c0 5173 f3bb d558 1ac0
000000d0: bc05 8fbc 937d c7bf 243e f2bd 05b5 97bf
000000e0: 411a 243d db83 733f 222a 373e 9767 373f
000000f0: 1d53 843e f568 113f e0fa cabe b4b9 80be
00000100: d1a7 47bd 59ee e6c0 23e9 8dbd ebf5 1cc0
00000110: dd58 72bd 95b2 bbbf 05d2 97bd 4a45 89bf
00000120: f58a d53d 2072 653f 8757 de3d 8a53 3d3f
00000130: 15ee 753e 409f 1b3f 7e91 cfbe ed8e 9fbe
00000140: 9c42 523d a67c e4c0 c554 463d 66b4 17c0
00000150: 94c7 f73c 4de1 b5bf 23ce 15be 2d17 81bf
00000160: 7f5a 223e 4062 4f3f d72f 523e d7e9 223f
00000170: c0fd de3d a3da 003f fb97 03bf ef14 bcbe
00000180: 4000 993c 3e24 e5c0 b61d d6bd b619 1ec0
00000190: 771c 07be 2256 c8bf ce9e 01be 8134 8ebf
000001a0: 0974 1b3e 9538 653f 3d2e 4b3e 910e 483f
000001b0: 0eeb 4a3e ca41 0c3f 107d efbe 7172 a3be
000001c0: 207e a6bd 88c4 e4c0 3587 0f3d 8410 18c0
000001d0: c048 133d e358 bfbf 7a68 29be bb2c 97bf
000001e0: d28c 76bc 435f 503f 79bb 093d 8185 5a3f
000001f0: a503 e13d 4c98 fd3e 3030 03bf 0b82 31be
00000200: c9d8 6cbd d4a9 e7c0 f5f5 36bd 8991 1ac0
00000210: 121c 92bd 23de c7bf 80eb a7bd 4294 95bf
00000220: 037c 113e 4c26 5f3f 532d f03d 4b85 463f
00000230: 848e 3d3e ef39 163f ec58 dfbe eb91 8cbe
00000240: 2a13 10be 80de e7c0 434d 48bd 6fcb 1fc0
00000250: f090 48bd 3b53 bfbf 7ce0 e03b b1bd 92bf
00000260: e6c1 a63d c54e 6b3f dfce dd3d 0588 3f3f
00000270: 6c09 6b3e 04d2 193f 8663 cfbe 0bc3 99be
00000280: d906 94bd 9b24 e8c0 799d 9bbd 1ada 1bc0
00000290: 45e6 9ebd 89ef c7bf 26fc c0bd 7439 95bf
000002a0: a84f 743d 8147 703f eca3 203e 2d8e 403f
000002b0: 5d37 733e f09c 1f3f a0b0 c2be f2b7 a0be
000002c0: 97ac b0bd 8f63 e8c0 7771 babd c03f 20c0
000002d0: d877 073d 92a9 c8bf 7386 5bbc 1ac3 91bf
000002e0: 5ff1 1f3e 0941 5d3f 24ec a43d 35e1 423f
000002f0: dfd2 3b3e bf56 033f ecae debe b363 8bbe
00000300: b4e4 103c cda0 e9c0 645a 7bbd fdc8 1bc0
00000310: 4808 c9bd e44c b8bf c3f2 08bd 08f9 97bf
00000320: c872 253d 50e6 5f3f 2abc a33d 1629 363f
00000330: 8446 893e e59f 223f e527 aabe e201 6abe
00000340: 32dc 14bd 6ee6 e3c0 b634 323d 7bf6 1ec0
00000350: 8a25 10be 0a25 b8bf 48d8 9e3c 6798 85bf
00000360: cb7c 68bb c8ba 503f 2996 013d bea5 573f
00000370: 75ba a03e f7f2 fe3e 3a72 01bf a6b9 c3be
00000380: 50b8 8ebd 14a4 e6c0 e607 d4bc 1f94 1fc0
00000390: b153 06bd 2ff2 c1bf 804f bcbd aff5 93bf
000003a0: 7053 833d 920c 643f fb98 0b3e 8dca 393f
000003b0: af96 803e 54d2 1d3f 1320 bebe bd6d 88be
000003c0: b70f 333d a8e1 e5c0 76ba 203c 27d0 1dc0
000003d0: dd52 fc3c d2cf bcbf 112b fbbd 8bed 88bf
000003e0: 35af 823c 6462 583f 7523 4b3e f57f 503f
000003f0: 8ae5 133e 85c8 293f 845f f4be f770 55be

encoder.latent.backbone.c_layers.0.layer.kernel.kernel.inv_w_real f4 [16, 8]
-0.70614576 -0.70587605 -0.714178 -0.7186664 -0.6677699 -0.7170602 -0.6682827 -0.7200048
-0.6929852 -0.6553347 -0.66918695 -0.655565 -0.717084 -0.6500421 -0.72852707 -0.70851433
-0.62466973 -0.7366087 -0.69291663 -0.6415738 -0.64036167 -0.640237 -0.64576876 -0.7395278
-0.7473309 -0.75033087 -0.6606572 -0.6373051 -0.6610747 -0.7204844 -0.71292603 -0.732948
-0.69220823 -0.7067312 -0.74257296 -0.73794585 -0.7009101 -0.70843893 -0.6687146 -0.6583457
-0.7718935 -0.78640115 -0.81899184 -0.7412688 -0.8006155 -0.8081183 -0.7936414 -0.60719335
-0.7453229 -0.67595387 -0.64540255 -0.7189757 -0.6913763 -0.6467155 -0.7491409 -0.6472666
-0.71093684 -0.7632178 -0.75525993 -0.5962123 -0.79803574 -0.5877264 -0.8040396 -0.8080144
-0.6767033 -0.7395713 -0.6591524 -0.65918314 -0.7234684 -0.6657586 -0.73007065 -0.66494966
-0.6957352 -0.6607296 -0.7665985 -0.68715376 -0.6936769 -0.69976187 -0.679586 -0.6760322
-0.7163893 -0.72217286 -0.66450447 -0.6652356 -0.6650931 -0.67305905 -0.6658567 -0.6679364
-0.6438891 -0.64113647 -0.65620136 -0.7048339 -0.7283794 -0.6949349 -0.7332793 -0.6410914
-0.6297945 -0.71941745 -0.6981435 -0.6460512 -0.73698246 -0.742172 -0.65007496 -0.75536823
-0.7874513 -0.6418519 -0.78220326 -0.78418344 -0.78890586 -0.5978583 -0.797044 -0.6221646
-0.66611063 -0.67246157 -0.71271414 -0.673888 -0.71329004 -0.71955276 -0.67122006 -0.7295586
-0.7324662 -0.6846068 -0.74998695 -0.7468449 -0.76243806 -0.6206169 -0.62674046 -0.7758683
00000000: f8c5 34bf 4bb4 34bf 5fd4 36bf 85fa 37bf
00000010: f8f2 2abf 4291 37bf 9314 2bbf 3c52 38bf
00000020: 7a67 31bf 04c4 27bf d64f 2bbf 1cd3 27bf
00000030: d192 37bf 2969 26bf c080 3abf 3261 35bf
00000040: 5bea 1fbf 6392 3cbf fc62 31bf 2e3e 24bf
00000050: beee 23bf 92e6 23bf 1a51 25bf b251 3dbf
00000060: 1451 3fbf af15 40bf d520 29bf 6d26 23bf
00000070: 313c 29bf aa71 38bf 5282 36bf 7ba2 3bbf
00000080: 8f34 31bf 56ec 34bf 4319 3ebf 05ea 3cbf
00000090: d86e 33bf 415c 35bf e130 2bbf 5889 28bf
000000a0: d09a 45bf 9651 49bf 73a9 51bf cbc3 3dbf
000000b0: 23f5 4cbf d7e0 4ebf 152c 4bbf 0671 1bbf
000000c0: 7bcd 3ebf 500b 2dbf 1a39 25bf cb0e 38bf
000000d0: 0afe 30bf 268f 25bf b3c7 3fbf 44b3 25bf
000000e0: f5ff 35bf 3e62 43bf b758 41bf 5fa1 18bf
000000f0: 124c 4cbf 3d75 16bf 8ad5 4dbf 08da 4ebf
00000100: 6d3c 2dbf 8b54 3dbf 36be 28bf 3ac0 28bf
00000110: 3a35 39bf 286f 2abf e9e5 3abf 243a 2abf
00000120: b41b 32bf 9325 29bf cd3f 44bf 4fe9 2fbf
00000130: cf94 31bf 9823 33bf 59f9 2dbf 7210 2dbf
00000140: 4a65 37bf 52e0 38bf f71c 2abf e14c 2abf
00000150: 8b43 2abf 994d 2cbf 9675 2abf e1fd 2abf
00000160: ebd5 24bf 8521 24bf d0fc 27bf ff6f 34bf
00000170: 1377 3abf 41e7 31bf 31b8 3bbf 911e 24bf
00000180: 363a 21bf be2b 38bf 88b9 32bf 9d63 25bf
00000190: e2aa 3cbf fcfe 3dbf 506b 26bf d05f 41bf
000001a0: 6996 49bf 6850 24bf 793e 48bf 3fc0 48bf
000001b0: bcf5 49bf 3e0d 19bf 130b 4cbf 2e46 1fbf
000001c0: 3a86 2abf 7126 2cbf 6f74 36bf ed83 2cbf
000001d0: 2d9a 36bf 9c34 38bf 14d5 2bbf 5ac4 3abf
000001e0: e882 3bbf 6442 2fbf 25ff 3fbf 3a31 3fbf
000001f0: 242f 43bf c0e0 1ebf 1072 20bf 4e9f 46bf

encoder.latent.backbone.c_layers.0.layer.kernel.kernel.w_imag f4 [16, 8]
-80.983215 -25.616327 -13.835774 -8.356389 -5.1111794 -2.928689 -1.3931471 -0.3257421
-81.00975 -25.655504 -13.793823 -8.40253 -5.0427527 -2.854542 -1.320187 -0.38822907
-80.98901 -25.710821 -13.781621 -8.316781 -5.103171 -2.9467933 -1.3180428 -0.39895043
-80.994514 -25.667553 -13.862028 -8.31492 -5.1307955 -2.839373 -1.3359325 -0.3227809
-80.94875 -25.61113 -13.830777 -8.355124 -5.0720696 -2.9216015 -1.3410822 -0.37532252
-80.952965 -25.56257 -13.751012 -8.27667 -5.0050473 -2.8058128 -1.2684128 -0.23314065
-81.03275 -25.569374 -13.76352 -8.296782 -5.0213957 -2.8522024 -1.3402622 -0.35690862
-80.92305 -25.602491 -13.923288 -8.259412 -5.1168904 -3.0031955 -1.4562994 -0.23959903
-80.970566 -25.636593 -13.832786 -8.361656 -5.0389595 -2.9383168 -1.3999499 -0.31855842
-80.910126 -25.62611 -13.841348 -8.400041 -5.0962615 -2.8932135 -1.3626863 -0.36024576
-80.937515 -25.600224 -13.810623 -8.335033 -5.1168547 -2.8719084 -1.3969734 -0.37864178
-80.95444 -25.596333 -13.913136 -8.412265 -5.0286865 -2.9386754 -1.3948565 -0.33169264
-80.967926 -25.639862 -13.790145 -8.396459 -5.133214 -2.9433491 -1.3155396 -0.3186163
-80.89046 -25.705662 -13.742819 -8.312111 -5.0857778 -2.9934943 -1.2659541 -0.2479623
-80.94037 -25.651228 -13.85602 -8.339101 -5.1162996 -2.8898172 -1.3285869 -0.40370712
-81.028015 -25.679861 -13.804048 -8.29863 -5.057889 -2.820994 -1.4363748 -0.27068084
00000000: 68f7 a1c2 3dee ccc1 555f 5dc1 c5b3 05c1
00000010: c88e a3c0 a46f 3bc0 a552 b2bf abc7 a6be
00000020: fe04 a2c2 793e cdc1 80b3 5cc1 c370 06c1
00000030: 3b5e a1c0 d1b0 36c0 e3fb a8bf f6c5 c6be
00000040: 60fa a1c2 c3af cdc1 8581 5cc1 8911 05c1
00000050: 2d4d a3c0 4398 3cc0 a0b5 a8bf 3b43 ccbe
00000060: 31fd a1c2 2657 cdc1 deca 5dc1 ea09 05c1
00000070: 7a2f a4c0 4ab8 35c0 d6ff aabf 8a43 a5be
00000080: c3e5 a1c2 98e3 ccc1 dd4a 5dc1 97ae 05c1
00000090: 654e a2c0 85fb 3ac0 95a8 abbf 462a c0be
000000a0: ebe7 a1c2 2580 ccc1 2504 5cc1 3e6d 04c1
000000b0: 5929 a0c0 7092 33c0 5a5b a2bf 6cbc 6ebe
000000c0: c510 a2c2 148e ccc1 6137 5cc1 9ebf 04c1
000000d0: 46af a0c0 7c8a 36c0 b68d abbf babc b6be
000000e0: 9ad8 a1c2 e7d1 ccc1 cac5 5ec1 8d26 04c1
000000f0: 91bd a3c0 5b34 40c0 0568 babf 7359 75be
00000100: eef0 a1c2 be17 cdc1 1753 5dc1 58c9 05c1
00000110: 283f a1c0 620d 3cc0 8f31 b3bf 171a a3be
00000120: fcd1 a1c2 4602 cdc1 2976 5dc1 9166 06c1
00000130: 9314 a3c0 692a 39c0 816c aebf 2272 b8be
00000140: 02e0 a1c2 42cd ccc1 50f8 5cc1 4c5c 05c1
00000150: 46bd a3c0 59cd 37c0 06d0 b2bf 56dd c1be
00000160: ace8 a1c2 4ac5 ccc1 349c 5ec1 a398 06c1
00000170: 00eb a0c0 4213 3cc0 a88a b2bf 9ed3 a9be
00000180: 94ef a1c2 701e cdc1 6fa4 5cc1 e557 06c1
00000190: 4a43 a4c0 d55f 3cc0 9a63 a8bf ad21 a3be
000001a0: eac7 a1c2 32a5 cdc1 96e2 5bc1 68fe 04c1
000001b0: b1be a2c0 6995 3fc0 c90a a2bf d4e9 7dbe
000001c0: 78e1 a1c2 b735 cdc1 42b2 5dc1 f56c 05c1
000001d0: bab8 a3c0 c4f2 38c0 230f aabf b3b2 cebe
000001e0: 580e a2c2 5b70 cdc1 61dd 5cc1 30c7 04c1
000001f0: 3ada a1c0 2a8b 34c0 21db b7bf ae96 8abe

encoder.latent.backbone.c_layers.0.layer.output_linear.0.weight f4 [32, 16, 1]
-0.032283332 -0.10523334 -0.19352756 0.006914333 -0.13689432 -0.19006221 0.13038322 0.1476731
-0.06193867 0.076106966 0.1679491 0.22296228 0.17058425 0.06589156 0.015704656 0.20801963
0.09315009 -0.17195997 0.11623197 0.19771543 0.09094943 -0.24071056 -0.010604758 -0.13560908
0.09908159 -0.11041026 0.18292029 -0.03658823 0.19139598 0.1440591 0.20313688 -0.085066475
0.1766501 -0.18271306 0.031853847 0.066481546 0.033012196 0.120640375 -0.10652265 0.0024880045
-0.04882076 -0.13993768 -0.20913981 0.1671814 -0.19524843 -0.11543145 -0.21775319 -0.114706896
-0.15351175 0.18561229 0.09486113 0.27865392 -0.20779996 0.0916968 -0.066623695 -0.14475417
-0.07246709 0.06393003 -0.00018294832 -0.12642913 -0.24011043 -0.06969803 0.003256649 -0.23473458
-0.22871216 0.25140598 -0.14129362 0.13567767 -0.11727288 0.007067555 -0.045560002 -0.08904865
0.21836321 0.1667109 -0.14527984 -0.061426908 -0.23853198 -0.14391229 0.1339174 0.027173677
-0.19904117 -0.041482255 -0.029870529 -0.22949979 0.17656569 0.24420162 0.011514429 0.10601619
0.09593112 -0.08583838 -0.0056536323 -0.007734481 -0.10681896 -0.16384804 0.09492694 0.23727246
0.08988213 0.08987621 -0.12743483 0.18519165 -0.17407122 -0.10611697 0.027232159 -0.13573849
-0.100272484 0.20894602 -0.14624913 -0.15973678 0.11932915 0.12702149 -0.20543435 -0.1522146
0.18425882 -0.015693586 -0.21448742 0.22536276 -0.18523245 0.07667086 -0.029753385 0.108290106
0.025267933 0.10582315 -0.06257259 -0.0020614343 0.019127306 -0.24570782 -0.0021192003 -0.053595908
0.11919348 -0.02459097 -0.092803195 -0.03195584 0.14826922 -0.24242732 -0.07830791 0.135794
-0.1533426 0.2759788 0.027894313 0.06858559 -0.030305462 0.17046025 -0.12629461 0.11103107
-0.12739086 -0.14047728 0.07755135 -0.035275888 -0.2788734 0.06504002 -0.14978287 -0.10696754
-0.22461966 -0.0060640452 0.13643232 0.12075087 -0.017213553 -0.08700792 -0.27005875 0.035025477
0.08903058 0.008267476 0.18563463 -0.2985303 0.17036518 0.1300723 0.24495558 0.26082984
-0.11735687 -0.2941981 -0.076376766 -0.14648247 0.2588364 -0.074617825 0.0689398 0.21587837
0.15971473 -0.06403633 -0.17828211 0.08988574 0.18224962 0.22390275 0.16971532 0.2154723
0.15715858 0.094031245 -0.15296812 -0.09987997 -0.0634948 -0.064009964 -0.0079729315 0.109137855
0.27485207 0.28713346 -0.003310974 -0.071539626 -0.22052142 0.08703521 -0.20529394 -0.04194051
-0.18662108 0.1371476 0.16867882 -0.15322107 0.043548606 -0.0734804 -0.05416488 -0.04181995
-0.14797114 0.27915952 0.070060484 -0.026158188 -0.030397221 0.20654772 -0.26818484 -0.09446238
0.040583618 0.05130961 -0.2229589 -0.005459654 -0.11026352 -0.1947895 0.26941055 0.17446584
0.07003163 0.03954405 0.30150655 0.053934176 -0.21404873 -0.09969054 -0.10203093 -0.058355838
0.14182623 -0.027963674 -0.1162201 0.23953617 0.20660342 0.26567775 0.05523162 -0.15004571
-0.09975648 -0.10314687 -0.23123248 -0.005561413 0.19903629 -0.11506394 -0.11760573 -0.19325846
-0.12505178 0.06910558 -0.0064789946 0.07056396 -0.11444715 0.111651696 0.031880945 -0.20872791
00000000: 873b 04bd 9484 d7bd 172c 46be a191 e23b
00000010: 062e 0cbe ab9f 42be 2e83 053e 9e37 173e
00000020: 67b3 7dbd f8dd 9b3d d9fa 2b3e 3950 643e
00000030: a3ad 2e3e 27f2 863d 0da7 803c 1903 553e
00000040: 79c5 be3d 4616 30be 070b ee3d ea75 4a3e
00000050: b243 ba3d d47c 76be 94bf 2dbc 1bdd 0abe
00000060: 4aeb ca3d c61e e2bd 754f 3b3e 8add 15bd
00000070: 4ffd 433e 3b84 133e 1d03 503e 5537 aebd
00000080: c4e3 343e 2219 3bbe 2e79 023d 7a27 883d
00000090: cc37 073d 4d12 f73d 8c28 dabd ca0d 233b
000000a0: 47f8 47bd d34b 0fbe bf28 56be 9a31 2b3e
000000b0: 34ef 47be 5367 ecbd b1fa 5ebe 73eb eabd
000000c0: 2f32 1dbe 2611 3e3e 8d46 c23d baab 8e3e
000000d0: 83c9 54be 88cb bb3d 0172 88bd 703a 14be
000000e0: a069 94bd bfed 823d d1d5 3fb9 a376 01be
000000f0: 82df 75be d7bd 8ebd 816d 553b 435e 70be
00000100: 8533 6abe 49b8 803e 46af 10be 16ef 0a3e
00000110: c42c f0bd f396 e73b 209d 3abd 235f b6bd
00000120: 9b9a 5f3e 43b6 2a3e 3dc4 14be c89a 7bbd
00000130: ba41 74be be5d 13be a521 093e 559b de3c
00000140: 73d1 4bbe 4ce9 29bd 0ab3 f4bc fe01 6bbe
00000150: a3cd 343e fd0f 7a3e 04a7 3c3c 041f d93d
00000160: 8977 c43d 08cc afbd 1b42 b9bb 8771 fdbb
00000170: e6c3 dabd c8c7 27be 0e69 c23d 8df7 723e
00000180: 1f14 b83d 0511 b83d 477e 02be e1a2 3d3e
00000190: ba3f 32be db53 d9bd fa15 df3c 08ff 0abe
000001a0: a95b cdbd f2f5 553e 55c2 15be 0a92 23be
000001b0: d762 f43d ec11 023e 625d 52be 25de 1bbe
000001c0: 58ae 3c3e d68f 80bc 97a2 5bbe 7fc5 663e
000001d0: 93ad 3dbe 9d05 9d3d 5fbd f3bc 34c7 dd3d
000001e0: b2fe ce3c cfb9 d83d 0f26 80bd 2119 07bb
000001f0: deb0 9c3c d59a 7bbe 48e2 0abb 6287 5bbd
00000200: b61b f43d 0073 c9bc 9a0f bebd 20e4 02bd
00000210: e3d3 173e de3e 78be e65f a0bd 950d 0b3e
00000220: d805 1dbe 184d 8d3e 9d82 e43c 9a76 8c3d
00000230: 2943 f8bc 228d 2e3e 6053 01be 4264 e33d
00000240: c072 02be 47d9 0fbe 3ed3 9e3d 737d 10bd
00000250: 7fc8 8ebe b433 853d ae60 19be cc11 dbbd
00000260: b202 66be e6b4 c6bb eab4 0b3e 3b4c f73d
00000270: 7003 8dbc 3531 b2bd 2445 8abe e076 0f3d
00000280: aa55 b63d 4f74 073c 0117 3e3e f7d8 98be
00000290: 3674 2e3e ac31 053e a3d5 7a3e 7d8b 853e
000002a0: cc58 f0bd 22a1 96be 6c6b 9cbd 80ff 15be
000002b0: 3486 843e 3bd1 98bd 4f30 8d3d 380f 5d3e
000002c0: 428c 233e 7b25 83bd 968f 36be 0416 b83d
000002d0: a59f 3a3e c346 653e dac9 2d3e c5a4 5c3e
000002e0: 2eee 203e 7493 c03d ada3 1cbe df8d ccbd
000002f0: 9009 82bd a817 83bd e6a0 02bc ab83 df3d
00000300: 69b9 8c3e 2803 933e edfc 58bb 5e83 92bd
00000310: 5ed0 61be 843f b23d 9338 52be d0c9 2bbd
00000320: 9919 3fbe 6c70 0c3e 24ba 2c3e fce5 1cbe
00000330: 0660 323d e47c 96bd fedb 5dbd 654b 2bbd
00000340: bf85 17be ffed 8e3e df7b 8f3d b249 d6bc
00000350: 9803 f9bc 3f81 533e 864f 89be 7e75 c1bd
00000360: 023b 263d 072a 523d 564f 64be e6e6 b2bb
00000370: d7d1 e1bd e676 47be 2ef0 893e 2ca7 323e
00000380: be6c 8f3d f1f8 213d 115f 9a3e 15ea 5c3d
00000390: 972f 5bbe 8e2a ccbd 98f5 d0bd 8806 6fbd
000003a0: e53a 113e 1314 e5bc ce04 eebd f848 753e
000003b0: d98f 533e ea06 883e 8d3a 623d 95a5 19be
000003c0: 204d ccbd ab3e d3bd 35c8 6cbe 833c b6bb
000003d0: 2bd0 4b3e a5a6 ebbd 46db f0bd 8ce5 45be
000003e0: 930d 00be 3a87 8d3d bf4d d4bb d683 903d
000003f0: 4463 eabd a5a9 e43d 9895 023d c5bc 55be

encoder.latent.backbone.c_layers.0.layer.output_linear.0.bias f4 [32]
0.18664864 -0.13925907 -0.22858177 -0.1708495 -0.16860089 -0.23611107 -0.029555364 -0.17573579
-0.0072080437 -0.04048512 -0.09895332 -0.12921728 -0.03729925 -0.007167781 -0.036450814 -0.21487887
-0.08337052 -0.15125057 0.23521295 -0.23469815 -0.08432962 0.07741905 -0.13400173 0.27428743
0.2292703 -0.07074127 0.27992713 0.082119666 0.008809454 -0.17768568 0.19924062 -0.16703139
00000000: d220 3f3e ee99 0ebe 5711 6abe 2cf3 2ebe
00000010: b6a5 2cbe 1ac7 71be 171e f2bc 15f4 33be
00000020: 7431 ecbb bad3 25bd 0aa8 cabd 8951 04be
00000030: 19c7 18bd b4df eabb 734d 15bd 3509 5cbe
00000040: 2abe aabd 6ee1 1abe aadb 703e b654 70be
00000050: 02b5 acbd e18d 9e3d c037 09be 676f 8c3e
00000060: d5c5 6a3e cde0 90bd 9c52 8f3e 5b2e a83d
00000070: 8755 103c 3cf3 35be bc05 4c3e 470a 2bbe

encoder.latent.backbone.c_layers.0.norm.weight f4 [16]
1.001195 1.0393054 1.102453 1.0413357 0.9822957 1.0814883 1.0607787 1.0576288
0.99621475 1.0447943 0.98773474 0.95629156 1.1341938 0.948528 0.97485405 1.0345172
00000000: 2827 803f f607 853f 2e1d 8d3f 7d4a 853f
00000010: bb77 7b3f 356e 8a3f 99c7 873f 6160 873f
00000020: ee07 7f3f d2bb 853f 2fdc 7c3f 86cf 743f
00000030: 432d 913f bbd2 723f 0990 793f 0f6b 843f

encoder.latent.backbone.c_layers.0.norm.bias f4 [16]
0.029345296 -0.05682553 -0.06992518 -0.019905047 0.020923812 -0.07873156 -0.04250794 0.092702426
0.02674622 -0.019693274 -0.027197614 0.037705835 0.09030421 0.06201031 0.0044327164 0.03642686
00000000: 8c65 f03c e3c1 68bd ef34 8fbd e90f a3bc
00000010: 6a68 ab3c 033e a1bd ce1c 2ebd c5da bd3d
00000020: e41a db3c ca53 a1bc 88cd debc 6f71 1a3d
00000030: 6af1 b83d 86fe 7d3d 5240 913b 5534 153d

encoder.latent.backbone.c_layers.1.layer.ff.0.0.weight f4 [32, 16]
0.16727464 -0.20253581 0.15100332 -0.006503259 0.108203016 -0.1324388 0.07321591 -0.17481199
-0.04398855 0.17940006 -0.20510338 -0.029247409 0.013716469 0.050571606 0.14197406 -0.1258541
0.19607572 -0.2618051 -0.11683836 -0.17437011 -0.009521589 -0.30973244 -0.16845116 0.029201124
0.08232776 -0.00470644 -0.03393651 -0.07442089 -0.093640424 0.035476398 0.22426546 -0.16398247
0.07843981 -0.029631408 -0.1508269 -0.07915563 -0.17990589 0.15002853 -0.0058120494 -0.112163834
-0.22446755 0.14416042 0.2807652 -0.15464254 0.0024670318 -0.15534015 -0.009491732 -0.21062626
-0.09184541 -0.23497455 -0.19419162 -0.14300992 0.07012024 0.07227418 0.008554343 -0.14033143
-0.15752693 -0.080872 0.1100838 0.13342482 -0.015875885 0.30988133 0.2870455 0.19519378
-0.048800934 0.08308686 -0.22097 -0.1692631 -0.21819632 -0.19243692 0.1388053 0.009762444
0.19632483 0.003187416 -0.081412315 -0.19828339 0.17395484 -0.17525561 0.19757332 -0.17645347
-0.14551593 -0.23225558 0.2534608 -0.27248487 -0.0635781 -0.044852983 0.1794931 -0.15878142
0.1604958 0.09601433 -0.020761782 -0.009749221 -0.32390156 0.2977686 -0.13774067 -0.08547448
-0.14294004 0.15549968 0.1842287 -0.10242191 -0.17077553 0.103913434 0.02885825 -0.16156475
0.19780472 -0.1629612 -0.15417156 -0.14614584 0.07716337 -0.10767355 -0.12199628 -0.16428564
-0.0027864645 0.05288736 0.21856292 0.20144728 -0.09930162 0.21558827 -0.0161112 -0.0005363964
-0.04073265 -0.13469751 0.06094289 0.10921143 -0.17834918 -0.037415557 -0.08779614 0.015152126
0.1475569 0.15846272 -0.2756196 -0.031455424 -0.19719976 0.24669808 0.061605 0.17839733
-0.11202923 0.072205275 0.081443176 0.10582168 -0.03584571 -0.27237257 0.08766747 0.15938812
-0.18243887 0.003401344 -0.19640271 -0.0077004503 -0.1288065 -0.2313617 -0.15411875 0.16371036
0.17521602 0.067411266 -0.065559335 -0.2389624 -0.2232575 -0.17921416 0.120500684 0.0048908982
-0.26068988 0.2619276 -0.06205856 0.123140074 -0.15356427 -0.018230518 0.17188922 0.18591493
-0.03185744 0.17662881 -0.16819839 -0.04441734 -0.16302323 -0.1312974 0.1226011 -0.04621384
0.12872583 -0.22184528 0.2672602 -0.17183627 -0.021115536 -0.14127319 0.20520529 -0.25464782
-0.076832965 0.038765 -0.1782478 0.11618558 0.08164797 0.009331194 0.0182362 0.21148144
0.11218375 0.09242636 0.16376327 -0.2731597 -0.14853425 -0.023938034 0.124143384 -0.18577981
0.12106995 0.10224121 -0.15273048 -0.091007285 -0.071534626 -0.20923229 0.07387011 0.09103797
0.14408517 -0.06446184 -0.14640415 0.1641303 0.23544279 -0.040878084 -0.18629369 0.10290923
0.07186398 -0.008923084 0.06593416 0.22712728 -0.008249572 -0.18687563 -0.031535644 -0.07293724
0.1573907 0.013303665 -0.18983729 -0.025361491 -0.24422006 -0.052733026 0.20135131 -0.26605755
0.10976666 0.0017088623 0.08424234 -0.07486718 -0.15930754 0.028678935 -0.12668769 -0.26989502
0.11624345 0.06601407 0.16949871 -0.19031705 0.083013214 -0.12793534 0.1960397 0.22188601
0.10854457 -0.028338294 0.06699546 0.108297914 0.20075184 -0.005138442 0.08962588 0.23668829
00000000: 0b4a 2b3e 8c65 4fbe 9da0 1a3e 4a19 d5bb
00000010: 8b99 dd3d 099e 07be 39f2 953d ea01 33be
00000020: 562d 34bd a6b4 373e 9f06 52be 4398 efbc
00000030: 0abb 603c 2c24 4f3d a661 113e e6df 00be
00000040: 13c8 483e 510b 86be f348 efbd 148e 32be
00000050: 7000 1cbc 4095 9ebe 767e 2cbe 3237 ef3c
00000060: 759b a83d 7b38 9abb 0301 0bbd fb69 98bd
00000070: 8dc6 bfbd b34f 113d d8a5 653e 05eb 27be
00000080: 0da5 a03d 91bd f2bc 5e72 1abe 591c a2bd
00000090: 4039 38be 14a1 193e 0173 bebb 27b6 e5bd
000000a0: d2da 65be ca9e 133e 75c0 8f3e 9d5a 1ebe
000000b0: edad 213b 7d11 1fbe 3683 1bbc 69ae 57be
000000c0: 7219 bcbd 2b9d 70be 2bda 46be 3171 12be
000000d0: 339b 8f3d 7c04 943d 8427 0c3c 0bb3 0fbe
000000e0: bd4e 21be 38a0 a5bd 9e73 e13d 84a0 083e
000000f0: 250e 82bc c4a8 9e3e a1f7 923e e1e0 473e
00000100: 7de3 47bd 7229 aa3d f645 62be 4e53 2dbe
00000110: db6e 5fbe 2f0e 45be fa22 0e3e a8f2 1f3c
00000120: 6009 493e f7e3 503b 80bb a6bd cd0a 4bbe
00000130: 3821 323e 3576 33be a950 4a3e 38b0 34be
00000140: 2102 15be 68d4 6dbe 9dc5 813e 2383 8bbe
00000150: 3c35 82bd c3b7 37bd 0acd 373e 9997 22be
00000160: 0359 243e 29a3 c43d 9d14 aabc 32bb 1fbc
00000170: 6dd6 a5be 2075 983e e40b 0dbe 3f0d afbd
00000180: e05e 12be 4f3b 1f3e 73a6 3c3e 94c2 d1bd
00000190: c8df 2ebe 91d0 d43d 2368 ec3c 3b71 25be
000001a0: 528d 4a3e 4ddf 26be 26df 1dbe 41a7 15be
000001b0: d407 9e3d f383 dcbd 30d9 f9bd 7f3a 28be
000001c0: 1e9d 36bb 6ba0 583d f5ce 5f3e 3248 4e3e
000001d0: a65e cbbd 2cc3 5c3e a3fb 83bc f49c 0cba
000001e0: 47d7 26bd 25ee 09be 409f 793d 3eaa df3d
000001f0: 2ba1 36be 0e41 19bd 76ce b3bd 9f40 783c
00000200: 2819 173e 0d44 223e 031e 8dbe 67d7 00bd
00000210: bcee 49be 6c9e 7c3e 8655 7c3d caad 363e
00000220: 956f e5bd 5ce0 933d aecb a63d 09b9 d83d
00000230: f4d2 12bd 6b74 8bbe 018b b33d a436 233e
00000240: 41d1 3abe 15e9 5e3b cb1d 49be 0f54 fcbb
00000250: dae5 03be 15ea 6cbe 4ed1 1dbe b0a3 273e
00000260: d46b 333e eb0e 8a3d f943 86bd 8fb2 74be
00000270: 9d9d 64be eb83 37be 10c9 f63d d443 a03b
00000280: 2579 85be 601b 863e 1e31 7ebd dd30 fc3d
00000290: f43f 1dbe 2b58 95bc ba03 303e 7c60 3e3e
000002a0: f27c 02bd 2fde 343e 333c 2cbe f5ee 35bd
000002b0: 90ef 26be d372 06be 4916 fb3d b94a 3dbd
000002c0: b4d0 033e 692b 63be 54d6 883e d9f5 2fbe
000002d0: 7dfa acbc eba9 10be 5621 523e 3361 82be
000002e0: 9a5a 9dbd 0cc8 1e3d 9786 36be b5f2 ed3d
000002f0: 0d37 a73d dde1 183c 1564 953c 978e 583e
00000300: 98c0 e53d 084a bd3d 8fb1 273e 97db 8bbe
00000310: 5d19 18be b219 c4bc e33e fe3d 103d 3ebe
00000320: 86f3 f73d d763 d13d 6165 1cbe 0762 babd
00000330: bf80 92bd fd40 56be 3649 973d 1d72 ba3d
00000340: 108b 133e 9204 84bd f8ea 15be c611 283e
00000350: ea17 713e c76f 27bd c6c3 3ebe 13c2 d23d
00000360: 6c2d 933d 2032 12bc 7d08 873d 0e94 683e
00000370: 3629 07bc 535c 3fbe 852b 01bd 1f60 95bd
00000380: 072b 213e 9ef7 593c b564 42be e7c2 cfbc
00000390: d314 7abe 96fe 57bd 0a2f 4e3e b238 88be
000003a0: 58cd e03d e7fb df3a 3f87 ac3d f753 99bd
000003b0: 8421 23be 16f0 ea3c 6bba 01be ae2f 8abe
000003c0: 0c11 ee3d 6232 873d 1291 2d3e 79e2 42be
000003d0: d502 aa3d 7b01 03be a2be 483e 1636 633e
000003e0: 9e4c de3d b625 e8bc ea34 893d 4ccb dd3d
000003f0: e491 4d3e 6060 a8bb c68d b73d 6a5e 723e

encoder.latent.backbone.c_layers.1.layer.ff.0.0.bias f4 [32, 1]
0.19421908 -0.0493954 -0.17926632 -0.11749218 -0.16959853 0.27340278 -0.09429414 -0.17392984
0.052891273 -0.13031806 0.17182015 0.25484863 -0.016074786 0.13202344 0.15879497 0.07680359
0.013899373 0.09456054 -0.11519286 -0.032169633 -0.22182298 -0.22161616 0.22854407 -0.10497901
-0.12039085 0.178353 0.18075399 -0.04373994 -0.12250826 -0.019099034 0.23006104 -0.21878053
00000000: 5ee1 463e d552 4abd 9791 37be bd9f f0bd
00000010: 3dab 2dbe 73fb 8b3e 491d c1bd aa1a 32be
00000020: 85a4 583d 1972 05be 9ff1 2f3e 857b 823e
00000030: 45af 83bc 2731 073e 269b 223e 334b 9d3d
00000040: 32ba 633c f5a8 c13d 3cea ebbd 4ec4 03bd
00000050: 9025 63be 59ef 62be 7507 6a3e 3cff d6bd
00000060: 7a8f f6bd 2ba2 363e 9317 393e a728 33bd
00000070: 9ce5 fabd 9475 9cbc 1f95 6b3e 0108 60be

encoder.latent.backbone.c_layers.1.layer.ff.2.weight f4 [16, 32]
0.09070973 0.044107247 0.15429793 0.077037506 -0.086205885 -0.18029736 -0.06930656 0.037008908
0.11878627 -0.0026051295 -0.04287973 0.018687347 0.080808386 0.1376209 -0.18371926 -0.18123503
-0.18871583 -0.06494457 0.07394269 0.13139816 0.12853365 -0.026884302 0.004979667 -0.054284673
-0.051649485 0.009160785 -0.030405158 0.083205126 0.07907093 0.09383171 0.0704268 -0.03292942
-0.004242439 -0.04163094 -0.019800603 0.23777656 -0.0066842306 0.096422896 -0.09029032 0.13881512
0.033014506 -0.09248338 -0.13464873 0.055046372 0.1185235 0.020212464 -0.10539065 -0.0065329177
-0.003574298 -0.20103826 -0.083664626 -0.1633131 0.17241949 0.10194537 -0.0398857 -0.032236334
-0.023154303 0.11117902 -0.20516923 0.06580797 -0.07375604 0.0086517045 0.16061743 -0.086737044
0.13363297 0.0925346 0.054627102 0.010867432 -0.06402666 0.09859505 -0.05103066 0.03038006
-0.1244645 0.19323145 0.019791424 -0.049447797 -0.038967293 0.036931332 0.112228036 0.1490006
-0.17352162 0.009698203 0.09622993 -0.05167324 -0.038279522 -0.09222151 0.13551609 0.1261458
0.04430943 0.20420642 0.07680032 0.046797834 -0.08166269 -0.068948396 0.0056448057 -0.17613615
0.109734 -0.06433222 0.11265246 -0.08012231 0.099495955 0.05696607 0.08156985 -0.17778258
-0.13672413 0.04821491 -0.16164862 0.034020588 0.05745223 0.1399567 0.044557583 -0.20943628
-0.074968725 0.12740609 -0.0058682975 -0.15097934 -0.13931242 -0.0386855 -0.07725694 -0.15244868
-0.156455 0.06571231 -0.07574169 0.07439427 -0.124573536 -0.116344996 0.10279501 0.16523266
0.1477552 -0.024758434 0.16200563 -0.049563367 0.13630788 -0.15799922 0.057854302 0.0965966
-0.015877381 0.04876741 0.13076887 0.1378428 -0.13858296 -0.0065573677 -0.06309534 0.17337182
-0.15691349 -0.09370918 -0.010921177 0.008084021 0.14416511 -0.026635004 0.13684307 -0.081221074
-0.06473533 0.039251074 0.060805324 0.14185403 0.08610193 0.11032199 -0.014651524 0.067053355
0.043458123 -0.16363259 -0.17266835 0.039876003 -0.101119824 -0.15259151 -0.061976843 -0.059756484
0.099732645 -0.11850758 0.050547305 -0.09565385 0.13323587 0.14700936 0.10698528 -0.15325469
0.06674738 -0.0057884254 0.021680702 -0.14888331 -0.084862396 0.029406752 0.13877398 -0.2018751
-0.00768989 -0.028026188 0.06906646 0.059866615 0.073402524 -0.0667409 0.11715015 0.19696055
-0.038368136 0.018462578 -0.11334671 0.038259078 0.043594327 -0.034914248 0.013265052 0.1677646
0.06405864 0.14355521 -0.0700358 0.021773478 0.18748178 -0.1158984 0.10974287 -0.08261978
-0.010989259 0.10015681 0.12776338 0.13573283 0.14770856 0.08962289 -0.014662892 0.1773997
-0.1374191 0.09685386 0.07865774 0.13262463 -0.10410061 0.11033747 -0.034525946 -0.08529601
0.16214286 -0.033058118 0.029192802 0.13374934 -0.13187376 0.20908621 -0.048891176 0.06741546
-0.19004251 0.07681153 -0.037246246 -0.019136194 0.1692827 -0.112116866 0.13145076 -0.05235998
-0.060862236 -0.119691096 0.038591128 -0.040330533 0.15037517 0.04829098 0.060334217 0.19388844
-0.049529828 0.13364503 -0.15529531 -0.19568302 0.116465196 0.21636172 0.11696033 -0.0568174
00000000: 06c6 b93d cda9 343d 4700 1e3e d7c5 9d3d
00000010: b68c b0bd df9f 38be 99f0 8dbd a796 173d
00000020: 3746 f33d d2ba 2abb a8a2 2fbd 3516 993c
00000030: de7e a53d 7eec 0c3e e720 3cbe ad95 39be
00000040: b93e 41be a901 85bd 446f 973d 3d8d 063e
00000050: 539e 033e 783c dcbc 792c a33b 9b59 5ebd
00000060: 698e 53bd 1e17 163c 3d14 f9bc 7367 aa3d
00000070: f1ef a13d d72a c03d ed3b 903d 00e1 06bd
00000080: 2804 8bbb 3485 2abd e034 a2bc b37b 733e
00000090: 6407 dbbb 5e79 c53d 22ea b8bd 8d25 0e3e
000000a0: 383a 073d ed67 bdbd 5be1 09be 4e78 613d
000000b0: 73bc f23d 9c94 a53c 0ed7 d7bd 1612 d6bb
000000c0: c53e 6abb f9dc 4dbe 5c58 abbd 8d3b 27be
000000d0: bc8e 303e bcc8 d03d 305f 23bd 3f0a 04bd
000000e0: 18ae bdbc d3b1 e33d e217 52be 54c6 863d
000000f0: 680d 97bd e1bf 0d3c e578 243e 31a3 b1bd
00000100: 15d7 083e c882 bd3d abc0 5f3d 500d 323c
00000110: 6920 83bd 34ec c93d 8605 51bd 9bdf f83c
00000120: 3ee7 febd 77de 453e a021 a23c c689 4abd
00000130: 2b9c 1fbd 4f45 173d d0d7 e53d 9d93 183e
00000140: a7af 31be 36e5 1e3c 3314 c53d 52a7 53bd
00000150: fdca 1cbd a2de bcbd bbc4 0a3e 5d2c 013e
00000160: ce7d 353d 7d1b 513e 7c49 9d3d 16af 3f3d
00000170: c53e a7bd d134 8dbd 10f8 b83b 095d 34be
00000180: 38bc e03d 9cc0 83bd 55b6 e63d 2a17 a4bd
00000190: 89c4 cb3d 4155 693d 180e a73d a30c 36be
000001a0: 6901 0cbe ff7c 453d 3787 25be 2c59 0b3d
000001b0: 0853 6b3d cf50 0f3e 0382 363d 7776 56be
000001c0: 3489 99bd be76 023e d94a c0bb 549a 1abe
000001d0: eaa7 0ebe b074 1ebd e338 9ebd 821b 1cbe
000001e0: bd35 20be 2d94 863d 761e 9bbd 065c 983d
000001f0: 6920 ffbd 4946 eebd 3186 d23d c032 293e
00000200: 244d 173e 33d2 cabc cee4 253e f502 4bbd
00000210: 4b94 0b3e 8cca 21be a2f8 6c3d 70d4 c53d
00000220: 4811 82bc 56c0 473d 46e8 053e aa26 0d3e
00000230: b1e8 0dbe 30df d6bb 2138 81bd 6288 313e
00000240: eead 20be 99ea bfbd bdee 32bc d772 043c
00000250: 05a0 133e a731 dabc 9720 0c3e 3c57 a6bd
00000260: f593 84bd bcc5 203d 010f 793d 2f42 113e
00000270: 3556 b03d 7ff0 e13d f20c 70bc 4553 893d
00000280: 2501 323d 4d8f 27be f9cf 30be 0555 233d
00000290: e917 cfbd f340 1cbe 6edb 7dbd 37c3 74bd
000002a0: a140 cc3d 1ab4 f2bd b10a 4f3d 2ae6 c3bd
000002b0: fc6e 083e 9f89 163e 191b db3d ccee 1cbe
000002c0: dab2 883d d5ac bdbb ba9b b13c de74 18be
000002d0: 56cc adbd 6ee6 f03c c41a 0e3e 59b8 4ebe
000002e0: 79fb fbbb 2d97 e5bc b772 8d3d b236 753d
000002f0: 1054 963d 74af 88bd 6bec ef3d 07b0 493e
00000300: e827 1dbd d53e 973c 5222 e8bd 8db5 1c3d
00000310: f78f 323d 3e02 0fbd a955 593c 7cca 2b3e
00000320: 2d31 833d 2300 133e ee6e 8fbd 4b5e b23c
00000330: 39fb 3f3e 245c edbd dfc0 e03d 8f34 a9bd
00000340: 4b0c 34bc 031f cd3d 67d4 023e 8cfd 0a3e
00000350: ea40 173e 358c b73d a03c 70bc 44a8 353e
00000360: 98b7 0cbe 515b c63d 4f17 a13d c0ce 073e
00000370: b332 d5bd 9df8 e13d 146b 0dbd adaf aebd
00000380: c708 263e f367 07bd be25 ef3c 96f5 083e
00000390: ea09 07be b21a 563e 1d42 48bd 1e11 8a3d
000003a0: 819a 42be 5d4f 9d3d 858f 18bd 82c3 9cbc
000003b0: 7258 2d3e 879d e5bd 079b 063e 6b77 56bd
000003c0: ae4a 79bd 9b20 f5bd bb11 1e3d a131 25bd
000003d0: f3fb 193e c3cc 453d 0321 773d b18a 463e
000003e0: cadf 4abd 3eda 083e bc05 1fbe 2161 48be
000003f0: 4e85 ee3d ed8d 5d3e e688 ef3d 5db9 68bd

encoder.latent.backbone.c_layers.1.layer.ff.2.bias f4 [16, 1]
0.014171892 -0.053831305 0.1828635 0.13639368 -0.10730968 -0.010184125 0.04782767 -0.07781007
-0.017722838 -0.14727482 0.12072601 -0.12264685 0.060411528 0.17281829 0.13107942 0.06258921
00000000: 3931 683c 377e 5cbd 9240 3b3e c9aa 0b3e
00000010: 2dc5 dbbd 51db 26bc f2e6 433d e35a 9fbd
00000020: 7c2f 91bc 36cf 16be 333f f73d 462e fbbd
00000030: 1472 773d 47f7 303e af39 063e c62e 803d

encoder.latent.backbone.c_layers.1.norm.weight f4 [16]
1.07414 1.065059 1.0116969 1.0600756 1.0114038 1.0552057 0.9977925 1.0842688
1.0380043 0.96718246 0.9706535 1.0267274 0.9584199 1.0258663 0.9652569 0.99678445
00000000: 6b7d 893f da53 883f 497f 813f 8fb0 873f
00000010: ae75 813f fb10 873f 546f 7f3f 52c9 8a3f
00000020: 53dd 843f 4599 773f bf7c 783f ce6b 833f
00000030: 025b 753f 964f 833f 141b 773f 442d 7f3f

encoder.latent.backbone.c_layers.1.norm.bias f4 [16]
0.037554443 -0.045259014 -0.030391805 -0.0116519835 -0.019822668 -0.057439838 0.051004507 0.025166158
0.036016207 0.051744964 -0.0014211659 -0.023437709 -0.029581264 0.04573677 0.05962549 -0.035924345
00000000: b0d2 193d 8461 39bd 3cf8 f8bc f6e7 3ebc
00000010: 2663 a2bc 0946 6bbd 1aea 503d 4229 ce3c
00000020: bb85 133d 87f2 533d 6a46 baba 7000 c0bc
00000030: 6854 f2bc 7b56 3b3d dc39 743d 6825 13bd

encoder.latent.backbone.c_layers.2.layer.D f4 [1, 16]
1.4971744 -0.8001919 -0.09913037 0.24872312 -0.34822708 -0.33039737 2.412341 0.8959355
1.7354097 2.123384 0.2715173 0.15276587 0.8822182 -0.40266272 0.67279565 -1.7592965
00000000: 69a3 bf3f 60d9 4cbf dd04 cbbd 46b1 7e3e
00000010: d24a b2be d829 a9be cc63 1a40 075c 653f
00000020: e821 de3f 86e5 0740 5104 8b3e a86e 1c3e
00000030: 0dd9 613f cf29 cebe 563c 2c3f a130 e1bf
