generative_ts/saves/250925_040023/model_LS4.pth (torch, 246091 bytes, 463 tensors)

encoder.latent.encoder.weight f4 [4, 1]
-0.26256555 0.8509132 -0.35305136 0.72617745
00000000: fe6e 86be 73d5 593f 26c3 b4be c4e6 393f

encoder.latent.encoder.bias f4 [4]
0.8873529 0.17667706 0.95276016 0.29561582
00000000: 8f29 633f d5ea 343e 17e8 733f f55a 973e

encoder.latent.backbone.d_layers.0.linear.weight f4 [8, 4]
0.2532873 0.16128652 0.0033857895 0.36078426 -0.06561428 -0.046485364 0.14616735 0.3620101
0.26358107 -0.60653543 0.34252897 0.34593716 -0.335887 -0.28048337 -0.29829696 0.6686334
-0.34907308 -0.052567452 0.17042673 0.0014828141 -0.042753085 0.32410473 -0.22787604 -0.58664054
-0.41937104 0.31102127 0.2712037 -0.3994016 -0.27400932 -0.26051196 0.03376874 -0.15947238
00000000: dfae 813e 4b28 253e 1fe4 5d3b b7b8 b83e
00000010: c860 86bd 7067 3ebd e5ac 153e 6359 b93e
00000020: 19f4 863e e845 1bbf f55f af3e ad1e b13e
00000030: 62f9 abbe 849b 8fbe 61ba 98be 8f2b 2b3f
00000040: b5b9 b2be f850 57bd 5884 2e3e fc5a c23a
00000050: dc1d 2fbd 0ef1 a53e 5658 69be 132e 16bf
00000060: cdb7 d6be 2e3e 9f3e 36db 8a3e 5e7e ccbe
00000070: f34a 8cbe d361 85be 1751 0a3d ba4c 23be

encoder.latent.backbone.d_layers.0.linear.bias f4 [8, 1]
0.45398974 0.35634512 0.11726085 -0.31169003 0.036399335 -0.3923866 -0.24314512 0.48950505
00000000: 5871 e83e de72 b63e 7526 f03d d695 9fbe
00000010: 7817 153d e5e6 c8be 09fb 78be 68a0 fa3e

encoder.latent.backbone.c_layers.0.layer.D f4 [1, 8]
0.7095138 0.35723293 -0.04528048 0.6162734 0.29395372 0.88228273 -0.40719858 -0.18935144
00000000: b2a2 353f 3ce7 b63e 0678 39bd 18c4 1d3f
00000010: 1a81 963e 48dd 613f 557c d0be 58e5 41be

encoder.latent.backbone.c_layers.0.layer.kernel.kernel.C f4 [1, 8, 2, 2]
0.42157444 -1.5253675 -0.08487185 -0.2441938 0.26830336 -1.705279 -0.22460537 1.0890492
-0.07631444 1.1184146 0.55590063 -0.568718 -0.88966364 1.1943691 1.4534978 -1.9673936
0.23866718 -0.71252304 -0.41676202 -0.2616508 -0.44681826 -0.51500756 -0.3142225 -1.5037676
0.56325114 0.14161825 0.11321006 -0.10990117 -0.7005091 -1.4480877 -0.7234666 -0.0030741
00000000: 9bd8 d73e 3e3f c3bf 4bd1 adbd f10d 7abe
00000010: 0f5f 893e 9546 dabf f3fe 65be f765 8b3f
00000020: bf4a 9cbd 3628 8f3f 814f 0e3f 8197 11bf
00000030: ffc0 63bf 16e1 983f 370c ba3f 8ed3 fbbf
00000040: 2b65 743e e967 36bf d561 d5be 18f7 85be
00000050: 5dc5 e4be 89d7 03bf c6e1 a0be 757b c0bf
00000060: 3a31 103f 6004 113e adda e73d dd13 e1bd
00000070: 9054 33bf f05a b9bf 1b35 39bf d776 49bb

encoder.latent.backbone.c_layers.0.layer.kernel.kernel.log_dt f4 [8]
-2.9465418 -5.099449 -3.9605296 -5.1599145 -6.1275334 -3.252615 -4.684993 -5.3771276
00000000: 2494 3cc0 b02e a3c0 5179 7dc0 051e a5c0
00000010: c114 c4c0 d82a 50c0 76eb 95c0 6e11 acc0

encoder.latent.backbone.c_layers.0.layer.kernel.kernel.B f4 [1, 8, 2, 2]
-0.5677015 -2.7293694 0.5760344 0.65699804 -0.16524743 -2.6081686 0.5269228 0.67952216
-0.36196685 -2.6845238 0.7204385 0.790177 -0.41227058 -2.80557 0.5151867 0.8841853
-0.08062221 -2.5950959 0.826184 0.7079368 -0.4425279 -2.9086123 0.4621086 0.8846864
-0.21939616 -2.5703082 0.75674367 0.816039 -0.1008235 -3.000891 0.772796 0.85868585
00000000: e354 11bf fdad 2ec0 fe76 133f 0631 283f
00000010: 9f36 29be 3cec 26c0 6ae4 063f 2af5 2d3f
00000020: b853 b9be 3dcf 2bc0 a86e 383f 0a49 4a3f
00000030: 2115 d3be 758e 33c0 47e3 033f f859 623f
00000040: 421d a5bd 0d16 26c0 cb80 533f 593b 353f
00000050: 0493 e2be b426 3ac0 8099 ec3e cf7a 623f
00000060: 63a9 60be ee7f 24c0 f4b9 413f efe7 503f
00000070: 8d7c cebd 990e 40c0 f5d5 453f d6d2 5b3f

encoder.latent.backbone.c_layers.0.layer.kernel.kernel.P f4 [1, 8, 2, 2]
-0.2027224 -1.7528785 0.45593202 0.6323191 -0.2610044 -1.983371 0.48279795 0.54878074
-0.13016094 -1.7969203 0.37943214 0.43121833 -0.06780828 -1.7702014 0.63047177 0.38492277
-0.3715849 -1.7695736 0.26994216 0.30623236 -0.043237437 -1.7024049 0.64240646 0.42555982
-0.19390628 -1.9496243 0.33039767 0.39078596 -0.275807 -2.1291287 0.38179252 0.4035286
00000000: 7696 4fbe 535e e0bf ec6f e93e aadf 213f
00000010: 5ea2 85be 1adf fdbf 4b31 f73e e57c 0c3f
00000020: e948 05be 7c01 e6bf ee44 c23e a6c8 dc3e
00000030: 11df 8abd f695 e2bf 9966 213f 9914 c53e
00000040: 6040 bebe 6381 e2bf dc35 8a3e 7dca 9c3e
00000050: bd19 31bd 67e8 d9bf c074 243f fae2 d93e
00000060: 5e8f 46be 4a8d f9bf e229 a93e 1915 c83e
00000070: 9336 8dbe a543 08c0 4f7a c33e 4d9b ce3e

encoder.latent.backbone.c_layers.0.layer.kernel.kernel.inv_w_real f4 [8, 2]
-0.8570598 -0.5386543 -0.5686823 -0.6901361 -0.7606572 -0.76966435 -0.8182068 -0.8266322
-0.3735085 -0.8912198 -0.86721176 -0.54711586 -0.6139854 -0.8207456 -0.49142563 -0.7828138
00000000: 4568 5bbf 40e5 09bf 2a95 11bf c2ac 30bf
00000010: 6eba 42bf b908 45bf 0076 51bf 2b9e 53bf
00000020: 823c bfbe fb26 64bf 9701 5ebf c90f 0cbf
00000030: 262e 1dbf 621c 52bf 249c fbbe 7c66 48bf

encoder.latent.backbone.c_layers.0.layer.kernel.kernel.w_imag f4 [8, 2]
-4.5596766 -0.5552949 -4.6167884 -0.55656165 -4.5873756 -0.47885194 -4.5774546 -0.41208827
-4.4423246 -0.62674445 -4.5675793 -0.35413015 -4.5049496 -0.44896442 -4.2968445 -0.56129444
00000000: dfe8 91c0 ce27 0ebf bbbc 93c0 d37a 0ebf
00000010: c8cb 92c0 152c f5be 827a 92c0 3cfd d2be
00000020: 8627 8ec0 5372 20bf 9c29 92c0 8c50 b5be
00000030: 8c28 90c0 aade e5be c07f 89c0 feb0 0fbf

encoder.latent.backbone.c_layers.0.layer.output_linear.0.weight f4 [16, 8, 1]
-0.10154657 -0.15949048 -0.39380392 0.08727728 -0.2344859 -0.10552155 -0.35650092 0.033266034
-0.020070491 0.1778958 -0.12830073 -0.41781446 0.010748776 -0.21801838 0.12604104 -0.3505258
-0.034916785 0.18485582 -0.09018881 0.2419051 0.011741554 0.23135328 -0.04416582 0.03980629
-0.18514103 -0.40751842 0.03788516 -0.16876425 0.52260226 -0.051769346 0.27043554 0.15099794
-0.45606476 -0.16123806 0.15992855 -0.5166844 -0.29643255 -0.18908843 0.30587336 -0.12000181
-0.1261938 -0.009615421 0.37972847 -0.009076602 -0.27827054 0.14139956 0.07153358 -0.2872447
0.36191392 -0.087415904 -0.29870436 -0.10748277 -0.17160085 -0.029775387 0.20759879 -0.08177264
0.27583507 -0.3835782 -0.088735454 0.07661271 0.16238447 -0.0089150295 0.022358248 -0.065619305
0.3950721 -0.24452008 0.18817088 0.24298668 0.07175643 -0.30069253 0.2801277 -0.09235897
-0.10201489 0.18304665 0.0030516 -0.41680261 -0.50936675 -0.52594864 0.10505502 0.16561168
0.23258445 0.13533764 0.3026122 0.1534518 0.305945 -0.020372009 -0.06125054 0.25807095
0.32590786 -0.2420179 -0.06046991 0.281579 -0.07259987 -0.17040937 -0.21768355 0.31608975
0.25430512 0.26634827 0.012870643 -0.22391291 -0.093995966 -0.2986236 -0.14246373 -0.33286187
0.1097837 -0.17389889 0.19118017 0.004980161 0.30753657 0.25902045 -0.031602465 0.06941891
0.09290228 -0.23237205 0.06642723 -0.08645526 0.2556571 0.015162265 0.03045298 0.18344393
-0.3326197 0.16959617 -0.148149 0.0069444617 -0.036223244 -0.026944349 -0.14957902 -0.30975795
00000000: a6f7 cfbd 7951 23be aba0 c9be 6ebe b23d
00000010: 121d 70be af1b d8bd 4a87 b6be f741 083d
00000020: df6a a4bc 512a 363e 4461 03be c7eb d5be
00000030: a21b 303c 3640 5fbe e710 013e 1e78 b3be
00000040: e704 0fbd d84a 3d3e e9b4 b8bd f8b5 773e
00000050: a65f 403c e0e7 6c3e 38e7 34bd ec0b 233d
00000060: 9c95 3dbe 41a6 d0be 782d 1b3d 89d0 2cbe
00000070: 43c9 053f 180c 54bd 8776 8a3e 349f 1a3e
00000080: 5281 e9be 971b 25be 4fc4 233e 6e45 04bf
00000090: 02c6 97be 66a0 41be 6f9b 9c3e 82c3 f5bd
000000a0: f338 01be 008a 1dbc c56b c23e 07b6 14bc
000000b0: 7a79 8ebe 0ccb 103e 3380 923d bd11 93be
000000c0: c84c b93e 1c07 b3bd c7ef 98be ed1f dcbd
000000d0: 22b8 2fbe 83eb f3bc c794 543e 6a78 a7bd
000000e0: 413a 8d3e 5d64 c4be efba b5bd 20e7 9c3d
000000f0: 1d48 263e 5810 12bc a528 b73c 6a63 86bd
00000100: e446 ca3e 7963 7abe deaf 403e 80d1 783e
00000110: 09f5 923d 5ff4 99be e66c 8f3e b326 bdbd
00000120: 2fed d0bd 9570 3b3e 5afd 473b 2767 d5be
00000130: dc65 02bf 92a4 06bf 1627 d73d 1c96 293e
00000140: 9e2a 6e3e f395 0a3e fcef 9a3e 7822 1d3e
00000150: d3a4 9c3e 33e3 a6bc d9e1 7abd e021 843e
00000160: 65dd a63e 8ad3 77be 4caf 77bd 1f2b 903e
00000170: 3eaf 94bd cb7f 2ebe 70e8 5ebe 84d6 a13e
00000180: 4834 823e cd5e 883e 64df 523c 6d49 65be
00000190: f580 c0bd 31e5 98be 03e2 11be df6c aabe
000001a0: 47d6 e03d 8d12 32be bcc4 433e 9e30 a33b
000001b0: 6f75 9d3e 549e 843e 9671 01bd 802b 8e3d
000001c0: 8d43 be3d f0f2 6dbe 000b 883d 750f b1bd
000001d0: 7de5 823e 266b 783c 8778 f93c bad8 3b3e
000001e0: 214d aabe 9eaa 2d3e 5fb4 17be 5e8e e33b
000001f0: d35e 14bd 65ba dcbc 3e2b 19be 9898 9ebe

encoder.latent.backbone.c_layers.0.layer.output_linear.0.bias f4 [16]
-0.07693342 0.03771418 -0.1263092 0.3158923 0.031163083 0.045590825 0.28308073 -0.08700908
-0.05340648 0.27202106 0.18978988 -0.23819023 0.08585585 0.22837524 0.11403635 0.021262918
00000000: 458f 9dbd 2f7a 1a3d 3357 01be a3bc a13e
00000010: b949 ff3c 72bd 3a3d f5ef 903e d131 b2bd
00000020: c1c0 5abd 5846 8b3e 4758 423e 24e8 73be
00000030: 31d5 af3d 33db 693e e48b e93d 922f ae3c

encoder.latent.backbone.c_layers.0.norm.weight f4 [8]
1.1955141 0.8195908 1.0634329 1.1956923 1.0694898 1.1203805 1.0108882 1.1511557
00000000: 9b06 993f b4d0 513f 921e 883f 720c 993f
00000010: 0be5 883f a168 8f3f c964 813f 1259 933f

encoder.latent.backbone.c_layers.0.norm.bias f4 [8]
0.036841236 -0.08150434 0.022644453 -0.12576471 -0.046413776 -0.117173836 0.015178188 -0.048423238
00000000: d6e6 163d bfeb a6bd dc80 b93c 77c8 00be
00000010: 5f1c 3ebd d6f8 efbd efad 783c 7257 46bd

encoder.latent.backbone.c_layers.1.layer.ff.0.0.weight f4 [16, 8]
-0.19527322 0.19621444 0.037760764 -0.08846385 0.46549037 -0.04937831 -0.21921708 0.078323044
0.1785892 -0.3301142 0.13476393 0.28346005 0.11276815 0.21617422 0.04889432 -0.11555422
-0.030672215 -0.32307076 -0.2928777 -0.27758807 -0.064140156 -0.24464606 -0.19176422 0.18175696
-0.19413745 0.29515725 0.10000819 -0.16163824 0.0655824 -0.07697824 -0.34907562 0.37003124
0.27177078 -0.13872766 -0.18111633 -0.042897552 -0.09587308 -0.008478799 0.2984266 0.14816684
0.23960273 -0.10686553 0.23032494 0.18456109 0.28481963 0.069865406 -0.2601607 0.2620724
-0.27226415 0.08908286 -0.09938199 -0.23313573 -0.12706155 0.26238325 0.3002831 0.24302043
0.058385015 -0.21537314 -0.04777801 -0.35794103 -0.10058489 0.16401985 0.031450864 -0.24856876
0.052585974 -0.1257369 0.18605101 0.2934562 0.09969295 0.21169397 0.29341197 0.20206809
-0.34975946 -0.08180887 0.2564958 0.25437602 0.08486926 0.1621366 -0.31113467 -0.24645711
-0.20220709 -0.33880502 -0.088641316 -0.13726111 -0.2702203 -0.012737568 -0.020401536 -0.05629485
0.195841 0.03025626 0.06316759 0.10993496 -0.19856589 0.2415426 0.09638009 0.29995987
-0.20918879 0.0936358 -0.3446375 0.010151592 0.057738733 0.16787882 -0.14085253 0.17079972
-0.4978918 -0.18866965 0.38391063 0.16798636 0.18406633 0.40274808 -0.17644973 -0.020869806
-0.38169098 -0.030740524 -0.3445154 0.42294988 0.29251027 0.09780692 0.15805133 -0.21558306
0.09364615 0.30336154 -0.21441408 0.019838989 -0.041462205 0.027621532 0.021170229 -0.35831517
00000000: b4f5 47be 70ec 483e 08ab 1a3d 892c b5bd
00000010: c154 ee3e e940 4abd 717a 60be d567 a03d
00000020: 16e0 363e ba04 a9be 8eff 093e ad21 913e
00000030: fdf2 e63d c65c 5d3e 6945 483d b1a7 ecbd
00000040: 4c44 fbbc 8869 a5be 11f4 95be 0620 8ebe
00000050: ea5b 83bd 7f84 7abe d75d 44be 7f1e 3a3e
00000060: f8cb 46be da1e 973e 18d1 cc3d 7f84 25be
00000070: 1150 863d c4a6 9dbd 0aba b2be bc74 bd3e
00000080: 8a25 8b3e a00e 0ebe 8f76 39be 58b5 2fbd
00000090: 1b59 c4bd a9ea 0abc 5fcb 983e 0cb9 173e
000000a0: 6b5a 753e 51dc dabd 4dda 6b3e 95fd 3c3e
000000b0: e1d3 913e 9815 8f3d c933 85be 5b2e 863e
000000c0: 3566 8bbe 1371 b63d c988 cbbd 22bb 6ebe
000000d0: 6c1c 02be 1957 863e b5be 993e 59da 783e
000000e0: 2025 6f3d c78a 5cbe e0b2 43bd 0c44 b7be
000000f0: 73ff cdbd d2f4 273e 9fd2 003d cf88 7ebe
00000100: 6464 573d 2dc1 00be 2884 3e3e e43f 963e
00000110: d12b cc3d 4ec6 583e 183a 963e f0ea 4e3e
00000120: ac13 b3be 698b a7bd 6b53 833e 933d 823e
00000130: efcf ad3d 2307 263e 0b4d 9fbe 415f 7cbe
00000140: 600f 4fbe da77 adbe 9489 b5bd 2d8e 0cbe
00000150: 515a 8abe 3bb1 50bc 1f21 a7bc 6e95 66bd
00000160: 8b8a 483e fadb f73c 025e 813d 9525 e13d
00000170: db54 4bbe f156 773e ed62 c53d 5794 993e
00000180: 9635 56be 20c4 bf3d 5474 b0be dd52 263c
00000190: 737f 6c3d 6de8 2b3e a53b 10be 1fe6 2e3e
000001a0: adeb febe 9e32 41be ef8f c43e 9e04 2c3e
000001b0: e27b 3c3e ff34 ce3e 3daf 34be 28f7 aabc
000001c0: 006d c3be 8dd3 fbbc 5364 b0be e38c d83e
000001d0: e8c3 953e ff4e c83d 35d8 213e cec1 5cbe
000001e0: 8dc9 bf3d 3452 9b3e 5d8f 5bbe 6085 a23c
000001f0: 46d4 29bd 8d46 e23c 306d ad3c 1675 b7be

encoder.latent.backbone.c_layers.1.layer.ff.0.0.bias f4 [16, 1]
0.20014931 0.1101077 0.070357405 -0.28533965 -0.16821533 -0.115240365 -0.11491098 -0.16781685
0.3071243 0.27651122 0.10575149 -0.32123956 0.13247697 0.23860182 -0.20225516 -0.30069757
00000000: f1f3 4c3e 2580 e13d 8b17 903d 0a18 92be
00000010: a440 2cbe 2403 ecbd 7356 ebbd 2ed8 2bbe
00000020: 653f 9d3e e192 8d3e 3d94 d83d 8379 a4be
00000030: 0ba8 073e 0954 743e fa1b 4fbe 08f5 99be

encoder.latent.backbone.c_layers.1.layer.ff.2.weight f4 [8, 16]
0.16320583 -0.1836901 -0.029942175 0.0093710795 -0.12451597 -0.046646576 0.04388202 -0.091003016
0.20233864 0.087730624 -0.031274594 -0.04845861 0.3215111 0.2543379 0.04307969 0.3039792
0.23412101 0.21527827 0.0115345325 0.17924719 -0.07050767 0.29443502 0.100232296 0.017029641
0.04984426 0.05053646 -0.020284217 -0.23644568 0.12193484 -0.042441756 -0.06560841 0.09017531
0.15253995 -0.19440842 0.16294824 0.22998892 -0.18250206 0.13709864 -0.04755297 0.10578701
0.013646547 0.020828815 0.20221834 0.121279195 0.063604504 0.11786509 0.097923346 -0.14944091
0.31396717 -0.14737523 -0.12751639 -0.2577099 0.09355087 0.05949328 -0.024434889 -0.27275035
-0.26355475 0.05592027 -0.327539 -0.17669754 0.21433987 0.26270682 0.14451231 0.19848357
-0.050282568 0.1775875 0.25247645 -0.1817062 0.220882 -0.32080716 0.17796673 0.0034922366
0.14977734 -0.052365698 0.3207902 0.30243203 -0.24684401 -0.020764982 0.2286693 -0.1781374
0.16836636 -0.18565507 -0.038521186 0.23469946 -0.22962227 0.19682087 -0.14368086 -0.09746544
0.10373112 -0.15475307 -0.15815969 0.1620555 0.12990163 -0.21717004 0.2586253 -0.0141666895
-0.025564123 0.2045707 0.1659311 0.2682864 -0.04054477 0.29758668 0.13705806 0.17411311
-0.075956956 0.24979828 0.16292134 -0.16147724 -0.12596892 -0.19709195 0.09845187 -0.2546501
-0.09648414 -0.1681883 -0.031680573 0.14375624 -0.19247495 -0.14109091 -0.24308053 -0.029613504
0.022537954 0.023805551 -0.17153005 -0.21514192 -0.27992782 0.054244872 -0.29729173 0.13493042
00000000: 6e1f 273e 4219 3cbe 4b49 f5bc 2889 193c
00000010: 3b02 ffbd 7b10 3fbd a2bd 333d ca5f babd
00000020: dc31 4f3e 1dac b33d ca19 00bd 897c 46bd
00000030: 1a9d a43e 9438 823e 5474 303d 29a3 9b3e
00000040: 6bbd 6f3e e871 5c3e 56fb 3c3c 938c 373e
00000050: 5366 90bd 30c0 963e 9746 cd3d bf81 8b3c
00000060: 7f29 4c3d 52ff 4e3d 162b a6bc d11e 72be
00000070: f9b8 f93d 68d7 2dbd b45d 86bd d5ad b83d
00000080: 6f33 1c3e 0013 47be e7db 263e 3782 6b3e
00000090: d2e1 3abe 9663 0c3e e7c6 42bd dca6 d83d
000000a0: c495 5f3c 31a1 aa3c 5312 4f3e 3a61 f83d
000000b0: 1443 823d 4163 f13d 098c c83d 0a07 19be
000000c0: 4ec0 a03e 88e9 16be a893 02be 8df2 83be
000000d0: 9997 bf3d 3aaf 733d ad2b c8bc efa5 8bbe
000000e0: a6f0 86be a70c 653d 31b3 a7be 33f0 34be
000000f0: e97b 5b3e 8281 863e 09fb 133e 473f 4b3e
00000100: 18f5 4dbd 7fd9 353e 9844 813e 3111 3abe
00000110: e42e 623e d640 a4be e93c 363e 02de 643b
00000120: 3b5f 193e 6a7d 56bd 9d3e a43e 5fd8 9a3e
00000130: adc4 7cbe 531b aabc 4928 6a3e a769 36be
00000140: 3b68 2c3e 5d1c 3ebe 64c8 1dbd 0e55 703e
00000150: 1a22 6bbe 698b 493e 1321 13be f69b c7bd
00000160: fb70 d43d 9777 1ebe 9df4 21be e1f1 253e
00000170: ef04 053e d361 5ebe 896a 843e 671b 68bc
00000180: da6b d1bc fb7a 513e d8e9 293e d65c 893e
00000190: 4612 26bd 485d 983e f358 0c3e b54a 323e
000001a0: 528f 9bbd 1fcb 7f3e dad4 263e 4a5a 25be
000001b0: fffd 00be 79d2 49be 22a1 c93d 7f61 82be
000001c0: 7a99 c5bd 8e39 2cbe 7dc3 01bd d634 133e
000001d0: 2718 45be 237a 10be 1aea 78be 0598 f2bc
000001e0: 84a1 b83c dc03 c33c 93a5 2fbe 2a4e 5cbe
000001f0: b352 8fbe df2f 5e3d 9f36 98be 332b 0a3e

encoder.latent.backbone.c_layers.1.layer.ff.2.bias f4 [8, 1]
0.17971396 0.21549422 0.044616513 0.0031459366 -0.243869 -0.034041073 0.14374244 -0.114995845
00000000: f006 383e 84aa 5c3e cebf 363d 0f2c 4e3b
00000010: ccb8 79be a76e 0bbd 3831 133e f182 ebbd

encoder.latent.backbone.c_layers.1.norm.weight f4 [8]
1.0217447 1.1188906 1.0727865 0.8302777 1.0846044 0.92298746 1.0081096 1.0213003
00000000: 88c8 823f cf37 8f3f 1151 893f 148d 543f
00000010: 51d4 8a3f e848 6c3f bc09 813f f8b9 823f

encoder.latent.backbone.c_layers.1.norm.bias f4 [8]
-0.014160958 0.059468098 -0.041012127 0.09986532 -8.655526e-05 0.07872636 0.005647138 -0.015561969
00000000: 5d03 68bc d294 733d 55fc 27bd 3086 cc3d
00000010: 0085 b5b8 493b a13d a10b b93b a1f7 7ebc

encoder.latent.backbone.c_layers.2.layer.D f4 [1, 8]
0.5399571 0.5239434 -0.022374447 0.87924385 0.3628282 -1.401498 0.8561748 0.5566276
00000000: a13a 0a3f 2821 063f 9e4a b7bc 2016 613f
00000010: 9ec4 b93e 4964 b3bf 462e 5b3f 257f 0e3f

encoder.latent.backbone.c_layers.2.layer.kernel.kernel.C f4 [1, 8, 2, 2]
-0.6048275 -0.63680786 -0.5213494 0.66191113 -0.95753473 0.80655885 -1.0553783 0.14844954
0.06447243 0.453258 -1.2082956 -0.32041353 0.57409555 -1.8905149 0.40900517 0.5471119
0.73180324 1.4824071 1.2432224 -1.1150664 0.5737608 1.370627 0.25066185 0.5141103
-0.57918346 1.6751177 0.52838767 -1.734542 0.6596178 0.066890694 -0.4508254 -0.19149296
00000000: fad5 1abf d705 23bf 2777 05bf 0273 293f
00000010: ff20 75bf a47a 4e3f a316 87bf 2803 183e
00000020: 1f0a 843d 6f11 e83e 6ea9 9abf 3e0d a4be
00000030: edf7 123f 64fc f1bf 2069 d13e 870f 0c3f
00000040: 7557 3b3f 84bf bd3f e921 9f3f 7fba 8ebf
00000050: fde1 123f b570 af3f c056 803e bc9c 033f
00000060: 5e45 14bf 426a d63f 6a44 073f 7905 debf
00000070: b6dc 283f fdfd 883d 96d2 e6be bb16 44be

encoder.latent.backbone.c_layers.2.layer.kernel.kernel.log_dt f4 [8]
-4.8776703 -5.0524254 -4.286368 -4.264742 -2.763435 -4.135957 -4.742769 -2.353771
00000000: e015 9cc0 78ad a1c0 ed29 89c0 c478 88c0
00000010: 1edc 30c0 c259 84c0 c3c4 97c0 2fa4 16c0

encoder.latent.backbone.c_layers.2.layer.kernel.kernel.B f4 [1, 8, 2, 2]
-0.2322177 -2.6687567 0.74516803 0.9502609 -0.44804388 -2.5428011 0.7459241 0.8498613
-0.45472917 -2.68119 0.5981393 0.8253808 -0.46574765 -2.771531 0.5436319 0.7161801
-0.24823785 -2.655058 0.6696762 0.6799765 -0.3459297 -2.7418208 0.5562408 0.747508
-0.5675683 -2.8877597 0.31562406 1.0537208 -0.17579722 -2.9048572 0.4511298 1.0267222
00000000: 7aca 6dbe e9cc 2ac0 55c3 3e3f 4c44 733f
00000010: 0266 e5be 41bd 22c0 e2f4 3e3f 8390 593f
00000020: 43d2 e8be 9e98 2bc0 a81f 193f 284c 533f
00000030: 7a76 eebe c460 31c0 762b 0b3f 9457 373f
00000040: 1032 7ebe 78ec 29c0 e66f 2b3f f112 2e3f
00000050: b31d b1be fe79 2fc0 cc65 0e3f af5c 3f3f
00000060: 284c 11bf 0ed1 38c0 7a99 a13e 53e0 863f
00000070: 3004 34be 2ee9 39c0 7cfa e63e a26b 833f

encoder.latent.backbone.c_layers.2.layer.kernel.kernel.P f4 [1, 8, 2, 2]
0.03703187 -2.0279574 0.36073178 0.27776212 -0.06814542 -1.9469601 0.40871146 0.37605268
-0.19182482 -1.7989067 0.55720013 0.56477785 -0.36400136 -1.740699 0.38528225 0.808815
-0.23759985 -1.853687 0.43079323 0.51496285 -0.13461487 -1.7007911 0.5407352 0.7758625
0.14337453 -1.5814282 0.17981943 0.11532881 -0.1417996 -1.7152867 0.36385658 0.45374283
00000000: bbae 173d 0eca 01c0 d6b1 b83e d636 8e3e
00000010: d38f 8bbd fd35 f9bf a142 d13e fa89 c03e
00000020: ba6d 44be 9342 e6bf aba4 0e3f 4895 103f
00000030: 635e babe 3acf debf b743 c53e 800e 4f3f
00000040: 604d 73be 9e45 edbf ee90 dc3e 9bd4 033f
00000050: 7bd8 09be 86b3 d9bf 9f6d 0a3f ed9e 463f
00000060: c6d0 123e 3d6c cabf 9622 383e 8331 ec3d
00000070: ea33 11be 848e dbbf 694b ba3e fb50 e83e

encoder.latent.backbone.c_layers.2.layer.kernel.kernel.inv_w_real f4 [8, 2]
-0.5336786 -0.943706 -0.6290977 -0.8315629 -0.79720664 -0.62589836 -0.83776116 -0.5913597
-0.68156666 -0.6868673 -0.8046934 -0.45823616 -0.9783963 -1.105419 -0.87755966 -0.73840004
00000000: 299f 08bf b796 71bf 8c0c 21bf 4ee1 54bf
00000010: bc15 4cbf e03a 20bf 8477 56bf 5963 17bf
00000020: 277b 2ebf 89d6 2fbf 6300 4ebf ee9d eabe
00000030: 2e78 7abf 5f7e 8dbf c0a7 60bf c907 3dbf

encoder.latent.backbone.c_layers.2.layer.kernel.kernel.w_imag f4 [8, 2]
-4.572447 -0.29416704 -4.738181 -0.42358473 -4.56797 -0.4263704 -4.47539 -0.49875382
-4.5658836 -0.67899215 -4.6037517 -0.46853724 -4.3632135 -0.16425802 -4.4100156 -0.24673206
00000000: 7c51 92c0 109d 96be 2e9f 97c0 19e0 d8be
00000010: cf2c 92c0 394d dabe 6536 8fc0 a95c ffbe
00000020: b81b 92c0 6ed2 2dbf ef51 93c0 1de4 efbe
00000030: 729f 8bc0 4133 28be d91e 8dc0 54a7 7cbe

encoder.latent.backbone.c_layers.2.layer.output_linear.0.weight f4 [16, 8, 1]
0.14899568 0.21607615 0.19809672 -0.03920452 0.39525935 -0.3766942 0.26779658 -0.45092505
0.2540459 0.19423206 0.19060703 0.47055212 0.42044115 -0.15962113 -0.13271359 -0.043882105
-0.2409918 -0.38578573 0.18813787 -0.13337114 0.07075159 0.018794265 -0.185027 -0.26020193
-0.29187423 0.25467214 0.019416623 0.003823818 0.090586156 -0.05347212 0.15380333 -0.39533013
0.36528927 0.32891968 0.3860685 0.38842353 -0.12713118 -0.21955748 -0.0437819 0.36321446
0.33973214 0.3033926 -0.3241102 -0.12978548 -0.03433462 -0.24212594 0.09845288 0.1815986
0.32952115 -0.19454232 -0.2805228 0.34230328 0.308913 0.20386721 0.0028727774 0.10135955
-0.20314524 -0.1263473 0.112338796 -0.29405752 -0.23874775 0.20658009 0.3735702 -0.0804298
0.23740855 0.13925254 0.04361145 -0.05538231 0.13785581 0.1969811 -0.14900592 0.22379966
-0.4183624 0.23053001 -0.38029176 -0.26355106 0.046316452 -0.097863734 -0.17703876 -0.2737763
0.5351782 -0.07551075 0.08111648 0.28264952 0.078419015 0.07824656 0.01796533 -0.21474531
-0.12532027 0.1313639 0.51236033 -0.17578995 0.31368318 -0.03995467 0.35078287 0.2585279
-0.2963445 0.027736787 -0.4648188 -0.37636027 0.07757026 -0.08049544 0.4427801 -0.1638184
-0.3075464 -0.3300045 -0.19508351 0.017530907 0.063146695 0.28487796 -0.18026349 0.009866454
0.12146586 0.4300539 0.029605662 0.15264638 -0.17385083 -0.20141418 -0.09214668 0.27915955
-0.09392556 -0.16698632 0.12681372 0.20123169 -0.021082286 0.07381818 0.24957784 -0.12184385
00000000: 5392 183e 1143 5d3e ded9 4a3e eb94 20bd
00000010: 6f5f ca3e 10de c0be a21c 893e a6df e6be
00000020: 4e12 823e c5e4 463e 7d2e 433e 35ec f03e
00000030: 1044 d73e b973 23be 12e6 07be b9bd 33bd
00000040: 8ec6 76be b585 c5be 37a7 403e 7292 08be
00000050: 36e6 903d 6ef6 993c b877 3dbe 3039 85be
00000060: 8a70 95be 6364 823e 9c0f 9f3c 0599 7a3b
00000070: 3c85 b93d 9505 5bbd 9f7e 1d3e b668 cabe
00000080: 3207 bb3e 2968 a83e c5aa c53e 73df c63e
00000090: ad2e 02be add3 60be a654 33bd 3ff7 b93e
000000a0: 5ff1 ad3e 4656 9b3e c6f1 a5be 7ce6 04be
000000b0: 75a2 0cbd ddef 77be aaa1 c93d fcf4 393e
000000c0: ffb6 a83e 1a36 47be afa0 8fbe 6042 af3e
000000d0: d829 9e3e 91c2 503e 3545 3c3b 9995 cf3d
000000e0: 4e05 50be 3061 01be e211 e63d b58e 96be
000000f0: 4a7a 74be bb89 533e 9844 bf3e 61b8 a4bd
00000100: 3a1b 733e 3898 0e3e eba1 323d 90d8 62bd
00000110: 132a 0d3e 6ab5 493e 0295 18be bd2b 653e
00000120: 9933 d6be 0f10 6c3e 9ab5 c2be 2af0 86be
00000130: 52b6 3d3d c86c c8bd a649 35be 682c 8cbe
00000140: 7001 093f 61a5 9abd 6620 a63d 70b7 903e
00000150: 269a a03d bc3f a03d 072c 933c 32e6 5bbe
00000160: f553 00be 4284 063e 0c2a 033f 4802 34be
00000170: 159b a03e 82a7 23bd d099 b33e c55d 843e
00000180: 77ba 97be 4238 e33c bbfc edbe 4bb2 c0be
00000190: 28dd 9e3d cbda a4bd 13b4 e23e 03c0 27be
000001a0: b976 9dbe 5af6 a8be f9c3 47be fa9c 8f3c
000001b0: 0e53 813d 86db 913e fe96 38be e8a6 213c
000001c0: 18c3 f83d 0630 dc3e 9387 f23c 554f 1c3e
000001d0: f405 32be 853f 4ebe 66b7 bcbd 00ee 8e3e
000001e0: 0b5c c0bd 76fe 2abe 75db 013e ae0f 4e3e
000001f0: c2b4 acbc fc2d 973d 5591 7f3e 4589 f9bd

encoder.latent.backbone.c_layers.2.layer.output_linear.0.bias f4 [16]
0.18527287 -0.31563792 -0.012003003 -0.07661929 -0.2388707 -0.34958684 0.24635698 -0.0696684
-0.23037222 0.12703362 0.004988015 -0.27429217 0.3478056 -0.27825406 -0.2519602 0.30211344
00000000: 2cb8 3d3e 4b9b a1be 3ea8 44bc 93ea 9cbd
00000010: 859a 74be 0cfd b2be 0145 7c3e 4eae 8ebd
00000020: b2e6 6bbe 1a15 023e 8172 a33b 0670 8cbe
00000030: 9313 b23e 5177 8ebe ed00 81be 9dae 9a3e

encoder.latent.backbone.c_layers.2.norm.weight f4 [8]
1.1497977 1.0909355 1.0445721 1.1270489 0.9923911 1.0100584 1.2317377 1.163848
00000000: 922c 933f c6a3 8b3f 8ab4 853f 2343 903f
00000010: 580d 7e3f 9849 813f 95a9 9d3f f9f8 943f

encoder.latent.backbone.c_layers.2.norm.bias f4 [8]
0.117808804 0.074968964 -0.07329705 0.016380318 0.04211277 -0.008716292 -0.18377416 0.047115915
00000000: be45 f13d 5489 993d c41c 96bd 0430 863c
00000010: 717e 2c3d c7ce 0ebc 4b2f 3cbe 9efc 403d

encoder.latent.backbone.c_layers.3.layer.ff.0.0.weight f4 [16, 8]
0.12033661 -0.17347011 -0.083042964 0.23013188 -0.25878033 0.14372163 -0.13883783 0.34243444
0.3871574 -0.21306609 -0.0730409 -0.24856524 0.034176145 0.027384475 -0.31435305 -0.12659402
0.16833475 -0.2214605 0.28551096 -0.17562231 -0.05071064 0.22954293 -0.038303856 -0.23360379
-0.17728885 0.20606835 0.09352422 0.043364067 -0.20642126 -0.18799369 -0.23454005 0.15210673
-0.17031607 0.16955747 -0.0013148405 -0.053853866 0.2552763 0.19321592 -0.08887325 0.1148361
0.17963861 -0.1405032 -0.3860582 -0.09366607 0.27543628 0.13918369 0.094913445 0.23537464
-0.2994092 0.34566754 -0.11842335 -0.41478282 -0.07869358 0.28407884 0.037771393 -0.3464143
-0.24306569 0.14009826 0.35099995 -0.31352115 0.17324351 -0.0038201194 -0.27189916 -0.28198138
-0.354859 -0.18405592 0.15788618 0.28213114 0.07787257 0.19582312 0.3503762 -0.3985916
-0.26759306 0.0014732648 -0.25858688 0.045214996 0.102128975 0.2800199 0.11080389 -0.44041958
-0.19095582 0.18701348 0.10474482 -0.057535242 0.07542176 -0.16352728 0.047667623 0.31948993
-0.0531626 0.05061398 0.24664764 0.11179604 -0.3266954 0.36722338 -0.25440788 0.067993544
-0.08511692 -0.3765605 -0.41897827 -0.19262114 0.08758923 0.030974891 0.30310982 0.06323609
-0.05521952 -0.04092093 -0.027750058 -0.11870441 -0.2266923 0.28181025 -0.27826324 0.099276386
0.116094664 -0.31023228 -0.2714318 -0.18486635 0.14215438 -0.20025083 0.27194893 -0.076102376
-0.09577513 0.30867776 0.017273698 0.3115336 -0.2368328 0.29224104 0.058409136 -0.16524048
00000000: 0a73 f63d 26a2 31be 6e12 aabd b1a7 6b3e
00000010: db7e 84be c32b 133e 812b 0ebe 9153 af3e
00000020: 7f39 c63e ff2d 5abe 7896 95bd e387 7ebe
00000030: 49fc 0b3d 6855 e03c e2f2 a0be dda1 01be
00000040: f25f 2c3e 8bc6 62be 7e2e 923e 56d6 33be
00000050: f6b5 4fbd 4d0d 6b3e 81e4 1cbd d535 6fbe
00000060: 358b 35be 9503 533e a089 bf3d 859e 313d
00000070: 1860 53be 6b81 40be 442b 70be dec1 1b3e
00000080: 5667 2ebe 79a0 2d3e ba56 acba df95 5cbd
00000090: 93b3 823e 65da 453e 2e03 b6bd 302f eb3d
000000a0: 2ff3 373e 12e0 0fbe 6ca9 c5be ffd3 bfbd
000000b0: fc05 8d3e 2b86 0e3e fb61 c23d 0d06 713e
000000c0: 2a4c 99be 56fb b03e f187 f2bd 6a5e d4be
000000d0: 1a2a a1bd c872 913e 2db6 1a3d 375d b1be
000000e0: 36e6 78be eb75 0f3e 44b6 b33e d885 a0be
000000f0: bf66 313e f85a 7abb 5e36 8bbe dd5f 90be
00000100: 14b0 b5be 2879 3cbe eaac 213e 7e73 903e
00000110: a77b 9f3d db85 483e 8264 b33e 3314 ccbe
00000120: f501 89be 901a c13a 8065 84be 5c33 393d
00000130: ff28 d13d c55e 8f3e 26ed e23d ad7e e1be
00000140: ec89 43be 7680 3f3e 7484 d63d 13aa 6bbd
00000150: b976 9a3d b273 27be 203f 433d 2f94 a33e
00000160: 07c1 59bd 9b50 4f3d 3391 7c3e 52f5 e43d
00000170: 9f44 a7be b404 bc3e c041 82be 3340 8b3d
00000180: c851 aebd 8acc c0be 5284 d6be 7a3e 45be
00000190: fb61 b33d 0ebf fd3c 3631 9b3e ec81 813d
000001a0: dd2d 62bd b59c 27bd 1754 e3bc 4c1b f3bd
000001b0: 0722 68be 6f49 903e 8578 8ebe 6b51 cb3d
000001c0: 0ac3 ed3d c4d6 9ebe 1cf9 8abe 9b4d 3dbe
000001d0: eb90 113e 8e0e 4dbe e43c 8b3e 90db 9bbd
000001e0: c025 c4bd 030b 9e3e 9281 8d3c 5581 9f3e
000001f0: 4c84 72be 9ea0 953e 6b3e 6f3d cd34 29be

encoder.latent.backbone.c_layers.3.layer.ff.0.0.bias f4 [16, 1]
0.047012817 -0.27247137 -0.2990651 0.22544539 0.010335523 -0.23404755 0.16612108 -0.2498456
0.18961817 0.3236522 -0.0541469 -0.1484625 -0.15844086 0.07137214 0.27494466 -0.010308039
00000000: 8390 403d 5e81 8bbe 101f 99be 28db 663e
00000010: 5356 293c 29aa 6fbe a51b 2a3e 86d7 7fbe
00000020: 442b 423e beb5 a53e 24c9 5dbd 8e06 18be
00000030: 523e 22be 8e2b 923d 8cc5 8c3e 0de3 28bc

encoder.latent.backbone.c_layers.3.layer.ff.2.weight f4 [8, 16]
-0.043599628 -0.21887186 0.07437342 0.08634609 -0.1339064 -0.1527193 0.25618273 -0.0063782716
-0.14098136 -0.15268728 0.18939257 0.22376074 0.009073396 -0.150118 -0.24068658 -0.123839006
-0.21021667 0.30388314 -0.06285329 0.0825179 -0.058970068 0.0019489973 0.03706361 0.016145503
0.058307163 -0.12115849 0.12778765 0.23424095 0.17959121 0.08621427 0.14028051 -0.08434574
0.18685777 -0.14639848 -0.098188214 0.031858712 0.14112434 0.16562341 -0.122098915 0.22811833
-0.19827005 -0.12606452 0.1749253 0.18093961 -0.07263921 0.06703966 -0.060731146 -0.029905394
-0.0053222845 0.14701556 -0.00032329612 -0.07512332 -0.09613459 -0.24175118 -0.12792377 0.042524174
-0.033051804 0.065345526 0.15488854 -0.17825107 -0.3003895 0.16975151 0.13652153 -0.24632998
0.080239706 0.18834598 0.031223368 -0.16790612 -0.09704809 0.11273075 -0.16044751 0.11893053
-0.18755274 0.061496273 -0.23484902 0.09436268 0.13793442 -0.15473239 0.11631202 0.20143236
0.15352671 0.019194832 -0.20733742 0.09901239 -0.00011214979 -0.21562131 0.035173956 -0.15597402
-0.030841883 -0.0055413335 0.04537305 -0.23709773 0.13616434 -0.10513823 0.04873448 0.079681896
-0.0715432 -0.02950128 0.09648043 0.20738044 0.042672757 -0.030129302 -0.13385771 0.15953685
0.21432117 0.062346056 0.10776768 -0.05270683 0.17436877 -0.12809508 -0.06557261 0.037892003
-0.14081347 0.15332021 -0.019981325 0.2429542 -0.16260663 0.12229591 0.32179582 0.10507151
0.09436353 -0.017856235 0.113667026 0.059601903 0.020373752 -0.2824624 0.20786008 0.0957816
00000000: 8695 32bd f21f 60be 1751 983d 38d6 b03d
00000010: c21e 09be 7362 1cbe 622a 833e d200 d1bb
00000020: 6b5d 10be 0e5a 1cbe 20f0 413e 8921 653e
00000030: 95a8 143c 88b8 19be 8b76 76be 4e9f fdbd
00000040: 0a43 57be 9296 9b3e 3ab9 80bd 25ff a83d
00000050: 998a 71bd 7f75 ff3a 03d0 173d 9343 843c
00000060: 7ed3 6e3d f121 f8bd c4da 023e dcdc 6f3e
00000070: c2e6 373e 1b91 b03d b2a5 0f3e 76bd acbd
00000080: a557 3f3e 7ce9 15be e716 c9bd 487e 023d
00000090: e682 103e 2f99 293e ff0e fabd da97 693e
000000a0: 4e07 4bbe 0f17 01be 9e1f 333e 3c48 393e
000000b0: dec3 94bd 174c 893d 39c1 78bd 28fc f4bc
000000c0: 8f66 aebb 3f8b 163e 1280 a9b9 41da 99bd
000000d0: 36e2 c4bd 9f8d 77be 73fe 02be d42d 2e3d
000000e0: 5461 07bd e0d3 853d 1a9b 1e3e 7387 36be
000000f0: a7cc 99be 57d3 2d3e 4dcc 0b3e ed3d 7cbe
00000100: b754 a43d c5dd 403e 26c8 ff3c 95ef 2bbe
00000110: 26c1 c6bd 61df e63d 5a4c 24be da91 f33d
00000120: d30d 40be 84e3 7b3d 437c 70be 3941 c13d
00000130: ae3e 0d3e 2b72 1ebe ff34 ee3d 4944 4e3e
00000140: 1b36 1d3e 7b3e 9d3c 4350 54be 02c7 ca3d
00000150: f631 ebb8 d5cb 5cbe 9112 103d a7b7 1fbe
00000160: 1ea8 fcbc 1394 b5bb 17d9 393d bfc9 72be
00000170: aa6e 0b3e b652 d7bd ce9d 473d 4330 a33d
00000180: 3e85 92bd abac f1bc 8897 c53d 8a5b 543e
00000190: a1c9 2e3d bad1 f6bc ff11 09be a15d 233e
000001a0: 0277 5b3e 945e 7f3d 4db5 dc3d 1ee3 57bd
000001b0: ba8d 323e 5b2b 03be ef4a 86bd a534 1b3d
000001c0: 6831 10be f9ff 1c3e e0af a3bc fcc8 783e
000001d0: 5a82 26be 4776 fa3d 6cc2 a43e bb2f d73d
000001e0: ab41 c13d 3d47 92bc 42ca e83d 2021 743d
000001f0: dbe6 a63c e99e 90be 46d9 543e 2529 c43d

encoder.latent.backbone.c_layers.3.layer.ff.2.bias f4 [8, 1]
0.23587164 -0.07301517 -0.17603238 0.044614818 0.05783301 -0.12872718 -0.11446565 -0.083941944
00000000: 5688 713e fa88 95bd d541 34be 07be 363d
00000010: 4ee2 6c3d 0fd1 03be f76c eabd c1e9 abbd

encoder.latent.backbone.c_layers.3.norm.weight f4 [8]
0.99561477 0.9596575 0.93237424 0.99955523 0.9361868 1.0319525 0.9082846 1.0697827
00000000: 9ce0 7e3f 1dac 753f 14b0 6e3f dae2 7f3f
00000010: f0a9 6f3f 0517 843f 5785 683f a4ee 883f

encoder.latent.backbone.c_layers.3.norm.bias f4 [8]
-0.034899995 -0.031418186 -0.03105513 -0.01498814 0.06712643 -0.039366584 0.06398997 0.020747524
00000000: 4cf3 0ebd 5bb0 00bd 5467 febc d190 75bc
00000010: 9579 893d db3e 21bd 2c0d 833d b6f6 a93c

encoder.latent.backbone.c_layers.4.layer.D f4 [1, 8]
0.2218216 0.7768029 0.29640397 -1.03755 -0.7202286 -0.13474877 -0.3945595 1.1188353
00000000: 3425 633e 8edc 463f 43c2 973e 70ce 84bf
00000010: e760 38bf 95fb 09be b403 cabe ff35 8f3f

encoder.latent.backbone.c_layers.4.layer.kernel.kernel.C f4 [1, 8, 2, 2]
0.81664807 -0.49347815 -0.114474915 0.37138867 0.6882161 0.100240886 -0.6526584 0.42920306
-0.01913687 -0.9400301 0.31882027 0.049821597 -0.49367133 -0.5310692 -1.3921893 -0.091114104
-0.6580193 0.29777813 0.6268968 -1.4417155 -0.47113636 0.7906189 0.023101183 0.8464021
-1.2042831 0.24923795 1.616653 0.3169531 0.09452431 0.6375804 -0.17780267 0.23199268
00000000: d90f 513f 2ba9 fcbe d371 eabd a826 be3e
00000010: ee2e 303f 184b cd3d 9f14 27bf 81c0 db3e
00000020: edc4 9cbc d0a5 70bf 693c a33e bb11 4c3d
00000030: 7dc2 fcbe 27f4 07bf 4233 b2bf 089a babd
00000040: f473 28bf 6076 983e 4f7c 203f 228a b8bf
00000050: c938 f1be 0066 4a3f b13e bd3c cfad 583f
00000060: f325 9abf 3c38 7f3e 7cee ce3f ad47 a23e
00000070: f695 c13d 7838 233f e711 36be 7d8f 6d3e

encoder.latent.backbone.c_layers.4.layer.kernel.kernel.log_dt f4 [8]
-6.584239 -3.4276536 -4.1768613 -2.9258835 -3.9963405 -4.8397503 -2.7068496 -6.1694517
00000000: 16b2 d2c0 ad5e 5bc0 d9a8 85c0 ad41 3bc0
00000010: 0bc4 7fc0 3cdf 9ac0 063d 2dc0 266c c5c0

encoder.latent.backbone.c_layers.4.layer.kernel.kernel.B f4 [1, 8, 2, 2]
-0.3438461 -2.7591436 0.5054669 0.7915551 -0.48230797 -2.466328 0.8622759 0.98445857
-0.17573676 -2.7524152 0.5846157 0.7156271 -0.17031366 -2.5997152 0.7199941 0.6916273
-0.5253865 -2.8789718 0.42101952 0.9838875 -0.30606997 -2.6091673 0.61303353 0.72780025
-0.32109562 -2.5474174 0.7147703 0.5762082 -0.25156933 -2.87535 0.5079407 0.8378462
00000000: 990c b0be cf95 30c0 4766 013f 5ba3 4a3f
00000010: 12f1 f6be 51d8 1dc0 1dbe 5c3f 7a05 7c3f
00000020: 56f4 33be 9227 30c0 60a9 153f 5633 373f
00000030: b466 2ebe bc61 26c0 8951 383f 7d0e 313f
00000040: bb7f 06bf 1341 38c0 df8f d73e 0de0 7b3f
00000050: 34b5 9cbe 99fc 26c0 c4ef 1c3f 1e51 3a3f
00000060: a566 a4be e308 23c0 30fb 363f 6182 133f
00000070: b2cd 80be bc05 38c0 6708 023f 177d 563f

encoder.latent.backbone.c_layers.4.layer.kernel.kernel.P f4 [1, 8, 2, 2]
-0.0770385 -1.7478019 0.3797981 0.43183377 0.05256255 -1.676708 0.2229221 0.23426366
-0.29796934 -1.980673 0.46966425 0.57570684 -0.20701137 -1.7791452 0.3851449 0.44817948
0.038825545 -1.6408055 0.61794454 0.25739998 -0.19221963 -1.9036205 0.48154187 0.52961725
-0.4378975 -1.8413779 0.3780913 0.46556985 -0.09057189 -1.950128 0.57755536 0.37115905
00000000: 5cc6 9dbd f9b7 dfbf e674 c23e 5119 dd3e
00000010: d44b 573d 5e9e d6bf b145 643e d0e2 6f3e
00000020: 708f 98be b186 fdbf d577 f03e 8661 133f
00000030: cafa 53be 08bb e3bf b631 c53e c877 e53e
00000040: 8907 1f3d ea05 d2bf 9d31 1e3f eec9 833e
00000050: 39d5 44be d6a9 f3bf a88c f63e ff94 073f
00000060: 1a34 e0be 45b2 ebbf 2f95 c13e 2c5f ee3e
00000070: c17d b9bd cb9d f9bf abda 133f 8f08 be3e

encoder.latent.backbone.c_layers.4.layer.kernel.kernel.inv_w_real f4 [8, 2]
-0.81110007 -0.5823575 -0.8587262 -0.9957675 -0.6043644 -0.70507693 -0.608691 -0.75450844
-0.92464197 -0.97126573 -0.7170621 -0.5705908 -0.44287586 -0.7515968 -0.71476245 -0.8436863
00000000: 41a4 4fbf 6215 15bf 7bd5 5bbf 9eea 7ebf
00000010: a0b7 1abf ec7f 34bf 2cd3 1bbf 7727 41bf
00000020: 56b5 6cbf dfa4 78bf 6291 37bf 3d12 12bf
00000030: a0c0 e2be a668 40bf acfa 36bf d3fb 57bf

encoder.latent.backbone.c_layers.4.layer.kernel.kernel.w_imag f4 [8, 2]
-4.4779053 -0.4257458 -4.809402 -0.24331222 -4.492764 -0.732012 -4.5756783 -0.6629413
-4.5821033 -0.25245985 -4.638258 -0.5480171 -4.681479 -0.69387245 -4.6339755 -0.40415633
00000000: 004b 8fc0 5afb d9be 9fe6 99c0 d726 79be
00000010: b9c4 8fc0 2365 3bbf f56b 92c0 85b6 29bf
00000020: 97a0 92c0 6b42 81be 9c6c 94c0 d94a 0cbf
00000030: adce 95c0 a0a1 31bf 8749 94c0 94ed cebe

encoder.latent.backbone.c_layers.4.layer.output_linear.0.weight f4 [16, 8, 1]
-0.4993825 -0.21552122 -0.16571958 0.09089659 -0.21137385 0.30955887 -0.16450901 0.1254776
0.12825948 0.3051106 -0.23641936 0.32512873 0.025446963 -0.31113327 -0.1389108 -0.16857398
0.112411134 -0.45019847 0.39296183 -0.24237078 0.053267967 -0.18176143 -0.14858352 -0.40131444
0.3928267 -0.06626086 0.04098606 0.40987167 0.26609018 -0.03438217 -0.017671382 -0.1545947
0.35249987 0.138733 1.41740975e-05 0.043185137 -0.20123793 0.07645515 0.32915783 -0.26412177
0.27290112 -0.26613694 0.12421928 0.028987715 0.02774834 -0.20527941 0.09445162 0.16987513
-0.19178034 0.34488365 -0.17095631 -0.2970901 -0.32416648 -0.10454796 0.046325397 0.3625842
-0.054992143 -0.2866175 -0.17882386 0.24019574 -0.038244225 0.40983826 -0.2618716 0.16973528
0.2589448 0.08535305 -0.07522717 -0.23195931 0.41821235 -0.09221496 0.051793534 -0.40137157
0.18683329 -0.02404351 -0.20613116 -0.25261396 0.3786471 -0.046504516 -0.16065338 -0.32323965
0.24012968 -0.012233473 -0.40054837 -0.067086235 -0.20287152 0.22792526 0.23567218 0.09427021
0.15673763 0.51051825 -0.6164975 0.37840468 0.14715254 -0.14431123 -0.26398697 -0.16676469
0.3129723 -0.23661914 0.10376373 0.13454473 -0.13469227 -0.0162749 -0.07283355 0.12713082
-0.4807486 0.055054504 0.41516262 0.035955172 0.13037033 0.2793774 -0.17425056 0.4011
0.48562762 -0.10528153 0.44387832 0.3263865 -0.14233173 0.028157864 0.14327201 0.36302346
0.11609637 -0.17567301 -0.362497 0.15849541 -0.1879559 0.29043514 -0.46978742 0.2221008
00000000: 10af ffbe 98b1 5cbe 65b2 29be fe27 ba3d
00000010: 6372 58be 807e 9e3e 0d75 28be 337d 003e
00000020: 7456 033e 7537 9c3e eb17 72be 4677 a63e
00000030: 2676 d03c dc4c 9fbe a23e 0ebe a89e 2cbe
00000040: cf37 e63d 6a80 e6be 4b32 c93e 0c30 78be
00000050: 832f 5a3d ab1f 3abe 4726 18be 1679 cdbe
00000060: 9520 c93e c6b3 87bd 00e1 273d b3da d13e
00000070: f93c 883e 51d4 0cbd 93c3 90bc 134e 1ebe
00000080: dd7a b43e 0610 0e3e 49cd 6d37 e6e2 303d
00000090: 5111 4ebe 8594 9c3d 6087 a83e f83a 87be
000000a0: b2b9 8b3e 1a43 88be ae66 fe3d a577 ed3c
000000b0: 7d50 e33c c434 52be da6f c13d bff3 2d3e
000000c0: 1162 44be 9794 b03e 2c0f 2fbe 321c 98be
000000d0: 26f9 a5be 3e1d d6bd b3bf 3d3d a3a4 b93e
000000e0: 713f 61bd 87bf 92be 9a1d 37be dff5 753e
000000f0: faa5 1cbd 52d6 d13e 0914 86be 16cf 2d3e
00000100: 6a94 843e 94cd ae3d b410 9abd be86 6dbe
00000110: ee1f d63e 32db bcbd 7525 543d 9380 cdbe
00000120: 3a51 3f3e e5f6 c4bc 0c14 53be 9e56 81be
00000130: 08de c13e 857b 3ebd 5282 24be ab7f a5be
00000140: 8ee4 753e e86e 48bc ad14 cdbe 8264 89bd
00000150: 8dbd 4fbe 3d65 693e 0c54 713e bd10 c13d
00000160: d47f 203e 53b1 023f c8d2 1dbf 42be c13e
00000170: 28af 163e 53c6 13be 4d29 87be 5dc4 2abe
00000180: e83d a03e 4a4c 72be 1482 d43d 18c6 093e
00000190: c5ec 09be f052 85bc c229 95bd 952e 023e
000001a0: ae24 f6be d580 613d 3290 d43e bb45 133d
000001b0: cd7f 053e 8e0a 8f3e bd6e 32be fb5c cd3e
000001c0: 2fa4 f83e d89d d7bd 0544 e33e 221c a73e
000001d0: 69bf 11be 52ab e63c e6b5 123e 36de b93e
000001e0: efc3 ed3d a0e3 33be 3599 b9be 9f4c 223e
000001f0: 8377 40be eab3 943e fa87 f0be 646e 633e

encoder.latent.backbone.c_layers.4.layer.output_linear.0.bias f4 [16]
-0.082078345 0.19379267 0.098898016 -0.12800783 0.18028726 0.15084465 0.21460232 0.12706482
-0.31165847 0.24514762 -0.03372236 -0.006801163 -0.32573307 -0.093414396 0.17418991 -0.110684186
00000000: b118 a8bd 9671 463e 0b8b ca3d 7c14 03be
00000010: 399d 383e 0577 1a3e b6c0 5b3e 481d 023e
00000020: b391 9fbe fa07 7b3e 7520 0abd 4adc debb
00000030: 7cc6 a6be 0c50 bfbd d75e 323e 64ae e2bd

encoder.latent.backbone.c_layers.4.norm.weight f4 [8]
1.0589027 1.051856 1.1795698 1.0777024 1.1862098 0.97269833 0.773638 1.2751503
00000000: 208a 873f 38a3 863f 25fc 963f 27f2 893f
00000010: b9d5 973f c202 793f 240d 463f 2038 a33f

encoder.latent.backbone.c_layers.4.norm.bias f4 [8]
0.03172302 0.02411994 -0.17614917 -0.0020930823 -0.25520203 0.0029515487 0.14770424 0.015642239
00000000: ffef 013d 2e97 c53c 7360 34be 182c 09bb
00000010: d7a9 82be c56e 413b c83f 173e 2724 803c

encoder.latent.backbone.c_layers.5.layer.ff.0.0.weight f4 [16, 8]
-0.15021949 -0.23614074 0.42908174 -0.30437955 0.0024505132 -0.10741852 0.12719168 -0.22750537
-0.26267585 0.35809642 0.06859097 -0.4276543 0.09612863 0.086928375 -0.08371418 -0.13128705
0.18627584 0.1654983 -0.06542015 -0.2657816 0.00060428807 -0.0010498757 -0.16135268 0.26450235
-0.10285806 0.06940582 -0.36278704 0.42775238 -0.1571218 0.2674184 0.07459663 -0.35495937
0.31982538 0.016673194 -0.031349488 0.24019442 -0.10435588 0.08396118 -0.36874112 0.12251075
-0.14520146 -0.09369238 -0.21353962 0.25662297 -0.027363181 -0.115413666 -0.31503922 0.003382714
-0.43215004 0.23931907 -0.29612488 -0.15168987 0.23581329 0.15660849 -0.0369587 0.3929218
0.07572164 -0.23742175 0.23972847 0.25372618 -0.122794785 0.31436592 -0.18081495 -0.01541607
-0.15563814 -0.03848034 -0.17966028 0.18437886 -0.14181703 -0.23338312 -0.13775562 -0.33119467
0.0064744893 0.23528357 0.020398106 0.27249265 0.18357992 -0.15723419 0.22289404 -0.037330344
0.24692364 0.19954127 0.20008467 0.11056749 0.055997446 0.11885316 -0.0033032133 -0.20344046
-0.075968206 0.17667447 0.0026297688 0.19816503 -0.2375457 -0.21532966 -0.08067492 -0.23298046
-0.32773486 -0.12023304 0.09924837 -0.3346452 0.21603511 -0.08136814 0.1161334 0.4152134
0.29871327 0.10081966 -0.33646953 -0.21885885 0.24345134 0.020884177 0.088557646 0.25660193
-0.21234877 0.16664536 0.09698025 -0.15061809 0.10968952 -0.062459942 0.33148423 -0.15788814
0.28264868 0.13514397 -0.14192891 -0.024289994 0.32160825 0.13303953 0.07738615 0.14020674
00000000: 23d3 19be e1ce 71be 9ab0 db3e a3d7 9bbe
00000010: ca98 203b 3efe dbbd 893e 023e 2bf7 68be
00000020: 737d 86be 6a58 b73e 6c79 8c3d 81f5 dabe
00000030: 16df c43d 8107 b23d 5772 abbd 1d70 06be
00000040: 18bf 3e3e 6378 293e 00fb 85bd 8714 88be
00000050: 1669 1e3a fc9b 89ba a339 25be da6c 873e
00000060: 3fa7 d2bd a324 8e3d 39bf b9be 5c02 db3e
00000070: 8ae4 20be 11eb 883e 1ec6 983d 3cbd b5be
00000080: 27c0 a33e 3996 883c 5268 00bd 87f5 753e
00000090: 89b8 d5bd d7f3 ab3d a3cb bcbe ebe6 fa3d
000000a0: b1af 14be cae1 bfbd 21aa 5abe 1664 833e
000000b0: c028 e0bc 005e ecbd d24c a1be 86b0 5d3b
000000c0: c542 ddbe 0f10 753e ae9d 97be 9754 1bbe
000000d0: 0a79 713e fa5d 203e 0162 17bd 0c2d c93e
000000e0: f213 9b3d b01e 73be 617b 753e 66e8 813e
000000f0: d57b fbbd 92f4 a03e 8e27 39be af93 7cbc
00000100: 9b5f 1fbe 909d 1dbd ddf8 37be d0cd 3c3e
00000110: 7c38 11be fcfb 6ebe cf0f 0dbe 5992 a9be
00000120: f427 d43b 2dee 703e ee19 a73c 2884 8b3e
00000130: 60fc 3b3e 0002 21be 563e 643e b4e7 18bd
00000140: 8dd9 7c3e 8c54 4c3e ffe2 4c3e 3571 e23d
00000150: 945d 653d 4969 f33d b97a 58bb b252 50be
00000160: 3895 9bbd 27ea 343e 3358 2c3b c6eb 4a3e
00000170: 2e3f 73be 617f 5cbe e438 a5bd 6e92 6ebe
00000180: ddcc a7be bd3c f6bd bb42 cb3d 9e56 abbe
00000190: 4f38 5d3e 57a4 a6bd 59d7 ed3d da96 d43e
000001a0: f2f0 983e 8a7a ce3d bc45 acbe 891c 60be
000001b0: 4f4b 793e 4b15 ab3c b65d b53d 5461 833e
000001c0: f571 59be 15a5 2a3e 959d c63d a13b 1abe
000001d0: e6a4 e03d ffd5 7fbd 4db8 a93e 6ead 21be
000001e0: 54b7 903e 2e63 0a3e d055 11be cffb c6bc
000001f0: d6a9 a43e 843b 083e a17c 9e3d 5b92 0f3e

encoder.latent.backbone.c_layers.5.layer.ff.0.0.bias f4 [16, 1]
0.0154507905 -0.1881044 -0.27371946 0.09912552 0.30577394 0.02582268 0.0954849 -0.30573833
0.08711022 0.018990332 -0.14883159 -0.23761815 -0.011297007 -0.017120644 0.2403518 -0.24128102
00000000: 5025 7d3c 719e 40be f524 8cbe 5202 cb3d
00000010: 678e 9c3e 168a d33c 968d c33d bc89 9cbe
00000020: d866 b23d 9d91 9b3c 4f67 18be 2c52 73be
00000030: 1517 39bc 9840 8cbc c81e 763e 5f12 77be

encoder.latent.backbone.c_layers.5.layer.ff.2.weight f4 [8, 16]
0.06473433 -0.02560108 -0.20340061 -0.02734653 -0.18473482 -0.12991689 -0.06094683 0.042911798
-0.021114461 0.16860585 -0.138999 -0.10921806 -0.14346504 -0.18867993 0.053656552 -0.061809417
-0.12719658 0.054873995 -0.15015058 -0.21118255 -0.17203788 0.15533924 -0.18039529 0.20392649
-0.18029852 -0.060874764 0.1230398 0.010479958 0.22587861 -0.09047858 -0.0588242 0.07296842
-0.07590739 -0.023878908 -0.04364401 0.17067195 0.24229428 0.18539585 0.129996 -0.089001
0.11326146 -0.0709628 0.009536038 -0.030842876 -0.029546974 0.029626891 0.031384014 0.0066248113
0.14035879 0.09862551 -0.0044155545 -0.11401981 0.08726078 -0.16373378 0.18189037 -0.21950182
-0.04736113 -0.000467225 0.069024414 -0.19466646 0.1049123 0.06377409 0.055939063 -0.095694184
0.13054574 -0.13384715 0.08759934 -0.07440479 -0.1840738 -0.14858866 -0.21227674 -0.27430946
0.10668726 -0.18633044 0.18121485 0.042806044 -0.2533601 -0.18400303 -0.12685502 -0.23075214
-0.26471713 0.07843986 -0.18765819 -0.08115847 -0.20169161 -0.03478807 0.11100126 -0.022554772
-0.08378714 -0.017874938 0.017454924 0.159593 -0.26524606 0.14787453 -0.0014182215 -0.19234706
0.099930815 -0.2093645 -0.018014804 -0.02023079 0.1618367 0.17304304 -0.00093348976 -0.21652947
-0.16755563 -0.0746511 -0.057013977 0.060287368 0.03828274 -0.20323308 -0.21716943 -0.12506872
-0.3607915 0.14383878 0.13174056 0.106503196 0.22341579 0.051382817 -0.18883197 0.059320107
0.2036872 0.21299936 0.25379854 0.26964417 -0.2978054 0.12609035 0.10309022 0.06550478
00000000: 6f93 843d 5bb9 d1bc 4048 50be d505 e0bc
00000010: 202b 3dbe ef08 05be 62a3 79bd 48c4 2f3d
00000020: 3cf8 acbc 03a7 2c3e c155 0ebe b8ad dfbd
00000030: 80e8 12be 5035 41be f9c6 5b3d df2b 7dbd
00000040: d23f 02be 8ec3 603d 13c1 19be 3d40 58be
00000050: b32a 30be 4011 1f3e 8bb9 38be 1bd2 503e
00000060: 2da0 38be d157 79bd 4afc fb3d 21b4 2b3c
00000070: b94c 673e d54c b9bd a5f1 70bd 7870 953d
00000080: 5575 9bbd b39d c3bc 10c4 32bd a1c4 2e3e
00000090: fe1b 783e 69d8 3d3e ac1d 053e 2846 b6bd
000000a0: a0f5 e73d f254 91bd 0b3d 1c3c 33aa fcbc
000000b0: 7f0c f2bc 18b4 f23c 868c 003d f214 d93b
000000c0: 37ba 0f3e 2cfc c93d 5bb0 90bb 3883 e9bd
000000d0: c8b5 b23d d4a9 27be 7841 3a3e 16c5 60be
000000e0: bffd 41bd e1f5 f4b9 ac5c 8d3d a556 47be
000000f0: 43dc d63d fd9b 823d 5c20 653d 50fb c3bd
00000100: c8ad 053e 3a0f 09be 4867 b33d 8a61 98bd
00000110: d87d 3cbe a027 18be 135f 59be 4a72 8cbe
00000120: da7e da3d 68cd 3ebe 6390 393e 6455 2f3d
00000130: 6ab8 81be 4a6b 3cbe 48e6 01be 4a4a 6cbe
00000140: 0189 87be 14a5 a03d 7829 40be 6936 a6bd
00000150: 3f88 4ebe ef7d 0ebd a154 e33d c9c4 b8bc
00000160: 9898 abbd 766e 92bc a1fd 8e3c 596c 233e
00000170: 55ce 87be 6c6c 173e 9ee3 b9ba a1f6 44be
00000180: 87a8 cc3d a663 56be c893 93bc 0bbb a5bc
00000190: 85b8 253e 3232 313e 70b5 74ba e7b9 5dbe
000001a0: b493 2bbe ade2 98bd 7d87 69bd e3ef 763d
000001b0: 5dce 1c3d 551c 50be aa61 5ebe 0412 00be
000001c0: aab9 b8be 794a 133e ffe6 063e 591e da3d
000001d0: 1cc7 643e ca76 523d 2b5d 41be a4f9 723d
000001e0: 6193 503e 811c 5a3e e2f1 813e cd0e 8a3e
000001f0: f379 98be d41d 013e f720 d33d 5f27 863d

encoder.latent.backbone.c_layers.5.layer.ff.2.bias f4 [8, 1]
-0.018325377 -0.14590625 -0.1414879 -0.21774444 -0.13592458 0.12101114 0.226297 0.067677915
00000000: 1a1f 96bc 7368 15be 34e2 10be 66f8 5ebe
00000010: d02f 0bbe b0d4 f73d 67ba 673e b89a 8a3d

encoder.latent.backbone.c_layers.5.norm.weight f4 [8]
0.9768958 0.9498055 0.9465089 1.0090048 0.9866063 0.8862662 1.0085124 0.9595473
00000000: d815 7a3f 7426 733f 684e 723f 1227 813f
00000010: 3b92 7c3f 57e2 623f ef16 813f e4a4 753f

encoder.latent.backbone.c_layers.5.norm.bias f4 [8]
-0.0037859736 -0.06406034 -0.014552038 0.045094583 -0.010667004 0.08771553 0.013297714 0.0020126093
00000000: 191e 78bb 1132 83bd ac6b 6ebc 19b5 383d
00000010: a8c4 2ebc 33a4 b33d a8de 593c fbe5 033b

encoder.latent.backbone.c_layers.6.layer.D f4 [1, 8]
-1.5008199 -2.6224911 2.3588598 1.0755521 -0.19611481 0.8738919 0.6800727 -0.8414054
00000000: de1a c0bf e5d6 27c0 8ff7 1640 b1ab 893f
00000010: 52d2 48be 61b7 5f3f 3f19 2e3f 5866 57bf

encoder.latent.backbone.c_layers.6.layer.kernel.kernel.C f4 [1, 8, 2, 2]
-0.54835904 1.2688023 0.5098957 -0.650461 -0.88360107 0.47243825 -0.4342676 -1.6205202
0.4076074 -2.2160006 0.030509584 -0.073587775 -0.9270892 -0.17917088 0.41087636 -0.08299866
0.7153557 -0.38781357 1.4043834 0.0059552044 0.065806486 0.036949176 0.5526442 -0.28160828
-0.39259157 -0.89592075 0.17282125 -0.046678394 -0.7808449 0.013279597 0.13534448 -0.15896288
00000000: 4261 0cbf 1d68 a23f 8688 023f 9d84 26bf
00000010: ae33 62bf 6de3 f13e 5358 debe 356d cfbf
00000020: ebb1 d03e f4d2 0dc0 3cef f93c 30b5 96bd
00000030: b855 6dbf 9278 37be 635e d23e 34fb a9bd
00000040: 8d21 373f 808f c6be d6c2 b33f e023 c33b
00000050: 8dc5 863d 0558 173d 177a 0d3f f62e 90be
00000060: c301 c9be 105b 65bf 0ef8 303e d831 3fbd
00000070: 74e5 47bf ab92 593c be97 0a3e 2ac7 22be

encoder.latent.backbone.c_layers.6.layer.kernel.kernel.log_dt f4 [8]
-5.204054 -3.0330462 -4.998839 -6.239963 -5.9215827 -3.1898675 -4.102444 -6.708564
00000000: 9c87 a6c0 6e1d 42c0 7df6 9fc0 c7ad c7c0
00000010: 9b7d bdc0 ca26 4cc0 3947 83c0 8eac d6c0

encoder.latent.backbone.c_layers.6.layer.kernel.kernel.B f4 [1, 8, 2, 2]
-0.30320516 -2.7941754 0.82034266 0.9796404 -0.4794626 -2.877296 0.40737668 0.9304578
-0.21461971 -2.9684076 0.80421865 0.62471455 -0.543721 -2.7994907 0.84983045 0.9250005
-0.49232256 -2.6169066 0.6631473 0.75263435 -0.26622906 -2.5788832 0.6916786 0.70643556
-0.2525245 -2.6326754 0.77722424 0.7057079 -0.4813525 -2.8192992 0.4862094 0.7343324
00000000: b53d 9bbe c5d3 32c0 fa01 523f b7c9 7a3f
00000010: 1f7c f5be 9e25 38c0 ad93 d03e 7b32 6e3f
00000020: 45c5 5bbe 64fa 3dc0 46e1 4d3f 4bed 1f3f
00000030: 4d31 0bbf db2a 33c0 7d8e 593f d5cc 6c3f
00000040: b411 fcbe 667b 27c0 05c4 293f a5ac 403f
00000050: 2d4f 88be 6c0c 25c0 d911 313f f6d8 343f
00000060: e44a 81be c17d 28c0 2bf8 463f 46a9 343f
00000070: d673 f6be 666f 34c0 70f0 f83e 35fd 3b3f

encoder.latent.backbone.c_layers.6.layer.kernel.kernel.P f4 [1, 8, 2, 2]
0.037948288 -1.6737341 0.18104278 0.2343175 0.009471039 -1.6751751 0.6632495 0.2694076
-0.33412933 -1.6577082 0.32555115 0.81885916 0.022342231 -1.6442934 0.51333135 0.2890463
-0.16366671 -1.8485694 0.4171717 0.47040585 -0.21092792 -1.8840665 0.37545234 0.48290724
-0.22602338 -2.067818 0.44737083 0.52917564 -0.0069252644 -1.6909187 0.64093685 0.40899974
00000000: aa6f 1b3d eb3c d6bf 4763 393e edf0 6f3e
00000010: 6b2c 1b3c 236c d6bf b8ca 293f cbef 893e
00000020: 0013 abbe c82f d4bf a4ae a63e c1a0 513f
00000030: 0e07 b73c 3578 d2bf af69 033f e0fd 933e
00000040: 3f98 27be ec9d ecbf 8797 d53e 09d9 f03e
00000050: 7dfd 57be 1729 f1bf 4a3b c03e 9e3f f73e
00000060: ac72 67be 2157 04c0 ca0d e53e 0e78 073f
00000070: 54ed e2bb 0670 d8bf 7014 243f 6a68 d13e

encoder.latent.backbone.c_layers.6.layer.kernel.kernel.inv_w_real f4 [8, 2]
-0.84863925 -0.98386985 -0.8834156 -0.7504098 -0.79331326 -0.6984408 -0.9217728 -0.90196306
-0.7079137 -0.7360807 -0.51122373 -0.72949207 -0.51030034 -0.699668 -0.86859035 -0.5587837
00000000: 6c40 59bf e5de 7bbf 8627 62bf db1a 40bf
00000010: 9416 4bbf 04cd 32bf 4df9 6bbf 0de7 66bf
00000020: d539 35bf c96f 3cbf 8fdf 02bf febf 3abf
00000030: 0ba3 02bf 711d 33bf f05b 5ebf 730c 0fbf

encoder.latent.backbone.c_layers.6.layer.kernel.kernel.w_imag f4 [8, 2]
-4.449877 -0.25856796 -4.387359 -0.29750746 -4.3296585 -0.5640744 -4.5647144 -0.4386196
-4.642871 -0.5363471 -4.6392727 -0.61129004 -4.590132 -0.57605755 -4.411 -0.40213627
00000000: 6465 8ec0 0563 84be 3f65 8cc0 e652 98be
00000010: 908c 8ac0 2e67 10bf 2412 92c0 c092 e0be
00000020: 6692 94c0 0b4e 09bf ec74 94c0 817d 1cbf
00000030: 5de2 92c0 8278 13bf e926 8dc0 cee4 cdbe
