generative_ts/saves/250918_144816_LODE/model_LatentODE.pth (torch, 219138 bytes, 28 tensors)

encoder_z0.GRU_update.update_gate.0.weight f4 [100, 42]
-0.007104685 -0.08936113 -0.14278056 0.11183087 -0.062845 0.19037199 -0.05124565 -0.16563284
0.08679378 -0.0077980263 0.21855089 -0.020724162 -0.06505985 0.062422 0.011756696 0.19270115
0.08150034 0.20972593 0.12396788 0.12150842 0.27591968 0.18564497 -0.05518871 0.08216472
-0.03981504 0.25764173 -0.16826034 0.091184616 0.24600306 0.22990297 0.16650462 0.26650637
0.051755168 0.013365103 -0.07276794 0.045467246 -0.091865815 0.036485944 0.18968908 0.23775429
0.08036399 0.09555659 0.054248054 -0.13972463 0.010666038 0.09352915 0.0489557 -0.027149636
-0.03811682 -0.21357681 -0.06112963 -0.24718647 0.033270013 -0.07175202 -0.18300629 -0.052543245
0.008937581 -0.14172463 0.018220717 0.22592081 0.14868583 0.2828786 -0.083866216 0.09184338
0.09155318 -0.1203051 0.14335592 -0.03856109 -0.04545646 -0.041583147 0.07802101 -0.22290666
0.19299468 -0.015039441 0.13828833 -0.16040474 0.112186715 0.12556481 -0.11957724 0.031961158
-0.26002684 0.06786476 0.039255265 -0.11346334 0.1767944 -0.12327218 0.0706169 0.012601974
-0.16604908 0.28916815 -0.05412251 -0.12964633 0.0013312479 -0.13841482 0.033448312 -0.04269432
0.030182837 0.013176427 0.009494077 0.03431985 0.12013864 0.15100594 0.17687389 -0.0058625364
-0.045514483 0.029776607 0.08036441 0.016932694 -0.01647204 0.13323602 0.16620727 0.120661944
0.29241535 0.23740095 0.034628816 0.20498364 0.13849579 -0.02906274 -0.12755466 0.41749105
0.14824146 0.08662336 0.2260054 -0.015963795 0.19221671 -0.062340338 0.019244073 -0.0472528
-0.024436489 -0.06698885 0.2294536 0.06587194 0.024137026 0.17311935 -0.09415532 0.06533471
-0.044799075 0.240283 0.11745402 -0.18286817 -0.0795371 -0.18235594 -0.09511611 -0.09331783
-0.028709829 0.059711486 -0.10896549 -0.105117194 -0.09201981 -0.15148167 -0.27897462 0.018948171
0.11365113 -0.11387337 -0.16956161 -0.09721121 -0.19902186 -0.025210459 -0.2621696 -0.14760025
0.16194217 -0.18429245 -0.07426942 -0.1870741 0.016281096 -0.18908197 -0.0024535616 -0.21353903
-0.14226808 0.14736944 0.10435326 0.06167703 0.16027415 -0.11090104 0.011025717 -0.060842115
-0.10852395 0.12887242 -0.04027509 0.047083057 0.06562322 -0.11120638 -0.14594197 0.053635027
-0.17115632 -0.058049507 0.08463153 -0.10367567 -0.1552984 -0.19252537 -0.0058031697 -0.12203277
-0.32346815 -0.09051496 -0.007913399 -0.08236243 -0.05252984 -0.14640312 -0.03841593 -0.11179879
-0.0468975 -0.11348532 -0.25102437 0.0745107 0.05944917 -0.076946266 -0.28656903 0.069084845
-0.115286455 0.008642617 -0.1082432 -0.050498027 0.04527399 -0.17544058 0.24208671 0.035481416
0.15973715 0.18976271 0.039063662 0.15246518 0.00723056 0.06015764 -0.16521226 0.120351024
-0.09551859 0.07178979 -0.08394792 -0.12900001 -0.07834041 0.0006677662 -0.1576156 -0.13083862
-0.18954223 -0.22636773 0.10452271 -0.034882594 -0.15249169 -0.13695125 -0.16586737 0.008919536
-0.05684691 -0.2175025 -0.23023002 -0.112499714 -0.016505344 -0.20606346 -0.22272104 -0.22892699
-0.12115305 -0.21133974 -0.007739577 -0.0018479255 0.13701999 -0.05847825 -0.17130561 -0.051872913
00000000: 6bce e8bb f802 b7bd 1135 12be 9507 e53d
00000010: e1b4 80bd e0f0 423e f5e6 51bd a89b 29be
00000020: f0c0 b13d 9686 ffbb cecb 5f3e b8c5 a9bc
00000030: 193e 85bd 36ae 7f3d 289f 403c 7353 453e
00000040: a6e9 a63d 65c2 563e dfe2 fd3d 68d9 f83d
00000050: 5845 8d3e b719 3e3e 8f0d 62bd fa45 a83d
00000060: 1815 23bd 9ee9 833e 704c 2cbe 00bf ba3d
00000070: 3ae8 7b3e af6b 6b3e 3080 2a3e 8673 883e
00000080: 3afd 533d 4ef9 5a3c 5c07 95bd dd3b 3a3d
00000090: 2524 bcbd 4972 153d db3d 423e dc75 733e
000000a0: e095 a43d 2cb3 c33d 3533 5e3d f913 0fbe
000000b0: 9bc0 2e3c 368c bf3d c685 483d ea68 debc
000000c0: 6220 1cbd e1b3 5abe 1063 7abd 731e 7dbe
000000d0: 2346 083d b9f2 92bd 0066 3bbe 9637 57bd
000000e0: ef6e 123c 4320 11be 9d43 953c c957 673e
000000f0: 1941 183e 77d5 903e 0dc2 abbd 6218 bc3d
00000100: 3c80 bb3d 8562 f6bd e5cb 123e 3cf2 1dbd
00000110: 8e30 3abd 1753 2abd 7bc9 9f3d a541 64be
00000120: 66a0 453e fd67 76bc 759b 0d3e 2441 24be
00000130: 26c2 e53d 1094 003e e9e4 f4bd b4e9 023d
00000140: 3d22 85be aefc 8a3d 21ca 203d 785f e8bd
00000150: 9709 353e 2076 fcbd 989f 903d 8378 4e3c
00000160: c508 2abe d90d 943e 91af 5dbd 02c2 04be
00000170: 447d ae3a 9dbc 0dbe 1901 093d 3de0 2ebd
00000180: ff41 f73c f1e1 573c 0c8d 1b3c f992 0c3d
00000190: 3f0b f63d 4da1 1a3e 6e1e 353e 851a c0bb
000001a0: 656d 3abd 12ee f33c 1996 a43d 6fb6 8a3c
000001b0: 5ff0 86bc 066f 083e 3d32 2a3e 9c1d f73d
000001c0: 77b7 953e 3c19 733e f2d6 0d3d 3be7 513e
000001d0: d7d1 0d3e fc14 eebc b09d 02be 63c1 d53e
000001e0: 9ccc 173e 9767 b13d f66d 673e 81c6 82bc
000001f0: 75d4 443e 9558 7fbd bfa5 9d3c 278c 41bd
00000200: 082f c8bc 7331 89bd e2f5 6a3e dee7 863d
00000210: 03bb c53c 3346 313e 81d4 c0bd 34ce 853d
00000220: 3c7f 37bd bf0c 763e bc8b f03d cb41 3bbe
00000230: 59e4 a2bd 84bb 3abe 3ccc c2bd 6b1d bfbd
00000240: e030 ebbc 0894 743d 4c29 dfbd af47 d7bd
00000250: e274 bcbd 031e 1bbe c3d5 8ebe 3239 9b3c
00000260: ecc1 e83d 7136 e9bd 8fa1 2dbe ac16 c7bd
00000270: 63cc 4bbe 2a86 cebc 183b 86be 8524 17be
00000280: 2bd4 253e 29b7 3cbe 911a 98bd 5a90 3fbe
00000290: ef5f 853c b49e 41be efcb 20bb faa9 5abe
000002a0: b9ae 11be 04e8 163e 29b7 d53d 0ea1 7c3d
000002b0: e81e 243e 1620 e3bd 35a5 343c 9535 79bd
000002c0: ce41 debd 22f7 033e 7ef7 24bd 2ada 403d
000002d0: 7765 863d 2cc0 e3bd d071 15be 67b0 5b3d
000002e0: 9a43 2fbe 52c5 6dbd 4c53 ad3d e953 d4bd
000002f0: 8b06 1fbe 5f25 45be 8428 bebb 51ec f9bd
00000300: 9e9d a5be e85f b9bd 33a7 01bc a2ad a8bd
00000310: 8829 57bd b3ea 15be 065a 1dbd c4f6 e4bd
00000320: 9817 40bd fe6a e8bd 4486 80be 1199 983d
00000330: f980 733d 0196 9dbd 2db9 92be 5b7c 8d3d
00000340: 4e1b ecbd c399 0d3c 9cae ddbd 05d7 4ebd
00000350: 3871 393d b2a6 33be 94e5 773e f654 113d
00000360: 2392 233e 2851 423e 3801 203d d51f 1c3e
00000370: 55ee ec3b dc67 763d 672d 29be 997a f63d
00000380: 409f c3bd 8706 933d e3ec abbd 9418 04be
00000390: f070 a0bd 080d 2f3a fc65 21be 8ffa 05be
000003a0: 5c17 42be f1cc 67be 0110 d63d 0de1 0ebd
000003b0: c826 1cbe f33c 0cbe 23d9 29be 3f23 123c
000003c0: 4ed8 68bd fab8 5ebe 6bc1 6bbe 4066 e6bd
000003d0: 3736 87bc 4d02 53be fc10 64be d66b 6abe
000003e0: 171f f8bd 7269 58be 479c fdbb 1736 f2ba
000003f0: f84e 0c3e e486 6fbd bd6a 2fbe b178 54bd

encoder_z0.GRU_update.update_gate.0.bias f4 [100]
0.09411041 -3.2956563e-05 0.12156566 -0.09031556 -0.07413523 -0.11842887 0.10948488 0.08253809
-0.090913445 -0.12289822 0.10126728 -0.08823332 0.07844138 0.11686789 -0.025037127 -0.06390537
0.086960904 0.11786982 0.08866628 -0.040193595 -0.07340055 -0.011273373 -0.079456076 0.07775067
0.11730564 -0.06625779 -0.10126869 0.078933105 0.09370029 -0.06306147 0.09168198 0.033929024
0.118757755 -0.09446589 -0.10021463 0.064684205 0.06892582 -0.08123475 -0.094579674 0.07273534
-0.09420921 0.12775669 0.08847781 -0.09210262 -0.111161314 0.047330704 -0.08091672 0.11548735
-0.09148177 0.08792011 0.076265894 0.06395137 -0.10177146 0.083048 -0.025570756 -0.065696314
0.100154035 0.08290124 0.0117441565 -0.11231466 0.03740212 -0.08560217 0.072498545 -0.032491054
-0.085358985 0.09436268 0.085440546 0.060180556 0.10948237 -0.09076115 -0.066843495 -0.100024015
0.11938801 -0.040858418 -0.082036145 0.065881625 0.11347761 0.067424715 0.17751957 -0.119135156
0.10248287 0.083769664 -0.106408834 0.048594348 -0.06582748 -0.071141094 -0.11244485 0.05692353
-0.082351565 0.07833982 -0.07431455 0.12013544 -0.11989354 0.07583538 -0.13975523 0.07765781
-0.026221868 -0.047923546 -0.07404138 0.028604083
00000000: f5bc c03d d73a 0ab8 6bf7 f83d 5df7 b8bd
00000010: 36d4 97bd d68a f2bd 9c39 e03d bb09 a93d
00000020: d430 babd 10b2 fbbd 3865 cf3d acb3 b4bd
00000030: e0a5 a03d 6f58 ef3d a91a cdbc d2e0 82bd
00000040: 8f18 b23d bb65 f13d ab96 b53d 0aa2 24bd
00000050: 0753 96bd f4b3 38bc deb9 a2bd be3b 9f3d
00000060: f03d f03d 2ab2 87bd f565 cfbd aea7 a13d
00000070: f0e5 bf3d 5f26 81bd c3c3 bb3d 29f9 0a3d
00000080: 4437 f33d 5577 c1bd 543d cdbd 2779 843d
00000090: fb28 8d3d 685e a6bd fdb2 c1bd 44f6 943d
000000a0: c2f0 c0bd a6d2 023e db33 b53d 4ca0 bcbd
000000b0: 8ba8 e3bd d7dd 413d aab7 a5bd a284 ec3d
000000c0: cb5a bbbd 750f b43d 4b31 9c3d f0f8 823d
000000d0: 8e6d d0bd 1215 aa3d c379 d1bc ca8b 86bd
000000e0: 8f1d cd3d 20c8 a93d 906a 403c 3a05 e6bd
000000f0: f732 193d 3150 afbd 1e7a 943d 5715 05bd
00000100: b1d0 aebd 3941 c13d 74fb ae3d e37f 763d
00000110: 4b38 e03d fbe0 b9bd 3ee5 88bd 64d9 ccbd
00000120: b381 f43d 285b 27bd 9102 a8bd f2ec 863d
00000130: f366 e83d f815 8a3d b1c7 353e 22fd f3bd
00000140: 8ae2 d13d 6e8f ab3d e0ec d9bd de0a 473d
00000150: 8fd0 86bd 6cb2 91bd 7c49 e6bd a628 693d
00000160: f0a7 a8bd a170 a03d 3a32 98bd 9209 f63d
00000170: bf8a f5bd 944f 9b3d ff1b 0fbe 0f0b 9f3d
00000180: 3ecf d6bc 7b4b 44bd 02a3 97bd 1c53 ea3c

encoder_z0.GRU_update.update_gate.2.weight f4 [20, 100]
0.018919393 -0.22070992 0.07686083 -0.012021569 -0.12174217 -0.31866914 0.07584754 0.039480712
-0.104950175 -0.17846578 0.15733567 -0.03955393 0.15780027 0.0976193 0.22125238 -0.04175184
0.14771079 0.04364917 -0.00892937 0.06631138 -0.036142804 -0.03090279 -0.18694226 0.17862882
-0.05380347 -0.067497544 -0.09208275 -0.031740576 0.28089693 -0.08845231 0.20452805 -0.06136486
0.06614873 -0.074725606 -0.026940014 0.116953135 0.08837755 0.020369774 -0.057889927 0.07197192
-0.2089142 0.03498265 0.030495502 -0.0113554 -0.052166816 0.1239078 -0.16964713 0.31856185
-0.1907409 -0.03847932 0.08015292 0.11497576 -0.14188011 0.14444008 0.09165074 -0.09966728
0.08590733 0.058581054 0.012859005 -0.09379058 0.15918505 0.14513578 0.20317219 -0.04840246
0.0042459466 0.18094729 0.34616238 -0.105025135 0.12403847 -0.15145652 -0.14861372 -0.15467422
0.059071954 0.04978163 -0.07701704 0.084789276 0.055188257 0.24507357 0.08289418 -0.281911
0.34748146 0.13884553 -0.01073196 -0.031130066 -0.12751396 -0.1423663 -0.18104573 0.36092708
-0.036661733 0.2963588 -0.041022435 -0.018575037 -0.005210785 0.16663165 -0.22282211 0.0837402
-0.14092241 0.008182574 -0.11021265 -0.052667674 -0.03289648 -0.04217341 0.06457824 0.10460445
-0.01925241 -0.07938257 -0.023099072 -0.06096945 -0.22411314 -0.07944958 0.23074871 -0.046300773
0.020745 0.10015433 0.01916556 0.046076503 0.18457818 0.018944044 0.022489956 0.055182077
-0.28525025 0.09451103 0.082793824 0.18166688 -0.08520615 -0.1543995 0.019795805 -0.012139208
-0.0317291 0.044895973 0.051791485 0.11379807 0.06623654 -0.094061755 -0.054790203 -0.011678374
0.015566834 -0.16135286 0.019262673 0.09815319 0.05261749 0.21514277 -0.060826235 0.09672707
0.07074372 0.009101337 -0.24870342 0.20685 -0.08408089 -0.019962424 -0.06929437 0.075854704
-0.067183964 0.12765637 0.033833865 0.015442794 0.0032516504 0.08342887 0.1191202 -0.021688843
0.0076576793 -0.15051973 0.07295633 -0.05931949 -0.010807696 0.16923122 0.17981496 -0.15763111
0.18359047 -0.17253344 0.059553776 0.037037376 0.06681379 -0.13502793 -0.16021277 0.2510733
0.13255714 0.072488986 0.07590155 -0.09366521 0.15516455 0.18166293 -0.06760943 0.010395318
-0.035327904 -0.03509383 -0.0064243386 0.061608974 -0.053331982 0.2805933 0.0362163 0.105212644
-0.08582036 -0.054205902 -0.13862117 -0.1390492 -0.031362392 0.04093373 0.094487034 -0.067794256
0.09020065 0.116557084 0.0069684763 0.052157734 -0.04465658 -0.056359142 0.07702557 -0.026821896
-0.16852206 0.0026585213 0.17633004 -0.10777882 0.11344109 0.10111173 0.038145643 -0.08194355
0.13092512 0.18527365 0.2719484 0.09847855 0.032635834 0.33916005 0.04914221 -0.055840526
0.18661608 -0.18581073 0.10613954 0.11938217 0.33794084 -0.19511697 0.11018246 0.090975724
0.16459848 -0.004006118 -0.05817523 0.088313445 0.056674425 0.010511992 -0.023897631 0.08601342
-0.089582585 0.1546213 0.030955922 -0.08504101 -0.21906368 0.091955386 -0.0991767 0.10112109
-0.12833664 0.059100207 -0.08421558 0.04345973 -0.1971425 0.17186844 0.0077189794 -0.2055106
00000000: d8fc 9a3c c801 62be 3669 9d3d 1df6 44bc
00000010: f553 f9bd 9a28 a3be f455 9b3d 87b6 213d
00000020: 1ef0 d6bd bcbf 36be 9a1c 213e 4d03 22bd
00000030: 6596 213e a1ec c73d fc8f 623e fa03 2bbd
00000040: 7f41 173e 79c9 323d 7e4c 12bc 43ce 873d
00000050: 7a0a 14bd d927 fdbc cb6d 3fbe 79ea 363e
00000060: 0761 5cbd 273c 8abd e195 bcbd 6802 02bd
00000070: b9d1 8f3e 7c26 b5bd cd6f 513e b859 7bbd
00000080: fc78 873d bd09 99bd 4eb1 dcbc 2085 ef3d
00000090: 4aff b43d 83de a63c fd1d 6dbd 0466 933d
000000a0: 9bed 55be f849 0f3d b4d1 f93c 000c 3abc
000000b0: dfac 55bd 5fc3 fd3d fab7 2dbe 8a1a a33e
000000c0: 9551 43be 7e9c 1dbd 3727 a43d 6978 eb3d
000000d0: 0549 11be 1ae8 133e 62b3 bb3d 5c1e ccbd
000000e0: 2ff0 af3d b0f2 6f3d 93ae 523c 4715 c0bd
000000f0: 6801 233e 799e 143e 5f0c 503e a841 46bd
00000100: 9521 8b3b 3f4a 393e 323c b13e 6b17 d7bd
00000110: e207 fe3d 6b17 1bbe 322e 18be eb62 1ebe
00000120: 6ff5 713d d3e7 4b3d 1cbb 9dbd 00a6 ad3d
00000130: 150d 623d 91f4 7a3e 6dc4 a93d a356 90be
00000140: 17e9 b13e 862d 0e3e 1ad5 2fbc 7b04 ffbc
00000150: 0593 02be 79c8 11be 0d64 39be 6fcb b83e
00000160: 9d2a 16bd 57bc 973e 2407 28bd ad2a 98bc
00000170: 3cbf aabb 7da1 2a3e 7b2b 64be fb7f ab3d
00000180: f74d 10be 3410 063c 2bb7 e1bd 0fba 57bd
00000190: 76be 06bd 07be 2cbd 9941 843d dc3a d63d
000001a0: 3bb7 9dbc 5493 a2bd 443a bdbc 1abb 79bd
000001b0: ea7d 65be 76b6 a2bd 6449 6c3e e1a5 3dbd
000001c0: 6bf1 a93c b71d cd3d 1801 9d3c b7ba 3c3d
000001d0: 1002 3d3e 8a30 9b3c db3c b83c 9a06 623d
000001e0: 520c 92be 008f c13d cf8f a93d e206 3a3e
000001f0: 9080 aebd e71a 1ebe d02a a23c 87e3 46bc
00000200: 5ff6 01bd d7e4 373d 4f23 543d f60e e93d
00000210: 06a7 873d 73a3 c0bd b16b 60bd a756 3fbc
00000220: 090c 7f3c af39 25be c1cc 9d3c 8a04 c93d
00000230: 7085 573d 634e 5c3e ee24 79bd d818 c63d
00000240: 15e2 903d c61d 153c 1cac 7ebe 7dd0 533e
00000250: 9a32 acbd 3d88 a3bc 35ea 8dbd b659 9b3d
00000260: bf97 89bd 5ab8 023e 6195 0a3d c603 7d3c
00000270: a419 553b c1dc aa3d 4bf5 f33d cdac b1bc
00000280: 45ed fa3b d821 1abe 216a 953d fef8 72bd
00000290: c312 31bc f34a 2d3e 6a21 383e 0d6a 21be
000002a0: 24ff 3b3e 9bac 30be a9ee 733d 81b4 173d
000002b0: abd5 883d c344 0abe d10e 24be ae8c 803e
000002c0: 0fbd 073e 1b75 943d 4672 9b3d 8cd3 bfbd
000002d0: 75e3 1e3e d905 3a3e d076 8abd 2051 2a3c
000002e0: feb3 10bd 8cbe 0fbd 4283 d2bb b159 7c3d
000002f0: a372 5abd eda9 8f3e 8b57 143d ba79 d73d
00000300: 96c2 afbd 0207 5ebd b5f2 0dbe ea62 0ebe
00000310: da75 00bd 20aa 273d 6b82 c13d b7d7 8abd
00000320: 1ebb b83d 7bb5 ee3d d157 e43b 59a3 553d
00000330: d1e9 36bd d8d8 66bd 95bf 9d3d 98b9 dbbc
00000340: 0c91 2cbe 963a 2e3b dd8f 343e 24bb dcbd
00000350: cd53 e83d ab13 cf3d 9b3e 1c3d 05d2 a7bd
00000360: 3c11 063e 60b8 3d3e d23c 8b3e 1faf c93d
00000370: 27ad 053d 63a6 ad3e 5849 493d 09b9 64bd
00000380: 4918 3f3e 2b45 3ebe b05f d93d a47e f43d
00000390: 9506 ad3e becc 47be 57a7 e13d 7b51 ba3d
000003a0: 818c 283e c145 83bb 2649 6ebd aedd b43d
000003b0: 7123 683d 7d3a 2c3c f7c4 c3bc ce27 b03d
000003c0: 1377 b7bd 0c55 1e3e 4697 fd3c fb29 aebd
000003d0: 3b52 60be 1b53 bc3d 271d cbbd 9318 cf3d
000003e0: ae6a 03be 0f13 723d 3879 acbd d402 323d
000003f0: b9df 49be 48fe 2f3e 7eef fc3b 5f71 52be

encoder_z0.GRU_update.update_gate.2.bias f4 [20]
0.08933973 0.08917269 0.10123445 0.06660514 0.10568077 0.12135299 0.039631598 0.07426872
0.07864104 0.08955701 0.08618008 0.096717246 0.10535341 0.12562907 0.06912491 0.07937037
0.08829975 0.07115706 0.052039165 0.07862055
00000000: c0f7 b63d 2ca0 b63d 0254 cf3d 4768 883d
00000010: 296f d83d eb87 f83d be54 223d 331a 983d
00000020: 8e0e a13d aa69 b73d 2f7f b03d b113 c63d
00000030: 87c3 d73d e8a4 003e 5c91 8d3d ef8c a23d
00000040: 80d6 b43d cbba 913d 0527 553d d003 a13d

encoder_z0.GRU_update.reset_gate.0.weight f4 [100, 42]
-0.052102584 -0.084111735 -0.10955969 0.08311815 -0.04046378 0.07738127 -0.02896145 0.0065440754
0.15496694 -0.054139964 0.08231732 0.07376599 -0.04763649 -0.14669982 0.10524459 -0.029354414
0.08771057 0.21113828 0.062325764 -0.022519788 -0.08679052 -0.06697012 -0.08796232 0.08318684
0.16457568 0.07053368 -0.028171463 -0.04010367 -0.08332874 0.18808393 0.080331996 0.2543786
0.09319961 0.18807887 -0.0481157 0.10180596 0.04288109 0.020896379 0.022603828 0.04316943
0.17773974 0.04826914 -0.10689924 -0.10250641 -0.07125597 -0.19172406 0.022590706 -0.27301133
-0.14488202 0.12601985 0.008385887 -0.1516507 -0.22379223 -0.09061836 0.1699543 -0.012898288
-0.0004024463 -0.010942335 -0.024937132 0.087875634 -0.01798297 -0.07388469 -0.034046844 -0.19820303
0.18879145 0.051985417 -0.053080853 -0.14243686 0.023422785 -0.057158634 0.19783726 0.06604465
0.02201453 -0.026468586 0.01987182 -0.12702031 -0.008337771 0.23271708 0.08142861 0.099192314
-0.06636911 0.05376143 0.034958165 0.05501027 0.1354953 0.25605106 -0.0059652533 -0.03136884
-0.15242958 -0.016463002 -0.16620508 -0.0292122 0.044289533 -0.14292488 0.10640834 -0.038884252
0.029483056 -0.090462014 -0.09862031 -0.09706739 -0.07797193 0.054067172 0.01799326 0.026615405
0.0092687765 -0.023332901 0.07930223 -0.044002313 0.016091496 -0.047649313 -0.047384843 -0.14054385
-0.070456415 0.008919688 0.12380488 -0.020304982 0.08792846 0.10481867 -0.11974091 0.10459752
-0.016073974 0.08760644 0.048728272 0.04193201 -0.0994965 -0.0729276 0.20276697 0.05974579
0.05285275 -0.1594138 0.012518949 0.06824238 0.047895387 0.12126577 -0.06266744 -0.19268937
0.18107654 -0.05004016 0.027025977 0.12234933 -0.02277991 -0.15031935 0.029301373 -0.018764582
0.010959795 0.083194435 0.05079969 -0.035923105 0.18847738 0.04576484 -0.093669504 0.12957348
-0.15582496 -0.14408794 -0.008191888 0.06978266 0.026743773 -0.055546306 0.07424226 0.25415388
0.032050334 -0.08119218 -0.11848767 -0.056765977 0.069011435 0.172374 -0.010586346 0.13680542
0.038126584 0.010727056 -0.1313529 -0.004438282 0.10886676 -0.03593218 -0.0054605915 -0.1757268
-0.046121217 0.15415455 -0.014122386 -0.11154308 -0.05441222 0.14040223 -0.007263637 0.030689156
-0.07277751 -0.07739229 -0.030107731 0.0029372063 0.030982465 0.06918116 -0.033839066 0.15442127
0.102813035 0.21333212 -0.047741886 -0.021991488 -0.009772202 0.081485145 -0.15692888 0.08649195
-0.06837789 0.048547678 0.007038004 0.057252735 0.23029728 -0.07437202 0.16205174 -0.15306607
-0.02243847 0.07631416 0.053266674 -0.05245808 -0.17106453 -0.06593176 0.1025048 -0.11757848
-0.022255007 0.101914816 0.08202971 0.1033105 0.11169024 -0.039598815 -0.03384891 0.018063655
-0.025072034 -0.14491767 0.021811882 -0.008774264 -0.08132912 -0.22500698 -0.018879693 0.04005679
0.054804966 0.032025337 -0.07656016 0.06480489 0.14846282 0.043436576 -0.026365986 -0.060182214
-0.07936013 0.07861856 0.07487014 0.109052844 -0.04744814 0.024959672 -0.07966674 0.042177852
0.211447 0.1702092 -0.008897205 -0.021583857 0.10008092 -0.0051799966 -0.021141179 -0.13246189
00000000: 8569 55bd c642 acbd d560 e0bd d939 aa3d
00000010: 59bd 25bd 127a 9e3d 9040 edbc af6f d63b
00000020: a7af 1e3e dec1 5dbd fc95 a83d a012 973d
00000030: 7b1e 43bd 7a38 16be 7a8a d73d ab78 f0bc
00000040: 99a1 b33d a234 583e 4d49 7f3d 6b7b b8bc
00000050: 3abf b1bd a127 89bd 9725 b4bd dd5d aa3d
00000060: 8786 283e f673 903d d7c7 e6bc bf43 24bd
00000070: 42a8 aabd 1399 403e 1a85 a43d e93d 823e
00000080: 70df be3d bf97 403e f814 45bd a57f d03d
00000090: 15a4 2f3d e22e ab3c aa2b b93c 6ed2 303d
000000a0: 6801 363e ddb5 453d fded dabd e1ee d1bd
000000b0: a6ee 91bd 5053 44be 2510 b93c 24c8 8bbe
000000c0: f45b 14be 590b 013e f664 093c 524a 1bbe
000000d0: ca29 65be 1e96 b9bd 8008 2e3e 5753 53bc
000000e0: 6eff d2b9 7b47 33bc f548 ccbc 24f8 b33d
000000f0: 0651 93bc db50 97bd b474 0bbd bcf5 4abe
00000100: 8c52 413e a9ee 543d 4f6b 59bd f8da 11be
00000110: 24e1 bf3c 2c1f 6abd da95 4a3e 6b42 873d
00000120: d157 b43c a6d4 d8bc 3aca a23c 9d11 02be
00000130: 259b 08bc 634d 6e3e 0bc4 a63d 5725 cb3d
00000140: 87ec 87bd f234 5c3d 4b30 0f3d 7352 613d
00000150: 48bf 0a3e 2019 833e 2c78 c3bb 9d7c 00bd
00000160: 8016 1cbe 6bdd 86bc aa31 2abe 6c4e efbc
00000170: f168 353d e65a 12be 9eec d93d 1845 1fbd
00000180: 7386 f13c 2644 b9bd 72f9 c9bd 45cb c6bd
00000190: bfaf 9fbd 8a75 5d3d 9a66 933c 8d08 da3c
000001a0: 11dc 173c a424 bfbc 3569 a23d c53b 34bd
000001b0: 50d2 833c ed2b 43bd 9c16 42bd baea 0fbe
000001c0: 744b 90bd e223 123c 6a8d fd3d a256 a6bc
000001d0: d613 b43d 2cab d63d b93a f5bd 3937 d63d
000001e0: 91ad 83bc 016b b33d 4c97 473d e6c0 2b3d
000001f0: d2c4 cbbd 115b 95bd 25a2 4f3e 00b8 743d
00000200: 207c 583d 5f3d 23be 471c 4d3c a9c2 8b3d
00000210: f42d 443d 305a f83d c957 80bd 5d50 45be
00000220: 216c 393e e9f6 4cbd 9565 dd3c 4992 fa3d
00000230: ef9c babc 51ed 19be 6f09 f03c 2eb8 99bc
00000240: b690 333c d861 aa3d 5613 503d 1b24 13bd
00000250: 3700 413e ea73 3b3d ccd5 bfbd e9ae 043e
00000260: 9490 1fbe ca8b 13be 4537 06bc 36ea 8e3d
00000270: c215 db3c 8684 63bd 530c 983d 7520 823e
00000280: 3647 033d 1648 a6bd aaa9 f2bd 7183 68bd
00000290: de55 8d3d cf82 303e 5a72 2dbc b816 0c3e
000002a0: 9f2a 1c3d 89c0 2f3c 6081 06be 026f 91bb
000002b0: 89f5 de3d 9f2d 13bd c3ee b2bb baf1 33be
000002c0: 9ae9 3cbd b1da 1d3e 9561 67bc b370 e4bd
000002d0: 59df 5ebd 9ac5 0f3e ce03 eebb d367 fb3c
000002e0: 600c 95bd d97f 9ebd 7da4 f6bc 257e 403b
000002f0: f0ce fd3c daae 8d3d d59a 0abd 9c20 1e3e
00000300: a48f d23d bc73 5a3e ff8c 43bd 7e27 b4bc
00000310: 961b 20bc afe1 a63d f7b1 20be b122 b13d
00000320: b509 8cbd eed9 463d 0f9f e63b d881 6a3d
00000330: 0dd3 6b3e 5c50 98bd e4f0 253e 5abd 1cbe
00000340: e2d0 b7bc 994a 9c3d 282e 5a3d 49de 56bd
00000350: 8a2b 2fbe 3b07 87bd 09ee d13d fccc f0bd
00000360: 2250 b6bc b7b8 d03d 31ff a73d 7594 d33d
00000370: dabd e43d 5e32 22bd 28a5 0abd 3bfa 933c
00000380: de63 cdbc 4c65 14be d5ae b23c eec1 0fbc
00000390: e28f a6bd 3b68 66be 96a9 9abc 9712 243d
000003a0: 2c7b 603d 002d 033d 93cb 9cbd 6db8 843d
000003b0: a306 183e 8dea 313d 7bfd d7bc a081 76bd
000003c0: 9087 a2bd c502 a13d 8455 993d 1957 df3d
000003d0: fb58 42bd 3a78 cc3c 5128 a3bd afc2 2c3d
000003e0: 9085 583e 524b 2e3e 95c5 11bc a1d0 b0bc
000003f0: 3af7 cc3d f6bc a9bb 4430 adbc 17a4 07be

encoder_z0.GRU_update.reset_gate.0.bias f4 [100]
0.05770092 -0.030167805 0.042276207 0.02748523 0.02567675 0.027006915 -0.0029886547 0.034729272
0.011423113 -0.02102808 -0.023031412 0.03401123 0.03921077 -0.012602036 -0.015203222 -0.043554094
-0.004051039 -0.04651499 -0.0206888 0.0031780144 -0.0796572 -0.018575223 -0.016668929 -0.008411649
0.025697136 0.035879802 -0.02632962 0.006164469 0.036507457 -0.012618547 0.025099613 -0.0033824774
0.02909308 -0.005340297 -0.042755198 0.063048296 0.045994245 -0.030780084 0.028247656 -0.01690486
0.031865366 0.011412604 0.000798234 -0.035466284 0.04060264 -0.0035092419 -0.023561392 0.011978747
-0.020194214 0.05608756 -0.029431067 0.02044511 0.020815978 -0.0088280095 -0.056186587 0.0040476937
0.04028384 0.053063616 -0.029243333 0.010551112 -0.008361971 0.040978592 -0.034805797 -0.04453939
0.001526794 -0.009225629 0.034004975 0.0004904751 -0.031381797 -0.010824736 -0.00011982271 -0.0227471
-0.04462122 -0.018715346 -0.054396845 -0.015182499 -0.0021383201 0.02130093 0.0028077054 0.018114977
0.0004974844 0.029648798 -0.04404408 0.004503781 -0.026262019 -0.041959036 -0.044144068 -0.04951094
0.010450833 -0.027192052 -0.022916632 -0.021440929 0.04303251 0.021944012 -0.02782614 0.016922172
0.013984102 0.007740354 0.0027076858 0.04215974
00000000: cd57 6c3d 7922 f7bc d129 2d3d b428 e13c
00000010: 0c58 d23c 9b3d dd3c 4edd 43bb 4840 0e3d
00000020: 0228 3b3c 1443 acbc 5fac bcbc 5c4f 0b3d
00000030: 799b 203d c578 4ebc ef16 79bc c765 32bd
00000040: 94be 84bb 8186 3ebd 8f7b a9bc 3c46 503b
00000050: 5023 a3bd 112b 98bc 478d 88bc 03d1 09bc
00000060: cd82 d23c b3f6 123d 37b1 d7bc 50ff c93b
00000070: d888 153d 06be 4ebc b49d cd3c 8eac 5dbb
00000080: 9c54 ee3c a8fd aebb 1320 2fbd 771f 813d
00000090: 7664 3c3d 8426 fcbc a167 e73c 107c 8abc
000000a0: 4285 023d eefb 3a3c 9440 513a 1845 11bd
000000b0: f44e 263d 4ffb 65bb d203 c1bc 8242 443c
000000c0: 566e a5bc 12bc 653d 6c19 f1bc 817c a73c
000000d0: 4586 aa3c 5ba3 10bc e823 66bd 84a2 843b
000000e0: ab00 253d 3c59 593d b78f efbc 92de 2c3c
000000f0: a600 09bc 2bd9 273d 8690 0ebd ef6e 36bd
00000100: b51e c83a 1827 17bc cd48 0b3d 3a93 003a
00000110: 338a 00bd 3c5a 31bc 5449 fbb8 2058 babc
00000120: bec4 36bd ed50 99bc 3acf 5ebd 04c0 78bc
00000130: 0f23 0cbb 4a7f ae3c 7b01 383b dc65 943c
00000140: 9d69 023a 09e2 f23c 9167 34bd 7494 933b
00000150: 7223 d7bc 3ddd 2bbd 69d0 34bd fccb 4abd
00000160: f839 2b3c dec1 debc a9bb bbbc e3a4 afbc
00000170: db42 303d eec3 b33c a5f3 e3bc 5ea0 8a3c
00000180: 931d 653c cca2 fd3b 6e73 313b b1af 2c3d

encoder_z0.GRU_update.reset_gate.2.weight f4 [20, 100]
-0.001830897 0.19480014 -0.033520553 -0.16938499 0.02248949 0.018316932 0.04016813 -0.1132182
0.012473004 0.11309108 0.018080102 0.080373935 -0.030433329 -0.033949476 0.19285217 0.03319977
-0.14085454 -0.037522435 0.0876703 0.0053642797 -0.029058056 0.0337681 -0.00062228873 -0.10490813
-0.023134533 0.14684401 0.15563263 0.00070002634 -0.18384753 0.002901518 0.11983608 0.018025814
0.06704676 -0.022210447 -0.063114636 -0.15781552 -0.15407439 0.1576014 -0.06302822 -0.01840274
0.0714342 -0.06129906 -0.024885988 0.0054638013 -0.2543956 -0.049488053 -0.1239542 -0.06594638
-0.09538722 -0.01995818 0.05467612 -0.040053036 0.01035118 0.04684833 0.12074468 0.19106035
-0.004605587 0.051417798 0.09349624 -0.09432589 -0.15733653 0.19423994 0.0060350113 -0.07452525
0.051670633 -0.08271427 0.06840785 0.08104687 0.12694347 -0.050728504 0.13173027 -0.26758027
-0.10519851 0.18079856 -0.23324889 0.060969897 0.08080127 -0.09087908 0.057062488 -0.043386925
-0.015758561 -0.193346 0.1547795 -0.13381784 0.02846949 -0.07922958 -0.11956316 -0.12757728
0.20939104 -0.27184337 -0.06975975 -0.16055353 -0.034462307 -0.014797053 0.061584957 0.19523442
-0.019934567 -0.16650552 -0.16606817 0.19166015 0.21758391 0.0025248681 0.075715296 0.21860456
-0.0470346 -0.041647002 -0.1669713 -0.12801574 -0.043870028 -0.15949781 0.0023207504 0.03888932
-0.07537457 -0.11042614 -0.05171876 0.09948313 -0.08758735 0.01504774 -0.09689827 -0.05776908
-0.07000633 -0.011890692 -0.15802173 0.0064853607 0.062351137 0.016891036 -0.23928328 -0.31239784
0.0391024 -0.009323409 -0.01249741 0.114353664 0.19036262 -0.10693283 0.11349555 0.024358984
0.22553392 0.026893431 0.1024874 0.100286074 -0.075621806 0.075716674 0.17272457 -0.18451329
0.073870726 -0.017741006 0.01048541 0.10576539 -0.15142083 -0.027531577 0.056403752 -0.0875525
0.10520146 -0.08807745 -0.15441404 -0.030337034 0.0045848447 0.018006561 -0.026356533 -0.30430394
-0.17571846 -0.029706992 -0.19086576 -0.009932384 -0.10036955 -0.15179217 -0.048655927 0.06597476
0.14398524 0.05256137 0.059429515 0.04015898 0.023653131 -0.04203835 -0.019932473 -0.1798085
0.058659513 0.032893334 0.01046262 -0.011620193 0.17963289 -0.019360874 -0.19334392 0.08094178
0.011182514 -0.11173265 -0.1605483 0.0027157199 -0.057125974 0.064607956 -0.098466925 -0.13002402
0.13441241 -0.07631343 -0.038492482 0.11440784 0.03994435 0.24609947 0.113592006 -0.12249061
-0.06998177 -0.20499034 -0.008892228 -0.07492818 -0.15294588 -0.047337815 -0.04801979 -0.079576135
-0.19293796 0.14731103 -0.04453966 -0.08899216 0.03756501 -0.0070935925 -0.022036308 0.014334579
0.025040735 -0.025156137 -0.11943426 -0.17205216 -0.08212795 -0.053823803 -0.2020368 0.068575524
0.22075514 -0.070375666 -0.0953106 -0.19201401 -0.010756574 0.086466506 0.0067234733 0.09531081
-0.1626513 0.10645969 -0.0050531477 0.05436184 -0.09621346 0.11109657 -0.09300723 -0.054240767
-0.058793284 -0.26994258 -0.052535478 -0.053340394 -0.1269893 -0.03976084 0.11268929 -0.058472976
0.063990444 0.08207413 -0.022009261 -0.007696255 -0.090318985 -0.000696162 0.18067034 0.11883681
00000000: b5fa efba b079 473e d94c 09bd 4273 2dbe
00000010: e13b b83c 640d 963c 5687 243d f2de e7bd
00000020: 925b 4c3c 4c9c e73d b91c 943c 179b a43d
00000030: 514f f9bc 9b0e 0bbd 0a7b 453e 7bfc 073d
00000040: 2c3c 10be 20b1 19bd 7c8c b33d d7c6 af3b
00000050: 290b eebc 6b50 0a3d 1721 23ba 13da d6bd
00000060: a284 bdbc 475e 163e 295e 1f3e f981 373a
00000070: 8742 3cbe 6527 3e3b 9e6c f53d dfaa 933c
00000080: d04f 893d aff2 b5bc 3f42 81bd 649a 21be
00000090: adc5 1dbe 4362 213e f014 81bd 58c1 96bc
000000a0: 184c 923d b914 7bbd b3dd cbbc b009 b33b
000000b0: 2440 82be fcb3 4abd b3db fdbd e50e 87bd
000000c0: 605a c3bd 567f a3bc 11f4 5f3d a70e 24bd
000000d0: ff97 293c 09e4 3f3d fd48 f73d 53a5 433e
000000e0: 77ea 96bb 789b 523d f57a bf3d ef2d c1bd
000000f0: d41c 21be d6e6 463e 58c1 c53b b2a0 98bd
00000100: 96a4 533d 1966 a9bd 6a19 8c3d e7fb a53d
00000110: 78fd 013e b1c8 4fbd 4de4 063e 4800 89be
00000120: 5172 d7bd 4223 393e ccd8 6ebe 92bb 793d
00000130: 237b a53d d01e babd 5bba 693d 7db6 31bd
00000140: 1918 81bc 7efc 45be 847e 1e3e 8b07 09be
00000150: d938 e93c 1e43 a2bd 88dd f4bd 9ea3 02be
00000160: 9b6a 563e 0e2f 8bbe 33de 8ebd 2568 24be
00000170: 5928 0dbd 576f 72bc 8240 7c3d 88eb 473e
00000180: d14d a3bc 6c80 2abe c60d 2abe 8f42 443e
00000190: 51ce 5e3e 4278 253b 9f10 9b3d e0d9 5f3e
000001a0: 5aa7 40bd 0c96 2abd 86fa 2abe 8f16 03be
000001b0: 0fb1 33bd 6553 23be bb17 183b 684a 1f3d
000001c0: fc5d 9abd 1a27 e2bd 0dd7 53bd d0bd cb3d
000001d0: ff60 b3bd cc8a 763c 9a72 c6bd 459f 6cbd
000001e0: 7b5f 8fbd 2dd1 42bc 73d0 21be 2683 d43b
000001f0: e863 7f3d 125f 8a3c ad06 75be 9cf2 9fbe
00000200: d729 203d 36c1 18bc f0c1 4cbc 4132 ea3d
00000210: 6bee 423e 99ff dabd 5b70 e83d 7e8c c73c
00000220: 5df2 663e 9d4f dc3c eae4 d13d c962 cd3d
00000230: 9bdf 9abd 5811 9b3d b6de 303e 0df1 3cbe
00000240: 8949 973d 9655 91bc ffca 2b3c 869b d83d
00000250: 100e 1bbe e789 e1bc 9f07 673d ba4e b3bd
00000260: dd73 d73d f361 b4bd b71e 1ebe 5f85 f8bc
00000270: 773c 963b 7f82 933c a8e9 d7bc bacd 9bbe
00000280: 8aef 33be 145c f3bc 5072 43be 70bb 22bc
00000290: 8d8e cdbd 686f 1bbe 704b 47bd c61d 873d
000002a0: de70 133e 974a 573d 5d6c 733d be7d 243d
000002b0: 36c4 c13c 6830 2cbd 6d49 a3bc b81f 38be
000002c0: f544 703d 29bb 063d 696b 2b3c 9f62 3ebc
000002d0: aff1 373e b29a 9ebc f3fb 45be cec4 a53d
000002e0: dd36 373c 16d4 e4bd c666 24be 38fa 313b
000002f0: edfc 69bd 2d51 843d 07a9 c9bd 0425 05be
00000300: 68a3 093e 374a 9cbd 4baa 1dbd a84e ea3d
00000310: b09c 233d 8001 7c3e eda2 e83d 5bdc fabd
00000320: 9a52 8fbd fde8 51be b5b0 11bc f273 99bd
00000330: d89d 1cbe 4ce5 41bd 66b0 44bd d0f8 a2bd
00000340: 8791 45be b4d8 163e 386f 36bd 8641 b6bd
00000350: c5dd 193d 5e71 e8bb 7d85 b4bc 95db 6a3c
00000360: 3a22 cd3c 3e14 cebc f399 f4bd 712e 30be
00000370: b332 a8bd 5976 5cbd bce2 4ebe 5371 8c3d
00000380: a30d 623e 1e21 90bd 3432 c3bd 529f 44be
00000390: 573c 30bc 5a15 b13d 9550 dc3b 5032 c33d
000003a0: 108e 26be 8a07 da3d e094 a5bb 85aa 5e3d
000003b0: 900b c5bd 9986 e33d 937a bebd 912b 5ebd
000003c0: 3ad1 70bd ea35 8abe 712f 57bd 757b 5abd
000003d0: 7c09 02be 43dc 22bd a4c9 e63d 5c81 6fbd
000003e0: 6c0d 833d 7b16 a83d c44c b4bc de30 fcbb
000003f0: 29f9 b8bd a47e 36ba a501 393e b760 f33d

encoder_z0.GRU_update.reset_gate.2.bias f4 [20]
-0.025716439 0.01764592 -0.01723848 0.0094847325 -0.021619318 -0.024296144 0.029995192 -0.0135637475
0.0002996119 -0.028016148 0.02585238 0.013723648 0.060107972 -0.025954355 0.032416895 -0.01220794
0.028889494 0.0149521185 0.0494059 0.03862991
00000000: 48ab d2bc 2d8e 903c b637 8dbc da65 1b3c
00000010: ff1a b1bc b508 c7bc 7ab8 f53c 7b3a 5ebc
00000020: 3a15 9d39 1f82 e5bc 5fc8 d33c 27d9 603c
00000030: c733 763d 3a9e d4bc 94c7 043d d003 48bc
00000040: a9a9 ec3c bbf9 743c d75d 4a3d 663a 1e3d

encoder_z0.GRU_update.new_state_net.0.weight f4 [100, 42]
0.017954893 -0.07536926 -0.08126457 -0.21589597 -0.09708315 -0.09086551 -0.011517819 -0.024553329
0.17433624 0.016253617 0.010120543 0.18299684 0.0023501548 -0.0018002838 -0.09796631 -0.21619159
-0.00897346 -0.078273244 0.033097215 0.10327609 -0.07957036 -0.03947928 -0.10859991 -0.11833327
0.09149377 -0.06921144 0.04496437 0.010492487 -0.19887789 0.002512656 -0.16233402 0.005738292
0.13617828 -0.02571962 -0.10374278 0.0006872997 -0.015820911 -0.06932129 0.059949894 0.083919466
0.107077844 0.1376624 0.04834939 -0.115467675 0.046107255 0.1176871 -0.117263466 -0.14051424
0.08475693 -0.110659875 -0.21159084 0.17422262 -0.14102319 0.18001023 -0.03582395 -0.23367216
-0.033971872 0.11141443 -0.16957006 -0.01830483 -0.046169948 0.066916645 0.07049365 -0.06094323
-0.11066869 0.08305283 0.0572914 -0.12613629 -0.19403353 -0.037780426 0.091185324 0.12412949
0.040552527 -0.04513322 0.046206746 0.042520307 -0.06843631 0.014681228 -0.054976344 0.06248962
0.11215144 -0.022841739 -0.15297548 -0.04855667 0.017505843 -0.13445239 -0.022372501 0.23096056
0.051852576 0.1384172 0.005828522 -0.056909032 -0.0051298337 -0.15882346 -0.05687131 0.1597306
-0.024297561 0.058139857 -0.019306747 -0.15991236 0.03474716 0.10945738 -0.065246634 0.13185632
0.02121651 0.043890934 -0.08572419 0.085457265 0.005416382 0.11058554 -0.019947378 0.17184736
0.11268265 -0.018466698 0.056590416 0.11850919 0.17752202 0.065200955 0.09608396 0.07713674
0.107098885 0.13528898 0.10941465 0.091265514 0.024461113 0.1513464 -0.102839716 -0.13075574
-0.13809167 0.04407295 -0.084153414 0.027506264 0.027351586 0.14736187 -0.12702349 0.16460767
0.015499756 -0.08324753 -0.07280728 -0.02480295 0.07775013 -0.033622257 0.09946485 -0.07702524
-0.037645046 0.08736081 -0.10964183 0.13640831 -0.028214773 -0.18972182 -0.07228539 -0.11972952
-0.09357296 0.054686237 -0.016151212 0.05734226 -0.02852851 -0.060279824 -0.04567134 0.10298465
-0.0925546 -0.0411207 0.07430175 0.05994291 0.011534598 -0.005504867 -0.03300205 -0.0010981978
0.033212923 -0.23574978 0.037412807 0.1619652 -0.028724149 0.049332302 0.007695356 -0.049305197
0.33289078 0.037693057 0.11974156 0.116363674 -0.038849745 0.03207884 0.03390637 0.1639531
-0.14062186 0.08081385 -0.084735975 -0.06080305 0.17693996 0.16860157 -0.0057589267 -0.04555358
0.054787785 -0.060332064 -0.041288633 -0.09746435 -0.19334885 -0.011312438 -0.13013907 -0.017548691
0.19965217 -0.0427902 0.13860172 0.058083683 -0.20089763 -0.03050834 0.019038403 0.034158558
0.10706803 0.0613009 -0.04115586 0.057331756 0.04764277 0.010267998 -0.10991889 0.0845399
-0.16131406 -0.08579947 0.084671624 -0.09447931 -0.044852328 0.20875125 -0.019344985 -0.14389287
-0.06282325 -0.01380354 -0.019829702 0.13939345 -0.08357595 -0.10585151 0.026811302 -0.2182899
0.06967065 -0.053985562 0.003437813 -0.08803837 0.05164297 0.00029475873 -0.12085639 0.025391193
0.019936986 -0.0022458723 0.14623661 -0.054154634 -0.002139905 0.011788736 -0.019282904 -0.17555171
-0.07329237 0.01686297 0.021705817 0.05622859 0.107039325 0.10061673 0.07548444 0.075393856
00000000: 2416 933c 335b 9abd 0a6e a6bd d513 5dbe
00000010: 88d3 c6bd b217 babd 3cb5 3cbc 1024 c9bc
00000020: 3385 323e 4e26 853c a2d0 253c 8663 3b3e
00000030: 0e05 1a3b 80f7 ebba 90a2 c8bd 5461 5dbe
00000040: 6b05 13bc b94d a0bd f290 073d 6a82 d33d
00000050: c9f5 a2bd 07b5 21bd a169 debd b758 f2bd
00000060: 1661 bb3d babe 8dbd 8f2c 383d aee8 2b3c
00000070: a5a6 4bbe 5fab 243b e43a 26be 4808 bc3b
00000080: 5272 0b3e f4b1 d2bc 1877 d4bd e72b 343a
00000090: db9a 81bc 52f8 8dbd 058e 753d f8dd ab3d
000000a0: a14b db3d 5ff7 0c3e 030a 463d 517a ecbd
000000b0: f6da 3c3d ef05 f13d d427 f0bd f7e2 0fbe
000000c0: 0b95 ad3d a5a1 e2bd 45ab 58be 6a67 323e
000000d0: 6268 10be 9a54 383e 22bc 12bd c147 6fbe
000000e0: 1726 0bbd 402d e43d c6a3 2dbe 03f4 95bc
000000f0: b31c 3dbd 980b 893d fa5e 903d 9c9f 79bd
00000100: 44a6 e2bd 9a17 aa3d 63aa 6a3d df29 01be
00000110: bab0 46be a6bf 1abd 5fbf ba3d 9a37 fe3d
00000120: 681a 263d 9cdd 38bd 4943 3d3d c629 2e3d
00000130: 5628 8cbd 8989 703c e02e 61bd 1ef5 7f3d
00000140: a7af e53d 991e bbbc 9ba5 1cbe 5ce3 46bd
00000150: 6a68 8f3c e3ad 09be 8946 b7bc ed80 6c3e
00000160: 5e63 543d 3dbd 0d3e 30fd be3b 7219 69bd
00000170: 2a18 a8bb 9ea2 22be e4f1 68bd 6b90 233e
00000180: ae0b c7bc 0f24 6e3d 2f29 9ebc 11c0 23be
00000190: 0a53 0e3d 312b e03d 07a0 85bd 5805 073e
000001a0: 3fce ad3c fbc6 333d 2a90 afbd 3804 af3d
000001b0: e87b b13b ac7a e23d af68 a3bc c1f8 2f3e
000001c0: 29c6 e63d 7947 97bc 5acb 673d f2b4 f23d
000001d0: 55c8 353e 1488 853d abc7 c43d def9 9d3d
000001e0: a956 db3d 3289 0a3e ca14 e03d 6ae9 ba3d
000001f0: ac62 c83c 8dfa 1a3e a19d d2bd d5e4 05be
00000200: e767 0dbe d685 343d a058 acbd d154 e13c
00000210: 6f10 e03c 08e6 163e 7212 02be ea8e 283e
00000220: b0f2 7d3c ae7d aabd fc1b 95bd 8e2f cbbc
00000230: 763b 9f3d 7eb7 09bd 3ab4 cb3d 69bf 9dbd
00000240: b131 1abd 39ea b23d e58b e0bd 9fae 0b3e
00000250: ab22 e7bc 7046 42be 5d0a 94bd c034 f5bd
00000260: 2ea3 bfbd adfe 5f3d 8c4f 84bc b8df 6a3d
00000270: 9fb4 e9bc fae7 76bd df11 3bbd 9ee9 d23d
00000280: 448d bdbd 2e6e 28bd 842b 983d b286 753d
00000290: 9cfb 3c3c 2c62 b4bb 282d 07bd 67f1 8fba
000002a0: 460a 083d 6468 71be 2c3e 193d 35da 253e
000002b0: e84e ebbc ab10 4a3d 5329 fc3b 3ff4 49bd
000002c0: a970 aa3e 0964 1a3d 103b f53d 1450 ee3d
000002d0: e920 1fbd 1a65 033d 68e1 0a3d 52e3 273e
000002e0: 2dff 0fbe bb81 a53d 0e8a adbd 9e0c 79bd
000002f0: c02f 353e e4a5 2c3e 61b5 bcbb 6496 3abd
00000300: 2869 603d c11e 77bd 451e 29bd 649b c7bd
00000310: 3efd 45be ce57 39bc 2d43 05be 46c2 8fbc
00000320: 9e71 4c3e c744 2fbd 9ced 0d3e 28e9 6d3d
00000330: 1cb8 4dbe a0ec f9bc 6df6 9b3c d8e9 0b3d
00000340: 7c46 db3d a716 7b3d 0c93 28bd b4d4 6a3d
00000350: 1125 433d 1b3b 283c 281d e1bd 4123 ad3d
00000360: 832f 25be a2b7 afbd 5168 ad3d 5e7e c1bd
00000370: 13b7 37bd e3c2 553e 6079 9ebc a758 13be
00000380: 7aa9 80bd 3e28 62bc e671 a2bc 28bd 0e3e
00000390: de29 abbd adc8 d8bd 60a3 db3c 6387 5fbe
000003a0: 7caf 8e3d f71f 5dbd ee4c 613b 764d b4bd
000003b0: 9487 533d d989 9a39 8e83 f7bd 3101 d03c
000003c0: e452 a33c 7c2f 13bb 0dbf 153e 40d1 5dbd
000003d0: a63d 0cbb 8b25 413c 2ef7 9dbc d4c3 33be
000003e0: 4f1a 96bd 3624 8a3c 66d0 b13c f34f 663d
000003f0: 6f37 db3d 2510 ce3d 9697 9a3d 1868 9a3d

encoder_z0.GRU_update.new_state_net.0.bias f4 [100]
-0.022652524 0.0073543745 0.010305848 0.0121879475 -0.02434017 -0.004832563 -0.011391409 0.005080653
-0.0051317536 0.020875854 0.00846133 -0.017811438 -0.0030700478 -0.023461599 0.0031812931 0.006719509
-0.006260172 -0.009039366 0.018225688 0.0020205532 0.010902797 -0.007943217 0.00917888 -0.010389781
-0.0013498327 -0.021360965 -0.023683961 0.010436602 0.002592405 -0.001087478 -0.011465747 0.00057360984
0.0137285 0.019757908 0.016655138 0.02331194 -0.001688979 0.0106932 0.01836436 0.0076247808
0.0075535467 0.0012939491 0.008485652 0.012671649 -0.0026628512 -0.009294642 -0.0014862766 -0.011316562
0.017062977 -0.01174265 -0.0055430373 -0.016595542 0.0006797224 0.009645722 0.0026858733 -0.008838185
0.017389746 -0.027828567 0.006641326 -0.008367978 -0.0017720948 -0.009870649 0.0032103849 0.0028556099
0.0016216676 0.015631132 -0.001497647 -0.00093456695 -0.005868399 0.005536933 0.017720964 -0.03206811
-0.0028096884 -0.0017183574 0.0011154362 -0.010966933 -0.0060772514 0.012482487 -0.015464016 0.012215473
-0.0064729135 0.011227221 0.0031792505 0.0005608215 0.008651491 -0.010160027 0.012932283 -0.004185993
0.0021957986 0.005277021 0.0022915201 -0.00077013276 0.0039552534 -0.0009329575 0.0075179883 -0.0022161808
-0.028545693 -0.0018531189 0.003635568 -0.010073254
00000000: c991 b9bc f7fc f03b dcd9 283c f5af 473c
00000010: 0965 c7bc 7a5a 9ebb 08a3 3abc 9b7b a63b
00000020: 4528 a8bb d703 ab3c 64a1 0a3c 4be9 91bc
00000030: db32 49bb 8a32 c0bc 3e7d 503b 542f dc3b
00000040: 2122 cdbb d919 14bc 0a4e 953c 426b 043b
00000050: a5a1 323c 4424 02bc 0363 163c e639 2abc
00000060: dfec b0ba 31fd aebc de04 c2bc 48fe 2a3c
00000070: 57e5 293b b589 8eba d4da 3bbc 4e5e 163a
00000080: 81ed 603c 56db a13c 5b70 883c aef8 be3c
00000090: bb60 ddba 8832 2f3c db70 963c 4cd9 f93b
000000a0: be83 f73b ba99 a93a 6707 0b3c c09c 4f3c
000000b0: 3b83 2ebb 8e48 18bc 2bcf c2ba 1a69 39bc
000000c0: a8c7 8b3c 3e64 40bc 5ea2 b5bb 60f3 87bc
000000d0: 662f 323a 1709 1e3c 7a05 303b 09ce 10bc
000000e0: f174 8e3c bcf8 e3bc 7b9f d93b d819 09bc
000000f0: a245 e8ba 81b8 21bc 5265 523b 2f25 3b3b
00000100: 238e d43a dc0c 803c b24c c4ba bafd 74ba
00000110: b34b c0bb 296f b53b 8e2b 913c da59 03bd
00000120: c022 38bb 823a e1ba d433 923a a7ae 33bc
00000130: ae23 c7bb 5883 4c3c c95c 7dbc 6823 483c
00000140: bc1a d4bb 61f2 373c f95a 503b 1804 133a
00000150: fcbe 0d3c 3e76 26bc ede1 533c a82a 89bb
00000160: 63e7 0f3b dcea ac3b 542d 163b bce2 49ba
00000170: 129b 813b b891 74ba 7559 f63b 583d 11bb
00000180: a8d8 e9bc 5ae4 f2ba b642 6e3b 4a0a 25bc

encoder_z0.GRU_update.new_state_net.2.weight f4 [40, 100]
-0.050121997 -0.0681204 0.08909381 -0.053553335 0.09771061 0.11142016 0.049685884 -0.14343522
0.0009922226 -0.08848871 -0.078391515 0.048620008 -0.039419204 0.08480098 -0.085884504 -0.024772163
0.15275083 -0.011662348 0.019753704 0.006787027 0.05510975 0.06408791 0.20739399 -0.05954846
-0.025482439 0.043785896 0.119295694 0.0025234371 -0.16548881 -0.16473918 0.031961594 -0.09673926
-0.03420492 0.155211 -0.018470934 0.17043757 0.045928035 0.06630259 -0.10321564 -0.18029688
0.07412468 0.10684804 -0.18673556 0.07647474 -0.08985737 -0.03136573 -0.0957832 0.086806886
-0.06052023 0.017102199 0.021628492 0.09305416 -0.07923371 0.14807458 -0.014989711 -0.16643731
-0.03448535 0.27873644 -0.17680734 -0.100132525 0.13603279 -0.06682006 -0.15057588 -0.24727
-0.16492203 -0.111689165 -0.0042617056 -0.027550261 0.13548678 -0.17283478 -0.012637306 0.070133306
0.060671918 -0.06286871 0.037479594 0.1851918 0.1168976 0.10943971 -0.06187907 -0.07561833
-0.010314573 -0.0064409394 0.020214261 -0.10632453 -0.10482056 0.046557933 0.02313976 0.05770157
-0.03481583 0.03317386 0.037757106 0.008836991 0.11425014 -0.06751086 0.03513391 -0.12512247
0.19281676 -0.021094518 -0.0017953716 0.02037427 0.20353803 -0.18556777 0.07118421 0.019815888
-0.04018939 0.09307334 -0.09772745 0.06721 0.013470195 -0.0029145887 -0.009489952 -0.12183512
0.21319155 0.13052134 -0.033414077 0.042985972 -0.06803981 -0.11277114 0.16679755 -0.25061902
-0.027859375 0.033834465 -0.10755162 0.023963744 0.11305956 -0.18462473 0.09377429 -0.06778634
-0.24851406 -0.07819949 -0.11578032 0.10422684 -0.07464637 0.10100534 -0.18381092 0.27713117
0.047014505 -0.109522015 -0.10471868 -0.14757207 0.053575832 0.15437947 -0.1345771 -0.0019940974
-0.08144418 -0.080631256 -0.15216346 0.26222202 0.12992296 0.21553089 0.10792737 -0.037687637
-0.036845524 0.008996911 0.122356705 0.026344324 -0.3607329 -0.079614505 -0.03710734 -0.05571314
0.2671258 0.18086196 0.015679415 -0.016760217 0.035369214 -0.28718662 -0.23947045 -0.050571714
-0.074244924 -0.20483503 0.13441506 0.21683897 -0.015553789 -0.08806947 0.053794373 0.11202362
-0.020746624 0.08141504 -0.16387624 -0.20256713 -0.040967647 0.19586729 0.10568667 0.0688504
0.005805096 -0.008862161 0.0195371 0.012643607 0.20102187 0.039937038 0.057287768 -0.17591439
-0.046767164 0.10612956 0.018279744 -0.12122902 -0.17086995 0.06255056 0.017232569 0.10049441
0.06437436 -0.15761091 -0.064320125 -0.22806808 -0.053238157 -0.16052409 0.06583757 -0.23850018
-0.18214186 0.078497864 -0.10324423 -0.1557166 -0.06377977 -0.1032598 -0.07248278 -0.08255161
-0.0030784053 -0.1498021 0.26234898 -0.12888487 -0.06971348 0.017507412 0.12777233 -0.083587706
-0.11288967 -0.23099796 -0.19461016 -0.039576314 -0.1285759 0.04711923 -0.27025634 0.14294079
-0.0820038 -0.009057794 -0.14197767 0.19576421 -0.20511949 -0.025974292 -0.009819104 -0.16408901
-0.09316335 -0.010295354 -0.083534166 0.03028736 0.07066774 -0.034170855 -0.04479857 0.1124469
-0.063868284 -0.022121573 -0.048808135 0.0106045585 -0.03282133 -0.02484527 0.0680219 -0.1761039
00000000: b94c 4dbd b582 8bbd d176 b63d be5a 5bbd
00000010: 801c c83d 4130 e43d 6d83 4b3d afe0 12be
00000020: 770d 823a 9239 b5bd bb8b a0bd c625 473d
00000030: 0876 21bd 23ac ad3d 37e4 afbd feee cabc
00000040: b76a 1c3e 6f13 3fbc 85d2 a13c b665 de3b
00000050: c3ba 613d 8640 833d 175f 543e 16e9 73bd
00000060: 8cc0 d0bc d758 333d 4d51 f43d 4060 253b
00000070: e675 29be 63b1 28be 29ea 023d 3c1f c6bd
00000080: 751a 0cbd a2ef 1e3e 5b50 97bc 3087 2e3e
00000090: 091f 3c3d a7c9 873d b962 d3bd bf9f 38be
000000a0: aece 973d 25d3 da3d 9b37 3fbe ca9e 9c3d
000000b0: 2407 b8bd 5a79 00bd fb29 c4bd cfc7 b13d
000000c0: 10e4 77bd e919 8c3c 3c2e b13c 2e93 be3d
000000d0: 4945 a2bd dda0 173e 6897 75bc 8b6e 2abe
000000e0: 8340 0dbd 8bb6 8e3e fc0c 35be 4812 cdbd
000000f0: 2e4c 0b3e f5d8 88bd 9030 1abe 5934 7dbe
00000100: 52e1 28be 4abd e4bd c7a5 8bbb 16b1 e1bc
00000110: 0cbd 0a3e 9afb 30be b40c 4fbc 0da2 8f3d
00000120: 1e83 783d 4fc1 80bd 3484 193d eba2 3d3e
00000130: 0268 ef3d ed21 e03d e874 7dbd c8dd 9abd
00000140: 74fe 28bc 840e d3bb 6198 a53c adc0 d9bd
00000150: 29ac d6bd 88b3 3e3d 988f bd3c 7b58 6c3d
00000160: 0b9b 0ebd 50e1 073d 32a7 1a3d 07c9 103c
00000170: fafb e93d 2243 8abd 93e8 0f3d 1b20 00be
00000180: c271 453e 69ce acbc ad52 ebba f1e7 a63c
00000190: 466c 503e 7a05 3ebe 07c9 913d ee54 a23c
000001a0: a19d 24bd 3c9d be3d 5425 c8bd 65a5 893d
000001b0: 18b2 5c3c af02 3fbb be7b 1bbc b184 f9bd
000001c0: e34e 5a3e 63a7 053e 33dd 08bd 0f12 303d
000001d0: 7558 8bbd 8ef4 e6bd facc 2a3e 2351 80be
000001e0: 5839 e4bc 0296 0a3d 0644 dcbd 9d4f c43c
000001f0: c58b e73d 440e 3dbe bc0c c03d 91d3 8abd
00000200: 787a 7ebe 0e27 a0bd 3b1e edbd e274 d53d
00000210: 32e0 98bd e3db ce3d ee38 3cbe 23e4 8d3e
00000220: 4892 403d 144d e0bd bf76 d6bd 221d 17be
00000230: 5572 5b3d a715 1e3e 94ce 09be 67af 02bb
00000240: 35cc a6bd 0022 a5bd bdd0 1bbe f741 863e
00000250: 860a 053e 21b4 5c3e 0609 dd3d 5a5e 1abd
00000260: 55eb 16bd c867 133c 2796 fa3d 0dd0 d73c
00000270: fcb1 b8be ee0c a3bd defd 17bd 7633 64bd
00000280: b6c4 883e e133 393e 1e72 803c b94c 89bc
00000290: 4fdf 103d 200a 93be be37 75be 4924 4fbd
000002a0: b90d 98bd 46c0 51be 1aa4 093e 090b 5e3e
000002b0: 52d5 7ebc c45d b4bd 7d57 5c3d a46c e53d
000002c0: d3f4 a9bc eebc a63d 2ccf 27be c26d 4fbe
000002d0: b1cd 27bd 6f91 483e 4172 d83d 7001 8d3d
000002e0: ad38 be3b 9932 11bc 450c a03c 2227 4f3c
000002f0: add8 4d3e 0595 233d 94a6 6a3d e722 34be
00000300: ed8e 3fbd 745a d93d 67bf 953c ec46 f8bd
00000310: 88f8 2ebe 821a 803d 512b 8d3c 03d0 cd3d
00000320: b4d6 833d c164 21be 45ba 83bd ae8a 69be
00000330: 4110 5abd 6d60 24be d9d5 863d 6439 74be
00000340: 6583 3abe 7dc3 a03d b671 d3bd 2c74 1fbe
00000350: f89e 82bd e079 d3bd da71 94bd d210 a9bd
00000360: 12bf 49bb b965 19be 9b52 863e 65fa 03be
00000370: f1c5 8ebd b46b 8f3c c0d6 023e 0830 abbd
00000380: b332 e7bd bb8a 6cbe e347 47be c61a 22bd
00000390: 67a9 03be 1800 413d 0a5f 8abe 125f 123e
000003a0: 9cf1 a7bd 2467 14bc 9862 11be 6a76 483e
000003b0: d80a 52be 0ac8 d4bc 4fe0 20bc f306 28be
000003c0: 6dcc bebd d8ad 28bc f613 abbd 331d f83c
000003d0: 40ba 903d bdf6 0bbd b57e 37bd 8f4a e63d
000003e0: 60cd 82bd 4d38 b5bc 0aeb 47bd bebe 2d3c
000003f0: a96f 06bd 4f88 cbbc 114f 8b3d 9554 34be

encoder_z0.GRU_update.new_state_net.2.bias f4 [40]
-0.015079005 -0.009555836 0.006201837 0.0036214264 0.0009982093 0.010622415 0.009031738 -0.0015708207
-0.00934233 0.0033769167 -0.0021769921 0.001460908 0.0041024643 -0.0028776387 -0.0094730435 0.014824356
0.0058945282 0.0050449115 -0.0011385342 0.0021498397 0.0034145762 -0.0013662191 0.006667789 -0.013915271
0.02770858 0.0148268575 -0.008849023 -0.0062854905 -0.00067270116 -0.022211539 0.009930529 -0.013127514
0.0089650415 -0.028082354 -0.0056516565 -0.009947112 -0.0073239123 0.0030494 -0.02123781 -0.011342068
00000000: ee0d 77bc 1590 1cbc c838 cb3b 7455 6d3b
00000010: 59d6 823a a309 2e3c dbf9 133c ffe3 cdba
00000020: 9210 19bc 434f 5d3b deab 0ebb f07b bf3a
00000030: f76d 863b c496 3cbb d334 1bbc dbe1 723c
00000040: e326 c13b c94f a53b de3a 95ba 53e4 0c3b
00000050: 15c7 5f3b b512 b3ba 787d da3b e0fc 63bc
00000060: 1bfd e23c 59ec 723c 7efb 10bc 84f6 cdbb
00000070: 3658 30ba f9f4 b5bc a8b3 223c c914 57bc
00000080: 1ce2 123c f70c e6bc 8831 b9bb 36f9 22bc
00000090: 6efd efbb 71d8 473b eafa adbc 15d4 39bc
