generative_ts/saves/250918_144816/model_LatentODE.pth (torch, 219138 bytes, 28 tensors)

encoder_z0.GRU_update.update_gate.0.weight f4 [100, 42]
000000 96 f5 49 bd 46 fc de bd 84 e1 27 be bf 7f cb 3d
       -0.049306475 -0.10887961 -0.16394621 0.09936475
000010 13 05 e6 bc af 0f 2c 3e ff 9f 0a bd 23 a2 13 be
       -0.028078591 0.16802858 -0.03384399 -0.14417319
000020 69 f8 a1 3d aa fe 35 3c 3d de 4f 3e ae 6b 68 bc
       0.079087086 0.01110808 0.20299621 -0.014185829
000030 5c 9c 8f bd 01 f1 6e 3d e0 71 35 3c e6 95 46 3e
       -0.07012245 0.058335308 0.011074513 0.19393119
000040 7c 7d 91 3d 3a b6 49 3e 9b e6 07 3e ab 4f b2 3d
       0.07104012 0.1969842 0.13271563 0.08706602
000050 8f 9b 88 3e d7 05 38 3e 81 41 90 bd d3 45 89 3d
       0.26681182 0.17970978 -0.07043744 0.06702771
000060 91 78 36 bd 19 4e 73 3e a6 3f 24 be 64 81 9b 3d
       -0.044548575 0.2376026 -0.16039905 0.07593039
000070 41 a8 73 3e a7 de 59 3e 35 d3 1a 3e bd e5 81 3e
       0.23794653 0.21276341 0.15119632 0.2537059
000080 4c 4d 39 3d 94 31 03 bb 29 df 68 bd c0 cb d8 3c
       0.04523973 -0.0020018565 -0.056853447 0.026464343
000090 4b 43 e2 bd cf 8d e9 3c 2d d7 27 3e 8e 95 68 3e
       -0.11047991 0.028510002 0.16390677 0.227133
0000a0 ce 3d b0 3d a5 01 b3 3d c3 26 92 3c b2 7b 38 be
       0.08605538 0.08740548 0.017840749 -0.18015936
0000b0 21 bf 58 3c 6b 30 b4 3d 5b ee 7f bb 00 a2 14 bd
       0.013229162 0.087982975 -0.0039051983 -0.036287308
0000c0 2c 79 9b bc cf b6 5d be 03 fc 64 bd f1 dd 73 be
       -0.018978678 -0.21651767 -0.0559044 -0.23815133
0000d0 f5 2e 60 3c 3a d2 79 bd 5f 47 1a be e4 9e 24 bd
       0.01368307 -0.060991503 -0.15066288 -0.040190592
0000e0 63 a3 28 3c 15 52 00 be 8a 28 03 3d ac 15 3b 3e
       0.010292861 -0.12531312 0.032021083 0.18269986
0000f0 56 bd 30 3e 9a ed 8a 3e ca 16 c4 bd e1 df c4 3d
       0.17259726 0.271344 -0.09574659 0.09613014
000100 f6 e8 b2 3d d8 5a f9 bd fb 21 17 3e b3 de 25 bd
       0.0873584 -0.1217553 0.14759056 -0.040495586
000110 3d f8 25 bd 88 87 5c bd b1 67 8b 3d 51 c6 60 be
       -0.04051994 -0.05384019 0.06806887 -0.21950652
000120 21 a0 44 3e 0c 45 73 bc a4 50 c9 3d 19 4f 12 be
       0.1920171 -0.014848005 0.09829834 -0.14287986
000130 7f 54 c2 3d 7d 36 f8 3d 2c 30 f3 bd 67 98 27 3d
       0.094887726 0.12119768 -0.118744224 0.040916827
000140 db de 7d be cc 62 80 3d 3b 2a 62 3d b6 7b af bd
       -0.24792044 0.06268844 0.055216055 -0.08568518
000150 08 c7 1a 3e 9b db 0f be 93 d5 86 3d 16 30 08 bc
       0.15114987 -0.14048617 0.06583705 -0.008312246
000160 83 ee 04 be 8c 66 88 3e c5 fb 31 bd e2 31 cb bd
       -0.1298161 0.26640737 -0.043452997 -0.09921624
000170 b9 ed 31 bc 76 11 01 be 44 63 87 3c b6 86 1f bd
       -0.0108599 -0.12604317 0.016526826 -0.03894683
000180 73 b6 c9 3c 25 b2 8e b9 92 84 40 3c a0 6b f9 3c
       0.024623131 -0.0002721708 0.011750357 0.030446827
000190 d3 db cb 3d bf 39 0b 3e 7a b4 2b 3e 63 e2 b0 bc
       0.099540375 0.13596247 0.16768065 -0.021592325
0001a0 ee 1d 6d bd 21 d2 fc 3b 9c e6 6b 3d e2 fd 11 bc
       -0.05788987 0.007715479 0.057592973 -0.008910628
0001b0 63 11 09 bd 2f 8a dc 3d 29 4b 29 3e 01 d0 dc 3d
       -0.033463847 0.10768544 0.16532578 0.10781861
0001c0 16 9d 8d 3e 08 08 58 3e 2a 42 02 3c 4a a9 3c 3e
       0.2765891 0.21096814 0.007950345 0.18423954
0001d0 20 01 03 3e c0 32 02 bd b5 f1 01 be 6c 7b c9 3e
       0.12793398 -0.03178668 -0.1268986 0.39351976
0001e0 c3 82 f9 3d dc f0 87 3d a8 81 42 3e 34 07 08 bd
       0.12183144 0.06637737 0.18994772 -0.033209994
0001f0 70 ac 4b 3e 31 ae a6 bd c8 ed 69 3d 89 d5 07 bd
       0.19889998 -0.08138693 0.05711153 -0.033162627
000200 84 f6 e2 bb 5a aa 25 bd 15 20 56 3e bc 32 b7 3d
       -0.0069263596 -0.040445663 0.20910676 0.08945224
000210 24 dd c4 3c 9e ad 23 3e 99 23 c4 bd da 71 36 3d
       0.02403123 0.15984198 -0.09577102 0.04454217
000220 32 0e ff bc 0d c5 6b 3e be 53 e8 3d c7 ff 34 be
       -0.031134699 0.23024388 0.113440976 -0.17675696
000230 ea 40 ad bd 5e 0e 29 be a8 d1 b3 bd c9 cc b5 bd
       -0.08459647 -0.16509387 -0.08780223 -0.0887695
000240 9c 0b f2 bc 3c 45 ca 3d 8c e7 a7 bd 08 d4 b6 bd
       -0.029546551 0.09876487 -0.08198461 -0.089271605
000250 e3 df 92 bd 55 fe 05 be 75 d5 86 be ce 09 1e 3d
       -0.07171609 -0.13085301 -0.2633473 0.03858357
000260 55 7b f5 3d e1 a9 cc bd 6c 31 1e be 9e 47 9a bd
       0.11986414 -0.09993339 -0.1544854 -0.07533191
000270 23 b4 35 be ff 6e 35 bc ff e9 68 be a9 36 ca bd
       -0.17744498 -0.011073827 -0.22745512 -0.09873707
000280 f1 1d 3c 3e 78 20 2a be 23 c9 51 bd c5 5e 2d be
       0.18370797 -0.16613948 -0.05121721 -0.16930683
000290 cf ec 2f 3d 39 f7 2c be 2f 74 7d bb 17 54 50 be
       0.042950448 -0.16891183 -0.0038673987 -0.20344578
0002a0 5b b6 05 be c7 d4 16 3e 10 c7 de 3d d1 27 9d 3d
       -0.13057844 0.14729606 0.10877812 0.0767361
0002b0 c9 5d 16 3e ef 83 cb bd 37 7f c5 3b 31 ec 9c bd
       0.14684214 -0.09937274 0.006027128 -0.076622374
0002c0 d8 5c c3 bd 51 1e f4 3d 0e bd c5 bc 13 e4 59 3d
       -0.09539193 0.11919845 -0.024138 0.053196024
0002d0 ae d0 7c 3d 54 96 f3 bd 34 9e 1c be 0c 13 93 3d
       0.06172245 -0.11893907 -0.15294725 0.07181367
0002e0 49 4e 37 be 79 ba 66 bd 57 43 bf 3d f5 64 b3 bd
       -0.17900957 -0.056330178 0.09339016 -0.087594904
0002f0 77 1b 15 be a2 e7 37 be 26 87 46 3c 5d 1b d8 bd
       -0.14561258 -0.17959455 0.012117183 -0.10552094
000300 24 37 9f be 6d 43 9c bd ae e0 19 bc 96 7f ad bd
       -0.31096756 -0.07630048 -0.009391947 -0.08471601
000310 48 ed 43 bd be 22 06 be 11 79 90 bc 59 7d c4 bd
       -0.04783371 -0.1309919 -0.017635854 -0.09594221
000320 eb 3a 3a bd 3a 3e c1 bd 72 b9 87 be c7 98 b2 3d
       -0.045466345 -0.09435697 -0.2650867 0.08720546
000330 62 ac ab 3d 00 0e 6f bd 95 5a 81 be 82 09 a6 3d
       0.08382489 -0.05836296 -0.2526442 0.08107282
000340 df 4a f1 bd 5f 13 9a 3c af 65 6b bd eb a9 a9 3c
       -0.11781859 0.018808065 -0.05747002 0.020710906
000350 1b 40 9a 3d 8c 6f 2f be ae d4 39 3e 41 98 31 3d
       0.075317584 -0.17132396 0.18147537 0.04335809
000360 b1 56 04 3e 36 37 44 3e 98 57 42 3d 06 24 e4 3d
       0.12923695 0.19161686 0.047446817 0.111396834
000370 74 e5 b7 3c c9 af f0 3c fc b4 2a be 6e 70 0c 3e
       0.022448279 0.029380696 -0.16670603 0.13714764
000380 81 11 8b bd 9d 9d a0 3d a1 27 45 bd df 31 2a be
       -0.06790448 0.07842562 -0.048133496 -0.16620587
000390 4f d1 88 bd 1f 16 10 3d de ad 2c be 0a 7d da bd
       -0.066805474 0.035177346 -0.168632 -0.106683806
0003a0 a0 1d 27 be 6d 99 44 be 85 42 f3 3d 13 31 8a bc
       -0.16319895 -0.19199152 0.11877922 -0.016869104
0003b0 5f 8f 05 be 1f 03 19 be a0 9f 19 be 09 36 d3 3c
       -0.13042973 -0.14942597 -0.15002298 0.025782602
0003c0 1c 74 03 bd bb eb 49 be 96 04 79 be 0b 81 ae bd
       -0.032093152 -0.1971883 -0.24318156 -0.08520707
0003d0 15 c6 b8 bc 0d 0b 3e be 89 f9 45 be 7b db 54 be
       -0.02255539 -0.18558903 -0.19333471 -0.2078685
0003e0 36 54 af bd f9 e9 4f be 6d ac 11 3c 86 4d 8b 3c
       -0.08560984 -0.20304097 0.008891207 0.01700474
0003f0 0c fd 03 3e a7 65 7f bd cc 4d 2a be 09 28 9d bd
       0.12889498 -0.062352803 -0.1663124 -0.07673652

encoder_z0.GRU_update.update_gate.0.bias f4 [100]
000000 6f 0b b0 3d ac 49 e3 3c 84 f5 d1 3d 91 4b a4 bd
       0.08595931 0.02774509 0.102519065 -0.08022226
000010 95 02 83 bd 9f ee cb bd 03 ab a8 3d 57 f5 91 3d
       -0.06396977 -0.09957623 0.08235743 0.07126873
000020 cf 5f 96 bd 6c a3 df bd 7a 10 a9 3d 08 82 a6 bd
       -0.07342493 -0.10919842 0.08255096 -0.0813027
000030 cf e4 83 3d 8a fd c7 3d 03 4e cc bc 61 79 87 bd
       0.06440126 0.097651556 -0.024939543 -0.06614948
000040 25 9c 98 3d 22 34 bb 3d 75 41 94 3d 16 a6 4c bd
       0.07451657 0.09140803 0.072390474 -0.04996308
000050 48 b7 85 bd 5a 08 89 bc 1b d2 85 bd 15 d0 8c 3d
       -0.06529099 -0.016727615 -0.06534215 0.06875626
000060 08 4d da 3d a3 5d 50 bd 6f 11 b1 bd 63 57 82 3d
       0.10659224 -0.05087055 -0.08645903 0.06364324
000070 7d f6 91 3d f2 dd 43 bd 4a 07 9d 3d ae 6c 05 3d
       0.07127092 -0.047819085 0.07667406 0.03257435
000080 ad b1 ce 3d 38 c7 9f bd b7 3f ad bd d6 80 50 3d
       0.10092483 -0.0780167 -0.08459418 0.050904118
000090 d7 3a 79 3d 9a 2a 94 bd 2c 72 ab bd 52 eb 7b 3d
       0.06084713 -0.07234688 -0.08371386 0.061503716
0000a0 f8 bb ac bd b5 d6 d8 3d bd 9e 9e 3d fa 74 a1 bd
       -0.0843429 0.10587827 0.07745121 -0.0788364
0000b0 84 66 a3 bd a7 34 1d 3d 5d 3d 86 bd c1 86 c4 3d
       -0.07978538 0.03838029 -0.06554673 0.09596015
0000c0 ef ea 9b bd 33 77 99 3d 9b db 8d 3d ad 25 71 3d
       -0.076131694 0.074934386 0.06926652 0.05887382
0000d0 97 83 ad bd ab d7 8d 3d 40 b5 c3 bc 38 8b 2c bd
       -0.084723644 0.06925901 -0.023890138 -0.042124957
0000e0 c1 bb 9c 3d b3 91 99 3d b2 b3 ce 3c 97 54 c6 bd
       0.07652999 0.07498493 0.02523217 -0.09684103
0000f0 a0 b9 fb 3c f9 18 a3 bd c1 06 73 3d fd c1 06 bd
       0.030728161 -0.079637475 0.059332613 -0.032899845
000100 aa a2 97 bd 50 71 9b 3d 37 4e 8d 3d a5 cd 77 3d
       -0.074040726 0.07589972 0.06899684 0.060498852
000110 57 bc b7 3d 4d ce 86 bd cc 6b 59 bd ac b8 a5 bd
       0.0897147 -0.065823175 -0.05308132 -0.08091864
000120 26 37 c3 3d 83 00 1f bd 94 ff 91 bd b1 2b 68 3d
       0.09532003 -0.038818847 -0.07128826 0.056682292
000130 59 51 c5 3d 93 e5 79 3d 1a ec f4 3d 88 67 9c bd
       0.096346565 0.061009955 0.11959095 -0.076369345
000140 20 81 af 3d ab 72 92 3d b5 a9 b2 bd 38 99 42 3d
       0.085695505 0.071507774 -0.08723775 0.047509402
000150 d3 61 69 bd 8e d4 71 bd ec 1c bc bd f2 cb ef 3c
       -0.056978058 -0.0590406 -0.09185204 0.029272053
000160 5f 71 72 bd c0 d3 6f 3d 51 de 8c bd 46 bc ca 3d
       -0.05919015 0.05855155 -0.06878341 0.098991916
000170 30 b0 d2 bd 82 01 8d 3d f2 e3 e3 bd 25 55 8a 3d
       -0.10287511 0.06885053 -0.111274615 0.06754521
000180 c7 6d 1e bc 33 27 4e bd 49 fe 83 bd 00 0f 0c 3d
       -0.009669728 -0.050330352 -0.064449854 0.034193993

encoder_z0.GRU_update.update_gate.2.weight f4 [20, 100]
000000 66 e8 e0 bb bb d3 47 be 59 c3 e0 3c 97 65 8e 3c
       -0.0068636416 -0.19514363 0.027436899 0.017382426
000010 f6 5a a3 bd 60 d1 95 be e8 91 94 3d 14 1a 5a 3d
       -0.07976334 -0.29261303 0.07254392 0.053247526
000020 39 27 80 bd 77 9a 32 be b0 99 0d 3e ea 00 e5 bc
       -0.06257481 -0.17441736 0.13828158 -0.027954537
000030 c8 31 f1 3d 24 67 64 3d 0c f0 b1 3d 5f fd c8 bc
       0.11777073 0.055762425 0.086883634 -0.02453488
000040 57 b8 a7 3d dd 1a fb 3c a3 3f e1 bc cf bc 12 3d
       0.08189457 0.030652458 -0.027496165 0.035824593
000050 22 97 96 39 e7 4a b1 bd 97 f6 1b be 17 66 19 3e
       0.00028722832 -0.086568646 -0.15230785 0.1498035
000060 ed 7e c0 bd 60 fc 6b bd 09 42 5e bd 64 c0 52 bd
       -0.09399209 -0.05761373 -0.054262195 -0.05145301
000070 41 bc 69 3e d9 3a 0b bd 66 ec 25 3e 68 20 cf 3b
       0.2282572 -0.03399167 0.1620346 0.006321002
000080 a2 ad 01 3d 7b 47 97 bd 60 51 e9 ba 96 bc b0 3d
       0.03165973 -0.07386681 -0.0017800741 0.0862972
000090 24 f6 85 3d 76 21 71 3d 9c 5a c9 bc b4 2c d9 3c
       0.06541088 0.0588698 -0.024579339 0.026510574
0000a0 f5 07 3c be cb 66 7f 3c 1c fe 08 3c a3 7e 34 3c
       -0.1836241 0.015588473 0.008361366 0.011016521
0000b0 24 fc 0c bd 12 d1 ee 3d 61 7c 1c be e2 81 90 3e
       -0.034420148 0.11660971 -0.15281822 0.28224093
0000c0 12 cc 30 be 8b c8 31 bd a3 07 7d 3d ba 94 a9 3d
       -0.17265347 -0.043404143 0.06177486 0.082803205
0000d0 54 59 e6 bd 4a fb d7 3d 4a d8 98 3d 19 8a 95 bd
       -0.11247507 0.105459765 0.07463129 -0.07301731
0000e0 30 f5 45 3d ca ad 54 3d 18 b5 07 be e2 14 7d bd
       0.048329532 0.05192355 -0.13252676 -0.061787494
0000f0 1e e9 33 3e 6f 39 3b 3e 0b 49 27 3e b7 db 9c bc
       0.17569396 0.18283628 0.16336457 -0.019147737
000100 e4 42 ac 3c 6a 8e 2f 3e 05 81 9a 3e eb 48 0a be
       0.02102799 0.1714417 0.3017656 -0.13504378
000110 f4 d5 c4 3d cf be e7 bd 96 94 cb bd a2 49 ef bd
       0.09611121 -0.11315691 -0.0994045 -0.11683966
000120 fa 21 1e 3d 3f 18 0d bd 9f 44 23 bd 09 0e 7f 3d
       0.03860662 -0.03444695 -0.039860364 0.062269244
000130 6a 87 b0 3c d3 c7 54 3e a0 0a 8e 3d f1 a5 80 be
       0.021548945 0.20779352 0.0693562 -0.25126603
000140 f5 b3 a0 3e cb 89 0f 3e 53 b2 8e bb be 9b 11 bd
       0.31387296 0.14017408 -0.004354754 -0.035548918
000150 8b 01 f4 bd 82 1f f9 bd 2a d6 1b be 13 58 4b 3e
       -0.11914357 -0.12164213 -0.15218416 0.19857816
000160 08 c2 81 3b c3 a8 81 3e 60 47 1f bd 4b b5 22 bd
       0.003959898 0.25324067 -0.038886428 -0.039723676
000170 c2 78 30 3c 22 0e 12 3e 6e bf 43 be 38 60 4e 3d
       0.010770978 0.14263204 -0.19115993 0.05038473
000180 67 95 d8 bd 27 10 06 3d c4 ca a8 bd 1f 19 80 bd
       -0.10575371 0.032730248 -0.082417995 -0.062547915
000190 de cf 9d bc 72 00 cd bc 6d 56 aa 3d f8 98 c2 3d
       -0.019264158 -0.025024626 0.08317266 0.09501833
0001a0 72 8e 2f bd 91 80 c4 bd 08 94 6b bc b7 fc 52 bd
       -0.042860456 -0.095948346 -0.014378555 -0.05151054
0001b0 3e 21 6f be 83 4c b9 bd cc ae 74 3e c3 cb 7a bd
       -0.23352525 -0.090477966 0.23894805 -0.06122948
0001c0 e8 6b 26 3d 4f f1 dd 3d 42 1d 40 3d c4 b0 0e 3d
       0.04063025 0.108370416 0.046902902 0.034836546
0001d0 ca 2d 45 3e f5 30 f0 3c fb 3c d5 3c b2 a9 77 3b
       0.19255748 0.02932022 0.026030054 0.0037790355
0001e0 af a2 97 be f6 ec d4 3d e4 d6 95 3d 18 40 3f 3e
       -0.29616305 0.10396759 0.07316378 0.18676794
0001f0 16 8c 99 bd ca 3f 21 be 7e 56 22 3c 88 28 45 bb
       -0.074974224 -0.1574699 0.009908317 -0.0030083973
000200 5d 4a cb bc 54 02 fe 3c d6 b8 76 3d f5 91 29 3e
       -0.024815733 0.03100697 0.060234867 0.16559584
000210 5b 96 62 3d f1 f1 de bd a8 d1 86 bd 1c 16 b0 3a
       0.05531917 -0.108859904 -0.065829575 0.0013434323
000220 6b fd db 3c 3c 41 32 be 36 3a 24 3c 2a e7 ee 3d
       0.026854238 -0.17407697 0.010023644 0.11665185
000230 f8 9e 39 3d a3 46 65 3e 3f 2b 53 bd dc ea a8 3d
       0.04531762 0.22390227 -0.051554915 0.08247921
000240 6b ff 5a 3d 3c c6 3a 3c 9c 3c 85 be 7e 00 5c 3e
       0.05346624 0.011399802 -0.26022804 0.21484563
000250 5d 77 be bd 83 36 8d bc 28 df 7e bd 89 9b a7 3d
       -0.093001105 -0.017237907 -0.062224537 0.08183963
000260 7f 33 98 bd f1 d6 14 3e 23 41 fc 3c f1 8a 1e 3a
       -0.07431697 0.14535119 0.030792778 0.00060479256
000270 c4 8c a5 3c 38 8f cc 3d 01 bb 17 3e 1f bc b5 bc
       0.020208724 0.09988254 0.1481743 -0.02218443
000280 96 41 b5 3c 26 03 22 be ef 43 a4 3d 5c a7 92 bd
       0.022126 -0.15821514 0.0802077 -0.071608275
000290 b0 a5 c2 bc d0 47 30 3e 9c 2c 49 3e 96 2f 1b be
       -0.023760647 0.17214894 0.19645923 -0.15154871
0002a0 1b d4 43 3e 39 49 28 be 38 67 46 3d 98 15 be 3c
       0.1912388 -0.16434182 0.04843828 0.023203656
0002b0 04 a0 97 3d da 60 eb bd b6 4a 2a be 26 45 86 3e
       0.074035674 -0.11493082 -0.16630062 0.2622463
0002c0 9d 97 14 3e fb 8b b9 3d 9b da ac 3d d1 2a d2 bd
       0.14510961 0.09059902 0.08440133 -0.10262073
0002d0 8b bb 28 3e 76 01 4b 3e 65 65 98 bd 84 39 10 3d
       0.16477792 0.19824776 -0.074412145 0.0352111
0002e0 44 be 49 bd c3 d0 1b bd 17 f4 88 bc 63 4f 81 3d
       -0.049253717 -0.038040888 -0.016717954 0.0631397
0002f0 59 44 7b bd 19 6d 95 3e fe 48 e3 3c 92 78 e7 3d
       -0.06134448 0.29184797 0.027744766 0.11302294
000300 fd 5a bd bd 5a 53 3b bd 18 24 15 be 78 af 04 be
       -0.0924587 -0.045733787 -0.1456455 -0.12957561
000310 8b 13 08 bd 81 a1 05 3d 9f af 9f 3d ec 84 17 bd
       -0.033221763 0.032624725 0.07797169 -0.036992
000320 72 80 7b 3d 9a cd a0 3d 58 a8 95 bc 81 62 a4 3d
       0.061401792 0.078517154 -0.01826875 0.08026601
000330 9a 8c b8 bc 6c 92 fa bc 8e ea 26 3d 9b 14 56 bd
       -0.022527982 -0.030587398 0.040751033 -0.052265745
000340 c6 81 0f be e9 fd 0d 3d 7f ae 10 3e 42 85 a1 bd
       -0.14014348 0.034665976 0.14129065 -0.07886745
000350 5d 98 b9 3d 06 44 93 3d 15 2b 26 3d 3b 49 62 bd
       0.09062264 0.07190709 0.04056843 -0.05524562
000360 9f 5f e0 3d c8 b6 1f 3e be 0c 79 3e d5 8c a5 3d
       0.10955738 0.1559707 0.24321267 0.08083502
000370 3d 2c 70 3d ef 44 95 3e 6e 9a 88 3d 2c e9 b2 bd
       0.05863594 0.29154155 0.0667008 -0.0873588
000380 32 3d 24 3e a1 71 1c be bb 3e 08 3e 24 74 b8 3d
       0.16038969 -0.15277721 0.1330518 0.09006527
000390 33 75 a0 3e bd 37 30 be 81 69 a8 3d a5 09 2d 3c
       0.31339416 -0.17208762 0.08223248 0.0105613815
0003a0 af ed fe 3d 70 b1 8c 3c 43 fe 00 bd c3 bf 74 3d
       0.12447678 0.017174453 -0.031492483 0.05975319
0003b0 8d 0c ea 3c 60 dd 15 3d 79 17 c6 3b d9 2b 89 3d
       0.028570438 0.036588073 0.0060452786 0.066978164
0003c0 ca b4 83 bd 62 47 ff 3d c9 78 82 b8 dc cc 79 bd
       -0.06430967 0.12464787 -6.221381e-05 -0.060986385
0003d0 1b fd 42 be dd 53 41 3d 72 34 8e bd 06 a9 85 3d
       -0.19041865 0.04719912 -0.06943597 0.06526379
0003e0 b4 0c c8 bd 91 f5 de 3c c2 4e e9 bd 35 78 6a 3c
       -0.09768048 0.027216705 -0.11391975 0.014310886
0003f0 78 96 2f be 8f ba 15 3e 7a 9c 28 bd 26 e6 35 be
       -0.17147243 0.14621948 -0.041164853 -0.17763576

encoder_z0.GRU_update.update_gate.2.bias f4 [20]
000000 e2 f4 60 3d e3 7f b3 3d 08 7a 89 3d 55 06 81 3d
       0.05492104 0.08764627 0.06712729 0.06300036
000010 f1 6e da 3d 85 db c3 3d 34 84 19 3d ce aa 83 3d
       0.10665692 0.095633544 0.037479594 0.06429063
000020 a3 b6 66 3d 78 10 53 3d 2c c5 a0 3d 8c 65 a3 3d
       0.05632652 0.051529378 0.078501076 0.07978353
000030 51 33 d8 3d b6 0d a4 3d 99 50 86 3d 1f fd 94 3d
       0.10556663 0.08010428 0.065583415 0.072748415
000040 17 d3 93 3d 2b 66 87 3d d2 f7 5a 3d d7 11 97 3d
       0.072179966 0.06611284 0.053458996 0.073764496

encoder_z0.GRU_update.reset_gate.0.weight f4 [100, 42]
000000 07 b2 ae bc da e8 93 bd 1b 02 31 bd c5 47 b9 3d
       -0.021325124 -0.07222147 -0.0432149 0.09046892
000010 38 b2 33 bd db 1f 59 3d c8 4a 3f bc c3 36 44 3c
       -0.043871135 0.053008895 -0.011675544 0.011975947
000020 72 d9 d3 3d d1 73 96 bd 2f 30 8b 3d 26 b4 9c 3d
       0.10344209 -0.07346309 0.067963 0.07651548
000030 0f ff 9a bc c1 bc 0c be db 75 bf 3d 85 bb 60 bc
       -0.01892045 -0.13743879 0.09348651 -0.013716583
000040 6b 23 46 3d b4 4d 49 3e 66 f5 cc 3c 22 4c 07 3c
       0.04837362 0.19658548 0.025019359 0.008257898
000050 ca fc ec bd e2 84 a6 bd 0f a3 d8 bd ed 37 a0 3d
       -0.11571653 -0.08130814 -0.10577976 0.07823167
000060 28 06 15 3e 27 cf 54 3d ec 87 f4 bc 4d 7e bb bd
       0.1455313 0.05195537 -0.029849969 -0.09154949
000070 39 0b b9 bd 06 2e 2e 3e 47 cf 62 3d c3 ea 76 3e
       -0.09035344 0.17009744 0.055373456 0.24112992
000080 42 fa 9a 3d b1 0d 09 3e 31 e8 4c bd 51 8d b9 3d
       0.07567264 0.13384129 -0.050026122 0.09060157
000090 9f 98 c0 3c f8 3e a2 bb b2 c1 07 bc a6 57 e4 3c
       0.023510275 -0.004951354 -0.008285927 0.027873825
0000a0 36 5f 69 3e d5 6a e1 3c 62 46 cb bd 9e 0f c2 bd
       0.22790226 0.027516762 -0.09925534 -0.09475635
0000b0 0c 8d 84 bd 2e 61 37 be ec b7 29 3d 18 fe 85 be
       -0.06472215 -0.17908165 0.041435167 -0.2617042
0000c0 b1 ed 0f be d8 c5 d7 3d b5 69 1b 3b 8b 84 1d be
       -0.14055516 0.105357826 0.002371413 -0.15382592
0000d0 26 26 5f be 2a 73 be bd 81 4a 24 3e 88 d9 63 bc
       -0.21791896 -0.092993096 0.16044046 -0.013906844
0000e0 de e6 da b9 f7 b2 00 bc c8 93 d9 bc 71 91 d3 3d
       -0.0004175221 -0.007855169 -0.026559725 0.10330475
0000f0 05 b4 c2 bc a8 ea 68 bd 0f 01 b2 bc 3b a5 47 be
       -0.02376748 -0.05686441 -0.02172902 -0.19496624
000100 5a 1d 44 3e a8 0e 68 3d ca ae 41 bd 82 c6 0c be
       0.19151822 0.056654602 -0.047285832 -0.137476
000110 b0 f1 2b 3d 0e 2b 68 bd 40 63 53 3e 97 84 93 3d
       0.041978538 -0.056681685 0.2064333 0.07203024
000120 74 fa d3 3c d6 47 c7 bc 3a db 10 3d e2 c5 00 be
       0.025876261 -0.024326246 0.03536532 -0.12575486
000130 5f b9 ab 3b 23 7d 73 3e d0 6e aa 3d e8 89 d7 3d
       0.005240604 0.23778205 0.08321917 0.105243504
000140 73 cf 71 bd 57 62 79 3d 8a 2f 38 3d 40 fd 84 3d
       -0.05903573 0.0608848 0.04496721 0.06493616
000150 e0 40 ef 3d 44 11 6d 3e d9 40 cc bb 90 45 f0 bc
       0.11682296 0.23151118 -0.0062333164 -0.029330045
000160 98 9e 12 be 31 36 0e bd e4 c2 12 be a6 6d 66 bc
       -0.14318311 -0.03471965 -0.14332157 -0.014064228
000170 1c 74 10 3d 75 dd 0e be c0 2f b9 3d 4b f3 71 bc
       0.03526698 -0.13951667 0.09042311 -0.014767478
000180 47 fa 43 3d 76 12 ac bd 47 70 e2 bd c3 6d 83 bd
       0.047846105 -0.08401959 -0.110565715 -0.0641742
000190 81 9c b3 bd f4 34 c2 3c ab 4c 0d 3d 2f 60 1e 3d
       -0.08770085 0.02370689 0.034496944 0.038665947
0001a0 7f d6 e0 bb c9 a4 f4 bc d8 ef 95 3d b9 8d 43 bd
       -0.0068615074 -0.029863732 0.07321137 -0.04774258
0001b0 99 f2 43 3c dd d8 7d bd ab e9 59 bd 02 3f 21 be
       0.011959695 -0.061974395 -0.05320136 -0.15746692
0001c0 a1 a3 8f bd 94 40 83 bb 1f 75 f6 3d 22 26 ce bc
       -0.070136316 -0.004005501 0.12034058 -0.025164668
0001d0 a9 39 a9 3d 8c 6a b2 3d 52 50 e2 bd 14 fd b3 3d
       0.08262951 0.087117285 -0.11050476 0.08788505
0001e0 75 46 cd bc 49 65 b0 3d 8b 26 09 3d 68 61 11 3d
       -0.02505801 0.086130686 0.033484023 0.035493284
0001f0 56 6d ae bd ed 9e a6 bd 43 bb 51 3e 64 6f 84 3d
       -0.08516948 -0.081357814 0.20481591 0.064665586
000200 38 54 87 3d 5a e8 1e be bf 98 63 bc 74 df 73 3d
       0.0660786 -0.15518323 -0.013891398 0.059539273
000210 24 89 57 3d 08 ad 05 3e c3 56 8c bd 55 5c 4e be
       0.052621022 0.13054287 -0.06852486 -0.2015241
000220 56 69 34 3e b1 06 44 bd 2a 08 29 3d 2d 59 03 3e
       0.17618307 -0.047857944 0.04126755 0.12826987
000230 78 e9 cc bc 37 3b 0d be ee ce d6 3c 8d 85 10 bd
       -0.02501367 -0.1379212 0.026221719 -0.035283614
000240 5a 03 0d 3c cb 8f cd 3d 3a 60 16 3d f1 44 1a bd
       0.008606756 0.10037192 0.036712863 -0.037663404
000250 65 66 3f 3e 24 01 41 3d 00 e9 d0 bd c4 94 fb 3d
       0.18691404 0.04712023 -0.10200691 0.12284234
000260 1a 5b 22 be 8f 86 1f be ec 5b 4d bc a5 73 82 3d
       -0.15855065 -0.15578674 -0.012534123 0.06369714
000270 3e 26 bb 3c ba 31 6f bd 13 37 68 3d 52 9a 79 3e
       0.022845384 -0.058397032 0.056693148 0.24375275
000280 7f fb a1 3c ba b6 ae bd e4 80 f3 bd 72 3b 7f bd
       0.019773243 -0.08530946 -0.11889818 -0.06231255
000290 70 85 84 3d 2b 1a 2a 3e 5c 18 e8 3a 04 28 02 3e
       0.06470764 0.16611545 0.0017707455 0.12710577
0002a0 0e d5 49 3d d7 76 b2 ba bc 08 e4 bd d9 83 00 bb
       0.04927545 -0.0013615739 -0.111344784 -0.0019609837
0002b0 88 c4 ef 3d c8 76 05 bd 45 f3 5f 3b a9 99 2e be
       0.11707407 -0.03258398 0.00341721 -0.17050804
0002c0 2a b3 84 bd 2c 03 12 3e 6d 6d af bb bb a7 de bd
       -0.06479485 0.14259022 -0.0053536207 -0.10871836
0002d0 90 7a 66 bd 43 0f 07 3e 3f 47 12 bc a5 4e 52 3d
       -0.05626923 0.13189416 -0.008928119 0.051344533
0002e0 d0 43 c1 bd 47 34 8c bd 33 7b 3d bd 4c 06 ae 3c
       -0.09436762 -0.068459086 -0.04626007 0.021243237
0002f0 00 d6 ff 3c e5 f4 87 3d 6c a5 fe bc 25 b5 25 3e
       0.031229973 0.06638507 -0.031084739 0.16182382
000300 1d 4e c3 3d 07 3c 57 3e fa 3d 18 bd 75 6a 06 bd
       0.09536383 0.21018992 -0.03716848 -0.03281637
000310 98 6d 8e bb e3 11 9f 3d 7f ad 1e be c0 8c b2 3d
       -0.0043465607 0.077670835 -0.15495871 0.08718252
000320 73 58 8a bd 9a 4f 26 3d 23 bb d8 3b a5 f2 69 3d
       -0.067551516 0.040603258 0.0066141053 0.05711617
000330 2c 4e 6e 3e 81 c4 95 bd f9 96 27 3e b6 6d 1c be
       0.23272008 -0.07312871 0.16366185 -0.15276226
000340 c1 d9 7a bc bb d7 87 3d 8c 3d 67 3d a9 bb 7f bd
       -0.015310706 0.06632944 0.05645518 -0.062434826
000350 e8 4c 1a be 9c 76 71 bd ef 18 d1 3d b6 a4 f9 bd
       -0.150684 -0.058951005 0.10209834 -0.12189619
000360 58 07 dd bb f7 7a da 3d 1d 7a 73 3d 2b ce c1 3d
       -0.00674526 0.10667985 0.05944263 0.094631515
000370 74 96 e4 3d aa c9 ef bc 99 7f bf bc a4 86 60 3c
       0.11161509 -0.029270966 -0.023376273 0.013703976
000380 fd 33 f6 bc ec 24 f4 bd 4f db 83 bb 51 b2 79 bc
       -0.030054087 -0.11921105 -0.0040239464 -0.015240268
000390 af 62 c2 bd b2 cf 53 be 4d 90 f0 bc de 05 0f 3d
       -0.09491479 -0.20684698 -0.029365683 0.034917705
0003a0 67 2e 5e 3d 3c 8d 0f 3d 0b f5 b3 bd 59 2c 71 3d
       0.05424347 0.0350468 -0.087869726 0.058880184
0003b0 d0 79 1d 3e 69 2b f1 3c a9 e3 c1 bc 04 82 89 bd
       0.15378499 0.029439645 -0.023668127 -0.06714252
0003c0 12 03 a7 bd 72 21 9e 3d 7d 9e 86 3d c3 a5 dd 3d
       -0.081548825 0.07721223 0.06573198 0.10822632
0003d0 b3 2a 5e bd 87 83 a7 3c 5c 9e a5 bd 1e 75 24 3d
       -0.05423994 0.02044846 -0.08086845 0.040150754
0003e0 cc 82 54 3e fa 45 2c 3e fb 06 9e 3b a3 83 0e bd
       0.2075302 0.16823569 0.0048226095 -0.034793507
0003f0 a2 c7 cf 3d 0b 34 b1 ba a4 20 8e bc 5c 2b 02 be
       0.10145499 -0.0013519538 -0.017349549 -0.12711853

encoder_z0.GRU_update.reset_gate.0.bias f4 [100]
000000 5d 57 17 3d 75 d2 a5 bc 13 a2 0a 3d c2 b2 91 3c
       0.03694855 -0.020241955 0.033845972 0.017785434
000010 96 8c 80 3c f8 0d 62 3c 72 51 ee bb 24 0c e3 3c
       0.015692037 0.013797276 -0.0072728926 0.02771575
000020 4d 18 4c 3c 69 21 46 bc 09 62 bf 3b f4 2d 99 3c
       0.012456966 -0.012092927 0.005840544 0.01869867
000030 ed 45 be 3c 6f e9 33 3b 38 38 91 bb c6 f8 d7 bc
       0.023226703 0.002745237 -0.0044317506 -0.026363742
000040 6e 31 ce ba 03 1b de bc 1c 2b 06 bc 88 7c 44 bb
       -0.0015731284 -0.02711249 -0.008188989 -0.0029981453
000050 65 81 37 bd b6 ad 13 bc de d6 c1 ba 4b 5b bb bb
       -0.044801135 -0.009013584 -0.0014788767 -0.00571767
000060 c4 75 b8 bb 24 f8 da 3c 36 e7 62 bc d4 de fa 3b
       -0.005629273 0.02672965 -0.01384907 0.0076559577
000070 d8 62 ca 3c c2 f9 c2 bb 72 e7 5c 3c b9 e0 04 bc
       0.024705335 -0.0059501836 0.013482915 -0.008110219
000080 17 a5 db 3c 9d e8 b8 bc 47 dd e9 bc 6b cf ef 3c
       0.02681212 -0.022571856 -0.028547896 0.02927371
000090 e9 5f d1 3c f7 f6 bc bc 76 39 0c 3d 1b 20 c6 39
       0.025558429 -0.02306698 0.034234487 0.00037789423
0000a0 bc 4f ae 3c 36 9e f4 3c ed 8c 43 3b d5 78 96 bc
       0.021278255 0.029860597 0.0029838637 -0.018368164
0000b0 0f b1 99 3c 3a f6 d6 3b 06 06 c8 bc 5e 99 07 3c
       0.018761186 0.006560114 -0.024416935 0.008276312
0000c0 54 a3 42 bc dc 9f 0f 3d 3a a8 c4 bc 9f 6c 32 3c
       -0.011879761 0.035064563 -0.024005998 0.010890155
0000d0 2d 49 73 3c ea bc ec ba fc a9 26 bd 55 60 bf 3b
       0.014848989 -0.0018061672 -0.040689453 0.005840341
0000e0 fa bc 63 3c cc ee 38 3d 10 49 d4 bb 48 cf 28 3c
       0.013900036 0.04514961 -0.0064784363 0.010303326
0000f0 3b 40 9c bb 8d 78 d8 3c b8 cd af bc bd 43 c1 bc
       -0.004768399 0.02642467 -0.021460399 -0.02359187
000100 09 c6 82 bb f4 5f 10 bc c8 a5 a5 3c 80 9c 9e 3c
       -0.003990893 -0.0088119395 0.020220652 0.019361734
000110 65 d3 d1 bc a2 32 5c bc 8b 07 46 bc 5f 82 70 bc
       -0.025613496 -0.013439806 -0.012086759 -0.01467952
000120 eb 97 d2 bc 87 aa ee bb f2 14 1f bd fb 8c f6 bb
       -0.025707206 -0.007283512 -0.038838334 -0.0075241304
000130 35 ea 92 bb 2f 0a a0 3c 23 d8 57 3c 2d 93 f5 3b
       -0.004483486 0.019536106 0.01317409 0.0074943514
000140 93 ba db ba f9 7e c4 3c 09 d3 b0 bc c7 78 de ba
       -0.0016763977 0.023986327 -0.021585004 -0.001697325
000150 a6 71 92 bc eb 94 e1 bc e3 88 03 bd 23 d7 06 bd
       -0.017876457 -0.02753683 -0.032112967 -0.032920014
000160 e8 55 c6 3b 82 6c 22 bc e8 c9 91 bc b0 73 7d bc
       0.0060527213 -0.009913566 -0.017796472 -0.015469477
000170 23 74 be 3c b2 10 64 3c e6 ac b7 bc 50 78 35 3c
       0.023248738 0.013919996 -0.022421312 0.011076048
000180 d5 70 ba 3b d0 c6 11 3c d8 4c 45 b9 72 ab ce 3c
       0.00568972 0.008897498 -0.0001881601 0.025228236

encoder_z0.GRU_update.reset_gate.2.weight f4 [20, 100]
000000 56 a0 d2 3b 5e c8 4a 3e ed f9 96 bc 06 9c 23 be
       0.006427805 0.19802997 -0.01842972 -0.15977487
000010 11 04 f3 3c 30 bf 26 3c ab 23 1b 3d b1 16 e2 bd
       0.029665025 0.010177419 0.037875813 -0.11039484
000020 bb d7 dc 3c 0a 00 c0 3d 6f 95 33 3c 7b e4 ba 3d
       0.026958337 0.093750075 0.010960921 0.091256104
000030 f4 32 07 bd 0f 71 e1 bc 15 d6 3f 3e f6 2f b6 3c
       -0.033007577 -0.02751973 0.1873401 0.022239666
000040 a5 b4 17 be 8c 96 27 bd 81 bf ce 3d 06 51 d7 3b
       -0.14815004 -0.040915057 0.1009512 0.006570938
000050 cd ca a2 bb ed 8f ed 3c f1 74 08 3a d3 96 f5 bd
       -0.0049680234 0.028999293 0.0005205414 -0.11991658
000060 7d 21 d3 bc 86 36 1f 3e 0a 46 1e 3e c7 eb b2 bb
       -0.025772804 0.15548143 0.15456405 -0.0054602358
000070 0d 20 38 be a5 b4 6f 3c 37 6e ed 3d 32 88 bd bc
       -0.17980976 0.014630471 0.115932874 -0.023136232
000080 83 4a af 3d f7 a0 a4 bb 85 8c 60 bd 38 b1 1b be
       0.08559134 -0.0050240713 -0.05482151 -0.15204322
000090 8c 7e 16 be 7f 56 1f 3e 40 14 74 bd 83 53 fd bb
       -0.14696711 0.1556034 -0.059589624 -0.0077309026
0000a0 dc e8 ab 3d 49 8a 40 bd e7 0e f2 bc ae c0 0b 39
       0.08394024 -0.04700688 -0.029548122 0.00013327852
0000b0 c0 89 74 be 83 3b 61 bd 56 e9 01 be 5a 71 d8 bd
       -0.23880672 -0.054988395 -0.12686667 -0.10568495
0000c0 a7 e2 d1 bd 8b 99 ee bc 50 0a 2d 3d 83 44 e0 bc
       -0.10248309 -0.02912595 0.042246163 -0.027376419
0000d0 45 a0 a1 bc ae 07 d1 3c 87 63 ec 3d 6d 53 33 3e
       -0.019729743 0.025516357 0.11542421 0.17512293
0000e0 89 c7 54 3b 44 a2 74 3d 55 29 b3 3d da da be bd
       0.0032467565 0.05972506 0.08748118 -0.093190864
0000f0 57 37 29 be 00 25 52 3e 02 d4 04 3b 9b be a9 bd
       -0.16525017 0.20521927 0.0020267968 -0.08288308
000100 02 75 72 3d df ca a4 bd 2c d8 86 3d cd 98 85 3d
       0.05919362 -0.08046507 0.065842 0.06523285
000110 ff 2d f3 3d 4f 99 89 bd 12 79 0b 3e 8d d3 81 be
       0.118740074 -0.067186944 0.13620403 -0.25356713
000120 70 87 f7 bd 4f 43 42 3e f5 32 7a be 2e ef b2 3d
       -0.120863795 0.18970989 -0.24433501 0.08737026
000130 29 1a 6c 3d 9c 85 a1 bd 42 f5 71 3d ad dd ee bc
       0.057642136 -0.07886812 0.059071787 -0.029158438
000140 db cd 84 bc 15 bc 38 be d8 98 20 3e 98 58 1a be
       -0.01621144 -0.18040498 0.15683305 -0.15072858
000150 13 e5 d0 3c f6 bf ac bd a0 05 08 be ef e6 f6 bd
       0.025499856 -0.08435051 -0.13283396 -0.12055766
000160 de b7 5d 3e d0 74 8c be c6 87 96 bd 52 0f 23 be
       0.21652171 -0.2743287 -0.073501155 -0.15923813
000170 ee 6b be bc 3b 4f 1c bd 48 56 4d 3d d0 be 4f 3e
       -0.023244824 -0.038161498 0.050131112 0.20287633
000180 dc 57 08 bc 5c 59 29 be 03 ec 29 be e8 a9 49 3e
       -0.008321729 -0.16537994 -0.16593938 0.1969372
000190 8f 8d 53 3e 70 39 8c 3b 94 4d 5f 3d fd 48 55 3e
       0.20659469 0.004279308 0.054517344 0.20828624
0001a0 92 aa 78 bd be 57 96 bd e7 3c 29 be 44 c9 1a be
       -0.060709544 -0.07340954 -0.16527139 -0.15115839
0001b0 45 7b 64 bd b4 70 1f be 01 a2 e0 3c b0 88 44 3d
       -0.05578162 -0.15570337 0.027421 0.047981918
0001c0 6d f7 c2 bd fb a6 f6 bd 74 92 f8 bc 87 54 e3 3d
       -0.09519849 -0.12043568 -0.030343272 0.11100107
0001d0 d5 72 c9 bd 82 f0 f1 3c 0c cc cb bd 54 ae 8f bd
       -0.098363556 0.029533628 -0.09951028 -0.07015672
0001e0 dd 52 27 bd 4f 04 64 ba 52 d2 0e be 70 f2 b0 ba
       -0.04085051 -0.0008698152 -0.13947418 -0.0013499986
0001f0 73 c1 93 3d 52 6a f3 3b a1 cf 6b be 1c 05 ab be
       0.07214632 0.007428446 -0.23028423 -0.33402336
000200 b4 da d7 3c c3 2a 49 3c 39 f7 75 bc 9b fc 72 3d
       0.026349403 0.012278262 -0.015012556 0.059322935
000210 40 07 36 3e b0 46 de bd ed c6 15 3e c7 a4 3d 3c
       0.17776203 -0.10853326 0.14626665 0.0115749305
000220 cc a4 58 3e 9d e2 43 3d 1f 75 a8 3d 81 9d df 3d
       0.21156615 0.047823537 0.08225464 0.10918713
000230 52 3b af bd 23 46 89 3d d0 97 2f 3e 15 2c 30 be
       -0.08556236 0.06702831 0.17147756 -0.17204316
000240 8d 7d 87 3d 24 84 9f bc 7a 39 cd 3c d3 14 8d 3d
       0.06615744 -0.01947219 0.025051821 0.068887375
000250 48 c6 03 be ce 71 45 bd 72 2a 1a 3d 9c 46 cd bd
       -0.12868607 -0.048204236 0.037638135 -0.10023233
000260 5b 17 c8 3d b0 a3 e9 bd 6f df 07 be e9 6d 6a bd
       0.0977008 -0.11408174 -0.13268827 -0.057233725
000270 69 08 45 bc 08 70 aa 3b 6b c9 45 bc 4d ba 93 be
       -0.012025931 0.0052013434 -0.012071948 -0.28853074
000280 70 49 2c be af a8 2b bd 6a 2d 33 be 8e 70 38 3a
       -0.16824889 -0.041908916 -0.17497793 0.0007035815
000290 49 15 d0 bd 45 97 1d be 96 8f 95 bd 26 25 2f 3d
       -0.1016031 -0.15389736 -0.073027775 0.042760037
0002a0 cd 94 1d 3e f5 ad 10 3d 32 79 57 3d 9e 82 62 3d
       0.15388794 0.03532215 0.052605815 0.055300348
0002b0 09 23 f6 3c 94 4b 3d bd df 0c b9 bb 3c 89 09 be
       0.030046003 -0.046214655 -0.0056472863 -0.13431257
0002c0 c3 34 21 3d 4b fc a8 3c 3f 84 b2 bb 1b 11 33 bc
       0.039356958 0.020628115 -0.005447894 -0.010929371
0002d0 7a e8 42 3e 32 60 f4 bc 91 e3 1a be bd 9d 7c 3d
       0.19033995 -0.029831026 -0.15125872 0.06167387
0002e0 63 9b 1c 3d 59 12 c4 bd 23 ee 1a be 01 7e 1d 3d
       0.038234126 -0.09573812 -0.15129904 0.038450245
0002f0 a3 e4 1f bd e8 47 99 3d 1a 7d b3 bd 22 49 f1 bd
       -0.039036404 0.07484418 -0.087640956 -0.11781527
000300 58 3d fc 3d 7a bd 9e bd 72 95 e8 bc 90 81 d1 3d
       0.12316388 -0.077509835 -0.028391574 0.1022979
000310 27 6e f8 3c 7a 7a 6a 3e 36 f2 b8 3d af cc 0b be
       0.030325962 0.22898284 0.09030573 -0.136523
000320 29 2e b9 bd 1f e4 56 be c6 4f 89 bc 8e c6 c5 bd
       -0.090420075 -0.20985459 -0.016761672 -0.09657012
000330 80 7c 2d be f6 25 43 bd 84 c3 1f bc b1 dd 9c bd
       -0.16942024 -0.047643624 -0.009751204 -0.07659472
000340 3b 46 57 be 1f db 20 3e a6 c3 25 bd fa 5b ab bd
       -0.21022885 0.15708588 -0.040469788 -0.083671525
000350 2a 4d e4 3c aa 2e c4 bc 07 8e 0b bd 66 e6 b1 3c
       0.027868826 -0.023948032 -0.034070995 0.021716308
000360 ed ab 34 3d 61 4a 84 bb 75 24 f9 bd c2 f7 2d be
       0.044109274 -0.004037187 -0.12165157 -0.16989043
000370 b7 bb bb bd b9 8c e2 bc e2 b4 3a be 9f ab ba 3d
       -0.09166663 -0.027654992 -0.18233064 0.091147654
000380 c9 5f 64 3e 86 5f d5 bc 60 5e 4f bd bd 6f 53 be
       0.22302164 -0.026046526 -0.050627112 -0.20648094
000390 31 63 ce bc 5b 3f a1 3d 06 cb ab 38 8f 55 4a 3d
       -0.025193783 0.07873412 8.1917315e-05 0.049398
0003a0 2c b6 25 be f9 0e a7 3d 8e b5 3c 3c ed 60 07 3d
       -0.16182774 0.08157153 0.011517895 0.03305142
0003b0 44 09 f3 bd b6 56 12 3e 55 4d f5 bd 5a d1 90 bd
       -0.11867002 0.1429089 -0.119776405 -0.07071181
0003c0 a0 77 52 bd 10 09 8f be 62 57 cf bd 44 92 05 bd
       -0.051383615 -0.27936602 -0.10124089 -0.032610193
0003d0 80 e0 0d be 64 5e a2 3a c1 35 fd 3d ab 79 78 bb
       -0.13855171 0.001238775 0.12363768 -0.0037914317
0003e0 cb a8 90 3d f5 a7 0f 3d 11 b4 3f bd 17 c8 b9 bc
       0.07063445 0.035072286 -0.046802584 -0.022678418
0003f0 de 07 a6 bd 33 91 0b 3c 16 49 54 3e 5d 73 d6 3d
       -0.08106969 0.008518505 0.20731005 0.104712225

encoder_z0.GRU_update.reset_gate.2.bias f4 [20]
000000 e5 2f 60 bc dc b0 17 3c 50 02 1f bd 08 84 40 3c
       -0.013683294 0.009258475 -0.038820565 0.011750229
000010 4d 0b 80 bc 91 27 d2 bc 8d ee aa 3c 20 b0 9b bb
       -0.015630389 -0.025653632 0.020865703 -0.0047512203
000020 36 c1 99 bb b0 d4 9b bc 8c 61 c2 3c f1 54 fd 3b
       -0.004692222 -0.019022316 0.023728155 0.007731073
000030 82 e7 e6 3c 53 d4 85 bc 12 f6 d7 3c c4 94 6e bc
       0.028186563 -0.016336596 0.026362453 -0.014561836
000040 c9 5f a3 3c ec d0 2b 3c 35 40 da 3c 2a 34 cf 3c
       0.019943135 0.010486823 0.026641944 0.025293428

encoder_z0.GRU_update.new_state_net.0.weight f4 [100, 42]
000000 e7 08 51 3d 46 84 fb bd 2c 54 17 bd 57 9d 65 be
       0.05103388 -0.122810885 -0.036945507 -0.22423302
000010 4d 0a 33 bd d3 c6 d3 bd e5 c5 0e 3b 87 d6 3b bb
       -0.043710995 -0.10340657 0.0021785435 -0.0028661804
000020 51 04 22 3e 50 f6 85 ba 25 0e 76 3c f3 c8 31 3e
       0.15821959 -0.0010220502 0.015018021 0.17361812
000030 47 b4 3f bd 96 0a 25 bd c7 22 c0 bd 99 a5 48 be
       -0.046802785 -0.0402933 -0.09381633 -0.1959442
000040 d8 e7 18 bd 9d d8 e9 bd 5c 93 d4 3c 37 12 0f 3e
       -0.03733048 -0.11418269 0.025949173 0.13971792
000050 27 31 cd bd 23 8e 60 bd 10 e7 b9 bd aa 43 c4 bd
       -0.10019141 -0.054823052 -0.09077275 -0.095832184
000060 60 2f e4 3d ab c1 99 bd 4d 76 59 3d c0 d8 cd 39
       0.111418486 -0.07507642 0.053091336 0.00039262138
000070 66 f9 36 be 80 1d 68 38 7b f9 15 be 35 ba 69 3c
       -0.17868575 5.5340584e-05 -0.1464595 0.014265587
000080 ca ec 14 3e cd cd 27 bd fd a9 a1 bd 90 4b 10 3c
       0.14543453 -0.04096775 -0.07893751 0.008807078
000090 97 41 92 bc c1 24 28 bd 44 d4 77 3d 7b be b1 3d
       -0.017853541 -0.041050676 0.060505167 0.086789094
0000a0 2f 88 a2 3d d5 8c 14 3e 2c 5d 22 3d 68 e7 a1 bd
       0.07936131 0.14506848 0.039639637 -0.07905465
0000b0 0f 49 92 3c 9d a1 fe 3d 11 0e d0 bd 89 21 0d be
       0.017857103 0.12433169 -0.10158933 -0.13782324
0000c0 04 19 a7 3d 51 0d f2 bd cc 09 51 be 9d 87 3d 3e
       0.08159068 -0.11818946 -0.20413893 0.18508764
0000d0 04 7f 11 be e2 b0 2f 3e e1 77 6b bd b7 80 6a be
       -0.14208609 0.17157319 -0.057487372 -0.22900663
0000e0 0c fd 08 bd 40 59 bc 3d e8 53 21 be f6 23 03 bc
       -0.03344445 0.091967106 -0.15754664 -0.008004179
0000f0 70 d9 0c bd 82 38 4c 3d 27 de b2 3d cc 80 6c bd
       -0.034387052 0.049858578 0.087337784 -0.057740018
000100 87 98 e7 bd ed dd 91 3d e0 23 8b 3d 1c 2d fe bd
       -0.11308389 0.07122407 0.06793952 -0.12410948
000110 f6 4c 46 be cd 3a 01 bd f0 e0 a5 3d 70 98 f9 3d
       -0.19365296 -0.031550217 0.08099544 0.12187278
000120 e4 06 16 3d 6b ad 46 bd 73 95 72 3d 66 9d 31 3d
       0.036627665 -0.048505228 0.059224557 0.043362997
000130 18 2a 93 bd 0b 23 38 3c e1 94 72 bd fe 5e 71 3d
       -0.07185763 0.011238824 -0.059224013 0.058928482
000140 fb 7d dc 3d d2 52 ca bc a9 58 2b be 2b 08 49 bd
       0.10766216 -0.024697695 -0.1673304 -0.049080055
000150 be 00 e7 3c 42 8d 29 be 1f 93 c2 bb 73 81 67 3e
       0.028198596 -0.16557792 -0.0059379484 0.22607975
000160 b9 42 c8 3c 39 85 12 3e 4d 1b f0 3b 1c 1e 6d bd
       0.024445878 0.14308633 0.0073274733 -0.057890043
000170 0c 49 39 bc 3a 46 30 be b3 2e 56 bd 1b e7 22 3e
       -0.01130892 -0.1721429 -0.05229063 0.15908472
000180 62 cd 1c bb ef 50 55 3d 36 6f 74 bc ab 50 19 be
       -0.0023926129 0.052079137 -0.014919093 -0.14972179
000190 96 cb d9 3c 47 e8 d0 3d 3a 74 b1 bd ac aa 18 3e
       0.026586335 0.102005534 -0.086647466 0.14908856
0001a0 6b 6c 18 3c 73 72 3f 3d 17 ed ac bd 5a ee c0 3d
       0.009303193 0.046740007 -0.08443659 0.09420462
0001b0 a0 2d c5 bb 02 0e e9 3d 37 2a 0f bc fc fd 2e 3e
       -0.006017402 0.11379625 -0.008738092 0.17089075
0001c0 69 29 f9 3d 77 e3 68 bc be 28 63 3d 54 d7 fb 3d
       0.121661015 -0.014214388 0.055458777 0.1229693
0001d0 80 48 2b 3e 03 2a 99 3d 61 ed bd 3d ca 98 aa 3d
       0.16726875 0.07478716 0.09273792 0.083299235
0001e0 6b 12 e7 3d 61 e5 08 3e 71 90 eb 3d 6b 4b c1 3d
       0.1128281 0.13368751 0.115021594 0.09438213
0001f0 21 9e 0f 3d ac f9 1f 3e 91 26 db bd ae 53 e5 bd
       0.035062913 0.15622586 -0.10700715 -0.11197601
000200 08 e5 0d be 4d 7b 74 3d 60 ec e0 bd 97 63 11 3d
       -0.138569 0.0596879 -0.10982585 0.035495367
000210 e9 3b c8 3c 7a c8 ec 3d bd ae 01 be 66 8e 2c 3e
       0.02444263 0.11561675 -0.12664314 0.16851196
000220 6f d0 83 3c a7 52 a0 bd 49 16 5f bd 14 83 2f bc
       0.0160906 -0.07828265 -0.054464612 -0.010712404
000230 0d 9a 94 3d 62 cd e0 bc 4f da db 3d e3 a9 60 bd
       0.07255945 -0.027441684 0.107349984 -0.054849517
000240 b0 dd 1a bd d3 b8 b5 3d 8f e7 ca bd 6b e7 11 3e
       -0.037809074 0.08873143 -0.099074475 0.14248435
000250 c7 f9 ec bc 42 79 46 be 33 35 a0 bd 33 52 ed bd
       -0.028927697 -0.19382194 -0.07822647 -0.11587944
000260 0c 93 c3 bd f8 0e 74 3d 1c 3f 85 bc 6a 6d 77 3d
       -0.09549531 0.059584588 -0.016265444 0.06040708
000270 e4 36 e8 bc 2a 86 78 bd 4e 40 31 bd 07 12 02 3e
       -0.028346486 -0.060674824 -0.043274216 0.1270219
000280 68 e0 d5 bd 4c fa 26 bd d5 fc 9b 3d 50 0e 6a 3d
       -0.10443193 -0.040766045 0.07616583 0.057142556
000290 84 a8 5c 3c b4 e5 d4 ba 93 e8 c4 3b 8a c4 f5 ba
       0.013467912 -0.0016242773 0.0060091703 -0.001875059
0002a0 62 8a 39 3d 4f ac 6f be 16 eb 27 3d dd d6 29 3e
       0.045297988 -0.23405574 0.04099568 0.1658587
0002b0 33 6e 06 3b c5 79 eb 3c 0c 74 62 3c 3d a1 55 bd
       0.0020512461 0.028744588 0.013821613 -0.052155722
0002c0 87 4e a7 3e 07 9e be 3c 1e 75 f4 3d 8d 54 db 3d
       0.326771 0.023268713 0.11936401 0.10709486
0002d0 cb 29 7b bd 4a fd b9 3b 52 c4 15 3d bc dc 2c 3e
       -0.061319154 0.0056759464 0.03656418 0.16881078
0002e0 9d 01 16 be f9 4b 8d 3d cc a6 9e bd 24 5c 24 bd
       -0.14649053 0.06899256 -0.07746658 -0.040126935
0002f0 46 8c 26 3e da 23 2f 3e 58 ac 99 3b 89 30 0a bd
       0.16264448 0.1710352 0.0046897344 -0.033737693
000300 de 9d 90 3d d7 0e 90 bd 35 e6 b1 bc ff 74 d7 bd
       0.07061361 -0.070340805 -0.021716217 -0.10520362
000310 19 d4 3a be ae 68 21 bc 3d 5c f1 bd 3a e3 c4 bb
       -0.18244971 -0.009851618 -0.11785171 -0.006008533
000320 2c cd 58 3e 92 62 0c bd 9f 91 25 3e 6b 23 70 3d
       0.21172017 -0.03427369 0.16168831 0.058627527
000330 37 55 50 be 58 00 8b bc 1b 0c 32 3c 74 7b 26 3d
       -0.20345007 -0.016967937 0.010867144 0.040645078
000340 c6 62 cf 3d 08 ea 95 3d d3 0c 1f bc a6 f1 73 3d
       0.101262614 0.073200285 -0.009707647 0.059556626
000350 c8 e4 a6 3d ab bd 5f 3c 45 5b 6e bd 6f 75 7d 3d
       0.08149105 0.01365606 -0.05819251 0.06187957
000360 37 95 10 be 0e 07 b0 bd bf 6f 7d 3d a0 e4 f4 bd
       -0.14119421 -0.085950956 0.061874148 -0.11957669
000370 3b d9 34 bd e1 6a 48 3e fc de 85 bd cc ac 3a be
       -0.04415248 0.19572021 -0.065366715 -0.1822998
000380 24 e9 88 bd b3 61 35 3b e8 4f 38 bd 8e 65 00 3e
       -0.06685093 0.0027676641 -0.04499808 0.1253874
000390 4f 8c b3 bd 4d 34 91 bd 0e b9 76 b9 c5 99 6e be
       -0.08766996 -0.07090054 -0.00023529326 -0.23300846
0003a0 47 00 9b 3d 35 3d 21 bd b1 b2 89 3c 25 f1 d6 bd
       0.07568412 -0.039365012 0.01680884 -0.104952134
0003b0 48 87 91 3d 25 be 08 bd 6a 9f dd bd 8a 09 ac 3c
       0.07105881 -0.03338446 -0.108214214 0.021000642
0003c0 ab 7d ca 3c ba 86 24 3b f7 da 1e 3e 12 3a a0 bd
       0.024718126 0.0025104717 0.15513216 -0.07823576
0003d0 de b2 dc 3c a9 c3 69 3c 78 cf e5 bc d1 fa 29 be
       0.02694076 0.01426784 -0.02805303 -0.16599585
0003e0 53 b5 ac bd e8 b9 84 3c 11 47 69 3c 31 23 58 3d
       -0.08433022 0.016201928 0.014238135 0.052767936
0003f0 af fa 9c 3d da b7 de 3d 96 57 0c 3d 37 00 8e 3d
       0.076650016 0.10874911 0.034263216 0.06933635

encoder_z0.GRU_update.new_state_net.0.bias f4 [100]
000000 dd cc 79 bc d9 d6 df 3b 90 cb 78 3c 98 f5 3a 3c
       -0.015246597 0.0068310318 0.015185252 0.011411093
000010 e8 d4 4b bc 52 e0 07 bc 3c 9d 36 bc de c0 16 3c
       -0.0124408975 -0.008293228 -0.011145886 0.009201257
000020 2e b0 6d 3b d0 4a 88 3c 50 c2 23 3c 72 8b 2d bc
       0.0036268341 0.016637236 0.009995058 -0.010592328
000030 f2 9a 1b bc 6e 43 87 bc 29 bd 2f 3c 6c 49 c5 3b
       -0.009497391 -0.016511645 0.010726252 0.0060207155
000040 86 11 1e bc 47 06 57 bc aa 78 6b 3c 8e 00 97 3a
       -0.009647733 -0.013124055 0.01437203 0.0011520551
000050 11 80 66 3c 7a 04 57 bc 57 ac d7 3b cd 70 3d bc
       0.014068619 -0.013123626 0.006581824 -0.011562538
000060 4f bf 88 bb ae 20 86 bc b4 c4 f7 bc 1b 07 2e 3c
       -0.0041731964 -0.016373005 -0.030245163 0.010621811
000070 e9 69 18 3b b8 c9 ef 3b 88 e8 37 bc 74 60 a9 3b
       0.0023256487 0.007317748 -0.011224873 0.005168969
000080 3b 9f 1c 3c 1b 41 43 3c 18 36 90 3c 5c 1d 69 3c
       0.009559448 0.011917378 0.017603919 0.014228191
000090 4f aa 1d ba 69 5e 3a 3c e3 78 69 3c b2 80 41 3c
       -0.00060144527 0.011375048 0.014250013 0.0118104685
0000a0 be 8f cb 3b 2a 7c 25 bb fa 6f 3d 3c a0 36 4d 3c
       0.0062122038 -0.002525101 0.011562342 0.012525231
0000b0 b0 3d 22 3b c8 93 4a bb ed c9 65 3b 0e 8a 24 bc
       0.0024756007 -0.0030910838 0.0035062984 -0.01004268
0000c0 f8 a1 2a 3c 3c 87 3d bc 23 6f 47 ba 71 b4 87 bc
       0.010414593 -0.011567887 -0.0007607808 -0.016565533
0000d0 bf 77 51 3b a9 9a 20 3c 1a 6e be ba b8 63 3b bc
       0.0031962243 0.009802499 -0.0014528662 -0.011437349
0000e0 2b 06 74 3c 20 c2 9f bc c8 b4 18 3a ea 42 45 bc
       0.014894049 -0.019501746 0.00058252783 -0.012039879
0000f0 b3 d8 92 3b 2d 2a 8e bc a8 f6 62 ba 6e e8 21 3b
       0.004481399 -0.017354095 -0.00086579705 0.002470519
000100 7d fb 56 ba a1 f0 6b 3c e5 3f fd bb 8b 13 8b 3b
       -0.0008200927 0.014400632 -0.007728564 0.004244273
000110 c8 59 9c 38 c9 ec 1a 3b 89 87 52 3c b3 5f f5 bc
       7.455383e-05 0.002363967 0.012849697 -0.02995286
000120 46 e3 10 bc 7d 0d a0 bb 35 2d f3 36 0e 65 3a bc
       -0.008843249 -0.0048844204 7.247227e-06 -0.011376632
000130 ac e9 16 b9 d5 49 6b 3c 2a 31 b3 bb ed 6f 04 3c
       -0.00014392164 0.014360865 -0.0054685073 0.008083326
000140 ba 0f 37 3b 93 53 7d 3b 39 1f be 39 ea a4 fd ba
       0.0027932958 0.003865455 0.00036262887 -0.0019351516
000150 f0 73 bb 3b b8 97 4c bc a2 ce 9b 3c b5 ec 1a 3b
       0.005720608 -0.012487344 0.019019429 0.0023639624
000160 e0 ab 57 bb 67 50 cf 3b 76 63 1c bb 40 a6 fc 3a
       -0.0032908842 0.0063267234 -0.0023862994 0.001927562
000170 c0 f6 c0 ba 8c d7 83 bb 84 f8 a6 ba e9 65 2e 39
       -0.0014721975 -0.004023498 -0.0012738858 0.00016631898
000180 25 50 b7 bc c1 cd 36 3b 01 55 1a 3b d3 7e 16 bc
       -0.022377083 0.0027893635 0.0023549201 -0.009185511
