generative_ts/saves/251001_040906_VRNN_stdY0.1/model_VRNN.pth (torch, 52578 bytes, 60 tensors)

phi_x.0.weight f4 [10, 1]
00000000: 9a6b 463f e01f 7cbe 4035 7c3f d41f 133f
00000010: 15dd 8a3e cb88 2b3f 3e9e b23e 3b94 763e
00000020: 0042 143b 6040 03bf
0.77507937 -0.24621534 0.98518753 0.5747044 0.27121797 0.67005605 0.34886354 0.24079983
0.0022622347 -0.51270103

phi_x.0.bias f4 [10]
00000000: 3f41 61be 414f d93e 1c09 213e 790c 8cbe
00000010: b47d f23e 30a6 fb3e 15a2 4d3f 951b a13e
00000020: f003 acbe 096d abbd
-0.21997546 0.42443278 0.15726131 -0.27353266 0.4736153 0.49150229 0.8032544 0.31466356
-0.33596754 -0.08370406

phi_x.2.weight f4 [10, 10]
00000000: 1210 2e3e 2102 ff3e f2b2 703e d551 1cbe
00000010: 7485 6d3e 5e6d 863e a84c b33b 8892 673c
00000020: f2d9 883e 23e5 dc3e f05c 913d 72dd f73e
00000030: 35aa 33bd b1b8 9fbd 3ca7 34be ef0f a73e
00000040: def7 c23e e2bd 223e b23c 44bd ad53 50be
00000050: 3e46 d23d 1f42 f0bd 2576 673e e531 7abe
00000060: e16b fb3e 0832 27bd cda1 043f bc25 8b3d
00000070: 4c8f 88bc e751 81bc 642d b5be 7b02 1d3f
00000080: aacb 213e 264f 51be d48c 21be 9c66 5fbe
00000090: 1740 d13e 4a6d 703e 1894 f83c 704a 413e
000000a0: b352 22bb 91cf b5bc 004f d53e cca0 933e
000000b0: 24a0 883d b964 953e ba4c 0c3f 5512 e73e
000000c0: c6a1 8a3e c82a 35bd ad8b d339 f525 c6bd
000000d0: 6801 30be 182f 6d3d ffc9 a8be a322 ecbd
000000e0: 62e7 3abe 758b 3b3b 0ec1 f43b 7d54 7c3d
000000f0: aed3 dc3d c04b 503e e09b b03c a033 8ebe
00000100: 62f3 883c f3f2 5fbe 344d 55be 4d1b 82bd
00000110: 74af 923e ee87 a63c 2118 bf3e 2442 993e
00000120: 5f81 b13e 53bd 94bb 3571 4a3d 44d4 d03e
00000130: c11c 7a3e d186 f5bd e196 633e 8825 84be
00000140: 80e9 d7bd bd2a b03e 1ba2 77be 3eb3 bdbe
00000150: 947e f9bc b35c cd3e 4d58 e43d e577 213e
00000160: 91ff 4abe 8288 863e dd52 b53c 82c2 bd3e
00000170: 4405 8dbe 0d68 7fbd 570f ff3d fcb6 6bbd
00000180: 78b4 14bd 8e0c 8bbe 2447 463e 1101 023f
0.16998318 0.49806312 0.23505762 -0.15265591 0.2319544 0.26255316 0.0054717846 0.014134057
0.2672878 0.43143567 0.070978045 0.48411137 -0.043863494 -0.07798899 -0.1764192 0.32629344
0.38079733 0.15892747 -0.047909446 -0.2034442 0.10267304 -0.117313616 0.22603662 -0.24433096
0.49105743 -0.040819198 0.5180939 0.06794307 -0.016669892 -0.015786124 -0.35386193 0.6133191
0.15800348 -0.20440349 -0.15776378 -0.21816486 0.4086921 0.2347919 0.030344054 0.18876052
-0.002476853 -0.022193702 0.41661835 0.28833616 0.066711694 0.29178408 0.54804575 0.45131174
0.27076548 -0.044230253 0.00040349123 -0.096752085 -0.17188036 0.05790624 -0.3296661 -0.11530044
-0.18252328 0.0028617058 0.007469303 0.06160401 0.10782562 0.20341396 0.021558702 -0.27773762
0.016717616 -0.21870022 -0.20830232 -0.063528635 0.28649485 0.020328488 0.37323096 0.29933274
0.34669015 -0.004539171 0.04942437 0.40786946 0.24425031 -0.11988605 0.22225524 -0.25809884
-0.105425835 0.34407607 -0.24182932 -0.37050813 -0.030455865 0.40109786 0.111496545 0.15768392
-0.19824053 0.26276022 0.022134239 0.3706246 -0.2754308 -0.06235509 0.12454098 -0.057547554
-0.03630492 -0.27158016 0.19363075 0.5078288

phi_x.2.bias f4 [10]
00000000: 31d1 063f 5047 eabd ec22 0a3e baa0 463e
00000010: e2d5 913d 7406 be3e 673c 96be 4c78 18b9
00000020: f45b 16bd a7ee 343e
0.5266295 -0.11439383 0.13489884 0.1939725 0.07120873 0.37114298 -0.29342958 -0.00014540664
-0.036708787 0.17669164

phi_z.0.weight f4 [10, 1]
00000000: 4c36 eabe 1440 d2be a3fe 01bf d159 6dbf
00000010: 6cad 243f cb61 21bf 3517 523f c16c 163f
00000020: d278 8f3f 5ae9 49bf
-0.4574455 -0.41064513 -0.5077917 -0.92715174 0.6432712 -0.63039845 0.8206666 0.58759695
1.1208746 -0.7887169

phi_z.0.bias f4 [10]
00000000: 6ba8 133e f45d 003e 6331 a1be d0a2 0e3e
00000010: 755e 7dbf 6326 d13e 940a c5be cf5f d9bd
00000020: 8a88 39bf 5abb 8f3f
0.14419715 0.1253584 -0.31482992 0.13929296 -0.98972255 0.408496 -0.38484633 -0.10613977
-0.7247397 1.122905

enc.0.weight f4 [10, 20]
00000000: 19fc b83e 68e7 94bd 3ace 513e 66a4 5b3e
00000010: dad5 83be 4904 923e 8424 aebd 1091 2bbe
00000020: 2557 b53e 0358 7c3e f11b b23d 26ec 533e
00000030: a27f 8cbe f6c5 26be c37e ba3a 8975 71be
00000040: 3eed afbe 8f50 75be bcef 80be 09c9 023d
00000050: 721f 043d 580e 13be 03a4 b33e 339d 2c3b
00000060: 39a7 983e e855 acbe c32a e33c 471b a03e
00000070: 2885 0fbe d0ab 4bbe a5f2 a93b a1c1 9d3e
00000080: 6410 923e 7812 933c fcce bf3e 44ca 9b3d
00000090: 5b0e 64be fa9c 27be d010 2b3e 8cb3 a1be
000000a0: 8536 d63e 0ebb a53e 9801 a83e bf8a 0d3f
000000b0: d24a 003e d9a0 be3d e1e5 41be de4f 1c3e
000000c0: 41fe f93e a2b5 c63e ab02 9ebe 7890 03bd
000000d0: 2ab5 02bd a18b a4be 30b3 943b e34b 9cbe
000000e0: 37ef 8dbe 5d82 79be 45c3 83be 375b 2b3d
000000f0: 76f8 913b 1905 f23c 2395 75be d687 523d
00000100: f5c4 9ebc 993a 443e 14b0 c03d 4826 ebbd
00000110: 17ce 4c3c aee2 f1bd 6339 58bd 28f5 62bd
00000120: e70a 0abe c225 92bc 28cc ddbd b9bb c438
00000130: 25e9 a83d ba78 d6bd 4052 1cbc d238 a0bd
00000140: 2e7f c13e 3124 f9bd 4728 25be 5805 e33d
00000150: 5ce2 9dbe 04bd b63e 14af b33d f78b c83c
00000160: ca9f bf3e 390b b73e 6724 bebd 6246 c9bd
00000170: 2422 583d 0159 c13d a929 34be 072a d5bd
00000180: 4f1f 30bd 9d7e 98bd 303a 39bd 1db9 583e
00000190: 09ec 28bd fb00 b83e 291a 713d 9ce1 24bd
000001a0: 45a2 a93e 0212 c9bd 6f39 95bd b001 2b3e
000001b0: 336b 71be d695 d9be 4e0f 0ebe 1d31 aa3e
000001c0: 6e7c 443e 1e1d 58be 47be a03e df7a 7e3e
000001d0: bf2c f3bd 1516 063d b16b a8be a08c c9be
000001e0: 1fcc 1d3e d8c8 253e e499 b83d 312a 843e
000001f0: c428 ab3d af77 87bd 4c22 0bbd 471e d9bc
00000200: 937a ee3e 6242 a23d 7770 48bc 4589 b03e
00000210: 977d 123d 3dbd 8abe a852 8bbc f1fe ebbd
00000220: 9034 abbe d812 78be e7dc 48bd 2799 3a3e
00000230: 3165 3f3e 8f82 b13e 3e1e 8c3b 4e81 10bd
00000240: bbdf 0d3e e567 6fbf 9ba6 22be 023e 803e
00000250: 9173 253f 5075 f0be 087c 923e 7d6c 3cbe
00000260: de00 35be a8cf c53d 19fd 73be e873 59be
00000270: 37f3 7c3e 586d 2e3e dae4 953e 81f6 a6bd
00000280: a54f 3bbe d1c8 0bbe fd28 2e3d cc2d 90bd
00000290: 5a2e 9d3d 3730 343e d86d 273b b9a2 ffbc
000002a0: d63e b0bd 977e 2cbe 4459 103e d9a2 52be
000002b0: 08c0 ac3d 23e3 0a3e a22a cbbd 9609 b03d
000002c0: a460 5dbd 67e3 72bd cb36 4b3c b499 213e
000002d0: 802b 083e 03dc f03d 4502 75be 7d74 b13e
000002e0: 9352 d23d 62ca 36bd 1d39 00be b0d6 b0bd
000002f0: d028 ca3e c7ff 823e 8a2e a5be fd18 42bc
00000300: ec89 4abe 1cdf 9ebe a898 4fbe 06f2 a8be
00000310: cd27 fdbd b680 c63d 0aab 773d da64 213d
0.36129835 -0.072707 0.20488825 0.21449432 -0.25749093 0.28518894 -0.085030586 -0.16754556
0.35418049 0.24642949 0.08696736 0.20695552 -0.27441126 -0.16286454 0.0014228452 -0.23579992
-0.3436069 -0.23956512 -0.25182903 0.031930003 0.03225655 -0.1436094 0.3508607 0.0026338815
0.2981508 -0.3365929 0.027730351 0.3127081 -0.14015639 -0.1988976 0.005186396 0.3081179
0.2852813 0.017953143 0.37462604 0.076069385 -0.22271101 -0.16368476 0.16705632 -0.31582296
0.4183847 0.32369274 0.32813716 0.55289835 0.12528542 0.09308023 -0.18935348 0.15264842
0.48826793 0.3881045 -0.3086141 -0.032120198 -0.031911053 -0.32137778 0.0045379624 -0.30526647
-0.2772157 -0.24366136 -0.25734916 0.041835036 0.0044546677 0.029543446 -0.23982672 0.051399074
-0.019381026 0.19162978 0.09408584 -0.11481911 0.0125003075 -0.11810814 -0.052789103 -0.05540958
-0.13480721 -0.01784027 -0.10829955 9.3809744e-05 0.08247594 -0.104722455 -0.009541094 -0.078233376
0.37792343 -0.12165106 -0.16128646 0.110850036 -0.3083676 0.35691082 0.08773628 0.024480803
0.37426597 0.3575075 -0.09284287 -0.098278776 0.052766934 0.09440804 -0.17594017 -0.10408407
-0.04299861 -0.074460246 -0.045221508 0.21164365 -0.041240726 0.35938248 0.05886284 -0.04025422
0.33131614 -0.09817888 -0.07286345 0.16699862 -0.2357605 -0.42497128 -0.13873026 0.33240595
0.19188091 -0.21104857 0.3139517 0.24851559 -0.11873769 0.032735903 -0.32894662 -0.393651
0.15409897 0.16189897 0.09013727 0.2581344 0.08357385 -0.06614625 -0.033968255 -0.026503695
0.46577892 0.07922818 -0.012233845 0.34479728 0.035764303 -0.27097502 -0.017007187 -0.115232356
-0.3343854 -0.24225938 -0.049038794 0.18222485 0.18690945 0.3466992 0.004276066 -0.035279565
0.13854878 -0.93517905 -0.15883867 0.25047308 0.64629465 -0.46964502 0.28610253 -0.1840076
-0.17676112 0.09658748 -0.23827018 -0.21235621 0.24702154 0.17033899 0.29276162 -0.08152486
-0.182921 -0.13650824 0.04251956 -0.07039985 0.076748565 0.17596518 0.002554765 -0.031205522
-0.08605735 -0.16845165 0.14096552 -0.20569934 0.084350646 0.13563208 -0.09920241 0.08595578
-0.05404724 -0.0592989 0.0124032 0.1578129 0.13297844 0.11760714 -0.23926647 0.34659186
0.10269656 -0.0446266 -0.12521787 -0.086346984 0.39484262 0.25585768 -0.3226207 -0.011846778
-0.19779176 -0.31029594 -0.20273077 -0.3299715 -0.12361107 0.096925184 0.06046585 0.03940282

enc.0.bias f4 [10]
00000000: c59a ba3d 6400 523e bbce 653d aed0 21be
00000010: cd53 57bc 2d20 813e 3cd6 683e c8ed 053e
00000020: f47b 42bc d6ac 603e
0.09111551 0.20507962 0.056105357 -0.15802261 -0.013142538 0.2521986 0.22737974 0.13078988
-0.011870373 0.21940932

enc.2.weight f4 [10, 10]
00000000: 543a aebe 03f7 0dbe 6c8b dd3d 89e7 643b
00000010: e29d 4abe d678 303e 3536 3cbe e3ad 193f
00000020: 18c7 9d3e 2633 963e 0274 f8bb 2c26 bebe
00000030: f029 063e be77 06be a5d6 6a3e 85ee 073e
00000040: f9ef 4f3e b73a 033d 59fb dcbd 61ae 6c3e
00000050: 4cfa 713e 998d 98be 5a96 003f 53fb 01be
00000060: 5205 e93d 94c7 95be 699e ce3e 37c0 223f
00000070: c19e 1c3d 6f88 a13e 5a93 02be 6be4 8a3d
00000080: 15ef b4bd 566b 423e cf20 0fbf dc69 043c
00000090: e353 bfbd 4606 e93e 8979 a1be cb48 8cbe
000000a0: fcea 87be a6e2 d2bd 23e4 633d d88a 173e
000000b0: b027 cbbd 0364 6c3b 1416 60be 8233 4b3e
000000c0: 6936 563e d5d9 efbc 569c 09bd b669 c63e
000000d0: 847e fb3d 384a c93d 26f1 363c 524c d13e
000000e0: d240 3bbc 821a 1c3f 27ca 45bd 322e 3fbe
000000f0: 2b0d 81be 4176 c23e fd34 893e 0fb1 633d
00000100: 99e6 debe 52ee 9d3e 7a8d aa3d 6a49 143f
00000110: bd8e e5bc 75fb 08bc 2f84 0ebe 4e2f 99be
00000120: d453 0cbd 3318 b93d 164b 1bbd cff9 7ebe
00000130: 7a09 76be 151b 423e f6a8 613c d714 94be
00000140: ef3d 8e3e 3240 bc3e 3d55 c53e 8cbd 393d
00000150: ff74 fabc 3162 be3e b997 133e a68b 833e
00000160: 7c55 953e 9c36 d4bc 1303 da3d 166c 6cbe
00000170: a3a3 46bd 9b56 0a3e 2ce4 56be bb9f 9dbc
00000180: 3170 1cbe 9d24 1dbe fa83 96be a37e 9cbe
-0.34028876 -0.13863759 0.10817608 0.0034928045 -0.1978679 0.17233595 -0.18380053 0.60030955
0.3081596 0.29335898 -0.0075821886 -0.37138498 0.13101935 -0.13131616 0.22933443 0.13274582
0.20306386 0.032038417 -0.10790128 0.23113395 0.23630637 -0.2979553 0.5022942 -0.12693529
0.11377968 -0.2925383 0.40355232 0.63574547 0.038237337 0.31549403 -0.12751523 0.067818485
-0.08834664 0.18986258 -0.55909437 0.0080818795 -0.09342172 0.455126 -0.31538036 -0.27399287
-0.26546466 -0.10297136 0.05563749 0.14799058 -0.09919679 0.0036070354 -0.21883422 0.19843867
0.20919193 -0.029278675 -0.03359636 0.38752526 0.1227999 0.09828609 0.011165893 0.4087854
-0.011429029 0.6097795 -0.04828849 -0.18669966 -0.2520536 0.37980846 0.2679824 0.055588778
-0.43535307 0.30845886 0.08327766 0.5792452 -0.028022164 -0.008360733 -0.13917612 -0.29918903
-0.034259632 0.09037819 -0.037913404 -0.24899982 -0.24027053 0.18955643 0.013773194 -0.2892215
0.27781627 0.36767727 0.38541594 0.04534678 -0.030573366 0.3718429 0.14413346 0.2569248
0.29166782 -0.025904946 0.106451176 -0.23088107 -0.0484959 0.135096 -0.20985478 -0.019241204
-0.15277173 -0.15345998 -0.29397565 -0.30565366

enc.2.bias f4 [10]
00000000: cba0 e7bd dbb2 8c3e 0bfe d33e 2a7f 023d
00000010: 0e8b bcbd e5d2 553b b50c 6f3e b8c1 8fbd
00000020: c952 813d 0e5f 4c3e
-0.11309966 0.27480206 0.41404757 0.031859554 -0.0920621 0.0032626924 0.23344691 -0.07019371
0.06314618 0.19958135

enc_mean.weight f4 [1, 10]
00000000: aaa4 bf3e dfca 90be 16f9 bbbe 79f9 723e
00000010: 45b7 b1bb 7e61 563e 07c7 c33e 6bb5 9fbe
00000020: f286 723c f573 edbd
0.37430316 -0.28279778 -0.36713475 0.23727979 -0.0054234588 0.20935628 0.38237783 -0.31193098
0.014802681 -0.11594383

enc_std.0.weight f4 [1, 10]
00000000: 2c68 1ebe 9813 c9bd e3d5 a5be 1697 083e
00000010: 2bc8 a9bc 87c0 91bd 54dc 31bd cded 17be
00000020: 0cb3 bebe 292f 1f3e
-0.15469426 -0.0981819 -0.32389745 0.13338885 -0.02072533 -0.071168 -0.043423012 -0.14836808
-0.37245977 0.15545334

prior.0.weight f4 [10, 10]
00000000: 1f8e 91be 07f8 2bbe c9dd 8d3d 60ca 38bd
00000010: 081d 8f3e 3108 893d 378d 31bb 39de 84be
00000020: a7c5 893b 6f75 e1be 0b12 943d 929b b13e
00000030: 1027 d4bc 8818 8abe da4b a9bc c815 efbd
00000040: 8f91 79bc 5dcb e5be 5114 b4be 66ed 0d3f
00000050: f71e 8bbe a4ac 77bd 5ec0 fd3e 4f74 a2be
00000060: fd5b a63e b7bf cc3e 57a9 5bbe 44a1 b53d
00000070: a850 2ebe 8f84 a8be 9623 933e f0c6 40be
00000080: 1e7a 56be baa6 813e 911f a23e 6966 d23d
00000090: a12f 61bd be93 61be 9738 92bd 0426 75bd
000000a0: eca4 ad3d 956c dabc 739e ba3d 2262 8ebc
000000b0: 3fe8 94be b5b5 be3c 083b dcbe 97a5 9fbe
000000c0: ed53 2dbe 7df7 123f 5c1a cd3d 570f 80be
000000d0: 3b6e 673c 61a3 8dbd c86c 70bc fa5b 433e
000000e0: fc90 2fbe 67e6 08be 8c39 303f 83ab a7be
000000f0: c1ae 943e 7ed3 ce3d c2b7 88be 0e47 a23d
00000100: 4ee5 403d 8a47 553e 78a2 6b3e 25c9 973e
00000110: c225 15be 861a 06be 55d6 62be ff28 a53e
00000120: 7652 003f 7020 45be 737b c33e f8d6 cc3d
00000130: ef1c b4be 4857 c1be 8d12 9f3e a0ef 9ebe
00000140: 376e 463c 6b3c df3b d033 b0be 7e4d 01bf
00000150: c025 4f3d 35eb 0abf e103 bdbe 6a26 8ebe
00000160: d4fa 2abe 7ee3 013f b337 313d f0a6 f93e
00000170: 7311 353e ba62 a2be 2712 043e 0420 a83e
00000180: 284c 39be 2681 e83d 129b 813e e777 b3be
-0.28428742 -0.16793834 0.06927068 -0.045114875 0.27951837 0.066910155 -0.0027092227 -0.25950792
0.00420447 -0.44034907 0.07230004 0.34689003 -0.025897533 -0.2697184 -0.020666052 -0.11674076
-0.015232458 -0.44881716 -0.3517175 0.55440366 -0.27172062 -0.060467377 0.49560827 -0.3172936
0.32492056 0.39990017 -0.21451317 0.088686496 -0.17022955 -0.32913634 0.28738087 -0.18825889
-0.20945022 0.25322515 0.31664708 0.102734394 -0.054977063 -0.22029015 -0.071397 -0.059850708
0.08478722 -0.026663104 0.09112253 -0.017380778 -0.2908344 0.023280004 -0.43013787 -0.31181023
-0.16926546 0.5740889 0.10014793 -0.25011703 0.014125402 -0.06915928 -0.014674373 0.19078055
-0.17145151 -0.13369142 0.6883781 -0.3274804 0.29039577 0.10098933 -0.26702696 0.07923709
0.047093682 0.20828071 0.23011196 0.2964565 -0.14565185 -0.13096055 -0.22152074 0.3225784
0.50125825 -0.19250655 0.38180122 0.100019395 -0.35178325 -0.37761903 0.3106884 -0.31042194
0.012111238 0.0068126223 -0.3441453 -0.5050887 0.05057311 -0.5426515 -0.36917022 -0.27763683
-0.16697246 0.5073775 0.04326601 0.48760176 0.17682438 -0.31715947 0.1289755 0.32836926
-0.18095458 0.11352758 0.25313622 -0.35052416

prior.0.bias f4 [10]
00000000: 54c7 b83e 4cf7 8f3e 9cf9 0a3e 2de1 a9bd
00000010: 74aa b23d 63c0 76be 3d8a f43e f964 39be
00000020: cd7a 9d3d 4961 843c
0.36089575 0.2811836 0.13571781 -0.08294902 0.087239176 -0.24096827 0.47761717 -0.18104924
0.07689438 0.01615967

prior_mean.weight f4 [1, 10]
00000000: 3862 fe3d 1479 ecbe 5a17 da3e 8b63 e8ba
00000010: 46eb 91be 815c 7d3e e8a6 e83e 816f 8b3e
00000020: ecf7 e4be 1237 083f
0.124210775 -0.46186125 0.4259594 -0.0017729861 -0.28499812 0.24742319 0.4543984 0.27233508
-0.447204 0.5320903

prior_std.0.weight f4 [1, 10]
00000000: e460 59be fb00 c9be 772e 83be c3c7 c4bd
00000010: 9e67 85be 0b40 b73e a6a2 563f 6948 50be
00000020: 00f8 f7bd aff3 9f3d
-0.21228367 -0.3925856 -0.25621387 -0.09608414 -0.26055616 0.35791048 0.8384193 -0.20340122
-0.12107849 0.07810151

dec.0.weight f4 [10, 20]
00000000: cc9f 66bc 4963 0b3e bd55 fbbd c99d 1a3d
00000010: e66d 04be c58f 17be d6f9 eb3c 486e 56be
00000020: 866b 583e 769f 373d 657d e93d 2ed9 df3d
00000030: adc4 fc3c e54f 6c3d e5e6 43bd 7b19 51bd
00000040: 5d61 7bbc c6f7 1bbe fb07 20bd a8d8 1dbe
00000050: 8c6c ce3b cca3 133e 9c47 2cbe cb9d 3c3e
00000060: 00cd 96bd 17f7 59be 50ff 163e f851 603d
00000070: cfc6 db3d 5dd9 41be 2533 533e ed2a 24bd
00000080: eb87 d1bb b5ce ae3d 3b3e 613e 22e9 53be
00000090: cf49 053d 5c70 453d 46f6 b73d 4021 f6bd
000000a0: 7806 323e 6927 43be e007 53bd 16fa 00be
000000b0: 1949 2c3d 355a eb3d ad25 f4bc 99c4 c1bc
000000c0: e98c 4cbd 1a6a 533e f69b 723d 2516 5a3d
000000d0: c90d 08be d857 e1bd daf1 423d 886b 593c
000000e0: 2280 9dbd 00f6 c13d ed62 20be 1fe2 743d
000000f0: 017a 2cbe 5e37 803d 8adf efbd a47e e23d
00000100: 67f3 f8bc e755 323e 57da f63d 0439 16bc
00000110: 92f7 00bd 25c2 173e 8d97 573d 4b7e 323e
00000120: a4e3 cbbb f4a8 f0bd 7436 68bd 8ab2 fd3d
00000130: ef76 c93d f608 debd 8b48 7abd 092d a43d
00000140: 18f1 363e 57f8 073d 4a95 0c3d 18ed 6d3d
00000150: c2a9 0d3e d36c 0c3e 494b c63d 6534 43be
00000160: 0152 36bc fc4f 2ebe 58f1 e6bd f022 d6bd
00000170: 3be9 d3bd 1f21 af3d 6cfa 903c 651a 15be
00000180: 72e0 38bd a28c 173e 1e82 f1bd 2ee8 94bd
00000190: 3646 a0bd 7919 0f3e 3527 053d 112b 96bd
000001a0: 10d4 f5bd 648b fbbd c8d6 ca3d ad95 993c
000001b0: aac9 91bd 15c2 05be 5345 433e de50 c1bd
000001c0: 321e 123e 9cf4 05be e0cf 943d 7f25 11bd
000001d0: 9dc1 1cbe 84d5 0abd 788d f9bd d321 eebd
000001e0: 61a9 16be ff49 033e ebd5 29be 5d25 86bd
000001f0: e686 0abe d9ba 07bd ece5 373d 8fe9 29be
00000200: c05d 67bc 56e7 12bd 9932 613e 4e1d dc3c
00000210: 5612 09bd 69fb 283e 5218 b1bd 23c9 163e
00000220: 18b1 63bd 68d3 3f3c a20b 4e3e 4d18 10bd
00000230: 871d 4cbe c122 cd3d 3976 b2bc 3878 f5bd
00000240: 5de5 e53d ad44 5ebe cad1 6e3d fdb1 2f3e
00000250: 5124 243e 291a 983c 7e65 003e 16e0 223e
00000260: 36a1 943d e374 443e 3e7f 4cbd 1644 08bd
00000270: 9402 473e 0d42 e6bc 8fec 013d 37cf 5fba
00000280: 5309 29be 8da7 61be e101 093e 05e6 00be
00000290: de77 623e a572 6e3d 3495 07be 22e7 793d
000002a0: 7868 d73d 4489 1c3e 96ed 103e 8077 1b3e
000002b0: cc91 0cbd c64c 15bd 7018 2d3d bd1c 0d3e
000002c0: d36e e5bd 92aa 993d 02f9 563e fd5a 57be
000002d0: 9b06 4bbe f029 313e 9e53 2d3e 00ec 1abe
000002e0: bea3 5abd 8d60 63be 5d7d aaba 6610 3abe
000002f0: 09ca f0bd 31c1 b4ba b74c 183e 8e9f 0f3d
00000300: 56f8 bcbd 1632 a7bc a386 083e 2b43 9abd
00000310: b9d8 70bd f435 3c3e 3d2e 12be 9019 b03d
-0.0140761845 0.13612093 -0.12272213 0.037748132 -0.12932548 -0.14800937 0.028805654 -0.20940506
0.21134767 0.04482981 0.1140087 0.109300956 0.030855501 0.05769338 -0.04782762 -0.05104969
-0.015343037 -0.15231237 -0.03907011 -0.15414679 0.006299561 0.14417952 -0.16824192 0.18419568
-0.073633194 -0.21285664 0.14745831 0.05476567 0.10731279 -0.18930574 0.20624979 -0.04008
-0.0063943765 0.0853552 0.21996395 -0.20694402 0.032541092 0.048202857 0.0898252 -0.12018061
0.1738528 -0.19058003 -0.051521182 -0.125954 0.0420619 0.11491815 -0.029803121 -0.023653315
-0.04993907 0.20645943 0.059230767 0.053243775 -0.13286509 -0.11003083 0.04759393 0.013270266
-0.07690455 0.09470749 -0.15662737 0.05978596 -0.16843416 0.062605605 -0.117125586 0.11059311
-0.0303895 0.17415582 0.12053364 -0.009168867 -0.0314861 0.14820154 0.052634764 0.1743099
-0.0062222052 -0.11750975 -0.056692556 0.12387569 0.09837138 -0.10841553 -0.06110434 0.08016402
0.17865407 0.03319582 0.03432206 0.05808744 0.13834289 0.13713388 0.09682328 -0.19062956
-0.01112795 -0.17022699 -0.112765014 -0.104558825 -0.103472196 0.08551239 0.017697535 -0.1456085
-0.045135923 0.14799741 -0.11792396 -0.07270847 -0.07825892 0.13974561 0.032508094 -0.07332433
-0.12003338 -0.12282446 0.099042475 0.018748129 -0.071185425 -0.13062318 0.19069414 -0.09439252
0.14269331 -0.13081592 0.072662115 -0.03543615 -0.15308233 -0.03389503 -0.12185186 -0.11627545
-0.1471305 0.12821196 -0.1658551 -0.06550095 -0.13528022 -0.033137176 0.044897005 -0.16593002
-0.014121473 -0.03586515 0.21991958 0.026869442 -0.033464752 0.16502155 -0.08647217 0.14725165
-0.05558881 0.011708118 0.20121625 -0.035179425 -0.19933139 0.100163944 -0.021784889 -0.119858205
0.11225388 -0.21705885 0.05830554 0.17157741 0.16029479 0.018567162 0.12538716 0.15905795
0.07257311 0.19185214 -0.049926035 -0.033268057 0.19434577 -0.028107667 0.03171974 -0.00085376523
-0.16507463 -0.22036572 0.13379623 -0.12587745 0.22116038 0.058214802 -0.1324051 0.06101144
0.10517973 0.15286738 0.14153132 0.15182304 -0.03431873 -0.03645017 0.042259634 0.13780494
-0.11202779 0.07503237 0.20993426 -0.21030803 -0.19826739 0.17301154 0.16926429 -0.1512909
-0.053378813 -0.222048 -0.0013007332 -0.18170318 -0.11757285 -0.0013790486 0.14873014 0.035064273
-0.09227054 -0.020409625 0.1333261 -0.075323425 -0.058800433 0.18379956 -0.14275451 0.08598626

dec.0.bias f4 [10]
00000000: a206 1ebd 51d9 3fbe 9748 8abd 162d 4f3e
00000010: 9b80 2dbe 70bd 593e e96e 1abe 7a54 0b3e
00000020: e502 eebc af7d 6fbd
-0.038580544 -0.18735243 -0.06752127 0.20232043 -0.1694359 0.21263671 -0.15081371 0.13606444
-0.029054115 -0.05846947

dec.2.weight f4 [10, 10]
00000000: 757d a03e d3d1 743e 513c ca3d a9a1 39be
00000010: f0d5 913e 7c62 6bbe ed61 bdbd 1a78 553e
00000020: a22b e73d a341 78be 4dc2 943e 9d99 c53d
00000030: dd5b 933e da0b 3b3e afb8 5f3d 4622 7abe
00000040: e0b4 f7bd 3fd5 e03d e329 913e e25f 2f3d
00000050: b4bd 86be b0f4 47be c7c8 dabd f4aa ea3d
00000060: e8fb 43bd b363 0fbe 5659 2b3e a7fd a4bd
00000070: a7c7 d7bd 12a7 5dbe 224b 0cbe ef0b 77bd
00000080: a885 5b3e a322 163e d9c6 5ebe fab0 3fbd
00000090: f90e 29bd c34b 153d 9c9c 17bd ddf5 803c
000000a0: 6601 47bc 34ba 973e 2714 75be 73d2 1fbe
000000b0: cb16 353e b1ee 8a3d cc64 39be d737 803e
000000c0: 2563 4cbe f334 5bbe e434 50be 0474 be3d
000000d0: 2bc0 d83b 36da 0ebe 0e70 edbd 5b07 603e
000000e0: a2fd 6bbe b793 9abe bc42 803e 3d2b 82be
000000f0: 50c0 2d3e a4bf 223c b309 adbd a795 5c3e
00000100: 72a6 803e f913 91be b5f8 babd 21e6 45be
00000110: 43dc c6bd 1857 9bbe d5ac 48be 9081 663d
00000120: e223 c03c 075e 8c3d 4eae 93be 27d6 663d
00000130: 2332 55be a24c 9bbe 6d79 ad3d 3e65 1cbd
00000140: 1ab7 373e 3ef3 573e a8aa 4d3c 1c29 493e
00000150: d5ff 253d 13d5 e1bc ae56 4d3e 4465 dd3c
00000160: 47e6 383e 9961 6abe be13 e4bd 5ac2 d3bd
00000170: 2b41 003e 2a43 9e3e 3b20 ea3c 3e59 d93d
00000180: 5c3a f1bd 23f8 913e b680 2f3e 9280 623e
0.31345716 0.23908167 0.09874786 -0.18128075 0.28483534 -0.22986788 -0.092471935 0.20846596
0.11287619 -0.24243788 0.2905449 0.0964844 0.28781024 0.1826624 0.054619487 -0.24427137
-0.12095046 0.109781735 0.2835227 0.04281605 -0.26316607 -0.19526935 -0.106828265 0.11458388
-0.04784766 -0.14002876 0.16733298 -0.08056193 -0.105361275 -0.21645764 -0.13700536 -0.060314115
0.21437705 0.1466165 -0.21755542 -0.046799637 -0.041274045 0.036449205 -0.03701459 0.015742237
-0.0121463295 0.2963425 -0.23933469 -0.15607624 0.17684476 0.06783808 -0.18104857 0.25042602
-0.19959696 -0.21406917 -0.20332676 0.09299472 0.006614705 -0.13950428 -0.11593638 0.21877806
-0.23045972 -0.30190822 0.25050914 -0.25423613 0.16967893 0.009933386 -0.084491156 0.21541463
0.25126988 -0.2833555 -0.09129468 -0.19326068 -0.0970998 -0.30339885 -0.1959718 0.056275904
0.02345461 0.06853872 -0.2884392 0.056356575 -0.20819907 -0.30331904 0.08470426 -0.03818249
0.17940941 0.21088883 0.012552895 0.19644588 0.040527184 -0.027567422 0.20052597 0.027025826
0.18056594 -0.22888793 -0.11136578 -0.10339804 0.1252486 0.30910617 0.028579822 0.10612725
-0.11778709 0.28509626 0.17138943 0.22119358

dec.2.bias f4 [10]
00000000: 3c23 83bd 1fbe 02be b85e 023d ce03 5e3e
00000010: ccbe 2b3e e5dc 663e e88d 243e 4dae 783d
00000020: 2797 153e c3a0 b43d
-0.06403205 -0.12767838 0.031828612 0.21681139 0.16772002 0.22545202 0.16069758 0.0607131
0.14608441 0.08819725

dec_std.0.weight f4 [1, 10]
00000000: 7052 3e3d bf2b 7ebe 08e9 65be 104e 42be
00000010: 95ba bfbd 869d 06be 3ab9 883e 19fc e2bd
00000020: 380f 49be 5c88 123d
0.046465337 -0.24821375 -0.22452176 -0.18975091 -0.093617596 -0.13146028 0.26703817 -0.1108324
-0.19634712 0.035774574

dec_mean.0.weight f4 [1, 10]
00000000: b0a0 3a3e 67d6 213e 70a1 ff3d e764 69bd
00000010: 23b1 84be 4c6b 803e 8627 74be dd6d 963d
00000020: f5b0 493d 12fd a0be
0.1822536 0.15804444 0.12481964 -0.056980994 -0.25916395 0.2508186 -0.23843202 0.073451735
0.049241025 -0.31443077

rnn.weight_ih_l0 f4 [30, 20]
00000000: 6bfd 32be e018 b03d 3a7b 11be 5c82 58bd
00000010: 6451 37be f401 43be babd 0cbb dbe3 cdbd
00000020: cbce f83e 3fe9 713e e661 5ebe 2fa3 ea3d
00000030: 8535 8fbd 337c 9e3e ab58 c8be 259a af3e
00000040: 24e7 a7be 3710 b5be f35b 0abf acdc c43e
00000050: 757b 633d 92fe c23e 86ce cb3e edcd ad3e
00000060: 318b 3fbd 9cd8 813e 0d88 86bd c1f6 f33e
00000070: 20e3 083d d273 c03e b8f7 b7bb 3c1d ff3d
00000080: e6eb 25bd a947 bb3c 2057 3e3e d90c 763e
00000090: e81d 733e 050b fbbd fa5f b1bd 5e60 f63b
000000a0: fd33 883e 3362 8cbd 0ca8 5bbe 2f76 803e
000000b0: 10ee 343e ca0a cc3d 208c 3cbe 9489 b2bd
000000c0: 0033 273e afc8 863e 09a1 84bd 8bc9 72bc
000000d0: bd85 853e 19bc 2f3e a9d8 383f 3fe8 54be
000000e0: 3dab 3ebd 4b57 853e 5158 cf3d bcfc b33d
000000f0: b2e7 913e 2362 91be 4fb8 43be c971 673e
00000100: 7a50 d83d bf99 673d 8f90 bbbd aada 983c
00000110: 4f88 c63e a306 0f3b f471 be3e 4a3d 6d3e
00000120: 84e5 88bd 0855 943e 33ec 713e c859 543d
00000130: 78bb a93e 76df 2ebe ff46 743e 0238 9d3e
00000140: ccc1 7e3c fc3e 7d3d 3fa5 753d 8d17 08be
00000150: fabe 3a3e 4a0c 17be b50e 3d3e 111c db3d
00000160: 44bf 46be c9ad 2b3e 6c03 3dbc 78f3 073e
00000170: e70f e83e f394 ee3e 1864 0fbd 62d1 af3d
00000180: 3c97 cc3e 0d4c 52be e25b 6d3d 0447 78bd
00000190: 6275 4ebe 0417 05bd b460 003d 0d92 c93d
000001a0: 70de 8b3e e994 b2be ac73 99bd f36e 96be
000001b0: 8d02 ad3e 1710 033e 36bf 27be d88e fe3d
000001c0: 17c4 abbe fc6c a3be 54d1 63be 55fb 2fbe
000001d0: 91dc c3bd 2620 c3be 107b c7be 7ff5 ebbd
000001e0: b10d acbd ac0c d93e 6c94 d63e 39c8 5d3e
000001f0: 63d9 af3e 5f64 843e 6cd3 88bd ac5b e23e
00000200: bab0 f33d a79a 4d3c bc5e 043e 8caa b13d
00000210: e3e7 4e3e 077a 733e 4613 23be 1e57 b53e
00000220: 521d e23e b68e 153d 34bb 8f3e d19f 423e
00000230: 7ae4 873e b633 b33c 9c8e a93d 21f6 db3e
00000240: 2e98 863e c915 ce3d 4be1 80be 84a8 203e
00000250: d2b6 7f3e 6c0b 1f3c ee61 8e3e 4883 fb3d
00000260: 113a f93d 7803 043c ccb5 3b3e fe4f a83e
00000270: b82f 4e3b e3d6 0d3c 512a 04be 8c10 a33e
00000280: 57e2 8bbd a4b3 df3d 70bd 27be b66b 5bbe
00000290: bda6 53bd 7390 2bbe b8be 00bd ed4f 8e3e
000002a0: 25e7 1e3e 3fca 143e ae68 b8be e823 90be
000002b0: 2581 d23c f003 0c3c df50 5fbf 3bbf 033e
000002c0: b95a 103e 1b3a 29be 42c7 04bf db1f 4ebe
000002d0: cb8f 40bd 3e78 cebd db3a f63d 2ca9 f8bd
000002e0: 2bf9 36be 8fa5 04be 5471 7b3e 5494 8c3e
000002f0: e4ad b93e 7dba adbd f9a9 b0bd 5f80 c03e
00000300: fcc6 423e bcf7 ac3e ae61 833f 7953 b43e
00000310: 05fa 63be 185f a93c c7d9 203e 3e27 30be
00000320: c95a 423d 3273 183d cbd6 a9be 461c bcbe
00000330: d292 e3be 2514 c03e 4714 94bc d1dd 8cbe
00000340: 0e8a 77be 8983 eebd d653 723e d77c 64be
00000350: b143 c33e 9967 2e3d 9302 07bf dc0f 223e
00000360: 8d1d 9c3e 2282 5d3e 3b23 a33e 41f6 6cbe
00000370: 90b9 91be dd5d 8ebf c857 43bf 049e c4be
00000380: ff64 0bbf db37 08bf 85a2 ebbd aeb4 1cbf
00000390: fe22 5dbf 6d54 adbe 88ff 9fbe bb47 0bbd
000003a0: 3a94 47be 02c2 823c 7267 a4be 9bc3 b0be
000003b0: 42ec 45bd 13fc b1be 5a30 3dbc 993b f2be
000003c0: de42 83be ac3a 85be c708 debe e771 28be
000003d0: 2127 03bf 1e9d ee3d e3ba d7bd 0454 dfbe
000003e0: 5b95 cebe 019a 36be 224f d5be 4e37 02be
000003f0: 5e5f c0be 6f3b 0ebf 3762 f3be e41f fdbe
-0.17479484 0.085984945 -0.14207163 -0.052858695 -0.17902142 -0.19043714 -0.002147539 -0.100532256
0.4859527 0.23624133 -0.21717033 0.11456906 -0.0699263 0.3095413 -0.39130148 0.3429729
-0.32793534 -0.35363933 -0.54046553 0.3844961 0.05553766 0.38084847 0.39806002 0.3394617
-0.046763603 0.25360572 -0.065689184 0.47649196 0.03341973 0.37588364 -0.005614247 0.12456748
-0.040508173 0.022861319 0.18587923 0.24028338 0.23741877 -0.12257961 -0.08660884 0.007518812
0.26602164 -0.068546675 -0.21450824 0.25090167 0.17668939 0.09962995 -0.18412828 -0.08717647
0.16328049 0.26324984 -0.064760275 -0.014818559 0.26078597 0.17161597 0.722056 -0.2079172
-0.046550024 0.26043162 0.10124267 0.0878844 0.28497082 -0.28395185 -0.19113277 0.22602
0.10562225 0.056543108 -0.09158432 0.018658955 0.3877587 0.0021824024 0.37196314 0.23167911
-0.06684402 0.28971124 0.23625259 0.051843435 0.3315084 -0.17077431 0.23855208 0.30706793
0.015549134 0.061827645 0.059972044 -0.13290234 0.18236914 -0.14750782 0.18462642 0.106987126
-0.194089 0.16765513 -0.01153646 0.1327647 0.45324633 0.46598014 -0.035007566 0.085848585
0.39959133 -0.20536824 0.057948954 -0.0606146 -0.20161965 -0.032492653 0.031342223 0.0984231
0.27318144 -0.34879234 -0.07492766 -0.29381523 0.3379101 0.12799107 -0.16381535 0.12429589
-0.33548042 -0.31919086 -0.22247821 -0.1718572 -0.09563554 -0.38110465 -0.38961077 -0.11521434
-0.08401049 0.4239248 0.41910112 0.2165841 0.3434554 0.25857827 -0.066809505 0.44210565
0.11898942 0.012549079 0.12926763 0.08675107 0.20205645 0.23777018 -0.15925321 0.35418028
0.44162995 0.036513053 0.28072512 0.19006278 0.265415 0.021875244 0.08279154 0.4296122
0.2628798 0.10062749 -0.25171885 0.15689284 0.24972084 0.009707313 0.2780909 0.12280899
0.121692784 0.008057468 0.18331069 0.3287353 0.0031461548 0.00865719 -0.12906767 0.31848562
-0.0683028 0.109229356 -0.16380858 -0.21427807 -0.051672686 -0.16754322 -0.031431884 0.27795354
0.15517862 0.14530276 -0.36017364 -0.28152394 0.025696347 0.008545861 -0.87232774 0.12865917
0.14097108 -0.16526072 -0.51866543 -0.2012934 -0.04701213 -0.10081528 0.120229445 -0.12141642
-0.17868488 -0.1295378 0.2455495 0.27456915 0.3626548 -0.084828354 -0.0862617 0.3759794
0.19021219 0.33782756 1.0264184 0.35219935 -0.22263344 0.020675227 0.15708075 -0.1720247
0.04744986 0.037219234 -0.33171687 -0.3674032 -0.44447953 0.3751537 -0.018076075 -0.27512982
-0.24173757 -0.11646182 0.23664793 -0.22313248 0.38137582 0.042579267 -0.527383 0.15826362
0.30491295 0.21631673 0.31862816 -0.23140813 -0.28461885 -1.1122395 -0.7630582 -0.38401806
-0.5445098 -0.5321023 -0.115056075 -0.61213195 -0.8638152 -0.33853474 -0.31249642 -0.034003954
-0.19490138 0.01596165 -0.32110173 -0.34524235 -0.048321016 -0.3476263 -0.011547172 -0.47311094
-0.25636953 -0.26021326 -0.43366072 -0.164497 -0.5123158 0.116510615 -0.10533693 -0.43618786
-0.40348324 -0.17832185 -0.41661936 -0.1271641 -0.3757276 -0.5555944 -0.4753587 -0.49438393

rnn.weight_hh_l0 f4 [30, 10]
00000000: 4b30 afbe 7fb7 27be 34fa bebc fd4e a1be
00000010: 1851 323e b6c5 96be 99db 183e 948e 6e3e
00000020: aba9 173e 537e 6ebe 23c3 543d f2b9 553e
00000030: 3067 713e dd17 a8be dcb6 a83e c2df 033d
00000040: 211b 2fbe a607 95be dc52 5cbe 2aec 0bbe
00000050: 0f8f f4bd bbf4 8fbd 503c 83bd 9a6f 153d
00000060: 2b11 9c3d 2d2d cbbe 31eb 13be 1ad0 f93d
00000070: b6eb bc3d 8cbe e63d 7ef9 cebe 297d 6dbd
00000080: 971a 313e 2ab9 ebbe 8679 b33c e15e b9be
00000090: 2b4f ebbe f642 453d 5585 d13d 338e 0f3e
000000a0: 6f27 e6be 7dd2 173e dfeb 13be d126 a7bb
000000b0: 9740 31bc ce81 9c3e 0d6c f3be 2488 e9be
000000c0: 1a5d c7bd 0f8c 403e ac6a 243e 3178 8a3e
000000d0: f326 913e 35a0 6dbe 35b8 ba3c b029 883c
000000e0: 02c5 72be 41d1 6cbe 05a5 f93c e01a ab3c
000000f0: 9027 b6be c362 5f3e ded3 f23c 17b8 a63d
00000100: 4314 573d a35f c1bd ee83 233d dccc b1be
00000110: 34ca 8ebe 9887 74bd 10ac 61bc 249b 483d
00000120: 01c8 07be 5a1f debd 6c1e 2a3e 3268 ed3d
00000130: cb20 a4bd eeb5 dc3d 0faa e9bd c3ff 12be
00000140: 325f 40be 88f7 abbe fe3b f6bd 3170 e5bd
00000150: ffbe ed3c fed7 6ebe 9f87 91bd 6650 73be
00000160: bb9b 783e 81fe 73bd b9da acbd e712 67be
00000170: 97bc 37be c57a d43c b1f2 9a3a 7983 acbe
00000180: 8380 293e 57a0 51be 7f0d 7bbe f045 773d
00000190: 66b2 283e ef68 d73e a887 c03d ec1d 0d3e
000001a0: 9d58 403e f3f1 cc3e 255a 183e 1f26 3dbe
000001b0: 6b75 82bd 0ef4 cabc e098 173e 0c0a a7be
000001c0: ee91 ce3b a9fe 323e e5b0 153e c158 d73d
000001d0: 2e19 de3d 2425 0bbd 8bc2 0d3b 3d47 ef3d
000001e0: ad32 ccbb 99d9 1e3e 99d4 8e3e 8fe0 6b3e
000001f0: ca4b 3ebe ae42 2cbe d197 40bc 6003 9b3e
00000200: ca20 1cbe a01f e8be 041d f13d 2ba0 11bf
00000210: 5f62 38bf 4685 ba3e 9092 03bf 28a4 38be
00000220: 41cc 8d3e 2fda 023f 5a39 983e 41a5 4b3e
00000230: 3cf3 0c3f 069d 1a3d ce99 043d 9402 8c3e
00000240: eea7 c8bd d711 38bd 8646 a2bd d466 9b3c
00000250: 93eb a23e 49a0 edbe b5f4 a23e b66e 343e
00000260: a029 93be b8a4 0e3e ae4f e8be 3401 e8bc
00000270: ab66 5cbe cc04 0a3e 2ea9 d4bd eff1 893b
00000280: bfd8 673d 74b5 803e eacb 96be 1dcc 4fbe
00000290: 4bb0 dbbe bde3 45be 64e0 183e 249b c1bd
000002a0: e64b 9b3d bedb 353d 8281 febd c7e7 a1be
000002b0: 49df f2bd 96be 1cbe dde1 04be 81e2 0ebe
000002c0: 680f 023e 620f 9c3e 3cc8 143e 61f5 0ebe
000002d0: d521 85bd eee0 ccbc 8f56 dd3d bd53 4a3e
000002e0: f00e 11be 3f81 04bd a8b1 93bd f32d 4d3d
000002f0: 0df2 22be 2142 113e fd1d 763e ce9e e7bd
00000300: 1b36 303e f9b2 9b3e 8aee 423d d3e8 3e3e
00000310: 683c 17be 242f 6fbd 88f8 1c3e 851a 03be
00000320: 0319 00be f269 edbe 1189 1c3e ea2a 68bd
00000330: e937 0abe a3b3 7b3e a537 cd3e 294a 83bd
00000340: e477 e2bd 0343 a4be 9ae0 b2bd 7513 ee3d
00000350: a33b ec3d 4e2f 84be 0677 b7bd 9a48 333d
00000360: 3dfd b2be 23aa a7be 95fc c0bd f16b 95be
00000370: 80ce 263e 8498 213e 8cc1 8e3c 2efa 833e
00000380: 3ca8 b33e 346a 143e a629 9dbe f510 d9bd
00000390: a4a5 053e 08fb 7fbe 488e 9b3e 6420 d4be
000003a0: ed16 b8bd bccf e23c 0894 3abe 215c 1f3e
000003b0: 68a7 273e bac8 553e ee25 e83e ac54 5f3b
000003c0: d70f c1be 1ebf a83e ec7f 793e 7ea8 c7be
000003d0: 22fa e93d 8497 553d 1ed2 d43d 8f17 a1be
000003e0: 83aa a43d e95f b5bd 6894 b43d eda3 8cbd
000003f0: 0fce 8ebe 7de8 ddbc fb91 44be ff87 4c3d
-0.34216532 -0.16378592 -0.023312666 -0.31505576 0.17413747 -0.29447716 0.1492752 0.23296577
0.14810817 -0.23290376 0.05194391 0.20871714 0.23574519 -0.32830706 0.3295201 0.032195814
-0.17100193 -0.29107398 -0.21515983 -0.13664308 -0.11941349 -0.070291005 -0.06407988 0.036483385
0.07620462 -0.39682904 -0.14445187 0.12197895 0.09224646 0.11266813 -0.40424722 -0.05798069
0.172953 -0.46039706 0.021908533 -0.362052 -0.45958838 0.048159562 0.10230509 0.14019088
-0.4495196 0.14826389 -0.14445446 -0.005101063 -0.010818622 0.30567783 -0.47543374 -0.4561168
-0.097345546 0.18803428 0.16056317 0.27044824 0.28350028 -0.23205645 0.022792915 0.01662144
-0.23707965 -0.23126699 0.030474195 0.020886838 -0.3557706 0.21815018 0.029642042 0.08140581
0.052509557 -0.094420694 0.03992074 -0.34726608 -0.27888644 -0.059699625 -0.013773933 0.04897608
-0.13259889 -0.108458236 0.16613168 0.11592139 -0.08014067 0.10776888 -0.11409389 -0.14355378
-0.18786314 -0.3358729 -0.12023161 -0.112030394 0.029021738 -0.23324582 -0.07105946 -0.23761138
0.24278156 -0.059568886 -0.084401555 -0.22565804 -0.17943035 0.025937447 0.0011821595 -0.33694056
0.1655293 -0.20471321 -0.24516867 0.060369432 0.16474304 0.42072245 0.094008744 0.13780946
0.18783803 0.40028343 0.14878137 -0.18471573 -0.06370052 -0.024774577 0.14804411 -0.32624853
0.0063040173 0.17479958 0.14618261 0.10514975 0.108446464 -0.033970967 0.002163085 0.116835095
-0.006231627 0.15512694 0.27896574 0.23034881 -0.18583599 -0.16822311 -0.011754946 0.30276012
-0.15246883 -0.45336628 0.117731124 -0.5688502 -0.720251 0.36429805 -0.5139551 -0.1803137
0.27694896 0.5111417 0.29731256 0.19887258 0.55058646 0.037747405 0.032373242 0.27345717
-0.09797655 -0.04493889 -0.079236075 0.01896993 0.31820354 -0.4641135 0.31827322 0.17620358
-0.28742695 0.13930023 -0.4537329 -0.028320886 -0.2152354 0.13478392 -0.10383831 0.004209749
0.05660319 0.25138438 -0.2945245 -0.20292707 -0.42907938 -0.19325157 0.14929348 -0.09453419
0.07582836 0.044399016 -0.124270454 -0.31622145 -0.118589945 -0.15307078 -0.12976785 -0.13953592
0.1270119 0.30480486 0.14529508 -0.13960792 -0.065005936 -0.025009599 0.10807525 0.19758506
-0.14165854 -0.03234982 -0.072116196 0.05009265 -0.15912648 0.14185382 0.24034877 -0.113095865
0.1720814 0.30409983 0.04759077 0.18643503 -0.14769137 -0.058394566 0.15329182 -0.12803085
-0.12509541 -0.46369892 0.15286662 -0.05668155 -0.1349789 0.24580245 0.40081516 -0.06410629
-0.110580236 -0.32082376 -0.087342456 0.11624805 0.11534812 -0.2581734 -0.08958249 0.04377041
-0.3495883 -0.32746992 -0.09423176 -0.29183915 0.16289711 0.15780836 0.017426275 0.2577681
0.3508929 0.14493638 -0.30695838 -0.105989374 0.13051468 -0.24998105 0.3038199 -0.41430962
-0.08988748 0.027686946 -0.18220532 0.15562488 0.16372454 0.20877352 0.45341438 0.0034077568
-0.37707397 0.3295831 0.24365205 -0.38995737 0.11424662 0.05214645 0.10391639 -0.31463286
0.08040335 -0.08856184 0.08817369 -0.06867204 -0.27891585 -0.027088398 -0.19196312 0.049934383

exp_avg f4 [10, 1]
00000000: 988a fdb9 8a02 67b8 79a3 f8b9 491b d0b9
00000010: f55b cf39 95c1 6a39 eadd 9c39 76e3 b739
00000020: 0000 0000 5951 bbba
-0.0004835918 -5.5077056e-05 -0.00047424043 -0.0003969318 0.0003955063 0.00022388094 0.00029919978 0.00035073952
0.0 -0.0014291211

exp_avg_sq f4 [10, 1]
00000000: d735 9938 71e1 b439 a75b bc38 01ab 6c38
00000010: afee 3039 a069 5d37 9021 9b39 48ee 9137
00000020: 0000 0000 df38 1e3a
7.305637e-05 0.00034500242 8.98161e-05 5.6426044e-05 0.00016873585 1.3197219e-05 0.0002958891 1.7396305e-05
0.0 0.0006035696

exp_avg f4 [10]
00000000: 271a 61ba 195c ab3b fcd7 0dbb 7714 01ba
00000010: c47c 1fbb b529 93ba f8d8 46bb bd95 81ba
00000020: 0000 0000 b14e 1b3b
-0.0008586966 0.0052294848 -0.002164363 -0.0004924009 -0.002433584 -0.001122764 -0.0030341726 -0.0009886544
0.0 0.0023698027

exp_avg_sq f4 [10]
00000000: cc92 f238 6965 563b 59f1 0d3a 979c 8f38
00000010: 0caa 6b3a 34cd 1b39 0f19 943a 40db ad38
00000020: 0000 0000 bc50 8a3a
0.00011566802 0.0032714254 0.0005414687 6.8479385e-05 0.00089898775 0.00014858396 0.0011298972 8.290121e-05
0.0 0.0010552625

exp_avg f4 [10, 10]
00000000: cf8a 6539 f314 853a 052e 713a 7064 d938
00000010: 2800 963a 67d5 ac3a 047b ff3a ace1 4b3a
00000020: 0000 0000 5353 8239 5178 3238 52cb 47b8
00000030: 6ec4 6d39 9b8f 8537 f072 8a38 4f9f 1f39
00000040: 246e b838 c78e 7138 0000 0000 533c 93b6
00000050: dcf3 04b9 97c3 b3ba cab5 62ba da9f 8fb8
00000060: 3e81 d3ba 6811 cdba 1ea0 35bb a5db 8dba
00000070: 0000 0000 f42c 7cb8 ba97 a839 b9dc a63a
00000080: 9544 c23a 2892 1039 6f35 e03a 64f8 033b
00000090: d575 3c3b e55e 9a3a 0000 0000 dd46 4d39
000000a0: cb51 08b9 ba4e d1ba 1287 5fba 2895 9bb8
000000b0: 5a66 deba af92 d7ba 5f82 3fbb 7bb1 93ba
000000c0: 0000 0000 3c03 50b9 0400 0080 0980 3e3a
000000d0: b7b7 ba35 0400 0080 569a 0f3a c469 5539
000000e0: eacf 893a b821 ac39 0000 0000 26fc 9938
000000f0: 0000 0000 0000 0000 0000 0000 0000 0000
00000100: 0000 0000 0000 0000 0000 0000 0000 0000
00000110: 0000 0000 0000 0000 21fe 4cb9 5a1b 9dba
00000120: 6dd0 5eba 392e d6b8 475f b3ba a65c bdba
00000130: 6481 19bb d6a5 71ba 0000 0000 a11e 24b9
00000140: 08b1 8839 0ea4 e13a 4f06 953a e1b0 f438
00000150: 400e d93a 1966 ee3a 35c0 3c3b e724 913a
00000160: 0000 0000 3f34 043a af80 2ab7 ba93 d63a
00000170: 5b82 fa39 0400 0000 c158 af3a 52d3 9d3a
00000180: 4f1a 1d3b 30fb 603a 0000 0000 bf39 d339
0.00021890852 0.0010153338 0.0009200278 0.00010366074 0.0011444138 0.0013186157 0.0019491618 0.0007777463
0.0 0.00024857614 4.255056e-05 -4.7634654e-05 0.00022675257 1.5921707e-05 6.6017616e-05 0.00015222769
8.794319e-05 5.759185e-05 0.0 -4.387964e-06 -0.00012679346 -0.0013714907 -0.00086483045 -6.848546e-05
-0.001613654 -0.0015645446 -0.0027713845 -0.0010822905 0.0 -6.0123348e-05 0.00032156502 0.0012730575
0.0014821464 0.00013787358 0.0017105768 0.0020137066 0.0028756757 0.0011777548 0.0 0.00019576722
-0.00013000441 -0.0015968897 -0.0008526902 -7.4187585e-05 -0.0016967759 -0.0016446913 -0.0029221994 -0.0011268103
0.0 -0.0001983763 -6e-45 0.00072670035 1.3911548e-06 -6e-45 0.0005478015 0.00020352664
0.0010514234 0.0003283152 0.0 7.342575e-05 0.0 0.0 0.0 0.0
0.0 0.0 0.0 0.0 0.0 0.0 -0.00019549626 -0.0011986301
-0.0008499686 -0.00010212925 -0.0013685011 -0.0014447167 -0.002342307 -0.0009218132 0.0 -0.00015651669
0.0002607184 0.001721503 0.0011369678 0.00011667773 0.0016560033 0.0018188386 0.0028801088 0.001107362
0.0 0.00050431857 -1.0162751e-05 0.001637093 0.00047780838 6e-45 0.0013377891 0.0012041128
0.002397198 0.0008582352 0.0 0.0004028808

exp_avg_sq f4 [10, 10]
00000000: aa9e 3e37 5267 0f39 9967 ac38 0160 5536
00000010: 94ae 0839 2f27 2539 0cce c839 dc39 6738
00000020: 0000 0000 b6ef 8837 1368 8435 2bf5 7c37
00000030: c08e b636 f106 dd34 5a3f 3e37 da9b 3937
00000040: e486 1238 7009 9436 0000 0000 f558 b735
00000050: 9512 6b37 f0c5 b639 f5f3 ea38 f1ec 7836
00000060: e86e 6b39 656e 7239 0dc1 393a f2ee b638
00000070: 0000 0000 b491 9938 04db ff37 2674 8139
00000080: 4b03 6339 b988 0537 fe55 9639 aa38 c739
00000090: 5af9 553a 0b79 0139 0000 0000 a71b f337
000000a0: 15c2 b037 24a8 a239 03f2 2339 de5f c536
000000b0: 9e38 8b39 433d a039 a0da 503a 2498 e038
000000c0: 0000 0000 af8f 3038 1526 6033 90c2 7939
000000d0: ca38 5535 c405 ac32 9e20 3c38 c376 0237
000000e0: 73ae 4d39 e827 4037 0000 0000 4143 a538
000000f0: 0000 0000 0000 0000 0000 0000 0000 0000
00000100: 0000 0000 0000 0000 0000 0000 0000 0000
00000110: 0000 0000 0000 0000 a697 ca37 5b52 4139
00000120: 0e92 2a39 66b6 dd36 eb34 5a39 3135 9239
00000130: c464 1c3a 2b9d b738 0000 0000 f429 c237
00000140: 2890 3638 e735 283a 0e08 cb39 9ebf 2037
00000150: 49ef 323a a4a5 523a 2ffa 023b 00e2 9839
00000160: 0000 0000 2c1e 6f38 522d d533 30f9 d639
00000170: b3f8 cf37 d86a cd31 6a03 5c39 cb9f 1139
00000180: 476d 393a e3d5 a638 0000 0000 a63c 7438
1.1361824e-05 0.00013676033 8.220896e-05 3.1795355e-06 0.00013035006 0.00015750223 0.0003830049 5.5128578e-05
0.0 1.6324087e-05 9.865056e-07 1.5077453e-05 5.440641e-06 4.1169508e-07 1.1339633e-05 1.1063146e-05
3.493474e-05 4.4118424e-06 0.0 1.3660452e-06 1.4011418e-05 0.0003486122 0.0001120343 3.7092798e-06
0.00022452662 0.00023120044 0.0007085957 8.722943e-05 0.0 7.322748e-05 3.0500356e-05 0.00024691335
0.00021649634 7.959251e-06 0.000286743 0.00037998456 0.00081624615 0.0001234749 0.0 2.8980734e-05
2.1071211e-05 0.00031024322 0.00015635048 5.882218e-06 0.0002655433 0.00030563222 0.0007967148 0.00010709491
0.0 4.2095486e-05 5.21887e-08 0.0002381897 7.943132e-07 2.0026057e-08 4.485307e-05 7.776255e-06
0.00019615311 1.1453383e-05 0.0 7.88034e-05 0.0 0.0 0.0 0.0
0.0 0.0 0.0 0.0 0.0 0.0 2.4150893e-05 0.00018436594
0.00016266873 6.607547e-06 0.00020809814 0.0002788692 0.0005965943 8.755395e-05 0.0 2.3146138e-05
4.3526437e-05 0.00064167235 0.00038725178 9.5813575e-06 0.00068258174 0.00080355466 0.0019985547 0.00029160082
0.0 5.701014e-05 9.926829e-08 0.0004100292 2.4792133e-05 5.978432e-09 0.00020982107 0.00013887805
0.00070734735 7.955336e-05 0.0 5.8230617e-05

exp_avg f4 [10]
00000000: 09a1 1d3b 23d9 ca36 77db 5bbb 8866 5a3b
00000010: 8fb3 71bb ffe5 c23a 0000 0000 cc9f 3cbb
00000020: e21a 783b 0547 5c3b
0.0024052283 6.045347e-06 -0.003354756 0.0033325274 -0.0036880707 0.001486957 0.0 -0.002878177
0.003785782 0.0033611667

exp_avg_sq f4 [10]
00000000: 22bd 383a e75c 9238 07ca c33a 4c44 b33a
00000010: 5d30 c73a 9f8d 3d3a 0000 0000 c457 863a
00000020: ab0a 5f3b 14f6 d73a
0.0007047226 6.979127e-05 0.0014937528 0.001367697 0.0015196908 0.0007230881 0.0 0.0010249545
0.0034033458 0.0016476535

exp_avg f4 [10, 1]
00000000: 9945 0238 4578 68b8 a79f 8fb7 fd6d 8ab8
00000010: 681e 62b9 1008 1eb9 1d82 eab6 eab8 6039
00000020: 1b86 0a39 fdca d638
3.1059233e-05 -5.542512e-05 -1.7121272e-05 -6.60084e-05 -0.00021564367 -0.00015071058 -6.9888906e-06 0.0002143119
0.00013210664 0.00010242125

exp_avg_sq f4 [10, 1]
00000000: 675d 8138 59ff 1136 4f56 6937 43aa ac36
00000010: 4ab5 f636 a37d 2a37 42a8 4535 8f73 4a37
00000020: 052f 4236 8d01 8837
6.168597e-05 2.1755316e-06 1.39079775e-05 5.1458205e-06 7.352476e-06 1.0162042e-05 7.3633066e-07 1.2067044e-05
2.8935622e-06 1.6213186e-05

exp_avg f4 [10]
00000000: 5c0e fa39 367d b8b8 71be 2539 804c d7b8
00000010: 267e 18b9 d7aa fbb9 d15f 4fb7 fe10 6f39
00000020: 7099 0739 2e74 d839
0.00047694414 -8.797126e-05 0.00015806571 -0.00010266248 -0.00014542844 -0.00048001736 -1.23604705e-05 0.00022799146
0.00012931763 0.0004128529

exp_avg_sq f4 [10]
00000000: 93fc 5239 9974 fc36 dba8 7737 0b4b 8137
00000010: b429 f235 1ba4 c238 4295 8635 e9b6 c637
00000020: 7046 5036 9075 0d39
0.00020121252 7.523759e-06 1.4761662e-05 1.5412943e-05 1.8042542e-06 9.281208e-05 1.0027218e-06 2.3688614e-05
3.1035415e-06 0.00013490603

exp_avg f4 [10, 20]
00000000: ccf1 d03a 51d2 2f3a 0f1b 8b3a f138 843a
00000010: e831 a83a c541 b438 0000 0000 7297 5d3a
00000020: 4ab5 0b3a d620 ca39 fcb1 edba 6d07 f43a
00000030: 72b1 753a df67 eeba f9b6 d53a 7297 87ba
00000040: d47b f3ba b7b0 f3ba e07a c7ba bbf6 d8b9
00000050: 76eb 87bb aa73 f5ba f951 3ebb 80bd 35bb
00000060: 20d6 5cbb 6e45 17b9 0000 0000 22da 0dbb
00000070: d2f1 bdba 78f1 87ba 3ff0 8a3b 0c52 8fbb
00000080: 623c 1dbb 1814 8b3b d551 80bb e4e1 143b
00000090: 0803 8f3b 97a8 8e3b 27e8 653b 2c86 a13a
000000a0: a0e8 433a e157 8139 9cb0 e039 3a26 b739
000000b0: aed9 253a 14d2 b038 0000 0000 beaa f339
000000c0: 616c 4d39 2f4e 1939 7dbc 78ba 4b04 7c3a
000000d0: b917 c739 e9a5 7aba a69d 503a 7e84 1dba
000000e0: 9270 7bba c23f 7cba 44c2 52ba fa92 a1b8
000000f0: 0400 0000 0400 0080 0400 0000 0400 0000
00000100: 0400 0000 0400 0000 0000 0000 0400 0080
00000110: 0000 0000 0400 0000 0400 0080 0400 0000
00000120: 0400 0080 0400 0080 0400 0080 0400 0080
00000130: 0400 0080 0400 0080 0400 0080 0400 0000
00000140: 4b32 e53a b194 473a 6383 943a f326 a73a
00000150: f59f a03a 66e6 b038 0000 0000 ab41 473a
00000160: eaba 2a3a f127 113a 3b9b 09bb 05bf 0c3b
00000170: 5f0d 553a 2f16 09bb e94e f43a 8950 ecba
00000180: 08d9 0cbb dced 0dbb d943 04bb 485c 92b9
00000190: def3 33bb d4e6 9fba 3254 f5ba a4a3 f5ba
000001a0: c213 0cbb 9d1d e6b8 0000 0000 13db b2ba
000001b0: 5a8c 7dba ed79 45ba b0ed 2a3b af95 30bb
000001c0: 04a4 c6ba 4804 2b3b 2f4d 1fbb 1b92 b43a
000001d0: 5d33 303b d6cc 2f3b 634f 0d3b fc55 533a
000001e0: aa5c ca3a a00b 2a3a 7fd5 883a d56b 723a
000001f0: df3c ab3a f6b5 b238 0000 0000 0e78 663a
00000200: 833a 003a 70e1 b339 24e8 e2ba 229f e83a
00000210: 6959 673a 20b8 e3ba 5253 cb3a 0ee8 81ba
00000220: f519 e8ba c546 e8ba 35ef bdba 6c91 c6b9
00000230: db27 16b9 b2d3 90b8 056c eeb8 bce0 dbb8
00000240: 08da fdb8 80f3 9ab5 0000 0000 e785 96b8
00000250: 4a47 45b8 c1a5 12b8 0072 d7b7 6b4d a537
00000260: ce9c e237 4857 e8b7 3056 b837 89a0 6ab7
00000270: 9bf4 b2b7 a7c1 ffb7 98e3 9eb7 de4a 0cb8
00000280: 0000 0000 0000 0000 0000 0000 0000 0000
00000290: 0000 0000 0000 0000 0000 0000 0000 0000
000002a0: 0000 0000 0000 0000 0000 0000 0000 0000
000002b0: 0000 0000 0000 0000 0000 0000 0000 0000
000002c0: 0000 0000 0000 0000 0000 0000 0000 0000
000002d0: bd11 053b ab1e 6c3a 5d32 ba3a 2d6d aa3a
000002e0: 0cab de3a 544f ac38 0000 0000 a3e1 913a
000002f0: a708 333a f111 f639 8ecf 0ebb 48e3 123b
00000300: e274 9b3a ce21 0fbb 7c78 023b 05ce 9cba
00000310: db91 12bb 2243 12bb 7bb5 ecba 5520 16ba
0.0015941202 0.000670706 0.0010612922 0.0010087771 0.0012832256 8.5953194e-05 0.0 0.0008453048
0.00053294434 0.00038552907 -0.0018134709 0.0018617936 0.000937245 -0.0018188915 0.001630514 -0.0010344817
-0.0018576332 -0.0018592094 -0.0015219115 -0.0004138256 -0.004147942 -0.0018726487 -0.0029040559 -0.002773136
-0.0033696964 -0.00014426347 0.0 -0.002164491 -0.0014491624 -0.0010371646 0.0042400653 -0.0043737944
-0.002399229 0.0042443387 -0.003916005 0.002271765 0.004364375 0.0043535936 0.0035081 0.0012323312
0.00074733235 0.00024670272 0.00042856194 0.0003493296 0.0006326687 8.431464e-05 0.0 0.00046475785
0.00019590698 0.00014620343 -0.0009488536 0.0009613677 0.00037973913 -0.00095614657 0.0007958062 -0.00060088176
-0.00095916644 -0.0009622538 -0.0008039812 -7.704455e-05 6e-45 -6e-45 6e-45 6e-45
6e-45 6e-45 0.0 -6e-45 0.0 6e-45 -6e-45 6e-45
-6e-45 -6e-45 -6e-45 -6e-45 -6e-45 -6e-45 -6e-45 6e-45
0.0017486302 0.00076134043 0.001133066 0.0012752697 0.0012254702 8.435249e-05 0.0 0.0007601033
0.0006512838 0.0005537263 -0.0020997066 0.0021476161 0.00081272976 -0.0020917763 0.001863924 -0.0018029372
-0.0021491665 -0.0021656668 -0.0020182042 -0.00027916045 -0.0027458589 -0.001219953 -0.0018717109 -0.0018740785
-0.0021374081 -0.000109727705 0.0 -0.0013645611 -0.0009672098 -0.0007533122 0.0026081614 -0.0026944687
-0.0015155082 0.002609508 -0.002430748 0.0013776453 0.0026886084 0.0026824973 0.002156221 0.0008061824
0.0015438993 0.00064867176 0.0010439603 0.00092476356 0.0013064406 8.521594e-05 0.0 0.0008791693
0.00048915314 0.00034309505 -0.0017311615 0.0017747621 0.0008825274 -0.0017373599 0.0015512502 -0.0009911077
-0.0017707931 -0.0017721286 -0.0014490845 -0.0003787385 -0.00014319962 -6.9058864e-05 -0.000113688446 -0.00010484594
-0.000121045916 -1.1544762e-06 0.0 -7.1774986e-05 -4.7034853e-05 -3.4963483e-05 -2.5683083e-05 1.9705583e-05
2.7014317e-05 -2.7697199e-05 2.1974643e-05 -1.3984864e-05 -2.1333157e-05 -3.0488545e-05 -1.894105e-05 -3.3448327e-05
0.0 0.0 0.0 0.0 0.0 0.0 0.0 0.0
0.0 0.0 0.0 0.0 0.0 0.0 0.0 0.0
0.0 0.0 0.0 0.0 0.0020304762 0.00090072554 0.0014205683 0.0013002508
0.0016988232 8.216375e-05 0.0 0.0011129867 0.00068295974 0.00046934144 -0.0021791193 0.0022413302
0.0011860395 -0.0021840218 0.001990824 -0.0011963254 -0.0022364769 -0.0022317846 -0.0018059456 -0.0005726864
