generative_ts/saves/250925_132655_VRNN_stdY1_rollout/model_VRNN.pth (torch, 49506 bytes, 60 tensors)

phi_x.0.weight f4 [10, 1]
0.9564329 -0.3330503 0.15098254 0.6927951 -0.15657865 -1.1232091 -0.41289377 0.72632223
0.10095215 -0.57548106
00000000: c9d8 743f 9285 aabe 2b9b 1a3e 055b 313f
00000010: 2756 20be 51c5 8fbf d066 d3be 41f0 393f
00000020: 00c0 ce3d ba52 13bf

phi_x.0.bias f4 [10]
-0.36101183 -0.8526217 0.9940584 -0.29659665 0.5562248 0.44280407 1.070007 1.0894053
-0.88751566 -0.8222487
00000000: 8bd6 b8be 6a45 5abf 9c7a 7e3f 84db 97be
00000010: c064 0e3f 37b7 e23e fdf5 883f a271 8b3f
00000020: 3a34 63bf e47e 52bf

phi_x.2.weight f4 [10, 10]
0.3185183 0.30635685 -0.31988978 -0.097656325 -0.16989106 -0.10243247 -0.1768576 0.16735747
0.10919675 -0.037158456 0.4424989 0.17949302 -0.2378072 0.40433604 -0.20471129 -0.18346962
-0.30229327 0.30451068 -0.102642775 -0.1420427 -0.10536854 0.2531701 -0.1700142 -0.10436666
0.011405908 -0.1680584 -0.09908349 -0.017078148 -0.11118566 0.085817195 0.14596407 -0.284884
0.24308275 0.023926944 0.041036747 -0.11710464 0.39119083 0.16624375 -0.12026437 0.15134606
0.09372571 0.14505813 -0.07964997 -0.13957669 0.24295563 0.334393 -0.12474034 -0.06927074
0.028924374 0.34931248 0.036176328 -0.112607315 -0.11528446 0.26023945 0.3789012 0.17233124
0.07362755 -0.014734264 0.280464 0.29600543 0.025795445 -0.015755855 0.020061774 -0.12136526
0.18202557 0.40486562 -0.16520318 0.005692008 0.27030787 -0.024540754 0.33091208 -0.18239069
0.23024903 -0.044340633 0.19744995 0.119591616 -0.18734917 0.38490018 -0.21417432 -0.42824766
-0.06774412 -0.2475439 -0.034187157 0.10326002 -0.058324583 0.3331316 0.40252805 -0.060755406
0.03260853 0.2692219 -0.0012781869 -0.35078925 0.25997964 -0.107659265 -0.03891758 0.27499282
0.34845296 0.22755091 -0.19758388 0.16296154
00000000: d514 a33e ceda 9c3e 98c8 a3be 0a00 c8bd
00000010: ecf7 2dbe 1dc8 d1bd 291a 35be c25f 2b3e
00000020: 8ca2 df3d 7733 18bd 378f e23e 05cd 373e
00000030: bb83 73be 2205 cf3e d69f 51be 76df 3bbe
00000040: 2fc6 9abe d3e8 9b3e 6036 d2bd a473 11be
00000050: 76cb d7bd 839f 813e 3418 2ebe 30be d5bd
00000060: d8df 3a3c 8017 2cbe 49ec cabd 79e7 8bbc
00000070: 4fb5 e3bd edc0 af3d 9b77 153e 51dc 91be
00000080: afea 783e 7002 c43c 2616 283d 8fd4 efbd
00000090: 2a4a c83e cd3b 2a3e 2b4d f6bd 76fa 1a3e
000000a0: 44f3 bf3d 1e8a 143e 861f a3bd 31ed 0ebe
000000b0: 5cc9 783e 8f35 ab3e dd77 ffbd d1dd 8dbd
000000c0: cff2 ec3c 16d9 b23e a12d 143d aa9e e6bd
000000d0: 421a ecbd 1b3e 853e 57ff c13e 9a77 303e
000000e0: 0aca 963d fc67 71bc fa98 8f3e 068e 973e
000000f0: f850 d33c 6c12 81bc 9758 a43c 598e f8bd
00000100: e964 3a3e 8c4a cf3e 062b 29be 0684 ba3b
00000110: cb65 8a3e b109 c9bc 4f6d a93e a0c4 3abe
00000120: 67c6 6b3e 869e 35bd 5230 4a3e 73ec f43d
00000130: 76d8 3fbe a311 c53e 8350 5bbe 4743 dbbe
00000140: 6ebd 8abd 267c 7dbe d507 0cbd fd79 d33d
00000150: c2e5 6ebd 3a90 aa3e 2818 ce3e a9da 78bd
00000160: 8690 053d 74d7 893e d688 a7ba a69a b3be
00000170: 0d1c 853e 767c dcbd 0a68 1fbd dccb 8c3e
00000180: 6d68 b23e 1b03 693e 6e53 4abe 64df 263e

phi_x.2.bias f4 [10]
0.20103616 0.23643394 0.2854117 -0.064734004 -0.13736364 0.05954584 0.09097916 0.31737065
0.076676354 0.016202787
00000000: 6cdc 4d3e bd1b 723e 7b21 923e 4393 84bd
00000010: 0ea9 0cbe 57e6 733d 4853 ba3d 687e a23e
00000020: 7e08 9d3d b5bb 843c

phi_z.0.weight f4 [10, 1]
0.92669874 -0.61704916 -0.12866986 -0.62333006 -0.002607584 -0.9050288 0.7668476 0.17050436
0.3727936 -0.93206805
00000000: 213c 6d3f eff6 1dbf 08c2 03be 8f92 1fbf
00000010: 00e4 2abb f8af 67bf 2050 443f b298 2e3e
00000020: cede be3e 039c 6ebf

phi_z.0.bias f4 [10]
-0.6925083 -0.7955469 -0.85328233 -0.47092748 -0.81433177 1.0821089 -0.5608606 0.5509749
0.40912187 0.08183072
00000000: 3948 31bf f6a8 4bbf b670 5abf 681d f1be
00000010: 0c78 50bf 8b82 8a3f 8f94 0fbf b10c 0d3f
00000020: 6c78 d13e dd96 a73d

enc.0.weight f4 [10, 20]
0.09770052 -0.010955873 0.16059004 -0.1116995 0.079722375 -0.18804173 0.13795765 -0.025395876
-0.1106909 -0.116861284 0.25261137 0.3596463 -0.0588099 -0.19504847 -0.04834939 0.21631046
0.2986201 0.10259158 -0.072886184 0.07906543 -0.16685058 0.168228 0.22380367 -0.007897445
0.054402806 -0.1682808 0.12221856 0.11234854 0.18231617 0.075175636 0.08435798 0.0062930635
0.30173826 -0.045791604 0.3932777 -0.30201438 -0.22302596 -0.09552499 0.29662925 0.07987477
-0.08771112 0.0467838 0.18828253 0.042657454 0.11845614 0.03205537 0.17950264 0.17680232
-0.21340027 0.25658312 0.31942883 0.29563802 0.3855614 -0.30028337 0.37915164 -0.1512578
-0.09174721 -0.129607 0.1913862 0.022300435 0.10673161 0.070093356 0.094340034 -0.02351748
-0.06688004 0.15229748 -0.084540986 0.20757417 -0.1774459 -0.24252573 -0.05986558 -0.01037989
-0.122637875 0.047949042 0.23707336 0.09580781 0.0029984624 0.13608205 -0.04161653 0.12009421
0.034113575 0.020184657 -0.19592883 -0.057702094 -0.15266587 0.04678061 -0.18130727 -0.13652802
-0.12134043 0.28382364 0.14031568 0.18103245 -0.20365882 -0.107023545 -0.14763111 0.3266537
0.25967136 -0.20823276 -0.00998852 0.08215149 -0.11105132 0.0070517524 0.056606606 0.16627918
-0.27737164 -0.0921952 -0.027475016 -0.0032592951 0.2735143 0.32631266 0.22943328 0.0631533
0.3689732 -0.4019634 0.14434926 0.11085489 0.07117983 0.061426885 0.22025062 0.3324982
-0.019708851 0.25333953 -0.019423926 0.0070799477 0.047874574 0.18176736 0.08118812 0.015734706
0.18491434 -0.07301211 -0.14568329 0.23817801 -0.087089375 0.08346389 -0.23251273 0.04100407
0.30012867 -0.0494962 0.15278858 0.017880732 0.07766567 0.15710528 -0.23014666 -0.14284572
0.15880382 0.2134333 -0.15417743 -0.0045816908 -0.04496307 0.0035059429 0.2258029 0.20978856
0.094019145 -0.2582053 -0.26364067 0.039405428 0.37738878 -0.06652573 -0.19191691 0.054645374
0.19221446 0.153579 -0.006933041 0.04448071 -0.1859561 0.121525094 0.16536677 -0.09764786
0.05281966 -0.06618832 0.014053779 -0.0048151487 -0.32541698 0.066391364 -0.15997942 0.22269814
-0.22255708 0.053665116 -0.1655955 0.16700828 0.114698865 0.009981789 -0.06783265 -0.014154674
-0.2662769 -0.13453194 -0.12376654 -0.018906822 0.12812865 0.21297118 0.24451481 0.2354827
0.07155249 -0.06417267 0.25778925 -0.29948637 -0.1689986 -0.34867334 0.21710406 0.2578455
00000000: 3617 c83d 4380 33bc b771 243e b5c2 e4bd
00000010: 7c45 a33d 038e 40be c544 0d3e 030b d0bc
00000020: e9b1 e2bd f854 efbd 4756 813e 8f23 b83e
00000030: a6e2 70bd c9ba 47be 030a 46bd 7d80 5d3e
00000040: bce4 983e 891b d23d 5a45 95bd 0eed a13d
00000050: e1da 2abe f643 2c3e ca2c 653e 4964 01bc
00000060: 7ad5 5e3d cd51 2cbe b94d fa3d fe16 e63d
00000070: 17b1 3a3e aff5 993d e0c3 ac3d 0b36 ce3b
00000080: 707d 9a3e fa8f 3bbd b25b c93e a1a1 9abe
00000090: eb60 64be 9ba2 c3bd cadf 973e 6295 a33d
000000a0: e3a1 b3bd 5fa0 3f3d 23cd 403e 95b9 2e3d
000000b0: 2299 f23d 7e4c 033d 8acf 373e ab0b 353e
000000c0: 9a85 5abe dd5e 833e 2d8c a33e de5d 973e
000000d0: 4e68 c53e bebe 99be 2a20 c23e 53e3 1abe
000000e0: f6e5 bbbd b3b7 04be befa 433e 67af b63c
000000f0: 1a96 da3d 1b8d 8f3d 5935 c13d bba7 c0bc
00000100: 67f8 88bd dff3 1b3e d323 adbd 538e 543e
00000110: 61b4 35be aa58 78be 9c35 75bd 6a10 2abc
00000120: 9129 fbbd 3766 443d 5cc3 723e e336 c43d
00000130: da81 443b 1859 0b3e 1876 2abd f4f3 f53d
00000140: adba 0b3d 4b5a a53c 91a1 48be 0859 6cbd
00000150: 7154 1cbe 069d 3f3d 9da8 39be 00ce 0bbe
00000160: 5581 f8bd 5551 913e eaae 0f3e 9260 393e
00000170: f08b 50be 292f dbbd 9c2c 17be 273f a73e
00000180: a5f3 843e f83a 55be e4a6 23bc 0a3f a83d
00000190: e06e e3bd 6312 e73b 54dc 673d 1745 2a3e
000001a0: a803 8ebe d6d0 bcbd 4913 e1bc e699 55bb
000001b0: 110a 8c3e 7412 a73e 8ff0 6a3e 8456 813d
000001c0: 0eea bc3e 26ce cdbe 4bd0 133e e307 e33d
000001d0: bbc6 913d c29a 7b3d 6189 613e 343d aa3e
000001e0: 7574 a1bc b8b5 813e ed1e 9fbc e8fe e73b
000001f0: 2118 443d 3921 3a3e f545 a63d 12e6 803c
00000200: 2f5a 3d3e 6087 95bd 002e 15be f0e4 733e
00000210: ea5b b2bd 1eef aa3d d117 6ebe e2f3 273d
00000220: 77aa 993e 87bc 4abd 9c74 1c3e 9d7a 923c
00000230: 2e0f 9f3d 35e0 203e 91ab 6bbe 2646 12be
00000240: 789d 223e 428e 5a3e b0e0 1dbe 0222 96bb
00000250: 322b 38bd f6c3 653b e038 673e d0d2 563e
00000260: 1c8d c03d 7c33 84be e9fb 86be 9667 213d
00000270: 1a39 c13e a43e 88bd de85 44be d4d3 5f3d
00000280: ded3 443e d043 1d3e 902e e3bb 6831 363d
00000290: 476b 3ebe 26e2 f83d e855 293e 9afb c7bd
000002a0: 6e59 583d be8d 87bd d241 663c 65c8 9dbb
000002b0: 0e9d a6be 32f8 873d a5d1 23be fb0a 643e
000002c0: 01e6 63be f4cf 5b3d de91 29be 3804 2b3e
000002d0: 3de7 ea3d a88a 233c d8eb 8abd 01e9 67bc
000002e0: 7255 88be bec2 09be 5079 fdbd 7be2 9abc
000002f0: 2834 033e 1e15 5a3e 1762 7a3e 6022 713e
00000300: 1d8a 923d f66c 83bd f4fc 833e 4756 99be
00000310: f80d 2dbe 5085 b2be 8750 5e3e 5304 843e

enc.0.bias f4 [10]
0.2399565 -0.07249768 -0.010243112 0.08600353 0.22649567 0.029412277 0.21042661 -0.07255379
-0.15909344 0.08483552
00000000: 28b7 753e aa79 94bd bad2 27bc 9e22 b03d
00000010: 7bee 673e 04f2 f03c 137a 573e 1597 94bd
00000020: 64e9 22be 3fbe ad3d

enc.2.weight f4 [10, 10]
-0.1899173 0.19132453 0.15802133 -0.05629293 -0.2874032 0.19141135 -0.09175601 -0.3687211
0.074666515 0.17048042 0.24832681 0.19169885 -0.28186858 0.020840907 -0.2568177 -0.30008724
-0.30877954 -0.049602542 0.05088885 -0.27771348 -0.10639247 -0.286448 -0.16767462 -0.013286437
0.25001034 0.1543913 0.12347089 0.2666137 0.16381392 -0.2537929 -0.12810645 0.3342542
-0.076503925 -0.10151848 -0.22937119 -0.07257498 -0.13870509 -0.21221772 0.15598118 -0.03800604
-0.106622785 -0.05665481 -0.08709872 -0.17724484 0.09358627 0.34329 0.39766592 0.021475716
-0.32844615 -0.21300587 -0.04003518 0.18089847 -0.32188275 0.12903483 0.12110076 -0.03392394
-0.27767032 -0.27490437 -0.13572524 -0.25237918 -0.034596916 0.2889828 0.42616135 0.07145852
-0.14114818 0.33720478 -0.1258299 0.019216385 0.31978917 0.17747177 0.13272448 -0.2934094
0.11165213 -0.31441334 0.31157082 0.17742561 0.17585878 0.1325691 0.12069821 0.0897081
0.47682527 -0.051455956 0.015315623 -0.017334191 0.016047345 0.23649324 -0.19563216 0.36055893
0.020511191 0.1389978 0.3870256 -0.13797332 -0.13955854 0.012120492 0.12904812 0.1903991
0.17954855 0.13270935 -0.28067893 0.27244857
00000000: ae79 42be 94ea 433e 58d0 213e 6a93 66bd
00000010: 8326 93be 5601 443e 93ea bbbd 03c9 bcbe
00000020: c2ea 983d 6b92 2e3e 6249 7e3e b44c 443e
00000030: 1451 90be 8dba aa3c 9c7d 83be 09a5 99be
00000040: 5a18 9ebe 092c 4bbd d470 503d 7630 8ebe
00000050: 4ce4 d9bd 50a9 92be e5b2 2bbe 5baf 59bc
00000060: 5b01 803e c118 1e3e 4ede fc3d 9781 883e
00000070: d6be 273e 25f1 81be 562e 03be 5e23 ab3e
00000080: 17ae 9cbd ece8 cfbd 48e0 6abe 31a2 94bd
00000090: b508 0ebe 9a4f 59be 88b9 1f3e 39ac 1bbd
000000a0: 0c5d dabd e00e 68bd d060 b2bd ac7f 35be
000000b0: 29aa bf3d b5c3 af3e de9a cb3e d7ed af3c
000000c0: 182a a8be 361e 5abe eefb 23bd 733d 393e
000000d0: d1cd a4be b521 043e ad03 f83d d4f3 0abd
000000e0: ce2a 8ebe 44c0 8cbe 8ffb 0abe d837 81be
000000f0: 7fb5 0dbd 8ef5 933e d231 da3e d858 923d
00000100: 2689 10be 1ba6 ac3e 8ed9 00be ae6b 9d3c
00000110: 68bb a33e 29bb 353e ede8 073e c239 96be
00000120: dfa9 e43d c9fa a0be 3686 9f3e 0faf 353e
00000130: 5314 343e 32c0 073e a030 f73d e1b8 b73d
00000140: 7122 f43e 7bc3 52bd 61ee 7a3c 6f00 8ebc
00000150: b975 833c 492b 723e cc53 48be 2e9b b83e
00000160: 1607 a83c 7055 0e3e 3828 c63e e148 0dbe
00000170: 6fe8 0ebe 0795 463c 3125 043e fbf7 423e
00000180: 93db 373e f6e4 073e 26b5 8fbe 617e 8b3e

enc.2.bias f4 [10]
0.40966743 -0.016506022 0.1275925 -0.05128204 0.12844817 -0.0068541104 0.046274956 0.24781413
0.16842772 -0.0651395
00000000: eebf d13e a337 87bc 9ca7 023e 1e0d 52bd
00000010: eb87 033e 7298 e0bb cf8a 3d3d fdc2 7d3e
00000020: 5178 2c3e dc67 85bd

enc_mean.weight f4 [1, 10]
0.4207163 0.29099673 -0.32958743 0.12074932 -0.38833266 -0.18787265 0.31693414 -0.20919587
-0.07966772 -0.19983949
00000000: 2068 d73e 86fd 943e afbf a8be 6b4b f73d
00000010: 8ad3 c6be b061 40be 3145 a23e 7137 56be
00000020: d428 a3bd b9a2 4cbe

enc_std.0.weight f4 [1, 10]
-0.16798785 -0.09687924 0.10481687 -0.1150062 0.15354627 -0.043984257 -0.4612064 -0.43411112
-0.291102 -0.3945989
00000000: 0205 2cbe 9f68 c6bd 3aaa d63d 5f88 ebbd
00000010: 3c3b 1d3e d628 34bd 3f23 ecbe d043 debe
00000020: 520b 95be de08 cabe

prior.0.weight f4 [10, 10]
0.13969964 -0.11821204 -0.029333655 -0.23593725 -0.5179515 0.29618406 0.3606141 0.35051444
-0.20306481 0.28055322 -0.3136955 -0.027146475 0.036838185 0.19074985 -0.152234 0.19094072
-0.12267581 -0.20551701 0.0558831 -0.19816753 -0.21660952 0.007639295 0.41010895 -0.2081103
-0.047075707 -0.38310087 -0.40667602 0.025812207 0.26378512 0.4445537 0.18834189 0.45752165
0.16595675 -0.43412423 0.50235325 -0.30435205 -0.14820671 -0.439091 0.09823228 0.115788974
0.20085418 -0.15976351 0.1790737 -0.12542209 0.46675172 -0.400854 -0.010017021 -0.09061853
-0.12016888 0.46187565 0.13931556 -0.107056566 -0.3123463 0.29888877 0.2381772 -0.29662186
-0.10184495 0.07626463 -0.16553399 -0.17064518 -0.042837247 0.037798546 -0.21108232 0.3333489
-0.184996 0.18823183 -0.053007845 0.16331723 0.21767119 -0.2381383 0.43516144 0.33587602
0.15049423 -0.12224149 -0.32776225 0.30482417 0.31120887 0.007425838 0.32586086 0.21966293
0.18617928 -0.25446203 -0.091771066 -0.1549781 -0.0027679082 0.37388468 0.19612363 -0.18499883
-0.20305401 0.30385992 0.19900703 -0.27101237 0.07141872 -0.012290672 -0.055616166 0.2003944
0.21295092 -0.006637022 -0.22906557 -0.10130795
00000000: 6c0d 0f3e 2719 f2bd 224d f0bc 8999 71be
00000010: 7898 04bf 70a5 973e 69a2 b83e a176 b33e
00000020: 39f0 4fbe aca4 8f3e b29c a0be 4962 debc
00000030: a3e3 163d ee53 433e 3be3 1bbe f785 433e
00000040: 743d fbbd 0d73 52be ade5 643d 6eec 4abe
00000050: e3ce 5dbe 0d53 fa3b cdf9 d13e de1a 55be
00000060: 75d2 40bd cc25 c4be d737 d0be 1f74 d33c
00000070: d80e 873e 8b9c e33e b2dc 403e 4740 ea3e
00000080: 91f0 293e 8845 debe 399a 003f 08d4 9bbe
00000090: 80c3 17be 89d0 e0be 012e c93d c522 ed3d
000000a0: b8ac 4d3e 0c99 23be 195f 373e a66e 00be
000000b0: 15fa ee3e bc3c cdbe 6e1e 24bc 3596 b9bd
000000c0: 1a1b f6bd f77a ec3e bda8 0e3e 7940 dbbd
000000d0: dbeb 9fbe f307 993e b9e4 733e d2de 97be
000000e0: 1694 d0bd a130 9c3d be81 29be 9cbd 2ebe
000000f0: 1c76 2fbd a6d2 1a3d f725 58be b5ac aa3e
00000100: 976f 3dbe d8bf 403e c11e 59bd a23c 273e
00000110: 32e5 5e3e 87da 73be 7bcd de3e f1f7 ab3e
00000120: 291b 1a3e bf59 fabd 74d0 a7be ea11 9c3e
00000130: c556 9f3e 7254 f33b 3cd7 a63e 52ef 603e
00000140: c8a5 3e3e d948 82be 78f2 bbbd 94b2 1ebe
00000150: cb65 35bb d06d bf3e a2d4 483e 5570 3dbe
00000160: 64ed 4fbe 8793 9b3e 80c8 4b3e 22c2 8abe
00000170: fa43 923d d15e 49bc c7cd 63bd 3134 4d3e
00000180: ce0f 5a3e 607b d9bb 2a90 6abe 8b7a cfbd

prior.0.bias f4 [10]
-0.17828856 0.03714349 0.010249978 0.2365208 0.1267327 -0.27305537 -0.2424884 -0.08342271
0.24327989 -0.28717506
00000000: 4791 36be c623 183d 86ef 273c 8232 723e
00000010: 38c6 013e eacd 8bbe e14e 78be 87d9 aabd
00000020: 5d1e 793e 9c08 93be

prior_mean.weight f4 [1, 10]
-0.2052003 -0.061886072 0.39463198 0.1538192 0.37718725 -0.03854133 0.10018352 -0.3313973
-0.11946221 0.077964775
00000000: 0720 52be 407c 7dbd 340d ca3e c882 1d3e
00000010: b01e c13e 83dd 1dbd 042d cd3d e8ac a9be
00000020: 9aa8 f4bd ffab 9f3d

prior_std.0.weight f4 [1, 10]
-0.01215368 0.08913289 -0.039928205 -0.47879636 -0.11740226 0.10884266 0.15404518 -0.50381714
-0.14744824 0.25294304
00000000: 3b20 47bc 4e8b b63d c28b 23bd cc24 f5be
00000010: 9970 f0bd e7e8 de3d 05be 1d3e 29fa 00bf
00000020: acfc 16be c081 813e

dec.0.weight f4 [10, 20]
0.04527091 -0.029787315 -0.20530252 0.083180204 0.21382998 -0.14686783 0.066766955 0.031031458
0.22283198 0.15029928 0.044679068 0.03963655 -0.09716232 0.023040492 -0.09115782 0.2084202
-0.016259445 0.10567539 -0.058835804 0.07056178 -0.06350797 0.22217964 -0.030720755 -0.08986998
0.07313507 -0.04025577 0.047921717 -0.006941091 -0.013619194 -0.10399572 0.19777304 -0.15687068
-0.18390682 0.15918568 0.16791709 -0.06815187 0.11237421 -0.017954927 0.1563132 -0.06738356
-0.13247372 0.0045543923 -0.18217804 0.013198775 -0.19319202 -0.16186562 -0.0318929 -0.18117192
-0.22111253 -0.21829537 -0.03307949 -0.111345604 0.073152214 0.20729125 0.0501561 -0.16840735
0.05418924 -0.19427319 -0.040918864 -0.068003476 0.16538206 0.08549773 -0.21251507 -0.21139248
-0.068934195 -0.015289086 -0.15902111 0.0024990274 0.050564606 -0.039741628 0.14506663 0.20777142
-0.05927875 0.21039912 -0.20170587 0.08123546 0.018928751 -0.20300652 -0.17514305 0.058843322
0.055510174 0.089169726 0.13799632 0.11638516 0.16127425 0.18963502 0.17004608 0.16564123
0.11883693 -0.039649263 0.17666231 -0.17631629 0.09243189 0.03852478 -0.09726966 -0.05550415
0.031802908 -0.21329719 0.17510702 -0.015512836 0.08966494 -0.18672486 0.1151587 0.014678903
-0.17789337 -0.21167676 0.034459688 0.15247516 0.16865088 0.18176214 0.05345124 0.11639271
-0.08324327 -0.2140418 -0.20730892 -0.039483145 -0.09041616 -0.19045717 0.1329965 -0.04382754
-0.15905687 -0.13542308 -0.046411946 -0.053743843 -0.022841426 -0.0904832 -0.035506442 -0.19032565
0.12609251 0.018051501 -0.13127553 -0.10201646 0.11829552 0.15323922 -0.053812347 -0.0014942025
0.08674096 -0.16429323 -0.052411333 0.15620573 -0.14679314 0.11151898 0.155232 -0.031109747
0.10154654 -0.16372432 0.15266442 0.20024537 0.088628694 -0.076651424 0.2137114 -0.19450542
0.086033866 0.11742152 -0.09514689 0.11238252 0.006787819 -0.007664135 0.16659515 -0.06516282
-0.16541903 0.15123309 -0.21544409 0.035239268 -0.18142569 -0.12309696 -0.21014647 -0.04924468
0.03762461 0.10365919 0.05979782 0.027066004 -0.056809284 0.104987696 0.20727922 0.18497261
-0.21446584 -0.1827671 -0.038057607 0.1704936 -0.06609354 -0.13621451 -0.097610995 -0.14835697
-0.013040998 0.15894093 0.115535505 -0.009106092 0.11898767 0.22273608 0.016458778 -0.12690744
-0.097098075 -0.1316048 -0.1299117 0.20652999 -0.096606195 -0.21037926 0.04122562 0.019945543
00000000: fd6d 393d 8704 f4bc d33a 52be 625a aa3d
00000010: 3ff6 5a3e 8564 16be 1dbd 883d af35 fe3c
00000020: 112e 643e 0ee8 193e 6601 373d ef59 223d
00000030: 0afd c6bd 6abf bc3c f3b0 babd 1b6c 553e
00000040: 8732 85bc 576c d83d d0fd 70bd b282 903d
00000050: 7710 82bd 0f83 633e 18aa fbbc c10d b8bd
00000060: d7c7 953d 3ce3 24bd 9049 443d 1772 e3bb
00000070: 0a23 5fbc b5fb d4bd 0485 4a3e b5a2 20be
00000080: 1252 3cbe 9201 233e 75f2 2b3e 3593 8bbd
00000090: 7324 e63d 3616 93bc 9110 203e 6400 8abd
000000a0: 31a7 07be 033d 953b e18c 3abe ad3f 583c
000000b0: 21d4 45be 1ac0 25be 21a2 02bd 2285 39be
000000c0: 536b 62be d288 5fbe 5c7e 07bd 2a09 e4bd
000000d0: d4d0 953d 2844 543e 7c70 4d3d fa72 2cbe
000000e0: 89f5 5d3d 8def 46be 8a9a 27bd 6845 8bbd
000000f0: ea59 293e 6f19 af3d 8d9d 59be 4577 58be
00000100: 5f2d 8dbd 137f 7abc 6ed6 22be b9c6 233b
00000110: d51c 4f3d 1ec8 22bd 598c 143e 08c2 543e
00000120: 46ce 72bd de72 573e fc8b 4ebe c75e a63d
00000130: 7810 9b3c f1e0 4fbe b358 33be b205 713d
00000140: a35e 633d 9e9e b63d e84e 0d3e 585b ee3d
00000150: 1425 253e af2f 423e 8f20 2e3e db9d 293e
00000160: c760 f33d 4467 22bd f7e6 343e 428c 34be
00000170: ee4c bd3d 29cc 1d3d 5135 c7bd 5258 63bd
00000180: c443 023d 946a 5abe 414f 333e 8d29 7ebc
00000190: 41a2 b73d cd34 3fbe 53d8 eb3d c87f 703c
000001a0: ae29 36be cbc1 58be 9a25 0d3d 7322 1c3e
000001b0: d1b2 2c3e db1f 3a3e b0ef 5a3d 4d5f ee3d
000001c0: 737b aabd c62d 5bbe ca48 54be 14b9 21bd
000001d0: 1c2c b9bd 3407 43be 3c30 083e 8284 33bd
000001e0: cedf 22be 59ac 0abe 741a 3ebd 8122 5cbd
000001f0: f11d bbbc 424f b9bd 346f 11bd bae4 42be
00000200: 651e 013e bee0 933c 186d 06be 01ee d0bd
00000210: ec44 f23d beea 1c3e 566a 5cbd 1ed9 c3ba
00000220: 3fa5 b13d 7c3c 28be 44ad 56bd 65f4 1f3e
00000230: f150 16be 1064 e43d 23f5 1e3e ded9 febc
00000240: a2f7 cf3d 59a7 27be 1054 1c3e 1f0d 4d3e
00000250: f682 b53d 6cfb 9cbd 29d7 5a3e 6e2c 47be
00000260: 8632 b03d b27a f03d 5fdc c2bd cf28 e63d
00000270: 5a6c de3b 6d23 fbbb eb97 2a3e 1674 85bd
00000280: 9b63 29be d9dc 1a3e 609d 5cbe 0d57 103d
00000290: a8c7 39be 421a fcbd a330 57be cab4 49bd
000002a0: 431c 1a3d 454b d43d 8fee 743d 86b9 dd3c
000002b0: dab0 68bd ca03 d73d 0141 543e 7669 3d3e
000002c0: ef9c 5bbe 4c27 3bbe 4be2 1bbd e095 2e3e
000002d0: 0d5c 87bd d17b 0bbe 46e8 c7bd e4ea 17be
000002e0: e9a9 55bc 69c1 223e e19d ec3d b831 15bc
000002f0: cfaf f33d ed14 643e 8fd4 863c 06f4 01be
00000300: 5bdb c6bd 69c3 06be 9307 05be 997c 533e
00000310: 78d9 c5bd a96d 57be 32dc 283d d664 a33c

dec.0.bias f4 [10]
0.18861428 0.18558753 -0.020647077 -0.08214731 -0.054129872 -0.19482073 0.0020350795 0.16366231
-0.18507314 -0.009502414
00000000: 1a24 413e a80a 3e3e 0f24 a9bc d93c a8bd
00000010: 49b7 5dbd 167f 47be f85e 053b 1897 273e
00000020: d083 3dbe 03b0 1bbc

dec.2.weight f4 [10, 10]
-0.2542981 -0.13279021 -0.04147957 0.014221528 0.08880866 -0.06490658 0.2826039 -0.03481695
0.21524332 0.2683453 -0.10995059 0.077643365 -0.1789295 0.21347156 -0.034858454 -0.03914347
-0.05068223 0.025945159 0.28689954 -0.06735152 -0.23475341 0.06066304 0.0023847304 0.105412245
0.26279658 0.12930475 -0.0033132145 -0.07908872 0.24328472 0.29999414 -0.2978063 0.051512778
-0.27948076 -0.121891275 -0.056859497 0.022374583 -0.07780113 0.055252273 0.10543287 -0.07850509
-0.016131084 0.2562707 -0.02551978 -0.106382124 -0.1576416 -0.1406387 -0.009066688 -0.14937855
-0.16654114 -0.23277985 -0.11173182 0.06388506 0.07593312 -0.23286285 -0.25178313 0.045186684
-0.23828343 0.1628553 -0.060553078 0.170411 -0.27394536 -0.23211344 0.26691815 -0.07825463
-0.19824298 0.3036607 0.29155427 0.16089621 -0.21120045 0.11963023 -0.12161284 0.21381909
-0.025938863 -0.024150955 0.0713238 -0.14356434 0.051357277 0.15048976 0.15582283 0.26197758
-0.24366353 -0.06668217 -0.16490915 -0.13701162 -0.28915668 -0.3070044 -0.24175447 -0.11603489
0.25357863 -0.08274596 -0.054275613 0.21144992 -0.2574172 0.11183258 0.30987546 0.0071886466
0.25231782 0.22099213 -0.09504417 0.034993224
00000000: 5c33 82be 28fa 07be 7be6 29bd 6901 693c
00000010: 51e1 b53d beed 84bd 75b1 903e 389c 0ebd
00000020: bf68 5c3e 8e64 893e c62d e1bd 7c03 9f3d
00000030: 4b39 37be 4a98 5a3e bdc7 0ebd e754 20bd
00000040: 2c98 4fbd f18a d43c 7fe4 923e 98ef 89bd
00000050: 3363 70be cf79 783d 2349 1c3b 60e2 d73d
00000060: 468d 863e 7768 043e 8422 59bb 44f9 a1bd
00000070: a11f 793e d598 993e 117a 98be 10ff 523d
00000080: 1a18 8fbe 22a2 f9bd 81e5 68bd e74a b73c
00000090: 3356 9fbd 3550 623d 30ed d73d 47c7 a0bd
000000a0: 5625 84bc ea35 833e dc0e d1bc dfde d9bd
000000b0: cd6c 21be 9703 10be 728c 14bc b1f6 18be
000000c0: c389 2abe d75d 6ebe a7d3 e4bd 2cd6 823d
000000d0: d382 9b3d 9973 6ebe b8e9 80be ac15 393d
000000e0: 9200 74be 8ac3 263e 8106 78bd 3980 2e3e
000000f0: 9142 8cbe 25af 6dbe 7fa9 883e f743 a0bd
00000100: 3500 4bbe 6a79 9b3e 9a46 953e fac1 243e
00000110: ee44 58be b200 f53d 2710 f9bd 64f3 5a3e
00000120: bd7d d4bc 39d8 c5bc 3612 923d 8802 13be
00000130: 025c 523d fd19 1a3e 0590 1f3e ed21 863e
00000140: ef82 79be a990 88bd f2dd 28be c64c 0cbe
00000150: 580c 94be ae2f 9dbe 7c8e 77be b3a3 edbd
00000160: 0fd5 813e b776 a9bd 1b50 5ebd 5486 583e
00000170: 30cc 83be 7b08 e53d ffa7 9e3e bd8e eb3b
00000180: cd2f 813e c34b 623e 85a6 c2bd 0e55 0f3d

dec.2.bias f4 [10]
0.0926412 -0.13139431 0.14301318 0.17973532 0.116509534 0.27598736 -0.27807105 0.0041022566
-0.14801006 0.2779082
00000000: abba bd3d 3b8c 06be 0c72 123e 890c 383e
00000010: 8d9c ee3d 374e 8d3e 545f 8ebe 396c 863b
00000020: f38f 17be fc49 8e3e

dec_std.0.weight f4 [1, 10]
0.24763887 -0.16588254 0.12596036 0.0870692 -0.21060732 0.10872124 -0.080115594 -0.09350628
0.19863066 -0.12291958
00000000: 0b95 7d3e 1ddd 29be c1fb 003e 5651 b23d
00000010: 72a9 57be 3ea9 de3d a513 a4bd 3880 bfbd
00000020: d665 4b3e 43bd fbbd

dec_mean.0.weight f4 [1, 10]
0.27999565 -0.065410785 0.15708973 0.30141023 -0.21482062 0.070805006 0.039784547 -0.14028986
-0.17611848 -0.09346402
00000000: 975b 8f3e 17f6 85bd 21dc 203e 7152 9a3e
00000010: f0f9 5bbe 3702 913d 1ff5 223d 25a8 0fbe
00000020: 6758 34be 106a bfbd

rnn.weight_ih_l0 f4 [30, 20]
-0.19303648 -0.08485058 0.19588542 0.32874182 0.037649814 -0.0076474445 0.1701518 0.17992218
0.38553292 0.20941944 -0.1438058 -0.10819177 0.13544443 -0.15773855 0.293766 0.40426406
0.34005857 -0.011058143 0.13765398 -0.07686993 0.17408586 -0.22748187 -0.16325012 0.30709466
-0.39453834 0.062223457 0.14356212 -0.14395587 0.07362993 -0.09780664 -0.32868615 0.07174639
-0.07014078 0.21933918 -0.27034247 0.35870332 -0.05896328 0.16777416 -0.12339145 -0.0325255
0.14683755 0.20938121 0.22434549 -0.2152327 -0.50674915 -0.11064128 -0.2773178 0.29131928
-0.36701727 0.1316217 0.2855447 -0.48256117 -0.010719638 -0.6117049 -0.063817024 0.18482377
0.14451033 -0.18225442 0.18962464 -0.24061102 -0.034000315 0.3777184 0.23310703 -0.03343926
-0.06349693 0.050864 0.28745452 0.03809762 0.222155 -0.008952967 -0.0020779532 0.34533122
-0.031642046 -0.080364674 0.120236814 0.4408599 0.067325056 -0.020904528 0.2592338 0.26235417
0.18934494 -0.012541573 0.32374614 0.38856837 0.0055839033 -0.45332325 -0.011981037 0.13686208
-0.2920506 -0.18868303 0.18047328 -0.3920146 0.29924425 -0.018419096 0.28891954 -0.16205634
0.18136765 -0.055451557 0.043883577 -0.2519811 -0.12954135 -0.11154533 0.23882066 0.22912957
-0.28498438 -0.16005042 0.18366441 -0.074642584 -0.1932437 -0.31399757 0.12115948 -0.37872958
0.2599356 -0.39082727 0.043412987 -0.22308384 0.12020457 -0.21280056 0.027122905 -0.23712866
0.33037987 0.3522294 -0.095666744 0.25054803 -0.23371062 -0.29156396 -0.27951515 0.26876494
-0.35440394 -0.40533507 0.01926465 0.1975677 -0.31616083 0.05101623 0.13878189 -0.21288548
0.20635177 0.0017967826 0.31148225 -0.006127913 -0.05123279 -0.099894926 0.10516382 0.4257241
0.04436865 -0.16525806 0.045544986 -0.022278197 -0.08711856 -0.036702417 -0.17144702 -0.17485201
-0.26546934 0.10884788 -0.116772324 0.33150962 0.3276997 0.04077501 0.37381905 0.019371219
0.24349219 -0.3931157 -0.13458467 -0.031332586 0.11915979 0.031434022 -0.19224934 -0.35379666
-0.09391576 -0.29446116 0.32110947 0.26355526 -0.19837044 -0.11054739 0.22025333 -0.343599
-0.16380318 -0.08068092 -0.32427245 0.07068566 -0.2562505 0.14763278 -0.032445457 -0.27555963
0.1688335 0.043291584 -0.101974614 -0.35437685 -0.30404398 -0.17368717 -0.1779756 -0.267419
0.26409268 0.1564059 0.101931766 -0.14171349 0.23854692 0.09136839 -0.2650485 0.22258365
0.009981914 -0.026302258 0.38357645 0.25287136 -0.14550634 0.33218983 -0.26513588 0.11953654
0.03303713 -0.10510855 -0.015211131 0.14357956 -0.0385382 -0.2003824 -0.24328686 -0.20122857
0.04600473 0.0799975 0.036646485 -0.082794204 -0.044614863 0.42374113 0.08913271 -0.09842586
0.4300025 0.037048765 -0.11269572 0.42654324 -0.24457827 -0.26134887 0.27789372 -0.10611938
0.11908403 0.12162208 -0.13411914 -0.20935827 -0.17970738 0.11532613 -0.10121061 -0.14158379
0.037565913 0.0021766825 -0.14231393 -0.06698616 -0.13574924 0.20821425 -0.07363317 -0.15540412
-0.265221 0.13062961 -0.08665646 0.19783026 0.19370668 0.41347384 -0.12382982 -0.14901723
00000000: 5bab 45be 24c6 adbd 3096 483e d950 a83e
00000010: b136 1a3d 6a97 fabb 463c 2e3e 853d 383e
00000020: 9264 c53e 0d72 563e d441 13be a693 ddbd
00000030: f2b1 0a3e 3786 21be 7f68 963e b3fb ce3e
00000040: 281c ae3e 372d 35bc 2af5 0c3e fb6d 9dbd
00000050: 9043 323e 02f1 68be 0a2b 27be 833b 9d3e
00000060: ee00 cabe 06de 7e3d f301 133e 2b69 13be
00000070: 4acb 963d d94e c8bd 8d49 a8be c5ef 923d
00000080: f8a5 8fbd 739a 603e 546a 8abe f6a7 b73e
00000090: 7b83 71bd fdcc 2b3e a8b4 fcbd 7539 05bd
000000a0: 955c 163e 0768 563e d3ba 653e f665 5cbe
000000b0: 50ba 01bf e597 e2bd 99fc 8dbe cd27 953e
000000c0: b0e9 bbbe d7c7 063e ea32 923e 4212 f7be
000000d0: 6ca1 2fbc b198 1cbf 80b2 82bd 7142 3d3e
000000e0: 84fa 133e e7a0 3abe f62c 423e bc62 76be
000000f0: ea43 0bbd 4e64 c13e 9cb3 6e3e 9bf7 08bd
00000100: ae0a 82bd c556 503d 3d2d 933e 400c 1c3d
00000110: 9a7c 633e 77af 12bc 452e 08bb 41cf b03e
00000120: 179b 01bd 3c96 a4bd b83e f63d 64b8 e13e
00000130: b8e1 893d f93f abbc 4bba 843e 4953 863e
00000140: a4e3 413e 2b7b 4dbc 0ec2 a53e 6ff2 c63e
00000150: 2df9 b63b fc19 e8be 1d4c 44bc 9325 0c3e
00000160: a887 95be 2036 41be fdcd 383e 23b6 c8be
00000170: 8b36 993e a5e3 96bc 43ed 933e 19f2 25be
00000180: 71b8 393e 2c21 63bd 44bf 333d ab03 81be
00000190: 7da6 04be e171 e4bd 678d 743e f1a0 6a3e
000001a0: 79e9 91be 42e4 23be 8612 3c3e 36de 98bd
000001b0: ade1 45be 4ac4 a0be 7622 f83d d8e8 c1be
000001c0: 4716 853e 831a c8be d1d1 313d 1770 64be
000001d0: d02d f63d 64e8 59be db30 de3c dbd1 72be
000001e0: 8d27 a93e 6957 b43e edec c3bd d547 803e
000001f0: d651 6fbe df47 95be 9c1c 8fbe 8f9b 893e
00000200: 6f74 b5be 1488 cfbe e6d0 9d3c 304f 4a3e
00000210: d5df a1be 65f6 503d d71c 0e3e a7fe 59be
00000220: e14d 533e 0582 eb3a 9a7a 9f3e a9cc c8bb
00000230: 79d9 51bd b695 ccbd 2160 d73d 82f8 d93e
00000240: e7bb 353d 6939 29be 618d 3a3d c480 b6bc
00000250: 376b b2bd 4655 16bd cf8f 2fbe 680c 33be
00000260: 99eb 87be a3eb de3d 5426 efbd a1bb a93e
00000270: 41c8 a73e b203 273d 3665 bf3e 64b0 9e3c
00000280: 0456 793e 7646 c9be 90d0 09be 9956 00bd
00000290: 0c0a f43d f6c0 003d 03dd 44be d624 b5be
000002a0: e856 c0bd 9dc3 96be 7668 a43e b7f0 863e
000002b0: 9f21 4bbe ac66 e2bd 178a 613e 35ec afbe
000002c0: 05bc 27be 0a3c a5bd 0a07 a6be a5c3 903d
000002d0: 4433 83be 0c2d 173e 87e5 04bd 2716 8dbe
000002e0: b0e2 2c3e 8452 313d 11d8 d0bd e270 b5be
000002f0: a7ab 9bbe 0ddb 31be 3c3f 36be 25eb 88be
00000300: 2837 873e de28 203e 9ac1 d03d 571d 11be
00000310: a545 743e 5a1f bb3d 70b4 87be f8ec 633e
00000320: 2f8b 233c d577 d7bc 2264 c43e 5b78 813e
00000330: 9dff 14be c914 aa3e e4bf 87be 93cf f43d
00000340: f151 073d 2743 d7bd 1c38 79bc 8506 133e
00000350: 3bda 1dbd 0b31 4dbe 3120 79be dd0e 4ebe
00000360: 756f 3c3d bbd5 a33d a01a 163d 0290 a9bd
00000370: 13be 36bd 99f4 d83e 368b b63d 7f93 c9bd
00000380: 4a29 dc3e 72c0 173d 03cd e6bd e063 da3e
00000390: ba72 7abe 85cf 85be 1648 8e3e 1e55 d9bd
000003a0: 54e2 f33d ff14 f93d 8756 09be 0462 56be
000003b0: 3605 38be 1b30 ec3d 8247 cfbd 57fb 10be
000003c0: b7de 193d aca6 0e3b beba 11be 0a30 89bd
000003d0: d901 0bbe 1e36 553e fdcc 96bd 4222 1fbe
000003e0: 0ccb 87be c5c3 053e f178 b1bd 0494 4a3e
000003f0: 0b5b 463e d8b2 d33e 7d9a fdbd f997 18be

rnn.weight_hh_l0 f4 [30, 10]
0.13762717 0.25396395 0.121560805 -0.15798037 -0.14604123 -0.2202198 0.16207117 -0.16364042
-0.003200943 0.38138446 0.35072967 -0.04185718 0.4559067 -0.07023893 0.027195835 -0.3752884
0.20021327 0.1225984 0.08995553 0.38739285 0.070427276 0.24135901 -0.22876333 -0.1480078
-0.22782731 -0.21937634 -0.14965022 -0.32249412 -0.16331202 0.0016945885 0.41431135 -0.095379256
0.30042493 -0.21788357 0.2003736 -0.39121392 0.22019704 -0.046742644 0.25935104 0.4579454
-0.1560501 0.24855568 0.19510274 -0.22210214 0.40988076 -0.12706876 0.1054902 0.22402401
-0.094099894 -0.045125473 -0.25671142 -0.10007078 0.21753871 -0.055986278 0.28553817 -0.09233816
-0.31963494 -0.058296178 -0.1020805 -0.045949403 0.22946772 0.1114465 0.2657584 0.20563328
-0.13079576 -0.25416058 -0.2576117 0.11579898 -0.28765914 -0.013312322 -0.02805021 0.4424203
-0.008035087 -0.26579845 0.017407287 0.021218995 -0.15930647 -0.35538095 0.3230385 -0.099040285
-0.31087565 -0.13558188 -0.048297644 0.30286312 -0.11452727 -0.2021741 -0.32010514 -0.037648823
0.21243332 -0.13012786 -0.32526487 -0.45241156 0.16682097 -0.12044741 -0.13312174 0.060248837
0.19121851 -0.016228477 0.052906062 -0.50826234 0.26652995 -0.037623048 0.4853061 -0.29529735
0.409518 0.1983814 0.04133576 0.0101115145 0.21573685 0.5972001 0.48428544 0.4526232
0.46301863 -0.4690452 -0.0023674015 -0.38269895 0.16947618 -0.29439983 0.42110896 0.04258237
0.2566873 0.32468784 0.24279088 -0.101610176 -0.13000327 0.1525477 -0.020556193 0.07919477
0.60785437 0.15819195 0.16802128 0.3304458 0.3827417 0.15981671 0.0037481335 -0.030653453
-0.0056809024 -0.37588575 0.023230033 -0.09304142 0.38693905 -0.0138552245 0.21220967 -0.42127782
0.24293259 -0.015160523 0.47714213 -0.35602993 -0.096559025 0.035400834 -0.08864794 0.48243988
0.03207503 -0.16478373 0.20751242 -0.23891832 0.05664941 -0.07219637 0.39995876 0.4668205
0.22587405 0.3111724 0.12011913 -0.12511371 0.12386246 -0.06539422 -0.020445082 -0.11711563
0.26656947 0.26232213 0.25559655 -0.1611193 0.16645439 -0.065554455 -0.16225141 0.18369837
-0.029891325 -0.16951281 -0.09373871 -0.1510523 0.040177718 0.23193859 0.60531527 -0.059996594
0.18960795 -0.10250276 -0.007139768 -0.19621678 0.3823782 -0.0028018919 -0.0019202132 0.25567624
-0.07994817 -0.5651841 0.15816335 -0.22178088 -0.10968084 0.02963029 0.3024172 -0.07589775
0.43635094 0.38001737 0.41848958 -0.469948 0.4093723 0.19956738 0.16991931 0.15567376
0.2758471 0.16038454 0.3540119 0.25122738 -0.13519737 -0.096395485 0.072531275 -0.017614502
-0.11460482 -0.44293153 0.04410274 0.049727768 0.055505622 0.24907827 -0.03304539 -0.23275395
0.012676373 -0.06742053 -0.12229012 -0.13402912 -0.05015608 0.15164009 -0.30803135 0.024581246
-0.23946135 -0.011793168 -0.3922544 0.05420851 0.16921738 0.15831293 -0.45909172 -0.26524225
0.2549439 -0.053528026 0.25146404 -0.34809014 -0.0033214767 -0.21444722 0.11486257 -0.16355906
-0.11142674 -0.036901552 -0.24152577 -0.2614296 -0.37071878 -0.08100266 -0.3569354 0.10153228
00000000: 23ee 0c3e 9007 823e dff4 f83d 9bc5 21be
00000010: d58b 15be 4d81 61be fcf5 253e 5b91 27be
00000020: eac6 51bb d344 c33e d792 b33e 6f72 2bbd
00000030: 9a6c e93e 6ed9 8fbd cdc9 de3c cd25 c0be
00000040: b504 4d3e df14 fb3d 9b3a b83d 5b58 c63e
00000050: 2d3c 903d d126 773e ef40 6abe 5b8f 17be
00000060: 904b 69be 31a4 60be e83d 19be f31d a5be
00000070: 443b 27be f41c de3a 9e20 d43e 3356 c3bd
00000080: 4cd1 993e df1c 5fbe bd2e 4d3e 314d c8be
00000090: 557b 613e 3775 3fbd a9c9 843e d277 ea3e
000000a0: 99cb 1fbe 6185 7e3e 03c9 473e be6e 63be
000000b0: e4db d13e 501e 02be 3f0b d83d 8d66 653e
000000c0: 72b7 c0bd 7dd5 38bd ae6f 83be e9f1 ccbd
000000d0: 78c2 5e3e de51 65bd 0f32 923e ca1b bdbd
000000e0: 31a7 a3be f9c7 6ebd 950f d1bd 7135 3cbd
000000f0: 96f9 6a3e 103e e43d 7c11 883e 8891 523e
00000100: 53ef 05be 5621 82be aee5 83be 0428 ed3d
00000110: 0f48 93be ed1b 5abc 8ec9 e5bc ea84 e23e
00000120: 99a5 03bc bc16 88be ba99 8e3c 75d3 ad3c
00000130: 3c21 23be 7ef4 b5be 4d65 a53e a2d5 cabd
00000140: 182b 9fbe fad5 0abe c0d3 45bd e010 9b3e
00000150: 468d eabd ba06 4fbe d2e4 a3be a735 1abd
00000160: 1f88 593e 3d40 05be 1e89 a6be 7da2 e7be
00000170: 1ed3 2a3e 22ad f6bd 1151 08be 7cc7 763d
00000180: c9ce 433e 95f1 84bc 07b4 583d 7b1d 02bf
00000190: 9d76 883e a01a 1abd 0b7a f83e 3731 97be
000001a0: 58ac d13e 7e24 4b3e b04f 293d c4aa 253c
000001b0: 1fea 5c3e 1be2 183f 43f4 f73e 3abe e73e
000001c0: c710 ed3e b126 f0be 6826 1bbb 1ef1 c3be
000001d0: 2a8b 2d3e 93bb 96be 989b d73e da6a 2e3d
000001e0: 856c 833e 7c3d a63e 2c9e 783e ff18 d0bd
000001f0: 941f 05be 7735 1c3e 7665 a8bc de30 a23d
00000200: 589c 1b3f 12fd 213e c50d 2c3e 3130 a93e
00000210: b8f6 c33e fea6 233e 3fa3 753b f31c fbbc
00000220: dd26 babb 1974 c0be e94c be3c 808c bebd
00000230: e01c c63e 0601 63bc 7e4d 593e bab1 d7be
00000240: 52c3 783e d863 78bc f94b f43e 8e49 b6be
00000250: bdc0 c5bd 7700 113d 0d8d b5bd 5c02 f73e
00000260: 1b61 033d 11bd 28be 237e 543e 01a7 74be
00000270: 3609 683d b1db 93bd 65c7 cc3e 1903 ef3e
00000280: 874b 673e fd51 9f3e 0501 f63d cf1d 00be
00000290: 9aab fd3d 68ed 85bd 727c a7bc 52da efbd
000002a0: cb7b 883e 164f 863e 8ddd 823e 75fc 24be
000002b0: 0573 2a3e 6a41 86bd 3c25 26be 6d1b 3c3e
000002c0: a7de f4bc c494 2dbe 15fa bfbd 74ad 1abe
000002d0: 6491 243d 4f81 6d3e f1f5 1a3f fdbe 75bd
000002e0: 9628 423e f8ec d1bd b7f4 e9bb 0ded 48be
000002f0: 13c7 c33e f29f 37bb aaaf fbba ffe7 823e
00000300: debb a3bd e8af 10bf 93f5 213e 871a 63be
00000310: 59a0 e0bd 39bb f23c 6dd6 9a3e 4870 9bbd
00000320: 6469 df3e a391 c23e 4444 d63e 069d f0be
00000330: 3f99 d13e 645b 4c3e 54ff 2d3e f168 1f3e
00000340: d53b 8d3e d83b 243e 0c41 b53e e0a0 803e
00000350: 2e71 0abe ff6a c5bd 478b 943d 4a4c 90bc
00000360: efb5 eabd ecc7 e2be 13a5 343d 58af 4b3d
00000370: dd59 633d 600e 7f3e 9a5a 07bd 0d57 6ebe
00000380: 90b0 4f3c c613 8abd 3e73 fabd ee3e 09be
00000390: 7670 4dbd 8a47 1b3e 49b6 9dbe 9c5e c93c
000003a0: 5b35 75be 2238 41bc 92d5 c8be be09 5e3d
000003b0: 5247 2d3e c91c 223e 120e ebbe d5cd 87be
000003c0: 0288 823e 3440 5bbd e5bf 803e df38 b2be
000003d0: 22ad 59bb 0d98 5bbe 113d eb3d 077c 27be
000003e0: b433 e4bd 1526 17bd 8852 77be 1ada 85be
000003f0: dace bdbe b9e4 a5bd 3dc0 b6be 28f0 cf3d

exp_avg f4 [10, 1]
0.00046105593 9.108312e-07 -0.00035711503 0.00034226791 -0.00033963608 0.00081480644 -0.00040756376 2.6840476e-05
0.0 -0.00036648856
00000000: e1b9 f139 d87f 7435 2b3b bbb9 6c72 b339
00000010: 2f11 b2b9 bc98 553a 48ae d5b9 7c27 e137
00000020: 0000 0000 4325 c0b9

exp_avg_sq f4 [10, 1]
7.9935135e-06 3.7323325e-08 2.5078698e-05 6.443872e-06 5.175801e-06 1.3898486e-05 1.2256958e-05 7.844424e-06
0.0 7.750758e-06
00000000: e11b 0637 6e4d 2033 1860 d237 7038 d836
00000010: cbab ad36 8b2d 6937 3ca3 4d37 8b9b 0337
00000020: 0000 0000 4109 0237

exp_avg f4 [10]
0.00025632244 -5.1532948e-06 -0.0006706545 0.00016563018 -0.00026829436 -0.0011038467 -0.0009252901 5.238519e-05
0.0 0.00022588907
00000000: 0463 8639 77ea acb6 ddce 2fba 03ad 2d39
00000010: dca9 8cb9 f3ae 90ba 2b8f 72ba 2bb8 5b38
00000020: 0000 0000 a3dc 6c39

exp_avg_sq f4 [10]
6.950198e-06 3.6283176e-09 4.6096087e-05 4.2779566e-06 8.047792e-06 2.86837e-05 2.8262133e-05 2.3478156e-05
0.0 2.0601312e-06
00000000: bf35 e936 0a56 7931 4c57 4138 5e8b 8f36
00000010: 0105 0737 c79d f037 7814 ed37 f5f2 c437
00000020: 0000 0000 c940 0a36

exp_avg f4 [10, 10]
0.00042985546 0.0 0.0006949603 0.0002914727 0.00022341557 0.0 0.00032393387 0.0011405677
0.0 0.0 0.0005850302 0.0 0.00033898198 0.00041105243 1.8718305e-05 -4.0819104e-06
-5.6728197e-05 0.0007656113 0.0 0.0 0.0 0.0 0.0 0.0
0.0 0.0 0.0 0.0 0.0 0.0 -0.00019358317 -7.975948e-06
-0.00069122214 -0.00013139035 -0.00039087792 -0.00055652496 -0.0007253305 -0.00073184975 0.0 4.9681403e-06
0.0 -5.843718e-06 -0.00026523712 0.0 -0.00020540286 -0.0004009619 -0.00042208485 -0.00015803945
0.0 -1.4915739e-07 0.00019641168 1.7699333e-05 0.00048175664 0.00013772782 0.00040722892 0.0011225943
0.00080576784 0.00026246358 0.0 6.70356e-05 -0.00028260166 -6.241889e-06 -0.0014987151 -0.00020069888
-0.0010765184 -0.0021615953 -0.002177836 -0.0010985032 0.0 -2.2938666e-05 -0.000118354226 -1.28786205e-05
-0.0002672517 -8.3777355e-05 -0.00011240457 -8.5459906e-05 -0.00015074905 -0.0003756205 0.0 -1.3490093e-05
-0.00025249945 -2.9726177e-06 -0.0014242776 -0.00017206644 -0.00093326584 -0.0015964546 -0.0018579449 -0.0012470508
0.0 -6.743457e-06 -8.781222e-05 -4.160775e-06 -0.0006995198 -5.2990777e-05 -0.00039581172 -0.00043347626
-0.0007495086 -0.0007454095 0.0 1.295375e-06
00000000: 395e e139 0000 0000 ff2d 363a ced0 9839
00000010: a944 6a39 0000 0000 abd5 a939 1a7f 953a
00000020: 0000 0000 0000 0000 b65c 193a 0000 0000
00000030: 64b9 b139 8682 d739 4105 9d37 58f7 88b6
00000040: 70ef 6db8 4eb3 483a 0000 0000 0000 0000
00000050: 0000 0000 0000 0000 0000 0000 0000 0000
00000060: 0000 0000 0000 0000 0000 0000 0000 0000
00000070: 0000 0000 0000 0000 96fc 4ab9 70d0 05b7
00000080: 2233 35ba d4c5 09b9 bfee ccb9 c2e3 11ba
00000090: 1b24 3eba 9bd9 3fba 0000 0000 00b4 a636
000000a0: 0000 0000 2815 c4b6 860f 8bb9 0000 0000
000000b0: 6961 57b9 3238 d2b9 454b ddb9 64b7 25b9
000000c0: 0000 0000 1228 20b4 dcf3 4d39 0779 9437
000000d0: 4894 fc39 086b 1039 5781 d539 0424 933a
000000e0: 2a3a 533a 449b 8939 0000 0000 7795 8c38
000000f0: 272a 94b9 6b71 d1b6 8970 c4ba b272 52b9
00000100: f719 8dba 8da9 0dbb 06ba 0ebb a7fb 8fba
00000110: 0000 0000 696c c0b7 f134 f8b8 4111 58b7
00000120: ea1d 8cb9 a0b1 afb8 beba ebb8 f038 b3b8
00000130: 6412 1eb9 eeee c4b9 0000 0000 8253 62b7
00000140: e761 84b9 2f7d 47b6 d3ae baba bc6c 34b9
00000150: 69a6 74ba 2140 d1ba 4986 f3ba 1574 a3ba
00000160: 0000 0000 db45 e2b6 d427 b8b8 c99c 8bb6
00000170: fb5f 37ba 6a42 5eb8 f384 cfb9 3344 e3b9
00000180: ac7a 44ba 9667 43ba 0000 0000 bfdc ad35

exp_avg_sq f4 [10, 10]
8.617739e-06 0.0 1.1591899e-05 4.0675613e-06 8.4981997e-07 0.0 1.8745233e-06 3.6249578e-05
0.0 0.0 7.3119704e-06 0.0 1.9760128e-05 3.2571638e-06 2.1318262e-06 2.2357246e-12
5.64662e-06 5.2456562e-05 0.0 0.0 0.0 0.0 0.0 0.0
0.0 0.0 0.0 0.0 0.0 0.0 7.1616673e-06 9.85857e-11
4.4122055e-05 3.3371682e-06 1.2298154e-05 2.4058367e-05 4.523792e-05 6.921487e-05 0.0 9.0431826e-08
0.0 7.7243614e-11 1.0629422e-05 0.0 7.513735e-06 3.5135163e-05 3.2437005e-05 3.0889728e-06
0.0 9.440051e-08 1.9936315e-05 9.396974e-10 0.00019099009 9.176697e-06 6.565692e-05 0.00017238366
0.00025298 0.00025241188 0.0 7.367533e-07 4.400279e-06 6.6411954e-10 7.458243e-05 2.0123805e-06
3.094637e-05 9.3099334e-05 0.00012321342 7.8761004e-05 0.0 5.257975e-07 1.7542856e-05 3.3893788e-10
0.00010151784 8.236485e-06 3.3534696e-05 9.53075e-05 0.00012961181 0.00015095997 0.0 3.7879704e-07
1.150693e-06 1.689062e-11 6.4665735e-05 4.5819138e-07 2.5203226e-05 5.868736e-05 9.912679e-05 6.8801986e-05
0.0 4.4417362e-08 9.235717e-07 1.12320785e-10 8.063229e-06 4.081921e-07 3.3862275e-06 1.2775464e-05
1.3930305e-05 1.156704e-05 0.0 8.093298e-08
00000000: e894 1037 0000 0000 d47a 4237 167c 8836
00000010: 2f1f 6435 0000 0000 2198 fb35 b00a 1838
00000020: 0000 0000 0000 0000 5959 f536 0000 0000
00000030: 8dc2 a537 a695 5a36 7f10 0f36 3c53 1d2c
00000040: 1978 bd36 ce04 5c38 0000 0000 0000 0000
00000050: 0000 0000 0000 0000 0000 0000 0000 0000
00000060: 0000 0000 0000 0000 0000 0000 0000 0000
00000070: 0000 0000 0000 0000 414e f036 d1ca d82e
00000080: b20f 3938 1df4 5f36 2b54 4e37 f3d0 c937
00000090: d9bd 3d38 7327 9138 0000 0000 6c33 c233
000000a0: 0000 0000 4adc a92e 0555 3237 0000 0000
000000b0: 7e1e fc36 185e 1338 f80c 0838 264c 4f36
000000c0: 0000 0000 3bb9 ca33 e93c a737 aa26 8130
000000d0: 8344 4839 9df5 1937 4ab1 8938 e3c1 3439
000000e0: 67a2 8439 2656 8439 0000 0000 4dc5 4535
000000f0: 1ca6 9336 428d 3630 2369 9c38 6f0c 0736
00000100: 69cc 0138 533e c338 da32 0139 7e2c a538
00000110: 0000 0000 8724 0d35 ff28 9337 4455 ba2f
00000120: fae5 d438 6f2f 0a37 9ba7 0c38 d3df c738
00000130: 68e8 0739 024b 1e39 0000 0000 785d cb34
00000140: 8371 9a35 4c92 942d 279d 8738 58fd f534
00000150: 846b d337 1327 7638 4ae2 cf38 c949 9038
00000160: 0000 0000 68c5 3e33 5deb 7735 fbfe f62e
00000170: 4e47 0737 7f25 db34 f23e 6336 3356 5637
00000180: 34b6 6937 0f10 4237 0000 0000 60cd ad33

exp_avg f4 [10]
0.0005974384 0.00023499754 0.0 -0.0007003839 -0.00030276657 0.0005745901 -0.0016582285 -0.00024926188
-0.0015192168 -0.0007073989
00000000: 6a9d 1c3a ac69 7639 0000 0000 f899 37ba
00000010: a4bc 9eb9 17a0 163a ea58 d9ba 5daf 82b9
00000020: 7520 c7ba bd70 39ba

exp_avg_sq f4 [10]
7.932823e-06 1.4785099e-05 0.0 4.256115e-05 1.4886997e-05 0.00019779222 8.3012834e-05 0.00010270259
7.0464506e-05 8.7348535e-06
00000000: 3717 0537 840d 7837 0000 0000 b083 3238
00000010: 2ac3 7937 7266 4f39 2d17 ae38 0862 d738
00000020: 58c6 9338 e98b 1237

exp_avg f4 [10, 1]
0.00022586278 1.94628e-05 0.0 8.708947e-05 0.0 -0.0001956246 0.0002970253 -9.029876e-06
0.00056049536 -3.36668e-05
00000000: 94d5 6c39 0b44 a337 0000 0000 cea3 b638
00000010: 0000 0000 9420 4db9 10ba 9b39 067f 17b7
00000020: 35ee 123a 7435 0db8

exp_avg_sq f4 [10, 1]
3.9556014e-07 1.6642221e-09 0.0 4.757873e-07 0.0 7.526004e-07 8.563949e-07 1.1823455e-06
1.0146032e-05 1.3318662e-07
00000000: 5f5d d434 9cba e430 0000 0000 b56f ff34
00000010: 0000 0000 4e06 4a35 02e3 6535 15b1 9e35
00000020: e038 2a37 0f02 0f34

exp_avg f4 [10]
0.0003239745 -1.3966988e-05 0.0 -3.1304135e-05 0.0 -0.0003701221 0.00044016077 0.00014199941
0.00031077498 -3.2552995e-05
00000000: 1fdb a939 c253 6ab7 0000 0000 8f4c 03b8
00000010: 0000 0000 f30c c2b9 61c5 e639 ade5 1439
00000020: 83ef a239 8389 08b8

exp_avg_sq f4 [10]
5.3062246e-07 8.9317725e-10 0.0 4.8191197e-07 0.0 3.253116e-06 1.1589683e-06 3.2086257e-06
2.7888562e-05 4.2669745e-07
00000000: 1970 0e35 c383 7530 0000 0000 bd5c 0135
00000010: 0000 0000 1b50 5a36 d98d 9b35 c553 5736
00000020: 3bf2 e937 da14 e534

exp_avg f4 [10, 20]
7.973879e-05 0.00023390062 0.0 0.00069060613 8.386014e-05 0.00042524075 0.00035857115 0.0009979026
0.00066161505 0.0010482264 0.0009915831 0.0010332719 0.0005963924 -0.0010636927 0.00037531002 -0.00017331702
0.00027388064 -0.0010890667 0.00096657354 0.001005653 -0.00013187202 -0.00045352682 0.0 -0.0016199107
-0.0006647814 -0.0013291062 -0.0012094727 -0.0021097937 -0.0021490364 -0.002807351 -0.0024816922 -0.0024999436
-0.001347493 0.0026255 -0.00047615866 -0.00028961716 -0.0011682214 0.0024164536 -0.002391244 -0.002439008
-4.364228e-05 -0.00022237586 0.0 -0.001023905 -0.00053799956 -0.00091206376 -0.00084790034 -0.0013026642
-0.0014797474 -0.0018707002 -0.001647144 -0.0016639454 -0.001101918 0.0017478974 -0.0006531914 9.569381e-05
-0.00058390456 0.002189668 -0.0015819193 -0.0016141766 -4.8944134e-05 -0.00016344439 0.0 -9.459622e-05
0.0 -3.3660403e-05 -3.5073188e-06 -0.00021574232 1.388799e-05 -9.111172e-05 -2.6324578e-05 -4.2880107e-05
-2.42185e-05 8.298129e-05 4.4541986e-05 4.8901264e-05 1.9831179e-05 7.84356e-05 -7.147029e-05 -7.109102e-05
3.5553814e-05 0.00014067075 0.0 0.0011656337 0.0006169761 0.0011267911 0.0010838233 0.0014303487
0.0018849554 0.0022565918 0.0019656694 0.00201697 0.0012309111 -0.0020920243 0.00067069917 2.3115706e-05
0.0008818458 -0.0025169041 0.0018769535 0.0019254481 5.8496687e-05 8.672623e-05 0.0 7.739943e-05
0.00022637135 0.00036297282 0.00038989927 4.476626e-05 0.00061717996 0.00043427967 0.00020469775 0.00021529871
0.00012178463 -0.0002494945 7.486803e-05 7.458252e-05 0.00023100716 -0.00036789212 0.00020230848 0.00021396921
8.426692e-05 0.00030525867 0.0 0.00082417746 0.0005510413 0.0009284684 0.0008922367 0.0010858217
0.0014855217 0.0016911261 0.0014324742 0.0014824631 0.00082026166 -0.0015474109 0.00031912397 0.00023650206
0.0010016212 -0.0019938112 0.001371139 0.0014181657 0.0001378121 0.00039188235 0.0 0.00094899436
0.0005863595 0.0010820024 0.0010476381 0.0012382821 0.0017554034 0.0019464525 0.0014479796 0.0014944449
0.00081262056 -0.0015643309 0.00030585306 0.00027876656 0.0009889518 -0.0018640457 0.0013850364 0.0014276998
-7.5829157e-06 -2.3829863e-05 0.0 -9.570197e-06 -7.889036e-06 -1.0179074e-05 -8.517566e-06 -2.0238243e-05
-1.278413e-05 -1.525162e-05 5.0700064e-06 6.2294503e-06 5.74306e-07 -7.3091455e-06 1.1778414e-05 -9.279786e-06
-1.21144885e-05 -9.136287e-06 5.448843e-06 7.3609604e-06 2.7129732e-05 1.0529246e-05 0.0 -0.00059851795
-0.00048754938 -0.00068310736 -0.00067726197 -0.0006487003 -0.001162252 -0.001283977 -0.0010519238 -0.0010629797
-0.00068724476 0.001101932 -0.00034066616 -0.00011203849 -0.00054206414 0.0014701737 -0.0009875572 -0.0010007969
00000000: 7039 a738 3843 7539 0000 0000 cb09 353a
00000010: 12de af38 d9f2 de39 9bfe bb39 0ecc 823a
00000020: 3c70 2d3a a464 893a 02f8 813a da6e 873a
00000030: 3757 1c3a 9b6b 8bba 42c5 c439 6fbc 35b9
00000040: a397 8f39 04bf 8eba a761 7d3a 1dd0 833a
00000050: 2047 0ab9 57c7 edb9 0000 0000 2f53 d4ba
00000060: b944 2eba 6735 aeba 2b87 9eba 7744 0abb
00000070: d9d6 0cbb 89fb 37bb e3a3 22bb 18d6 23bb
00000080: 5d9e b0ba 9510 2c3b efa4 f9b9 c2d7 97b9
00000090: 011f 99ba 5d5d 1e3b 6bb6 1cbb c4d7 1fbb
000000a0: 8b0c 37b8 912d 69b9 0000 0000 8d34 86ba
000000b0: 8a08 0dba 9017 6fba a145 5eba 28be aaba
000000c0: 15f4 c1ba 4832 f5ba fbe4 d7ba be18 daba
000000d0: 3c6e 90ba b419 e53a ef3a 2bba 39af c838
000000e0: 2c11 19ba 8880 0f3b 6758 cfba c792 d3ba
000000f0: 5d49 4db8 4562 2bb9 0000 0000 f561 c6b8
00000100: 0000 0000 952e 0db8 475f 6bb6 e338 62b9
00000110: 7600 6937 3b13 bfb8 9ad3 dcb7 2ada 33b8
00000120: d528 cbb7 3e06 ae38 98d2 3a38 551b 4d38
00000130: 225b a637 cb7d a438 52e2 95b8 b316 95b8
00000140: 9e1f 1538 0481 1339 0000 0000 2dc8 983a
00000150: 91bc 213a d6b0 933a 130f 8e3a 8a7a bb3a
00000160: 9c10 f73a 54e3 133b 76d2 003b 242f 043b
00000170: 8656 a13a 581a 09bb dcd1 2f3a 9ae8 c137
00000180: ab2b 673a a5f2 24bb 1c04 f63a 515f fc3a
00000190: 575a 7538 cae0 b538 0000 0000 8151 a238
000001a0: 195e 6d39 634d be39 656b cc39 68c3 3b38
000001b0: 3fca 213a 08b0 e339 22a4 5639 cfc1 6139
000001c0: a066 ff38 96ce 82b9 7802 9d38 2f69 9c38
000001d0: 833a 7239 a5e1 c0b9 c522 5439 ec5c 6039
000001e0: 75b8 b038 200b a039 0000 0000 9d0d 583a
000001f0: c173 103a 7664 733a fee4 693a 2152 8e3a
00000200: d6b5 c23a c7a8 dd3a dcc1 bb3a 354f c23a
00000210: d406 573a 7ed2 caba 1850 a739 8afd 7739
00000220: d548 833a 9aaa 02bb cab7 b33a bfe1 b93a
00000230: a781 1039 8f75 cd39 0000 0000 efc5 783a
00000240: ecb5 193a fad1 8d3a e750 893a da4d a23a
00000250: 9015 e63a 1c20 ff3a 22ca bd3a 40e1 c33a
00000260: 0b06 553a 3c0a cdba e75a a039 6a27 9239
00000270: b79f 813a ff52 f4ba 1c8a b53a a821 bb3a
00000280: c070 feb6 3ee6 c7b7 0000 0000 af8f 20b7
00000290: 275b 04b7 cac6 2ab7 abe6 0eb7 4cc5 a9b7
000002a0: 6c7b 56b7 36e1 7fb7 061f aa36 9206 d136
000002b0: 022a 1a35 1541 f5b6 e79b 4537 61b0 1bb7
000002c0: 553f 4bb7 0e48 19b7 34d5 b636 2bfe f636
000002d0: a894 e337 c4a6 3037 0000 0000 dce5 1cba
000002e0: c59d ffb9 8f12 33ba 488a 31ba 8a0d 2aba
000002f0: b556 98ba 1e4b a8ba b5e0 89ba ae53 8bba
00000300: 3728 34ba b46e 903a 709b b2b9 35f6 eab8
00000310: 4f19 0eba d8b2 c03a ec70 81ba 2c2d 83ba
