generative_ts/saves/250709_114355/model_VRNN_lmbd_0_v_10_tau_1_std_Y_1.pth (torch, 14939 bytes, 22 tensors)

enc.0.weight f4 [10, 11]
000000 7f bd ba bc 0d 02 59 bf 67 d4 8a 3e 8b 1b f6 3c
       -0.022795437 -0.84768754 0.27115175 0.03004243
000010 0b 56 16 3f 5c 08 d4 3e aa 65 90 3e 7c a7 05 bf
       0.5872504 0.41412628 0.28202564 -0.52208686
000020 de a6 be 3e 10 8c e6 be e1 d0 b9 be ab da af bd
       0.37236685 -0.45028734 -0.36292174 -0.085866295
000030 7a 40 b7 3c 46 35 08 3f 9b 62 52 3f 75 17 d9 3e
       0.022369612 0.5320629 0.8218171 0.4240071
000040 f2 c2 cf bb 0c e0 2d 3f 67 bb 5b 3e 6c c6 33 3f
       -0.006340378 0.67919993 0.21458207 0.7022464
000050 3e b9 17 bf ab 65 f9 be 54 d3 1f bb f0 39 57 bf
       -0.5926703 -0.4871038 -0.0024387436 -0.8407278
000060 db 6b 98 3e 45 9c 01 3e 64 67 1c 3f 41 f7 02 3f
       0.29769787 0.12657268 0.6109526 0.5115853
000070 9e 25 c9 3e ab 66 19 bf 1c 4d cb 3e c3 45 d2 be
       0.39286512 -0.59922284 0.39707267 -0.4106885
000080 cc bc 09 bf 2e 6d 6c 3d 9a 1d 79 be 22 b9 fb be
       -0.53803706 0.05772131 -0.24327698 -0.49164683
000090 13 52 9c be f8 db d7 be 28 ea 9a bc 86 3e ea be
       -0.30531368 -0.4216001 -0.018910483 -0.45750827
0000a0 13 d5 d9 be 1d 19 7d be 9b be 10 3e 08 9d 89 3e
       -0.42545375 -0.24716611 0.1413521 0.26877618
0000b0 67 1b 06 bd 3f 00 63 bf 36 bb a9 3e fb 8c 2b 3e
       -0.032740977 -0.8867225 0.33150643 0.16752999
0000c0 0e df 26 3f 11 7b 23 3f 30 c7 87 3e e9 3d 21 bf
       0.65184104 0.6385966 0.26519156 -0.6298509
0000d0 5c 3c df 3e 7e bf cb be b3 ed db be 84 34 f7 3d
       0.43600738 -0.39794534 -0.42954788 0.120705634
0000e0 a0 70 02 3f 37 79 03 bf a9 2f a6 bd 98 1d 1d bf
       0.509531 -0.51356834 -0.08114559 -0.6137328
0000f0 4e a1 11 bf 3d a1 32 3d 7c 80 a2 3e e2 88 f9 be
       -0.56886756 0.0436108 0.3173865 -0.48737246
000100 db 6e 03 3f 70 93 16 3f ce bd fd be 42 a7 bb 3e
       0.5134103 0.5881872 -0.49558872 0.36651045
000110 a8 c6 f8 bd 82 4d b7 3e 89 26 c8 be 59 c3 b8 be
       -0.12147266 0.3580132 -0.390919 -0.36086538
000120 9f d8 54 bd 8f da 28 3e 7e 34 f7 bd 68 fd 05 be
       -0.0519644 0.16489623 -0.12070559 -0.13084948
000130 54 20 88 bb f2 eb 4a 3e a9 b0 0f bf d5 aa 68 3d
       -0.0041542444 0.19816568 -0.56128937 0.056803543
000140 48 f9 e2 3c 77 16 07 3e 06 79 c7 bd a7 12 d2 3c
       0.027706757 0.13192163 -0.0973988 0.02564366
000150 f3 ce 94 be 52 5c c6 bc 1a d1 d0 bd c1 93 7e bb
       -0.2906414 -0.024213944 -0.10196133 -0.0038845392
000160 39 1c 74 3e ce fc f3 be b0 8b f3 3d 62 01 63 be
       0.23838891 -0.47653812 0.11891878 -0.22168496
000170 ed 08 b9 3c 2e 12 59 3e 81 c6 45 be 25 9f 55 bf
       0.022587264 0.21198341 -0.19314004 -0.8344596
000180 18 20 6d bd 9e 15 06 be b0 04 86 bd 15 43 1b bc
       -0.057891935 -0.13094184 -0.06543863 -0.009476443
000190 74 b0 5c 3e b5 49 00 3f bb c7 33 3f 1c e6 2f 3e
       0.21551687 0.5011247 0.7022664 0.17177624
0001a0 09 6e 4d 3e b6 6c 13 3f 01 5b eb 3e 7b 16 24 3f
       0.20061506 0.57587755 0.45967868 0.640968
0001b0 59 80 12 bf 94 fb 24 bf
       -0.57227093 -0.6444638

enc.0.bias f4 [10]
000000 13 1c 5e 3e 2d 5b 1d 3f 03 ee bd 3e bf bb 14 3f
       0.21690397 0.6146725 0.3709565 0.5809898
000010 b4 29 30 3e 10 cb 58 3e ab 6b fe 3d 6b ed b0 bc
       0.17203408 0.21171212 0.1242288 -0.021597585
000020 f7 99 ae 3d fc 9a 1a 3f
       0.0852546 0.6039274

enc.2.weight f4 [10, 10]
000000 d0 fd 9e 3e ab 39 f9 bd 08 a3 a9 3e cc f1 26 3e
       0.3105302 -0.121692024 0.33132195 0.16303176
000010 1e ae 6a 3e 89 21 47 3f c8 b4 b8 be fb 3d 25 3d
       0.22917983 0.77785546 -0.36075425 0.040342312
000020 1b 57 ff 3e bc c9 17 bf 9d 67 78 3e b7 a3 1a be
       0.49871144 -0.592922 0.24258275 -0.15101515
000030 c6 3d 87 3e de 54 90 3e c2 ab 95 3d b9 ed 16 3f
       0.26414317 0.2818975 0.07308151 0.58956486
000040 37 dc ee be 30 1c 38 3e c8 2c 0f 3f 45 79 6f be
       -0.46652386 0.17979503 0.55927706 -0.23386104
000050 06 02 a5 3e 8f c4 bc be 5a 57 5f 3e 20 8b 3d 3e
       0.32228106 -0.36868712 0.21810666 0.18510103
000060 d9 97 87 3e cb 93 02 3f a1 71 64 be c6 3c de 3d
       0.26483038 0.51006764 -0.22308971 0.10851435
000070 ab b2 01 3f 47 09 c4 be 53 78 a6 be 6d c6 9a 3e
       0.5066325 -0.38288328 -0.32513675 0.30229512
000080 e4 ba 92 be 8d 30 a9 bd 01 06 ab be e1 de b6 be
       -0.2865821 -0.082612135 -0.33403018 -0.35716918
000090 a1 eb 75 3e fa 99 00 be 7f 5d e2 bd 35 e9 20 3f
       0.24015667 -0.12558737 -0.11052989 0.62855846
0000a0 be 51 7d be 2c 00 8f 3e 77 67 b9 be 36 ed 75 be
       -0.24738213 0.2792982 -0.3621175 -0.2401627
0000b0 b3 98 d5 be d9 a6 19 bf 01 81 0d 3e cf 82 ad be
       -0.41718063 -0.60020214 0.13818742 -0.33888862
0000c0 47 aa 0a bf 12 39 cf 3e 34 0f 4f 3e ad 59 d6 bc
       -0.5416607 0.4047323 0.20220643 -0.026165808
0000d0 bf 89 9e 3e 4e 97 ce 3e a4 1c d6 3d c9 f9 39 3f
       0.30964467 0.4034981 0.104546815 0.72646767
0000e0 f7 52 7c 3d 5f 3b 16 3e 67 10 5a 3e d9 34 4b be
       0.06160256 0.14671086 0.2129532 -0.19844379
0000f0 78 97 9f be cc 1f 0e 3e c1 bc 62 be 61 5a 17 be
       -0.3117025 0.13879317 -0.22142316 -0.1478057
000100 b9 a8 8a be 94 05 41 bf 71 5d bb 3e 32 37 87 be
       -0.2708185 -0.75399137 0.36594728 -0.26409298
000110 56 27 93 be 57 6e b1 3e fb 98 97 be 0b 83 bf 3e
       -0.28740948 0.34654495 -0.29608902 0.37404665
000120 97 04 bc be c8 68 c3 be d0 88 9e be 5c 18 3c bf
       -0.36722252 -0.3816588 -0.30963755 -0.7347467
000130 5d fe 19 3e aa fb 49 be 49 d0 d8 be 52 dc d9 3e
       0.15038438 -0.19724908 -0.4234641 0.42550904
000140 b8 3e a0 3e 4f ba 7c be 2f 02 e7 3e a4 99 ab 3e
       0.3129785 -0.24680446 0.45118853 0.33515656
000150 a1 d4 e6 3e f5 fb 63 3f 28 06 8e be 03 51 26 3d
       0.45084098 0.8905633 -0.27739072 0.040604603
000160 12 84 cb 3e 20 7a 8c be 7b a1 aa 3e e5 8d 75 be
       0.397492 -0.27436924 0.33326325 -0.2397991
000170 d6 2e a0 3e 8c 99 cc 3e 53 f9 d9 3e ca 42 73 3f
       0.31285733 0.39960897 0.42573032 0.9502379
000180 4c dc af be 0a 1f 38 3e d5 2e eb 3e 81 83 a8 be
       -0.3434776 0.1798059 0.45934168 -0.3291283

enc.2.bias f4 [10]
000000 03 3d dd 3b f3 15 e4 bb 47 2e 13 bf 53 15 57 3e
       0.006751658 -0.0069606244 -0.5749249 0.21004228
000010 a4 80 83 3e c1 45 21 3f 2a 9d 24 3d 24 30 1f bd
       0.25684083 0.6299706 0.040188946 -0.03886427
000020 46 2d 10 3e d9 f2 1f 3e
       0.1407977 0.15619983

enc_mean.weight f4 [1, 10]
000000 82 80 e6 3e c2 ec 05 3f 8a a4 f6 3e 49 bd 2b bf
       0.4501992 0.5231439 0.48172408 -0.670857
000010 ef b0 a9 be 14 b8 b3 3d 9b 12 f2 be 53 17 cb be
       -0.33142802 0.087753445 -0.4727982 -0.39666232
000020 ae b6 b4 3e 26 36 c6 3e
       0.35295624 0.38713187

enc_std.0.weight f4 [1, 10]
000000 94 9f 2d 3c 5f c7 87 3b 28 fd be be d7 81 7d 3e
       0.010597128 0.00414364 -0.37302518 0.24756561
000010 ec 69 54 3d cd 58 79 3e 6b 60 b9 bd 0a e0 88 bd
       0.051858827 0.24350281 -0.090515934 -0.06683357
000020 11 46 44 3e 38 75 35 3e
       0.19167353 0.17720497

pr.0.weight f4 [10, 10]
000000 c1 66 5a be 04 74 09 be ab 3c 08 be cc b5 de bd
       -0.2132826 -0.13423163 -0.13304393 -0.10874519
000010 95 75 07 be 6d 29 10 be bb aa 76 bd f8 d6 3a bd
       -0.13228448 -0.14078303 -0.060221415 -0.045615166
000020 31 15 25 3e 4c c0 74 3c 30 2a 0a bf 12 da 8d be
       0.16121365 0.014938425 -0.53970623 -0.27705437
000030 96 17 5e be 74 cb 80 be 53 e7 b4 be bf a0 56 be
       -0.21688685 -0.25155222 -0.35332736 -0.20959757
000040 33 32 d1 3e 23 87 b9 be 4c 92 67 3e 4f b9 69 3e
       0.4085861 -0.36235914 0.22614402 0.22824596
000050 ce 44 9a be 0b f5 11 bd da ef 1f 3d e1 3e d3 bd
       -0.3013062 -0.03563408 0.0390471 -0.103147276
000060 41 b6 b2 3d 4a ef a3 be 4f 1a 21 bf 5c 3f 36 3e
       0.087261684 -0.320185 -0.6293077 0.17797607
000070 8f c4 50 be 00 a4 0a 3e 59 38 21 bf b9 69 69 3d
       -0.20387481 0.13539124 -0.62976605 0.05698559
000080 9e 08 13 3e c4 a2 41 3e 62 f7 53 3e 9a 77 ac be
       0.14358756 0.18909746 0.20699838 -0.33685
000090 e1 df 3e bf f4 4b 37 3e c1 3a 0d be c4 93 e6 bd
       -0.7456036 0.17900068 -0.13791944 -0.11258653
0000a0 7e 7a 80 be ef 3b 47 bc a9 17 fb 3d aa 75 27 3d
       -0.25093454 -0.012160285 0.12260372 0.040883698
0000b0 09 02 8a bd a0 99 8f bd dc 5d c5 be f2 62 71 bd
       -0.067386694 -0.070117235 -0.38548172 -0.058932252
0000c0 0e 14 94 3d 71 44 a5 bc ca 67 c1 bc 8e e0 f0 3d
       0.07230388 -0.020174237 -0.02360906 0.117615804
0000d0 0d cc e6 bd 51 4e 9c bc 73 7f 4f bd 97 59 00 be
       -0.11269388 -0.019080313 -0.050658654 -0.12534176
0000e0 64 fe a7 3d 84 d7 cb 3d bd e3 54 3e a1 d4 a4 3c
       0.08202818 0.09953216 0.2079 0.02012092
0000f0 48 ec ca be 74 3a 81 be 87 41 1f be 90 0d 90 be
       -0.39633393 -0.2523991 -0.1555234 -0.28135347
000100 5b 5b 54 be ac ad b1 be 03 3b 63 be 9d 44 7b be
       -0.20737974 -0.34702814 -0.2219048 -0.24537893
000110 e1 1a 2e 3e 03 0b 99 3e 7b 4e 43 3e 7a d7 06 3d
       0.17002441 0.29891214 0.19072907 0.03292034
000120 97 b1 27 3e 9b e3 4b 3e 49 d1 1d bf 2e 52 5e 3e
       0.16376339 0.19911043 -0.6164747 0.21711037
000130 62 db 93 3f 99 0d 92 3d 03 1d 02 be 1b 14 53 be
       1.1551325 0.071315 -0.1270638 -0.20613138
000140 a9 39 41 bf 01 df 26 3e 98 fa 0a bd fe f6 2a 3e
       -0.7547861 0.16296007 -0.03393039 0.16695783
000150 5c a9 bc 3d d0 35 d1 be fb 39 4a bf a1 6b 8f 3d
       0.0921199 -0.40861368 -0.7899472 0.070029505
000160 70 d0 5d be 80 d8 9d be 01 54 07 3e 1c 7f 20 3e
       -0.21661544 -0.3082924 0.13215639 0.15673488
000170 6f 36 2f 3d fe a0 73 3e c2 47 07 bf 5f 8e 15 3e
       0.04277652 0.23791882 -0.5284387 0.14605092
000180 2a d8 99 3f bf 85 45 3e 16 df 79 be 5c 2f 3f be
       1.2019093 0.19289301 -0.24401507 -0.1867041

pr.0.bias f4 [10]
000000 1c fb 35 3f 5c 6b 7f 3f da 5b 53 3f 5f 2e 31 3f
       0.7108629 0.9977319 0.8256203 0.6921138
000010 44 ae 1b 3f 45 83 a1 bd 17 da 4a 3f 8c 37 63 3f
       0.60812783 -0.07886366 0.7923903 0.8875663
000020 24 18 1a 3f ac 1b 42 3f
       0.60193086 0.75823474

pr.2.weight f4 [10, 10]
000000 fc 20 cd be d6 dd a6 be fb 4f 38 bf d5 04 37 bf
       -0.40064228 -0.32591122 -0.7199704 -0.7149175
000010 d7 8c 24 bf 54 21 fe bd db bc 1d bf ab 21 77 3f
       -0.64277405 -0.124087006 -0.61616296 0.9653575
000020 6f 0d 2b bf 77 eb 3a 3f 0a 8a 37 3e 23 c1 19 3f
       -0.66817373 0.7301554 0.17923751 0.6006033
000030 bd b1 db 3c af 6c a2 be 6e 84 10 3d 43 a3 6b 3c
       0.02681815 -0.31723544 0.035282545 0.014382186
000040 7d 4e 7c 3e 5c 65 2c 3f 44 7d a6 be 55 12 07 3f
       0.24639316 0.6734216 -0.32517445 0.5276235
000050 89 d5 1d 3e 90 e6 65 3f 97 15 bb bd e3 df c7 be
       0.15413488 0.89804935 -0.09134977 -0.39038
000060 3b b7 ed bd 29 a8 b6 3d 6b 28 12 3e d7 bf 4e 3f
       -0.11607214 0.08918793 0.1427323 0.80761474
000070 df 9e d9 be 97 69 7f 3f f8 3f a6 3e 2c d4 20 3f
       -0.42504022 0.9977049 0.3247068 0.6282375
000080 12 f2 d4 3e af 12 d0 3d ae b7 94 3e 00 ab ab bd
       0.41590935 0.101598136 0.29046386 -0.08382225
000090 b6 e3 17 3e 70 a9 8e bc 69 39 18 3e c4 84 91 be
       0.14832959 -0.017414778 0.1486565 -0.28421605
0000a0 5c 11 92 b9 81 4f 7b bf 3e 75 02 3f dc 60 27 3f
       -0.00027860224 -0.9816819 0.5096015 0.6538217
0000b0 4a dd 06 3e a6 8b 4d bd 13 35 31 be de 93 5d bf
       0.13170353 -0.050182007 -0.17305402 -0.8655375
0000c0 45 7e 61 3f db 20 91 bf b1 70 ac be 23 84 3f bf
       0.88083297 -1.1338152 -0.33679727 -0.74811
0000d0 95 73 cc be ce c9 5b be 1e bc 70 be ac 4c 2d 3e
       -0.39931932 -0.21463701 -0.23509261 0.16923779
0000e0 04 61 03 bf 12 d0 6d 3e 49 cd 6e be c9 4b ac 3e
       -0.5131991 0.23223904 -0.23320498 0.3365157
0000f0 da a9 06 3f 56 e9 6a 3e cd b5 50 3f 1c 7a 40 3f
       0.5260292 0.22940573 0.81527406 0.75186324
000100 44 f7 95 3e 61 9b 4d bd 5b 9c 4d 3f 3e 2a 77 bf
       0.2929021 -0.05019701 0.80316705 -0.9654883
000110 53 25 5f 3f e3 df 63 bf 45 d0 eb 3e 89 b1 d0 be
       0.8716633 -0.890135 0.46057335 -0.4076045
000120 dd 40 42 3f 1b 07 6f 3f d3 08 c1 3e a1 6f d0 bd
       0.75880224 0.9337022 0.37702045 -0.101775415
000130 f4 b9 23 3f ec 08 4a bf 12 89 9b 3f 44 4d 93 bf
       0.63955617 -0.78919864 1.2151206 -1.1507955
000140 8b 8c d2 3e 15 58 56 3f bc ea 0b be 44 22 bd be
       0.4112285 0.8372815 -0.13663763 -0.36940205
000150 5b 5c 24 be e8 3d 2b 3e 29 35 ad 3e 2f 08 4b 3f
       -0.16050856 0.16722834 0.3382962 0.7930936
000160 91 26 3e bf 3d 19 77 3f f6 04 bd 3e 92 24 2d 3f
       -0.742776 0.96522886 0.36917847 0.67633927
000170 32 42 c3 3e fb 7f 3f 3e d4 07 cb 3e f7 8a 46 3d
       0.3813644 0.18701164 0.3965441 0.04847237
000180 6f a0 3d 3f 11 93 18 be c6 18 76 3e 97 02 b6 be
       0.7407293 -0.14899851 0.24032888 -0.3554885

pr.2.bias f4 [10]
000000 e5 cb 1a be dc 00 cf 3e f0 9e 32 3d 06 80 93 3e
       -0.15116842 0.40430343 0.043608606 0.28808612
000010 14 7a 61 be 28 ad ac be e7 a1 29 3d 02 49 a8 3d
       -0.22019225 -0.33725858 0.041414168 0.0821705
000020 5d 43 a5 3e 3f 42 61 3e
       0.32277957 0.21997927

pr_mean.weight f4 [1, 10]
000000 1a 50 66 bf 50 25 ef be 45 32 36 bf 6f 76 3a 3e
       -0.89965975 -0.46708155 -0.71170455 0.18209241
000010 4a c8 96 3f a1 bc 94 be c7 23 74 3f f4 36 83 3f
       1.1779873 -0.29050162 0.9536709 1.0251145
000020 55 83 32 bf bc 46 b8 3e
       -0.69731647 0.35991466

pr_std.0.weight f4 [1, 10]
000000 99 94 d0 be 1b 0f be 3e 20 64 a1 3e ce 18 e5 3e
       -0.4073837 0.371209 0.31521702 0.44745487
000010 7b b3 10 bf 67 35 e5 be e3 2b 9c 3e 3c 75 79 3d
       -0.56523865 -0.44767305 0.30502233 0.06090282
000020 c8 83 db 3e d1 68 17 3f
       0.4287398 0.5914431

dec.0.weight f4 [10, 11]
000000 fa 3d e3 3c 1d 93 c2 bc 68 16 0f be c0 68 d9 3d
       0.027739514 -0.02375179 -0.13973391 0.106156826
000010 c7 af 36 bc 5f f1 a9 3d 0a c6 53 3d 5a 54 2b 3d
       -0.011150307 0.08297991 0.051702537 0.04182849
000020 fb d4 61 3d 13 65 34 3e 50 fd 7e 3d 6b 33 4a 3d
       0.055134755 0.17616682 0.062253296 0.049365442
000030 d8 3e 35 3e 1f fb ab bd bd 10 60 bd ab 48 0a 3e
       0.17699754 -0.08397507 -0.054703463 0.13504283
000040 02 e5 4d be ab f1 d9 3c 53 89 24 bd 80 6d bb 3d
       -0.20106891 0.026604494 -0.040170025 0.09151745
000050 85 54 93 bb 94 35 b6 bd 53 ba 3b 3e 71 ed 09 3e
       -0.0044961595 -0.08896938 0.18332796 0.13469483
000060 37 a9 38 3e da 84 5e bd 6f 76 76 3d df 85 b3 bd
       0.180333 -0.054325916 0.06017154 -0.08765768
000070 8b 45 5b bd d7 6b 86 3c 10 54 3e 3e 95 77 2f 3d
       -0.05353312 0.016408844 0.18586755 0.04283865
000080 ce 2a 4b 3d 6b 39 2f 3e a2 0d 78 3d 0b f1 a1 bd
       0.04960137 0.17111747 0.060559876 -0.079073034
000090 72 b6 3a bd d1 eb 97 ba ec b0 0a be 9d 48 9d bd
       -0.04558415 -0.0011590665 -0.13544053 -0.076798655
0000a0 90 f3 df bd 1b db 1d bd 08 90 bc 3b 41 b1 20 3d
       -0.10935128 -0.038539033 0.0057544746 0.039231542
0000b0 55 a8 5b 3e 7d 5c d8 3d 9a f2 bd 3d 9a 97 71 bd
       0.21450932 0.10564516 0.09274788 -0.05898247
0000c0 bf 3b 5d 3d f7 12 5b bd 32 ea 07 bc d2 b0 ed 3c
       0.054012056 -0.053484883 -0.008295583 0.029014979
0000d0 64 3b 95 3d 84 29 09 3e 21 b1 95 3d bf 9c 8e bd
       0.072867185 0.13394743 0.07309175 -0.06963491
0000e0 5f 3c e1 bd 87 ad cf bc 3f ca ca bd af bc 26 3d
       -0.10997843 -0.025351299 -0.09901857 0.040707286
0000f0 15 9c 0c be 1f 11 40 3d 4c f3 05 be 35 89 4a bc
       -0.13731416 0.046891328 -0.13081092 -0.012361814
000100 bd 01 5b 3d 27 db 58 bd 87 b0 ee 3c bd 0e d6 bc
       0.053468455 -0.052943375 0.02913691 -0.026130075
000110 43 84 ea bd a1 6a 12 be a3 53 28 bd 1b aa 0f 3e
       -0.11451008 -0.14298488 -0.041095387 0.14029734
000120 2d e5 65 3c 93 d8 43 3a 37 ae c5 3c 31 c6 35 bd
       0.014031691 0.0007470932 0.024130924 -0.044378463
000130 58 d6 5b 3c fc b6 20 be 30 1d 7e bd 6f b6 ce bd
       0.013417803 -0.15694803 -0.062039554 -0.1009339
000140 d3 52 14 3d c8 3f 54 3e 63 2c 57 3d d2 f0 65 bc
       0.0362118 0.20727456 0.052532565 -0.014034467
000150 88 a0 95 bd 49 a5 00 be 2e 7a b3 bc ea a5 4e 3d
       -0.073060095 -0.12563051 -0.021908846 0.050451197
000160 1a 82 ba bc cb 4f 13 bc c3 7d 7c bc e1 35 93 bd
       -0.022767115 -0.008991192 -0.015410843 -0.07188011
000170 75 fa f3 3c 5f c8 28 bc 83 7d 8e 3d b2 fa 5d 3d
       0.029782513 -0.010301678 0.06957533 0.05419416
000180 90 17 51 bc d0 c8 b1 bd 9f 70 85 3d 88 b0 c7 bd
       -0.012761965 -0.0868088 0.065156214 -0.097504675
000190 7e cb aa bc a1 cc 42 bd 0b 34 b0 bd 13 b5 ed 3d
       -0.020848986 -0.04755843 -0.086036764 0.11606803
0001a0 b4 f5 c6 bc 7c af 01 3d 36 46 33 be 38 54 aa 3d
       -0.024287082 0.031661496 -0.17507252 0.08316845
0001b0 27 04 9e 3d 93 07 39 be
       0.07715636 -0.18069296

dec.0.bias f4 [10]
000000 02 17 c1 3d 47 d3 94 bc 8b 6f 02 bc 88 05 a9 3d
       0.094282165 -0.018167151 -0.007961164 0.08253008
000010 e7 49 b0 bd fe 5e d2 bd b7 1d 4b bd 26 0a a3 3c
       -0.08607846 -0.102720246 -0.049588885 0.0199023
000020 a5 f3 55 3c 1e 52 aa bd
       0.013058578 -0.08316444

dec.2.weight f4 [10, 10]
000000 88 79 93 bd d2 a6 e5 bb ef bc 6e bc ab b0 1c 3d
       -0.072009146 -0.007008412 -0.0145714125 0.03825442
000010 34 f1 b8 bd 23 34 f3 3d 9e 9f a0 3b 88 d9 16 3e
       -0.09030381 0.11875179 0.0049018404 0.14731419
000020 ff 53 e9 bd c0 7f a1 bd 61 6e 96 bd f4 58 c3 b7
       -0.11392974 -0.078856945 -0.07345272 -2.3287233e-05
000030 fd 4e 5f bc 84 f6 a6 bc d6 a6 00 3e 33 59 08 3e
       -0.013629672 -0.02038122 0.12563643 0.13315277
000040 39 fe be bd bf c0 09 be ce 23 46 bd 4b 0a 73 3c
       -0.09325833 -0.13452433 -0.04837399 0.014833997
000050 83 76 16 be 08 75 90 bd 30 9e 52 bd 57 cd c6 bd
       -0.14693646 -0.07053572 -0.05142039 -0.09707134
000060 75 f7 6d bc b4 1a ab bd 7a 8a a3 bd 97 89 93 be
       -0.01452433 -0.083547026 -0.07985397 -0.2881591
000070 20 04 11 be 90 30 6a bd c7 f0 4c bd 1b 5b 0b be
       -0.1416173 -0.05717522 -0.05003431 -0.13608973
000080 42 9d 5b bd ba f1 09 bc 7b 95 d2 3c 87 76 91 3d
       -0.05361677 -0.0084194485 0.025706043 0.071026854
000090 09 b7 c4 bd e9 a8 bf bd 30 d0 6f bc a8 40 65 bd
       -0.09605224 -0.09358389 -0.014637038 -0.055969864
0000a0 6b 59 f0 3d fd 69 5b bd 6b fd 2e bd 12 b5 15 bd
       0.11735805 -0.053567875 -0.042722147 -0.036549635
0000b0 f4 71 94 bd 15 a3 1e 3d 28 61 a3 bd 00 c6 17 3e
       -0.07248297 0.038729746 -0.079775155 0.14821625
0000c0 a2 d2 fb ba 6b e3 5b be d6 ce 99 3c 02 d1 c7 3d
       -0.0019212554 -0.21473472 0.018775385 0.09756662
0000d0 c9 c5 8c 3e db c6 ac 3d b7 95 13 3d af 7a f9 3d
       0.27494648 0.08436366 0.03603145 0.12181603
0000e0 79 df 1c 3d bf 8d 5c 3e 57 13 18 3e 4f 39 b5 3c
       0.038299058 0.21538447 0.14851128 0.022122053
0000f0 db d1 8b 3c da 60 26 3d 3d d7 e4 bd 43 53 8c 3d
       0.01706784 0.04061971 -0.11173866 0.068518184
000100 e7 e1 23 be cd c7 7e 3d d8 26 d1 bd c2 0b f3 bc
       -0.16004144 0.062202264 -0.10212487 -0.029668692
000110 ed 14 e8 3c ff e0 30 bd 07 04 2d bd f1 4d 2f be
       0.02833029 -0.043183323 -0.04224017 -0.17119576
000120 6b b4 aa bd 15 1e 74 3c 23 06 90 3b 47 e6 ff bc
       -0.08335193 0.01489975 0.004395263 -0.031237734
000130 4b ac c9 3d ed 78 07 be a5 83 b4 3d e5 da 57 bd
       0.098473154 -0.13229723 0.08814172 -0.05269899
000140 97 0d 4b 3d 55 4b 1c bd d5 7b d4 bd 15 17 ef bd
       0.049573507 -0.03815778 -0.103751816 -0.116743244
000150 cc 95 23 3d 02 d5 e3 bd 0d 22 50 3d bc c8 1b 3d
       0.03993778 -0.111246124 0.050813723 0.038033232
000160 0e f8 8c bc 63 20 63 3e af f6 f8 3d 5b 8a 95 3c
       -0.017208125 0.22180323 0.12156426 0.01825445
000170 33 c4 0c bc 19 d2 4a be c7 ee d5 3d 78 f8 c1 bd
       -0.008591699 -0.19806708 0.10445934 -0.0947122
000180 ab 52 93 bd cc 43 21 3e d8 cd 1f 3b 55 34 cd 3d
       -0.07193502 0.15748519 0.0024384167 0.10019747

dec.2.bias f4 [10]
000000 aa 36 c0 bd 83 52 e0 bb be 40 3d 3d 04 4e e1 bd
       -0.09385426 -0.0068457737 0.04620432 -0.110012084
000010 f8 ce 1e 3c 7f 98 13 3e dd eb fe 3d 62 f7 7a 3d
       0.0096929 0.14413641 0.12447331 0.06127108
000020 56 4e 80 3e 2a 68 8c 3d
       0.25059766 0.06855805

dec_mean.weight f4 [1, 10]
000000 79 ae 61 3d c5 32 01 3e ce 3a 78 bc 04 ac 4a 3e
       0.05509803 0.12617023 -0.015150739 0.19792181
000010 07 07 a9 3c c3 c8 19 3e 61 d1 fe 3c 0c 8c 32 bc
       0.020633234 0.15017991 0.031105699 -0.010897648
000020 9c d9 2b bd 69 1d 2a bc
       -0.041955575 -0.0103829885

dec_std.0.weight f4 [1, 10]
000000 38 d1 11 3e 47 f0 1f bd 31 e5 ef 3c e3 d2 aa 3d
       0.14239967 -0.039047506 0.029284092 0.08341005
000010 a4 b4 25 bd 40 6c 27 3e b1 e9 d0 3c 29 dc 0d 3e
       -0.040455475 0.16349888 0.025502058 0.13853516
000020 77 d9 4d 3d a7 f7 05 3e
       0.05025622 0.13082753

rnn.weight_ih_l0 f4 [30, 1]
000000 c2 0e 3c 3d b2 d1 f0 bb 53 6c 1a bc 5e 5f 13 bc
       0.04591251 -0.0073492164 -0.009425241 -0.008994905
000010 0c e3 6e 3d 60 79 8e bd 07 34 39 be 56 2c 86 3c
       0.058321998 -0.06956744 -0.18086253 0.016378563
000020 c8 e8 e7 bb 8b 74 13 bc 15 e6 ed 3c 3d bb 9c bb
       -0.0070773102 -0.008999954 0.029040376 -0.0047830627
000030 11 eb 3b 3d ab 1b 1d bc 31 82 81 3d 7d 91 a4 bc
       0.045878474 -0.009589116 0.0632366 -0.020088905
000040 04 7f 72 3c b3 00 e5 3d 29 94 88 bc 81 4e 86 bb
       0.014800791 0.11181774 -0.01667221 -0.004098714
000050 be 0d 05 bd 6e 6b 46 3c b0 2d 9b bd fc f3 70 3d
       -0.03248381 0.012110574 -0.075770736 0.05882643
000060 5b 53 68 3d 91 d6 31 bd 8f 35 23 bd cc 52 66 bc
       0.05672012 -0.043417517 -0.039846 -0.014057826
000070 e1 f8 0c bc 26 88 60 ba
       -0.008604259 -0.00085652096

rnn.weight_hh_l0 f4 [30, 10]
000000 1a 9e 05 3f 9c 1b f8 be b6 3d f8 be a0 18 0d bf
       0.5219437 -0.48458564 -0.48484582 -0.551157
000010 a0 9f 37 bf 36 d8 10 bf 79 f0 66 3e a5 63 3b bf
       -0.71727943 -0.5657991 0.2255267 -0.7319892
000020 89 0e 1a 3f 2d 39 02 3f 89 71 0d be 69 de b3 3e
       0.6017843 0.50868493 -0.13812841 0.35130623
000030 62 5b 84 3e 91 90 00 3e 8b 7d 0b 3e 6f 26 7c 3e
       0.2585097 0.12555148 0.1362211 0.24624036
000040 38 e5 2a bc 22 ff 81 3e 00 6c 8e be b0 f3 f3 be
       -0.010430627 0.25389963 -0.27816772 -0.47646856
000050 a9 4d 31 be f5 89 a0 3d 88 78 a9 3d 7d af 60 3e
       -0.17314781 0.07838813 0.08274943 0.21941943
000060 50 4c 04 3d 90 17 4d 3d 28 2c 66 be d7 7e 8d 3e
       0.03229934 0.0500713 -0.22477782 0.27635834
000070 be 81 23 be 8e 8a 9d be 15 d6 ae be fc ab 39 3e
       -0.15967461 -0.3076977 -0.34147707 0.18132013
000080 91 38 64 3e 3c 7e c9 3e 5a d4 56 be 75 80 8b 3e
       0.22287203 0.39354122 -0.20979443 0.27246442
000090 b6 c1 5b bd f7 a7 e9 3c 43 8e 82 be 8b 94 16 be
       -0.053651534 0.028522475 -0.25499162 -0.14705102
0000a0 14 0c a2 bd 21 5e 9c 3e b9 1c 76 3e 5b 99 90 3e
       -0.0791246 0.30540565 0.24034394 0.28242
0000b0 c4 ac 82 3e 11 85 a5 3e fb 0f 8d bd 0f a5 7e 3e
       0.25522435 0.32328084 -0.06887814 0.24867652
0000c0 e8 88 d5 be a9 df 96 be 96 1d 7c be c4 3b 4e 3e
       -0.41706014 -0.29467514 -0.24620661 0.20139986
0000d0 07 4c d0 3e ca 55 86 3e 26 48 31 3e f4 1e 0a 3f
       0.40683004 0.26237327 0.17312679 0.5395348
0000e0 0f a2 4e 3e 82 f2 54 3e 19 2d de bd 78 e8 72 be
       0.20179008 0.20795634 -0.108484454 -0.23721492
0000f0 6e 49 35 3c 14 29 04 3e 34 6c 88 3d 5a 2f 7a 3e
       0.01106487 0.12906295 0.06661263 0.24432126
000100 dd f7 fc bd 16 a8 f6 3d 6f 48 98 3e fb 27 da 3c
       -0.12351964 0.120437786 0.29742762 0.026630392
000110 b4 80 d7 bd 14 03 8e 3c e2 f9 8d be c1 8f 83 3e
       -0.10522595 0.017335452 -0.27729708 0.25695613
000120 69 fe 05 3f 15 9b 8b 3e 73 04 81 3e e0 78 63 3e
       0.52341324 0.27266756 0.25198707 0.22214079
000130 94 a9 40 be 40 b9 35 3e b6 64 ce be 65 e1 9f be
       -0.18814689 0.17746449 -0.4031121 -0.3122665
000140 f9 9d 52 be f6 f2 ef 3e 5e 80 87 3e 98 2c 86 3e
       -0.20568074 0.46865052 0.26465124 0.26205897
000150 19 6f 5f 3e 34 29 6b 3e 85 37 72 be 0d c3 b5 3e
       0.21819724 0.22964936 -0.23653992 0.35500374
000160 14 61 81 be e9 46 8f be 5f 47 8d be a8 ac 43 3e
       -0.25269377 -0.27983788 -0.27593514 0.19108832
000170 d0 19 dc 3d 73 f7 e2 3e a0 6d 88 3e d3 d9 88 3e
       0.10747111 0.44329414 0.26646137 0.26728687
000180 86 5b f3 bd 87 24 89 3e 27 b0 54 be 03 b0 87 be
       -0.11882691 0.2678568 -0.20770322 -0.26501474
000190 9f bf 2f 3f a3 56 4a be b6 2b 85 be 0d 3c 08 be
       0.68651766 -0.19759612 -0.2600991 -0.13304158
0001a0 2f 9a 49 bf 3d 6e d3 be 9b a8 b4 3d 54 50 18 bf
       -0.7875089 -0.41295043 0.088212214 -0.5949757
0001b0 dd 9e c3 3e 96 77 6a 3e 6b e6 be be 4a f8 19 3f
       0.3820714 0.22897181 -0.3728517 0.60144484
0001c0 bd 8d e7 3e 0c dc 58 3e e6 f6 85 3f 1c a6 0e 3f
       0.45225325 0.21177691 1.0465972 0.5572221
0001d0 78 36 ae 3d c0 86 22 3f 42 28 32 bf 63 ec 37 bf
       0.08506483 0.6348686 -0.6959268 -0.7184507
0001e0 db f4 21 bd 3b 73 d8 3e bd 77 9e 3f da da ac 3e
       -0.039540153 0.42275414 1.2380291 0.3376072
0001f0 12 d4 51 3f f1 28 40 3e 29 c9 bd 3e 33 42 25 3f
       0.8196422 0.18765618 0.37067536 0.64554137
000200 3c 62 b7 be 58 fa d1 be 88 d3 af 3d 31 82 0d 3f
       -0.35817134 -0.4101131 0.08585268 0.5527678
000210 cf bf 36 3e 5e 0b 5a 3f 28 c4 45 3f 35 7d 29 3f
       0.17846607 0.85173595 0.77252436 0.66206676
000220 a7 26 ab 3e 1b a0 09 3f 0c 38 16 bf cf 94 11 bf
       0.33427927 0.53759927 -0.5867927 -0.5686769
000230 a2 cb 4d bf 07 e7 a0 be 01 de cd be 92 3b 9c bc
       -0.80388844 -0.3142626 -0.40208438 -0.019071374
000240 dc fd da 3e 8c fc cc be e3 cf c1 3e a7 a6 85 be
       0.42771804 -0.40036428 0.37853917 -0.26103708
000250 eb c2 d9 3d 37 25 98 3e dd 68 c3 bc 8d 15 cc 3d
       0.10632881 0.29715893 -0.023853714 0.09965048
000260 ab 98 0e 3f ef 04 f0 be 48 0d 22 bf ba be 47 3f
       0.557017 -0.46878764 -0.63301516 0.780254
000270 9d 6c 18 3f c8 72 a7 3e 66 cd 1d 3e 70 3b 0e 3e
       0.5954073 0.3270476 0.15410385 0.13889861
000280 f4 ac 1c 3f 09 7c 9b 3f b0 66 8a 3f 0c c0 7c 3f
       0.61201406 1.2147228 1.0812588 0.9873054
000290 56 fd 09 3f 80 89 5f 3f 94 58 de be 04 3d 1b 3f
       0.53902185 0.87319183 -0.43426955 0.6063998
0002a0 1c 15 de be 6d 84 c1 be 33 27 8f 3e 2b e6 75 bd
       -0.4337548 -0.37796345 0.27959594 -0.06003396
0002b0 0d 3f 19 be 98 a8 62 3d 34 9a 88 3e 70 3a 7b 3f
       -0.14965458 0.055336565 0.26680148 0.98136044
0002c0 d7 11 a3 3e 9f 63 15 3e 80 80 88 bd dd 21 c6 bd
       0.31849548 0.14588784 -0.066651344 -0.09674428
0002d0 8e 80 9d 3e ec 44 0e bf f5 60 e1 be 1e 86 13 bf
       0.30762142 -0.55573916 -0.44019285 -0.5762652
0002e0 b2 9b 38 3e e0 86 ef be 88 8b c7 3d d9 e3 d1 be
       0.18028143 -0.4678259 0.0974341 -0.40994146
0002f0 65 ba b1 3e 55 d6 77 3e 72 d7 18 3f 70 9d 6e be
       0.3471252 0.24202855 0.59703743 -0.23302245
000300 d5 71 52 3c 80 29 02 bf 4d 0c 93 3b 3f ec a3 bd
       0.0128445225 -0.50844574 0.0044875504 -0.08004045
000310 ab ee f6 3d 47 16 ea bd 59 0a 12 3e df fa 58 3e
       0.12057241 -0.1143003 0.1426176 0.2118945
000320 cc 8f 94 3d c1 82 a6 be 39 2f a2 be 66 43 a0 be
       0.072539896 -0.32521632 -0.31676653 -0.3130142
000330 3a 4d b5 bd d3 fc 49 be fa a9 17 be d2 31 71 be
       -0.088526204 -0.19725351 -0.14810935 -0.23554161
000340 bc a2 b5 3e 89 54 cd 3e 9e 33 42 be 78 9d 6e 3e
       0.3547572 0.40103558 -0.18965003 0.23302257
000350 a0 de c4 3e 73 97 9f 3e 95 a6 29 3e 8c c5 74 3e
       0.384511 0.31170234 0.16567452 0.23903483
000360 6e 50 62 3e 5e 87 fb 3e 0e cb c9 be 03 14 a6 be
       0.22100994 0.49126714 -0.3941273 -0.32437143
000370 81 95 8a bd 50 35 2f 3d 11 70 39 bd c3 8e 09 3e
       -0.06766797 0.042775452 -0.04527289 0.13433366
000380 aa 87 1b be fc 09 5c 3d f0 fd d5 3d 80 fb 15 3e
       -0.1518847 0.05372046 0.10448825 0.14646721
000390 bc 10 18 be 7c bf 66 be b5 66 c5 be 74 d3 15 3e
       -0.14850134 -0.22533983 -0.38554922 0.14631444
0003a0 90 5c 0f 3d 4e ad cc bd 48 e5 79 be 8f 1a 6a 3e
       0.035000384 -0.09993993 -0.2440387 0.22861694
0003b0 76 1e f8 bd 72 ee 7f 3e 7e a7 57 be 50 8f f9 bd
       -0.12115185 0.24993303 -0.21059987 -0.12185538
0003c0 a1 9d e9 3d 91 97 0d 3e 0b 85 79 3e 22 ca 05 3f
       0.114070185 0.13827349 0.24367158 0.52261555
0003d0 aa 90 7b 3d eb 3f b4 3e e0 66 77 3c b5 86 d6 3e
       0.06141726 0.35205016 0.015100211 0.41899648
0003e0 86 75 a6 be 78 62 d9 be fa 6b d3 be ec 8c b2 3e
       -0.32511538 -0.42457938 -0.41293317 0.3487314
0003f0 1b ad e5 3e 36 99 b3 3e cc c0 61 3e 81 3f 1c 3e
       0.44858631 0.35077828 0.22046202 0.152586

rnn.bias_ih_l0 f4 [30]
000000 bf 98 1c bf d1 6c bb 3d 66 12 8d 3e f9 00 ab 3e
       -0.6117057 0.091516145 0.275531 0.3339918
000010 8b 3e c4 3e 76 5a 06 3f 33 36 ff 3d df 67 82 3e
       0.38328966 0.5248178 0.124615096 0.25469872
000020 35 05 ee 3e a7 99 04 3f 7c 99 0e bf f3 cd 9d be
       0.46488348 0.51796955 -0.5570295 -0.3082119
000030 5e 8d 08 be c1 fb 00 bf b0 41 0e bf ec fe 0e bf
       -0.13335177 -0.50384146 -0.5556898 -0.5585773
000040 9c a5 66 bf 40 85 0b bf ee d6 a2 bf 89 26 ab bf
       -0.9009645 -0.545002 -1.2721841 -1.3371135
000050 61 47 98 3d 34 47 c0 3e d3 59 79 3e d1 5e 85 3e
       0.074354894 0.37554324 0.24350671 0.26048902
000060 56 01 9c 3e 63 5f bf 3e 20 97 a6 3d 30 b1 df 3e
       0.3046977 0.37377462 0.081342936 0.4368987
000070 56 a0 bc be f2 e1 01 bf
       -0.36841077 -0.5073539

rnn.bias_hh_l0 f4 [30]
000000 5d 0d 0a bf 45 55 cc 3e a2 3f 44 3e 01 c1 ad 3e
       -0.5392664 0.39908805 0.19164899 0.33936313
000010 bb 22 f1 3e 38 6b e1 3e 71 f2 29 3e c9 8c 3d 3e
       0.4709681 0.44027114 0.1659639 0.18510737
000020 31 ba ac 3e cd 61 b7 3e ea 32 04 bf a6 1c 80 be
       0.33735803 0.35816804 -0.5164019 -0.25021857
000030 52 dc c7 bb 72 eb 99 be e8 7d ce be c0 a3 bd be
       -0.0060992623 -0.30062443 -0.40330434 -0.37038994
000040 6b 38 2a bf 92 f5 01 bf 61 9d a6 bf 61 ff b6 bf
       -0.66492337 -0.50765336 -1.3016778 -1.4296685
000050 78 f3 d2 be 7a 5d 8f 3d 95 3a 15 3e 0c db 4c 3e
       -0.41201377 0.07000251 0.14573129 0.20005435
000060 dc a0 ee 3e 81 0e f0 3e 5c c6 e0 bd 5a db a9 3e
       0.466071 0.46886066 -0.10975334 0.33175164
000070 dd e3 25 bf 5e 2b dd be
       -0.64800817 -0.4319715
