generative_ts/saves/250709_083749/model_VRNN_lmbd_0_v_10_tau_10_std_Y_0.01.pth (torch, 15063 bytes, 22 tensors)

enc.0.weight f4 [10, 11]
000000 bf e8 a5 be 80 b9 81 3d 19 25 c7 bd e9 cc 40 3e
       -0.32404134 0.063342094 -0.09723873 0.18828167
000010 d3 99 b1 bd ef da 1a be 12 42 bb 3d 4e 30 a6 bc
       -0.08671918 -0.15122579 0.09143461 -0.020286705
000020 c2 46 00 be f5 77 8c 3e 23 ea 73 bd 06 b5 b4 3e
       -0.12526992 0.2743527 -0.059549462 0.3529436
000030 f5 c0 70 3d 01 48 4a bd e9 6e 4c be dd ec 4c 3e
       0.05877777 -0.049385075 -0.19964184 0.20012231
000040 14 86 5c 3d 37 fa 1f bd be f5 b9 3d 45 70 87 bd
       0.053838804 -0.039056983 0.09080075 -0.066132106
000050 5e e3 25 be a0 60 de 3d 21 9a ac be f4 a9 c6 3d
       -0.16200015 0.108582735 -0.3371134 0.09700385
000060 3c 17 87 3e 92 c8 b0 bd e0 ab da bd da 02 82 bd
       0.26384914 -0.08632006 -0.10677314 -0.063482
000070 2c ad 52 3e b2 e4 9d 3e 2e bf 95 bc b0 74 41 3e
       0.20573872 0.30838543 -0.018279638 0.18892169
000080 2c 39 f9 3d ae e3 75 3e 59 77 e1 3c b3 3b 8d be
       0.12169108 0.24012634 0.02752273 -0.2758461
000090 63 5f c1 3c 37 f1 00 3e be 44 7e 3e 42 d5 97 bd
       0.023605054 0.12592016 0.2483091 -0.074137226
0000a0 14 25 80 be 92 ab a2 3d 56 a1 47 be 1c be 9e bc
       -0.25028288 0.07942881 -0.19495139 -0.01937776
0000b0 f1 06 a9 be d2 76 04 3d 25 01 78 3e 0b bd 58 bd
       -0.33013108 0.03233988 0.24219187 -0.05291466
0000c0 58 a2 60 be 55 d4 66 bd a4 1c 70 3e b7 fb 6b 3e
       -0.21936929 -0.05635484 0.23448426 0.2304524
0000d0 02 59 07 be c0 c0 3a 3e f6 e9 b7 3c 65 4b cf be
       -0.13217548 0.18237591 0.022450428 -0.4048721
0000e0 46 78 06 3c 15 01 38 3e 27 b4 c9 bd 64 2b 6a 3d
       0.008207386 0.17969163 -0.098488145 0.057170287
0000f0 cb b7 c9 bd 5f 86 3a 3e 84 d4 42 3e 2d 61 6e bd
       -0.09849509 0.18215321 0.19026381 -0.058198143
000100 3c 06 89 3e e5 d1 17 3e 5f be b7 3e f6 e8 6b 3d
       0.2676257 0.14826162 0.3588743 0.057595216
000110 b4 60 4c be 9a a1 17 be 60 cb 8e bd 0a da 38 3e
       -0.19958764 -0.1480774 -0.069723845 0.18051925
000120 62 fa 86 bd cd 1b 04 be e6 90 c5 bd 4a b6 4d be
       -0.065907255 -0.1290123 -0.09646778 -0.20089069
000130 5e 05 b0 3d 93 88 db 3e 2a 2a 0b 3e f3 d0 80 bd
       0.08594774 0.42877635 0.13590303 -0.06289854
000140 bc 08 31 be 11 7d ba 3d da 0f e9 b9 01 17 8c be
       -0.17288488 0.09105886 -0.00044453033 -0.273613
000150 4f f5 3c bd aa 50 7f be 0e f6 fe 3c 3b bf 44 3e
       -0.046132382 -0.24933115 0.031123187 0.19213574
000160 18 f9 92 3e ef 9f a4 3e 58 33 90 3d 13 ff 45 be
       0.28705668 0.3215327 0.07041043 -0.19335584
000170 a8 98 b4 3d 09 74 4f be 50 40 69 be df f0 06 3c
       0.08818179 -0.20259108 -0.2277844 0.008236139
000180 74 bd c4 be 75 b2 5f bd b7 2d bc 3e 97 d2 b7 3e
       -0.3842579 -0.05461355 0.36753628 0.35902855
000190 ce 32 a7 3d b2 4a 60 3d 71 aa 95 be ac 04 12 3e
       0.08163987 0.054758735 -0.292316 0.14259595
0001a0 b8 56 7e 3e 78 9d 6c 3b a0 9e b1 3c ec db f0 be
       0.24837768 0.00361046 0.021682084 -0.47042787
0001b0 39 60 36 bc 11 55 29 3e
       -0.01113134 0.16536357

enc.0.bias f4 [10]
000000 33 b0 a0 bd 6f 79 0e bd 30 5a 8c 3e 25 e2 20 be
       -0.07846107 -0.034783777 0.27412558 -0.15711267
000010 ac 29 bb 3c be 93 c3 3c b8 02 21 be 8b 90 bd 3d
       0.02284702 0.02387416 -0.15723693 0.09256085
000020 17 69 1d ba 50 68 e0 3d
       -0.00060047343 0.10957396

enc.2.weight f4 [10, 10]
000000 64 ef 76 3e 50 6f 57 be f5 86 0f 3f 9c 93 56 be
       0.24114758 -0.21038556 0.56065303 -0.20954746
000010 8d 95 93 3e 32 16 a3 3e a5 5b 8f be e0 f8 68 be
       0.28825036 0.3185287 -0.27999607 -0.22751188
000020 2b b9 81 be cd 35 a9 be 1e 95 9c be 1d 73 45 3e
       -0.25336584 -0.3304886 -0.30582517 0.19282193
000030 1a 3d d9 be 83 ce d0 3d 06 5b a4 be 9c 3f 35 be
       -0.4242943 0.10195639 -0.32100695 -0.17700046
000040 ae 64 35 3e 70 90 79 3e 39 c3 cd 3e 14 7b a6 3d
       0.17714188 0.24371505 0.40188006 0.08128944
000050 f3 c8 b0 3e 94 8c 34 be 7a 99 56 3e 28 e8 e9 bc
       0.34528312 -0.17631751 0.20956984 -0.028553084
000060 d0 16 39 3e ea 71 b0 3e c7 28 81 be f9 0d 83 be
       0.18075109 0.3446191 -0.25226423 -0.25596598
000070 d3 75 9f be 7e d8 36 be 3e 06 be 3e 40 50 5e be
       -0.3114458 -0.17856023 0.37114137 -0.217103
000080 6e 37 9b 3e e0 10 81 bd 0e 8d a0 3e d8 a0 4e 3e
       0.30315727 -0.06302047 0.31357616 0.20178545
000090 59 f2 08 be e5 ec ec bd d6 70 92 be 7c ba 3f be
       -0.13373698 -0.115686215 -0.28601712 -0.18723482
0000a0 29 06 88 be 22 e6 1c 3e e0 43 05 be c3 fc 37 3e
       -0.265672 0.15322164 -0.13014174 0.17967515
0000b0 ac b5 9a be 80 e1 c4 be 6b 4c 51 3e bc 5e d8 3d
       -0.3021673 -0.38453293 0.20439307 0.10564944
0000c0 12 a7 8c 3e ea 9f 4c 3e 22 a9 9e be 52 17 85 3e
       0.27471215 0.19982877 -0.30988413 0.25994354
0000d0 60 50 1f be f1 41 9a 3e 6e 6f 3e be 5f 85 3f be
       -0.15558004 0.30128434 -0.18597195 -0.18703221
0000e0 3c 89 4f 3e bf 38 89 3e 6d 97 37 3e 95 da 9e 3e
       0.20267195 0.26801106 0.17928858 0.3102614
0000f0 8a 0e 5d be 3d a4 c5 bc cc d5 48 3e 40 53 c6 3d
       -0.21587577 -0.024126166 0.19612807 0.096838474
000100 d8 f2 c2 be 9c a5 b4 3d 25 85 80 bd 52 5f 2b 3d
       -0.380759 0.0882065 -0.06275395 0.04183895
000110 4a 89 80 bd bc fc 2e 3d 03 9e 95 be e8 e0 ba 3d
       -0.06276186 0.042721495 -0.29222116 0.09124929
000120 3f ba 1a be e5 95 22 3e 7e ef 62 be 51 60 6c be
       -0.1511011 0.15877493 -0.22161672 -0.23083617
000130 c4 62 59 3e ed 4c df 3d 39 61 48 3e 40 6b cb 3e
       0.21229082 0.10903344 0.19568338 0.39730263
000140 59 b1 bb 3e c4 57 98 be 51 1d 62 3e 05 b6 69 bc
       0.36658743 -0.2975446 0.22081496 -0.014264588
000150 c3 df 95 3e 7b 5c 88 3e 30 d9 57 3d e1 3a 17 be
       0.2927228 0.26633057 0.05269736 -0.14768554
000160 52 77 ea bd 0c 9a 5d be 1b 18 9c 3e 82 99 43 bd
       -0.1144854 -0.21640795 0.3048714 -0.04775382
000170 5e f7 37 3e fd c0 b2 bc 6f 08 04 3e 90 81 4a 3d
       0.17965457 -0.02182054 0.12893842 0.049439967
000180 aa 01 84 bd 17 04 e1 bd bb 46 24 be 4d 4e bb bd
       -0.0644563 -0.10987108 -0.16042607 -0.09145794

enc.2.bias f4 [10]
000000 62 1b 02 be 8f fd 91 3c 11 42 75 3d c7 79 7f bc
       -0.12705758 0.017821101 0.05987746 -0.015592999
000010 a8 fe 51 be 76 c4 3f 3e 07 98 7d 3f 62 0b 0b 3e
       -0.205073 0.18727288 0.990601 0.13578561
000020 01 99 f2 bd 90 72 55 3e
       -0.118455894 0.20844483

enc_mean.weight f4 [1, 10]
000000 83 6a 6b be 2c bc 95 3e 69 a6 92 be 89 07 d1 be
       -0.2298985 0.29245126 -0.28642586 -0.4082606
000010 11 50 a6 3e d5 f1 9c 3e 62 ee 0a 3c e3 5e 8d 3e
       0.3248296 0.30653253 0.008479686 0.27611455
000020 d0 65 b0 be 74 1c 3c be
       -0.34452677 -0.18370229

enc_std.0.weight f4 [1, 10]
000000 61 d8 00 3e 2e a0 e1 bc b7 90 7d be bc e3 a5 3d
       0.12582542 -0.0275422 -0.24762236 0.081000775
000010 d2 0d 38 3f e8 25 82 be c6 b6 67 bf 36 3c cc be
       0.7189609 -0.25419545 -0.90513265 -0.39889687
000020 5b 34 96 3e f2 0e 19 bf
       0.2933682 -0.5978843

pr.0.weight f4 [10, 10]
000000 50 06 0a 3f 66 c1 97 be a2 14 22 bf 71 2d 32 bf
       0.5391588 -0.2963974 -0.63312733 -0.6960059
000010 03 ff a6 3d 50 d5 11 3f cd f6 a7 3e 9a e8 81 bf
       0.081541084 0.56966114 0.32805482 -1.0149109
000020 ab db f9 3e 21 84 35 3f 25 ab b3 be fa 92 dd be
       0.48800406 0.7090474 -0.3509151 -0.43276197
000030 8e 1d 36 be 84 ed 24 3f 1f 85 a5 3e 9b 75 fa bd
       -0.17784712 0.6442492 0.32328126 -0.12229463
000040 9b 85 5c be e0 90 aa be 9d 1f a0 bf 62 c0 69 3f
       -0.21535341 -0.33313656 -1.2509648 0.9130918
000050 f2 a8 a6 bc be b7 a5 3d 8a 5f 51 3d ea 64 61 ba
       -0.020344231 0.08091687 0.051116504 -0.0008598106
000060 5f 04 d0 3c 26 e9 d6 bd 24 17 bc bc 24 5b 63 3c
       0.02539271 -0.10493688 -0.022960253 0.01387671
000070 6c be 30 3c c8 84 47 bd a2 59 8c bf 4a dc 2e bf
       0.010787588 -0.048710614 -1.0964854 -0.68304884
000080 9b 68 7f 3f 0b 74 a6 3f e6 ba 70 be e5 ad 2d bf
       0.9976899 1.3004164 -0.23508796 -0.67843467
000090 c1 f6 6c 3e 8f 5e 90 3f f9 69 9c bf b0 a5 ad 3e
       0.23141004 1.1278857 -1.221984 0.33915472
0000a0 76 a6 00 bf 24 0f 39 bf f1 cb 9f 3d 47 28 95 3f
       -0.50254 -0.7228873 0.078025706 1.1652917
0000b0 04 89 0b 3e 65 ea a8 bd ae 98 ce bd 49 03 ec bd
       0.13626486 -0.08247832 -0.10087715 -0.11524064
0000c0 60 57 8b bf 97 cf 45 3f 15 8b fd 3c 78 01 8f bd
       -1.088604 0.7726988 0.030950109 -0.06982702
0000d0 6b e5 bc 3d 9a b6 32 bd be 2d 81 3d 64 ad 3d ba
       0.092234455 -0.043631174 0.06307553 -0.0007235615
0000e0 05 5b 68 bd 33 8a 90 3d e5 a3 5f 3d 1d 89 1b be
       -0.056727428 0.070576094 0.05459966 -0.15189023
0000f0 b8 a8 fd 3b d4 ff 2d 3d 74 9a 93 3d b1 63 db bc
       0.00774106 0.042480305 0.07207194 -0.026780935
000100 3b 07 a7 3c 12 28 12 bd 15 c4 8d 3d 85 42 2b 3d
       0.02038919 -0.035682745 0.06922165 0.041811485
000110 39 aa cf 3c 37 11 69 be 02 fb 0c 3f 4e 1d 64 3e
       0.025349723 -0.22760473 0.5507051 0.22276804
000120 3d ce e9 be 4c c5 51 bf 1d bd be be e8 13 86 3f
       -0.4566516 -0.81941676 -0.37253657 1.0474825
000130 e8 f4 ee 3e e1 71 67 bf d2 b3 a2 3f 5c 15 13 3f
       0.46671224 -0.9040814 1.2711127 0.57454467
000140 86 ae f4 3e 8d c9 0d 3f fb a4 0e bf 1e 87 76 bf
       0.477894 0.5538567 -0.5572049 -0.9629992
000150 3e 31 cb bd 00 5e 00 40 b2 9f 94 bc a2 c5 61 bf
       -0.099215016 2.0057373 -0.018142555 -0.8819219
000160 4b 90 0e 3f d1 f1 33 3e 8a 50 f6 bd 58 85 5a be
       0.55688924 0.17572714 -0.1202708 -0.21339929
000170 e8 00 5d bf 32 f0 7e be 57 e0 41 3d 2c 39 1c 3f
       -0.8632951 -0.24896315 0.047333088 0.6102474
000180 1f f8 2a 3e e0 7a 85 bf 85 9e 54 bf b4 83 db 3f
       0.16696213 -1.0428123 -0.8305438 1.7149568

pr.0.bias f4 [10]
000000 00 f9 2b 3f d5 4c ae 3e d5 35 d3 bd 6d a6 5a 3e
       0.6717682 0.34042993 -0.10313002 0.21352549
000010 80 b4 6d 3e cf 77 db bd f5 6d 16 be b4 f3 92 3f
       0.23213387 -0.10716211 -0.14690383 1.1480622
000020 9c bf c6 3e cd d1 1f 3f
       0.3881806 0.62429506

pr.2.weight f4 [10, 10]
000000 cb 40 7f 3f 99 51 13 be 37 0b 5c bd d6 c3 c2 be
       0.9970824 -0.14386596 -0.053721633 -0.38040036
000010 35 5e a7 be f9 84 59 bc c2 4b 25 bd 34 14 97 3f
       -0.32689062 -0.013276332 -0.04035545 1.180304
000020 b8 db 71 3f 51 c7 35 3e 1e da be 3e 69 87 60 3f
       0.9447589 0.17751814 0.37275785 0.8770662
000030 89 ef d0 bb a5 8e 0e 3e 42 31 ca 3d aa d4 2d bd
       -0.006376211 0.13921602 0.098726764 -0.04243914
000040 63 d1 08 bd 48 f0 04 be 5a f8 f7 be 09 60 f3 3f
       -0.03340281 -0.12982285 -0.48431665 1.9013683
000050 0c 04 71 be c3 37 8a 3f 77 c8 a8 bd 2c 80 68 3f
       -0.235367 1.0798267 -0.08241361 0.90820575
000060 fb 80 42 3f dc 2b b8 3d 3f 9f 05 be d1 a0 bf be
       0.7597806 0.089927405 -0.13049029 -0.3742738
000070 e9 d5 3e bf 83 22 ce 3f e2 ed 31 3f 56 8b 7f 3e
       -0.7454515 1.6104282 0.69503605 0.24955496
000080 19 2d e5 bd 49 18 bf be 54 ba cc bc 2f cc 2f 3e
       -0.11190242 -0.37323216 -0.024991192 0.17167734
000090 c4 c9 89 bc 23 d8 ef 3e 2e 36 68 be 78 6b a5 3f
       -0.016819842 0.46844587 -0.22676918 1.2923422
0000a0 07 04 97 bf 86 78 36 3e 65 e0 58 bc c6 ff 34 3f
       -1.1798104 0.17819414 -0.013237094 0.7070278
0000b0 77 79 2c 3f 2a 46 b6 3d 78 46 a1 3d 13 35 a6 bf
       0.6737284 0.089001015 0.07874769 -1.2984947
0000c0 42 02 82 bf 18 dc 03 bf 55 e1 b9 bf 64 d0 fc 3e
       -1.0156939 -0.5150771 -1.4521891 0.4937774
0000d0 6d 5d 28 bc ec 9d 8f 3f a1 df 47 3f 58 56 cc bc
       -0.010276181 1.1220069 0.78075606 -0.024943516
0000e0 62 e5 30 bd 0a 35 e8 bf a9 49 9f bf 5d 21 37 be
       -0.043187506 -1.8141186 -1.2444354 -0.17883821
0000f0 ad 99 54 be fb 94 5c bf 88 2e b8 bd 1f a3 30 be
       -0.20761748 -0.86164826 -0.0899325 -0.17249726
000100 55 c5 87 be ff 12 a9 bc ef 31 0d 3e 37 9b 84 3e
       -0.2651774 -0.02063894 0.1378858 0.2589967
000110 7a 94 1f 3f 0d fa e6 bf 3f ab 94 3e 3c 80 94 bf
       0.6233593 -1.804506 0.290369 -1.1601634
000120 11 90 e6 3d 2a 17 93 bf 9d 41 66 bf d8 b5 14 3d
       0.11257947 -1.1491444 -0.8994387 0.036306232
000130 42 08 34 3e a9 0e 2c 3f 90 33 42 3f 19 3e ca bf
       0.17581275 0.6720987 0.7585993 -1.5800201
000140 ab 00 75 bf 90 c9 28 3e be eb 4e bd a1 7b 1e 3f
       -0.95704144 0.1648314 -0.05051779 0.6190739
000150 0a be fc 3d 0e a0 4a 3e 0b df ca 3d c0 8a 8d bf
       0.123409346 0.19787619 0.09905823 -1.1057968
000160 fd fe 37 bf 50 12 19 bf 1b 45 32 3e 8b 3a 63 bf
       -0.71873456 -0.5979357 0.17409174 -0.88761204
000170 d8 53 8c 3d 25 a2 32 bf 99 49 2a bf d9 49 fe bc
       0.068519294 -0.6977866 -0.6651855 -0.031041073
000180 47 57 77 bc 78 37 e4 3e 9e a1 1f 3f 99 4e d7 bf
       -0.015096492 0.4457357 0.62355983 -1.6820861

pr.2.bias f4 [10]
000000 74 64 d5 3e a6 ab 67 be be 8a ac bd 97 89 b7 bd
       0.41678202 -0.22624072 -0.084249005 -0.0896179
000010 51 ae 7e be 3e 49 c6 be 1e 88 9e 3e 57 46 82 3e
       -0.24871184 -0.38727754 0.30963224 0.2544429
000020 df 83 8c be a0 8d 35 3e
       -0.2744436 0.17729807

pr_mean.weight f4 [1, 10]
000000 9a e6 8a bf 88 fa c1 3e 1a 23 85 3f fa 07 ee be
       -1.0851624 0.37886453 1.0401337 -0.4649046
000010 5f 74 b8 3f 1e fe ce 3f 61 f0 16 bf 9d 83 a4 bf
       1.4410514 1.61713 -0.5896054 -1.2852665
000020 3b 38 91 3f 14 57 88 bf
       1.1345285 -1.0651574

pr_std.0.weight f4 [1, 10]
000000 55 ef 90 3d bb 10 30 3f df 71 6a 3e 5c 42 56 3f
       0.07076899 0.6877553 0.22895001 0.83695006
000010 1d 0a e8 be 4e 73 a5 be 00 f9 51 bf b9 e9 52 be
       -0.45320216 -0.32314533 -0.8202057 -0.2059697
000020 ce bc bf be b7 fd db be
       -0.37448734 -0.42967007

dec.0.weight f4 [10, 11]
000000 a2 7e ca 3d f1 77 04 be 63 63 86 bd 21 70 ae 3d
       0.098874345 -0.12936379 -0.06561925 0.08517481
000010 79 af ac 3d 82 f2 d1 bc 5f 36 9f 3d 88 6f 7f 3e
       0.08431906 -0.025628332 0.07774042 0.2494489
000020 03 26 59 bd 7a e0 d2 3c 89 4b 0b bd 98 9b a4 3c
       -0.053014766 0.025741804 -0.034007583 0.020093724
000030 b4 6b 9e bd 47 9e 83 3e bd ca f1 bc 5a 19 f9 bd
       -0.077353865 0.25706694 -0.029515618 -0.121630386
000040 97 e7 03 be 65 cd c6 ba d7 00 f2 3b 6b 1f 02 be
       -0.12881313 -0.0015167414 0.007385354 -0.12707298
000050 c4 e8 0f 3e cf e8 7f 3d 1d 47 8a 3d eb f2 3b 3e
       0.14053637 0.062477883 0.06751845 0.18354385
000060 47 4b 4e be 97 85 6d be 7c 43 0c 3e 1b 8a c9 be
       -0.20145904 -0.23195492 0.13697618 -0.3936318
000070 db 67 69 3e c3 e9 8a 3d 8a 73 84 bc 2a 57 00 be
       0.22793524 0.06782868 -0.016168375 -0.1253325
000080 38 6b 66 3d f9 44 9b bd 72 e6 65 bd 65 bc 57 bd
       0.056254596 -0.07581515 -0.056127973 -0.0526699
000090 9b 25 6c 3d 18 e6 69 be df 34 20 bd 1b c5 81 3c
       0.05765305 -0.2284168 -0.03911292 0.015841058
0000a0 7c 77 ba bd 97 04 2e 3e bf dd d9 bd f8 81 77 bd
       -0.09104821 0.16993938 -0.10637998 -0.060426682
0000b0 d5 47 30 3c 3f e5 39 bd 58 ca 60 be 54 02 03 bb
       0.010759314 -0.04538464 -0.21952188 -0.0019990401
0000c0 45 cd 6e 3d f8 aa 3d bd 57 33 8d 3d a5 8a 35 3e
       0.05830123 -0.046305627 0.06894558 0.1772867
0000d0 89 d2 1c bd bd 21 5b 3d 87 14 87 3d 23 66 a3 bd
       -0.03828672 0.053498972 0.06595712 -0.079784654
0000e0 5a 1e 5d bd fc 47 00 bd ed d9 ec 3d da 66 1f 3d
       -0.053984024 -0.03131865 0.115650035 0.038916446
0000f0 a2 d7 c6 3c 38 2b a6 bd cf a7 f9 3d ce 40 94 3c
       0.024272744 -0.08113712 0.1219021 0.018097308
000100 33 57 eb bd 0f 35 29 3e f3 94 9b bd 66 ea b0 ba
       -0.11491241 0.16524146 -0.07596769 -0.001349759
000110 5b 54 53 3d a6 3f 2b 3d 5b 16 58 bd 95 e0 55 3e
       0.05159412 0.041808747 -0.052755695 0.20886452
000120 db cb 01 3e 9b a2 c3 bd fa c4 55 3d f3 73 40 bb
       0.12675421 -0.09552499 0.052189805 -0.0029365986
000130 b8 08 e7 bd 01 b5 9a bd 65 29 76 be 69 f2 24 3b
       -0.1128096 -0.07554055 -0.24039228 0.0025168902
000140 3c f9 39 3d 83 17 3c 3e c5 82 54 3d 0a 7d e0 3c
       0.045403704 0.18368344 0.051882524 0.027403373
000150 27 69 2f 3d 9d 13 02 be 88 e0 ab 3d 22 d3 07 3e
       0.04282489 -0.12702794 0.08392435 0.13264135
000160 cd 59 51 bd 92 88 e5 bd 15 32 0d be 42 c9 aa bd
       -0.05111103 -0.11207689 -0.13788636 -0.08339168
000170 cb 41 c0 3d 51 d9 99 3d 32 a4 6c bd 34 c3 2c 3d
       0.09387549 0.07512153 -0.057773776 0.042178348
000180 4f 50 5e 3d 35 70 83 bd 4d e0 3c 3d 2a f1 9d bd
       0.054275807 -0.06417886 0.046112347 -0.07712014
000190 9f e5 34 3c 42 75 51 3d ab bd 90 3d bc 7b 8e 3d
       0.011041074 0.051137216 0.07067426 0.06957194
0001a0 ee bd 1b 3d ce 5c 40 3d 2b a4 08 3d ea 40 13 be
       0.038022928 0.046963505 0.033359688 -0.14380231
0001b0 28 c4 f8 3c ed 32 43 bd
       0.030366972 -0.04765599

dec.0.bias f4 [10]
000000 f4 d5 d8 bc 6a 01 01 3d 1b 5a 41 3e 1c 14 1b 3e
       -0.026469208 0.03149549 0.18882029 0.1514439
000010 4a de 57 be 69 ae f0 3d dc e0 d7 bd c7 ea 5b bd
       -0.2108089 0.11752016 -0.105409354 -0.053690698
000020 8c 4a 6a 3d 73 64 32 3c
       0.0572 0.010888207

dec.2.weight f4 [10, 10]
000000 13 a2 29 3e 37 c5 18 bd d2 e2 23 be d2 fe 6e 3d
       0.16565733 -0.037297454 -0.16004494 0.058348484
000010 07 e1 8a 3a 6f 0d b5 3d fa 63 5e bd df 70 03 3d
       0.0010595628 0.08840453 -0.054294564 0.032090064
000020 00 fc bf 3d f0 48 d3 bd 4b c0 c2 3b 5d d2 18 3e
       0.09374237 -0.10316646 0.0059433333 0.14923997
000030 67 96 39 bd 0b 5c f9 bc 8d 8f 5b 3b 3b df fe bd
       -0.04530945 -0.030439397 0.003350231 -0.124449216
000040 47 76 1e be 40 c5 3f be b6 cf 1f bd 89 39 91 bd
       -0.15474807 -0.18727589 -0.039016448 -0.07091052
000050 98 60 21 bd 2f 33 50 3e d0 36 1a 3d 05 66 a0 3c
       -0.03939876 0.20332025 0.03764993 0.019579897
000060 41 34 9c bd c8 46 cf 3d f5 52 40 3e 0f 83 b1 bd
       -0.07627154 0.10120922 0.18781646 -0.086675756
000070 af 2d b4 bd fb 5f 1f be 82 76 6e 3e 7a a1 00 3e
       -0.08797776 -0.15563957 0.23287395 0.12561598
000080 70 33 74 3d 77 fd 93 3e 0f 9d 78 3d eb eb 1e bd
       0.059619367 0.28904316 0.060696658 -0.038799208
000090 07 2a 38 3c 40 00 90 3c 45 7c b2 bd f1 99 21 bd
       0.011240489 0.017578244 -0.08715109 -0.03945345
0000a0 eb 1f bf 3d e6 1c b4 3c 87 eb 54 3e d0 70 3b bc
       0.0933226 0.021986436 0.20792972 -0.011440471
0000b0 35 39 d4 3c 4f 31 07 3e 52 a8 fd bc ad 6e 08 3e
       0.025906185 0.13202403 -0.03096405 0.1332347
0000c0 b3 c6 ca bc c8 d7 d0 bd 9b 10 0a be 75 80 d9 bd
       -0.02475295 -0.10197407 -0.13482897 -0.10620204
0000d0 6a 62 7a 3b 8a 44 66 bd 03 c4 e7 bd fb 29 6c 3d
       0.0038205632 -0.056217708 -0.11316683 0.057657223
0000e0 11 ba 06 be c3 6f e2 bd df 13 55 3e 30 5a 51 3a
       -0.13156916 -0.11056473 0.20808361 0.0007986156
0000f0 85 4b 50 bc bb 87 9d bd 1e c7 38 3d bf 28 6d bd
       -0.012713318 -0.07691904 0.045111768 -0.057900187
000100 88 6c 45 be fc e8 b1 bd c9 df 8c 3d a3 c8 a8 3c
       -0.19279683 -0.08687016 0.06878621 0.020603484
000110 43 9b 44 bd e3 a9 79 3d e4 eb 04 be 22 9c 06 bd
       -0.04799963 0.060953032 -0.1298061 -0.032863744
000120 f7 96 6e bc 26 1f 14 3e fb 81 ca 3d c9 9d a0 bc
       -0.01456236 0.14465007 0.09888073 -0.019606488
000130 17 38 25 3e 1d 46 84 3d 5f f7 fd 3c 15 a5 5b bb
       0.16134678 0.064586855 0.031001745 -0.0033515145
000140 95 14 a8 3d 27 19 50 3e 73 8c c2 3a c7 94 65 be
       0.08207051 0.20322095 0.0014842883 -0.22420035
000150 08 6f 50 bc 1f f6 03 be 08 9a 6a 3e 27 ef 1c 3e
       -0.012721784 -0.12886856 0.22910321 0.15325604
000160 88 5c dc 3c c9 d6 44 3e 65 48 f4 3c f8 a1 0a be
       0.026899591 0.19222559 0.029819677 -0.13538349
000170 70 0b 0d bd 0f 9c 0f 3c cc 9f a4 3d 7b 18 05 be
       -0.034434736 0.008765235 0.08038291 -0.1299762
000180 5a 95 55 3e fa 8c 85 3c f0 4a 56 bd 2c 94 43 3e
       0.20857754 0.016302574 -0.05231756 0.19099492

dec.2.bias f4 [10]
000000 8f f7 11 3e 00 92 09 be b5 49 57 3d ca ba 11 3e
       0.14254592 -0.13434601 0.052560527 0.1423141
000010 36 88 10 be 32 71 21 be 4b 4e 40 bd ce 91 13 be
       -0.1411446 -0.15765837 -0.046949666 -0.14411089
000020 cd 94 b7 bd 10 8d 8a 3d
       -0.08963928 0.06765187

dec_mean.weight f4 [1, 10]
000000 a2 43 88 3d 13 85 0f be 42 82 01 bb c8 34 ff 3d
       0.06653525 -0.14015608 -0.0019761478 0.12461239
000010 cf 1c 0f bd 23 e5 d1 bc 35 6b 3c 3d d0 85 f5 bc
       -0.034939583 -0.025621956 0.046000678 -0.029971033
000020 23 f6 53 3d 49 76 1c 3d
       0.051748406 0.038198743

dec_std.0.weight f4 [1, 10]
000000 c7 54 eb bd b8 6c f8 3d 9a 53 e7 bd d3 3b 74 3d
       -0.11490779 0.121301115 -0.112952426 0.059627365
000010 95 64 5a 3e 91 fb 7f 3d 8e b5 f4 bd 3b 3e 1d bc
       0.21327431 0.06249577 -0.11948691 -0.009597356
000020 8f f9 ea 3d ea d6 1d be
       0.11473381 -0.15414014

rnn.weight_ih_l0 f4 [30, 1]
000000 bc f9 9a bd 4e b4 98 3b 44 77 9b bd a5 5b a3 bd
       -0.07567164 0.004660166 -0.075911075 -0.07976464
000010 5f 24 2d be 8d 15 d9 bd 4b 90 e1 bd b8 fd 94 bd
       -0.16908406 -0.105998136 -0.1101385 -0.072749555
000020 34 11 0f 3e 2f 9a 7a bd d9 f4 c2 bd 9e 55 7b bd
       0.13971406 -0.061182197 -0.09519357 -0.061360948
000030 1b 39 17 bd e8 c6 01 bd af f9 9d 3d 07 f5 9c 3d
       -0.036919694 -0.031683832 0.07713639 0.07663923
000040 d7 07 f1 bb 8b c7 2a bd 77 96 94 3c d7 6a b4 be
       -0.007355671 -0.041694205 0.018138153 -0.35237762
000050 ad a1 0e bd 0b 02 45 bd 1a bc 09 3c 92 c2 3e 3c
       -0.034822155 -0.04809765 0.008406663 0.011643069
000060 ee 94 ad bc c3 14 63 bd 05 34 0f 3d 63 ba b1 3a
       -0.02118918 -0.05543972 0.03496172 0.0013559576
000070 c4 0a ff bb f6 bc 22 3c
       -0.007783266 0.009932747

rnn.weight_hh_l0 f4 [30, 10]
000000 cd 7a a4 bd 95 b5 c8 bd 9b f2 f5 bd 52 30 80 bd
       -0.08031235 -0.09800259 -0.12009164 -0.06259216
000010 df 5d f9 bc 07 ec 8f 3d 65 cd c8 bb 7e c2 8c bd
       -0.030440269 0.070274405 -0.0061280006 -0.06873034
000020 c8 8c 99 3c 20 46 4a bc 96 e6 de bb 9c ad 68 3d
       0.018743888 -0.012345821 -0.0068023903 0.05680619
000030 33 ff cf 3b 4d 4d b8 bd 7c 20 57 bd 0e a9 a3 3e
       0.006347561 -0.08999119 -0.052521214 0.31964916
000040 2c 8d c7 bd 85 eb a8 3c ab 12 f3 3d f0 0b 50 bd
       -0.09743723 0.020620117 0.11868795 -0.050792634
000050 25 2d d8 3d 0c 56 86 bd e7 33 05 be 0e 67 67 3d
       0.10555486 -0.06559381 -0.1300808 0.056494765
000060 0e 77 3b bb cb 87 bc 3d df 30 8a 3c ad 4b 3c be
       -0.0028604898 0.09205588 0.016869007 -0.18388243
000070 39 7e be 3b b5 ba 16 3e e6 22 02 be 71 5a 0a 3e
       0.0058133868 0.1471966 -0.12708625 0.13511063
000080 52 4a 8b 3e ad 8b b9 bd 6b e6 ab 3d 87 82 a0 be
       0.2720514 -0.09059844 0.08393558 -0.31349584
000090 70 75 36 3d ef 99 dc bb 4c 05 84 3e 17 74 ee bd
       0.04454559 -0.0067322175 0.2578529 -0.11643236
0000a0 d4 69 03 3e 78 cc a5 3c 5e 28 06 bc 5f c9 47 bc
       0.12833339 0.0202391 -0.008188335 -0.012194007
0000b0 c1 32 56 3d bf fc 11 be 78 fd ac 3d d8 29 7f bc
       0.052294496 -0.14256571 0.08446783 -0.015573941
0000c0 a2 ba 47 3d c0 de 4f bd 98 79 03 3f dd e6 b4 3e
       0.04876197 -0.05074954 0.5135741 0.35332385
0000d0 8c 9e 47 be be 73 a6 be 27 ed c2 be 7c fb db 3d
       -0.19494075 -0.3251018 -0.38071558 0.10741326
0000e0 b1 cb 46 3e 65 09 fe be 0f 2a 6e 3c 23 34 58 3e
       0.1941364 -0.49616542 0.014536395 0.21113639
0000f0 ba e9 f0 3c 57 8f 06 3e 2a 56 90 bd e8 a1 b0 bc
       0.029408325 0.13140617 -0.070476845 -0.021561578
000100 9c 9d f7 bd b6 bc 01 be 2c 4a ab 3e bf 9a 29 3d
       -0.120906085 -0.12669644 0.33455026 0.041407343
000110 f1 b5 e1 3d e8 d5 8b 3e 10 ee 41 3e 50 75 5d 3e
       0.11021031 0.27311635 0.1893847 0.21626782
000120 62 5c 38 be 18 60 a2 3d a2 99 42 be ec fd a9 be
       -0.18003991 0.07928485 -0.19003919 -0.3320154
000130 43 54 87 3e 30 9d 8d be 4e c7 9d 3d 7b ee da 3e
       0.26431474 -0.27658987 0.0770403 0.4276007
000140 f4 7c 4f be 61 31 ad 3d 75 da 33 bc b5 cd ad bd
       -0.2026251 0.08456684 -0.010977377 -0.08486501
000150 40 b7 2a be 7f cb c7 3d 14 06 58 3c ff 9a d3 3e
       -0.16671467 0.09755611 0.013185043 0.4132919
000160 12 18 15 bd 7d e1 af 3d 1d 62 36 3e 88 f4 92 3e
       -0.03639991 0.0858793 0.17810865 0.28702188
000170 82 a4 84 be 1b 16 05 be af a1 60 be 63 a5 7b 3e
       -0.2590676 -0.12996714 -0.21936677 0.24574809
000180 22 d6 83 3d 4c 06 2f be a6 db d4 3d 3f dd 16 3d
       0.06437327 -0.17092246 0.10393457 0.03683209
000190 50 c9 99 be e2 b5 87 be 94 ae a2 3e c0 ce 0b bf
       -0.30036402 -0.26505953 0.31773818 -0.5461235
0001a0 69 f7 83 be 7f 21 a6 3e 0a d9 b8 3e 7b 4a dd 3d
       -0.25774696 0.3244743 0.36103088 0.10805222
0001b0 3c 96 2f be ca 83 2d be 98 f0 b1 be 7f a8 04 bf
       -0.17147154 -0.16944805 -0.3475387 -0.51819605
0001c0 11 77 c1 3d 47 50 dd be 4e 62 45 be 24 40 83 3e
       0.09446538 -0.4322531 -0.19275782 0.25634873
0001d0 f4 18 8a 3e 07 d0 50 3e 7c a2 c7 3d 5b a1 be be
       0.26972163 0.20391856 0.09747788 -0.3723248
0001e0 e5 87 50 3c 00 cc d6 bd 06 d6 f7 3d 60 e3 23 be
       0.012727712 -0.10488129 0.121013686 -0.16004705
0001f0 9c 3e 84 be 1d 07 ab 3e be 37 ca 3e 90 2e 37 3e
       -0.25829017 0.33403865 0.39495653 0.17888856
000200 e7 26 a4 3d c4 82 d6 bc cb 7e d9 bd 93 c4 b3 bd
       0.080152325 -0.0261854 -0.10619887 -0.08777728
000210 69 3c 37 3e a4 0c b6 be c4 08 6d 3e e1 a7 8d 3d
       0.17894138 -0.3555652 0.23147875 0.06916786
000220 67 bf 70 bd 00 c2 b5 3e 28 b9 6d be c9 8a 1e be
       -0.058776285 0.35499573 -0.23215163 -0.1548263
000230 6e 2d 4d be 67 1a 9f 3e a7 86 8e 3e 83 bd 90 be
       -0.20036861 0.3107483 0.27837107 -0.28269586
000240 26 35 f3 bc 55 13 b3 3e 29 22 5f 3d 58 37 76 3e
       -0.02968843 0.34975687 0.054475937 0.2404455
000250 2e dc dc bb f9 03 61 be a4 b4 4d 3e dd d6 b4 bd
       -0.0067401147 -0.21974172 0.2008844 -0.088300444
000260 75 b8 70 bd 4a dd e5 be d9 11 86 3e 9a 59 b8 3e
       -0.058769662 -0.44895393 0.26185492 0.3600586
000270 29 af 08 bf 11 78 0d be 47 9f 5e be 34 f1 59 be
       -0.53392273 -0.13815333 -0.21740447 -0.21283418
000280 d7 a9 a9 be 01 32 38 3e af d1 bb 3e 98 b9 55 3e
       -0.3313739 0.17987825 0.36683413 0.2087158
000290 2f 98 65 3e ee 7f da 3b cc b2 64 be c6 f3 89 3e
       0.22421335 0.0066680824 -0.2233383 0.26943797
0002a0 96 bd 05 bd 88 5a 96 be f7 6c 92 be 51 6e 89 be
       -0.032651506 -0.29365945 -0.2859876 -0.26841977
0002b0 77 e1 94 3e 9e b5 c7 be 35 a2 8c 3e 37 55 95 3e
       0.29078266 -0.3900575 0.27467504 0.29166576
0002c0 8b 51 8b be 0f 93 91 3e d0 b4 d7 3c 04 f7 ca be
       -0.2721065 0.2843251 0.026331335 -0.39641583
0002d0 f2 51 9e be c1 05 01 3c 82 93 22 3e 45 24 a2 be
       -0.30921894 0.007874907 0.15876582 -0.31668296
0002e0 3e df d9 bc b8 a6 02 3f c6 50 09 3e 50 6b a5 3d
       -0.026595708 0.5103564 0.13409719 0.08077109
0002f0 a0 b8 8d 3c 3f 52 93 bd 7a 85 eb 3d 5e 21 64 bd
       0.01729995 -0.071934216 0.11500068 -0.055695884
000300 a4 de 7c be 65 8f 41 bd cf 1f f3 3d c0 74 cf bd
       -0.24694306 -0.047255892 0.118713014 -0.1012969
000310 bc 9d c1 bc 17 ee 42 be 3d 68 b1 3d 80 e7 42 be
       -0.023634784 -0.19036137 0.0866246 -0.19033623
000320 b3 63 8e bd e1 ce 79 3e ea bf 44 be 4a d7 a5 be
       -0.0695261 0.24395324 -0.19213834 -0.32390815
000330 db 2a f7 be 16 54 e1 3d a3 35 80 3e e2 76 78 be
       -0.48274884 0.11002366 0.25040922 -0.242641
000340 90 a1 dc 3e 73 41 60 3c 75 d1 7f bd 82 e2 d7 3c
       0.43092012 0.013687479 -0.062455613 0.026353125
000350 ac 28 a5 3b ec 75 2c bd a3 b4 9d bd b6 e5 d2 3d
       0.005040249 -0.042104647 -0.07700469 0.1029772
000360 e1 35 59 3e e0 98 39 bd a9 7f 1e 3e 17 89 c8 3d
       0.2121196 -0.04531181 0.15478386 0.09791773
000370 2a 9d be bd dd 15 6f be a5 0a d0 3c dd 17 04 3f
       -0.093073204 -0.23348184 0.0253957 0.5159891
000380 98 4c aa 3e a1 22 91 be 73 04 a5 be a7 60 16 3e
       0.3326156 -0.28346732 -0.32229957 0.14685307
000390 dd 90 ab be be cf 41 3e 47 74 87 3e 3c 94 70 3e
       -0.3350896 0.18926904 0.264559 0.23494047
0003a0 75 ed 58 be 39 87 71 bd 9c 49 5b 3d 64 c8 11 be
       -0.21184333 -0.05896685 0.053536996 -0.14236599
0003b0 54 3c 92 be 27 de a3 be 04 0f 87 3e d3 77 00 be
       -0.28561652 -0.32005426 0.26378644 -0.1254571
0003c0 58 74 35 3b e4 f2 33 3e 05 1c d1 bd fb 8a a3 be
       0.0027687754 0.17573124 -0.102104224 -0.3194197
0003d0 e2 93 6f bd 29 c9 1a 3e 34 52 54 3e d8 e5 60 be
       -0.05849064 0.15115799 0.20734483 -0.21962678
0003e0 68 c8 ef 3d e1 2f 41 3e 37 f8 09 bf 04 ba 34 be
       0.11708146 0.1886592 -0.5389437 -0.17649084
0003f0 11 fb e8 3e 36 0b 65 3e 2e 62 dc bd 23 25 9a be
       0.45504048 0.22367558 -0.10760914 -0.30106458

rnn.bias_ih_l0 f4 [30]
000000 3c 78 8b bb d9 57 5c be d9 de ce 3e f1 60 97 3e
       -0.0042562764 -0.21517886 0.40404394 0.29566148
000010 8c 78 b8 be b1 7a a0 3e 69 27 da 3e fe 05 78 3e
       -0.3602947 0.31343606 0.42608193 0.24221036
000020 83 b7 d9 bd 9d a0 b7 3e cf 5f 15 bf 3d d6 ca be
       -0.10630705 0.35864726 -0.5834932 -0.39616576
000030 54 c7 d4 be 72 bb fa be 9e 54 16 bf 74 b4 ee be
       -0.41558325 -0.48971134 -0.58722866 -0.4662205
000040 6f 8f a8 be 46 37 ba be f6 92 08 bf 89 a6 b7 bd
       -0.3292193 -0.36370295 -0.53349245 -0.08967311
000050 b5 6a 06 3e 68 25 3b 3e 78 74 ae bd fd 8f 88 3c
       0.13126643 0.18275988 -0.085183084 0.016670221
000060 a0 00 9c bd 55 8b b7 be 58 ea 59 3d 25 c4 15 3d
       -0.07617307 -0.3584849 0.053202003 0.03656401
000070 c9 cd 11 bd d0 af 16 3d
       -0.035596643 0.03678876

rnn.bias_hh_l0 f4 [30]
000000 6c 4c 78 3e 9c b2 1a be a6 77 95 3e 4f 7a 8d 3c
       0.24247903 -0.15107197 0.29192847 0.017270235
000010 45 3f 86 3d ff b6 ea 3e 74 7f c8 3e 93 9a a2 3e
       0.065550365 0.4584274 0.3915974 0.31758556
000020 0e 08 60 bd d7 e9 b6 3e 11 93 40 bf 11 9e 07 bf
       -0.05469518 0.3572528 -0.75224406 -0.52975565
000030 7a 7b cb be b5 b9 16 bf 0f 90 2c bf 49 c4 f9 be
       -0.39742643 -0.58877116 -0.67407316 -0.48782566
000040 34 19 d9 be 3d ba da be e7 9f 8a be 3c 44 a7 3d
       -0.4240204 -0.42720214 -0.2707512 0.081673115
000050 d4 1e f0 bd 94 07 3a bc 7c 7f d2 3d 83 cd 80 3e
       -0.1172463 -0.011354346 0.10278222 0.25156793
000060 fa 8f 12 3e 99 3e c5 be 2a 01 92 3d e2 fc 82 3c
       0.14312735 -0.3852432 0.07129128 0.015989725
000070 19 47 fd 3d 80 6d 3b bd
       0.123670764 -0.045758724
