generative_ts/saves/250701_080731/model_VRNN_v_10_tau_10_std_Y_0.01.pth (torch, 14974 bytes, 22 tensors)

enc.0.weight f4 [10, 11]
000000 fd 8b e7 3e 74 66 e7 bd 40 e9 e0 3d 93 e0 f5 be
       0.4522399 -0.11298838 0.10981989 -0.480229
000010 30 12 14 be db 3b 9f 3e 7f 56 56 be 7e 70 97 3e
       -0.14460063 0.31100354 -0.20931433 0.29578012
000020 9a 8b 71 3e e2 7e f6 be 92 5f c7 be 71 12 c3 be
       0.2358841 -0.4814368 -0.38940102 -0.38100007
000030 44 38 b4 3d f3 3a bc bd b5 47 fe bc ff 9a be ba
       0.08799794 -0.09190931 -0.031040052 -0.0014542042
000040 91 81 1f 3c cd 8e cd 3c 42 bf 1f be 19 f2 fe bd
       0.009735481 0.025092507 -0.15600303 -0.1244852
000050 d3 19 9d bc 34 60 82 3d de 8c 9b be c8 b3 80 bd
       -0.019177353 0.063660055 -0.3038091 -0.062842906
000060 09 85 46 bd 5a 8d 1b 3e d1 c9 69 3d 97 d3 ab bd
       -0.048466716 0.1519064 0.057077233 -0.08389967
000070 22 6f ba 3d fd ed fd bc 5b b9 58 bd 8e 5a cb 3c
       0.09103228 -0.03099727 -0.052911144 0.024823453
000080 d8 de a0 bc 9b 4d ed 3e de 62 b3 be 0d 48 43 be
       -0.01963751 0.4634827 -0.35036367 -0.19070454
000090 34 0e b5 be 58 fb 3c be fa d2 ae 3e db 8c f1 bd
       -0.353624 -0.18455255 0.34145337 -0.11794444
0000a0 76 c0 4a 3e 35 17 a2 3e b9 be 46 be 02 ec dd be
       0.1979998 0.3165833 -0.19408692 -0.43344122
0000b0 82 73 81 be 77 8b 71 3c c2 94 11 bd b5 ba f4 3d
       -0.25283438 0.014742724 -0.035542257 0.11949674
0000c0 0c c6 93 3d 7e 76 a2 bd 62 89 87 3c de d3 29 bc
       0.07215509 -0.07932757 0.016545001 -0.0103654545
0000d0 fc ea 70 bc b6 79 9f 3b 2d a7 e3 3d 1f dc 98 3e
       -0.014704462 0.004866804 0.111158706 0.2985544
0000e0 28 e0 3e be 9f e1 fc bd c9 5c 0d bf 83 96 ac bc
       -0.18640196 -0.12347721 -0.55219704 -0.021067863
0000f0 47 81 80 3d 84 e9 4c bd 31 8a de 3e 5a 7b aa 3e
       0.06274658 -0.050027385 0.43464807 0.33297235
000100 92 02 b9 be 35 b7 c5 be 37 61 8d be 9a 70 70 3d
       -0.36134773 -0.38616338 -0.27613232 0.058701135
000110 09 d5 3c be e8 61 d5 bc 86 d6 db 3c a1 97 aa 3d
       -0.18440641 -0.026047662 0.026835691 0.08329702
000120 02 fa 19 3d ac 1f 5c be b8 4c 60 bd 76 2c 55 3e
       0.03759194 -0.21496457 -0.054760665 0.20817742
000130 99 a9 0d be d0 76 83 be 82 b1 49 3e 35 b4 4c 3c
       -0.13834228 -0.25676584 0.1969662 0.012494137
000140 6c f5 26 3e a6 d4 54 3d a5 50 b3 bd 86 00 35 3d
       0.16304559 0.05196061 -0.08755616 0.044189952
000150 a1 23 f4 bd dd dc 47 be 0a 9b 78 3d 0f eb 0f 3e
       -0.11920858 -0.19517846 0.06069473 0.14054511
000160 92 ab 72 be e9 68 c0 3d cb 8b 45 3e 06 79 59 3d
       -0.23698261 0.0939501 0.19291608 0.053093933
000170 12 a3 63 3c 06 d3 ae bc 3e 73 13 be b0 a8 c7 bd
       0.013893859 -0.021340858 -0.1439943 -0.097489715
000180 fb bc 9a bc 25 21 ce bd 28 f1 dc 3d 7c f2 8b be
       -0.018888941 -0.100649156 0.107881844 -0.27333438
000190 cd b0 04 3d e5 1b 81 be 46 bb ca 3d 0f e0 f7 bd
       0.032395173 -0.25216594 0.09899001 -0.12103283
0001a0 98 c8 d8 bd bd 4a f2 3d 6f 84 d7 bc 6c 2e a6 bd
       -0.10585135 0.118306614 -0.026308266 -0.08114323
0001b0 2f f0 26 3e 7c d3 b8 3d
       0.1630256 0.090247124

enc.0.bias f4 [10]
000000 41 24 2d bd 92 50 bc 3d 45 ae 6c 3e 6c ae 18 bd
       -0.042270903 0.09195055 0.23113354 -0.037275717
000010 a3 45 0d 3d 11 9d 64 be 22 e4 c3 3d c2 bc 6b 3e
       0.03449024 -0.22325541 0.09564997 0.23021224
000020 22 9c 14 3d ed f5 ff 3d
       0.036281712 0.124980785

enc.2.weight f4 [10, 10]
000000 18 9d 6c be 5d 2c 82 3e aa 61 6e 3e 1c 20 9e be
       -0.23106802 0.25424471 0.23279443 -0.30883873
000010 43 75 0e 3e eb a7 fe be 76 b0 d9 3d 64 ad f8 3d
       0.1391192 -0.49737486 0.106293604 0.12142447
000020 b9 7a 68 3e 43 bb 5a 3e 7f 38 07 3e a6 06 7b be
       0.22703065 0.21360497 0.13205145 -0.24514255
000030 d4 7a a8 bc 28 64 95 3e 32 09 e6 bd 08 a1 a9 3e
       -0.020566382 0.29177976 -0.112322226 0.3313067
000040 6a 93 89 be 6a 10 f8 bd cd af 4a be 83 9d 32 be
       -0.2687028 -0.12112506 -0.19793625 -0.17442898
000050 c5 3d 6e 3e ee f4 7b be c2 55 5c be c5 38 49 3e
       0.2326575 -0.24605152 -0.21517089 0.19650562
000060 56 a5 47 be cf e2 ee 3e 68 21 49 bd ad 0e 91 be
       -0.19496664 0.46657416 -0.049104124 -0.2833151
000070 1b b9 a4 be 69 ed 5d be 6b 02 60 be 4e 32 4a 3e
       -0.32172474 -0.21672596 -0.21875922 0.19745752
000080 09 9a 55 3e e6 82 4e be f6 aa d0 3d d2 2a b7 be
       0.20859541 -0.20167121 0.10188858 -0.35774857
000090 9c 6a 14 3e b9 f1 50 3e 90 f4 c1 3d 5a 61 46 bc
       0.14493793 0.2040471 0.09470475 -0.012108171
0000a0 3d 60 6e 3e c3 fc 82 be a0 0d 6d be 46 e7 85 3e
       0.232789 -0.25583467 -0.23149729 0.2615301
0000b0 a9 74 4b be 5e 4b ad 3e bb d1 eb bd 64 c7 ec bd
       -0.19868721 0.33846563 -0.11514612 -0.11561468
0000c0 dd 3a 66 be 25 bd 95 bc 4f bc 97 3e e1 77 2c be
       -0.22483392 -0.018278668 0.29635856 -0.16842605
0000d0 8c 2b 33 be 9c ec 3e 3e ac 20 0e be 93 a3 bc 3e
       -0.1749708 0.18644947 -0.13879651 0.36843547
0000e0 f0 e2 91 bd 4d 6e b9 bd 2b 64 b2 be 52 c3 7f be
       -0.07123363 -0.09054241 -0.34842047 -0.24976853
0000f0 62 db e1 3e 59 38 0a bd c3 5a 89 be a0 80 2d 3e
       0.44112688 -0.033745144 -0.26827058 0.16943598
000100 7d 0a 0d be 34 80 8b 3e ef 19 c6 bd 0c 62 75 be
       -0.13773532 0.2724625 -0.09672915 -0.23963183
000110 f6 bf 57 be d8 55 59 be 1b 8b 38 3e 30 51 3e be
       -0.21069321 -0.21224153 0.18021815 -0.18585658
000120 26 97 19 be 03 3b 4d 3e 29 f8 54 3d d1 ce b9 3e
       -0.14999065 0.20042042 0.051994476 0.362906
000130 d4 cc 52 bc 5f ab 8f be 81 1b 48 be d3 44 80 be
       -0.012866218 -0.28060433 -0.19541742 -0.2505251
000140 6c 67 94 3e 3d 6c 08 bd 25 d0 57 be 72 7f 0d 3f
       0.28985155 -0.03330635 -0.21075495 0.5527259
000150 98 36 a9 be 1f bb 9a 3e d8 6b 39 be e1 21 6f be
       -0.33049464 0.30220887 -0.18107545 -0.23352768
000160 21 38 63 be bb 04 07 be 9e 04 44 bd d9 4a 60 3e
       -0.2218938 -0.13185398 -0.047855966 0.21903552
000170 b9 c9 51 3e ff 46 53 be 6f a9 0e 3c 48 2e b3 be
       0.20487107 -0.20632552 0.008707388 -0.34996247
000180 fb 0b 3e 3e ce ab a8 3d 50 71 3c 3e 71 e9 25 3e
       0.18559258 0.08235894 0.184026 0.16202332

enc.2.bias f4 [10]
000000 1f 2c b5 bc 07 e2 1f 3e b2 0b 6f 3c 0f 25 4c 3d
       -0.022115765 0.15613566 0.014590191 0.04984003
000010 1d 19 4d 3e 0c 63 db 3c 7f 9f 4a 3e 5b c0 ea 3d
       0.20029111 0.026780628 0.19787405 0.1146247
000020 f4 96 96 3e 8d c7 39 be
       0.29412043 -0.18142529

enc_mean.weight f4 [1, 10]
000000 22 94 9a be a7 4a a0 3e 4e 87 95 3e a1 20 af be
       -0.3019114 0.31306955 0.29204792 -0.3420458
000010 13 6c 94 3e 14 d1 90 3e cd 9f a2 3e b5 f5 b2 3e
       0.28988704 0.28284514 0.31762543 0.34953085
000020 4c 30 8d 3e 03 d4 26 be
       0.2757591 -0.16291814

enc_std.0.weight f4 [1, 10]
000000 c9 61 3d bd b8 a3 a9 3d 10 b4 07 3c b9 1a 9d 3d
       -0.046235833 0.0828318 0.008282676 0.076711126
000010 fe e0 d8 3d 4c d4 89 3c 48 2c 17 bc e2 44 c7 bd
       0.10589789 0.016824864 -0.009226866 -0.09729935
000020 e6 40 95 bd 32 50 50 bd
       -0.07287769 -0.05085773

pr.0.weight f4 [10, 10]
000000 a4 85 b1 3e 17 08 33 3e 30 e4 e0 3e 74 c2 9e 3e
       0.34672272 0.17483555 0.43924093 0.3100773
000010 64 45 e4 be 3f f2 b4 3e 41 88 8b be 4b 37 78 be
       -0.4458419 0.3534107 -0.2725239 -0.24239843
000020 59 2c e6 3e 57 43 c0 3e db 3b 16 bf de c8 a8 be
       0.4495571 0.37551376 -0.5868508 -0.3296575
000030 be cf f7 be c9 8b 24 bf a0 77 10 3f 32 e6 3e bf
       -0.48400682 -0.64275795 0.56432533 -0.7457
000040 dc f4 22 3f 28 0c e7 3e 56 12 b3 be 06 bc 43 be
       0.63654876 0.45126462 -0.34974927 -0.19114694
000050 86 40 d9 3e 9e 97 83 3e 08 cf fa 3d 2a d5 a7 3e
       0.4243204 0.25701612 0.12246519 0.3277982
000060 e2 c9 39 bf 1b 8b 19 3f 62 58 2c bf 02 b6 e2 be
       -0.72573674 0.59977883 -0.6732236 -0.44279486
000070 78 24 00 3f a6 a5 3e 3e 9e 4a e3 3e b3 3b 3e 3e
       0.50055647 0.18617877 0.44392866 0.18577461
000080 48 a8 6f 3e 32 33 73 3e ca de ff be 01 bf f2 3e
       0.23404038 0.23749998 -0.49974662 0.4741135
000090 25 68 04 bf 88 5a 32 be 88 3a f8 3e 47 96 1d 3d
       -0.5172141 -0.17417347 0.48482156 0.038473394
0000a0 d2 9c 3e bf cb f5 81 be 52 80 0c bf 59 92 3a bf
       -0.7445804 -0.25382838 -0.548833 -0.7287956
0000b0 40 84 13 3f 83 c2 1e bf 7f 5f 35 3f 0b 06 c8 3e
       0.5762367 -0.6201555 0.7084884 0.3906711
0000c0 4b 4a c3 be 8f eb 01 bf c5 c7 1b bf b5 0d ad be
       -0.3814262 -0.5075006 -0.608517 -0.3379952
0000d0 1c 3b 51 be 97 05 12 bf 65 9f 29 3f 9e f5 41 bf
       -0.20432705 -0.5703978 0.6625884 -0.7576541
0000e0 d7 e3 0d 3f a3 bd e0 3e b1 ef ab be f4 17 d2 be
       0.5542578 0.4389468 -0.33581308 -0.410339
0000f0 5a e9 cc 3e f0 3e 03 bd 3c 8d 5e 3e 6c bd 9a 3c
       0.40021783 -0.032042444 0.21733564 0.018889152
000100 cc 1e 06 bf df e2 27 3e d8 9a 8c be 9b e9 cb 3d
       -0.5239074 0.16395138 -0.27461886 0.09956666
000110 bc 29 93 3e 1c c8 0b 3e f7 b3 3d bf c5 65 bb be
       0.28742778 0.13650554 -0.7410273 -0.36601081
000120 3e 1d f0 be be 1b 2b bf a5 f1 24 3f 12 1f 0b bf
       -0.4689731 -0.66839206 0.6443122 -0.54344285
000130 5b 20 f5 3e a2 28 bb 3e 5d 3e c0 be 33 c9 92 be
       0.47876248 0.36554438 -0.3754758 -0.28669128
000140 bb d0 b8 3e de 6b 94 3e 33 9f 08 3f 08 2b 6b 3e
       0.3609675 0.28988546 0.5336792 0.22965634
000150 70 3a 11 bf 12 77 f8 3e 54 f5 2c bf d4 cb 2b be
       -0.56729794 0.48528343 -0.6756184 -0.16776973
000160 bf 87 da 3e 44 e5 1d 3e 20 06 cc 3e f2 d9 05 3e
       0.4268169 0.15419489 0.39848423 0.13071421
000170 ed 79 7d 3e 19 c4 0b 3e c2 d6 07 bf b9 cc ec 3e
       0.24753542 0.13649024 -0.5306207 0.4624994
000180 7f ee af be 61 75 41 be 26 c7 f6 3e f3 42 27 3e
       -0.34361646 -0.18892433 0.48198813 0.16334133

pr.0.bias f4 [10]
000000 3b fe f0 bd 1a 9d 02 3e 6e ea 3b 3e d9 f5 40 3e
       -0.117672406 0.12755242 0.18351147 0.18843783
000010 3c 7f a3 3d aa 88 a0 3e f8 ab 46 be 8c 37 89 3d
       0.079832524 0.31354266 -0.19401538 0.06700048
000020 dd 2c 55 bd 60 c7 6b 3e
       -0.052044738 0.23025274

pr.2.weight f4 [10, 10]
000000 6f e8 15 3f 14 91 ec be bf ee a9 3e 2b 63 e3 3e
       0.5855779 -0.46204436 0.3318996 0.44411597
000010 e2 3f 0d bf 69 d4 ed be 75 5a 12 3f 0b 33 28 bf
       -0.551756 -0.4645112 0.57169276 -0.65702885
000020 56 77 e4 3e 6a c8 0e 3f ab 9f c9 be 10 50 f0 3e
       0.44622296 0.5577456 -0.3937963 0.46936083
000030 f5 07 02 bf 40 57 be be 14 1e 43 3f 27 35 dd 3e
       -0.5079339 -0.3717594 0.7621777 0.43204615
000040 53 89 0a bf 3f 20 e3 3e 24 7c 10 bf 17 94 d2 be
       -0.5411579 0.4436054 -0.56439424 -0.4112861
000050 42 35 e5 3e ba 45 1e bf 08 90 1f 3f ab 7f 9b 3e
       0.44767195 -0.61825144 0.6232915 0.3037084
000060 ea 13 12 bf 03 eb 02 bf 61 cb c7 3e 81 7e d6 be
       -0.57061636 -0.5113985 0.39022353 -0.4189339
000070 f1 02 fc 3e 93 fe 71 3e ab d4 cf 3e e5 d8 21 bf
       0.49220994 0.23632269 0.4059194 -0.6322158
000080 c3 b6 ab 3e 6f f0 f4 3e 0c 32 2a bf af 26 15 bf
       0.33537874 0.47839686 -0.66482615 -0.5826215
000090 77 70 24 3f 5f 5a 05 bf 49 30 23 3f 1c b8 c9 3e
       0.6423411 -0.5209102 0.6374555 0.39398277
0000a0 d9 9b 04 bf c3 ca 1c 3f 1e 5d 38 bf 2a 29 fc be
       -0.51800305 0.6124689 -0.72017086 -0.49250156
0000b0 36 be 1d 3f 48 c1 09 3f 41 c7 e7 be 8b eb 2a 3f
       0.61618364 0.5381055 -0.45269206 0.6676566
0000c0 54 31 0d bf f3 34 f9 be ef 17 e6 be f0 3d da 3e
       -0.55153394 -0.4867321 -0.44940135 0.4262538
0000d0 7d 85 db be 2f 58 bf be 51 6e 01 3f 1e 03 13 3f
       -0.4287528 -0.37371966 0.50558954 0.5742663
0000e0 fb 63 f1 be 94 1a 24 3f 62 84 04 bf c1 86 c5 be
       -0.47146592 0.64103055 -0.517645 -0.38579372
0000f0 3a c7 b8 be b1 ee 14 3f 23 30 2d bf 42 00 dd be
       -0.36089498 0.58176714 -0.67651576 -0.4316426
000100 7b 63 22 3f 58 c1 18 3f 9f fa c3 be 0d f4 ea 3e
       0.63433045 0.5967002 -0.38277146 0.4588932
000110 30 bb a1 be 9d bc e4 be e1 30 07 3f 4f 77 12 bf
       -0.31588125 -0.4467515 0.5280896 -0.572133
000120 d7 8e 0d 3f e7 21 b2 3e 1c ce 1e bf 74 6f e2 be
       0.5529608 0.3479149 -0.6203325 -0.44225657
000130 4d d0 08 3f fe 4c f8 be d1 ee aa 3e 4c ef e4 3e
       0.5344284 -0.4849624 0.33385327 0.4471382
000140 1b 45 8f 3e d5 ba 06 bf b4 c3 dc 3e 07 31 2d 3f
       0.2798241 -0.52628833 0.4311806 0.67652935
000150 36 19 53 bf 18 ed 07 bf d1 93 ef 3e 24 9e b8 be
       -0.82460344 -0.5309615 0.46792462 -0.36058152
000160 04 9a 4b 3f 98 ab 05 3f d1 bb 08 bf 89 92 4c 3f
       0.79531884 0.52214956 -0.53411585 0.79911095
000170 26 52 09 bf a5 c7 e3 be 3a 11 2a 3f 0b ad 1f 3f
       -0.53640974 -0.44488254 0.66432536 0.6237342
000180 bd 70 10 bf 16 12 10 3f 6d 9f 8f be 2a 34 00 bf
       -0.56422025 0.56277597 -0.2805132 -0.50079596

pr.2.bias f4 [10]
000000 e6 8d a2 3d 2c d0 15 3e 37 bd b1 3c e7 f6 e3 3c
       0.07937221 0.14630193 0.02169667 0.027827693
000010 91 bb b5 bc bf 93 ae 3d 88 74 4e bd 18 54 4f be
       -0.022184165 0.08524274 -0.0504041 -0.20246923
000020 0c 48 85 bd ad f9 e3 bd
       -0.065078825 -0.11131606

pr_mean.weight f4 [1, 10]
000000 bd 01 44 bf 21 61 0d 3f c5 3b 21 bf 13 d5 12 bf
       -0.7656515 0.5522633 -0.62981826 -0.57356375
000010 c2 a2 50 3f 74 28 4b 3f 9b 1e 24 3f 8e bb 2d bf
       0.8149835 0.793586 0.641092 -0.6786431
000020 b6 2a 1a bf a1 fb 2a 3f
       -0.6022142 0.66790205

pr_std.0.weight f4 [1, 10]
000000 3c 46 b1 3d 32 da 8d 3d 50 8c 9b bd 80 7e f6 bd
       0.08655974 0.06926383 -0.07595122 -0.12035847
000010 61 4f bd 3d ad 72 4f 3e d8 68 20 bd ce 30 25 3e
       0.09243656 0.20258589 -0.039162487 0.16131899
000020 73 6e af bd a6 51 5f 3c
       -0.085659884 0.013630306

dec.0.weight f4 [10, 11]
000000 2d 02 4c bd 77 9e 66 3d 96 a5 49 bd 10 6d d0 bd
       -0.049806762 0.056303468 -0.04923018 -0.10177052
000010 ca 30 81 3d 51 3a 26 3e d7 f8 fc bd ae f7 23 be
       0.06308134 0.16233183 -0.1235215 -0.16012451
000020 e1 d2 9b bd 85 bb de 3c 67 7b 3d 3e 3f b8 6f 3e
       -0.07608581 0.027189026 0.18504106 0.23410128
000030 da 6d d5 3d d7 d0 e3 3d a1 1d 89 3d 3c 4e 0a be
       0.10421343 0.111238174 0.066951044 -0.13506407
000040 bd 0e 27 3d ae 3a 24 be 0e 4e a2 bd f9 a3 0c bc
       0.04078554 -0.1603801 -0.07925044 -0.008584016
000050 19 1b 4b 3e 97 5f c7 bd 0f ae de bc 91 52 4c 3d
       0.19834556 -0.09735029 -0.027182607 0.04988343
000060 45 2d 8f 3d 0f 94 b9 3d c8 4b 0d 3e be a8 32 3d
       0.06991056 0.09061443 0.1379844 0.043617956
000070 fb a2 89 3d 5b 92 f5 bd b7 2f 37 3c e3 d7 49 bd
       0.06720539 -0.11990806 0.01118081 -0.04927815
000080 23 1d fa bd 5e cf 47 3d 1d 5f 62 3e 33 f4 0a 3e
       -0.12212589 0.048781745 0.22106595 0.13569717
000090 b1 a3 18 3e a7 b3 11 bd 76 8e 13 be a0 63 de bb
       0.14906193 -0.03557172 -0.14409813 -0.0067867786
0000a0 f3 37 b4 3c db e6 44 bd aa 7b b9 3c 64 78 12 bc
       0.021999335 -0.048071723 0.022641975 -0.008939836
0000b0 5f 51 68 be 30 6e a3 3c 27 22 e2 3c 49 28 32 bd
       -0.2268729 0.019950002 0.027604176 -0.04349545
0000c0 4f 9a 54 bd ed 8b db 3c 9f 4a 60 3d 7f 8e 56 be
       -0.051904973 0.02680012 0.054758664 -0.20952795
0000d0 5f 11 30 3e d8 99 d5 3d 7b a5 b5 bd 90 ea 28 bd
       0.17194127 0.10429734 -0.088694535 -0.04123932
0000e0 7f 14 34 3e d2 4f 5e 3d 2f 9f 88 bd d8 09 f2 bb
       0.17585944 0.05427534 -0.06670987 -0.0073864274
0000f0 1a 08 dd bd 8f 64 bc bb 0f ca 36 be bb 5f 0e bd
       -0.10792561 -0.005749292 -0.17850517 -0.034759264
000100 b0 d2 c1 3d 6c df 23 ba e8 d2 26 be 98 82 95 3d
       0.094640136 -0.0006251249 -0.16291392 0.073002994
000110 79 ac 19 be 7b f4 b8 3d 6f d8 c0 bd db 03 bb 3d
       -0.150072 0.09031006 -0.094162814 0.09131595
000120 a1 cc 24 3e 63 4a 31 be be 56 4c 3d c7 94 01 3c
       0.16093685 -0.17313533 0.04988741 0.007909006
000130 e4 d6 19 3e 9e 17 a4 bc 14 a0 af bd 09 ba c9 bc
       0.1502338 -0.020030793 -0.08575454 -0.024624841
000140 41 86 ac bd b3 d5 cd 3c 3c e2 ae 38 74 ef 83 3d
       -0.084240444 0.025126314 8.339106e-05 0.064421564
000150 85 a6 f8 3d d3 87 d0 3d 0b 60 10 bd e6 a4 47 3c
       0.12141136 0.101821564 -0.035247844 0.012185311
000160 12 85 34 39 ad 1b 0b 3d 30 c4 05 bd c5 19 60 bd
       0.0001721571 0.03396194 -0.032657802 -0.054712076
000170 b1 f4 37 3d 02 53 44 3e a3 f3 61 3d d7 77 52 3d
       0.04491109 0.1917229 0.05516399 0.05138382
000180 25 3e 87 3d 35 a9 07 bd 67 a3 c6 bb 51 cb 0b bd
       0.0660365 -0.033120353 -0.0060619595 -0.034129445
000190 0f 12 ce 3d d4 ab 01 be ab 93 04 be 11 19 b4 bc
       0.10062038 -0.12663203 -0.12946956 -0.021984609
0001a0 2b 5b 48 bc 57 8d e3 bd 74 3b 9f bd 36 ee 9d bd
       -0.012228767 -0.11110943 -0.07775012 -0.07711451
0001b0 5e fb 3a be f5 f4 c9 3d
       -0.18259951 0.09861175

dec.0.bias f4 [10]
000000 0e ef 51 bd 58 77 f6 bd c0 be 8f 3d dd 54 c5 bd
       -0.05125337 -0.12034482 0.070188046 -0.09635327
000010 a7 cd 19 bd 28 3d a1 bc 04 08 02 3e a8 60 e0 bd
       -0.03754964 -0.019682482 0.1269837 -0.10955936
000020 98 3b d7 3c a4 83 3f bc
       0.026273534 -0.0116891

dec.2.weight f4 [10, 10]
000000 7c 0e 0a 3e 36 c6 19 bd 88 60 62 3d 15 a0 80 3a
       0.13482088 -0.037542544 0.05526784 0.0009813333
000010 18 1a ce bd 90 e3 dd bc 69 1b 0a be 45 46 e0 bc
       -0.10063571 -0.02708605 -0.13487019 -0.027377257
000020 59 33 c6 bc e2 53 13 be d5 86 6c 3c 30 c9 fc bd
       -0.024194406 -0.14387468 0.014436443 -0.12343061
000030 fd 5f e3 3d 83 8a 4e bd 93 23 ba bd 8f bb 22 3e
       0.11102293 -0.050425064 -0.090888165 0.1589186
000040 6b 56 a4 bb 6a db 70 3d e5 18 67 bd d2 eb ae bd
       -0.0050151846 0.058803 -0.056420226 -0.08541073
000050 76 63 06 3e 15 3d 11 3d b3 3c 1c bd d7 8d bc bb
       0.13123879 0.035458643 -0.038143825 -0.0057542133
000060 4d 97 19 3e b5 89 7f 3d a7 97 08 be 93 2a 10 3e
       0.14999123 0.062387187 -0.13339101 0.14078741
000070 b7 d8 b9 3d 45 34 08 be 05 dc ef 3d 7f 8a 41 bd
       0.09074538 -0.13301189 0.11711887 -0.04725122
000080 22 57 23 bd 0a 14 ee 3d cb 52 9d bc 97 08 0b bc
       -0.03987802 0.11624916 -0.019204518 -0.008485935
000090 78 d2 1b 3e 0f fc 4d 3d 0b 89 eb bb 5a 62 09 3e
       0.15217006 0.05028921 -0.0071879677 0.13416424
0000a0 74 42 00 be 88 65 4c bc bc 6a 06 3d 57 96 23 3e
       -0.1252535 -0.012475379 0.032816634 0.15975319
0000b0 e3 c7 12 3d 93 7e 21 3e e0 c9 1c 3e 7a da fc 3d
       0.035835158 0.1577094 0.15311384 0.123463586
0000c0 bb 28 6e bd bb 35 4f bc 31 bc 4a bd e5 5a d0 3d
       -0.058144312 -0.012647088 -0.04949588 0.10173587
0000d0 ff 0f 31 bc 0b a7 03 be ab a0 ba 3a d7 0b a7 bd
       -0.010807036 -0.1285669 0.0014238557 -0.08156555
0000e0 7b 5e 3f 3e 77 84 75 bb 44 06 34 be 2d 75 d0 bc
       0.18688385 -0.0037462988 -0.17580515 -0.025446499
0000f0 e6 60 c9 3c 22 22 3d 3d c2 89 4f 3d e6 da b1 3d
       0.024582338 0.04617513 0.050668485 0.0868433
000100 af 94 37 bc 2c 1a 8d bd e3 d9 06 be 2b ee 55 3a
       -0.0112048825 -0.068897575 -0.13169055 0.0008160795
000110 35 aa d2 bc 47 57 24 3d a6 a3 01 3e d7 ea d5 3d
       -0.025715927 0.040122297 0.12660083 0.10445183
000120 7e ec 08 bb b3 5c cb 3c 95 00 92 3d 0f e0 17 bb
       -0.0020892913 0.024824476 0.07129017 -0.002317432
000130 33 9c 5e bd 23 b1 46 bd c7 ed 3f bd ab a0 0e 3d
       -0.054348182 -0.048508774 -0.04685762 0.034821194
000140 85 a8 82 be 82 c8 30 3e f6 ad 04 3d 5c 23 3a bd
       -0.25519195 0.17263988 0.032392465 -0.045443878
000150 83 f9 b8 bb 93 e0 bd 3d 16 34 90 bd e8 44 ca 3d
       -0.0056449785 0.0927135 -0.070411846 0.09876424
000160 21 d6 1f 3d d5 d4 89 3d fc 8f 0b 3e 1d 5c 20 3c
       0.03902257 0.067300476 0.13629144 0.0097875865
000170 3a 5d a6 3d 63 29 e3 3d 9c 59 26 3d 37 ad 9b bd
       0.0812325 0.11091878 0.040612802 -0.076013975
000180 e3 88 09 3e 29 b5 4c bd 8d ca ca 3d 30 fc 8d bd
       0.13431124 -0.049977455 0.09901915 -0.069328666

dec.2.bias f4 [10]
000000 ca 8d 82 3b 9e b3 a8 3d 9b 95 a5 3c 28 7e fc bd
       0.0039841877 0.08237384 0.020212939 -0.1232875
000010 84 e5 fd bd 6f e1 1b bd 91 76 28 3e 2a 3a bc 3c
       -0.12397292 -0.038056787 0.1645148 0.022976954
000020 a6 19 d3 bc 2f a7 31 3d
       -0.025769066 0.04337233

dec_mean.weight f4 [1, 10]
000000 d9 66 d8 bc 01 6f de bd 91 41 14 be 80 f8 ee 3d
       -0.02641623 -0.10861016 -0.14478137 0.11668491
000010 48 e2 67 be 06 bf 35 be cc 1d 31 bd 75 29 14 bd
       -0.22644913 -0.17748651 -0.043241307 -0.03617235
000020 09 37 c1 bd 1e 80 63 bc
       -0.09434325 -0.013885526

dec_std.0.weight f4 [1, 10]
000000 8b e7 21 3e c4 25 e3 bc 31 86 2c 3e e5 2a 04 3d
       0.15810983 -0.027727969 0.16848065 0.03226747
000010 5b 48 0b bd b5 fe 81 bd 82 fb 32 bc ba cd 86 3d
       -0.03400455 -0.0634741 -0.010924222 0.06582208
000020 6a 82 05 3e 2b 3f 18 3d
       0.1303803 0.037169617

rnn.weight_ih_l0 f4 [30, 2]
000000 4b e0 b8 3d c2 8e 57 3e 5e 2d 41 3e dd 9a f7 3d
       0.090271555 0.21050552 0.18864962 0.12090085
000010 cf 5d ba 3d 12 26 2b 3e 9a 1c 39 3e 19 21 19 3e
       0.09099924 0.16713741 0.18077317 0.14954032
000020 dd fd c9 3c f0 14 35 bd 39 af 56 3d 92 a8 0a 3e
       0.024657184 -0.04420942 0.0524132 0.13540867
000030 c5 1b b2 3d 36 a7 70 3d db 61 fb bd 1e d4 b2 3c
       0.08696703 0.058753215 -0.12274524 0.021829661
000040 ef 40 b0 3d 2c 1c dc bc 81 73 4f 3c 57 ca f4 bd
       0.08606135 -0.026868902 0.012661816 -0.11952656
000050 19 3d 06 be 1b 80 fd 3d eb 53 aa 3d fc 76 11 bd
       -0.13109244 0.1237795 0.08316787 -0.035513863
000060 41 98 26 be d3 bd 65 3d d2 d5 1a be a8 23 d7 3d
       -0.16269018 0.056089234 -0.15120628 0.10504848
000070 94 d7 ce bd 69 3f 12 3e bc 98 21 be 0f 06 01 3e
       -0.10099712 0.14282002 -0.1578092 0.12599967
000080 1b 03 a8 bd 6b 3e 98 3d 9b 10 0a 3b 36 13 74 bd
       -0.08203717 0.0743378 0.0021067027 -0.059588633
000090 73 8f d7 bd 7a 5d f8 3d c2 6e 2e be 9b 5d 96 3d
       -0.10525408 0.12127204 -0.17034438 0.073420726
0000a0 75 14 9c bd ab cb 26 3d 9a 5f e2 3d ad 12 1f be
       -0.07621089 0.040721577 0.11053391 -0.15534468
0000b0 4f aa a8 bd f3 be d8 3d 29 b5 6e bb 1e 3a 40 bd
       -0.08235609 0.10583296 -0.0036423898 -0.046930425
0000c0 54 01 f1 3d 34 99 7b bd b2 8d e8 bd 61 66 a4 3d
       0.117678314 -0.061425403 -0.11355151 0.0802734
0000d0 53 da 47 3c aa cd 9d 3c 83 eb 53 bd 8a f6 19 3e
       0.012198049 0.019263107 -0.051738273 0.15035453
0000e0 b3 4e 4e bd e1 b6 08 3d 89 e3 c7 bc d9 6f ad 3d
       -0.050368022 0.033377532 -0.02440049 0.08468599

rnn.weight_hh_l0 f4 [30, 10]
000000 17 59 96 bd 75 f4 4c 3d f6 09 14 be 16 2c 4c be
       -0.07341211 0.05003782 -0.14456925 -0.19938692
000010 3b fe ec 3d 41 2f 3f be ad 67 90 3e 8b 9a b2 3c
       0.11571928 -0.1867037 0.28204098 0.021802207
000020 a3 c3 72 be e8 d4 3f be 18 ed 8d 3e 62 8b 17 3d
       -0.23707442 -0.18733561 0.2771995 0.03699816
000030 35 99 08 bd bf 79 93 be c2 25 9f bd 46 26 9a bd
       -0.033349235 -0.28803822 -0.077708736 -0.07526831
000040 50 fc d3 bd 90 a3 3c 3e 01 ba 65 bd 05 98 89 be
       -0.10350859 0.18421769 -0.05608559 -0.26873794
000050 94 a5 fa bd d6 87 60 be 56 26 26 be 93 7c 71 be
       -0.12238613 -0.21926817 -0.16225561 -0.23582678
000060 33 44 6f 3e 4a d6 18 be b2 93 f8 3d 75 91 83 3d
       0.2336586 -0.14925495 0.12137546 0.06424228
000070 e2 fd ee 3b df b4 87 be 41 78 67 be c1 b1 82 be
       0.007293449 -0.2650518 -0.22604467 -0.2552624
000080 c6 48 a3 3d 9a ae 81 be 62 58 8b 3e 30 d4 cd be
       0.07972865 -0.25328523 0.27215868 -0.4020095
000090 f2 65 e5 3b 1f ec 4c 3e 61 ac 3d bd 0e d0 bb be
       0.007000678 0.20011948 -0.04630697 -0.3668217
0000a0 3e e0 82 3c 08 c1 53 3e 85 fe ec 3c 8c 67 03 bd
       0.015976068 0.20679104 0.028929958 -0.032081172
0000b0 4a 89 d7 3d 7a 2b c5 3d 6f c6 0d ba 85 de a7 bd
       0.10524233 0.09627433 -0.0005408292 -0.08196739
0000c0 f5 be 24 bb 4f 30 8e be e0 d7 24 be e5 05 5d be
       -0.0025138233 -0.27771232 -0.16097975 -0.2158428
0000d0 ff 05 59 be 71 4a 3a be ba 43 d0 3b 19 3a b1 be
       -0.21193694 -0.1819246 0.00635573 -0.34614637
0000e0 67 3d 8c 3e 0b 3c 21 3e 26 6e 82 bd 94 10 43 be
       0.27390596 0.15745561 -0.063686654 -0.19049293
0000f0 1b 31 ae bd 25 46 35 be 74 44 c6 be bd 58 af bd
       -0.0850546 -0.1770254 -0.387241 -0.08561847
000100 04 9b bb bc d8 20 99 be e1 39 19 3e 9d 6e a7 3d
       -0.022901066 -0.2990787 0.14963485 0.08175395
000110 8b 62 1e be 85 2f c8 be 9a e7 4c be 42 55 74 be
       -0.15467279 -0.39098755 -0.20010224 -0.23860648
000120 f9 4b 80 bd 8d 66 9f bd e0 87 f9 3d 4b 20 51 be
       -0.06264491 -0.07783232 0.12184119 -0.20422475
000130 12 e1 8b bd b9 5c 16 3e 4e 23 18 be 1d 45 a1 bc
       -0.06830038 0.14683808 -0.14857218 -0.019686276
000140 07 6d b3 bd e8 6a 91 3e a5 7d dd bd 92 ec ad be
       -0.0876103 0.28401875 -0.108149804 -0.3396955
000150 84 f1 35 bc 23 4f 61 bc ba dc 3b 3e 90 43 17 be
       -0.011104945 -0.013751778 0.18345919 -0.14771867
000160 cb f5 e9 bd ff b9 e9 be b9 e6 30 3d 40 06 17 3e
       -0.114238344 -0.45649716 0.043188784 0.14748478
000170 da 1e 08 be 29 a1 3a bd 87 44 00 3e df 54 81 3d
       -0.13293019 -0.04556385 0.12526141 0.06315016
000180 fc f1 b4 bb 27 ed f9 bd c2 46 76 3c 5c 6e a3 ba
       -0.005522011 -0.12203436 0.015031518 -0.0012468803
000190 50 66 a2 3e 74 72 2e 3e 75 1a 29 3f da c3 6b 3e
       0.31718683 0.17035848 0.66055995 0.2302393
0001a0 15 38 b8 bb 61 24 e5 3b 21 dc 7b be e7 dd 8a 3e
       -0.00562192 0.006992862 -0.24595691 0.27122423
0001b0 44 11 33 3e 8c e0 27 3f 72 27 4c 3e f7 23 da bd
       0.17487055 0.65577006 0.19936922 -0.10651391
0001c0 7a e3 4e 3e 45 ad 1b bd 80 5e 23 bc 35 0c b2 bd
       0.20203963 -0.03800704 -0.009971261 -0.086937346
0001d0 6c 90 8f bd fc 6f 86 3d a5 d7 36 3e a9 82 d1 3e
       -0.07009968 0.06564328 0.178557 0.40919998
0001e0 af a4 3e be 6c a2 94 3d 43 91 7d 3f 3d b4 51 3f
       -0.1861751 0.07257542 0.99049777 0.81915647
0001f0 1b 07 96 3e da d3 f2 3e 0a 10 40 3e 8d 20 b7 be
       0.29302296 0.47427255 0.18756118 -0.35767022
000200 39 b9 f0 be fb 42 2e 3f 5c b2 98 3e 84 bd 07 3e
       -0.47016314 0.68070954 0.29823577 0.13255888
000210 a5 cb 3d be d8 57 05 be 29 5a 1d bf 2d 4b 09 3e
       -0.18534715 -0.13021791 -0.614657 0.13407584
000220 ad e3 d2 be 1a 95 20 3e ff af c8 3e 5e f3 a5 3c
       -0.41189328 0.15681878 0.39196774 0.020257648
000230 f6 9a f7 3e 45 28 2a be 5e 97 cc bd f1 9a a9 bc
       0.48360413 -0.16616924 -0.099898085 -0.020703765
000240 fa b1 86 be 32 69 a7 3d 90 3c 05 bf 80 c2 09 be
       -0.2630766 0.08174361 -0.52045536 -0.13453102
000250 bd 40 aa 3d fc 7e d4 3b 16 e9 18 3f 7c c5 3f 3e
       0.08313129 0.0064848643 0.5973066 0.18727678
000260 76 48 ee 3e 65 4b 8f 3f b4 ce c2 bd b0 90 8e 3f
       0.46539658 1.1194884 -0.09512082 1.1137905
000270 75 37 b5 be 84 b5 85 bd 1c c8 f5 bd e8 33 cf 3e
       -0.35393873 -0.06528762 -0.120010585 0.4046929
000280 fa 42 44 bd a1 65 cd be ce bb 3a be 10 22 a3 be
       -0.047915436 -0.401166 -0.18235704 -0.31861925
000290 c3 a5 27 be af 73 36 be 3a c1 f6 bd b0 01 ed 3e
       -0.16371827 -0.17817567 -0.12048574 0.4629035
0002a0 7e 7c 4c bc 9c 04 91 bd ec 7e 9b 3e 20 76 d7 bb
       -0.012480853 -0.07080957 0.3037027 -0.006575361
0002b0 97 be b2 bb 84 38 30 be ca 77 fb be 90 ff 82 3e
       -0.005454849 -0.17209059 -0.4911483 0.25585604
0002c0 20 f8 ae be 7c 6d 10 3e 86 aa c0 3e 32 df 0e 3e
       -0.3417368 0.14104265 0.376301 0.1395233
0002d0 09 76 c1 bc 52 f9 22 be 27 00 ff 3e 11 48 87 3f
       -0.023615854 -0.1591542 0.49804804 1.0568868
0002e0 94 98 10 3f 05 fd 52 3f 6f 1d 04 3e 05 96 ae 3e
       0.56482816 0.8241733 0.12901853 0.3409883
0002f0 0e bd 24 bf 8a 09 c5 3e 71 63 a9 be e3 cd 1d 3d
       -0.64350975 0.3848384 -0.3308368 0.038526427
000300 31 30 c7 3e 94 77 31 3f 4d da 4e 3f a3 79 82 3e
       0.38903955 0.69323087 0.8080185 0.25483426
000310 ff 5b c1 3e 13 b9 2b bf 10 4d 0d bf 07 4e b7 3e
       0.377655 -0.67079276 -0.55195713 0.35801718
000320 a8 31 ab 3d 0c 87 42 bd f0 64 ac 3d af 33 ad be
       0.083590806 -0.047492072 0.0841769 -0.33828494
000330 b3 5b f0 3d 92 d2 84 3c 07 ff 5e 3e 77 b6 22 be
       0.1173624 0.016213689 0.21776973 -0.15889917
000340 00 4a 96 3d e0 8c 9f bd 63 02 53 bd 76 0c bf 3d
       0.07338333 -0.07790542 -0.051515948 0.093285486
000350 09 70 2c 3e 90 19 38 3c 20 25 3d 3d c0 b0 9d bd
       0.16839613 0.011236563 0.046177983 -0.07699728
000360 e0 cb ef bd 58 73 9a be df 74 06 bc c9 3f 0a 3e
       -0.11708808 -0.30166125 -0.008206575 0.13500895
000370 62 6b 0c bd 11 44 b7 be 5b de 3b 3d 83 9f 3a be
       -0.034282096 -0.35794118 0.04586635 -0.18224911
000380 4d b6 85 3d 5e 24 66 bd 0f f0 f7 3d c9 c7 f6 bc
       0.06528912 -0.056187026 0.121063344 -0.030124562
000390 2c f5 07 ba c5 b5 52 bb f6 e9 9e bd 43 66 c4 be
       -0.0005186375 -0.00321518 -0.07759468 -0.3835927
0003a0 1e d7 6a 3d 0b f5 cc 3d 19 26 1b be e4 f0 a1 bd
       0.057334058 0.10007676 -0.15151252 -0.07907274
0003b0 d4 a3 93 bd 69 61 5c 3e 7b 01 7b be 6f a9 88 3d
       -0.07208982 0.21521534 -0.24512284 0.06672942
0003c0 e6 b3 81 3e 4e 87 86 3e 41 c8 41 3d ce ad eb 3d
       0.25332564 0.26275104 0.047310118 0.1150776
0003d0 16 80 9d be 42 fa ed 3c dd 3a 21 bc ff f7 52 bd
       -0.30761784 0.029049996 -0.009840694 -0.05150604
0003e0 ec 46 26 3e f9 ab 09 be bc 10 3f bb b4 2d 37 3c
       0.16237992 -0.13444509 -0.0029154262 0.01118033
0003f0 34 5c 66 3e a1 79 57 bd f4 41 c1 3d 4a 5a 62 3c
       0.2249611 -0.05260623 0.09436408 0.013815472

rnn.bias_ih_l0 f4 [30]
000000 a4 53 0b be 58 e3 5d be fd 5c 0d 3e c1 89 e4 bd
       -0.13606125 -0.21668756 0.13805003 -0.11159087
000010 68 ab 47 3e 24 74 f4 bc 99 45 2d bd 46 45 4d be
       0.1949898 -0.029840536 -0.0423027 -0.20045957
000020 24 32 00 3e d1 e7 63 bd a9 c1 2a bf 95 13 91 be
       0.12519127 -0.055641 -0.6670175 -0.28335252
000030 2e 0e ef bd 16 f6 3c bf a5 8e 26 bf ba ee 89 be
       -0.116726264 -0.73813 -0.6506141 -0.26939946
000040 86 1b 20 bf 00 87 8b 3e f5 3e 0b be e6 71 d8 be
       -0.62542 0.27251434 -0.13598235 -0.42274398
000050 c5 1a 1f bd 54 a0 cc 3d dd f9 77 3d f0 3f 8d 3e
       -0.03884389 0.09991518 0.060541023 0.27587843
000060 53 8c 95 3e 4d 7d 0b 3d 92 ee 44 3e c9 53 66 3d
       0.2920862 0.034055043 0.19231632 0.056232248
000070 f1 29 4c bd 29 eb 65 3e
       -0.049844686 0.22452988

rnn.bias_hh_l0 f4 [30]
000000 b4 5f 5c bd 2e 45 22 be 30 5f db 3c a6 62 87 bd
       -0.053802207 -0.15846702 0.026778787 -0.066106126
000010 ef 1c 7b 3d b2 87 64 be 0a b2 d2 3d 61 ae 52 be
       0.06130689 -0.22317389 0.102878645 -0.20574333
000020 f9 e0 d3 3d fd 1d 0e be 4d a8 d1 be 6b 68 9e be
       0.103456445 -0.13878627 -0.40948716 -0.3093904
000030 55 19 85 bd 1d 06 11 bf fb 76 20 bf e8 14 94 bd
       -0.06498972 -0.56649953 -0.6268155 -0.0723055
000040 b6 08 28 bf bd ca 7d 3c 37 a1 3a bd bf c5 97 be
       -0.6563829 0.015490231 -0.045563903 -0.29643056
000050 31 1f 1d 3e 56 4a 20 be 51 5e 79 3e 4b b8 e0 3e
       0.1534393 -0.15653357 0.24352385 0.43890604
000060 b6 88 43 3e 9e 56 72 3e 69 2a c9 bd 1a c2 76 bc
       0.1909512 0.23665854 -0.09822542 -0.015060926
000070 c3 ac 24 3d e5 11 73 bd
       0.04020382 -0.059343237
