generative_ts/saves/250809_133803_VRNN/model_VRNN.pth (torch, 698786 bytes, 24 tensors)

phi_x.0.weight f4 [100, 1]
0	0xbddaefb2	-0.106902495
1	0xbf19b45b	-0.60040826
2	0xbc475080	-0.012165189
3	0x3f61ae40	0.8815651
4	0xbed17362	-0.40908343
5	0x3a3e6428	0.0007262849
6	0x3e58b368	0.21162188
7	0xbc8a8fc0	-0.016914248
8	0x3f4ef2d2	0.80839264
9	0xbea77efb	-0.32714066
10	0xbe2c7e5a	-0.16845074
11	0xbf15fc02	-0.5858766
12	0xbf1433c8	-0.5789151
13	0xbed6802d	-0.41894665
14	0xbd56a597	-0.052404013
15	0xbedc8dbb	-0.43076882
16	0xbd8156b5	-0.06315366
17	0x3f5e8604	0.8692324
18	0x3e513c86	0.20433244
19	0xbe999d2c	-0.30002725
20	0x382a8dde	4.0663283e-05
21	0xb9251614	-0.00015743851
22	0xbf4ed67b	-0.8079602
23	0x3ef075c5	0.4696485
24	0xbf1bb970	-0.6082983
25	0x3ecd9863	0.40155324
26	0x3f38bf54	0.72166944
27	0xbe8f244d	-0.27957383
28	0xbe99ba00	-0.3002472
29	0x3d86a69b	0.06574746
30	0xbf142247	-0.57864803
31	0xbed6449a	-0.41849214
32	0xbeb61701	-0.35564426
33	0x3f77c7d6	0.967893
34	0x3f2bea97	0.6715483
35	0x3b990787	0.004670087
36	0x3f20ae2e	0.6276578
37	0x3f747638	0.9549289
38	0xbf7f50e0	-0.9973278
39	0x3f3b57b1	0.7318068
40	0xbe1e9c9a	-0.15489426
41	0xbf262de2	-0.6491376
42	0x3eac3d7c	0.3364066
43	0xbb5c8c96	-0.0033653132
44	0x3eb5b083	0.3548623
45	0xbf54476a	-0.8292147
46	0x3c41ad80	0.011821151
47	0x3f36ee86	0.7145771
48	0x3e824629	0.25444153
49	0xbf13be0c	-0.57711864
50	0x3f618373	0.880912
51	0x379bef2b	1.8588811e-05
52	0xbe576317	-0.21033894
53	0xbe434ea1	-0.19072963
54	0x3ec30545	0.38089958
55	0x3f121dbd	0.57076627
56	0x3ef6f5d5	0.4823443
57	0x3d3b83a7	0.04577985
58	0xbc381826	-0.011236226
59	0x3f17827a	0.59183466
60	0x3e2c96d0	0.16854405
61	0xbf672d69	-0.90303665
62	0x3f29efcd	0.6638153
63	0xbf2bb0b5	-0.6706651
64	0x3e68738b	0.22700326
65	0xbf6efe37	-0.9335665
66	0xbf48f59b	-0.78499764
67	0x3ee16a62	0.44026476
68	0x3c297116	0.010341903
69	0x3f28c09b	0.6591889
70	0x3f642729	0.89122254
71	0x3d940aa2	0.072285905
72	0x3f3de334	0.7417481
73	0x3dbc1371	0.09183396
74	0x3d63d7ab	0.0556256
75	0x3edd7a66	0.43257445
76	0xbf1842ed	-0.5947712
77	0x3f74ebfd	0.9567259
78	0xbf225d79	-0.6342388
79	0xbdb48784	-0.0881491
80	0xbe05737e	-0.13032338
81	0xbf4c70a1	-0.7985936
82	0x3caee00a	0.021347065
83	0xbf01cb45	-0.5070079
84	0x3f461363	0.7737333
85	0xbf03a13c	-0.514179
86	0xbe032c35	-0.12809832
87	0x3f490408	0.78521776
88	0xbc7d68b8	-0.015466861
89	0x3f64a4e8	0.89314127
90	0xbdaf2e6d	-0.08553777
91	0xbea6a4f2	-0.32547718
92	0x3f7e5acf	0.9935731
93	0x3eabaf62	0.33532244
94	0xbc29995b	-0.010351504
95	0xbf2e270f	-0.6802835
96	0x3e8b54ea	0.27213222
97	0x3eec10f3	0.4610668
98	0xbf279680	-0.6546402
99	0x3ec6cb6c	0.38827074

phi_x.0.bias f4 [100]
0	0x3e5fa0b1	0.21838643
1	0xbf088bd2	-0.5333835
2	0xbf0dfa1e	-0.55459774
3	0x3f16563c	0.58725333
4	0xbed44f43	-0.41466722
5	0xbd06b37a	-0.032886006
6	0xbe052d2f	-0.13005517
7	0xbf506da2	-0.81417286
8	0xbe4ac126	-0.19800243
9	0x3f0eb62e	0.55746734
10	0xbe77734a	-0.24165073
11	0xbd6c95b2	-0.057759948
12	0x3ec853c9	0.39126423
13	0x3f28280c	0.65686107
14	0x3f4b4a5a	0.79410326
15	0xbf57de85	-0.8432391
16	0xbf0b5bbc	-0.5443685
17	0x3efce4e2	0.49393374
18	0xbe29de11	-0.16588618
19	0xbf3b4d33	-0.7316467
20	0xbc62d5f6	-0.013844958
21	0xbc9c123c	-0.019051664
22	0xbf217ae0	-0.6307812
23	0xbf16c1c9	-0.5888944
24	0xbebad798	-0.3649261
25	0x3f481a13	0.78164786
26	0xbf4a013b	-0.7890813
27	0x3e81675e	0.25274175
28	0xbf2776b6	-0.65415514
29	0x3eb1fdcf	0.34763953
30	0xbf1ce590	-0.61287785
31	0x3e94039a	0.28908998
32	0x3e39484d	0.18093987
33	0xbec5d1dc	-0.38636672
34	0x3f46380d	0.77429277
35	0xbe988f21	-0.297967
36	0x3f2888e0	0.65833855
37	0x3e97f930	0.29682302
38	0xbf034e5d	-0.5129145
39	0x3f3d1fed	0.7387684
40	0xbe1cf7b0	-0.1532886
41	0x3c70540b	0.014668475
42	0xbeee0df1	-0.4649501
43	0xbe16815c	-0.14697784
44	0xbf301c64	-0.6879332
45	0x3f1d5910	0.61464024
46	0xbf3ccc58	-0.73749304
47	0xbf5a23fa	-0.85211146
48	0xbf148e99	-0.58030087
49	0xbf1f5349	-0.6223646
50	0xbf2067e3	-0.6265852
51	0xba8db725	-0.0010812028
52	0xbebe284e	-0.37140125
53	0x3ef19496	0.47183675
54	0x3f62bd40	0.8857002
55	0xbf22406d	-0.63379556
56	0x3e2cf1a8	0.1688906
57	0x3ee87654	0.45402777
58	0x3ef98e6e	0.48741478
59	0xbec2ef89	-0.38073376
60	0x3f34d837	0.7064242
61	0x3f569712	0.83824265
62	0x3f1b140e	0.60577476
63	0x3dac866c	0.084240764
64	0x3d1d8229	0.03845421
65	0x3e825d66	0.25461882
66	0x3f5e7055	0.86890155
67	0x3f381be0	0.71917534
68	0x3e023e56	0.12719092
69	0xbec543b2	-0.3852821
70	0x3f55c1ed	0.8349903
71	0x3cb702e4	0.022340246
72	0x3eb569e4	0.3543235
73	0xbdbe4f8b	-0.09292515
74	0xbf53c877	-0.8272776
75	0x3e4aede2	0.19817308
76	0xbee51008	-0.44738793
77	0x3f3f5fab	0.7475535
78	0xbf6d55d5	-0.92709094
79	0xbe868c01	-0.2627869
80	0xbe8cd9b9	-0.2750986
81	0xbf49c28f	-0.788125
82	0xbeafef92	-0.34362465
83	0xbed7bb59	-0.42135122
84	0xbf58be91	-0.8466578
85	0xbf0c5102	-0.5481111
86	0xbcea14fd	-0.028574461
87	0x3f08daab	0.5345866
88	0x3f21a1a8	0.6313729
89	0x3e5591c5	0.20856388
90	0xbf03947d	-0.5139845
91	0x3eb81731	0.35955194
92	0xbf674765	-0.90343314
93	0x3ebb2c1d	0.36557093
94	0xbed38c25	-0.4131786
95	0x3e78b25f	0.24286793
96	0xbf61e837	-0.88244957
97	0xbd831d5c	-0.06402084
98	0x3e0b2070	0.13586593
99	0x3f31e36a	0.6948763

phi_x.2.weight f4 [100, 100]
0	0x3ce4251a	0.027849723
1	0x3d714ef3	0.058913182
2	0x3dc77ebf	0.09740972
3	0x3cddb2d2	0.027062807
4	0xbc695407	-0.014241225
5	0x3dcbf1f4	0.09958258
6	0xbda270a3	-0.0793164
7	0xbda2cf45	-0.0794969
8	0x3da37a2c	0.07982287
9	0x3cf1195d	0.02943104
10	0x3daa55dd	0.08317158
11	0x3d7ef064	0.062240973
12	0xbd73067e	-0.059332363
13	0xbc193083	-0.009349945
14	0xbc09a083	-0.008400085
15	0xbd0d633b	-0.03451846
16	0xbd8c40f1	-0.06848324
17	0x3d886609	0.06660087
18	0x3c8a6f0f	0.01689866
19	0xbd723bc2	-0.05913902
20	0x3d9e9cb5	0.07744733
21	0xbdc5d33c	-0.096594304
22	0x3c2156bb	0.009847338
23	0x3dabb3b8	0.08383888
24	0xbca3f3f8	-0.020013794
25	0x3d0283de	0.03186404
26	0x3ce808dd	0.028324539
27	0xbe20eef5	-0.15716155
28	0xbca454bf	-0.020059941
29	0x3c46cc76	0.012133708
30	0xbda92ff9	-0.08261103
31	0x3ad95e67	0.001658392
32	0xbcd3205d	-0.025772268
33	0x3db1476b	0.086562
34	0x3d8169a9	0.06318981
35	0xbd835934	-0.064134985
36	0x3daa1f45	0.083067454
37	0xbd7ea4b1	-0.06216878
38	0xbd922398	-0.07135695
39	0x3d199e95	0.03750475
40	0xbd2f22ac	-0.042757675
41	0x3d9618a3	0.07328918
42	0x3dac9b2f	0.084280364
43	0xbd2f9d6e	-0.042874746
44	0xbd1447fd	-0.036201466
45	0xbd94805a	-0.072510436
46	0x3cbc1c6d	0.022962773
47	0x3cd61f0c	0.026137851
48	0x3bb9cebe	0.0056703975
49	0x3dbf34f8	0.09336275
50	0x3cd1ea4d	0.025624419
51	0x3cdceabf	0.026967404
52	0x3d02b8f8	0.03191468
53	0xbd8dd41f	-0.069252245
54	0xbd697a73	-0.057001542
55	0xbd131325	-0.03590693
56	0xbd23a3df	-0.0399512
57	0xbda099c2	-0.07841827
58	0x3d91ef49	0.07125718
59	0xbc01494f	-0.007891013
60	0xbd4b3190	-0.049607813
61	0xbafd9e85	-0.0019349611
62	0xbde21e9c	-0.110409945
63	0xbde42ed1	-0.11141742
64	0xbdebc217	-0.11511629
65	0xbcaba0d5	-0.020950714
66	0xbcb6c67a	-0.022311438
67	0x3da7969a	0.08183022
68	0xbd6df220	-0.058092237
69	0xbdaa48b7	-0.083146505
70	0xbdd222c8	-0.1026054
71	0x3d054552	0.032536812
72	0xbd23db39	-0.04000399
73	0xbdaa7311	-0.083227284
74	0xbdaa7bd9	-0.08324403
75	0x3ca01988	0.019543424
76	0x3c19e755	0.009393533
77	0x3c81193d	0.015759105
78	0x3dacc6b8	0.0843634
79	0x3c1bcd1b	0.00950935
80	0xbdb3a3f6	-0.087715074
81	0xbda2e5da	-0.07953997
82	0xbd14ded4	-0.036345318
83	0xbd5c696a	-0.05381147
84	0xbda87773	-0.08225908
85	0x3d975716	0.07389657
86	0xbda785d3	-0.08179822
87	0xbd80f05c	-0.06295845
88	0x3d19229c	0.03738652
89	0xbd4e5637	-0.05037519
90	0xbd180e53	-0.037123036
91	0xbe3c21ab	-0.18372218
92	0x3dabca7a	0.08388229
93	0xbd996b79	-0.07491202
94	0xbc70787b	-0.014677162
95	0xbdb5510d	-0.0885335
96	0x3d9e3100	0.0772419
97	0xbd94d9c8	-0.07268101
98	0x3d52e282	0.051485546
99	0x3d040fa7	0.03224149
100	0xbdba898a	-0.09108265
101	0x3d6ea303	0.05826093
102	0x3dab1b9d	0.08354876
103	0xbdd5d220	-0.10440469
104	0xbd8023cf	-0.0625683
105	0xbdf406bf	-0.11915349
106	0x3da4482b	0.080215774
107	0x3cde511a	0.027138282
108	0x3c81d81c	0.01585012
109	0x3ccf8549	0.02533211
110	0xbda65e5c	-0.08123466
111	0x3d635ce3	0.055508506
112	0xbd9ea63e	-0.07746552
113	0xbdd926b0	-0.10603082
114	0x3d902e30	0.070400596
115	0x3d6e30fe	0.05815219
116	0xbe03e2ee	-0.12879536
117	0xbd13d1c6	-0.036088727
118	0xbd74fdcd	-0.059812356
119	0xbcc5795b	-0.024105718
120	0xbd551408	-0.052021056
121	0x3d0d3a67	0.034479525
122	0xbc9bf354	-0.019036926
123	0xbd7a8704	-0.061163917
124	0x3d7dd036	0.061966144
125	0xbde5afb0	-0.1121515
126	0x3bbb18b1	0.0057097306
127	0xbd3484e6	-0.044072054
128	0x3b7146da	0.0036815912
129	0xbda7258f	-0.081614606
130	0xbda99532	-0.0828041
131	0x3d3742af	0.04474133
132	0xbdba9cb4	-0.0911192
133	0xbdd832c4	-0.10556558
134	0x3d8f86fc	0.07008168
135	0xbdbca8bd	-0.09211872
136	0x3c6b91dd	0.014378038
137	0xbd17ed0f	-0.03709131
138	0xbd8066cf	-0.06269609
139	0xbd68d517	-0.056843843
140	0xbd53260c	-0.051549956
141	0x3ccb6e3e	0.024832841
142	0xbdc33983	-0.09532454
143	0x3dc59a65	0.09648589
144	0x3c689853	0.014196473
145	0x3d12e63c	0.0358641
146	0xbdaa7cf5	-0.08324615
147	0xbddcd8cb	-0.107835375
148	0xbdb5502e	-0.08853184
149	0x3ab81cda	0.0014046684
150	0x3d9f60db	0.077821456
151	0xbd22707f	-0.039658066
152	0x3d098221	0.033571366
153	0x3c918ebd	0.017768258
154	0x3c7722dd	0.015083996
155	0x3c1e1cbe	0.009650407
156	0x3c81b566	0.015833568
157	0xbd9450c0	-0.07241964
158	0xbc3532cf	-0.011059477
159	0x3ce65dfc	0.028120987
160	0xb9aa6f72	-0.0003250796
161	0x3b15a1f9	0.002283214
162	0x3ca5bb3b	0.02023088
163	0x3d839392	0.06424631
164	0xbc947352	-0.018121395
165	0x3d38662f	0.045019325
166	0x3cab6c24	0.020925589
167	0xbaa8cfc4	-0.0012879302
168	0x3cf2bfb5	0.029632429
169	0xbc7e34d0	-0.015515521
170	0x3d82b12b	0.06381448
171	0xbc37c742	-0.01121694
172	0x3d583c4b	0.052791875
173	0xbce4aefd	-0.027915472
174	0x3da14298	0.0787403
175	0xbd4932f7	-0.04912087
176	0xbcc7a49f	-0.02437049
177	0x3d874b97	0.066062145
178	0x3d6d38c6	0.05791547
179	0x3d0367a5	0.032081265
180	0xbc886fef	-0.016654937
181	0x3d58b278	0.052904576
182	0xbdc0284b	-0.09382685
183	0xbdbecc45	-0.09316305
184	0xbd980615	-0.07423035
185	0xbdb3a99d	-0.087725855
186	0xbccbb7a6	-0.024867844
187	0x3bd8f59b	0.0066210753
188	0xbd57c0c7	-0.05267408
189	0xbddc7b8e	-0.10765754
190	0x3c942d9f	0.01808816
191	0x3d93aaab	0.07210287
192	0x3d293bf5	0.041316945
193	0x3d879490	0.06620133
194	0xbe00c958	-0.12576807
195	0xbceef05a	-0.029167343
196	0x3d1d4826	0.038398884
197	0x3d826c61	0.06368328
198	0xbaf46096	-0.0018644508
199	0x3d31c352	0.043399163
200	0xbe5aeced	-0.21379443
201	0xbd700b00	-0.05860424
202	0xbd395fba	-0.045257308
203	0x3d2d4d94	0.042310312
204	0x3d476b7b	0.048686486
205	0xbd7591f1	-0.059953634
206	0xbb8d7b13	-0.00431765
207	0xbdc4a9fb	-0.09602734
208	0xbb21963f	-0.0024656204
209	0xbdb4edf5	-0.08834449
210	0x3d2847c0	0.04108405
211	0x3d3214d4	0.043476894
212	0x3d8e3201	0.06943131
213	0xbe28a9db	-0.16471045
214	0xbd5534e0	-0.05205238
215	0xbd0e0d8b	-0.034680884
216	0xbd3f208c	-0.0466619
217	0x3c6c41ca	0.014419982
218	0x3d24e0d9	0.040253494
219	0xbcac6f88	-0.021049276
220	0x3d6fd633	0.058553886
221	0x3c7233f7	0.014782897
222	0xbd803b69	-0.062613316
223	0xbcde26f3	-0.027118182
224	0x3d57bc95	0.05267008
225	0x3ceaa222	0.028641764
226	0x3dc39441	0.095497616
227	0xbe107cee	-0.14110157
228	0xbd844e81	-0.06460286
229	0xbd252161	-0.040315036
230	0xbda4c43f	-0.080452435
231	0x3cf02b6c	0.02931758
232	0xbd3aae9b	-0.045576673
233	0xbd477ccc	-0.048703
234	0x3d2b2c9f	0.0417906
235	0x3d2cd123	0.042191636
236	0xbcf306b9	-0.029666292
237	0x3da7f48b	0.0820094
238	0x3c95edcc	0.018301867
239	0x3d212602	0.039342888
240	0x3cb174ee	0.021662202
241	0xbe0383fd	-0.12843318
242	0x3e0029ed	0.12515993
243	0xbc840b63	-0.01611871
244	0xbd4ce757	-0.05002531
245	0xba90e6ae	-0.0011055076
246	0x3d04e107	0.032441165
247	0x3c210949	0.009828874
248	0x3c19ce47	0.009387559
249	0x3d185e48	0.03719929
250	0x3d80d2dc	0.06290218
251	0x3d2fb2e7	0.042895224
252	0x3b44b489	0.0030014834
253	0xbd781d2b	-0.06057469
254	0x3d0cb72f	0.034354385
255	0x3d36156b	0.04445402

phi_x.2.bias f4 [100]
0	0xbdb299d6	-0.08720748
1	0xbcf0b319	-0.029382275
2	0xbc8f3e10	-0.017485648
3	0xbdebcbba	-0.11513467
4	0x3d55fd0a	0.05224327
5	0xbd464384	-0.04840423
6	0xbd169900	-0.036767006
7	0xbcae2433	-0.021257496
8	0xbdf23b84	-0.11827758
9	0xbc6a99e7	-0.01431892
10	0xbdbca357	-0.09210842
11	0xbd15852a	-0.03650395
12	0x3cac4479	0.021028744
13	0x3d150c6e	0.036388807
14	0x3d1c29e5	0.03812589
15	0xbe11d987	-0.14243136
16	0x3d2b6838	0.041847438
17	0x3d78144a	0.060566224
18	0xbd5f7fae	-0.054565124
19	0x3d319471	0.043354455
20	0xbdd933b8	-0.10605568
21	0x3d42175e	0.047385566
22	0xbd12e3fd	-0.035861958
23	0xbc79c2cc	-0.015244197
24	0x3d773b05	0.06035902
25	0x3d4d884c	0.05017881
26	0x3cccd460	0.025003612
27	0xbcf729e4	-0.030171342
28	0xbb3a5080	-0.002842933
29	0xbdb4551e	-0.08805297
30	0xbd818320	-0.06323838
31	0x3d851d86	0.06499772
32	0x3daa7940	0.08323908
33	0x3d729ff1	0.059234563
34	0xbd4772fd	-0.048693646
35	0xbcceb0ef	-0.025230853
36	0xbdb8f87a	-0.09031768
37	0x3cc13e14	0.023589171
38	0x3bb2f643	0.0054614856
39	0xbde4b8b7	-0.11168044
40	0xbd5f6707	-0.054541614
41	0x3d76a806	0.060218833
42	0xbcd2725b	-0.025689295
43	0xbdfc6751	-0.123243935
44	0xbbe7c459	-0.007072967
45	0xbd84db16	-0.064871
46	0xbdc0ffb3	-0.09423771
47	0xbd19c110	-0.037537634
48	0xbcb59b2e	-0.022168722
49	0xbdc9d3e2	-0.098548666
50	0x3c9b89dc	0.018986635
51	0x3cb60b6d	0.022222245
52	0xbdce79d2	-0.10081829
53	0x3d63dc0c	0.055629775
54	0xbd352f60	-0.044234633
55	0x3d4fc3b2	0.05072374
56	0xbdbcf88f	-0.09227096
57	0xbba93c41	-0.0051646535
58	0xbd6c3f3f	-0.057677504
59	0x3d053d38	0.032529086
60	0xbdaacdf1	-0.083400615
61	0xbc35a124	-0.011085782
62	0xbc06bf6b	-0.008224349
63	0x3d7b3ee2	0.061339267
64	0xbd2a8660	-0.041632056
65	0xbce6817c	-0.028137915
66	0xbdd5e93d	-0.10444877
67	0x3d6d82eb	0.05798618
68	0xbd307a50	-0.043085396
69	0xbe0f0dca	-0.13970104
70	0xbd9bda61	-0.07610012
71	0x3b3b0d97	0.0028542036
72	0x3dba5507	0.09098249
73	0xbd18f789	-0.037345443
74	0xbd28964f	-0.04115897
75	0xbd97dac8	-0.07414776
76	0xbdb42929	-0.08796913
77	0x3b57c3dd	0.003292314
78	0x3db07a13	0.08617034
79	0x3d052103	0.032502186
80	0xbc9c624d	-0.019089842
81	0xbc17e23f	-0.00927025
82	0x3da6c503	0.08143046
83	0x3a8e4a86	0.001085595
84	0xbdc0bec0	-0.09411383
85	0x3c955270	0.018227786
86	0xbd72dbba	-0.05929158
87	0x3d450f61	0.04811037
88	0xbbddcd33	-0.0067688464
89	0x3c078afb	0.008272882
90	0x3d435633	0.047689628
91	0x3d0293f3	0.031879377
92	0x3da73241	0.08163882
93	0xbdafd8cd	-0.08586273
94	0x3d8f698f	0.070025556
95	0x3c7dcca5	0.015490686
96	0x3d069743	0.0328591
97	0xbcd9f7d4	-0.026607431
98	0xbd945be6	-0.07244091
99	0xbdfe884d	-0.12428341

phi_z.0.weight f4 [100, 1]
0	0xbea807da	-0.3281849
1	0x3efb0040	0.49023628
2	0x3f055146	0.5207714
3	0xbe9393b1	-0.28823617
4	0x3f7059b5	0.9388688
5	0xbea5fc25	-0.32418934
6	0x3f4bd251	0.7961779
7	0xbe7cc36c	-0.24683923
8	0xbdaec823	-0.08534267
9	0xbd5848e4	-0.05280389
10	0x3f6aaccc	0.9166992
11	0x3e311233	0.17292099
12	0xbd2027df	-0.039100524
13	0x3d091449	0.03346661
14	0x3f4a8a61	0.791174
15	0x3f365068	0.7121644
16	0xbdb8a817	-0.090164356
17	0xbdb8df73	-0.090269946
18	0xbf45cdeb	-0.7726733
19	0xbf0ea381	-0.5571824
20	0xbf14ffe4	-0.5820296
21	0x3f06fddb	0.527311
22	0x3de9e381	0.11420346
23	0x3f314670	0.69248104
24	0xbf81f6ff	-1.0153502
25	0x3ee5369f	0.44768235
26	0x3f7480ab	0.9550883
27	0x3ee53525	0.4476711
28	0x3f39a453	0.72516364
29	0x3eee71a7	0.46571085
30	0x3f3e9f61	0.7446194
31	0xbee15c9b	-0.44015965
32	0xbeb6f71a	-0.357354
33	0x3f5ad74b	0.8548476
34	0x3f862e28	1.0482836
35	0x3f1658c4	0.58729196
36	0x3e387f10	0.1801722
37	0x3f3551a8	0.7082772
38	0xbf7d0d66	-0.9884857
39	0x3f01f581	0.50765234
40	0x3f690c15	0.9103406
41	0x3f6c38cc	0.92274165
42	0x3f81059b	1.0079836
43	0xbf050440	-0.5195961
44	0x3d18c98e	0.037301593
45	0x3f2df806	0.6795658
46	0x3d35da46	0.044397615
47	0xbe897baa	-0.2685216
48	0x3de5d32b	0.11221918
49	0xbe0f9349	-0.14021029
50	0x3f53a771	0.8267737
51	0x3f522487	0.82086986
52	0xbe075f64	-0.13219982
53	0xbe80f0d1	-0.25183728
54	0x3f5ad4cf	0.8548097
55	0x3f210fed	0.62914926
56	0x3f35189c	0.70740676
57	0x3f15bb14	0.58488584
58	0xbf3d2742	-0.7388803
59	0x3eee28fe	0.4651565
60	0xbf779ccf	-0.96723646
61	0xbebce9dd	-0.36897174
62	0x378e7744	1.6983257e-05
63	0xbb847896	-0.0040426953
64	0x3f0a8e30	0.5412321
65	0x3f8125cf	1.0089663
66	0xbef1fecb	-0.47264704
67	0x3dc214e0	0.09476638
68	0x3eb5007d	0.35351935
69	0x3e5cee15	0.21575196
70	0xbf54c4cc	-0.8311279
71	0xbccb1f5a	-0.024795223
72	0x3f0dfb4b	0.5546157
73	0xbe6cc81e	-0.23123214
74	0x3f2b3242	0.6687356
75	0xbf15e58b	-0.5855338
76	0xbf590b3d	-0.84782773
77	0x3ef1a201	0.47193912
78	0xbca6b8d5	-0.020351807
79	0x3f2776cd	0.6541565
80	0x3e63abbb	0.22233479
81	0x3e85c3c7	0.2612593
82	0xbd8afc98	-0.0678646
83	0xbf5e4f41	-0.8683968
84	0x3dec63ad	0.11542449
85	0x3f2ee98f	0.6832513
86	0x3f2f32c7	0.68436855
87	0xbf25c90d	-0.64759904
88	0xbf8758c2	-1.0573962
89	0x3ea3eb0b	0.3201526
90	0xbe889316	-0.26674718
91	0xbf230034	-0.63672185
92	0xbf0f220d	-0.5591133
93	0xbf7bbb17	-0.9833235
94	0x3c3660a1	0.011131437
95	0xbf50ecf9	-0.8161159
96	0x3f2c220e	0.67239463
97	0xbf4e6bfb	-0.80633515
98	0xbf4fdca8	-0.8119607
99	0x3ecd98f8	0.40155768

phi_z.0.bias f4 [100]
0	0xbdee8f84	-0.11648467
1	0xbf878600	-1.0587769
2	0x3f1905b8	0.5977435
3	0xbf12760f	-0.57211393
4	0x3ed42d7d	0.41440955
5	0x3f227af4	0.6346886
6	0xbe9c07f8	-0.3047483
7	0xbf540631	-0.8282195
8	0xbf41f495	-0.7576383
9	0x3e91b90c	0.28461492
10	0xbd873a27	-0.066028886
11	0x3f2a388d	0.6649254
12	0xbdb8e42d	-0.09027896
13	0x3f752a35	0.9576753
14	0xbf283eac	-0.6572063
15	0xbf44bbad	-0.7684887
16	0x3f17f417	0.59356827
17	0x3e98438e	0.2973904
18	0xbf386355	-0.7202657
19	0x3e5d9aeb	0.21641128
20	0xbe571488	-0.21003926
21	0xbea51665	-0.32243648
22	0x3d6b403b	0.0574343
23	0xbf739ef0	-0.95164394
24	0xbf15f8f1	-0.5858298
25	0x3e87eb34	0.26546633
26	0x3c0139a8	0.0078872815
27	0x3ce0b369	0.0274293
28	0x3f17801f	0.5917987
29	0xbf1f67f9	-0.62268025
30	0xbecf915c	-0.40540588
31	0xbd6bb1c4	-0.057542577
32	0xbd4d258f	-0.050084647
33	0xbee83873	-0.45355567
34	0xbcaede8b	-0.021346351
35	0x3f34a79d	0.7056826
36	0xbf2f851e	-0.68562496
37	0x3f1f1643	0.62143344
38	0xbd1f786e	-0.03893321
39	0x3f39163c	0.7229955
40	0x3f006f75	0.5017007
41	0xbf2d3496	-0.67658365
42	0x3f5e64cc	0.86872554
43	0xbf606bfb	-0.87664765
44	0x3f4591c3	0.7717554
45	0xbe179b04	-0.14805228
46	0x3e254f48	0.16143525
47	0x3f08a112	0.53370774
48	0x3f50450a	0.81355345
49	0xbf7d20a9	-0.9887796
50	0xbf115df8	-0.5678401
51	0xbee3e27e	-0.44508737
52	0xbf5c0d4b	-0.85957783
53	0xbf70fb1c	-0.9413316
54	0xbf60a3df	-0.8775005
55	0x3f34de73	0.7065193
56	0xbdae0680	-0.084973335
57	0x3eb3bf54	0.3510691
58	0xbf68d35d	-0.90947515
59	0x3f603f71	0.87596804
60	0xbf380fa8	-0.7189889
61	0xbf533032	-0.82495415
62	0xba96cd03	-0.001150519
63	0xbe59db30	-0.2127502
64	0xbf16dc94	-0.58930326
65	0x3e98bdc6	0.29832286
66	0xbf56098b	-0.8360831
67	0xbf26051c	-0.64851546
68	0x3e9c199e	0.30488294
69	0xbf451008	-0.76977587
70	0x3ecf9f17	0.40551063
71	0x3f5df79d	0.8670595
72	0xbf6a5913	-0.91542166
73	0x3f20a4e6	0.62751615
74	0xbd9f16ea	-0.077680424
75	0x3e817458	0.25284076
76	0xbf1f3490	-0.6218958
77	0xbf129ece	-0.57273567
78	0x3f6302f0	0.8867636
79	0xbf81324e	-1.0093477
80	0xbecf5752	-0.40496308
81	0xbe827499	-0.25479582
82	0xbef78f14	-0.48351347
83	0x3e1118e5	0.14169653
84	0xbf0b760b	-0.54476994
85	0xbf89b0a7	-1.0757035
86	0xbed7c639	-0.4214342
87	0x3f43864a	0.76376784
88	0xbf3ee4bf	-0.7456779
89	0xbe1b47d3	-0.15164118
90	0x3f6de98f	0.9293451
91	0x3eb68ddf	0.35655114
92	0xbf91390d	-1.1345536
93	0x3eb758dd	0.35809985
94	0xbf05f677	-0.523292
95	0x3ebc2f13	0.36754665
96	0x3d7eafc2	0.062179334
97	0x3eda953b	0.4269198
98	0x3c9ddbe6	0.019269895
99	0xbeb24413	-0.34817562

enc.0.weight f4 [100, 200]
0	0xbd8429ff	-0.064533226
1	0xbd6942d7	-0.05694851
2	0xbd1b379f	-0.03789484
3	0x3d487366	0.048938178
4	0xbcc67cd6	-0.024229448
5	0xbda5b7eb	-0.0809172
6	0xbd214368	-0.039370924
7	0x3bae73aa	0.005323847
8	0xbd4175ee	-0.047231607
9	0x3d2ee1ba	0.04269574
10	0x3c451316	0.012028476
11	0xbba5b5d0	-0.005057074
12	0xbd046f9b	-0.032332998
13	0xbd8802ae	-0.06641136
14	0x3d6f42f9	0.05841348
15	0xbcde70cb	-0.027153393
16	0x3cdfe998	0.027333066
17	0xbb9818bc	-0.0046416204
18	0x3d3225e6	0.043493174
19	0x3d4cd5b0	0.050008476
20	0x3d8458f4	0.06462279
21	0x3cbd697b	0.023121586
22	0xbd2a1303	-0.041522037
23	0xbd052da5	-0.032514233
24	0xbd354e68	-0.044264227
25	0xba2d027f	-0.0006599798
26	0x3c85f68f	0.01635292
27	0xbce0eacb	-0.027455708
28	0xbc889977	-0.01667474
29	0x3ceba938	0.028767213
30	0x3c9102af	0.017701475
31	0xbcf792b5	-0.030221323
32	0x3d176b56	0.036967598
33	0x3ca582f1	0.02020404
34	0x3d81d3fe	0.063392624
35	0x3d88ad94	0.066737324
36	0xbb28f76d	-0.0025782243
37	0xbd981d50	-0.07427466
38	0xbd44b8f4	-0.048027948
39	0xbcae1be3	-0.021253532
40	0x3d39e028	0.045379788
41	0x3d0dcd3e	0.034619562
42	0xbd01a35a	-0.031649925
43	0x3c8e261d	0.017352158
44	0x3c2e65f7	0.0106444275
45	0x3a38d702	0.00070510816
46	0x3c0b7ffa	0.008514399
47	0xbc9b1ccf	-0.018934635
48	0xba73a20e	-0.00092938624
49	0xbc0fc55a	-0.00877508
50	0xbd0f4ddb	-0.034986358
51	0xbd0e4cf5	-0.03474136
52	0xbd80e17f	-0.0629301
53	0x3b2cbf60	0.0026359186
54	0xbd8b2ed4	-0.06796041
55	0xbc1cd413	-0.009572047
56	0x3ce71bfc	0.028211586
57	0xbcc0c48b	-0.023531219
58	0x3d58d0ba	0.052933432
59	0xbd111713	-0.035422396
60	0x3c1be576	0.009515157
61	0x3b4ce0e7	0.0031261982
62	0x3d44f083	0.048080932
63	0xbd84e05c	-0.06488106
64	0xbd731d19	-0.05935392
65	0x3d964a4e	0.07338391
66	0x3ad367b2	0.0016128926
67	0xbd54818d	-0.05188136
68	0xbcafcaa0	-0.021458924
69	0xbd950f8b	-0.07278355
70	0xbd234bff	-0.039867397
71	0x3d7133a4	0.05888714
72	0x3bac59ed	0.0052597434
73	0xbda05f66	-0.07830696
74	0xbd41183d	-0.047142256
75	0xbd23e2ae	-0.0400111
76	0x3d1de143	0.038544904
77	0x3d1484b9	0.036259387
78	0xbcb8c364	-0.022554107
79	0x3cb4724b	0.022027155
80	0xbd838ee9	-0.06423742
81	0xbd95fb08	-0.07323271
82	0x3c8c09a9	0.01709445
83	0xbd93714d	-0.07199345
84	0x3c824171	0.015900346
85	0x3cd1a0f9	0.025589453
86	0x3d4bc669	0.049749766
87	0x3d8f7921	0.070055254
88	0xbd6656f7	-0.05623528
89	0xbd0aca23	-0.03388418
90	0xbd80ceae	-0.06289421
91	0x3b6a7df9	0.0035780652
92	0x3d6592e0	0.056048274
93	0xbd3d4d4a	-0.046216287
94	0xbd2ea93d	-0.042641867
95	0xbd559795	-0.052146513
96	0xbd698d0e	-0.057019286
97	0xbd043c95	-0.032284338
98	0x3d0e42b9	0.0347316
99	0x3d3abd2e	0.045590572
100	0xbcaa5566	-0.020792674
101	0xbb92b656	-0.0044773025
102	0xbcbbeeb0	-0.022940964
103	0x3ca374c1	0.019953134
104	0x3ce8c32f	0.028413383
105	0xbc87d35d	-0.016580278
106	0xbd5fd34f	-0.05464488
107	0xbd9273a4	-0.07150963
108	0xbd129533	-0.03578682
109	0xbd3e18f8	-0.04641053
110	0xbd0552cf	-0.032549676
111	0x3c53e474	0.012932885
112	0xbd0f787d	-0.035027016
113	0xbc7fa16b	-0.01560245
114	0xbc741e91	-0.014899866
115	0xbd651e23	-0.055936944
116	0xbcb5f529	-0.022211628
117	0x3c9ac755	0.018893877
118	0x3abfe43f	0.0014640166
119	0x3d61f02b	0.055160683
120	0xbb15cbe2	-0.002285712
121	0x3d0d4dbd	0.034497965
122	0x3cbc0903	0.022953516
123	0xbd2ae7ea	-0.041725077
124	0xba37bd1d	-0.0007009076
125	0x3ce3dd18	0.027815387
126	0xbd544c10	-0.05183035
127	0xbca46e29	-0.02007206
128	0x3d6b20da	0.057404377
129	0xbd82d9b5	-0.063891806
130	0xbd362265	-0.044466395
131	0xbcb42641	-0.021990897
132	0xbc7b52e9	-0.015339592
133	0x3d983e90	0.07433808
134	0x3d4b226e	0.04959338
135	0xbd328657	-0.043585148
136	0xbd35154e	-0.04420977
137	0xbd45c4f9	-0.04828355
138	0xbce85a48	-0.028363362
139	0xbc492a22	-0.012278112
140	0xbab9a034	-0.0014162124
141	0x3d6bda11	0.05758101
142	0x3d0db4ba	0.034596182
143	0x3d5120dd	0.05105673
144	0x3d8bc67d	0.06824968
145	0x3d7aa52a	0.06119267
146	0x3d632843	0.05545832
147	0xbcd3e1cd	-0.025864506
148	0x3c52bffd	0.012863156
149	0xbc266768	-0.01015649
150	0x3ca7738e	0.020440843
151	0xbcad7457	-0.02117364
152	0xbca592e9	-0.020211654
153	0x3d04a7ba	0.03238652
154	0xbd0f0e39	-0.034925673
155	0xbd94bf06	-0.07262997
156	0x3d684b69	0.05671254
157	0xbd0b5663	-0.03401793
158	0x3c5025bd	0.01270431
159	0xbd806acf	-0.06270372
160	0xbdaa2da1	-0.08309484
161	0x3ccf0c10	0.025274307
162	0xbd76372b	-0.060111206
163	0xbd25802d	-0.04040544
164	0x3d54c254	0.05194314
165	0xbcaf6767	-0.02141161
166	0xbd2feee6	-0.04295244
167	0x3ce9a911	0.028523
168	0x3a4fbdf0	0.0007924726
169	0xbd0516ea	-0.032492556
170	0x39cb2f39	0.0003875436
171	0xbd62cefe	-0.055373184
172	0xbd64fc7b	-0.055904847
173	0x3ce73393	0.028222835
174	0x3ce50ab3	0.027959203
175	0x3c770af2	0.015078293
176	0xbd6748cf	-0.05646592
177	0xbd696eac	-0.05699031
178	0x3b97e578	0.004635509
179	0x3d8aa688	0.067700446
180	0x3c18e6d7	0.00933238
181	0x3d766180	0.060151577
182	0x3d2a6571	0.04160065
183	0xbd8a8551	-0.06763709
184	0xbbf40a99	-0.0074475524
185	0xbd7e24ea	-0.062046923
186	0xbc95b8af	-0.01827654
187	0x3d5cb757	0.053885784
188	0x3d0025d0	0.03128606
189	0x3d024baf	0.03181046
190	0x3c3ef6b9	0.011655503
191	0x3d1fdf26	0.03903117
192	0xbd4eca7c	-0.050486073
193	0xbd26e525	-0.040745873
194	0x3d75c711	0.060004298
195	0x3d4b5e55	0.04965051
196	0x394a5553	0.00019296007
197	0x3d5a2f8d	0.053268004
198	0x3b70b380	0.0036728084
199	0xbd62e02f	-0.05538958
200	0xbd8e157e	-0.06937693
201	0xbce318ad	-0.027721727
202	0xbddc54f8	-0.10758394
203	0xbca2f1ff	-0.019890783
204	0x3c782776	0.015146127
205	0x3dc26dee	0.09493624
206	0xbcfae29e	-0.030625638
207	0x3d34835b	0.044070583
208	0x3d1df77a	0.03856609
209	0xbd8963c2	-0.067084804
210	0x3cde53fe	0.02713966
211	0x3d854f75	0.06509296
212	0x3d9efc94	0.07763019
213	0x3d7efa46	0.062250398
214	0xbd4d31e3	-0.050096404
215	0xbd6ad3ac	-0.057330772
216	0xbc83d818	-0.016094252
217	0xbd2b47a8	-0.041816384
218	0xbd6987e0	-0.057014346
219	0xbd276016	-0.04086312
220	0xbd63e837	-0.05564138
221	0x3c92f214	0.017937697
222	0x3d45aa10	0.048257887
223	0xbdad2a79	-0.08455367
224	0xbd644bba	-0.05573628
225	0xbd579ac5	-0.052637834
226	0xbd6f6906	-0.058449768
227	0x3d244ed4	0.04011424
228	0x3d59592f	0.053063568
229	0xbd355aa6	-0.044275902
230	0xbd82ec63	-0.063927434
231	0xbd69a096	-0.057037912
232	0xbe009042	-0.1255503
233	0x3d9863a6	0.074408814
234	0x3d87ecff	0.06637
235	0xbdecbbee	-0.11559282
236	0xbc2be996	-0.010492703
237	0x3cd95502	0.026529793
238	0xbddcbfcc	-0.1077877
239	0xbd316ffd	-0.04331969
240	0x3d95aefd	0.07308767
241	0xbe092307	-0.13392268
242	0xbd9f04c9	-0.077645846
243	0xbd264c54	-0.040600136
244	0x3d8dee71	0.06930245
245	0x3d57a722	0.052649625
246	0x3c8779ec	0.016537629
247	0xbe223459	-0.15840282
248	0xbe07f4b5	-0.13276942
249	0x3c30a8e7	0.010782457
250	0x3a427c98	0.00074190786
251	0xbd21d78b	-0.0395122
252	0xbd6646a2	-0.056219704
253	0xbd0c8e63	-0.034315478
254	0x3c70e78f	0.014703645
255	0xbe2306f4	-0.15920621

enc.0.bias f4 [100]
0	0x3d46ad29	0.048504982
1	0x3d59f385	0.053210754
2	0x3d129d12	0.035794325
3	0xbd89b8ce	-0.06724702
4	0x3d4b207e	0.049591534
5	0x3c90e8ab	0.01768907
6	0xbd80b9a3	-0.062854074
7	0xbd8c4c58	-0.06850499
8	0x3c1cbbd2	0.009566264
9	0x3ee043b8	0.43801665
10	0x3d16a893	0.03678186
11	0xbd343c09	-0.044002566
12	0xbe0aa1c9	-0.13538279
13	0xbcd41c0d	-0.025892282
14	0xbaa584da	-0.0012628094
15	0x3da3bd14	0.07995048
16	0x3f563a10	0.83682346
17	0x3dd00fdc	0.10159275
18	0x3b5e38f4	0.0033908458
19	0x3da2fd52	0.07958473
20	0xbd8d816d	-0.06909452
21	0xbdae4bd5	-0.085105576
22	0xbd566087	-0.05233815
23	0xbcfafc6d	-0.030637944
24	0xbd25653c	-0.040379748
25	0x3c28a9ba	0.010294372
26	0x3d58aadd	0.052897323
27	0x3e054ea2	0.13018277
28	0xbd1d651e	-0.03842651
29	0xbd1d4b11	-0.038401667
30	0x3c291257	0.010319314
31	0x3cab932c	0.0209442
32	0x3d73d23c	0.059526667
33	0xbd0ea90c	-0.034829184
34	0xbdc78551	-0.09742225
35	0x3c285244	0.01027352
36	0x3c88cab8	0.016698226
37	0xbdbce212	-0.09222807
38	0x3e07896d	0.13236018
39	0xbe099b06	-0.13438043
40	0xbd7e4278	-0.06207511
41	0xbd64535b	-0.055743556
42	0xbc1a223b	-0.009407575
43	0x3bf3b529	0.0074373675
44	0x3cbe0f2f	0.0232006
45	0xbc62c451	-0.013840751
46	0xbdb7f832	-0.089828864
47	0xbaa72f59	-0.00127552
48	0xbd888694	-0.06666294
49	0x3d5e66e5	0.054297347
50	0xbd79ab56	-0.060954414
51	0x3e09e46e	0.13466045
52	0xbc8fad05	-0.017538557
53	0x3dca0363	0.09863927
54	0xbd5e425d	-0.054262508
55	0xbd159138	-0.036515445
56	0x3c667a32	0.01406722
57	0xbe3e434b	-0.18580358
58	0xbdbd53e1	-0.09244514
59	0xbe97e47f	-0.29666516
60	0x3e0105d5	0.12599881
61	0x3d7c2f38	0.06156847
62	0x3dd56828	0.10420257
63	0xbd06dd13	-0.032925677
64	0xbdb1374e	-0.08653127
65	0x3d56cae9	0.052439604
66	0xbdb0683c	-0.08613631
67	0xbce078e8	-0.027401403
68	0x3d58d26a	0.05293504
69	0xbc9f87b8	-0.019473895
70	0xbdbc3787	-0.091902785
71	0x3d5c5bab	0.05379836
72	0xbdb4caae	-0.088277206
73	0xbd642504	-0.055699363
74	0x3d85535b	0.065100394
75	0x3d7fc614	0.06244476
76	0xbceacfcf	-0.028663544
77	0x3a22cb04	0.0006210061
78	0xbcf7a3e2	-0.030229513
79	0x3d8eec4f	0.06978666
80	0xbd3dc965	-0.046334643
81	0xbd30ec72	-0.04319424
82	0x3db2ea22	0.087360635
83	0x3c11255e	0.008859007
84	0x3cf1b3e6	0.029504728
85	0xbc33ed82	-0.010981919
86	0x3c9dc2ef	0.01925799
87	0xbd078e58	-0.033094734
88	0x3dac0d43	0.08400967
89	0xbc7e5925	-0.015524183
90	0x3d38ff34	0.045165256
91	0x3d4e9094	0.05043085
92	0xbd9300a7	-0.07177859
93	0x3c616c1d	0.013758686
94	0x3e7822af	0.2423198
95	0x3c23e77c	0.010003921
96	0xbd88dcc9	-0.066827364
97	0x3e12fd32	0.14354399
98	0x3d745c93	0.0596586
99	0xbcafb943	-0.021450644

enc.2.weight f4 [100, 100]
0	0xbd85a66f	-0.06525885
1	0xbcb527cc	-0.022113703
2	0x3d48b87b	0.04900406
3	0x3dfd0dd7	0.12356155
4	0x3cdc6575	0.026903847
5	0x3cf3be9a	0.029753972
6	0xbc99f510	-0.018793613
7	0x3d949838	0.07255596
8	0xbde07fd6	-0.10961883
9	0xbde1e1d5	-0.11029402
10	0xbdb934a8	-0.090432465
11	0xbd99321b	-0.0748026
12	0x3d1cafaf	0.038253482
13	0x3e03c005	0.12866218
14	0x3ca8fe9c	0.02062922
15	0x3d3ea901	0.046547893
16	0xbd224c3d	-0.039623488
17	0x3dfd6760	0.12373233
18	0xbdde43c6	-0.108527705
19	0xbdbabc1d	-0.09117911
20	0xbd9a9f3d	-0.075499035
21	0xbbfab9a6	-0.0076515255
22	0x3d0a69af	0.033792194
23	0xbe12cf49	-0.14336886
24	0xbc22721d	-0.009914902
25	0xbad9ff2a	-0.0016631831
26	0xbe009062	-0.12555078
27	0x3c8f4720	0.01748997
28	0xbca2e0d7	-0.019882603
29	0x3db5023b	0.08838316
30	0x3d947ffe	0.07250975
31	0xbd3949e3	-0.04523648
32	0x3c5f3243	0.013622823
33	0x3ce8612b	0.028366646
34	0xbaeacde3	-0.0017914142
35	0x3d2df86e	0.04247325
36	0xbd5f9f0c	-0.05459504
37	0x3d87e87a	0.06636138
38	0x3bac6cb5	0.0052619823
39	0xbd18f7fe	-0.03734588
40	0xbd28fc79	-0.0412564
41	0x3c8f5b1a	0.017499495
42	0x3dc1372a	0.0943435
43	0xbd7bd0d2	-0.061478443
44	0x3d5e56e7	0.054282095
45	0xbd0aa478	-0.033848256
46	0x3c077da0	0.008269697
47	0xbd40af28	-0.047042042
48	0xbce95207	-0.028481496
49	0xbdce024e	-0.10059033
50	0xbdcc1f79	-0.099669404
51	0x3dab5029	0.08364899
52	0x3db19816	0.08671586
53	0xbda4af09	-0.08041198
54	0xbda43111	-0.08017171
55	0xbd9450a5	-0.07241944
56	0x3dbcdcb5	0.09221784
57	0x3d1a92ee	0.03773778
58	0xbddd7604	-0.10813525
59	0xbdebf40e	-0.11521159
60	0x3ca5a65d	0.02022093
61	0x3d043c2e	0.032283954
62	0xbdaa6117	-0.083193
63	0x3d22d354	0.03975232
64	0xbd0e96f0	-0.034811914
65	0xbd103fd6	-0.03521713
66	0x3bea434d	0.007149136
67	0xbdeb59cb	-0.11491736
68	0xbd743855	-0.059624035
69	0xbd854d8b	-0.06508931
70	0xbdbe9313	-0.09305396
71	0xbc8c972c	-0.017161928
72	0xbd080bd7	-0.033214416
73	0x3d664e91	0.05622727
74	0x3cc31a9d	0.023816401
75	0x3d5a032f	0.053225692
76	0xbbfecf31	-0.007776164
77	0xbd4dfb53	-0.05028851
78	0x3d8b9499	0.06815452
79	0x3c12f8c0	0.008970439
80	0x3d99f359	0.07517118
81	0x3b803753	0.003912845
82	0x3d8ecac7	0.069722705
83	0xbd3ff4de	-0.046864383
84	0xbdea60ce	-0.11444245
85	0xbdf1be9d	-0.11803935
86	0x3d45a9ae	0.048257522
87	0xbb9fe47a	-0.0048795315
88	0xbd2034e1	-0.03911293
89	0xbd90dab5	-0.07072965
90	0x3d2f794c	0.042840287
91	0x3c89eb89	0.016835945
92	0xbcece457	-0.028917475
93	0x3da60917	0.081072025
94	0x3c413abd	0.011793789
95	0x3d64b580	0.055837154
96	0xbcafdc1c	-0.021467261
97	0x3d83139f	0.06400227
98	0xbd9b7148	-0.07589966
99	0xbdc55b33	-0.096365355
100	0xbc6c7692	-0.014432566
101	0xbde102d1	-0.10986865
102	0xbca20df9	-0.019782053
103	0x3dae2f7c	0.08505151
104	0x3d0b12b8	0.0339534
105	0xbe205a9d	-0.15659566
106	0xbde812a5	-0.11331681
107	0x3d2c3a21	0.042047624
108	0xbe0c75c6	-0.13716802
109	0xbd5be4ab	-0.05368487
110	0xbe2d6696	-0.16933665
111	0x3d1f3864	0.038872138
112	0x3e0531ac	0.1300723
113	0x3dccc014	0.099975735
114	0xbd6c93d4	-0.057758167
115	0x3d82c977	0.063860826
116	0xbe09fee9	-0.13476147
117	0xbd8a2951	-0.06746162
118	0x3d455704	0.048178688
119	0x3d021a70	0.031763494
120	0xbca38204	-0.019959457
121	0xbd7d6af3	-0.061869573
122	0x3d2df7e1	0.042472724
123	0xbc4819ab	-0.012213151
124	0xbd80b9cf	-0.0628544
125	0xbd9887c6	-0.07447772
126	0xbd451eb2	-0.048124976
127	0x3e2c0f6b	0.16802756
128	0xbda18eb9	-0.0788855
129	0xbb538090	-0.0032272674
130	0x3cdb9705	0.02680541
131	0xbe05abe9	-0.1305386
132	0xbdda6d64	-0.10665396
133	0xbd98206b	-0.07428058
134	0x3d55f911	0.05223948
135	0x3d545847	0.051842
136	0xbe12c91e	-0.14334533
137	0xbcf6f6a7	-0.03014691
138	0x3d74a360	0.05972612
139	0xbc30445a	-0.010758484
140	0xbcde6102	-0.027145866
141	0x3cdb75c2	0.02678955
142	0xbc264a4d	-0.010149551
143	0xbe2be7f9	-0.1678771
144	0xbe0496f0	-0.12948203
145	0xbdbe25f9	-0.092845865
146	0xbd657c55	-0.056026775
147	0x3d90b934	0.07066575
148	0xbcb172af	-0.02166113
149	0x3c1df9e6	0.0096421
150	0xbd095067	-0.033523943
151	0xbd8f56df	-0.06998991
152	0xbc9d05c6	-0.019167792
153	0xbcb1fca0	-0.021726906
154	0xbd0fe4ab	-0.035130184
155	0xbd8a11d1	-0.067416795
156	0xbc15e8b6	-0.009149721
157	0xbd9fce13	-0.078029774
158	0xbd86da95	-0.0658466
159	0x3d8393d2	0.06424679
160	0x3d663546	0.05620315
161	0xbd0245bb	-0.03180478
162	0x3d0b702f	0.034042533
163	0xbdef3681	-0.11680318
164	0xbce13c32	-0.027494524
165	0xbc412ed3	-0.011790949
166	0x3c920d00	0.017828465
167	0x3d82d8eb	0.0638903
168	0x3c8232b2	0.015893314
169	0x3d47f8dd	0.04882132
170	0xbc3b6b67	-0.011439181
171	0xbda48e57	-0.08034962
172	0x3b85a0c8	0.0040780045
173	0xbdae13d1	-0.084998734
174	0xbdaa05f1	-0.083019145
175	0xbd4470de	-0.0479592
176	0xbdd2c5f7	-0.10291665
177	0xbdaaa4e4	-0.08332232
178	0x3e04d6f7	0.12972628
179	0xbd4041ea	-0.04693786
180	0xbd8fd86e	-0.070237026
181	0x3d747927	0.059685852
182	0xbd789ad8	-0.060694546
183	0x3d2b3e97	0.041807737
184	0xbd05183a	-0.032493807
185	0xbd3ce088	-0.046112567
186	0xbdf33d4f	-0.11876928
187	0xbdcfe81e	-0.10151695
188	0xbd89d049	-0.0672918
189	0xbc7b771a	-0.01534822
190	0xbdb1adda	-0.08675738
191	0xbdfce633	-0.123485945
192	0x3e1f2645	0.15541942
193	0xbda224a6	-0.079171464
194	0x3df1c0ac	0.11804327
195	0x3cbd4984	0.023106344
196	0x3db4298a	0.087969854
197	0x3c0e4138	0.008682542
198	0xbdda788c	-0.10667524
199	0x3d371131	0.04469413
200	0x3d7cdf26	0.06173625
201	0x3e050ded	0.12993594
202	0xbdb8afa0	-0.09017873
203	0xbde0065d	-0.10938714
204	0xbd666681	-0.0562501
205	0xbd257efa	-0.040404297
206	0xbd3ab1c0	-0.04557967
207	0xbd53e34a	-0.05173043
208	0xbd4b55a8	-0.049642235
209	0xbec7f7db	-0.39056286
210	0xbe2524d6	-0.16127333
211	0xbd6b6c5c	-0.057476386
212	0x3931b42f	0.00016947159
213	0x3c60b6d3	0.013715464
214	0xbc657af7	-0.014006368
215	0xbd115437	-0.035480704
216	0x3c3ef2a1	0.011654527
217	0xbdba44cb	-0.090951525
218	0xbd6e6a10	-0.058206618
219	0x3aacee5b	0.0013193594
220	0xbc9435f1	-0.018092128
221	0xbdb4b56e	-0.088236675
222	0xbd549df3	-0.051908445
223	0xbdc2e9aa	-0.09517224
224	0x3cf850ee	0.030312028
225	0x3df14c3a	0.11782117
226	0xbd0d4543	-0.03448988
227	0x3c8d627e	0.017258879
228	0x3c6a6df7	0.014308444
229	0xbcaa691f	-0.020802079
230	0x3c0b20e0	0.008491725
231	0xbccb1cfb	-0.024794092
232	0x3dd56807	0.10420232
233	0xb977f95d	-0.0002364865
234	0xbcf8a33b	-0.030351272
235	0x3d5d587e	0.05403947
236	0xbdeda476	-0.11603634
237	0xbd878956	-0.066179916
238	0xbd4a89b0	-0.049447715
239	0xbd194925	-0.03742327
240	0xbdb7956e	-0.08964048
241	0x3dac8a48	0.084248126
242	0xbd5bc982	-0.05365897
243	0xbd97c710	-0.07411015
244	0xbaabad09	-0.0013097833
245	0xbd39e58d	-0.045384932
246	0xbd816685	-0.06318382
247	0x3d2707f5	0.040779073
248	0xbc81c38a	-0.01584031
249	0x3db2eb1d	0.087362505
250	0xbcda62b0	-0.026658386
251	0x3ccd4740	0.025058389
252	0xbc9ae0d7	-0.01890604
253	0x3e09fff9	0.13476552
254	0xbd20542b	-0.03914277
255	0x3c0702e3	0.008240434

enc.2.bias f4 [100]
0	0x3c659c6f	0.014014347
1	0x3cb070ea	0.021538217
2	0x3d9bd93a	0.07609792
3	0x3e0bdcaa	0.13658395
4	0x3d0e21f1	0.034700338
5	0x3d013354	0.03154309
6	0x3d32e295	0.043673117
7	0x3aab087b	0.0013048792
8	0xbb77a91b	-0.0037790004
9	0xbe124333	-0.14283447
10	0x3e52bcc4	0.20579821
11	0x3ce8785f	0.02837771
12	0x3d804ca9	0.06264622
13	0x3ddf8c0c	0.10915384
14	0xbd7ef81f	-0.062248345
15	0x3fc00be4	1.5003629
16	0x3dbcd599	0.09220428
17	0x3c252d32	0.010081576
18	0xbdb8136c	-0.089880794
19	0xbdb1a822	-0.08674647
20	0x3dc56549	0.09638459
21	0x3d950529	0.07276375
22	0xbd787a48	-0.06066349
23	0xbd001f74	-0.031279996
24	0x3d48d961	0.049035434
25	0xbdb09189	-0.08621509
26	0xbd747f4d	-0.059691716
27	0x3e19d8ba	0.15024081
28	0xbda0e916	-0.078569576
29	0xbd0d37f4	-0.03447719
30	0xbe113aa1	-0.14182521
31	0x3ce12021	0.02748114
32	0x3d2842e3	0.041079413
33	0x3dade975	0.08491794
34	0x3e66bbf4	0.22532636
35	0x3c2e71e3	0.01064727
36	0x3d966159	0.07342786
37	0xbd406036	-0.046966754
38	0x3c72881e	0.014802961
39	0x3fd0beb4	1.6308198
40	0x3e53628e	0.20643064
41	0x3da9ff9c	0.08300707
42	0xbdcb9aed	-0.09941659
43	0x3e274048	0.16333115
44	0x3e206daf	0.15666841
45	0xbd8e47f1	-0.069473155
46	0x3e2215cf	0.15828632
47	0xbc5571cb	-0.013027619
48	0xbc7ed973	-0.015554774
49	0xbc7f59c5	-0.015585368
50	0xbd05e306	-0.03268721
51	0xbde2e101	-0.11078072
52	0x3e2cdaac	0.16880292
53	0xbb92441c	-0.0044636857
54	0x3cda2ae4	0.02663178
55	0x3c4c2806	0.012460714
56	0xbdd31834	-0.10307351
57	0x3da68ffb	0.08132931
58	0x3ce9fa60	0.02856177
59	0x3e1374fe	0.14400098
60	0x3e2216ca	0.15829006
61	0x3e196adf	0.14982174
62	0xbc65c15c	-0.014023151
63	0xbd8db3dc	-0.06919071
64	0x3e0e1656	0.13875708
65	0x3d7154a8	0.058918625
66	0x3d8a7f5c	0.06762573
67	0x3e815e23	0.25267133
68	0x3c175101	0.009235621
69	0xbdd368ae	-0.103227004
70	0x3d42d471	0.04756588
71	0xbdea6401	-0.114448555
72	0xbcbb2f60	-0.022849739
73	0x3e5d3a60	0.216043
74	0x3d056ef1	0.032576505
75	0xbdfd1ad0	-0.1235863
76	0x3cf54d10	0.029943973
77	0x3e4e78f1	0.20163323
78	0x3e3db709	0.18526854
79	0x3c3c009b	0.011474754
80	0x3e273613	0.16329221
81	0xbc524a10	-0.012835041
82	0xbdd77842	-0.10520984
83	0x3d932f46	0.07186751
84	0x3dddaf71	0.108244784
85	0x3db1a8c3	0.08674767
86	0x3df7882c	0.120865196
87	0x3e3a004d	0.18164177
88	0x3ac0b708	0.0014702985
89	0x3e309289	0.17243399
90	0xbd336d97	-0.043805685
91	0xbc63dcd1	-0.013907627
92	0x3dd447b6	0.1036524
93	0x3dae3a88	0.08507258
94	0x3e8bf79d	0.2733735
95	0xbc1cfac6	-0.009581273
96	0x3e08b175	0.13348944
97	0xbe0ac997	-0.13553463
98	0xbd87747b	-0.06614014
99	0x3df7a05d	0.12091134

enc_mean.weight f4 [1, 100]
0	0xba8793b2	-0.0010343699
1	0xbd59900f	-0.0531159
2	0xbdd5741f	-0.10422539
3	0xbce074f4	-0.027399518
4	0xbdbdd6d9	-0.092694946
5	0xb8124927	-3.487724e-05
6	0xbd641008	-0.05567935
7	0x3c8fa082	0.01753259
8	0x3c82d1b2	0.015969131
9	0x3943e27d	0.00018681023
10	0x3ce216ba	0.027598727
11	0xbc12dc0f	-0.008963599
12	0xbdf3aee3	-0.11898591
13	0xbab72042	-0.0013971406
14	0x3ca040e3	0.01956219
15	0x3b22eb28	0.0024859402
16	0x3db07b72	0.08617295
17	0x39e40ea6	0.00043498463
18	0xbb4f993e	-0.0031677033
19	0x3c9e3a27	0.019314839
20	0xbd1304cf	-0.035893258
21	0x3dec34c6	0.11533503
22	0xbc51d76d	-0.012807709
23	0x3d948893	0.07252612
24	0x3a9ba310	0.0011874158
25	0xbd9818d1	-0.07426608
26	0x3ae4ab89	0.0017446141
27	0xbccbd793	-0.024883067
28	0x3d62ebe4	0.055400744
29	0xbc0d17b2	-0.008611606
30	0x3cc4d4ea	0.024027307
31	0xb98d0c08	-0.0002690258
32	0xbde7dbf2	-0.11321248
33	0xbd2337fb	-0.03984831
34	0xbd484370	-0.04889244
35	0x3b2fd568	0.002683008
36	0xbd6e3521	-0.058156136
37	0x3ce69c3f	0.028150676
38	0xbc90bb74	-0.01766751
39	0xbaeafc5c	-0.0017927992
40	0xbd9345a8	-0.0719102
41	0x3c207d0f	0.009795441
42	0x3d5b6a43	0.053568136
43	0xbd8750b3	-0.06607189
44	0x3d8b694a	0.06807192
45	0xbd049c3a	-0.03237555
46	0xbd194e00	-0.037427902
47	0xbc50bd65	-0.012740468
48	0xbd390e9e	-0.045179956
49	0x3b2dc7b2	0.0026516733
50	0x3c7cded3	0.015433985
51	0xbb8898ff	-0.004168629
52	0x3dedc9c1	0.11610747
53	0xba75a3f7	-0.0009370441
54	0x3cb3088c	0.021854661
55	0xb82af674	-4.0760686e-05
56	0x3a963aed	0.0011461653
57	0x3a8dbf0b	0.0010814382
58	0x3de632ec	0.11240181
59	0xbdb1f3ca	-0.08689077
60	0x3d979acf	0.07402574
61	0x3da1d28b	0.07901486
62	0x3d3e57ea	0.04647056
63	0x3cb01760	0.021495521
64	0xbaff377f	-0.0019471495
65	0x3d154605	0.03644373
66	0x3d5baad9	0.05362973
67	0xbda8056f	-0.082041614
68	0xbc959771	-0.01826069
69	0xbad3c453	-0.0016156532
70	0x3d2b3b64	0.041804686
71	0xbc094bf7	-0.008379928
72	0x3bc4caa5	0.0060056024
73	0xbd86aaf4	-0.065755755
74	0x3c9c5678	0.0190842
75	0x3c9d4997	0.01920013
76	0x3b978e44	0.0046251137
77	0xbb872aae	-0.004124961
78	0x3cb9ad2f	0.022665588
79	0x3c84ee62	0.016226951
80	0xbbe0fe21	-0.006866232
81	0x3d1e6b37	0.038676467
82	0x3c8f1d31	0.017469974
83	0x3db81a3d	0.089893796
84	0xba15d51b	-0.0005715654
85	0x3be1e433	0.0068936585
86	0xbd8dfd7a	-0.069331124
87	0xbdbb759e	-0.09153293
88	0x3da083e7	0.078376584
89	0x3d6049be	0.054757826
90	0x3c5f17be	0.0136165
91	0xbc419e6a	-0.011817554
92	0x3c2c341d	0.010510472
93	0xbbe1de48	-0.006892953
94	0xbd884b01	-0.06654931
95	0x3cedc317	0.02902369
96	0x3db8a46b	0.09015735
97	0x3cca7f02	0.024718765
98	0x3d0c4aad	0.034250904
99	0x3da7b20d	0.08188257

enc_std.0.weight f4 [1, 100]
0	0xbd74f974	-0.05980821
1	0x3e3642a9	0.17798866
2	0x3cf5855b	0.029970815
3	0x3c49a845	0.012308185
4	0x3e2218f7	0.15829836
5	0xbc9ffca9	-0.019529657
6	0x3e19440f	0.14967369
7	0x3d6097cd	0.05483227
8	0xbd80fae2	-0.06297852
9	0x3d5b13be	0.053485624
10	0xbe356747	-0.17715178
11	0x3d1a1631	0.03761882
12	0xbccc01a5	-0.024903128
13	0xbe3be65d	-0.18349595
14	0x3d7ee06c	0.062225744
15	0xbf71c6f4	-0.94444203
16	0x3c42a7de	0.011880843
17	0xbcd63089	-0.02614619
18	0xbd42f269	-0.04759446
19	0xbddff3c3	-0.10935166
20	0xbd36f46b	-0.04466669
21	0xbd3fa029	-0.0467836
22	0x3d0a6386	0.03378632
23	0x3dbb1272	0.091343775
24	0x3da90854	0.082535416
25	0x3c931bb6	0.01795755
26	0x3e9566ff	0.29180142
27	0x3aaa37ca	0.0012986597
28	0xbd94569e	-0.072430834
29	0xbda0d233	-0.07852592
30	0x3f0fb987	0.5614247
31	0xbd674aed	-0.05646794
32	0x3d5ab822	0.05339826
33	0x3e0bdb74	0.13657933
34	0xbe265ace	-0.16245577
35	0xbe22e927	-0.15909253
36	0xbdd2f406	-0.1030045
37	0x3da65758	0.08122128
38	0x3c0c4c56	0.008563122
39	0xbfa45d4b	-1.2840971
40	0x3bccfeb1	0.0062559475
41	0x3d63eb09	0.05564407
42	0x3d7eed25	0.062237877
43	0x3cd69c87	0.026197685
44	0x3ff6d614	1.9284081
45	0x3d2fbe20	0.042905927
46	0xbdf98fd7	-0.121856384
47	0x3cdae9af	0.026722757
48	0x3b046a0e	0.0020204815
49	0xbcd61d86	-0.026137125
50	0x397faf76	0.0002438406
51	0x3e64bc07	0.22337352
52	0xbd132b92	-0.035930224
53	0x3d133937	0.035943236
54	0xbd93fee9	-0.07226355
55	0x3a99f4bc	0.001174591
56	0x3d82c72c	0.06385645
57	0x3dce2c5a	0.10067053
58	0xbdb09364	-0.086218625
59	0xbd9bff97	-0.07617109
60	0xbe253094	-0.16131812
61	0xbc4b079d	-0.012391952
62	0x3e32937d	0.17439075
63	0x3ddafe2f	0.10693013
64	0x3dd5abe2	0.10433175
65	0x3cf83e19	0.030303048
66	0xbdc03122	-0.09384371
67	0xbdce91b3	-0.10086384
68	0xbd07a86d	-0.033119608
69	0x3c9e15e4	0.019297548
70	0x3d6a6a14	0.05723007
71	0xbb7bce73	-0.0038422614
72	0x3d37c05e	0.04486119
73	0xbde27f5e	-0.110594496
74	0x3d980737	0.07423251
75	0xbaa12b63	-0.0012296255
76	0x38ed904b	0.00011327917
77	0xbdb28dcd	-0.087184526
78	0x3f394214	0.7236645
79	0x3ca07ee4	0.019591756
80	0x3e3667a1	0.17812969
81	0x3d9bcd56	0.07607524
82	0x3dc806f2	0.0976695
83	0xbd61e8ec	-0.055153772
84	0x3c1245ae	0.008927746
85	0x3d9c41f1	0.07629765
86	0xbd8ca149	-0.068667
87	0xbd10cce6	-0.035351656
88	0x3d8ea78a	0.06965549
89	0xbe6655b0	-0.22493625
90	0x3e88c329	0.26711395
91	0x3dab3efe	0.08361624
92	0x3f2e6d68	0.6813569
93	0xbe47305a	-0.19452038
94	0x3ee47d41	0.4462681
95	0xbedd017e	-0.431652
96	0xbdf66481	-0.12030888
97	0xbdbf7fce	-0.09350549
98	0x3d768a41	0.060190443
99	0xbd97b8c4	-0.07408288
