generative_ts/saves/250911_124416/model_LS4.pth (torch, 247755 bytes, 247 tensors)

encoder.latent.encoder.weight f4 [16, 1]
000000 42 eb e1 3e 15 04 d3 be f4 0a 20 3f 3c 91 fd be
       0.441248 -0.41214052 0.62516713 -0.49524868
000010 71 20 01 3f a9 42 07 3f 60 39 00 be 0f dc 13 bf
       0.50440127 0.5283609 -0.12521887 -0.5775766
000020 75 f7 53 3f 62 ca dd 3d 15 2b 66 3c 0d d0 36 3e
       0.82799464 0.10829617 0.0140483575 0.17852803
000030 8a 41 29 3f 78 c6 04 bf 12 0d 60 3f 4c 70 ac bd
       0.6611563 -0.5186534 0.87519944 -0.084198564

encoder.latent.encoder.bias f4 [16]
000000 5d ef 20 bf 2f ee e4 be 9b d2 9c 3d 0d 60 28 bf
       -0.6286524 -0.4471297 0.07657357 -0.6577156
000010 08 43 72 3f 2d 9d 82 3e c8 10 68 3f af 52 68 bf
       0.9463353 0.2551054 0.90650606 -0.90751165
000020 68 88 55 3f 7a de b8 be 07 a4 9f 3e 60 8d 6a 3f
       0.83411264 -0.36107236 0.3117983 0.9162197
000030 72 a9 25 3f 01 dd 84 be e5 6c 0d 3e f3 9f 2d 3f
       0.6471168 -0.25949863 0.13811071 0.6782219

encoder.latent.backbone.c_layers.0.layer.D f4 [1, 16]
000000 b9 ee 48 c0 72 39 dd 3e a9 aa 58 3e f1 e4 86 3f
       -3.1395705 0.4320789 0.21158852 1.0538617
000010 0a 1c 2e 3f b5 5a b2 be c6 ed bf 3f c0 c7 e6 3e
       0.68011534 -0.3483483 1.4994438 0.45074272
000020 16 a6 81 3e 58 de c4 be 6d d2 80 3e 32 aa 8b 3d
       0.25322026 -0.38450885 0.25160542 0.068195716
000030 94 36 b9 3e 1a ac 00 bf 0b 8f 2c bf 24 11 32 3f
       0.36174452 -0.50262606 -0.67405766 0.69557405

encoder.latent.backbone.c_layers.0.layer.kernel.kernel.C f4 [1, 16, 8, 2]
000000 63 92 5b bf ed ca c2 3f bb 44 35 bf 4b 65 20 3e
       -0.85770243 1.5218178 -0.70808 0.1566364
000010 e2 76 52 3f 9e 83 eb 3e 27 8e 73 3f 23 eb 05 c0
       0.8221265 0.45998853 0.9513878 -2.0924766
000020 6a 7d 48 3d 2c 19 10 3f 96 53 f2 bc 8a 97 74 bf
       0.04894773 0.5628841 -0.029580873 -0.9554373
000030 2e 7e b7 be 0d 25 29 bf 8f 42 8b bf b7 27 32 3f
       -0.35838455 -0.6607216 -1.0879687 0.6959185
000040 71 45 85 3f 19 f4 e6 be ff 70 b8 bf 75 1b a7 be
       1.0411817 -0.45108107 -1.4409484 -0.32638136
000050 c1 2f ef be 1d 98 7a 3f d5 e1 d6 be 9f c7 91 be
       -0.4671612 0.97888356 -0.4196917 -0.2847261
000060 bf 14 f5 bf c8 12 ba be 89 e9 ca 3e cc ae 3b 3f
       -1.9146956 -0.36342454 0.39631298 0.73313594
000070 b5 8a 6d 3f 3c 7a 4b 3f 33 ae b2 be ff 16 9a bd
       0.92789775 0.7948339 -0.34898528 -0.075239174
000080 4a f6 3c bf 09 61 8f be db e6 2f bf f5 f7 b2 3e
       -0.7381331 -0.2800372 -0.6871163 0.349548
000090 22 8e c5 3e 7a f8 84 3e 6d 7e 8f 3f f9 bc d3 be
       0.38585 0.25970823 1.1210457 -0.41355112
0000a0 55 1b d1 bf 0f 97 26 3f 77 f6 68 3f 5f e5 4d bf
       -1.6336466 0.6507425 0.91001076 -0.8042812
0000b0 c0 46 fe 3e 33 f4 04 3f 0f f5 b2 bd 31 45 81 3e
       0.49663353 0.5193512 -0.087381475 0.252481
0000c0 44 fb 8f 3e bf 3d 3c bf 60 1f 9f 3c 62 c5 3f bf
       0.28121388 -0.7353172 0.01942414 -0.7491056
0000d0 68 8a 17 bf 6d da 2c 3f c6 6c 22 bf ae b0 9a be
       -0.59195566 0.6752079 -0.63447225 -0.3021292
0000e0 80 42 53 3f 4a 52 9f be 68 13 0a bf 6f 52 b3 be
       0.82523346 -0.3111747 -0.5393586 -0.3502383
0000f0 6f 9f 29 3f 5d 03 e7 3d d3 40 18 3f ec 5f 84 3f
       0.662589 0.11279938 0.59473914 1.0341773
000100 0a 58 81 bc 92 40 cb be ef c0 ac bf fe 14 99 be
       -0.01578905 -0.396977 -1.3496379 -0.29898828
000110 e8 d7 91 3e 93 5c 83 3f ee c5 7f be 5f 2f c0 be
       0.28485036 1.0262626 -0.24977848 -0.3753614
000120 84 31 90 3f ab d9 d3 be 5a 78 0e bd df 6d fa bf
       1.1265111 -0.41377005 -0.034782745 -1.956478
000130 db 96 24 bf ce 6b 7e 3e 30 10 13 be dd 4d 13 be
       -0.6429269 0.24845812 -0.14361644 -0.14385171
000140 cb ea 6f 3e aa 9e 7e be 27 f8 1a bf e1 e7 77 3f
       0.2342941 -0.24865213 -0.605349 0.96838194
000150 29 95 95 3f 65 51 23 3f b3 57 34 c0 34 44 a1 bf
       1.1686145 0.63796073 -2.8178527 -1.2598939
000160 d9 d9 4d bc 6d fe 86 bf 02 b7 98 3e 81 bb f3 3e
       -0.012564146 -1.0546395 0.29827124 0.47603992
000170 bf 66 2a bf c4 82 44 be a4 4f a6 be b9 c5 bf 3e
       -0.6656303 -0.19190508 -0.32482636 0.37455538
000180 98 66 f8 3d 2e 5e ef 3f 4f 90 51 3f 52 56 ca 3e
       0.12128943 1.8700616 0.8186082 0.39518982
000190 89 3d b0 3c a3 c4 8a 3e bc 5c 13 bf 85 45 36 bf
       0.021513717 0.27103147 -0.57563376 -0.7119983
0001a0 19 91 29 bf 28 cf c3 3d 30 91 12 bb 16 12 82 bf
       -0.66237026 0.09560996 -0.002236437 -1.0161769
0001b0 00 a7 04 bf 0d 1f ef 3e 63 b5 b1 3e 05 7e 6d be
       -0.5181732 0.46703377 0.347087 -0.23192604
0001c0 57 ae ad bf 7e ff 27 3d 03 a7 f4 be 1a 6c 81 bf
       -1.3568829 0.04101514 -0.4778367 -1.0111115
0001d0 95 de 06 bf 7f f1 42 3f c9 82 59 3f 7b 8b 08 bb
       -0.52683383 0.76149744 0.8496519 -0.002083509
0001e0 36 17 6b be 2b 0d 4c 3f 1f 21 f5 be 22 70 24 be
       -0.22958073 0.7970759 -0.47876832 -0.160584
0001f0 b3 81 cc 3f 68 cf 81 be 20 0c f2 3f cf e6 de be
       1.5977081 -0.2535355 1.890995 -0.43535468
000200 f2 d5 aa 3f fb f4 46 3f 0a 4b 4b bf 22 ee 5d be
       1.3346541 0.7771756 -0.79411376 -0.21672872
000210 51 77 05 bf 21 c4 3d bf 11 51 ae 3d f9 91 3b bf
       -0.5213519 -0.74127394 0.08511556 -0.7326961
000220 c1 d3 ac be 8f cb ad be 38 b5 30 bf 74 a4 67 3e
       -0.33755305 -0.33944365 -0.6902652 0.22621328
000230 b4 7c e6 bd 55 ae ad 3e b2 f9 6c bf 21 ab cd be
       -0.11254254 0.33922067 -0.92568505 -0.40169623
000240 7d a3 0c bd e0 bb 8b bf 0b 79 31 3d 9d dc a6 3f
       -0.034335602 -1.091671 0.043328326 1.3036076
000250 f3 b6 b9 3e fb 56 31 bf a3 90 f5 be 57 ff 88 be
       0.36272392 -0.69273347 -0.47961912 -0.2675731
000260 a8 39 83 bf da 05 7e 3f 59 96 74 be f9 ac 3f 3f
       -1.025197 0.9922768 -0.23885478 0.7487331
000270 63 22 5d 3f a5 5f de 3e 3c 7e a0 3e 9d d2 5d be
       0.86380595 0.43432346 0.3134631 -0.21662374
000280 d5 5d 1e 3e e5 5d c5 be 3b 53 6a 3e 65 50 c5 bf
       0.15465482 -0.38548198 0.22883312 -1.541516
000290 1e cb 6c 3f 7c 96 cc bd 76 80 0c be 6f c7 3a be
       0.9249743 -0.0998964 -0.13720879 -0.1824014
0002a0 10 a3 0e 3d 4c d0 ac be 26 28 a8 3e 50 09 a9 3f
       0.034823477 -0.33752668 0.3284313 1.3205967
0002b0 0f 5b 70 bf 58 ca 12 3f 8d 32 2e bf 11 00 7a be
       -0.93888944 0.5734 -0.68045884 -0.24414088
0002c0 fb 33 b3 bd 9b f6 c1 be 3b f7 c5 be b0 1d 88 3e
       -0.08750149 -0.37883458 -0.38665184 0.2658515
0002d0 fa 18 78 3f aa 76 05 3f eb af e7 be 38 c9 87 3f
       0.9691311 0.5213419 -0.45251402 1.0608282
0002e0 f8 3a 39 bf b5 07 3b 3f e2 df 2b be d3 d7 0d 3e
       -0.72355604 0.73058635 -0.16784623 0.13851862
0002f0 1f 9a 13 3f 02 31 e5 bd 15 ca 1d 3e 9b d5 a9 3e
       0.57657045 -0.11190988 0.1540912 0.3317078
000300 6a 1c 23 3f a2 06 b9 bd 1c 44 06 bf e3 66 ef bd
       0.6371523 -0.09034468 -0.52447677 -0.11689546
000310 cf 80 ed 3e ef 90 5e 3f 41 25 8d 3f 28 45 bb be
       0.46387336 0.869399 1.1026994 -0.365762
000320 d9 14 c6 be 19 4b 22 3f 54 62 9a 3f 85 61 2b bf
       -0.3868778 0.6339584 1.2061257 -0.6694568
000330 42 4a 4b bf e5 b1 9e bf 4f 07 3e 3f f7 41 6d bf
       -0.79410183 -1.2398039 0.742299 -0.9267878
000340 b5 67 1f bf ff c4 83 3f 4f 8e da be 16 f0 a4 3f
       -0.6226762 1.0294493 -0.42686698 1.2885768
000350 4a c0 8c 3e be 5b 60 be 66 39 ba 3f 39 19 b2 3e
       0.27490455 -0.21909997 1.4548767 0.34784868
000360 43 f6 18 3e 5c a0 b7 be dc 65 73 3f cf 24 11 bd
       0.14937691 -0.35864532 0.950773 -0.035435494
000370 e5 b4 40 3f b8 8f 38 3e 74 03 81 3f 53 53 bb 3f
       0.75276023 0.18023574 1.0079179 1.4634804
000380 f7 a0 0b 3f 6e 70 0b 3f 76 74 60 3d 9e 39 8d 3d
       0.5454249 0.5446843 0.054798566 0.06895755
000390 c0 d5 78 3d cc f7 05 3f 12 bb 65 3b f5 0c 86 3f
       0.060750723 0.52331233 0.003505413 1.0472704
0003a0 44 6b 6a 3e ca 4e 4e be 7a a6 f0 bd 04 9c 66 bd
       0.22892481 -0.20147243 -0.11750503 -0.05630113
0003b0 d6 b0 8c 3f 62 08 9e 3f 3e d8 6a bf bf 7f 66 be
       1.0991466 1.2346308 -0.9173621 -0.22509669
0003c0 6a b3 e3 3e 01 aa f4 be 09 3d 29 bf fc cb c0 bf
       0.4447282 -0.47785953 -0.6610876 -1.5062251
0003d0 17 62 3a bf e7 90 7a be b4 6c e1 3f 03 f0 3e bf
       -0.72805923 -0.24469338 1.7611299 -0.7458498
0003e0 fd 63 95 3f 55 21 d4 be 7c ba 9b be 17 be 96 be
       1.1671139 -0.4143168 -0.30415714 -0.29441902
0003f0 f3 7e 49 3e 31 d3 11 bf 59 0b 4e be c5 d4 35 3d
       0.19677334 -0.5696288 -0.20121516 0.044392366

encoder.latent.backbone.c_layers.0.layer.kernel.kernel.log_dt f4 [16]
000000 e9 ff 4f c0 77 81 7b c0 0f 76 c1 c0 a0 33 96 c0
       -3.2499945 -3.929777 -6.0456614 -4.693802
000010 ea 59 c1 c0 05 2b de c0 1a d6 91 c0 5d 97 98 c0
       -6.042226 -6.9427514 -4.5573854 -4.768477
000020 ef 49 5e c0 e7 f1 80 c0 25 94 45 c0 db 4f 5c c0
       -3.4732625 -4.029529 -3.087167 -3.442374
000030 2e 62 82 c0 94 d9 89 c0 b4 4b 50 c0 8e 8e db c0
       -4.074485 -4.30781 -3.2546206 -6.8611517

encoder.latent.backbone.c_layers.0.layer.kernel.kernel.B f4 [1, 16, 8, 2]
000000 e1 f0 98 bd 08 30 23 c1 96 21 a1 bd 11 e0 5a c0
       -0.07467819 -10.199226 -0.07867734 -3.419926
000010 8c 83 98 bd 54 f6 06 c0 e2 f2 a0 bd 72 49 cc bf
       -0.074469656 -2.1087847 -0.07858826 -1.5959914
000020 d8 77 09 3e 45 89 a1 3f 82 7b 45 3e 0d c1 88 3f
       0.13424623 1.2620016 0.19285396 1.0683914
000030 71 47 94 3e 5b e7 5b 3f aa c1 1f bf be 2d d8 be
       0.28960755 0.85899895 -0.6240488 -0.422224
000040 5e 3d f7 3b 07 78 23 c1 c8 d2 8d bd e1 ed 5b c0
       0.0075451573 -10.216804 -0.06924969 -3.436394
000050 e8 dc d4 bd 69 89 0c c0 24 ec ba bd ce 1e c4 bf
       -0.10393697 -2.1958869 -0.091270715 -1.5321901
000060 da da 58 3d 18 64 a9 3f 7a 7d 59 3e 1e c4 76 3f
       0.052943088 1.3233671 0.21239272 0.96393
000070 f5 d2 c3 3e a0 d3 3a 3f 16 f2 2b bf 81 c0 d5 be
       0.38246885 0.72979164 -0.6716627 -0.4174843
000080 24 6d 6d bd fe d4 22 c1 5f b2 b0 bd f8 e8 5d c0
       -0.057965413 -10.177 -0.086277716 -3.4673443
000090 81 83 c2 bd 52 c3 0b c0 6a 02 c9 bd 9d fa cc bf
       -0.09497739 -2.1837964 -0.098149136 -1.6013981
0000a0 0a 1b 01 3e 29 bc a1 3f 1f 36 f8 3d 64 14 8d 3f
       0.12607971 1.2635547 0.12119698 1.1021848
0000b0 bf d2 bf 3e 30 d1 6a 3f ab d7 02 bf 79 19 00 bf
       0.37465474 0.91725445 -0.51110333 -0.5003887
0000c0 fc 85 66 be b2 3e 26 c1 a5 e2 39 bd 5d 98 6a c0
       -0.22512048 -10.390306 -0.04538216 -3.6655495
0000d0 4e 1d 15 be 74 eb 06 c0 3a 5a bd bd 7f cf b7 bf
       -0.1456196 -2.108121 -0.09245725 -1.4360198
0000e0 5d c5 34 3e b9 0d a0 3f 25 76 51 3e ab 72 9e 3f
       0.17653413 1.2504188 0.20455225 1.2378744
0000f0 fd 05 b8 3e 8e a0 56 3f 02 1f 07 bf d2 66 fe be
       0.3594207 0.83838737 -0.5278169 -0.4968782
000100 b9 0c a0 3c 74 2a 25 c1 cc dc dd 3c df 72 5b c0
       0.019537317 -10.322865 0.027082823 -3.4288862
000110 a3 ac 29 be 52 2f 04 c0 89 f3 99 39 f7 9d dd bf
       -0.16569762 -2.0653882 0.00029363882 -1.7313832
000120 b7 0b 2b 3c 43 d0 98 3f 2a af 8c 3e 1f 53 75 3f
       0.010439805 1.1938556 0.2747739 0.9582996
000130 de c5 e1 3e 45 91 70 3f 6c 50 f9 be d3 9d 03 bf
       0.44096273 0.93971664 -0.4869417 -0.51412696
000140 06 90 34 3c d9 ad 24 c1 ac 0c 0c be 7a 1f 5a c0
       0.011020666 -10.292443 -0.13676709 -3.4081712
000150 85 56 1d be 28 b5 0f c0 b3 d3 d2 bc 22 65 c4 bf
       -0.15365036 -2.245432 -0.025735712 -1.5343363
000160 48 c6 48 3e 23 fe 9b 3f 8e cb f9 3d 74 13 7b 3f
       0.19606888 1.2186931 0.12197028 0.9807656
000170 5b d6 b9 3e 46 de 65 3f 95 e2 1a bf 0b ef b5 be
       0.36296353 0.8979229 -0.60501987 -0.35533938
000180 81 e1 7c bc f8 9f 24 c1 3a 7b ba 3b 20 52 68 c0
       -0.015434624 -10.289055 0.0056909593 -3.6300125
000190 34 9b 6b 3c 52 5e 10 c0 20 dd 2b be 3f 21 c1 bf
       0.014380265 -2.2557569 -0.16783571 -1.5088271
0001a0 b5 7b f9 3c 38 ae 9c 3f f2 86 c1 3d 1c 04 94 3f
       0.030454496 1.2240667 0.09449567 1.1563754
0001b0 2e 6d 9a 3e 7b 54 3f 3f 09 e9 e1 be 9a fa 97 be
       0.30161422 0.7473828 -0.44123104 -0.2968338
0001c0 bd 39 20 3c 2a be 22 c1 df 42 c0 3c 14 ce 67 c0
       0.009779391 -10.171427 0.023469387 -3.621953
0001d0 0c 13 3f be b9 c8 f6 bf a1 b5 b0 be 09 2c db bf
       -0.1865961 -1.9280006 -0.34513572 -1.7122813
0001e0 5f 4d a0 3c 76 a0 c2 3f fa 6c df 3e af 1a 8b 3f
       0.019568143 1.5205219 0.4363783 1.0867518
0001f0 d5 98 4a 3d 43 d5 15 3f ed fc 54 bf 80 be 2b bf
       0.04946216 0.58528537 -0.83198434 -0.67087555
000200 2c 3f 5a be 0c ba 23 c1 11 14 8b 3d 52 54 66 c0
       -0.2131316 -10.232922 0.06790937 -3.5988965
000210 fc bc 6b 3d 2e c0 15 c0 f1 72 95 bd 03 27 e3 bf
       0.057553276 -2.3398547 -0.07297314 -1.774628
000220 31 be 92 3e 57 3d 96 3f be 88 b3 3e c6 88 9d 3f
       0.2866073 1.173747 0.35065264 1.2307365
000230 6b 26 b9 3e 35 d3 82 3f 57 8d cc be b0 f1 dd be
       0.36162123 1.0220705 -0.39951584 -0.43348455
000240 da f1 34 be 9d 98 24 c1 66 71 16 be 14 54 59 c0
       -0.17670384 -10.287259 -0.14691696 -3.3957567
000250 0f 65 45 be 60 1b 10 c0 8b ee 64 bc 30 4c c7 bf
       -0.19276832 -2.2516708 -0.013972889 -1.5570126
000260 4a 03 74 3e d9 4a b0 3f 75 e0 94 3e 30 2e 94 3f
       0.2382938 1.3772842 0.29077497 1.1576595
000270 3a 20 4d 3e 47 83 41 3f d8 8c 34 bf 66 f4 05 bf
       0.20031825 0.7559094 -0.7052741 -0.5232605
000280 38 53 0f bc a2 59 24 c1 c6 cd 1c 3d 0a 17 5c c0
       -0.008747868 -10.271883 0.03828218 -3.4389062
000290 50 98 cc bc 97 7f 09 c0 d6 77 41 3d 74 0a cb bf
       -0.024974972 -2.1484125 0.047233425 -1.5862565
0002a0 93 7b a0 3d fd 12 ac 3f 67 9b 67 3e f6 2a 7f 3f
       0.0783607 1.3443295 0.22617875 0.9967493
0002b0 27 96 6a 3e c1 c6 49 3f d8 b3 27 bf 45 4a 95 be
       0.22908841 0.788189 -0.65508795 -0.29158226
0002c0 ae 2a b4 bd 08 11 23 c1 05 44 d7 bd c0 8c 60 c0
       -0.08797203 -10.191658 -0.105110206 -3.5085907
0002d0 0f 75 47 bd 87 56 0f c0 78 04 1f be 97 2a d2 bf
       -0.04869562 -2.2396562 -0.15529048 -1.6419247
0002e0 87 12 a8 3d ca a5 a0 3f cf c1 4c 3e 97 ca 83 3f
       0.08206659 1.2550595 0.19995807 1.02962
0002f0 7b 07 ad 3e 32 4a 61 3f c7 9e 0a bf 77 9f da be
       0.3379477 0.8800384 -0.54148525 -0.42699787
000300 ce b7 60 bc 4d 85 23 c1 93 39 a3 bd 5e 08 61 c0
       -0.013715697 -10.220044 -0.07969966 -3.5161357
000310 1a ef 6a bd 2e 37 0c c0 dc 19 98 bd 2d 15 cc bf
       -0.05735693 -2.190868 -0.07426807 -1.5943962
000320 b5 94 18 3e a4 03 a3 3f f7 25 4f 3e 8e b0 8a 3f
       0.14900477 1.2735486 0.20229326 1.083513
000330 dc d2 8e 3e 64 6f 5b 3f 05 07 11 bf 70 db bc be
       0.27895248 0.85716844 -0.56651336 -0.36886168
000340 f1 cb 33 be 20 58 25 c1 11 8b 01 be b9 7b 66 c0
       -0.17558266 -10.334015 -0.12650706 -3.6013014
000350 93 52 48 be 29 89 04 c0 2d 22 4a 3c 4d 8e c0 bf
       -0.1956275 -2.0708716 0.01233725 -1.5043427
000360 fc 48 50 3e f7 a5 b3 3f 17 e2 91 3e 35 f5 97 3f
       0.20340341 1.4035023 0.28492805 1.1871706
000370 ec 0f d3 3e 5a 5d 7c 3f 67 03 ef be c3 da f0 be
       0.41223085 0.98579943 -0.46682283 -0.47041902
000380 b1 cb 7d bd 17 55 22 c1 bb b2 63 be a9 5e 5a c0
       -0.061961833 -10.145774 -0.22236149 -3.4120276
000390 2b 41 2b bd cc 10 12 c0 4d ac b1 bc b6 e5 d9 bf
       -0.041810196 -2.2822752 -0.021688605 -1.7023227
0003a0 9e 45 89 3e 15 5d b5 3f a0 29 4a 3e d9 51 7d 3f
       0.26810926 1.4169031 0.19742441 0.98953015
0003b0 ce b6 c9 3e 8e 48 51 3f 57 15 1f bf 67 20 1a bf
       0.3939728 0.81751335 -0.62141937 -0.6020569
0003c0 e3 83 bf 3d f4 50 23 c1 37 a3 fb bc cc 60 60 c0
       0.09351327 -10.207264 -0.030717475 -3.505908
0003d0 25 2f b7 bc b1 f2 07 c0 af 4d 96 bb f1 f1 d4 bf
       -0.022361347 -2.1241877 -0.0045868973 -1.6636335
0003e0 45 28 d2 3d 0c 7b 9c 3f 77 c8 80 3e 83 35 96 3f
       0.10261587 1.2225051 0.25152943 1.173508
0003f0 5c a0 c8 3e ef e1 43 3f c4 da fa be b1 a1 a8 be
       0.39184844 0.7651662 -0.4899503 -0.3293586

encoder.latent.backbone.c_layers.0.layer.kernel.kernel.P f4 [1, 16, 8, 2]
000000 ac 08 86 bc de 4f e7 c0 a9 3f 03 bd ac 07 1e c0
       -0.016361557 -7.2284994 -0.032043133 -2.4692183
000010 fd 0a 7c bd 83 ba c5 bf 65 9a 8a bd 88 e6 93 bf
       -0.061533917 -1.5447544 -0.0676773 -1.1554728
000020 de 16 a3 3d 20 2e 7c 3f b5 e9 06 3e b9 6d 3a 3f
       0.07963346 0.9850788 0.1317509 0.72823673
000030 81 1d 75 3e 0b a4 0b 3f e5 2f aa be 4b 8d 83 be
       0.23937036 0.54547185 -0.33239666 -0.25693735
000040 3a 91 fc bd 9e 03 e9 c0 9c 98 4e bc 5b d9 20 c0
       -0.12332387 -7.2816916 -0.012609627 -2.5132663
000050 d8 ce 8b bd 50 20 be bf c2 33 fc bc d5 88 9e bf
       -0.06826562 -1.4853611 -0.030786399 -1.2385508
000060 3c ae 35 3e 45 ce 71 3f f0 f3 87 3d b8 e6 5d 3f
       0.17742246 0.9445537 0.06638324 0.86680174
000070 72 d0 03 3e f9 76 22 3f 01 53 a4 be 89 99 57 be
       0.12872484 0.6346279 -0.32094577 -0.21054663
000080 84 a9 55 3d 7b 8c e7 c0 80 47 ee 3c 59 a5 1c c0
       0.052163616 -7.2358985 0.029086828 -2.447592
000090 1b c1 9f bd 4e 09 c1 bf f3 04 be bd c9 79 95 bf
       -0.07800504 -1.5080965 -0.09278288 -1.1677791
0000a0 2b 6e be 3d b9 c8 74 3f 71 c5 26 3e 23 78 2d 3f
       0.092983566 0.9561878 0.16286255 0.6776144
0000b0 f7 0e 05 3e fc 8b 09 3f a0 54 f9 be f9 ed 33 be
       0.1299399 0.53729224 -0.48697376 -0.17571248
0000c0 ed 6a 02 bd 87 e2 de c0 3a 1d bf bd d5 6f 1a c0
       -0.031840254 -6.9651523 -0.093317464 -2.4130757
0000d0 fb 44 25 3e db c3 c1 bf 71 a0 13 bc d3 00 98 bf
       0.16139595 -1.5137895 -0.00901042 -1.1875252
0000e0 0f 07 8d bd c0 ce 65 3f 03 40 2d 3e 2b c5 0a 3f
       -0.06886112 0.897686 0.1691895 0.54207104
0000f0 f2 23 0a 3e 0c 51 12 3f a0 5c f1 be cc 83 0a be
       0.13490275 0.5715492 -0.4714098 -0.13526839
000100 41 65 06 be b1 3c e9 c0 09 99 21 be c2 98 23 c0
       -0.13124563 -7.2886586 -0.15781035 -2.5561986
000110 0e 7f 3d 3d 2e 6e c4 bf 04 f7 2b be ba dc 9c bf
       0.046263747 -1.5346124 -0.16793448 -1.225486
000120 b7 51 94 3c 06 59 81 3f fa 6e 07 3d 40 79 5d 3f
       0.01810537 1.0105293 0.03306482 0.8651314
000130 95 50 9d 3e 8c e2 fe 3e 16 b5 fe be 69 91 ae be
       0.30725542 0.49782217 -0.49747533 -0.34095314
000140 86 54 f3 bd c8 b7 e9 c0 73 91 ef 3c 77 87 20 c0
       -0.11881356 -7.303684 0.02924416 -2.508268
000150 ab 7e f1 bd 69 49 bb bf ee 00 9e bd bf db 99 bf
       -0.11791738 -1.4631778 -0.07715021 -1.2020186
000160 d8 8b ff 3c e1 78 52 3f 3e c5 36 3e af 89 4f 3f
       0.031194612 0.82215697 0.1784868 0.81069463
000170 ef 06 87 3e 4c 5a 0b 3f 35 67 b4 be 4a 3c aa be
       0.26372477 0.5443466 -0.3523499 -0.33249122
000180 8c 5d f5 bd e6 5f e4 c0 8b a1 1d be 6c 25 20 c0
       -0.11980733 -7.1367064 -0.15393655 -2.502284
000190 fd 27 1d be d9 ad b8 bf 5f 18 73 3c 33 87 8a bf
       -0.15347286 -1.4428054 0.0148373535 -1.082251
0001a0 f5 ba 8a 3e 73 79 7e 3f 95 7a 64 3e 24 ba 22 3f
       0.27095762 0.99404067 0.22312386 0.6356528
0001b0 ae 8c 07 3e d7 a9 33 3f 12 c1 a1 be 14 88 cd be
       0.13237259 0.7018103 -0.31592613 -0.40142882
0001c0 7f b1 dc 3d a6 3d ea c0 e9 1b 5c be c3 0a 15 c0
       0.10776042 -7.3200254 -0.21495022 -2.3287818
0001d0 dc c8 29 3e e6 61 e4 bf 48 40 22 3e 35 6e 66 bf
       0.16580528 -1.7842376 0.15844834 -0.9001191
0001e0 1d 38 97 3e 88 f0 2a 3f a1 ed de bd 2d f3 08 3f
       0.29535 0.6677327 -0.10885168 0.53496057
0001f0 5e f5 b1 3e 07 36 5a 3f e0 76 2b be 6e 41 f6 bc
       0.34757513 0.8523869 -0.16744566 -0.030060496
000200 25 5e 02 3e 1a bd e2 c0 76 b0 3f be d6 55 23 c0
       0.12731226 -7.0855837 -0.18719658 -2.552114
000210 2b ee 4c be 57 3d ba bf 19 60 46 be 00 32 78 bf
       -0.20012729 -1.454997 -0.19372596 -0.96951294
000220 70 68 95 bd 42 5e 47 3f ba 75 60 bc 3b 9a 15 3f
       -0.072953105 0.778782 -0.013699943 0.5843846
000230 33 53 98 3e d8 36 d9 3e fa ec 14 bf ee 6b d6 be
       0.29750976 0.42424655 -0.581741 -0.4187922
000240 d0 56 a7 3d 92 33 e4 c0 c8 69 1f 3d dd 3d 27 c0
       0.08170855 -7.131295 0.03891924 -2.6131508
000250 63 f3 43 3c f4 a8 b7 bf 74 6b 3c be 1d b4 96 bf
       0.011959883 -1.4348435 -0.18400365 -1.1773716
000260 12 8b 9e 3d 48 1f 4f 3f 28 cd 54 3e 9f aa 23 3f
       0.07741369 0.80907106 0.20781386 0.6393222
000270 d4 b1 ac 3e 1b 1f 31 3f 24 c6 8a be d3 29 28 be
       0.33729422 0.6918809 -0.27104294 -0.16422205
000280 8e 85 c9 bd 6b aa e8 c0 77 f5 87 bc 3e 44 21 c0
       -0.09839927 -7.270803 -0.016596539 -2.5197902
000290 dc e4 ef bd b5 2e ca bf 8e a9 ff bd c5 08 99 bf
       -0.11713573 -1.5795504 -0.12483512 -1.1955801
0002a0 1a c7 10 3e 97 7b 54 3f ac 6c 9d 3d d1 ba 54 3f
       0.14138451 0.83001083 0.07686743 0.8309756
0002b0 ed 8a a9 3e 33 d6 28 3f 60 58 a2 be eb 14 7a be
       0.33113804 0.6595184 -0.3170805 -0.24422042
0002c0 7f 72 3a bc 1d 0b e6 c0 8a 77 c9 3a 1b 3c 1b c0
       -0.011379837 -7.1888566 0.0015370708 -2.4255435
0002d0 ae 81 ca bd 42 21 c6 bf 07 6f c9 bd 7a 4c 8c bf
       -0.09888016 -1.54789 -0.0983563 -1.0960839
0002e0 61 de 7e 3d eb f1 72 3f 56 4f ca 3d b7 0b 49 3f
       0.062223796 0.9490039 0.098784134 0.785335
0002f0 e8 9e 44 3e 28 02 0f 3f be 76 e1 be 44 db 91 be
       0.19201243 0.55862665 -0.44035906 -0.284876
000300 a1 7f b4 bd 34 00 e9 c0 43 dc 34 bd 38 c3 1c c0
       -0.08813406 -7.281275 -0.04415537 -2.4494152
000310 40 75 92 bd 16 31 c8 bf b3 de 4d bd 9d 21 93 bf
       -0.0715127 -1.563998 -0.05026121 -1.1494633
000320 26 f4 b0 3d 82 49 6e 3f c5 8e 0c 3e 6f 17 39 3f
       0.086403176 0.93080914 0.13726337 0.7230138
000330 bd 1e 7e 3e 6f 29 19 3f 25 a1 cd be c8 b3 a0 be
       0.24816413 0.5982885 -0.40162006 -0.31387162
000340 ff 23 42 3d 42 83 e3 c0 63 8f 08 be ca d3 16 c0
       0.04739761 -7.1097727 -0.13335948 -2.3566766
000350 6c ad 7e 3d 85 b6 b9 bf 5d 87 fe bd f8 f0 9f bf
       0.062177107 -1.4508826 -0.12428162 -1.2495413
000360 38 7a c0 3d a3 cd 4e 3f af 98 62 3d 89 9f 22 3f
       0.093983114 0.80782527 0.05532139 0.6352468
000370 60 55 02 3e 73 25 f4 3e 21 61 01 bf e9 3d c2 be
       0.1272788 0.4768482 -0.5053883 -0.3793786
000380 46 5a ca bc f1 bb e6 c0 74 a2 d2 3d ce 43 1b c0
       -0.024701249 -7.210442 0.10284892 -2.4260135
000390 3c 24 e8 bd 1f 62 af bf e4 0a 1b be f4 6f 84 bf
       -0.11335036 -1.3701819 -0.15140873 -1.0346665
0003a0 f4 84 f7 3a 3b 65 47 3f cc e9 46 3d a8 ad 45 3f
       0.0018884228 0.7788884 0.04856281 0.77218103
0003b0 b8 47 0f 3e bf 46 de 3e a1 06 c2 be 14 0a 39 be
       0.13992202 0.4341335 -0.37895682 -0.18070251
0003c0 9a 88 10 be f1 fa e7 c0 01 fb ee bd a7 a6 1f c0
       -0.1411461 -7.2493825 -0.11668969 -2.4945467
0003d0 ce dc 2d be 37 f6 cc bf 98 4c 05 be 36 ac 88 bf
       -0.16978762 -1.6012639 -0.130175 -1.0677555
0003e0 33 ae 12 3d d2 73 7d 3f 15 80 6f 3d a6 a8 2b 3f
       0.03581066 0.9900485 0.058471758 0.6705421
0003f0 3f 74 08 3e 5d 19 2e 3f 21 82 ea be e4 d0 bc be
       0.13325594 0.6800745 -0.45802405 -0.3687812

encoder.latent.backbone.c_layers.0.layer.kernel.kernel.inv_w_real f4 [16, 8]
000000 2b d5 2e bf 53 ff 2d bf 41 37 2f bf 8a 9d 2c bf
       -0.6829402 -0.6796772 -0.68443686 -0.67427886
000010 0b 16 1f bf 2c 86 38 bf ca 53 2c bf f7 28 41 bf
       -0.6214301 -0.7207973 -0.6731535 -0.7545313
000020 1e 35 2e bf 9b 4d 26 bf 17 2c 3e bf ac c4 16 bf
       -0.680498 -0.64962167 -0.74286026 -0.5889385
000030 0c 59 23 bf 05 fb 09 bf d2 b5 3b bf b4 bd 47 bf
       -0.6380775 -0.5389865 -0.7332431 -0.7802384
000040 92 42 29 bf 71 3b 32 bf 74 e0 36 bf d0 ef 28 bf
       -0.66117203 -0.6962195 -0.7143624 -0.65990925
000050 d4 52 22 bf c6 be 48 bf 54 c2 4a bf fc 21 50 bf
       -0.63407636 -0.784161 -0.7920277 -0.81301856
000060 7f b4 74 bf 72 23 3a bf 96 c9 35 bf 35 38 22 bf
       -0.95587915 -0.72710335 -0.7101072 -0.63367015
000070 c7 60 39 bf 62 92 2c bf a7 2a 40 bf f3 47 27 bf
       -0.72413296 -0.6741086 -0.7506508 -0.6534416
000080 85 c0 4f bf 56 16 1a bf e4 b8 42 bf c1 c8 19 bf
       -0.81153136 -0.6019033 -0.7606337 -0.6007195
000090 ed c9 17 bf c8 72 42 bf 9e e7 48 bf fe 12 38 bf
       -0.5929249 -0.7595639 -0.7847842 -0.7190398
0000a0 e9 8f 29 bf 48 12 2b bf 66 c5 41 bf c7 29 22 bf
       -0.66235214 -0.6682477 -0.7569183 -0.63345
0000b0 77 33 40 bf 88 a3 23 bf e5 09 3d bf 8e e7 23 bf
       -0.7507853 -0.63921404 -0.7384322 -0.640252
0000c0 b0 f6 46 bf 17 e2 27 bf 91 35 4a bf 77 b6 41 bf
       -0.77720165 -0.6557936 -0.78987986 -0.75669044
0000d0 9d ea 19 bf d6 66 4d bf 3b 33 13 bf 28 07 14 bf
       -0.60123616 -0.8023504 -0.57500046 -0.5782342
0000e0 b4 f5 18 bf c3 fa 57 bf 64 63 e4 be 1d 06 6c bf
       -0.59749913 -0.84367007 -0.4460708 -0.9219683
0000f0 29 f9 4d bf 7f 0a 6f bf 37 b8 de be 74 56 75 bf
       -0.80458313 -0.9337539 -0.4349992 -0.9583504
000100 e1 5a 4f bf ba 1b 1f bf cf 3a 3f bf ec c0 5b bf
       -0.80998045 -0.6215168 -0.7469911 -0.8584125
000110 2a 20 5b bf d3 75 5c bf 21 87 5a bf 18 c5 22 bf
       -0.85595953 -0.86117285 -0.8536244 -0.6358199
000120 ff 66 47 bf b3 fe 0e bf e9 19 4a bf 30 1f 1e bf
       -0.77891535 -0.5585739 -0.78945786 -0.6176634
000130 10 e9 4b bf de 6c 4e bf 7a df 15 bf c3 5e 56 bf
       -0.796525 -0.8063487 -0.58544123 -0.83738345
000140 bc 72 29 bf 48 fb 23 bf d3 76 26 bf 06 3d 2d bf
       -0.66190696 -0.640553 -0.6502506 -0.6767124
000150 8a d9 42 bf 80 c0 15 bf 7b 89 1d bf 73 58 49 bf
       -0.7611319 -0.58496857 -0.61537904 -0.7865059
000160 9c db 33 bf bd 53 3b bf 63 71 2b bf 6e 9f 3c bf
       -0.7025697 -0.7317465 -0.6696989 -0.7368077
000170 ce 47 27 bf fd 63 29 bf c7 10 39 bf 49 38 12 bf
       -0.6534394 -0.66168195 -0.72291225 -0.57117134
000180 75 66 23 bf 25 2f 34 bf e7 39 2b bf e8 a9 2e bf
       -0.6382821 -0.70384437 -0.66885227 -0.68228006
000190 7c 92 2d bf 78 7f 39 bf 14 71 2f bf 61 be 2a bf
       -0.6780164 -0.72460127 -0.6853192 -0.66696745
0001a0 91 ea 4e bf 45 a6 4c bf 05 5d 35 bf 79 65 14 bf
       -0.8082667 -0.7994121 -0.7084506 -0.57967335
0001b0 ab f4 49 bf 39 81 4c bf d4 15 4d bf d1 91 2d bf
       -0.7888896 -0.7988468 -0.8011143 -0.67800623
0001c0 df 13 20 bf e0 65 23 bf 5e d3 35 bf 1c 2b 43 bf
       -0.6253032 -0.63827324 -0.71025646 -0.76237655
0001d0 45 8e 5a bf 01 fa 23 bf 6a 85 48 bf e0 6a 32 bf
       -0.85373336 -0.6405335 -0.78328574 -0.6969433
0001e0 83 01 2a bf 6f c3 2b bf d1 df 1e bf 90 d1 45 bf
       -0.66408557 -0.67095083 -0.62060267 -0.7727289
0001f0 b4 59 1a bf 38 8d 4a bf b6 da 33 bf 48 b9 1d bf
       -0.60293126 -0.7912173 -0.702556 -0.6161084

encoder.latent.backbone.c_layers.0.layer.kernel.kernel.w_imag f4 [16, 8]
000000 dd 00 a2 c2 8d 2e cd c1 d9 80 5d c1 7d d7 05 c1
       -81.001686 -25.64773 -13.843957 -8.365109
000010 4c 61 a3 c0 3a 7b 39 c0 3f 96 ab bf c7 4c d1 be
       -5.105627 -2.8981462 -1.3405226 -0.4087889
000020 f7 d3 a1 c2 f1 40 cd c1 22 6f 5d c1 0d 8e 06 c1
       -80.913994 -25.65671 -13.839632 -8.40968
000030 7c c5 9f c0 fc 9b 3e c0 16 7a bb bf 9d 30 b9 be
       -4.992857 -2.9782705 -1.4646633 -0.36169901
000040 00 fd a1 c2 34 9a cd c1 d7 f8 5c c1 c2 e1 05 c1
       -80.99414 -25.700294 -13.810752 -8.367617
000050 7f 38 a4 c0 c9 40 34 c0 ca d2 b6 bf f8 d9 76 be
       -5.1318965 -2.8164542 -1.4283078 -0.24106586
000060 e5 96 a1 c2 3b 9e cb c1 1a 3e 61 c1 91 da 06 c1
       -80.794716 -25.452261 -14.0776615 -8.428361
000070 1c 68 ab c0 00 5a 31 c0 df a6 bc bf d3 83 85 be
       -5.3564587 -2.7711182 -1.4738425 -0.26077136
000080 40 be a1 c2 c1 15 cc c1 92 e7 5e c1 a8 16 04 c1
       -80.87158 -25.510622 -13.931536 -8.255531
000090 ed 4f a5 c0 e2 c3 3e c0 ef 94 a2 bf 2e 46 84 be
       -5.1660066 -2.9807057 -1.2701701 -0.25834793
0000a0 e9 ca a1 c2 d6 a0 cd c1 0c 2c 5c c1 ec 56 06 c1
       -80.89631 -25.703533 -13.760754 -8.396221
0000b0 d5 9e a4 c0 16 8e 36 c0 74 28 a9 bf 6e 33 c9 be
       -5.1443887 -2.8524222 -1.321547 -0.3929705
0000c0 b3 cf a1 c2 5e 49 cc c1 e7 df 5b c1 b0 1f 07 c1
       -80.90566 -25.535824 -13.742164 -8.445236
0000d0 5b 3d 9d c0 5b e8 31 c0 72 85 bb bf 3b 90 d5 be
       -4.9137397 -2.7798069 -1.4650099 -0.41711602
0000e0 18 ab a1 c2 02 f2 cb c1 54 7f 60 c1 c1 da 05 c1
       -80.83417 -25.493168 -14.031086 -8.365907
0000f0 ae 89 9a c0 d9 32 37 c0 c0 3b 9d bf c5 92 fa bd
       -4.8293066 -2.8624785 -1.2283859 -0.12235025
000100 93 32 a2 c2 4b c1 cb c1 e8 c2 5a c1 8b 23 03 c1
       -81.09878 -25.469381 -13.672585 -8.1961775
000110 b2 c0 a6 c0 0a bd 30 c0 e2 96 96 bf a2 16 28 be
       -5.2110224 -2.761538 -1.1764796 -0.16414884
000120 50 34 a2 c2 ed ac cd c1 14 97 5c c1 d7 12 04 c1
       -81.10217 -25.709436 -13.786884 -8.2546
000130 20 2d a0 c0 0f d3 32 c0 e3 18 9e bf 9f 42 96 be
       -5.0055084 -2.794132 -1.2351345 -0.29347703
000140 69 d4 a1 c2 7b 49 cd c1 f9 6b 5c c1 74 b3 04 c1
       -80.91486 -25.66088 -13.7763605 -8.293812
000150 02 20 a1 c0 bc 07 3d c0 4e 8a a0 bf 31 85 d2 be
       -5.035157 -2.953597 -1.2542207 -0.41117242
000160 f7 fe a1 c2 ce c5 cd c1 5f 98 5c c1 b6 26 05 c1
       -80.99798 -25.721584 -13.7872 -8.321951
000170 a1 e0 a3 c0 3b 93 3b c0 0d a3 af bf 8e 5e aa be
       -5.1211705 -2.9308612 -1.3721634 -0.33275265
000180 ba e3 a1 c2 4e aa cc c1 b3 1e 5d c1 31 1d 06 c1
       -80.94478 -25.583157 -13.819995 -8.382127
000190 5e c8 a2 c0 1e 7a 38 c0 c1 a7 ac bf 7c 67 c3 be
       -5.086959 -2.8824534 -1.3488694 -0.3816489
0001a0 25 fb a1 c2 19 2c cc c1 4c 1c 5f c1 5f be 04 c1
       -80.99052 -25.521532 -13.944408 -8.296477
0001b0 03 ef 9e c0 67 f3 32 c0 f0 68 a8 bf fe 5d 87 be
       -4.966676 -2.796106 -1.3157024 -0.26438898
0001c0 27 35 a2 c2 e3 1a ce c1 8c 0d 5c c1 b6 3c 04 c1
       -81.10381 -25.763128 -13.753307 -8.264822
0001d0 79 a7 a2 c0 d7 4b 44 c0 ef dc b2 bf 4c e8 53 be
       -5.0829434 -3.067129 -1.3973674 -0.20694083
0001e0 dd e7 a1 c2 48 96 cc c1 95 f7 5a c1 1f 6f 04 c1
       -80.95286 -25.57338 -13.685445 -8.277129
0001f0 02 53 a5 c0 9d 75 38 c0 f0 74 b9 bf 8f 8d 9e be
       -5.166383 -2.8821785 -1.4488811 -0.30967376

encoder.latent.backbone.c_layers.0.layer.output_linear.0.weight f4 [32, 16, 1]
000000 19 53 b8 3d 76 9a 59 be fe c0 35 be ce fe 87 3d
       0.090002246 -0.21250328 -0.17749402 0.06640397
000010 9d 82 7d 3a 04 96 bc 3c ce 27 72 3d 97 c6 1e 3e
       0.0009670647 0.023020752 0.059119992 0.15505444
000020 88 1a 4e 3d f8 ba 2c 3e 80 4d 58 be d4 f6 48 3e
       0.05031827 0.16868198 -0.21123314 0.19625407
000030 da e5 0d be f0 09 90 bd bb d4 9a bc d3 e6 d3 3c
       -0.13857213 -0.070331454 -0.018900266 0.025866902
000040 e9 ff 8d be d7 ba c2 bd a6 b4 0c be 57 75 42 be
       -0.27734306 -0.09508293 -0.13740787 -0.18990074
000050 7a 96 54 3e 83 1d e3 3d 44 64 12 be 21 ed d0 3d
       0.20760527 0.11089613 -0.14296061 0.10201479
000060 12 66 52 bd a4 5b 17 3e ab fd 88 bb 70 b5 60 be
       -0.051366873 0.14781052 -0.00418063 -0.21944213
000070 cd e5 67 3e b4 ce 14 be 7f f5 17 3e 9c aa 16 be
       0.22646256 -0.14531976 0.14839743 -0.1471352
000080 8b 6f 2d be 79 ff 98 3d e5 c6 cc bc b7 9b 30 be
       -0.16937082 0.074706025 -0.024997184 -0.172469
000090 98 18 83 bc 04 1a 6f 3e 9f c5 6b 3e a6 59 94 be
       -0.016002938 0.23349768 0.23024605 -0.28974646
0000a0 56 dd f5 bd 41 95 88 3e 0a dc 27 3e fd e3 44 be
       -0.12005107 0.26676372 0.16392532 -0.19227596
0000b0 ee 57 90 be 1d cd 13 be 36 05 2b 3e 05 77 8f 3e
       -0.28192085 -0.14433713 0.16701207 0.28020492
0000c0 92 eb 95 bd 2b d8 f9 bd f5 6b 6b 3d fd 46 4b 3d
       -0.07320322 -0.12199434 0.057476003 0.049628247
0000d0 a5 9c 53 3e ba d4 8c be eb bd 6f bd 5d 7b 4f be
       0.20665224 -0.27506047 -0.05853073 -0.20261903
0000e0 da b5 d6 bd 34 9f f6 bc a4 c0 0a 3e 82 01 a6 bc
       -0.10483904 -0.03010521 0.13550049 -0.02026439
0000f0 e3 4d 83 bd f1 38 13 bd c4 34 4a 3e 25 47 89 be
       -0.0641134 -0.035942975 0.19746691 -0.2681209
000100 58 12 f9 3b a0 d6 ab 3d 5a 80 3d 3e 38 fb ab 3d
       0.0076010637 0.08390546 0.18505993 0.083975255
000110 c6 1e a9 bc bc bf 1b 3e 51 03 41 be a3 9e 3c be
       -0.020644557 0.1520986 -0.18848921 -0.1841989
000120 6b bc 8a 3e 69 0b 69 be 9a 9d 3e be c8 aa 15 be
       0.27096877 -0.22758259 -0.18614808 -0.14615929
000130 a5 1f ee 3d 4a 38 61 3e c2 89 c2 bd f5 1c 87 3c
       0.116271295 0.21994129 -0.094989315 0.0164933
000140 9d ce 51 3e 14 be d0 3c 2a a1 08 3e f6 cc 51 3e
       0.20488973 0.025481261 0.13342729 0.20488343
000150 cf eb ac bd c8 83 8f 3d 4a db c6 3c 1c 34 84 be
       -0.084434144 0.07007557 0.024274487 -0.25821006
000160 d2 0f 36 3e f6 9a e6 3c f4 d0 3a bd e8 20 2f 3e
       0.17779472 0.028150063 -0.04560943 0.17102396
000170 e3 39 57 bd 60 26 6b bb 15 1d 13 3d 50 75 ad 3d
       -0.05254544 -0.0035881028 0.035916407 0.08469641
000180 ae e1 40 3c b1 76 be 3d 48 49 d3 bd 85 75 87 3e
       0.011772556 0.09299982 -0.10316712 0.26456848
000190 03 fb 21 3e bd 92 5a 3e 20 94 a1 3c ba 77 72 3e
       0.1581841 0.21345039 0.019723952 0.23678485
0001a0 a7 40 3b bd 08 b5 59 be 52 ad 1f be 4a 12 45 be
       -0.045715954 -0.21260464 -0.1559346 -0.19245258
0001b0 43 13 90 3a bb 0e 07 3e 4b ce af ba ef 75 c5 3d
       0.0010992069 0.13189213 -0.001341292 0.09641635
0001c0 6f 83 a2 3b 53 fc 22 be 3d 69 38 be f4 78 a9 3d
       0.0049595158 -0.15916567 -0.18008895 0.08275023
0001d0 81 2f 3d 3e da a6 70 be ae b0 9a bd 23 19 a5 3d
       0.18475153 -0.23501149 -0.0755323 0.08061435
0001e0 8f 43 71 bd 69 83 8a bc aa e0 81 be b3 60 1a 3e
       -0.05890232 -0.016908364 -0.25366718 0.1507595
0001f0 b1 26 4c be 6c 72 28 3d 5e e7 1d 3e 72 13 47 3d
       -0.19936635 0.041124746 0.15420291 0.04860253
000200 48 4c 17 bd 38 1b 5d bd 16 40 3b 3e a2 67 4f 3e
       -0.03693798 -0.053981036 0.18286166 0.20254377
000210 e1 ec 5a 3e 06 e8 ab bc 8e fe 5a 3c ac ec b4 3d
       0.21379425 -0.02098466 0.013366355 0.08834204
000220 33 22 32 3e 80 68 f7 bd cc c5 71 3e 1d 4b 60 be
       0.17395858 -0.12080479 0.2361061 -0.21903653
000230 17 a1 c6 3d a1 88 ff bd 88 15 78 be d9 79 64 be
       0.09698694 -0.12477232 -0.24226964 -0.22312106
000240 83 f5 f8 bd 01 f2 ff 3d aa 53 d8 3d 34 b1 3c 3e
       -0.12156203 0.124973305 0.10562833 0.18426973
000250 ad 0a 1a 3c ba 0e 81 3e 8f d8 86 3e 00 12 9b 3e
       0.009401959 0.25206548 0.26337096 0.3028717
000260 36 9b 76 be 90 ad 2b 3e 22 0d 0e 3e f6 41 74 3e
       -0.24082646 0.16765428 0.13872197 0.23853287
000270 d7 65 70 3e 74 52 a7 be a6 03 96 3e 78 3b d1 bd
       0.23476349 -0.32680094 0.2929966 -0.10216421
000280 07 24 04 3e ee 24 1b 3e 80 dd 76 3e f1 53 e6 3d
       0.12904368 0.15150806 0.24107933 0.11246479
000290 e5 1c e7 bc 3d bd 1c be d1 7e 0a be ab b4 c5 bd
       -0.02821202 -0.15306564 -0.13524939 -0.096536
0002a0 32 f5 9c bd ca d4 2d 3e 9a 1a 93 bd 9a 02 87 be
       -0.07663955 0.16975704 -0.07182808 -0.26369172
0002b0 46 10 c1 bd d6 02 f6 3c 52 a3 c5 3d be 25 54 3e
       -0.09426932 0.03003065 0.096502915 0.20717523
0002c0 48 cc 82 be 7e d3 15 3d 75 f8 bd bd 12 35 05 3e
       -0.2554648 0.036578648 -0.09275905 0.13008526
0002d0 bc ec a8 3d f6 5d 21 3e d7 ef c2 bc 19 fe bc be
       0.082482785 0.157585 -0.023796005 -0.3691261
0002e0 8e 7d 06 3e 9f 39 98 bd 43 2d 27 be 0b 28 b9 3d
       0.13133833 -0.07432865 -0.1632586 0.09040841
0002f0 12 62 ef bd 64 66 38 3e ea 71 b1 3d f2 bb de 3d
       -0.11688627 0.18007809 0.086643055 0.108756915
000300 d4 6b 25 bd 45 79 d8 bd d1 ab 90 be 58 7e 6e 3b
       -0.040386036 -0.10570005 -0.28256086 0.0036391225
000310 d6 03 a5 bc 5d a3 8c 3d 79 e6 52 3d b0 27 de 3e
       -0.02014343 0.068670966 0.051489327 0.43389654
000320 d0 4d 73 be 29 7d 80 3e 45 87 8f be 0d c6 e4 bd
       -0.23760152 0.2509549 -0.2803289 -0.11170588
000330 c8 9d 74 bd 2d 82 d9 3d e9 6a a6 bb 9d a0 33 be
       -0.059720784 0.10620532 -0.0050786627 -0.17541738
000340 86 95 2f 3d cd 32 96 3c d0 e5 5d be fc d6 fd 3d
       0.042867206 0.01833477 -0.21669698 0.12394521
000350 f5 6c de 3b c8 37 73 bd 61 01 44 3e 93 20 2d 3e
       0.006787891 -0.05937937 0.19141151 0.16906957
000360 40 8e 54 3d 8c 00 36 3d df 32 2a 3e 34 6d b7 3d
       0.051893473 0.044434115 0.16620968 0.08956376
000370 2d d0 53 bd bc bc 3b bd f2 39 25 be 4f 14 84 bd
       -0.051712204 -0.045834288 -0.16135386 -0.06449186
000380 da bb f8 3d a6 f0 c8 3d c7 88 5d bd 5c f4 04 bd
       0.12145205 0.09811525 -0.05408552 -0.0324596
000390 e2 4a d5 3d 83 63 ff 3d e5 97 59 bd 94 6d 9a be
       0.104146734 0.12470152 -0.053123374 -0.30161726
0003a0 b9 a8 2d bd 09 25 32 3d 8e 9e ab 3c 21 ba 28 3e
       -0.042397235 0.04349235 0.020949628 0.16477253
0003b0 d5 17 8b 3d 2f 5d b4 3d e6 9d 5f be 32 54 26 3d
       0.06791655 0.08806836 -0.21837577 0.04060764
0003c0 8f ac bb 3d 1e ae 84 be 7c fb ab 3c ba a4 86 3e
       0.09163772 -0.2591409 0.02099394 0.2629755
0003d0 d3 6c 49 3e de cf 1e 3e dd ac b9 bd e9 ab 4b 3c
       0.1967042 0.15508983 -0.09066174 0.012431123
0003e0 f5 c0 32 3e b2 36 04 be 10 73 3c be 70 89 05 be
       0.1745642 -0.1291149 -0.18403268 -0.1304071
0003f0 1c 6b da bb d7 b4 82 be 0b 43 ac 3d 28 9b ee 3d
       -0.0066656005 -0.25528595 0.08411225 0.116506875

encoder.latent.backbone.c_layers.0.layer.output_linear.0.bias f4 [32]
000000 42 92 96 3e d1 39 3e 3e be df 17 3e 94 08 57 be
       0.2940846 0.18576743 0.14831445 -0.20999366
000010 73 3c 25 3d e0 5f 7e bd e6 c7 c4 bd eb db 68 bc
       0.040340852 -0.062103152 -0.0960844 -0.014212589
000020 67 0d 93 bd 61 20 12 3e 7b 2b 85 be cf bf 5e be
       -0.07180291 0.14270164 -0.26009735 -0.21752857
000030 7f 9d 06 bd 0d cf 0b 3e d8 cc 44 3e 2d 14 84 be
       -0.032865044 0.13653202 0.19218767 -0.25796643
000040 dc cb 98 bc 66 e5 32 3e 8d 6f 14 3d 76 08 7e 3d
       -0.018651895 0.17470321 0.036239196 0.062019788
000050 b5 57 06 3e 9a c4 82 bd 91 b0 b7 bd 5c ee 03 bd
       0.13119395 -0.06385155 -0.08969224 -0.03220974
000060 64 c8 3c 3e 79 37 76 3e 4e 4c 43 be d5 43 62 bd
       0.18435818 0.24044599 -0.19072077 -0.05524047
000070 e2 ff 41 be 8e e9 9f 3d 1d c9 a9 3d a0 c0 0b be
       -0.18945268 0.07808219 0.082903124 -0.136477

encoder.latent.backbone.c_layers.0.norm.weight f4 [16]
000000 f9 23 7f 3f 95 a2 7e 3f da a7 80 3f 0e 15 87 3f
       0.99664265 0.9946683 1.0051224 1.05533
000010 e7 f5 71 3f ec 50 86 3f ff 6d 85 3f b7 54 a1 3f
       0.9451584 1.0493445 1.0424193 1.2603978
000020 21 00 8b 3f 75 e4 89 3f 02 ae 7b 3f a6 23 83 3f
       1.0859414 1.0772845 0.9831239 1.0245254
000030 c9 2c 83 3f b3 25 81 3f 73 b7 75 3f 82 1b 81 3f
       1.0248042 1.008963 0.95983046 1.008652

encoder.latent.backbone.c_layers.0.norm.bias f4 [16]
000000 07 75 8b bc 1c d4 00 3d bc 7f 33 bd 3a ed 35 bd
       -0.017023576 0.031452283 -0.04382299 -0.04441569
000010 c1 ba 40 bd 6a ba c4 bc 10 fb 74 3d 60 b7 0e be
       -0.047053102 -0.02401467 0.059809744 -0.1393714
000020 08 25 a6 3d b8 5b a1 bd dc 64 77 bd 6d 41 d1 3c
       0.08112532 -0.07878822 -0.06039892 0.025543893
000030 06 1e b7 ba e0 9e 35 be 69 7c 45 3d fc 90 92 3c
       -0.001397074 -0.17736387 0.04821435 0.0178914

encoder.latent.backbone.c_layers.1.layer.ff.0.0.weight f4 [32, 16]
000000 44 2a 11 be c3 c6 45 be 4b d4 88 be d1 2f 27 3d
       -0.1417628 -0.19314103 -0.26724467 0.040817086
000010 57 64 c8 bd a9 78 a1 bc cb f7 00 3d 68 28 d8 ba
       -0.09784763 -0.019710856 0.031486314 -0.0016491534
000020 9f 7e 72 bc b7 0a f4 3c 73 8a 42 3e 73 64 7c 3c
       -0.014800697 0.029790265 0.18998127 0.015404808
000030 3d af 70 3d 2b 38 f2 bd fb f5 82 3e 55 a4 0b be
       0.05876087 -0.118271194 0.25578293 -0.13636906
000040 33 93 61 3d b0 2f 85 3d 99 df 5d be 13 f5 5e be
       0.05507202 0.06503236 -0.21667327 -0.21773176
000050 a0 31 d8 3d cc 74 24 3e e4 4a d4 3d 09 cb d8 bd
       0.1055634 0.1606018 0.10365847 -0.10585601
000060 80 29 17 bd b4 a9 f9 3d 6a 7e ae bd 6c 6c 4c bc
       -0.03690481 0.121905714 -0.08520205 -0.012477022
000070 4d 0b 51 3e 01 e0 19 be fc e0 2c be 12 75 7d 3d
       0.20414467 -0.15026857 -0.168827 0.061879225
000080 db d0 3a 3e 60 01 bd bd 2b d2 7e 3c 65 33 53 bd
       0.18243735 -0.09228778 0.015553038 -0.051562686
000090 53 da 32 bd 83 26 0b bd 5a 78 76 3d 30 73 30 bd
       -0.04366524 -0.033972275 0.06017337 -0.0430786
0000a0 b3 ff 78 3e 9e 56 0c 3d 90 d3 78 be d3 71 0c be
       0.24316292 0.034262292 -0.24299455 -0.13715295
0000b0 b3 53 f3 3d 4e e9 13 be 6e e7 9c bc 4b b0 47 be
       0.11881199 -0.14444467 -0.019153323 -0.19500844
0000c0 0d 6f 1b be c3 b7 29 3e 3e f6 00 be 09 11 2a be
       -0.15179081 0.16574006 -0.12593934 -0.16608061
0000d0 00 eb 49 be 85 30 53 be 75 3b c2 bd 07 ac 95 3e
       -0.19718552 -0.20623977 -0.09483997 0.2923281
0000e0 47 de 36 bd 7e 9f be 3e ff 1f 31 be ea 41 22 be
       -0.044645574 0.37231058 -0.17297362 -0.15845457
0000f0 a3 b0 30 3e bf da b9 3c 45 7b a7 be 13 8c 24 3d
       0.17254882 0.022687314 -0.32711235 0.040172648
000100 bf db b8 3d e1 67 2a 3e f1 57 45 3e 7f 64 68 3e
       0.09026288 0.16641189 0.19271828 0.22694586
000110 d7 56 24 be fc e5 75 be 33 39 8a bd 3d 35 87 3d
       -0.16048752 -0.24013513 -0.06749191 0.06601951
000120 54 91 84 be d2 ef 28 be 06 cf 7c 3d a8 79 5d 3e
       -0.25892127 -0.16497734 0.06172087 0.2162844
000130 72 74 7e 3d ce 9d 7f 3e 7e 29 50 be 3d c4 1b be
       0.06212277 0.24962541 -0.20328328 -0.15211578
000140 90 52 69 be d6 9a 08 bc 10 2f 5b be a7 41 45 3d
       -0.22785401 -0.008337697 -0.21404672 0.048158314
000150 34 a0 e1 bd da 4a 84 be bc 71 04 3e 41 0d f7 bd
       -0.110168844 -0.25838357 0.12934011 -0.12063075
000160 24 36 e3 3d 96 7a b9 3d 1f 9e fd 3d 78 c9 28 be
       0.11094311 0.090565845 0.12383675 -0.16483104
000170 b2 72 ca bd 1c 0f 50 3d 64 f1 91 be 96 77 17 3e
       -0.09885158 0.05079566 -0.2850448 0.14791712
000180 e5 c9 b0 3d e6 4f 40 3e 1d 54 aa bd 7b 9e 57 be
       0.08632258 0.18780479 -0.083168246 -0.21056549
000190 dc d5 e4 3d c9 5a 3d 3d 85 3a 35 3e 83 b5 2f be
       0.11173603 0.046229158 0.17698105 -0.17159085
0001a0 3f 2a 53 3e 81 30 40 be 86 0b 52 3e 23 be c2 bb
       0.20621584 -0.18768503 0.20512208 -0.005943076
0001b0 2d 6d a7 bd bd 0a ed 3d 34 c7 4c be e3 4b 5c bd
       -0.081751205 0.11574314 -0.19997865 -0.05378331
0001c0 44 ed bf bd 4b 1b 43 3e 5b 5a 09 3e ce 7c 6d 3d
       -0.09371427 0.1905338 0.13413374 0.05798035
0001d0 8d 60 01 be d0 84 51 be 9a ef 1a be b2 43 10 3e
       -0.12634487 -0.2046082 -0.15130463 0.14088324
0001e0 5f 6d 70 be 7c 2d e3 3d 21 4e 42 be 11 fa 81 3d
       -0.23479222 0.1109266 -0.18975116 0.063465245
0001f0 ee a2 5b bd a7 7e 1c 3e e2 be 4d bd 1e f1 61 3e
       -0.05362218 0.15282689 -0.05023087 0.22064635
000200 18 54 ee 3c 23 f9 82 be af 4f 1f be a4 5d e9 bb
       0.029092833 -0.255807 -0.1555774 -0.0071217585
000210 b6 64 8e 3e eb e0 0f 3e 20 c2 6e bc c0 ba 67 3d
       0.2781121 0.14050643 -0.01457265 0.056574583
000220 8e 2f 96 3e b3 58 42 3e 1e 22 58 bc 31 f0 43 3e
       0.29333156 0.18979149 -0.013191728 0.19134595
000230 fc ee 81 3e c3 0e 56 3d 31 4a 8e 3e 85 13 52 3e
       0.25377643 0.05226017 0.2779098 0.20515259
000240 fb 7c b4 3d 4c 0a 0e 3e 14 bf 53 3e 5c 16 c3 bd
       0.08812901 0.13871115 0.2067836 -0.09525749
000250 d2 f4 9b 3e 05 a3 04 3e 09 0e 52 be 44 99 5b be
       0.3046022 0.12952812 -0.20513166 -0.21445185
000260 a6 4d 17 be ea 8a d6 be a8 1c 39 3e e7 54 63 3e
       -0.14775714 -0.41902858 0.18077338 0.22200356
000270 a4 68 05 3e d9 47 8c be 2f 28 df bd 66 cb 9b bd
       0.13028198 -0.27398565 -0.10896336 -0.076071545
000280 14 77 43 3d 65 a3 07 3d 05 ee 93 3d d9 07 60 3e
       0.047720984 0.03311481 0.07223133 0.21877994
000290 d6 d9 55 3e ef f8 ea bc a3 0d fc 3d 7e d2 73 3d
       0.20883879 -0.028683154 0.123072885 0.059526913
0002a0 ac 5b 67 bd ec 85 6a 3d 9e ae ca bd 43 7e ad bd
       -0.05648391 0.057256624 -0.09896587 -0.08471348
0002b0 d4 42 0c bd 12 27 24 3e ec 87 1c be 3d fa 51 3e
       -0.03424342 0.16030529 -0.15286225 0.20505615
0002c0 28 a4 4b be 3b ca b5 3d 79 b0 0b 3e 9c e0 2d bc
       -0.1988684 0.08876463 0.13641538 -0.010612633
0002d0 56 98 a9 3e e6 47 7f 3e 43 ce 2e 3d a8 7f 05 be
       0.33124036 0.24929771 0.042677175 -0.13036978
0002e0 ee 05 82 3e 8c 11 00 be db 0a 12 3e 05 df 3e 3e
       0.2539515 -0.12506694 0.14261954 0.18639763
0002f0 1f 3d 81 be f2 a3 22 be d2 0e 4d 3d 52 7a 3d 3e
       -0.25241944 -0.15882853 0.050062962 0.18503693
000300 18 df 02 3e 8f fb 50 be 86 d7 a6 3d eb 6d f0 bd
       0.12780416 -0.20408462 0.081465766 -0.11739715
000310 9c 9e 6a 3e ed 37 91 3e 0c 11 e2 bc ec e1 c2 3d
       0.22912067 0.2836298 -0.02759602 0.095157474
000320 63 2d 50 be d5 2a fe bc f4 82 d7 3d 78 3f 8b 3e
       -0.20329814 -0.031026283 0.10523024 0.2719686
000330 97 fb 3c 3d 3a 0a 38 be d8 0b 30 3e 63 d1 5d bd
       0.046138372 -0.17972651 0.17192018 -0.054154765
000340 15 94 8e 3c b5 40 1a be 76 68 9d be 97 c1 fc 3d
       0.017404595 -0.15063746 -0.3074376 0.12341612
000350 04 db ad bc 16 3c 43 be 33 c7 98 3e 16 fb 86 3e
       -0.021222599 -0.1906589 0.29839477 0.26363438
000360 e6 15 bb 3c e1 44 85 3e 39 df 8c 3d 7b f7 4a bc
       0.02283759 0.26029113 0.06878514 -0.0123881055
000370 cb 56 9d be cf fc 80 3e 22 cb 80 be 60 0e 6d bd
       -0.3073028 0.25192878 -0.25154978 -0.057875037
000380 48 7b 08 be 9f a9 b1 bd c1 64 4e be c0 e3 1b 3e
       -0.13328278 -0.08674931 -0.20155622 0.15223598
000390 d8 a9 9e be 70 b1 99 be 1e 95 53 3d 0a 6c a1 3e
       -0.30988955 -0.30018187 0.05165588 0.3152774
0003a0 cf 2a 8f be 10 d9 b8 bd 64 ba 45 bd b2 67 4c be
       -0.27962348 -0.090257764 -0.04827346 -0.19961432
0003b0 c0 1b e3 bd 9d 36 75 3e 1a ff bc 3d c2 27 43 be
       -0.11089277 0.23946615 0.09228344 -0.19058135
0003c0 46 9e 21 3e 6c c3 4c be 52 49 83 3e b0 1b 42 be
       0.15783033 -0.19996423 0.25641876 -0.18955874
0003d0 96 f1 91 3e cd c9 06 3e ba 52 02 3e 38 20 60 be
       0.28504628 0.13162918 0.1272687 -0.2188729
0003e0 7e a8 48 3e f6 83 af bd f1 76 06 3e b1 bb 71 bd
       0.19595525 -0.085700914 0.1313131 -0.059016887
0003f0 dc ab a6 bc 9c 88 c0 bd 0b 41 ea bd db 63 11 be
       -0.02034562 -0.09401056 -0.11438187 -0.14198248

encoder.latent.backbone.c_layers.1.layer.ff.0.0.bias f4 [32, 1]
000000 89 e1 db bd 5b 8d 04 be ef f8 f5 bc 4a f6 00 3e
       -0.10736377 -0.12944548 -0.030025927 0.12593952
000010 2f 22 16 be 57 e4 b3 3b aa f4 27 3e d4 4c a1 3d
       -0.14661478 0.0054898667 0.16401926 0.07875982
000020 a5 5b 08 3e 2b bf 4f 3e 4c 5d 41 3e 7f 3c d8 3c
       0.1331621 0.20287769 0.18883246 0.026396034
000030 b0 d2 62 3e 9c 8a 20 be f0 c9 8f 3e 2c d0 7d 3e
       0.22150683 -0.15677875 0.28083754 0.24786443
000040 32 14 16 3e a5 cb 9f bd 9d fe bf 3d 55 49 fe bd
       0.14656141 -0.07802514 0.093747355 -0.12416331
000050 41 f1 2e be 9b ad 43 be da b2 20 3e 4c 0b 9f bd
       -0.17084219 -0.19109194 0.15693226 -0.077658266
000060 23 ee 81 3e d3 43 76 3d 6a 1f 95 bd 2a dd 0e bd
       0.25376996 0.060123276 -0.072813824 -0.034878887
000070 0a 6f 0a 3e 78 87 d1 bd 4d 79 22 bd b4 31 43 be
       0.1351892 -0.10230917 -0.039666463 -0.19061929
