generative_ts/saves/250925_145223_VRNN_stdY0.01_lmbd_dec/model_VRNN.pth (torch, 50594 bytes, 60 tensors)

phi_x.0.weight f4 [10, 1]
00000000: f03d 20be e1ef 98be 4ff2 8f3e ff10 033f
00000010: 522f d63e a037 4dbf b3d6 503f 8917 8abe
00000020: e0be 18bd 5bd2 203f
-0.15648627 -0.29870513 0.28114554 0.5119781 0.41832978 -0.80163 0.81577605 -0.2697108
-0.037291408 0.62820977

phi_x.0.bias f4 [10]
00000000: 7c73 2abf 85f9 1f3f 6123 113f f363 403f
00000010: 9ffb 353f e852 c43e aefe acbe c9b1 773f
00000020: 8892 2cbe b990 fb3e
-0.66582465 0.6249011 0.5669461 0.7515251 0.7108707 0.38344502 -0.33788055 0.96755654
-0.16852772 0.49133852

phi_x.2.weight f4 [10, 10]
00000000: 9fe8 f1bd 403b aa3d f803 febd 24e3 53bd
00000010: bdbc 933e 4f52 3b3e c6bf 5bbe a384 46be
00000020: c0a0 34be 5891 143c 584e 07be 049a d03e
00000030: 6427 df3e 0c19 193e 8263 db3e 8c01 87be
00000040: e936 983e 1b68 cc3e b5db 593e bd19 70bd
00000050: 2d18 943e f12e fb3e abe3 83be a9e4 a33c
00000060: eddb 23be 15e0 b63e 5429 553e 60e3 553e
00000070: d732 79bd a11e 9f3c 4c91 2c3e 31d5 9f3e
00000080: c3b9 8fbe e79e 2c3e ab7c 94be d5fb e4bd
00000090: b9b7 b0bd b51e 60be 01c9 4b3e 0ca9 b5bd
000000a0: 2118 67be 79da d13d 6151 a63c c63f 5dbe
000000b0: ab4d 23bd 0281 7cbe fa02 62be 0d03 5ebe
000000c0: bc0a 23be fd72 a0be ea9f d53d 43a1 143e
000000d0: fe8f 24bd c5d9 86be d00b 953b d683 5ebe
000000e0: 035b 9abe efe8 533e dffd 78bd 80eb 8abe
000000f0: 44c7 1b3e 1d4f 8cbe 4c28 853e 233d 96bd
00000100: 7084 1dbd a8c4 95be 4093 d03e 79bd 2cbe
00000110: e08b a8bd 1ffb 50bd e8a6 c43d 7198 93bd
00000120: b32d 243d 90ed 113e d9a8 743e a242 8fbe
00000130: 5f6b 0f3f 3238 a53e eac6 5cbe 87c0 cf3e
00000140: b2a2 91be 57c6 bd3e 54a0 6cbe 872d 0d3b
00000150: 97d8 01bd 4389 f13e 300d d7bc 52da 1b3f
00000160: ccc2 753e e049 81be 7f6b fbbc 4ee0 f53d
00000170: 7368 00be f41c 443e d1bd 83be fedc 5cbe
00000180: 7526 193e f1ad 6dbe 7c96 febd 55ab 963d
-0.11811947 0.08312082 -0.12403101 -0.05173029 0.28854933 0.18293117 -0.21459875 -0.19386534
-0.17639446 0.009067856 -0.1321348 0.40742505 0.4358474 0.14950961 0.42849356 -0.26368368
0.29729393 0.39923176 0.21275218 -0.058618296 0.28924695 0.4905925 -0.25759634 0.020006495
-0.16001864 0.35717836 0.20816547 0.20887518 -0.0608395 0.019423785 0.16852301 0.3121734
-0.28071412 0.16857491 -0.29001364 -0.11180846 -0.08628792 -0.21886714 0.19900896 -0.08870134
-0.22567798 0.102467485 0.020302476 -0.21606359 -0.03986899 -0.24658588 -0.22071448 -0.21680851
-0.15922064 -0.3133773 0.10430892 0.14514641 -0.040176384 -0.2633802 0.0045485273 -0.21729979
-0.3014756 0.20694326 -0.060788985 -0.27132797 0.15212733 -0.2740411 0.26007307 -0.0733588
-0.03845638 -0.292516 0.40737343 -0.16869153 -0.08229804 -0.051020738 0.09602147 -0.0720681
0.040082645 0.14250779 0.23892535 -0.27980524 0.5602321 0.32269436 -0.21560255 0.40576574
-0.2844444 0.37065384 -0.23108035 0.002154203 -0.031700697 0.47175035 -0.026251405 0.60880005
0.2400009 -0.25251675 -0.030690907 0.12005673 -0.12539844 0.1915167 -0.25730756 -0.21568677
0.14956076 -0.23210885 -0.12431046 0.07356898

phi_x.2.bias f4 [10]
00000000: f40d 94be 4e00 913e 84a5 843e 6d17 953a
00000010: aec3 0b3e dc81 f4bd 99f3 4c3e 41c7 503e
00000020: c80f 0b3f c9f5 54be
-0.28916895 0.28320545 0.25907528 0.0011374779 0.13648865 -0.11938831 0.200148 0.2038851
0.54320955 -0.20796885

phi_z.0.weight f4 [10, 1]
00000000: 3035 403e d0af febe ac6a 55bf 3407 bbbe
00000010: 801c 7f3f 1ec1 15bf 0995 edbe 6f41 8b3e
00000020: 4ebe 3c3f 20b1 63bd
0.1877029 -0.4974351 -0.83365893 -0.36528933 0.9965286 -0.584978 -0.46402767 0.2719836
0.7372788 -0.05558884

phi_z.0.bias f4 [10]
00000000: 9a4c 413f 057b 053f f3b9 763e 5ba4 553f
00000010: 2edc 283f bd10 2c3f dba8 bcbc 8cd9 51bf
00000020: b95f fabd d236 75bf
0.7550751 0.5214084 0.24094371 0.8345391 0.6596097 0.6721304 -0.023029735 -0.81972575
-0.12225289 -0.95786774

enc.0.weight f4 [10, 20]
00000000: a15d 25be 14dc ce3e 8e1c b03c 04bb f3bc
00000010: 0387 173e 3c03 933d fe9f aa3e c6bb d43e
00000020: 7669 a63e f1f3 1abe 96d6 a0be e5ba c5be
00000030: e132 293e 7d85 a8be 0ae6 993e 1be8 7c3e
00000040: 82cc d4be 9178 71be 00b1 a23e e7a7 8bbe
00000050: 0641 583e 9765 d6bd abd1 0e3e b631 cebd
00000060: 5447 18bd d430 60be fb3e 543d 87b3 953d
00000070: 880b 12be c714 c0bb 15ea 09be e155 053e
00000080: 88b0 3abe c287 503e f082 e73d 6063 c23d
00000090: 20ae 6a3d c02e 68be 1b28 a4bd 11d4 e7bd
000000a0: 5daa 0b3e aa55 5cbe ae78 873d 3153 2d3b
000000b0: 8b9c 143d 3852 0abe c029 d9bd 586a 3bbe
000000c0: 295b 83bb 2443 583d f89f 5a3d f901 28bc
000000d0: deed 40be a3f8 1fbe 3d48 2d3c fba9 94be
000000e0: abd0 dbbc 1e11 0abd 99dc d93c 4aff 84be
000000f0: dd03 94bd 37d3 783e 8803 93bc f9cc 4fbe
00000100: 958c 043e a2e7 c33d 6d33 6f3e 8fd9 973d
00000110: 832a 7abe 3c85 06be 49e7 c03d e19d dfbd
00000120: a5a9 ac3e 9207 6bbe 00fa a03e daa1 783e
00000130: 2742 9bbe 2180 bcbe 39f8 043e 5a69 88be
00000140: 31f7 383e 5e19 d3bd 891f 4a3e 504f 223e
00000150: 35e9 1f3d 77bc f1bd 76cb 8bbe 7c11 a3be
00000160: 51f6 c43e 3d20 2ebd a3a0 c63c 64f3 aebc
00000170: d9b5 703e 5b60 abbd 3c13 a23e 523a 6a3e
00000180: 2163 79be 556e f9bc e283 183e 7c15 c63c
00000190: 8a85 c1bc 61b7 303e 95ac b03e 00ee f3bd
000001a0: 07d4 b43c 0de7 1bbe 574d 96be 4095 a1be
000001b0: d5a0 c43e cd09 1b3e 5325 b7be e9cc c9bd
000001c0: 3e39 88bd 95cf 8ebe f722 263e af55 b63e
000001d0: ba78 8abe e36a 83be 16e8 eabd 8ced ba3e
000001e0: cc3e c13d 5a80 453c 82fe 2a3d 95ba dbbc
000001f0: 49e0 3c3b 561e dc3d 8c8a fabd dc7b 9bbd
00000200: c894 a33c 83c6 3abe 1d58 8a3d 5671 2bbe
00000210: 98a4 19bd 768c 5b3e 1f90 3f3e 80e4 2abd
00000220: 0323 dc3d b080 193d 65a0 dabc 62ac 40be
00000230: ddc1 3d3e 082e 453e 52b8 6bbd 73b0 a63b
00000240: 31e0 22be 7b64 0ebe bf01 e43d cc9f d53e
00000250: 0c34 abbd 7d22 1dbe e695 873d 19a7 8abd
00000260: a87a f0bd 3580 39be 137a 943d 0050 a93d
00000270: 1e48 52be 1f82 533c 7827 f5bc 0961 a0be
00000280: 9dc9 13be c79b 123e d51a 033d 80c9 b0bd
00000290: 3c86 463e 9984 67bc 1cf5 953e dfce b73e
000002a0: 880f 803e 0185 493d adcf 10be 7ed6 c7be
000002b0: fcd1 2a3e 88cc 66be 4fde a0bb 1172 353e
000002c0: 3bbb d5be 83ef 1abd d470 a43e e3e7 9abe
000002d0: a8e6 acbd bcc7 6a3e e4cd 2a3d becf 20bd
000002e0: cdaf 0bbe b225 d0bc 462c ae3c f04e 103e
000002f0: 2fe3 a8bc d87e 8cbd 092d ef3c ace3 19bd
00000300: e66c 143d f85e 98be 13c2 8f3e 29d8 8b3c
00000310: cec8 3fbe f300 40bd f14a 313e c460 65be
-0.16148998 0.4040228 0.021497991 -0.029752262 0.14797597 0.07178351 0.3332519 0.4154951
0.32502335 -0.15132119 -0.31413716 -0.38619152 0.16523315 -0.32914343 0.30058318 0.24697916
-0.41562277 -0.23581149 0.31775665 -0.27276537 0.21118554 -0.104685955 0.1394717 -0.10068075
-0.0371774 -0.21893626 0.051817875 0.07309633 -0.14262211 -0.005861852 -0.13468201 0.13021041
-0.18231404 0.20364287 0.11304271 0.094916105 0.057294965 -0.22674084 -0.08015462 -0.11319745
0.13639207 -0.21517053 0.06614815 0.002644729 0.036282104 -0.13507926 -0.10603666 -0.18302286
-0.00400867 0.052798405 0.053375214 -0.010254377 -0.18840739 -0.15622191 0.010576305 -0.29035935
-0.0268329 -0.03370773 0.026594447 -0.2597602 -0.07227299 0.24299322 -0.01794602 -0.20293035
0.12944253 0.09565665 0.23359461 0.07414543 -0.2443028 -0.13136762 0.09419114 -0.10918785
0.33723179 -0.22952107 0.31440735 0.24280491 -0.30323908 -0.36816505 0.12985314 -0.26642877
0.18063046 -0.10307573 0.19738592 0.15850568 0.039040763 -0.11803525 -0.27303666 -0.31849277
0.38469175 -0.042511214 0.02424652 -0.021356292 0.2350687 -0.08367988 0.316553 0.2287381
-0.24354221 -0.030448118 0.1489406 0.024180166 -0.023623247 0.17257454 0.3450667 -0.11910629
0.022073759 -0.15224858 -0.2935588 -0.3155918 0.38403955 0.15140457 -0.35770664 -0.09853537
-0.06651543 -0.27892748 0.16224276 0.35612246 -0.27045232 -0.25667486 -0.11470048 0.3650936
0.09435806 0.012054527 0.041746624 -0.026822368 0.0028820208 0.107479736 -0.12233457 -0.07591984
0.019968405 -0.18239789 0.067550875 -0.16742453 -0.037510484 0.214403 0.18707322 -0.04172182
0.107488655 0.03747624 -0.02668781 -0.18815759 0.18530984 0.19255841 -0.05754883 0.0050869524
-0.15905835 -0.13905518 0.111331455 0.41723478 -0.083595365 -0.15345187 0.06620388 -0.067701526
-0.11742145 -0.18115313 0.07249846 0.08267212 -0.20535323 0.012909441 -0.029926047 -0.31324032
-0.14432378 0.14317237 0.03200801 -0.08632183 0.19387144 -0.014130735 0.29288566 0.35900018
0.2501185 0.049199108 -0.14141722 -0.39030832 0.16681665 -0.2253896 -0.0049093137 0.17719294
-0.41744408 -0.037826072 0.3211733 -0.3025504 -0.08442432 0.22927755 0.04170026 -0.03926062
-0.13641281 -0.0254086 0.021261346 0.14092612 -0.020616142 -0.06860131 0.02919628 -0.03757064
0.036236666 -0.29759955 0.28077754 0.017070847 -0.18728945 -0.046875905 0.17313744 -0.22400194

enc.0.bias f4 [10]
00000000: 9e23 a23e d815 b3bc eac9 7b3d 4205 a83e
00000010: 54ca 803d a177 353b 14ee 6dbe 288b dd3c
00000020: f004 9b3e 517c 9a3e
0.316678 -0.021861002 0.061471857 0.3281651 0.06288591 0.0027689713 -0.23235351 0.027043894
0.30277205 0.3017297

enc.2.weight f4 [10, 10]
00000000: 4452 343e 4f36 273e d28f ac3c 23df b93c
00000010: e8fa 91be e900 87be acb7 35be 93bd 7bbe
00000020: 7cec b3bd a41b 6bbe ceaa 1f3e 3bfd f93c
00000030: cc5e cdbd 955c 90be 466c 093e a6c7 e63e
00000040: ea85 59be 3fa7 bebd 3ee9 143e 98e6 d0bc
00000050: caa8 e63c 0f6f 7d3e 68ca adbd 625f 2abe
00000060: f799 a93e 7aac bf3e 6e3d 46be 19db 1c3e
00000070: 2cfe fc3d c850 c9bd f5a2 cf3e 5b17 bdbc
00000080: daef 013d f338 ef3e acaf a23e 9641 b43e
00000090: fc90 903e db42 52be 6eb4 cb3d df41 403e
000000a0: 752c c63e 0c83 2abe 078e 02bd 48a0 6f3c
000000b0: a581 b9be 21e0 ccbe 6bca 5b3e 2257 b83e
000000c0: 596e 243e 2a11 e63d 0b0b d3bd 2809 513c
000000d0: 4af2 803d eb7d 25bd 841e eebd ae63 4b3d
000000e0: bc57 463e 893e 913e 862d c6bd 8890 75be
000000f0: 4ae0 8d3d 8e0c 53be b369 a1bc 8b49 d63e
00000100: f77b 19be 9895 fc3c 11dc 823d 79d7 003e
00000110: 61cf f43e 80c4 7e3e abfb 95be dd56 24be
00000120: 39b2 61be 8468 85be 4a24 96be 4a7e d4bd
00000130: 9b8f 9a3d af5c c6bd cdea 3e3e 8442 f0bd
00000140: f410 44be b201 3ebc cb7b 8b3e 20f7 4b3e
00000150: 6c92 7bbe f4ad 30be dfa4 f13d a1d4 6e3e
00000160: 7f57 92be d624 3f3e 257d 983e 19e9 603e
00000170: adf7 dd3d 9e2c fcbd b9e9 c63e 6871 0b3e
00000180: 6e3b 783e 8fa5 f43c 7216 40bb cd35 4f3e
0.17609507 0.16329311 0.021064673 0.022689408 -0.2851174 -0.26367882 -0.17745847 -0.24584036
-0.0878534 -0.22959763 0.155925 0.030516258 -0.10027847 -0.28195634 0.1342021 0.45074195
-0.2124249 -0.093092434 0.145421 -0.02550058 0.028156657 0.24749397 -0.084858716 -0.16637948
0.33125278 0.37436277 -0.19359371 0.15317954 0.12353167 -0.09829861 0.40554014 -0.023082426
0.03172288 0.46723136 0.31774652 0.35206288 0.28235614 -0.20533316 0.099465236 0.18775128
0.38705793 -0.16651553 -0.03187373 0.014625616 -0.36231723 -0.40014747 0.21463935 0.36003977
0.1605772 0.112337425 -0.10304841 0.012758531 0.06296213 -0.040403288 -0.11626914 0.04965561
0.19369406 0.28368023 -0.09676652 -0.23980916 0.06927545 -0.20610258 -0.019703722 0.41852984
-0.14988695 0.03083305 0.063896306 0.12582196 0.47814468 0.24879646 -0.2929357 -0.1604876
-0.22040643 -0.26056302 -0.2932456 -0.1037565 0.07546922 -0.09685647 0.18644257 -0.11731437
-0.19147092 -0.011597084 0.27242884 0.1991849 -0.24567574 -0.17253858 0.11799025 0.23323299
-0.2858238 0.18666396 0.29782978 0.2196392 0.10838256 -0.123131976 0.3885019 0.1361748
0.2424142 0.0298641 -0.0029310253 0.20235367

enc.2.bias f4 [10]
00000000: 3599 2ebe f00e a5bd 4aff c4bd f753 d93e
00000010: 0a08 6e3e 786c b03d bd1a bc3e e961 44be
00000020: 7deb 223d 2070 a1bd
-0.17050631 -0.0805949 -0.09619005 0.42446873 0.23245254 0.08614439 0.3673915 -0.19177975
0.03977536 -0.07882714

enc_mean.weight f4 [1, 10]
00000000: 860d 81be ea05 05bf 7013 a7be 4798 8fbb
00000010: b624 f73e 30b4 89be 5ad4 213e 1cf9 65be
00000020: 36d3 083e 6b99 13be
-0.2520563 -0.5196215 -0.32632017 -0.0043821665 0.48270196 -0.26895285 0.15803662 -0.22458309
0.1336182 -0.14413993

enc_std.0.weight f4 [1, 10]
00000000: eacf 033d 6095 8bbe c70e 6bbc 7b87 acbe
00000010: e189 6cbe 7c6e 96bc 881d e2be db58 9abd
00000020: d3e1 6abb 9e03 93be
0.032180704 -0.27262402 -0.014346785 -0.33697113 -0.23099472 -0.01836323 -0.44163156 -0.07536479
-0.0035840168 -0.28713697

prior.0.weight f4 [10, 10]
00000000: 667b 743e d0ac 10be b8db 04bc 77ce a2bd
00000010: f805 423e 75ea bb3c de5a 68be 6f23 15be
00000020: b6b1 853e ea11 01bf faa2 9fbe 6e12 23be
00000030: 8345 2ebd 49b9 8dbc 9028 793e e728 1c3e
00000040: 8f22 4a3d 5c46 3ebe 0dd7 49be cfd2 183f
00000050: 7b7f 073f af35 40bd cac3 0b3f f014 3d3e
00000060: f2de 0cbe de90 17be e5f5 2dbc 8364 f8bd
00000070: 5588 89bd bf3e 20bf 22ee d13e cc03 a3be
00000080: 5fe8 033d a35f 98be 4461 cb3d 2c51 4ebe
00000090: df66 80be d0de 183d 98d4 d43d a9b9 28be
000000a0: dcea b2be 6de0 67be 141a 5cbe 6f77 ca3d
000000b0: 92e2 87bd e8e9 ce3e eab5 8abe 1a20 18be
000000c0: aa38 dcbc 72e7 0c3f 62de 8ebe 322d 4bbe
000000d0: 8935 ab3c f1bc 80be 43dc 843e f28d 94bd
000000e0: cb5c 693e e8e1 913e b989 693e 3974 ec3e
000000f0: 74f7 39bf d98a 90be 0b72 4b3e c468 92be
00000100: 6423 903e 72ca fb3e 63d0 6d3e 2194 273e
00000110: 87ae 7cbd 02ec ac3e 25d4 e4be 8ed0 bd3d
00000120: 8668 82be 8876 90be 14fa 48be 35e0 d0bc
00000130: 6c75 f2bc e4bf 19be 1f88 a23e 7126 f23e
00000140: 41b6 8a3e 5225 7bbe dc6d 033f ed0f a73d
00000150: 8e87 9c3e 679c 753e 4e4e 0e3e 94c2 983d
00000160: 6290 4d3d abb7 30bf 7284 52bd 62ee 74be
00000170: 2fbf 953d 9d69 30be 10e2 b1bb 283e 7bbe
00000180: bb3f 6b3e 5bf1 5d3d 8dfe e9bc 1969 43be
0.23875198 -0.14128423 -0.008109026 -0.07949536 0.1894759 0.022938946 -0.22690913 -0.14564298
0.26112145 -0.5041796 -0.3117903 -0.15924999 -0.04254676 -0.017300265 0.2433188 0.15249978
0.049349364 -0.18581527 -0.19710942 0.5969667 0.52928895 -0.046926197 0.54595625 0.18465018
-0.13756922 -0.14801356 -0.010617708 -0.12128546 -0.067154564 -0.6259574 0.41001993 -0.31838834
0.03220403 -0.29760465 0.09930661 -0.20148152 -0.25078484 0.037321866 0.103921115 -0.16477074
-0.34944808 -0.22644205 -0.21494323 0.098860614 -0.06635012 0.4041283 -0.27091914 -0.14855996
-0.026882488 0.5504066 -0.2790404 -0.1984146 0.020899551 -0.2514415 0.25949296 -0.072536364
0.22789304 0.28492665 0.22806443 0.4618242 -0.7264321 -0.28230932 0.19867723 -0.28595555
0.28152 0.4917789 0.23224024 0.163651 -0.06168988 0.3377381 -0.44693103 0.09268294
-0.2547037 -0.28215432 -0.19626647 -0.025497535 -0.029597007 -0.15014607 0.31744477 0.47294953
0.27092174 -0.24525955 0.5133951 0.081573345 0.3057217 0.23985444 0.13897058 0.07458988
0.050186522 -0.69030255 -0.05139584 -0.23919061 0.07311856 -0.17227788 -0.00542856 -0.2453543
0.2297353 0.054185253 -0.028563762 -0.1908306

prior.0.bias f4 [10]
00000000: cb75 8a3e 9460 933e e47b a03e 0a97 8b3d
00000010: 2779 0e3e 5cb7 e03d 04c6 80bc 9ac9 b33e
00000020: 0237 653d 7e6c 8abe
0.27042994 0.2878462 0.3134452 0.06815918 0.13913403 0.10972473 -0.015719421 0.35114747
0.055960663 -0.27035898

prior_mean.weight f4 [1, 10]
00000000: bd36 463e 9f0b 09bf 328a 113f d6a5 aa3e
00000010: 20e7 dabe 0551 adbe eae7 0cbf 9a8d b0be
00000020: aae9 a83e 0405 2abe
0.19356818 -0.5353336 0.56851494 0.33329648 -0.4275446 -0.33850875 -0.5504137 -0.34483033
0.32990772 -0.16603476

prior_std.0.weight f4 [1, 10]
00000000: 5aea fabc fbbe e7be e3dc 06be c421 8dbd
00000010: 9dea 82be 1391 053d 893f 0cbf 0a42 0fbe
00000020: b3a6 9cbe eae3 8abe
-0.030629326 -0.45262894 -0.13170199 -0.06891206 -0.2556962 0.032609057 -0.54784447 -0.13990036
-0.3059593 -0.2712701

dec.0.weight f4 [10, 20]
00000000: e7dd 463c 8e51 d2bd 0ae1 8ebc c2bb dc3d
00000010: c53c ab3d 3385 023e 7c1e 31be ac2c 27be
00000020: e9c3 8cbc 56f3 f33d 819c 0d3d bf87 833d
00000030: 8f33 13bc 793b 9d3d 2bdb 2b3e 1356 563e
00000040: 654c b9bc 825a 233e 4610 0d3e de14 5f3e
00000050: 601d 3e3e 3773 283d 264d c9bc 28fd 9bbc
00000060: 2026 28bd 0631 41be a1be abbc 56db 05be
00000070: 12e8 06be f81b 0fbe dab3 22bd f892 58bc
00000080: 3f67 5bbe cb76 40be 28b0 90bd 8775 d33c
00000090: ea17 383e 1478 e5bc 5c96 263e 9e80 debd
000000a0: 2a1f 09bd a6a3 4fbe 3188 6dbd 0215 45be
000000b0: 9f94 4a3e 94a8 1c3e 8b5f b33d 25b9 983c
000000c0: 723a 373b 781c 4e3e 65ce 3bbd ed90 b73c
000000d0: dc07 e8bc c016 b63c 150c 613e 3950 00be
000000e0: 0213 d63d b1f0 2fbe 5f20 d8bb e890 2ebd
000000f0: cb67 bebd 99a9 14be 9945 61be a318 2f3e
00000100: 4049 e73d 9a57 1bbd b16c aa3d 98cb 91bd
00000110: 1d14 21bc 346f 15be 5bec 4fbe 4f8b b13d
00000120: ded9 d8bd 0824 633e 554b 2e3e 4d24 52be
00000130: 583e de3c 6694 b3bd c1e4 fe3d 7127 03be
00000140: bc3d 2ebe 4aba f23d d792 bf3c 418d 64be
00000150: 86be 873d 0b4a a2bd 43fe f03d 77af ffbc
00000160: 178b cb3c 499d e1bd 6a5c 403e 17eb 17be
00000170: 0278 033d 96ce fdbd eee9 97bd 7431 db3c
00000180: a5e7 0a3e f731 083e 8c71 c5bd 206b 54be
00000190: 8ec2 d03d 07d9 e73d 9e4c 103e fa5c b63d
000001a0: 1f32 4e3e 2d38 633a 4199 553b 2f9a d93d
000001b0: b1f9 f7bc c588 33be a37f 02bd 150d 0e3e
000001c0: 1005 1a3d 52dc 2fbd 45d3 2e3e 3ad0 473e
000001d0: 0030 cbbd 3f72 313e e8a5 2b3e 349f 533e
000001e0: 43ce 043e a0e8 14be c4f8 57bd fdfe 21be
000001f0: 86cb e4bd 67e9 02bc 9933 4e3e 264f 083e
00000200: 3213 9c3d 8311 c73d 23c2 6e3d 2a6f b23d
00000210: 8fb3 293c 1475 4d3e 93ce 003e 89c9 8fbc
00000220: c526 25be 0f9d 003e eaaa 5e3e d386 c93d
00000230: 7bb4 39bd 6ba9 eabc 5e88 5bbe 66d2 3a3e
00000240: adfb 3bbe f207 153e 937e 42be 7971 b43c
00000250: 6279 33bc be1f 013e 1213 cabd 0456 903d
00000260: 44fa 03be 1c62 343e 2eec bd3d 3432 a9bb
00000270: 4ca4 4bbe 9452 10be e982 483e cd46 3f3e
00000280: 3272 df3d efef 3abd 4d88 43be 5752 42be
00000290: 16e6 25bc cf28 663d efc7 633e dfff 80bc
000002a0: 1adb 9ebd fe23 aa3d 046c 6d3d 8c02 f7bc
000002b0: ec1d b03d faee fa3d 03b2 3cbe 9d91 4c3e
000002c0: a72f 97b9 7c7c 243d 327e 2f3e e120 0fbe
000002d0: 8b7a b33d a33f 56be 94fd da3b 50af 39be
000002e0: 52c8 583e 8b4c a73d b77e ecbd 2370 543e
000002f0: 9cce cd3d 4bd0 a2bd 4ffa 573e aae7 2dbe
00000300: b6df 1f3e ff8d ff3d 20ed 933d 3e68 3ebe
00000310: 6338 6a3c 1262 a33d 68e4 0cbe b398 55be
0.012137867 -0.102694616 -0.017441291 0.107779995 0.083612 0.12746124 -0.17296785 -0.16325635
-0.017183261 0.11911647 0.034573082 0.06422376 -0.0089844605 0.07677359 0.16782825 0.20931272
-0.022619436 0.15952495 0.13775739 0.21785304 0.18565893 0.041125502 -0.02457292 -0.019041613
-0.041051984 -0.18866357 -0.020964922 -0.13071951 -0.13174465 -0.13975513 -0.0397223 -0.013218634
-0.21426104 -0.18795316 -0.07064849 0.025812877 0.17977872 -0.02801136 0.16268295 -0.108643755
-0.033476986 -0.2027727 -0.05799121 -0.19246295 0.19783257 0.15298682 0.08758458 0.018642971
0.002795842 0.20128047 -0.04585113 0.022407973 -0.02832406 0.022227645 0.21977265 -0.12530603
0.10452844 -0.1718166 -0.006595656 -0.042618662 -0.09297141 -0.14517821 -0.21999206 0.17099242
0.11293268 -0.03792534 0.083215125 -0.071189106 -0.009831456 -0.14593202 -0.20305006 0.08669149
-0.1058843 0.22181714 0.17020924 -0.2052166 0.027129337 -0.08768539 0.12445975 -0.12808014
-0.17015737 0.11851938 0.023385448 -0.22319509 0.06628136 -0.07924279 0.117672466 -0.031211598
0.024846597 -0.11016328 0.18785253 -0.14835773 0.03209687 -0.12392919 -0.074176654 0.02675698
0.13564928 0.1330031 -0.09640798 -0.2074399 0.10193358 0.113206916 0.14091727 0.089044526
0.20136307 0.00086677336 0.0032592567 0.10625111 -0.03027043 -0.17532642 -0.031860005 0.13872178
0.037602484 -0.042934723 0.1707278 0.19513026 -0.09921265 0.17328738 0.16762507 0.206662
0.12969308 -0.14541864 -0.052727476 -0.15819927 -0.111716315 -0.007990218 0.2013687 0.13311443
0.07620849 0.09720137 0.058290612 0.08712609 0.0103577515 0.20064193 0.12578802 -0.017552154
-0.1612807 0.12559913 0.21744886 0.09840169 -0.045338135 -0.028645238 -0.21438739 0.18244323
-0.18357725 0.14553812 -0.18993597 0.022026764 -0.010954233 0.12609765 -0.098669186 0.07047656
-0.12888438 0.17615551 0.09273563 -0.0051634554 -0.19886893 -0.14094001 0.19581188 0.18679352
0.10910453 -0.045638975 -0.19094963 -0.18976723 -0.010125658 0.05619126 0.22244237 -0.015747009
-0.07756634 0.08307646 0.05796434 -0.030152582 0.08599457 0.122526124 -0.18427281 0.19977422
-0.00028836468 0.04015778 0.17137983 -0.13977386 0.087636076 -0.20922713 0.006683061 -0.18133283
0.21170166 0.08168896 -0.115476064 0.20745902 0.10049173 -0.07949885 0.21091579 -0.16982904
0.15612683 0.124782555 0.072229624 -0.18594453 0.01429567 0.0797769 -0.13759005 -0.20859031

dec.0.bias f4 [10]
00000000: 082e 63be bc24 95bd e1d8 8dbd 424b a03d
00000010: a1e8 24bc bc9a a83d 7067 1bbe 3207 3e3d
00000020: 23ef babd 8732 ff3b
-0.22185528 -0.07282397 -0.06926132 0.07826854 -0.010065229 0.08232638 -0.15176177 0.04639358
-0.09127643 0.0077880058

dec.2.weight f4 [10, 10]
00000000: df91 92be 0209 8c3e 65d4 85be 37d3 9bbe
00000010: aaa4 e33c 3674 6e3d a2a1 313e 31ca 25bc
00000020: 2e04 a13e 21c5 683d 4a5e 4d3d 0be1 d93c
00000030: 4979 11be c501 78be 484f 803e d463 69be
00000040: 7726 50be 8156 96be 7461 473d 62c3 40bd
00000050: 5eb8 95be 3e96 c73d 0a62 6e3e de89 f03d
00000060: 3070 84be 83f5 783e 14c2 80bc 513a d33b
00000070: 49ee 24be 96d1 223d 0881 3ebe b1c5 9bbe
00000080: 8d3a 9c3e 1b44 49be 7d2b 76bd 8a74 70be
00000090: 3b87 5f3e 32bd 4b3e ed6a 953e 90ba 93be
000000a0: bcb8 343e 0533 34be 229a 333e 8892 903e
000000b0: 721d a1be 1a24 8bbe 84df 53be ede2 7a3e
000000c0: 0b76 823e ab66 30be bc0e c33d 2e8e d43c
000000d0: 681a 2b3d 4119 1d3e 37d2 503e e1e5 94be
000000e0: 5244 103d a53c 0c3e 11d7 83be 4833 7f3e
000000f0: f00b 2ebd 18e7 99be 78b7 49be 7614 37be
00000100: ab40 2ebc 05b6 fd3d 1125 76be 3a68 04be
00000110: 73a3 59be e069 24bd 9721 95be 5623 b4bd
00000120: 948e 863e b7ea 5d3e 25da c939 7d64 9e3e
00000130: f817 85be e4d5 48be 0d83 6a3d ac72 843e
00000140: 391c 943e 0570 a0be ed96 92be 1783 8c3e
00000150: 0821 183d 37dc e5bc 8ed8 73be 58e4 693e
00000160: 47a7 2ebe 3c18 e5bc 6076 32bc 34c6 34be
00000170: f618 a43b f551 003e c9f3 60be df81 2cbe
00000180: 75c1 8b3e 9d60 e23c b33c d23d 3ad4 c43d
-0.28626916 0.27350622 -0.26138607 -0.30434582 0.027788479 0.058216296 0.17346814 -0.010119007
0.314485 0.05682862 0.05013875 0.026596567 -0.14206423 -0.24219425 0.25060487 -0.22791988
-0.20327173 -0.29362872 0.048676923 -0.04706133 -0.29242224 0.09745453 0.23279586 0.11745046
-0.25866842 0.24312405 -0.015717544 0.006446161 -0.16106524 0.039750658 -0.18603909 -0.30424264
0.3051342 -0.19654886 -0.060100067 -0.23481956 0.2182893 0.19896391 0.2918314 -0.28853273
0.17648596 -0.17597587 0.17539266 0.28236794 -0.31467777 -0.2717598 -0.20690733 0.24500628
0.25480685 -0.17226665 0.09524295 0.025946703 0.04177323 0.15341665 0.2039269 -0.29081634
0.035221405 0.13695009 -0.2575002 0.24921906 -0.042491853 -0.30059123 -0.19698894 -0.17878899
-0.010635535 0.12388233 -0.24037577 -0.12930384 -0.21253757 -0.040140033 -0.2912719 -0.08795802
0.26280653 0.21671568 0.00038500238 0.3093604 -0.2599485 -0.19612843 0.057253886 0.25868738
0.28927782 -0.31335464 -0.28630772 0.27443764 0.037140876 -0.028059108 -0.23813078 0.22841012
-0.17055999 -0.027965657 -0.010892481 -0.17653733 0.0050078584 0.12531264 -0.21967997 -0.16846417
0.27296034 0.02763396 0.10265484 0.096107915

dec.2.bias f4 [10]
00000000: 783c 63be 3287 f3bc 7b09 3dbe 5199 ff3d
00000010: d537 7e3c 4e4d 92bd aeb3 723e 7f8c 63be
00000020: b12c 353d 1ced ee3d
-0.22191036 -0.029727552 -0.18460648 0.12480415 0.015516241 -0.07143651 0.23701355 -0.22221564
0.044232074 0.11666319

dec_std.0.weight f4 [1, 10]
00000000: 9f11 533e 9ed3 1e3c 782d f33c a346 fe3d
00000010: e8b9 06be 02aa b73d da41 573d 2448 503e
00000020: ad81 813e 7b26 683e
0.2061219 0.009694008 0.029684767 0.12415817 -0.13156855 0.08967973 0.052553035 0.2034002
0.25294247 0.22670929

dec_mean.0.weight f4 [1, 10]
00000000: 1a98 1dbe 9867 8f3c 0c05 953e f7e0 1fbe
00000010: 0e24 95be dc9a 17be d925 703e b9be 763e
00000020: e22c fbbd e3d2 9c3e
-0.15390053 0.017505452 0.29105413 -0.15613161 -0.2912907 -0.14805168 0.23451938 0.24096192
-0.1226442 0.30629644

rnn.weight_ih_l0 f4 [30, 20]
00000000: 4110 bcbc 3459 b83e ca1c d23e d5fb 92be
00000010: 365d 7fbd 3bf2 963e c480 c8be 7e94 3f3e
00000020: 5da5 073e ffcf 0abd 9310 f3bd e42f b5be
00000030: 8470 9dbe de4b debd de95 7b3e bdcd 78be
00000040: d828 a4be a5cd 343e 4585 013e fd39 4bbe
00000050: 8e80 9e3e 234e 953e 005e a43d 4380 603d
00000060: 5ed0 6dbe 4982 85bd f2ae bbbd 4c52 463e
00000070: ddaa 52be 8e80 cb3d 92b7 58be 64f5 973e
00000080: e9b8 563e 01bc 0bbe 87f6 8b3e 3411 9cbd
00000090: a521 b5bd ed06 873e 44e0 453e 1018 63bd
000000a0: 0a93 9f3e 6da7 793e d04d 5fbe 1b0e 58be
000000b0: 204f 69bd b1bf 1d3e 78f6 aabc 8a1e d8bb
000000c0: 5b1d 62be 5c8b 943e d7c0 943e 79f5 c93d
000000d0: 70df 4ebe ec0e 86be a827 a9bc 11ae bdbd
000000e0: f47d c3be 5c78 97bc e381 193d d35c 70bd
000000f0: c0bf 973d a6fd eb3e 6471 65bd e1ce 12bc
00000100: 0972 b73d 55d1 69bd 23be 0e3e 65e7 4cbd
00000110: ef3b df3b d21c 803e c690 b93e 1fd1 e43e
00000120: 3b0a 653e 4b41 fb3d 16d0 9d3e d1e8 8a3e
00000130: 9444 69bc dd24 31bc f0de e73e 9e72 883d
00000140: cd97 9fbe 847d 91bd bc19 bfbd 6c03 a0be
00000150: 46c3 8bba b654 013e 6167 01bd 4dbf d53e
00000160: 40b8 733e f24c 043d 0170 86be 2ff7 55be
00000170: a648 29be ef11 b63c 78c4 09be f788 6bbc
00000180: f7e4 753e 652b 65be 348f 733e d3ec 09be
00000190: 5467 48bd 5cd7 033e a92f 8a3e 7dff f4bd
000001a0: 02b8 45bd 7962 0d3e aea7 a6bb 1ecd 57bd
000001b0: d4ef 643d 9dac 42bb 6937 e43e 0897 d1bd
000001c0: dea2 a7bd 8393 e53c 64dc 83bc 9b39 a13e
000001d0: c568 433e 076a 6f3d 2f60 53be 2d57 47be
000001e0: f9ac 3a3c aa06 2b3e 1ba5 233e d4c1 883e
000001f0: 21e0 28bd ee7f d5bd 9960 21be 0215 9fbd
00000200: 6ff4 12be 7472 253e 57c9 be3e e163 af3e
00000210: f65b 7ebd 22ee 033e e7b4 983e 6893 ef3e
00000220: 2b40 883e 2b77 293e 6b7c 843e ccfc 50bd
00000230: 5c18 2cbe 4d32 d03e 4253 b93d 5e5e b0bd
00000240: 23c4 773e 9251 93bd 414a c1bc 864c f7bd
00000250: 2390 d73e c26e de3c c3f7 413e 7c98 e3bd
00000260: 2b4b b73c d757 e6bd 4e53 cf3e 493b 363e
00000270: 98ab 473d 0b80 8bbe 2a80 d03e ed83 843e
00000280: 7dba fabd c791 d73d 67e6 19be 8dc9 9a3c
00000290: 48fd 0ebe 3ce2 453e 3916 633e 63ff ff3e
000002a0: ac43 833e b355 80be a330 903e 3b0f 273e
000002b0: 2f96 38be b38e 29be 7aff d73e ad5b 153e
000002c0: e959 5d3d 4a61 be3d 053f 04be efb0 7f3e
000002d0: 66c5 673e d1a8 d03e 7fd4 03be 5f34 15be
000002e0: a542 a43d 64ca 8c3d dc62 833c 89b1 b63d
000002f0: 5c8c a4be 9205 8abe a908 cb3c 39c4 f1bd
00000300: 880d 20bd 409f 01bd 2906 d2bd 33bc d1bd
00000310: 74d2 66be 30df 76be b525 623e 48ef 523e
00000320: 77de 143e b6b6 44be 61e8 7fbe 7ebd 75be
00000330: 7d94 493e a401 93be 6055 29be 366c 463d
00000340: 3e76 febd 4c2b d23d ed64 3c3e cec5 b13e
00000350: 72e0 ed3d b7a4 843e 0c6b 80be 7657 753c
00000360: 6d50 b23e 63d1 153d 0243 263d 3ae6 98be
00000370: 7021 963e 9d33 dabe 0c55 07be 7dd5 9abc
00000380: cbbb fdbd 911f e1bc 3440 e53d 4987 dfbe
00000390: e6e1 4ebe e3c8 0fbe 0a13 3abe 5c96 a9bd
000003a0: c3e8 99be 5014 a4bb 7b8e 123e 4be0 eebd
000003b0: 9568 eebd 11f9 40be bfa2 35bb 63eb 3dbd
000003c0: 74df 5cbe e441 cabe 96bd 97bd dfae 853e
000003d0: 12bd 153e 06e6 413e 51ff f0bc 0678 0cbf
000003e0: 4918 453d de6a fdbd 5ec6 94be a747 f33c
000003f0: 7410 e03d 5d4b e9bd 9794 29be 0bc1 53bd
-0.02295697 0.36005557 0.4103759 -0.28707758 -0.062344752 0.29481682 -0.3916074 0.18708989
0.13246675 -0.033889767 -0.11868396 -0.353881 -0.30749905 -0.10854314 0.24568889 -0.24297233
-0.3206241 0.17656572 0.12648495 -0.1984634 0.30957454 0.29161176 0.080257416 0.05480982
-0.23224017 -0.065189905 -0.091642275 0.19367331 -0.20572992 0.09936629 -0.21163777 0.29679406
0.20968975 -0.13645937 0.27336523 -0.07620469 -0.08844308 0.2637247 0.19323832 -0.05544287
0.3116687 0.24380274 -0.21807027 -0.21099131 -0.056960225 0.15405156 -0.020869479 -0.0065954374
-0.2208151 0.29012573 0.29053375 0.09861273 -0.20202422 -0.2618326 -0.020648792 -0.09261716
-0.38182032 -0.018490009 0.037477385 -0.058682274 0.0740962 0.46091956 -0.05601634 -0.008960457
0.08957297 -0.0570844 0.13939719 -0.050025363 0.0068125646 0.25021988 0.36243266 0.44690797
0.22367184 0.12268313 0.3082282 0.2713075 -0.014237542 -0.010812012 0.45287275 0.066624865
-0.31170502 -0.07104018 -0.0933108 -0.3125261 -0.0010663054 0.12629971 -0.03159273 0.41747513
0.23800755 0.032299943 -0.26257327 -0.20895074 -0.1653162 0.022225348 -0.13453853 -0.014375917
0.24013124 -0.22379835 0.23785096 -0.13469248 -0.048926666 0.12875122 0.26989487 -0.11962793
-0.048271187 0.13807096 -0.005085907 -0.05268585 0.05589278 -0.0029704936 0.44573525 -0.10233885
-0.08185361 0.02802444 -0.016096301 0.31489262 0.19082935 0.058450725 -0.2064216 -0.19466849
0.011393779 0.16701761 0.15980951 0.2671038 -0.04122937 -0.10424791 -0.15759505 -0.07767679
-0.14351057 0.16156942 0.37262985 0.3425589 -0.06209942 0.12883809 0.29825518 0.4679215
0.26611456 0.16549365 0.25876173 -0.051022336 -0.16806167 0.40663376 0.09049083 -0.08611749
0.24195914 -0.07193293 -0.023594977 -0.120751426 0.42102155 0.027152423 0.1894217 -0.111130685
0.02237471 -0.11247223 0.40493244 0.17796053 0.04874763 -0.27246127 0.4072278 0.258819
-0.12242601 0.10525852 -0.15029298 0.018894935 -0.13963807 0.19324583 0.22176446 0.49999532
0.25637567 -0.25065383 0.28162107 0.16314404 -0.1802604 -0.16558342 0.421871 0.14585753
0.054040823 0.092959 -0.12914665 0.24969839 0.22633895 0.40753797 -0.1287403 -0.14570759
0.08020524 0.068745404 0.01603835 0.08920581 -0.32138336 -0.26957375 0.024784403 -0.118050046
-0.039075404 -0.031646013 -0.10255081 -0.10240974 -0.22541219 -0.24108577 0.22084697 0.20599091
0.14537989 -0.19210324 -0.2499099 -0.23998067 0.1968555 -0.2871219 -0.16536474 0.04844304
-0.12424897 0.102621645 0.18397875 0.34721226 0.11615075 0.25906917 -0.2508167 0.014974466
0.34826985 0.03657664 0.040591247 -0.2986315 0.29322386 -0.42617503 -0.13216037 -0.018900627
-0.12389334 -0.027480872 0.111938864 -0.43657902 -0.20203361 -0.14041476 -0.18171325 -0.08280632
-0.30060396 -0.0050073043 0.14312164 -0.11663874 -0.11641041 -0.18845011 -0.0027715412 -0.04636706
-0.21569616 -0.39503396 -0.074092075 0.2610998 0.14622906 0.18935403 -0.02941862 -0.5487064
0.048118863 -0.12373899 -0.29057592 0.029697252 0.10940638 -0.113913275 -0.16560589 -0.051697772

rnn.weight_hh_l0 f4 [30, 10]
00000000: 64f9 603d 6dda 063e 0a5e a63d a654 bebd
00000010: a288 73be 20ce 843e 3cd9 f03d a8c9 db36
00000020: 0e96 29be dba5 0a3e 7875 99be c1c9 8cbe
00000030: 4462 c53e 3ce1 4dbe d298 0cbe 7610 30be
00000040: c18d 1cbe d689 40bc 1947 76be a66a c5be
00000050: e654 503d 1973 46be 5f32 8ebb 3f11 e53d
00000060: 6167 b73e ff69 fa3d 00bf 413e 2cc0 7bbe
00000070: c4f9 96bd 78ee bc3b 581d 56be a1c1 f73d
00000080: 4405 fc3e 8af6 dbbe f4eb 8d3e 47c3 ab3e
00000090: a9f0 edbe 14de d23d a109 7c3e 21ce 623d
000000a0: 9cc0 493e 176f aabd 2f05 0a3e f8f2 70be
000000b0: bd25 d43e dd40 1bbe d4cc ad3d 80ab 94be
000000c0: 9cb8 433d 91e7 ccbe 442f b3be dfb7 92be
000000d0: 21ce 0a3c 7bf1 bd3d fb9f 54bd df38 0abe
000000e0: e93f cdbe 6970 893d d27e dc3e c49c b9bd
000000f0: 9b80 c33d 1498 e2bd 709a a33d e46b cb3d
00000100: f8ec 8e3e 4909 f4bd 4db2 50be df32 cfbd
00000110: dfe6 08be 0ac9 1cbd fa6f 35be 443a cebe
00000120: f66c f2bd 8678 66be 7f31 a33e daa7 8d3e
00000130: 28a3 2bbe b6d8 d3be bc83 f23d 36c2 e2be
00000140: fabc 503d 1085 a5be f96f 7a3e 774c 81be
00000150: c451 463e 17e9 ac3d 53b5 91be 3236 183e
00000160: 3270 813d f7cd 4c3e 020e 95be 51ca 43be
00000170: cd58 e83e 0231 92be f98f 9c3d 4948 8c3e
00000180: a536 debd 0762 96be b904 0dbd 8cd9 bdbe
00000190: b425 a23e 30a3 2dbd d6a2 00bf 57ed ac3e
000001a0: 2574 abbe 7b63 bc3d f7e7 043e bdd4 993e
000001b0: acf1 67be d838 4b3e 2882 823e 037d 193e
000001c0: d520 a9be e98d 81bd e2de 0dbd 00d1 cdbe
000001d0: d004 be3e af4d 1bbd 7a19 b5be a88b f23e
000001e0: b766 90bd 874a ed3b ea61 84be 15f3 003e
000001f0: a6bf 3ebe 60b9 97be 2123 0a3e bf3c 863e
00000200: ade7 83be 418a 28be ec47 d6bd 1e16 2bbe
00000210: 973b e5be 2427 dbbd 55fd a4bd 3586 21bd
00000220: 0e06 edbb 50b9 51bd 9f8d bf3d d7d2 8bbc
00000230: c20a 223e 4692 7cbd 8a22 cf3d 9610 f1bd
00000240: e9fb aebe 16de ebbd 710e 9e3e 2d63 883d
00000250: cf65 bebd 34ba 20be c6e9 08be 60f7 0ebd
00000260: 7cf1 06bf 9bfa 10bd 14c2 c0bd 1164 1c3e
00000270: 7b5b 183e 6038 c73d a02d 7abe 5273 1bbe
00000280: bb27 b73e 0380 59be 6818 82be 2c8e a43e
00000290: 7f19 b53d 0435 a5bc 6bb2 563e 374c 033e
000002a0: 5a91 d9be 52f7 a93e a9b8 8cbc 0503 983e
000002b0: 3767 cbbd 3db0 9cbd 40e2 0ebe 2f83 72be
000002c0: 1dbe b73e 3d4a bbbd 6ea2 f4be e4f5 f5bd
000002d0: 4345 473e e427 8e3e 50fe c1be 9c0f ef3b
000002e0: a429 e5bd ba34 10bd d832 07bd 3d83 84bc
000002f0: 5dce bbbd 7d48 e93e ba3c a13d 243d c63d
00000300: c197 4abe 167c f53e 46cc 39bd b105 a8be
00000310: 12e5 16be 779c ee3e 9976 a2bd 9e7c 153c
00000320: b0f2 d4bb 56fb 1e3e 7f1f 72be 9945 bdbb
00000330: afb6 1dbc 3c40 4b3e 28f6 983d 17e1 713e
00000340: c068 afbe aab5 31be 7ac3 01be d184 293e
00000350: 5a36 cebe 81b8 8a3e 0de7 cebd 2d35 b7be
00000360: c8e5 0bbe 946b 9a3e 338f bdbb c30c 6ebe
00000370: b651 93be eed8 5abe 4706 c03e 94a8 82be
00000380: a7b2 e33e 3a1f 73bd c538 053e 15a5 8ab7
00000390: 2771 f0bd aa28 9ebc 72a1 983d c5fc 5e3e
000003a0: 6aad 28bd a8d0 a53e c70b 69be 87fd 43be
000003b0: f15e c83e e52a 933e 83e8 c6be 3e4c b33d
000003c0: d537 5f3d 0150 dbbe c3ad 383e 373e afbd
000003d0: fff1 5e3e c411 1d3d 1f5b 213d 0976 02bf
000003e0: a847 f6bd 4476 a43d 9f6a b3be 110e 60bd
000003f0: 3429 e13e 1c2a 46be 9c6c a83e 19df 883d
0.054925337 0.1316926 0.08123405 -0.09293489 -0.2378259 0.2593851 0.11760184 6.5501845e-06
-0.16561148 0.13539831 -0.29972434 -0.27497676 0.38551533 -0.20105451 -0.13730171 -0.1719378
-0.1528845 -0.011751613 -0.24050559 -0.3855793 0.050862215 -0.19379844 -0.004339501 0.1118493
0.3582106 0.122272484 0.18920517 -0.24585027 -0.07371858 0.0057657324 -0.20909631 0.12097479
0.49222767 -0.42961532 0.2771908 0.33547422 -0.46472672 0.10296264 0.24613048 0.05537236
0.19702381 -0.0832197 0.1347854 -0.23530185 0.41435042 -0.15161462 0.084863335 -0.29037094
0.04778348 -0.4002042 -0.34996998 -0.28655908 0.0084719965 0.09274574 -0.05191038 -0.13498257
-0.40087822 0.06710894 0.43065506 -0.09063104 0.09546014 -0.11064163 0.07988441 0.09932688
0.27915168 -0.119158335 -0.20380516 -0.10117125 -0.1336932 -0.038277663 -0.17718497 -0.40278828
-0.11837189 -0.22506914 0.318737 0.27667123 -0.16761458 -0.41376275 0.118415326 -0.44288796
0.050961472 -0.3232808 0.24456777 -0.2525365 0.19367129 0.08442896 -0.28458652 0.14864424
0.06320228 0.20000444 -0.2911225 -0.19120146 0.4538025 -0.28553015 0.07644648 0.273989
-0.10850266 -0.29371664 -0.034428332 -0.37080038 0.3166939 -0.042391956 -0.5024847 0.33774826
-0.3348705 0.09198662 0.12979113 0.3004512 -0.22650784 0.19845903 0.25489926 0.14989094
-0.3303286 -0.06325895 -0.034636386 -0.40198517 0.37113047 -0.03791588 -0.35371 0.47372174
-0.07050841 0.0072415504 -0.25855953 0.12592728 -0.18627796 -0.29633617 0.13489963 0.2621822
-0.25762692 -0.1645899 -0.10462937 -0.16707656 -0.44772026 -0.10700825 -0.08056132 -0.03943463
-0.007233388 -0.05120212 0.09353184 -0.01706831 0.15824416 -0.061662935 0.1011401 -0.11770742
-0.34176567 -0.11516969 0.30870393 0.06659541 -0.09296762 -0.15696031 -0.13370427 -0.034903884
-0.52712226 -0.035395246 -0.094120175 0.15272547 0.14878647 0.097275496 -0.24431467 -0.1518071
0.357725 -0.21240239 -0.25409245 0.3213972 0.088427536 -0.020166881 0.20966499 0.12822042
-0.42493707 0.33196503 -0.017177897 0.29689804 -0.09931796 -0.07650802 -0.13953495 -0.23682855
0.35887232 -0.09145019 -0.47780174 -0.120097905 0.19460015 0.2776481 -0.37889338 0.007295562
-0.11189583 -0.035206534 -0.033007473 -0.01617586 -0.0917022 0.45563117 0.07872911 0.096796304
-0.19784452 0.47946233 -0.045360826 -0.32816842 -0.14735821 0.46603748 -0.07932777 0.009123949
-0.006498657 0.15525565 -0.23644827 -0.005776119 -0.009626075 0.19848722 0.074688256 0.23621021
-0.34259605 -0.17354456 -0.12672225 0.16554572 -0.40275842 0.2709389 -0.10102663 -0.35782757
-0.13661873 0.301602 -0.005784893 -0.23247056 -0.28773278 -0.21371815 0.3750479 -0.2551924
0.44472238 -0.05935595 0.13009937 -1.6527754e-05 -0.11740332 -0.0193065 0.07452668 0.21776111
-0.041181006 0.32385755 -0.22758399 -0.19139682 0.39134935 0.28743663 -0.38849267 0.087547764
0.054496605 -0.42834476 0.18035035 -0.085567884 0.21772002 0.03834702 0.03939354 -0.5096136
-0.12025386 0.0803037 -0.35042283 -0.054700915 0.43976748 -0.19352001 0.32895362 0.066831775

exp_avg f4 [10, 1]
00000000: 0000 0000 f4a9 893a b927 c43a b771 9a3a
00000010: 6847 483b 12a3 25ba e121 0abb 37a1 9b3a
00000020: 0000 0000 2490 e33a
0.0 0.001050292 0.0014965452 0.0011783157 0.003056014 -0.000631855 -0.0021077322 0.0011873607
0.0 0.0017361683

exp_avg_sq f4 [10, 1]
00000000: 0000 0000 455f b438 50ab 9e39 1736 7238
00000010: 3823 9839 0026 ae39 57ff d338 cd07 6138
00000020: 0000 0000 a7b5 8c39
0.0 8.600814e-05 0.00030263746 5.774767e-05 0.0002901794 0.00033216178 0.00010108825 5.3651445e-05
0.0 0.00026838222

exp_avg f4 [10]
00000000: 0000 0000 0bf0 d23b 0a37 00bc 3f61 29bb
00000010: 8807 f4bb 3fbf 263c 3061 01bb d06f 193b
00000020: 0000 0000 cd1a debb
0.0 0.0064373068 -0.007825622 -0.0025845317 -0.007447187 0.010177433 -0.0019741766 0.0023412593
0.0 -0.0067780972

exp_avg_sq f4 [10]
00000000: 0000 0000 9def c939 e92d c639 2165 6838
00000010: aacd c339 eb04 243a 5568 3939 dbee 5739
00000020: 0000 0000 fdd9 b039
0.0 0.00038516233 0.0003779971 5.5407294e-05 0.0003734653 0.00062568364 0.00017681842 0.00020592978
0.0 0.0003373175

exp_avg f4 [10, 10]
00000000: 0000 0000 0000 0000 0000 0000 0000 0000
00000010: 0000 0000 0000 0000 0000 0000 0000 0000
00000020: 0000 0000 0000 0000 0000 0000 48ac 2dbb
00000030: 57ee 11bb 610e 2abb b70d 2cbb 3ed7 09bb
00000040: 6b57 ccb9 a573 84bb 0000 0000 6baf 93ba
00000050: 0000 0000 f8a8 623b 1ad1 653b 40f4 8b3b
00000060: 2207 8b3b ae01 f13a c37a 8a39 a6e1 b33b
00000070: 0000 0000 87da e03a 0000 0000 0000 0000
00000080: 0000 0000 0000 0000 0000 0000 0000 0000
00000090: 0000 0000 0000 0000 0000 0000 0000 0000
000000a0: 0000 0000 0000 0000 0000 0000 0000 0000
000000b0: 0000 0000 0000 0000 0000 0000 0000 0000
000000c0: 0000 0000 0000 0000 0000 0000 2f37 4116
000000d0: 9df9 3715 9d9b db0f 704a 5313 efad 8c16
000000e0: 0000 0000 20f5 a216 0000 0000 0000 0000
000000f0: 0000 0000 7aee 2aba 1d43 ddba f867 25bb
00000100: 849b 13bb 9dc3 a921 7eb2 82ba 0ad6 b1ba
00000110: 0000 0000 f34c 13bb 0000 0000 7759 00bc
00000120: c3f4 e9bb 8fb0 10bc 635f 0ebc bc63 b6bb
00000130: fcb8 86ba e877 46bc 0000 0000 7e7b 86bb
00000140: 0000 0000 fa89 ce3b dc74 ca3b e672 f63b
00000150: 2dac f43b f9b2 633b a225 b839 b82b 233c
00000160: 0000 0000 d2a9 4e3b 0000 0000 0dbe b210
00000170: 85cc 2c12 a2a1 b012 203c 6d12 0000 0000
00000180: fd22 2112 e83c 1311 0000 0000 ca91 9312
0.0 0.0 0.0 0.0 0.0 0.0 0.0 0.0
0.0 0.0 0.0 -0.0026500393 -0.0022267306 -0.0025948512 -0.0026253292 -0.0021032835
-0.00038975044 -0.004042106 0.0 -0.0011267489 0.0 0.0034585577 0.0035067261 0.00427106
0.0042427937 0.0018387341 0.00026412876 0.005489546 0.0 0.001715497 0.0 0.0
0.0 0.0 0.0 0.0 0.0 0.0 0.0 0.0
0.0 0.0 0.0 0.0 0.0 0.0 0.0 0.0
0.0 0.0 0.0 1.5607829e-25 3.7153466e-26 2.1655007e-29 2.6668645e-27 2.2727987e-25
0.0 2.6327207e-25 0.0 0.0 0.0 -0.0006520521 -0.0016880963 -0.0025238972
-0.0022523114 1.1503664e-18 -0.0009971408 -0.0013567817 0.0 -0.0022476285 0.0 -0.00783383
-0.0071397736 -0.008831157 -0.008689734 -0.0055660885 -0.0010278518 -0.012113549 0.0 -0.004104077
0.0 0.006303069 0.0061784815 0.007521021 0.007466814 0.0034744127 0.00035123253 0.009959154
0.0 0.0031534326 0.0 7.050144e-29 5.452572e-28 1.1147007e-27 7.4858124e-28 0.0
5.084577e-28 1.1615023e-28 0.0 9.312944e-28

exp_avg_sq f4 [10, 10]
00000000: 0000 0000 0000 0000 0000 0000 0000 0000
00000010: 0000 0000 0000 0000 0000 0000 0000 0000
00000020: 0000 0000 0000 0000 0000 0000 064c 7138
00000030: 6328 2b38 22a1 9438 40e3 7f38 73a1 b538
00000040: 0c99 1337 501b 0039 0000 0000 14dd 4538
00000050: 0000 0000 de94 0139 cbf0 9e38 ca8d 1339
00000060: e0e4 fe38 6ecf 0e39 5a6d 0737 7d29 9039
00000070: 0000 0000 ed35 c338 0000 0000 0000 0000
00000080: 0000 0000 0000 0000 0000 0000 0000 0000
00000090: 0000 0000 0000 0000 0000 0000 0000 0000
000000a0: 0000 0000 0000 0000 0000 0000 0000 0000
000000b0: 0000 0000 0000 0000 0000 0000 0000 0000
000000c0: 0000 0000 0000 0000 0000 0000 9511 1c2b
000000d0: 99ab b229 d314 8020 e988 ee24 79e5 b32b
000000e0: 0000 0000 94bc f62b 0000 0000 0000 0000
000000f0: 0000 0000 c0f0 1337 9786 4238 725f da38
00000100: a707 af38 23d0 2b2a d35e de37 d53a 0738
00000110: 0000 0000 ad67 b838 0000 0000 e4aa e439
00000120: 9262 c139 4396 363a 29b2 1b3a 69fb eb39
00000130: 999b bd38 2aac 813a 0000 0000 ba08 fa39
00000140: 0000 0000 57f4 f739 0243 c739 03c6 573a
00000150: cbaf 2e3a 5787 123a 7d59 1638 08df 8e3a
00000160: 0000 0000 da10 473a 0000 0000 11ba 0d28
00000170: a611 832a 3500 992b bb3f 072b 0000 0000
00000180: aefc 452a 4600 bd28 0000 0000 78ab 3e2b
0.0 0.0 0.0 0.0 0.0 0.0 0.0 0.0
0.0 0.0 0.0 5.752968e-05 4.080719e-05 7.087203e-05 6.100838e-05 8.660825e-05
8.797517e-06 0.00012217206 0.0 4.7174355e-05 0.0 0.00012357856 7.578878e-05 0.00014071833
0.00012154295 0.00013619449 8.072087e-06 0.00027496731 0.0 9.308369e-05 0.0 0.0
0.0 0.0 0.0 0.0 0.0 0.0 0.0 0.0
0.0 0.0 0.0 0.0 0.0 0.0 0.0 0.0
0.0 0.0 0.0 5.5446733e-13 7.9345554e-14 2.1697824e-19 1.0344798e-16 1.2782406e-12
0.0 1.7531692e-12 0.0 0.0 0.0 8.817937e-06 4.637855e-05 0.00010412828
8.3460756e-05 1.5260063e-13 2.6508618e-05 3.22413e-05 0.0 8.793115e-05 0.0 0.00043614872
0.0003688527 0.000696514 0.00059393287 0.00045010008 9.0412046e-05 0.0009893228 0.0 0.00047690218
0.0 0.0004729356 0.00038006163 0.0008231105 0.00066637684 0.0005589625 3.584613e-05 0.0010900209
0.0 0.00075937586 0.0 7.867419e-15 2.328252e-13 1.0871361e-12 4.805008e-13 0.0
1.7584781e-13 2.0983334e-14 0.0 6.773952e-13

exp_avg f4 [10]
00000000: 0000 0000 e9f6 86bb 9d6f c13b 0000 0000
00000010: 0000 0000 b9c3 ac16 8e0c 01bb 381d 4ebc
00000020: 977e 2d3c baf1 1912
0.0 -0.0041187895 0.005903198 0.0 0.0 2.7911617e-25 -0.001969132 -0.0125802085
0.010589263 4.857624e-28

exp_avg_sq f4 [10]
00000000: 0000 0000 8101 0539 3ca2 8c39 0000 0000
00000010: 0000 0000 b722 1e2c e7e0 8238 c4af 8a3a
00000020: aba3 933a e13d 752a
0.0 0.00012684429 0.00026823755 0.0 0.0 2.247242e-12 6.2407744e-05 0.0010580947
0.0011263987 2.178184e-13

exp_avg f4 [10, 1]
00000000: 7ac7 063a c1c5 8d39 19c1 d739 9612 0137
00000010: 1949 e639 61e5 ecb9 7157 2dba 1737 b90f
00000020: 640f df38 0000 0000
0.00051414187 0.00027040954 0.00041151865 7.693327e-06 0.0004392348 -0.00045184328 -0.0006612456 1.8263628e-29
0.00010636335 0.0

exp_avg_sq f4 [10, 1]
00000000: f412 0237 fb38 1b36 362b d836 17e0 6d36
00000010: 9888 1836 7a30 5937 ea88 4b37 c2e0 2e28
00000020: 033c c235 0000 0000
7.753017e-06 2.3129967e-06 6.442332e-06 3.544619e-06 2.2729273e-06 1.2945495e-05 1.2131621e-05 9.707677e-15
1.4471592e-06 0.0

exp_avg f4 [10]
00000000: 247d 53ba 17e2 04ba aff3 2eba a0fd bc39
00000010: 9f04 ac39 e2b6 213a 4b73 6d3a 6587 e10e
00000020: c1b3 2a39 0000 0000
-0.00080676586 -0.00050690904 -0.0006673885 0.0003604712 0.0003280984 0.0006168914 0.00090580125 5.5597163e-30
0.00016279427 0.0

exp_avg_sq f4 [10]
00000000: f703 0d37 9d46 fd36 8352 0837 bf06 4336
00000010: e394 ea36 03c7 1f37 ba9e 1638 9596 8226
00000020: 8ecb a536 0000 0000
8.405178e-06 7.548208e-06 8.125443e-06 2.906119e-06 6.991076e-06 9.523475e-06 3.5910612e-05 9.061377e-16
4.94108e-06 0.0

exp_avg f4 [10, 20]
00000000: 0000 0000 9127 23bb e65f 95ba 0000 0000
00000010: 0000 0000 ac49 848f 4558 d5b8 c1b6 c2ba
00000020: ea4b 0cbb fb27 c88f 5c20 773a 0f82 953a
00000030: 784a 32ba 18d1 923a e23f 95ba 4978 94ba
00000040: 774b 973a d246 953a b206 93ba 6bb8 7a3a
00000050: 0000 0000 723e 4820 344a 971d 0000 0000
00000060: 0000 0000 0000 0000 38bd fb1e 9e93 7620
00000070: 502d a415 b8ca 0d10 c686 1599 ed95 a299
00000080: dc10 8519 2121 8999 ddd4 6b19 bf6e 8a19
00000090: 6e4f af99 7127 7799 9f73 b419 9c34 9c99
000000a0: 0000 0000 cb91 3737 fdad e837 0000 0000
000000b0: 0000 0000 0f25 490d 0000 0000 c67b 9132
000000c0: c02a 2d38 b1ec 0390 79e9 1bb5 4fa4 2bb5
000000d0: 1303 1eb4 8082 2bb5 2384 2b35 5440 2c35
000000e0: ef4f 2cb5 e0e0 2bb5 9ad5 2b35 f335 e9b3
000000f0: 0000 0000 5acd 20bc 95c9 7fbb 0000 0000
00000100: 0000 0000 d406 800f 798c 9fb9 73b0 bebb
00000110: 0b82 fdbb 7844 260f aae4 9d3b 0935 bf3b
00000120: 41d5 78bb af84 bf3b d9cf bebb d85f c0bb
00000130: a810 c13b cca1 bf3b 4faa bfbb a714 a83b
00000140: 0000 0000 c5a4 443c c34e a43b 0000 0000
00000150: 0000 0000 068d 0390 309d 8c38 bfaf d13b
00000160: 67c1 273c 0000 0000 5ee1 f3bb d0d3 12bc
00000170: f1bb be3b 39ea 12bc 5386 123c 0f9e 133c
00000180: d93c 14bc 452b 13bc 20ff 123c c375 00bc
00000190: 0000 0000 2739 8b3c 97d8 db3b 0000 0000
000001a0: 0000 0000 b0e7 b290 52cb 8339 dcb9 1c3c
000001b0: 4f54 603c 0000 0000 2783 1ebc 4a3f 41bc
000001c0: 937a fc3b 666c 41bc 86d9 403c 9547 423c
000001d0: e314 43bc b5b3 41bc b888 413c 7b6a 29bc
000001e0: 0000 0000 4f23 9c26 930b 5626 0000 0000
000001f0: 0000 0000 0000 0000 0000 0000 e78e 1426
00000200: 2484 c126 0000 0000 22d0 9da5 edb6 4ea6
00000210: d1d5 1726 ecb1 16a6 705f 5226 b218 3e26
00000220: 0a84 62a6 36f6 2aa6 116c 2926 85c8 19a6
00000230: 0000 0000 f78d cfbb 4986 25bb 0000 0000
00000240: 0000 0000 33ee 7e0e 5473 5cb9 b937 77bb
00000250: e988 a3bb 97b2 6c8e a931 4f3b c8c2 7d3b
00000260: cae0 23bb 092a 7d3b 2740 7dbb 798a 7ebb
00000270: f41f 803b 7634 7e3b cb56 7dbb 43de 5c3b
00000280: 0000 0000 fad2 c8ba e601 30ba 0000 0000
00000290: 0000 0000 bd87 a68f 8160 90b8 d8e4 74ba
000002a0: 844d a6ba d3d1 9410 c1ce 073a a268 223a
000002b0: 7e15 bfb9 3bb6 1f3a 2e21 22ba 768a 21ba
000002c0: 1576 243a de12 223a 6207 20ba 1a2b 093a
000002d0: 0000 0000 ce2e 77bb 0345 bfba 0000 0000
000002e0: 0000 0000 acf3 cd8e 3daa 05b9 7fbd 14bb
000002f0: 2441 3ebb 189e 2990 cefc e53a a88e 0a3b
00000300: 280d b1ba c951 0a3b bd47 0abb de1d 0bbb
00000310: bef9 0b3b b0c3 0a3b b272 0abb 24bd f13a
0.0 -0.002489541 -0.0011396378 0.0 0.0 -1.3044582e-29 -0.00010173073 -0.001485549
-0.0021407553 -1.9736923e-29 0.0009427124 0.0011406558 -0.0006801258 0.0011201231 -0.0011386836 -0.0011327352
0.0011542876 0.0011388904 -0.0011217205 0.00095642236 0.0 1.696132e-19 4.004609e-21 0.0
0.0 0.0 2.6653918e-20 2.0885853e-19 6.631056e-26 2.7963516e-29 -7.730337e-24 -1.6810962e-23
1.3758687e-23 -1.4178849e-23 1.2192203e-23 1.4313596e-23 -1.8126657e-23 -1.2777566e-23 1.8658263e-23 -1.615127e-23
0.0 1.0941595e-05 2.7737575e-05 0.0 0.0 6.1982515e-31 0.0 1.6936507e-08
4.128623e-05 -2.6017535e-29 -5.8081747e-07 -6.3941565e-07 -1.4716015e-07 -6.3892367e-07 6.389475e-07 6.4168603e-07
-6.419131e-07 -6.40297e-07 6.4013295e-07 -1.0859721e-07 0.0 -0.009814585 -0.0039030064 0.0
0.0 1.2624405e-29 -0.00030431504 -0.005819374 -0.0077364496 8.1976185e-30 0.0048185186 0.0058351797
-0.0037968906 0.0058446745 -0.005823117 -0.0058708005 0.005891878 0.005848145 -0.00584916 0.005129415
0.0 0.012002175 0.005014272 0.0 0.0 -2.5943835e-29 6.704999e-05 0.0063991244
0.010238982 0.0 -0.0074426373 -0.008961633 0.005820744 -0.008966976 0.008943158 0.009009852
-0.00904771 -0.008982484 0.008971959 -0.007840577 0.0 0.016995026 0.006709169 0.0
0.0 -7.056559e-29 0.00025137753 0.009565797 0.013691976 0.0 -0.009674824 -0.011794874
0.0077050417 -0.011805629 0.011770612 0.011857887 -0.011906835 -0.011822631 0.011812381 -0.010340328
0.0 1.0834245e-15 7.426185e-16 0.0 0.0 0.0 0.0 5.1541484e-16
1.3427882e-15 0.0 -2.7376195e-16 -7.171852e-16 5.2678424e-16 -5.2282833e-16 7.298773e-16 6.595296e-16
-7.858845e-16 -5.9314276e-16 5.878011e-16 -5.3354293e-16 0.0 -0.006334062 -0.0025257042 0.0
0.0 3.1422606e-30 -0.00021023798 -0.0037722422 -0.004990686 -2.9175234e-30 0.0031615293 0.0038720835
-0.002500581 0.0038629791 -0.0038642974 -0.003883986 0.003910059 0.0038788593 -0.003865647 0.0033701814
0.0 -0.0015321665 -0.000671415 0.0 0.0 -1.6421148e-29 -6.88443e-05 -0.00093419617
-0.0012687896 5.869899e-29 0.000518065 0.0006195401 -0.00036446372 0.0006092523 -0.0006184754 -0.0006162295
0.0006273699 0.0006182621 -0.0006104616 0.0005232558 0.0 -0.0037717107 -0.0014592711 0.0
0.0 -5.077105e-30 -0.00012747287 -0.0022695956 -0.0029030526 -3.3451164e-29 0.0017546655 0.0021142159
-0.0013507949 0.0021105877 -0.0021099888 -0.002122752 0.0021358575 0.0021173768 -0.0021125493 0.0018443209
