generative_ts/saves/250925_140045_VRNN_stdY1_lmbd/model_VRNN.pth (torch, 51746 bytes, 60 tensors)

phi_x.0.weight f4 [10, 1]
00000000: 935b 153f 9ce8 a93e 9ebd b43c 0935 2e3f
00000010: a2d9 9f3e 7112 14bf ba0e 7bbe 1363 b93e
00000020: 0051 f03d 21fa 6fbe
0.58342856 0.3318528 0.022063073 0.68049675 0.31220728 -0.5784064 -0.24517336 0.362084
0.117341995 -0.2343526

phi_x.0.bias f4 [10]
00000000: d0d2 8a3f 7f3f 36bc 83cb 1cbe 9927 653f
00000010: 1e7d 95be 567d 1dbe 6a91 5e3f 86cb 843f
00000020: b02c 33bf 986f 5f3e
1.0845585 -0.011123537 -0.15312009 0.89513546 -0.2919702 -0.15379843 0.86940634 1.037461
-0.6999006 0.21819913

phi_x.2.weight f4 [10, 10]
00000000: 1a0e 883c 39c7 863e 111d 22be 5fc2 da3d
00000010: cc2e c13e 3f73 07be f62b 88be aed3 a53e
00000020: dbb1 ba3d aeea e3bd 6201 523e 2c8d 8f3e
00000030: 9d5f f43c 9c9b 913e 5f83 1c3d 62a7 e83d
00000040: aa4e c33d 0da6 863d 0444 8d3e 971c f3bd
00000050: 71dc 403d 3e16 2abe 8eb7 1bbe cb31 a1be
00000060: 94e4 ccbe 5fed 92bd f8cf aa3e 9e50 883e
00000070: abcd 9f3e 8f0d ba3d 19b2 8fbc 3e10 0e3c
00000080: e7d1 1dbe 90cb 413e 043f 0a3d e762 9c3e
00000090: e9dd c33e 973f f3bc 30ce 17be ca0a 5d3e
000000a0: 22e8 30be 016e 8c3e fec6 91be a7d9 a63e
000000b0: 2013 883e 587c a6be 4b11 4a3e 942b 8dbc
000000c0: d1fb 84bd 0a0a 57be 81a9 833e 9a2e d33d
000000d0: 8a79 8fbd edad 9cbd c741 3dbe 1583 9ebd
000000e0: 366e b33b 9155 763e fd0a 63be 83d0 d5bd
000000f0: b9b1 22bc 3d02 4cbe 3fee 02bb 3890 1a3e
00000100: 5391 a5bc f233 db3e 133f e63e d4f5 3abe
00000110: 901f 693e b8a8 a13e a9de 963e 15bd 83bd
00000120: f1b0 11be 04f1 a83e c628 803e 018e 60be
00000130: 0d0b c93e f587 3dbe d954 993e c41f b73e
00000140: 11da 093e d7af e23d 39a9 953e 5112 8d3e
00000150: 29dd 4e3e 6773 693d 7bd8 d23c 0aaa b83e
00000160: 1cf4 733e 2d36 e3bd ce5e 843e 8943 103d
00000170: 7a01 17be a226 10be bc92 f7bd c4d0 6bbd
00000180: 5489 4c3d 0230 9fbd 1337 143e 875d e53c
0.016608287 0.2632387 -0.158314 0.106816046 0.37731016 -0.13227557 -0.2659604 0.3238806
0.091159545 -0.11128746 0.2050834 0.28037393 0.029830748 0.28439033 0.038211223 0.11360051
0.09536488 0.065746404 0.27590954 -0.118706875 0.04708523 -0.16610047 -0.1520674 -0.31483302
-0.4001814 -0.07174181 0.33361793 0.26624006 0.312116 0.09084617 -0.017540978 0.008670865
-0.15412103 0.18925309 0.033751503 0.30544207 0.38255242 -0.029693408 -0.14824748 0.21586147
-0.17276052 0.27427676 -0.28472131 0.3258793 0.2657709 -0.32516742 0.19733159 -0.017232694
-0.06493343 -0.20999923 0.2571526 0.10311623 -0.070056036 -0.07650361 -0.18482123 -0.07739846
0.0054757847 0.24056078 -0.2217216 -0.10440161 -0.009930068 -0.19922729 -0.0019978432 0.15094078
-0.020210898 0.4281307 0.44969997 -0.18257838 0.22765946 0.31574035 0.2946675 -0.06432549
-0.14227654 0.3299638 0.25031108 -0.2192917 0.39266244 -0.18508895 0.29947546 0.35766423
0.13462092 0.11068695 0.2923067 0.27553037 0.20201553 0.056994822 0.025737992 0.3606723
0.23823589 -0.110943176 0.2585358 0.035220657 -0.14746657 -0.14077237 -0.12088534 -0.05757214
0.049935654 -0.07772829 0.14474134 0.027998699

phi_x.2.bias f4 [10]
00000000: 04b4 983e 62a8 d9bc 7ab3 ee3e 499d e7bc
00000010: 7a60 3c3e e962 623e c548 a5bd bbcc 3c3e
00000020: f0d4 3a3c 2b0c e03e
0.2982484 -0.026569549 0.46621305 -0.028273242 0.18396178 0.22108044 -0.0807052 0.18437473
0.011403307 0.43759283

phi_z.0.weight f4 [10, 1]
00000000: e73e 723f def5 41bf 349e 8bbe f62f 2dbf
00000010: 0886 85bf e345 2abf ab15 903e 648e 5b3e
00000020: 80b3 5b3c 9eca 41bf
0.9462723 -0.7576579 -0.27269137 -0.6765131 -1.0431528 -0.6651289 0.2814153 0.21441036
0.013409495 -0.75699794

phi_z.0.bias f4 [10]
00000000: 87b1 013f dea9 2bbf 3a26 30bf 9d4c 23bf
00000010: 0d81 62bf 8147 ae3e 427c 4cbf c3ad 623f
00000020: acd2 cfbe 6297 ce3e
0.5066151 -0.6705607 -0.6880833 -0.6378878 -0.88478166 0.34038928 -0.798771 0.8854639
-0.40590417 0.4034987

enc.0.weight f4 [10, 20]
00000000: 851b 24be 6d76 9ebd 66d3 2abe d131 a5bd
00000010: c236 b0bd 05ad 39bd a882 2f3b dab5 4e3e
00000020: 4689 3bbe fec8 9f3c 88ea a2bc 9952 4cbe
00000030: d54b 313d c3dd d53d 299b e1bd 9e0c f23d
00000040: e83d 993d 2ffe 14bc 0b60 29be 4a47 83bc
00000050: 2cbe 323e 63a3 3b3a f6f9 0b3e 04fe 203e
00000060: 58ba 003d 3b80 37bb 37dc 81be 1beb 0b3e
00000070: b483 bd3d a67a 95bd a6dd 3fbd 9385 3b3e
00000080: 8afa 233e 739f 09be 7092 593e 04b0 ec3d
00000090: d046 1e3e 15d5 24be 2478 2b3e 971c 57be
000000a0: b41d 563d a8d1 0d3e f9a5 0a3e 8326 9abc
000000b0: 5f2b 37be 2e94 58bc 6e73 43bc fe36 623e
000000c0: cf37 d6bd 8979 313e 3b70 0d3e 26c8 3d3e
000000d0: 6ba1 3dbe 0695 7bbe 7b91 71be d6cc ab3e
000000e0: 3ad1 adbd 5aed 3c3e ec0c 933d ac26 84be
000000f0: a274 413e d1d3 053e 2305 2a3e 8215 19be
00000100: ffd9 403e 13cd 6b3e 23e0 f7bd f575 7e3e
00000110: 417b 223e 684e 803d 6f52 443e e2c5 00be
00000120: 0e42 a1be 3477 c3bd 4a8c bdbe f8bd ae3e
00000130: 6f07 903e f063 733e 7018 dc3e 5a28 20be
00000140: f3a7 11be 73d2 463e a261 19be a99d 293e
00000150: d7f7 213e d7b0 d53d 7b0b a7bc 4cba 123e
00000160: ad58 783d d4ca 493c bf8a 383e e6af c1bd
00000170: 4de6 5bbe 725c 373e a6c3 11be 9a97 733e
00000180: 0cfd bcbd 283e 153e e330 113e cc5f cb3d
00000190: aa30 743d 3aca 17be e1f4 583e 841e 9c3d
000001a0: b7ce ca3d 7338 61be e0ca 08be 1db2 2a3d
000001b0: 4539 1f3e 79e0 80bd 03e5 8abe 957e 3bbe
000001c0: 81c6 803e c02f 34be 5275 4d3e a902 66be
000001d0: 9c36 1fbe f83c 5b3e bbb2 fd3d 3031 adbd
000001e0: 24e2 fe3c 7672 34be 8d4b 01be a49b 10bd
000001f0: 258d 953d 1274 dfbd 5ea3 95bc d9a0 e13d
00000200: ebeb cd3c ef37 0f3e f9a2 b3bb 57df 2e3e
00000210: 1cfc 71bd 5075 41be e586 0c3d 888c ad3d
00000220: dc1a 28bd 9220 57be 229d ff3d 3785 353e
00000230: 1dee 67be f823 cf3d 9010 763e 63b9 1ebb
00000240: a83e cbbd 4bb6 a2bd 3537 443e 666d 0c3d
00000250: c517 333e 108c 513e 7e46 d73e 246a 8abe
00000260: 36fa 0bbd 9f2c 34be a1f4 67bd 187a f63e
00000270: d221 bb3d 1d97 313e c757 1f3d dd83 8bbe
00000280: 32b2 143e b5e0 bdbd f824 cf3e 4394 ba3e
00000290: 096e 1b3c 2f59 8b3e c04a 203d 4195 943d
000002a0: 7599 483e a02d 203e 8e59 e9bd 3883 65be
000002b0: 67c5 143e e33f 81bd 1977 a2bd cce9 f1be
000002c0: 410c a13e 8992 aa3e 430e 1c3e 9d28 56be
000002d0: 3bc8 2ebc fe5e 4ebe a1dc b5bd 377e 323d
000002e0: 8f25 ca3c 605a 333e 0b14 d9bd e427 3dbe
000002f0: 9b49 37be 0301 6a3d 8301 10be f839 203e
00000300: e299 b13c 6790 3f3e e956 4bbe 19fe 4e3e
00000310: 7e34 b1bd 9e23 50be a7a2 513b 4fce 30bd
-0.16026123 -0.07737432 -0.16682205 -0.08066142 -0.08604194 -0.04533102 0.0026780758 0.20186558
-0.18314084 0.01950502 -0.019887224 -0.19953384 0.04328521 0.10442688 -0.110159226 0.11818813
0.07482511 -0.009093805 -0.16540544 -0.016025204 0.17455357 0.00071578304 0.13669571 0.157219
0.03142771 -0.0028000015 -0.25363323 0.13663904 0.09253636 -0.07298784 -0.04684224 0.18312673
0.16013542 -0.13439731 0.21247268 0.1155701 0.154567 -0.1609691 0.16745049 -0.21007
0.05227442 0.13849509 0.13539876 -0.018817192 -0.17887639 -0.013218923 -0.011929376 0.2209129
-0.104598634 0.17331518 0.13812344 0.18533382 -0.18518607 -0.24568567 -0.23590653 0.33554715
-0.084871724 0.18449917 0.07180199 -0.25810754 0.18892148 0.13069083 0.16603522 -0.14949611
0.18833159 0.23027448 -0.121032976 0.24849685 0.1586733 0.06264955 0.19172071 -0.12575486
-0.31495708 -0.095442206 -0.37021095 0.3412931 0.2813067 0.23768592 0.42987394 -0.15640393
-0.14224224 0.19416218 -0.1497865 0.16564049 0.158172 0.1043412 -0.020391217 0.14328879
0.060631443 0.012316424 0.18021677 -0.09457378 -0.21474572 0.17906359 -0.1423479 0.237883
-0.09227952 0.14574492 0.14178805 0.09930381 0.059616722 -0.14823237 0.21187164 0.07623008
0.09902709 -0.2199419 -0.1335864 0.04167377 0.1554919 -0.06292815 -0.27127847 -0.18310006
0.25151446 -0.1759634 0.20064285 -0.22461952 -0.15548176 0.21409976 0.12387606 -0.084566474
0.031113692 -0.17621788 -0.12626477 -0.03530468 0.07302312 -0.109108105 -0.018266376 0.110170074
0.025136909 0.1398618 -0.0054820743 0.17077385 -0.05907832 -0.18892407 0.034308333 0.0847407
-0.04104124 -0.21008518 0.124811426 0.17726599 -0.22649427 0.10114282 0.24029756 -0.0024219386
-0.0992406 -0.07944926 0.19161685 0.034284018 0.17489536 0.20463586 0.4204597 -0.27034104
-0.034174167 -0.17595147 -0.05662978 0.48140025 0.0913731 0.17342801 0.03890207 -0.2724904
0.14521101 -0.09271375 0.40457892 0.3644124 0.009486684 0.2721648 0.039133787 0.072550304
0.19589789 0.15642405 -0.11394034 -0.22413337 0.14528428 -0.063110135 -0.07932872 -0.47248685
0.3145466 0.33314922 0.15239815 -0.2091393 -0.010667856 -0.20153424 -0.08879972 0.0435774
0.024676112 0.17514944 -0.10599526 -0.18472248 -0.17899172 0.05712987 -0.14063077 0.15647113
0.021679822 0.18707429 -0.19857372 0.20214118 -0.0865259 -0.20326087 0.0031987817 -0.0431655

enc.0.bias f4 [10]
00000000: c71c cabd 4028 42be 1c62 1e3e e93c 7e3e
00000010: eff6 653d 6cc4 d03d b965 49be 1613 a3bb
00000020: 7db7 363e d689 733d
-0.0986877 -0.18960667 0.15467113 0.24827923 0.056143697 0.101937145 -0.1966771 -0.0049766405
0.17843433 0.059457622

enc.2.weight f4 [10, 10]
00000000: f062 b43d 33a9 0a3e 5385 263e 2b15 a83d
00000010: dd5f 53be 684a a83d c914 8b3e a375 ea3e
00000020: aaed e63d c295 1cbd 9d94 b5bd 234b f63c
00000030: a71e 3ebd be2a 16be ac6e 763e 8ced b83e
00000040: fd56 2f3e a31c da3e 0378 b63e 67b6 9e3e
00000050: e326 8c3c cb4f 46be e779 a43d 4e66 293e
00000060: e436 013d 4b13 77bd 50f7 9bbc 48eb eb3e
00000070: fb3c e73d 4351 c33d 7347 f53c 9561 cfbc
00000080: 41b0 4fbe 2d22 8abe 9eed 813e c3b2 573e
00000090: 8a67 6d3e 622e 643c 30be 48be 397a 91bd
000000a0: fdcb 3dbd f76d 02be 8bb2 28be 33f6 843e
000000b0: 8645 1cbe 218c 8f3d 1902 8abe b321 3bbd
000000c0: e8e3 1f3f fe87 35bd 296e 13be ca2b 1f3e
000000d0: ea0f 5c3e f116 b3be 38f6 8b3e 410d 02be
000000e0: 5a88 9a3d 6ad5 2a3e 9f37 423d 0fc9 443e
000000f0: f17f 2f3e 7366 293d 6d0e 92be 5c66 3ebd
00000100: 2afb 34bc 7db4 813d 4e78 8bbe d0ef ed3d
00000110: 020e 20be c13e 01bd e1fb 763e 4479 94be
00000120: 4c47 513e a40e e23e e782 be3d e1ae 46be
00000130: 5e5b 873e 8706 ba3d b63b 4ebe aaf5 943e
00000140: d6e7 6d3e 5acc 96be 1015 cd3e 1d8b 143e
00000150: 514f 853e 6bb9 d4bd 5b16 23be e74d f03e
00000160: 27d8 9fbe 0f15 49be ca95 67bd 4d96 8abe
00000170: 9db7 a53c 3f18 5fbe ffd3 96be baf9 a83d
00000180: 77a9 ecbd 0264 91bd a948 97be eac1 2c3e
0.08807933 0.13541107 0.16261797 0.082071625 -0.20642038 0.08217317 0.27164295 0.45792875
0.112757996 -0.038228758 -0.08866236 0.030065125 -0.04641595 -0.14664742 0.24065655 0.36118734
0.17123027 0.42599973 0.35638437 0.30998537 0.017108386 -0.19366376 0.080310635 0.16542932
0.03154649 -0.060321134 -0.019038826 0.46077943 0.11290928 0.09536984 0.029941296 -0.025315085
-0.2028208 -0.269792 0.253766 0.21064286 0.23184028 0.013927074 -0.19603801 -0.0710339
-0.046337117 -0.12737261 -0.16474359 0.25969085 -0.15260896 0.07009149 -0.26954725 -0.045686435
0.6245713 -0.044319145 -0.14397492 0.15544048 0.21490446 -0.3497844 0.27336287 -0.12700368
0.07545538 0.16682974 0.047416326 0.19217323 0.1713865 0.04135747 -0.2852663 -0.046484336
-0.01104621 0.063332535 -0.27240223 0.11618006 -0.15630344 -0.031553987 0.24119522 -0.28998768
0.20437354 0.44151795 0.093023114 -0.19402649 0.26436895 0.09083276 -0.20139965 0.29093677
0.2323297 -0.29452783 0.40055132 0.14506193 0.26037076 -0.10386928 -0.15926497 0.46934435
-0.312196 -0.1963694 -0.056539334 -0.27067795 0.020229155 -0.21786593 -0.29458615 0.082507566
-0.1155576 -0.07099153 -0.29547623 0.16870847

enc.2.bias f4 [10]
00000000: 3bd5 293e f0d7 6abd c40e 95be 0cdb b9bd
00000010: 863f d33e 5400 92be 57d3 58be 6e7a 333e
00000020: 33ac 2a3e 3d74 7abe
0.16585247 -0.05733484 -0.29112828 -0.09074983 0.41259402 -0.28515875 -0.2117437 0.17527172
0.16667251 -0.24458404

enc_mean.weight f4 [1, 10]
00000000: 4bda 0a3e b33b 3fbe d557 ce3e 154f 23be
00000010: 9a66 6fbe e81d 7bbe e2c7 273e 00bb 873e
00000020: becd 633e f672 99be
0.13559835 -0.18675117 0.40301386 -0.15948136 -0.23378983 -0.24523127 0.16384843 0.26509857
0.22246453 -0.2997052

enc_std.0.weight f4 [1, 10]
00000000: 0a6f 10bf 5a2e fbbe e0f3 99be 2a8d 833c
00000010: 88bc d6be e4fe 22be 5c92 a13e 47f9 e2bc
00000020: 1c30 9c3d 97c3 7a3e
-0.5641943 -0.490588 -0.30068874 0.016058523 -0.41940713 -0.15917546 0.31556976 -0.027706755
0.07626364 0.24488674

prior.0.weight f4 [10, 10]
00000000: b524 5fbe 6618 dfbe 2bdc 373e 837f 183e
00000010: 792b 063e 1742 3cbe 1c1f 193e 1494 673e
00000020: 82dc 823e f9b6 d13d b242 1b3c a88e c8be
00000030: fb33 123e ebd2 e43c 6fc7 513d a36b 00bf
00000040: fbbd b33e c394 203e 8e74 883e d722 bebe
00000050: 1acf 2f3e 7472 83be f2a9 0f3e f29f 75be
00000060: 13da 81be 26de b73d 88b1 ea3d 44a3 543e
00000070: 5ff6 94bd c437 95be 2340 513e dde1 c03d
00000080: 03bc 8cbe cb9f 0dbe b221 d7be f0fa 9f3e
00000090: 6e30 5ebe afc6 693d 232e c83e af23 55be
000000a0: 0cbf 993d ca6e 423e bb94 003d 07cb 463e
000000b0: 4a51 7cbc e878 ab3c 767a de3d e0e9 80be
000000c0: 4acd 81be 26a3 8f3d 2c64 3ebe c30e 863e
000000d0: 22e0 9a3e d474 6cbe 2b3a 59be 28da 04bd
000000e0: 610f 79be fa81 3d3e 98cf 0fbe 6267 763e
000000f0: e4a9 8abe 1f7a 73be 5a30 76bd af42 073e
00000100: 6b1a 3d3e 1bf4 273e ae55 8abe 4bf7 43be
00000110: e3e9 673e 3c49 663e 6963 143e 378f c1be
00000120: 80c6 a6be b0fd 71be 8b7c ea3d dd17 2d3e
00000130: 2136 ad3e 3500 923e 638c 253e 90cf a9bd
00000140: fba0 b9bd a51f 473c d530 3f3e 6d1a 71be
00000150: 6342 563e 5981 cfbe 28ec cb3d b300 2d3e
00000160: 797c bf3e 4d4e a1be 1f98 6fbe 118f 773e
00000170: 61cb fcbb a4a5 2a3d a530 b23d 4ed7 9fbe
00000180: ac15 edbc 5d13 f7bd 2259 d4bc 4990 b5bd
-0.21791346 -0.43573302 0.17955081 0.14892392 0.13102521 -0.18384586 0.14953274 0.22615081
0.2555886 0.102399774 0.009476351 -0.39171338 0.14277641 0.027932605 0.051215585 -0.5016424
0.3510588 0.15681748 0.26651424 -0.37135956 0.17168847 -0.25673258 0.14029673 -0.23986796
-0.2536169 0.08977918 0.11459643 0.20765406 -0.07273554 -0.29144108 0.20434622 0.0941808
-0.27487192 -0.13830487 -0.42017895 0.31246138 -0.21698162 0.057074245 0.390977 -0.20814393
0.075071424 0.18987575 0.03139184 0.19413386 -0.01540024 0.020931676 0.10863201 -0.25178432
-0.25351936 0.0701354 -0.185929 0.26183137 0.30249125 -0.23091441 -0.21213596 -0.032434613
-0.24322273 0.18506613 -0.14044034 0.24062875 -0.2708274 -0.23777054 -0.060104705 0.13209032
0.18467109 0.16401713 -0.27018493 -0.19137304 0.22647814 0.22488874 0.14491047 -0.37804577
-0.32573318 -0.2363193 0.11449536 0.16903634 0.3383036 0.28515783 0.16166835 -0.082915425
-0.09063908 0.012153541 0.18670972 -0.23545237 0.20923762 -0.40528372 0.099571526 0.16894798
0.37399653 -0.3150505 -0.23397873 0.24175669 -0.0077146743 0.041661873 0.087006845 -0.31218952
-0.028940998 -0.1206424 -0.025921408 -0.08865411

prior.0.bias f4 [10]
00000000: dc2d a13e 1952 ca3e c4b6 cb3e e121 04bd
00000010: de0b 193e b6da 7e3d 492a 8bbe dac9 d13d
00000020: 13c4 87bd d43c 96be
0.314803 0.3951576 0.39787877 -0.032258872 0.14945933 0.062220298 -0.271807 0.10243578
-0.06629195 -0.29343283

prior_mean.weight f4 [1, 10]
00000000: 47ee 27be 6360 26be b9d4 833d aaad bd3e
00000010: 3d6e f0bc f0ca 3dbe 9e1a 803e 8369 bd3e
00000020: 03db a0be 6833 97bd
-0.1639949 -0.16247706 0.06437058 0.37046558 -0.02934944 -0.18534446 0.25020307 0.36994562
-0.31417093 -0.07382852

prior_std.0.weight f4 [1, 10]
00000000: 652c 70be 4d70 a4be 3634 13bf 9ee3 3abe
00000010: 2127 2a3e fc22 2d3d aca7 7d3d 7699 1abf
00000020: 4a2f 9ebe d6f5 3f3d
-0.23454435 -0.3211693 -0.5750154 -0.18250892 0.16616489 0.04226969 0.061927482 -0.6039041
-0.30895454 0.046865307

dec.0.weight f4 [10, 20]
00000000: 9246 153e c538 a13d f957 ecbd 9e01 4d3e
00000010: d3b5 35be 054c 52bd 41a6 9a3b e0e2 d53d
00000020: 65a7 633e cf47 cfbd 0879 ff3d ce26 bdbd
00000030: f02a 773d af1e 473e da05 9f3a 1c75 473e
00000040: 955e 263e 0959 373e 28e4 153e 82e3 bf3b
00000050: 3e77 5f3e bda0 61bd 3294 fbbd 16b1 2d3e
00000060: b26e 41be ed84 f8bd d8cf 573d 4b85 35bd
00000070: 5463 3abe 8f8f 293c f013 0ebd 054a 693c
00000080: 2c4d e6bc c2ae 473e dac8 16bd 4bdf 4ebe
00000090: 7ae9 39bc 9d18 03bd 0a89 3cbe 880c 863d
000000a0: 7798 47be 15c1 413e ea8d 963d 0544 533e
000000b0: 9497 29be c2c4 6bbd 2917 253e ae69 33be
000000c0: 2cb2 56be b3f3 d33c d1c7 d3bd 8200 103e
000000d0: a0e2 0cbe f31f 8a3d fe3e 94bc 39f8 423e
000000e0: 5dcd 023e 312d 97bd 0919 5d3e 3387 31be
000000f0: 1742 16be 2312 2bbe 4048 59be 00af fc3d
00000100: e224 533e f7ec 60be d794 83bd 6634 e0bc
00000110: a6a0 033d d77b 033d 6e36 f2bd 9211 313d
00000120: bc35 fbbd cf71 613d 954b 2ebe 5a59 123e
00000130: 63ef 313c b75d 9ebd 2280 e0bd 65cd a03c
00000140: fd57 8abd 1941 f4bd fac3 493e 5f49 343e
00000150: 16e5 5bbe 2ebe 8a3d 7129 603d e9f7 5e3e
00000160: bfd9 633e 8e9e b9bd f7c5 04be 3f0d e33b
00000170: 455b 0e3d f129 7dbd d404 b3bc 1183 49bd
00000180: 7210 4d3e 03a9 06ba e54e c13d c244 983c
00000190: 2507 2dbe 427d 2dbe 2be4 0dbe 24c9 abbd
000001a0: fba7 403e ee70 4bbd 0b7b eebd fcff 54be
000001b0: ebca 97bd 6634 853d 3343 8c3d c01d 16be
000001c0: 8300 07be e73d f73d 9b79 33bd 8ea7 843d
000001d0: afb7 13bd e8fe 573e 9ca0 0b3e 73f1 cd3c
000001e0: 0964 c6bb 0a64 c8bc 5fdb 7cbd a76e b5bc
000001f0: 6648 b3bd 828b 683d 5d63 3a3e 6edf 703d
00000200: 82d2 803d 1c01 6f3d a22b 753c 0d69 59be
00000210: aca4 5dbb 356d ef3d 72a6 46bc 7813 e5bd
00000220: 8ab1 e3bc 2e42 153d eb3e f5bd 4c84 2c3e
00000230: 3e53 0cbd 3ea4 d8bd e0cc f2bc 25a8 e83d
00000240: 7c6d 82bd 1504 a2bd ae8c c83c 2fc8 b73d
00000250: 26d9 a03d 6d4b cf3d ce2c 613e b095 39be
00000260: 5fa3 08be 69c8 16be 1f9b 06bd c137 abbd
00000270: 3644 1b3e a295 553e 25fb 0abe ae9d dbbd
00000280: 73b0 173d 4472 d83d 0bd6 bc3d a6d0 303e
00000290: cce5 01bc ee3c 453e 7339 363e be11 a53d
000002a0: 49db 443e 9890 c83a 1a04 053e a46e 2bbe
000002b0: 36ef 31be 963a 253e f5ce 2cbe 2297 13be
000002c0: d688 443e bc47 a8bd 85ac 9c3d 317e d3bc
000002d0: a703 1c3e 7050 15bd 1f61 953c 7c46 643e
000002e0: 1d2e f239 52fd 1abe 3722 483d 1cb8 883d
000002f0: 811d 303d 07cf 2e3e 5c94 54be 9a60 3abd
00000300: e7b0 a1bd 03b4 ea3d 2824 44be 62fa 2bbe
00000310: 5943 afbd 6409 f43c ca38 f03d 2e5d 9bbd
0.14577702 0.07872156 -0.11540217 0.20020148 -0.17745142 -0.05134203 0.004719526 0.104436636
0.22231825 -0.10121118 0.12474257 -0.09235917 0.060343683 0.19445299 0.0012132481 0.19478267
0.16247018 0.17905058 0.14637816 0.0058559785 0.21822831 -0.055084933 -0.122841254 0.16962084
-0.18889883 -0.121347286 0.05268845 -0.04431657 -0.18201953 0.010349168 -0.034686983 0.014238839
-0.02811297 0.19500259 -0.03681264 -0.20202367 -0.011347169 -0.032005895 -0.18411651 0.06545359
-0.19491754 0.18921311 0.07351287 0.20631416 -0.16561729 -0.05756069 0.16122116 -0.17520782
-0.20966405 0.02587304 -0.10340846 0.14062694 -0.13758326 0.06744375 -0.018096443 0.19040002
0.12773652 -0.073816665 0.21591581 -0.1733673 -0.14673649 -0.16706137 -0.21218967 0.12338066
0.20619538 -0.21965395 -0.06424873 -0.027368736 0.03213563 0.032100525 -0.11826788 0.043229647
-0.122661084 0.055040177 -0.1702102 0.14291897 0.010860297 -0.077327184 -0.109619394 0.01962919
-0.06755064 -0.11926479 0.19703665 0.17606114 -0.21474108 0.06774555 0.05472702 0.21774258
0.22251032 -0.09063445 -0.12966143 0.0069290693 0.03475501 -0.061807577 -0.021852888 -0.04919726
0.20025805 -0.0005136879 0.09438876 0.018587474 -0.16897257 -0.16942313 -0.1385657 -0.08387974
0.1881408 -0.049668245 -0.11644562 -0.20800775 -0.074117504 0.06504135 0.06848755 -0.14659786
-0.13183789 0.12072354 -0.043817144 0.06477271 -0.036063846 0.21093333 0.13635486 0.025139546
-0.0060544056 -0.024461765 -0.061732646 -0.02214749 -0.08754043 0.05677367 0.18201967 0.05880683
0.06290151 0.058350667 0.014964016 -0.2123148 -0.0033820076 0.116907515 -0.012124645 -0.11185354
-0.027794618 0.036440067 -0.11974891 0.16847342 -0.034259073 -0.10578202 -0.029638708 0.11360196
-0.06368539 -0.07910935 0.024481144 0.08973729 0.07853918 0.10121808 0.21989748 -0.18123507
-0.13343571 -0.14724888 -0.03286278 -0.083602436 0.15162739 0.20857862 -0.13572367 -0.107234344
0.03703351 0.105686694 0.09220513 0.17267093 -0.007928323 0.19261524 0.17795353 0.08060025
0.19224276 0.0015301881 0.12989846 -0.16741425 -0.17376408 0.1613563 -0.16875823 -0.14413121
0.19192824 -0.08216807 0.07650093 -0.025817009 0.15235768 -0.036453664 0.018234788 0.22292513
0.00046192194 -0.15135697 0.048860755 0.06675741 0.042996887 0.17071162 -0.2075972 -0.045502283
-0.078950696 0.11460116 -0.19154418 -0.16794732 -0.085577674 0.029789634 0.11729582 -0.07586132

dec.0.bias f4 [10]
00000000: e267 403c e91e c4bd dd8f 89bd eaf1 363d
00000010: e576 243d 8668 34be 7a72 4c3e 28f1 543e
00000020: 8e58 9c3c eeeb 35bd
0.011743518 -0.09576208 -0.06716893 0.0446643 0.04015245 -0.17617998 0.19965544 0.20795119
0.019085195 -0.044414453

dec.2.weight f4 [10, 10]
00000000: 0cd6 51bd 4ffe 9ebc 2ef3 f5bd 1c6e a8bd
00000010: 9d9c 383e ecdf 23be 75ef 623e 53fe 973e
00000020: efe5 e73d 319b 65be db5d 183e d345 8dbe
00000030: d526 2dbe 150e 903e f196 87be b0de 3abe
00000040: 1d75 46bd de2f 313d 4362 753e 97ca 1f3c
00000050: 8a9f 81be 0c64 a1be c0fc 773e f693 86be
00000060: e6c8 74be 3e0c 2c3d 0eb2 713e 27c3 293e
00000070: bbc4 92be 0902 813c 9da9 f4bd a249 46be
00000080: 6bbe 6e3e c5d7 72bd 079d ee3d 1423 9d3e
00000090: 7c78 aebc d91e 32be 5cd6 57be b189 863d
000000a0: 3a06 7dbe 6d02 4d3c 11b7 e33d 87d9 833e
000000b0: 75a7 933e a057 533e 699a 3b3e 07a9 28be
000000c0: 0372 3e3e 86a0 ee3d 359c c3bd f10c 2d3e
000000d0: de20 c13c 6340 bdbc 2eec 153e 4db3 8dbe
000000e0: f871 9e3e 78d1 17be 1ad5 1b3e d929 f93d
000000f0: 2c6a 513e 00b1 b3bd 3327 f63d 8b61 9dbe
00000100: 1483 01be 5794 53be b909 1abe fde5 a93d
00000110: f719 cdbd 8f45 92bd 07e5 91bc 95d9 82be
00000120: c9bd e93d dfe7 96be 2ae0 febd 98c2 20bd
00000130: a519 acbd b5ee 323e dd78 32bd b71a 983e
00000140: a3ed 9f3e f88c d6bc 27bf 9bbe f693 6cbe
00000150: b941 95bd f1b4 b13d 2f9b 9dbc ae74 843e
00000160: ba0f 48be dc6a 0bbe 4b12 04be 0f57 9fbe
00000170: 6562 073e 98b7 883d 498e 8abe 00cb 73be
00000180: f248 003e 33d6 833c 1cbe a43d 012f 7cbd
-0.05122952 -0.019408373 -0.120092735 -0.08224127 0.18028493 -0.16003388 0.22161658 0.2968622
0.11323153 -0.22422482 0.14879553 -0.27592334 -0.16909344 0.28135744 -0.26482347 -0.18249011
-0.04845153 0.04325854 0.23963265 0.009752891 -0.2531703 -0.31521642 0.2421751 -0.2628476
-0.23904762 0.042003863 0.23603079 0.16578351 -0.28665718 0.01574804 -0.11946414 -0.19364026
0.23314826 -0.059287805 0.11651044 0.30690825 -0.021297686 -0.1739458 -0.21077865 0.06569231
-0.24709406 0.012512785 0.111189015 0.25751898 0.28838697 0.20638895 0.18320622 -0.16470729
0.1859818 0.11651711 -0.095512785 0.16899468 0.023575243 -0.023101991 0.14640877 -0.27675858
0.30946326 -0.14826 0.1521801 0.12166185 0.20450658 -0.087739944 0.120191954 -0.30738482
-0.12647659 -0.20662056 -0.15042771 0.0829582 -0.10014718 -0.071421735 -0.017809404 -0.25556627
0.11413152 -0.2947378 -0.124451 -0.03924808 -0.08403329 0.17473872 -0.043572295 0.29707882
0.3123599 -0.026190266 -0.30419275 -0.23103318 -0.07287926 0.0867709 -0.019239036 0.2587027
-0.19537249 -0.13614982 -0.12897603 -0.31121108 0.13221128 0.06675643 -0.2706168 -0.23807907
0.12527826 0.01609335 0.08044073 -0.061568264

dec.2.bias f4 [10]
00000000: 5e48 fd3c 8b4e cb3d 62a4 4abe 4083 863e
00000010: 9746 753e 5c83 023b 518a a1be 3a83 1bbe
00000020: b190 05be 1066 59be
0.030918296 0.0992709 -0.1978927 0.2627201 0.23952709 0.0019914722 -0.3155084 -0.15186778
-0.13043477 -0.2123034

dec_std.0.weight f4 [1, 10]
00000000: e382 bc3a d164 2fbe b5d1 39bd cc5c 58bd
00000010: 46bd 2ebe 499a 9d3e fedd 14be 436d 083d
00000020: 6310 1b3d 2dd4 22be
0.0014382269 -0.17128302 -0.045366008 -0.052822873 -0.1706439 0.30781773 -0.14537808 0.033307325
0.037857424 -0.15901251

dec_mean.0.weight f4 [1, 10]
00000000: 322b 8cbe a254 5bbe 24bf 2bbe 6b41 793e
00000010: b51c 093e 4fd4 88be 8459 98be 9ca4 133e
00000020: 2c50 dcbd c9b5 9a3e
-0.27376705 -0.21419004 -0.16772133 0.24341361 0.13389857 -0.2672448 -0.29755795 0.14418262
-0.10757479 0.30216816

rnn.weight_ih_l0 f4 [30, 20]
00000000: 72dc c23d a60d 203e ad89 fcbe ddcc bebe
00000010: ecae 413e 8ac1 1f3e d7e3 f5be 00b8 5dbe
00000020: 381b df3c 0c05 fb3c 8c8c 313e 2e32 f0be
00000030: 9272 973e e2cd 54bd 70ed 84be 9477 2b3d
00000040: 3d37 06be 5061 76be eb90 c23d 3a33 82be
00000050: 3e11 c23e 4780 843e e2c4 1f3e 9998 ee3e
00000060: cc5e 983e bae1 1a3d 645c d3bd 1456 193e
00000070: 2f44 3a3d b51b 82bc e951 073e 3fd7 943e
00000080: 7cef 52bd ec32 25be aa55 47be 1c61 b03e
00000090: e35e 293e 509d 9f3e 4b15 5c3e 99d7 743e
000000a0: 6785 01bd 58d9 f43e a21e e83d 8e59 5a3d
000000b0: 3a32 03bd aeaa 8a3e 73e4 843c 7c98 503e
000000c0: 3087 d23d 5216 703d adab 6c3e 27c5 723e
000000d0: 706b f5bb 31ca a23e a9df b33e 0ea6 463e
000000e0: d2f3 8dbe a405 9a3d a848 103e b191 bc3e
000000f0: b237 8d3e 35db 1a3e 450d 033e 15a7 04be
00000100: f27a 3b3e edd5 9c3e 743d 573d 0cf9 0e3e
00000110: 9ee2 e53d 9ede 523c 944e 5b3d 71a2 a33d
00000120: e001 ddbc 8d8f 5ebd 6456 753e 0429 b6bd
00000130: f73d 20be 6b2a 753e e447 933e 0d13 0f3e
00000140: d7e3 903e 96fd 9dbd 01f2 babe 9217 8c3d
00000150: 3c97 c43e 838d 813e 6ec4 b53d 5732 a9bd
00000160: 5fc9 b03d 742a bc3e 032f 6b3e 4ae3 43be
00000170: 54ee 223e a859 e9bd 5bb2 113c f640 01bd
00000180: b234 b63d e207 383c 9313 983e d563 11bd
00000190: b7ab bcbe 14c3 b3be 914f df3e fa92 053f
000001a0: b783 a6be c955 84bd cb4a d63e 53f5 92be
000001b0: 3ae4 fd3c d34f 4f3c 5467 203e 639f cebd
000001c0: f5a2 4fbe 8738 90bd 2605 e3bd d0d9 163e
000001d0: 51f3 f3bd 22fb 213e db1d c03d 9c6f db3e
000001e0: aa95 30bd 6871 8d3e 2088 593d 2b34 f03e
000001f0: c31a 8f3e 315c 503d 5502 fa3e 2ea0 573e
00000200: 8f5d a53b 6de6 c13e f11a 1f3e 8095 57be
00000210: 04a7 7dbe 5038 a53e e8ff 383e 019f cdbd
00000220: 5734 83be 7b9e d33e 002a f53d d667 953e
00000230: 6a3c 703d fae0 773e 5073 f33d e2ab 203e
00000240: 1254 4d3e 3dca 893d da8b 7b3e 59ba ef3e
00000250: 9098 d73d 41da e13e 8b7c 503e 9af5 7dbe
00000260: 2e40 ca3d b4a8 d53d 2cbd 913e 7afe d73e
00000270: 2684 203e ca12 f83d 03ef 943e 2ab0 3dbe
00000280: 35f2 203d 9b3e 1f3d 22dd ac3e 05cb 9c3e
00000290: 5194 113e 5f79 ff3e de6c 8b3e 6309 c43e
000002a0: 8bc8 ea3e d055 3a3d eb2f b6bc b89b c33d
000002b0: 1e91 33be 421b cf3e 2df1 8a3d 85e3 d63e
000002c0: e971 863e 4f6c eb3e f89d 163c 23dc 6abd
000002d0: ab00 1cbd 88ef 9f3d 9094 9f3e 3cde ac3e
000002e0: 5f32 df3d 9590 7e3e 9824 ac3e bbe3 a13d
000002f0: b248 953d 7eda ef3b 9a8e 533e 3b1f 863e
00000300: 2b83 fe3d 7c3a 36be 113b 793e f3ec 863e
00000310: 49fb 30be 0755 eb3d a8f7 6d3d f41a 3bbe
00000320: d4a0 4cbe 7c58 153e 5916 8d3e 6dd4 b4be
00000330: f416 883e 391b 933d 50c5 c5be 01f6 0e3e
00000340: 4bcb 84be d7f2 353e 6abb 6f3e 46d3 603d
00000350: 33d0 5dbe 00fb 32be 865b 5abe fba1 b43c
00000360: 3ba3 3bbd dde6 0a3d 6288 1c3d 7dd7 d73e
00000370: 0fdb ebbe c5bc 0e3c 29fb 93be 5b27 5abe
00000380: 8bb9 ccbe e139 d8be 5a84 76be d48b bcbe
00000390: 6879 f1be cba4 19be 1330 56be 9464 1b3e
000003a0: f182 de3d 508b 8a3e 215a a4be 15b5 733e
000003b0: e502 873d e2ee b9be 0481 22be 80ca 09be
000003c0: 9288 50be 1cbf a13d 8eb7 3abc 4f41 a4be
000003d0: 9c52 0d3e 4280 b3bc 84fd 06be 8029 883e
000003e0: 3ef8 f93d b7a4 303d f721 ef3d 4cfd 9e3e
000003f0: 692d 243e 2d7a b23d 630b ab3d 4e93 8abd
0.09514703 0.15630206 -0.49323788 -0.37265673 0.18914384 0.15601173 -0.4802539 -0.21652222
0.027234659 0.030642055 0.1733877 -0.46913284 0.29579598 -0.051954158 -0.259624 0.041862085
-0.13107009 -0.2406056 0.09500297 -0.25429708 0.3790378 0.25879118 0.15602449 0.46600798
0.29759824 0.037812926 -0.103203565 0.14974242 0.04547518 -0.015882352 0.1321484 0.2907047
-0.05149792 -0.16132706 -0.19466272 0.3444909 0.16540103 0.31174707 0.21492498 0.23910369
-0.031621363 0.4782207 0.11333968 0.053308062 -0.03203032 0.27083343 0.016222214 0.20370668
0.10279691 0.058615036 0.23112364 0.2370802 -0.007489614 0.31794885 0.35131577 0.19399282
-0.27725083 0.07520607 0.14090216 0.36829904 0.27581555 0.15122683 0.1279803 -0.12954362
0.18308619 0.30631962 0.05254884 0.13962191 0.112248644 0.012870459 0.053541735 0.079899676
-0.026978433 -0.05433612 0.23958737 -0.08894542 -0.15648638 0.23941962 0.28765786 0.13972111
0.28298828 -0.07714383 -0.3651276 0.06840433 0.38396633 0.25303277 0.088753566 -0.08261555
0.086321585 0.3675114 0.22967152 -0.19129673 0.15911227 -0.11394054 0.008892621 -0.031556092
0.088967696 0.011232348 0.29702434 -0.035495598 -0.36849758 -0.3510977 0.43615392 0.52177393
-0.32522365 -0.06461675 0.41853938 -0.28702793 0.030992616 0.012653309 0.15664417 -0.10088994
-0.20277007 -0.07042032 -0.11084966 0.14731526 -0.11911643 0.15818456 0.093806945 0.4285859
-0.04311148 0.27625585 0.053108335 0.469148 0.27950105 0.05086917 0.48829904 0.21057197
0.0050465534 0.37871113 0.15537621 -0.21053123 -0.24770743 0.32269526 0.1806637 -0.10040093
-0.2562587 0.41331849 0.119709015 0.29180783 0.058651365 0.24206915 0.118872285 0.15690568
0.20051602 0.06728027 0.24565068 0.4682186 0.10527146 0.44111827 0.2036001 -0.24800721
0.098755226 0.10432568 0.2846464 0.42186338 0.1567541 0.12112959 0.290886 -0.18524233
0.039293487 0.038878065 0.3376246 0.30623642 0.14216734 0.49897286 0.27231497 0.38288411
0.45856127 0.045491993 -0.022239646 0.09551185 -0.17535827 0.40450484 0.06784282 0.4197046
0.26258782 0.4598107 0.009192936 -0.057338845 -0.038086575 0.07809359 0.31168032 0.337633
0.108982794 0.24859841 0.3362167 0.07904764 0.07289256 0.0073197475 0.20659867 0.26195702
0.12427362 -0.17795748 0.24338938 0.26352653 -0.17283358 0.11490827 0.05809751 -0.18272
-0.19983226 0.14584535 0.27556112 -0.35318318 0.26580012 0.07182927 -0.386271 0.1396103
-0.2593635 0.17768417 0.23411337 0.054888986 -0.21661453 -0.17478561 -0.21323976 0.022049895
-0.045809966 0.033911575 0.038216002 0.42156592 -0.46065566 0.008711998 -0.28902557 -0.21304075
-0.39985308 -0.42231658 -0.24073926 -0.3682543 -0.47162938 -0.1500427 -0.20916776 0.15175086
0.10864819 0.27059412 -0.32100013 0.23799546 0.06592349 -0.36315066 -0.15869528 -0.13456154
-0.20364597 0.07897779 -0.011396302 -0.32081077 0.13801044 -0.021911744 -0.13182646 0.26594162
0.122055516 0.043125834 0.116764 0.31052625 0.16032948 0.087147094 0.08351781 -0.067663774

rnn.weight_hh_l0 f4 [30, 10]
00000000: 4a68 413e 6089 bb3e f061 53be 2397 ab3d
00000010: 14e6 81bd 15d0 e63e f483 42be e6b3 19be
00000020: 4ac7 c4be 2941 763e 679f 113e a2e7 0ebe
00000030: 15be 183e 1583 c9be bb01 cb3d 6b8d 37be
00000040: 96c4 da3e 6ced 913e 5648 ea3e a41e cf3d
00000050: 41a4 16be f4fb d9be c87f aebe 7b5a 67be
00000060: 0dd4 b03b 8f1e afbd f7b7 753e a219 c83e
00000070: 03b0 6a3e 722e 96be 1277 123e 12c9 8fbe
00000080: 6b45 84be 0a2e a3be 2d4c 95bd b776 27be
00000090: c1a0 d13c 98f0 103e 9a08 a73e 0cc5 0cbe
000000a0: b4bd 353d 0751 ec3c dac4 c8be e302 11be
000000b0: 72cd 19be b461 173e d113 81be f1f3 7e3e
000000c0: 7fbe 3cbe 99be 9bbe c1b2 d2bd fcac 67bd
000000d0: 3ead 143f 74d8 63be 6234 bd3e 5291 74be
000000e0: 653c 63bd c560 42be b0e6 1dbe 9636 1abe
000000f0: 4033 c6bd cac4 f2bd 5b34 94be d569 bd3d
00000100: 040d ff3b 956a cfbd 5c7e a03e 7dd1 c13e
00000110: 1015 8d3e 5ad7 ebbe bb7f b53e 468b 593c
00000120: 97eb c4be f2e7 94be 104a 0a3e 36e7 29bd
00000130: e62a d03c 6890 d63e e275 a23e 2f08 15be
00000140: a2ee 07be dc5b 3bbe e7b6 51be bdc0 babd
00000150: 0091 e13c b5c7 b43d 3f73 b73e 0b11 6b3e
00000160: 0351 0e3c 1328 c9be 305f d53e fb72 39be
00000170: d31e 313e 0f4b b4be c7b5 f8be e46e d7bd
00000180: e466 9ebc ed6f 513e 3172 ad3e 4946 87be
00000190: 29d3 113e a468 8cbe b655 493e 2a0a 16be
000001a0: 039d 4bbb a40f 1bbe d7f1 3d3e 6efa 0b3f
000001b0: 7efd 0d3e 3e06 7e3d 929a 573e 724a 08be
000001c0: 18ba d4be f8c8 65be e2b2 bcbe 8e2d 7c3e
000001d0: bf90 6cbe 7a1b a93e 6f87 d33c f004 b9be
000001e0: 48ca b03d 20ca be3d fa7d c93d 1546 ccbe
000001f0: 7ea5 893d 4718 113d 2e19 df3e 700d 163e
00000200: 4dd5 00be e539 ebbd 9f9d d5bd ad6c aebe
00000210: f5fa 0d3e 7b22 cebe 97df 01be 18c3 0fbd
00000220: 2930 6d3e fd12 9dbd d1a1 c43e 90cf 72be
00000230: ebd2 ab3e 1c94 2e3e 5d44 b83c 4b87 d4bd
00000240: ee4f f4bd 787c 9dbe 5d0c fabd 74c4 573e
00000250: d2c0 2dbe 35ca c2bd 498c 823e 6086 7cbd
00000260: 93cd 93be a8c5 26be d775 72be f282 87be
00000270: d080 c53d 721e 1dbe ee30 9d3e d970 96be
00000280: 22f9 34be 69f2 173e 7c68 bebd cb32 4a3e
00000290: 79df 7fbd 7958 a8be 8af5 7e3e 31cb 303e
000002a0: 45ac 60be 1431 a6bc ce4c 57be c1d7 a93d
000002b0: 7fa0 403b ae33 753e 280f a5be 56b8 873e
000002c0: 8005 a9be 39e7 d1bd 82a4 96be f48e 6ebe
000002d0: ca95 ea3e 7ae3 0bbe e525 27be 5cfe 96bc
000002e0: 2f83 7dbe ed70 7c3c 551c 473e 2c52 b1bd
000002f0: 4e0f e4bd 499a 90be 627b 85bc 60a7 393c
00000300: b1e4 063c b844 7e3e bcc6 31bd 5c04 fc3d
00000310: ac1b c8bc 03e5 243e 5ad5 c83d 0cf9 c2be
00000320: 0f53 d73d 7586 96be af4d 723c a412 82be
00000330: 12be 9bbc d7f4 133d 0dd2 16be 0f87 313e
00000340: 3e87 cf3d 08ec c63d c1ee a8bc 0a12 fabd
00000350: d86e 90bd 9d12 d43e ffe0 42be 818b 4e3e
00000360: c306 dbbd 7946 81be 3bb2 b5be 5b99 e63e
00000370: 8c22 d5be b725 05be bbf0 933d 1244 b73c
00000380: 1e7a b63e 8636 babe 1026 95bd 2065 173d
00000390: a159 893e 0a8d 073e 91d9 a6be 5d6a 033e
000003a0: 18bf 813e 2239 fa3d 04e8 25bd 2c1d 0dbd
000003b0: 874a c0be 29fa 8bbe bdd2 93be 2842 8f3e
000003c0: c349 b93d 0c91 743e 9a80 903e 9499 473d
000003d0: 3f1d 73be e08a 76be 1401 d83d 9d29 d93d
000003e0: eb29 22be 094a bf3d 013b 5d3e 0160 d43e
000003f0: 9afb 1dbe 283d 2a3e 9a5f 3d3e 49e7 fc3c
0.1888744 0.36628246 -0.20642829 0.083784364 -0.06342712 0.4508063 -0.18995649 -0.15010032
-0.38433295 0.24048294 0.14220963 -0.13955548 0.1491626 -0.3935782 0.099124394 -0.1792504
0.42728108 0.2850145 0.45758313 0.10113266 -0.14711095 -0.42575037 -0.34081864 -0.2259311
0.005396372 -0.085507505 0.23995958 0.39082056 0.22918706 -0.2933231 0.14303234 -0.28083092
-0.25834212 -0.31871063 -0.0728992 -0.1635388 0.025589349 0.14154279 0.3262375 -0.13747042
0.044370368 0.02884723 -0.39212686 -0.14161257 -0.15019777 0.14783365 -0.2521043 0.24897744
-0.18432043 -0.30418852 -0.10288001 -0.056561455 0.58076847 -0.22250539 0.36954027 -0.2388356
-0.05547752 -0.18982227 -0.15420032 -0.15059885 -0.09677744 -0.11853941 -0.28946194 0.092487015
0.007783534 -0.10127751 0.31346405 0.3785514 0.27555132 -0.46062738 0.35449013 0.013277834
-0.3846099 -0.2908321 0.13504815 -0.041480266 0.02541108 0.41907048 0.31730562 -0.14553903
-0.13274625 -0.1829676 -0.20479928 -0.09118793 0.027534962 0.088271536 0.35830113 0.2295572
0.008686307 -0.39288387 0.41674185 -0.18110268 0.17296915 -0.35213515 -0.48576185 -0.105191976
-0.019336171 0.20452853 0.33876184 -0.2642081 0.14240707 -0.27423584 0.19661602 -0.14652315
-0.0031068928 -0.15142685 0.18549286 0.54679 0.13866231 0.06201767 0.21055058 -0.13309649
-0.41548228 -0.22439945 -0.36855227 0.24626753 -0.23102091 0.33028775 0.025821416 -0.3613658
0.08632332 0.09315896 0.09838481 -0.39897218 0.06721018 0.035423543 0.43573898 0.14653563
-0.12581368 -0.11485652 -0.104304545 -0.34067288 0.13865264 -0.40260682 -0.12682949 -0.035098165
0.23162903 -0.07669637 0.38404706 -0.23711991 0.33559355 0.17048687 0.022493536 -0.103773676
-0.11929308 -0.30759025 -0.12209389 0.21071035 -0.16968086 -0.09511224 0.25497654 -0.061651587
-0.28867778 -0.16286337 -0.23677765 -0.2646709 0.0964371 -0.15343645 0.30701393 -0.2938297
-0.17673162 0.14838566 -0.092972726 0.19745938 -0.06246898 -0.3288 0.24898353 0.17265011
-0.21940716 -0.020287074 -0.21025392 0.08293105 0.0029392538 0.23945495 -0.32238126 0.26507825
-0.3301201 -0.1024918 -0.29422385 -0.2329672 0.45817405 -0.13660994 -0.1632305 -0.018431835
-0.24757074 0.015407783 0.19444402 -0.08658251 -0.11135732 -0.2824271 -0.016294185 0.011331409
0.008233235 0.24830902 -0.04340242 0.12305519 -0.024427257 0.16102986 0.098063186 -0.38080633
0.10513889 -0.29399458 0.014789029 -0.25404847 -0.019011531 0.03612217 -0.14728566 0.17336677
0.10133217 0.09712988 -0.02062166 -0.12210472 -0.07052392 0.4142045 -0.19031142 0.20170404
-0.10694649 -0.2524908 -0.35487542 0.45038876 -0.4162792 -0.13002668 0.0722365 0.022371326
0.35640043 -0.36369723 -0.072826505 0.036961675 0.26826194 0.13237396 -0.32587865 0.12833543
0.25341105 0.122179285 -0.04050447 -0.03445165 -0.3755686 -0.27339295 -0.28871718 0.2798016
0.09047272 0.23883456 0.28223115 0.048730448 -0.23741625 -0.24076414 0.10547081 0.1060364
-0.15836303 0.09340293 0.2160454 0.41479495 -0.1542801 0.16624892 0.184935 0.030872004

exp_avg f4 [10, 1]
00000000: 23f8 18b9 926f 4639 0400 0000 aa83 38b8
00000010: 8767 ba39 d236 33b9 a00d 3037 8b5e 5a39
00000020: 0000 0000 eedb 1b39
-0.00014588288 0.00018924315 6e-45 -4.399164e-05 0.00035553818 -0.00017091192 1.049359e-05 0.0002082532
0.0 0.00014863882

exp_avg_sq f4 [10, 1]
00000000: 4a3f f338 6eea cb37 580f f92c c3be 6638
00000010: ab16 8937 63df 4e37 eda5 a938 c5d3 a737
00000020: 0000 0000 e7d4 c536
0.000115989315 2.430865e-05 7.078709e-12 5.5013934e-05 1.6342228e-05 1.2330568e-05 8.089454e-05 2.0006564e-05
0.0 5.8958426e-06

exp_avg f4 [10]
00000000: 26bb cbba b9c1 5039 0400 0000 b381 b0b7
00000010: 1897 7839 b69f 53b7 67b2 09ba be29 c23a
00000020: 0000 0000 625f 0fba
-0.0015543445 0.00019908593 6e-45 -2.104123e-05 0.0002370741 -1.2613766e-05 -0.0005252719 0.0014813466
0.0 -0.000546923

exp_avg_sq f4 [10]
00000000: 331e 1039 71dc 4337 e4f6 c82a dd5a 4237
00000010: 592f b036 c690 a937 5980 0f38 8f79 ce38
00000020: 0000 0000 450a 0938
0.0001374416 1.1674231e-05 3.5698452e-13 1.1584457e-05 5.2507207e-06 2.0213785e-05 3.421339e-05 9.8454875e-05
0.0 3.267291e-05

exp_avg f4 [10, 10]
00000000: 891d 063b 1d28 a339 0400 0000 5b97 ee3a
00000010: 1c49 f638 3740 6c38 9cc8 993a d338 f03a
00000020: 0000 0000 a628 8c39 9505 4abb 95c3 f6b9
00000030: 0400 0080 0aa2 33bb 4e7b 34b9 9912 03ba
00000040: e85c 1dbb 5c80 42bb 0000 0000 b99b 37ba
00000050: e4b9 3b3a 7153 fc38 0000 0000 6505 2c3a
00000060: 83fb 3138 3821 2d38 1fcf dd39 d640 2c3a
00000070: 0000 0000 f7bc cc38 6a42 5c3b cd2a 083a
00000080: 0000 0000 cde1 433b 1582 4d39 df54 1b3a
00000090: f0ed 2e3b e6b2 543b 0000 0000 90bf 503a
000000a0: ba24 d43a e916 6439 0400 0080 b048 ba3a
000000b0: 9f8a 8c38 1d05 3039 f863 963a bfe8 c53a
000000c0: 0000 0000 3690 9d39 b586 c339 649b 8f38
000000d0: 0000 0000 d576 b639 761a e637 4283 7cb8
000000e0: f48c d338 885f a739 0000 0000 f8ef e8b6
000000f0: d4b6 e7ba df4b 59b9 0000 0000 1b05 c8ba
00000100: 9633 74b8 423c 4cb9 4dd2 baba fa8e e3ba
00000110: 0000 0000 4a5e ccb9 9816 e5ba c2c6 79b9
00000120: 0400 0080 527e c8ba 4cc3 9fb8 c959 c7b9
00000130: 3f2f c8ba 5ae8 dfba 0000 0000 98eb f5b9
00000140: 2120 423a 9c98 d138 0400 0000 ebc7 2a3a
00000150: f848 1538 8f42 1d39 1194 263a b8bd 3c3a
00000160: 0000 0000 4b1b 4d39 3372 14bb 716d 9fb9
00000170: 0400 0080 9263 01bb d4a7 cfb8 b540 eeb9
00000180: d22a 01bb 0bf1 11bb 0000 0000 490c 1dba
0.0020464382 0.0003111967 6e-45 0.0018203066 0.00011743812 5.632659e-05 0.001173276 0.0018327482
0.0 0.00026733166 -0.003082608 -0.00047066496 -6e-45 -0.0027409815 -0.00017212072 -0.00050000247
-0.0024011675 -0.002967856 0.0 -0.00070041005 0.0007161184 0.000120318386 0.0 0.0006562083
4.2434327e-05 4.127735e-05 0.00042306722 0.00065709406 0.0 9.7626755e-05 0.0033608922 0.0005194366
0.0 0.0029889226 0.00019598783 0.00059254275 0.0026692115 0.0032455265 0.0 0.00079631153
0.0016185262 0.00021752309 -6e-45 0.0014212336 6.7015404e-05 0.00016786573 0.0011473885 0.0015099271
0.0 0.0003005282 0.00037293663 6.847715e-05 0.0 0.00034802282 2.7430458e-05 -6.0203725e-05
0.000100875186 0.00031923898 0.0 -6.942075e-06 -0.0017678388 -0.00020722997 0.0 -0.0015260311
-5.8222176e-05 -0.00019477404 -0.0014253348 -0.0017361336 0.0 -0.00038980163 -0.0017478047 -0.00023820534
-6e-45 -0.0015296435 -7.618088e-05 -0.00038023133 -0.001527287 -0.0017082796 0.0 -0.00046905573
0.00074053 9.994322e-05 6e-45 0.00065147755 3.5592326e-05 0.00014997482 0.0006354461 0.0007199901
0.0 0.00019560491 -0.0022651076 -0.00030408383 -6e-45 -0.0019743186 -9.9017896e-05 -0.00045443108
-0.001970936 -0.0022268917 0.0 -0.00059909053

exp_avg_sq f4 [10, 10]
00000000: a09e 6739 24fb f736 d168 0826 1883 3e39
00000010: 524b 8635 8f6d b135 7a8c 8938 5b93 3139
00000020: 0000 0000 9c9c 8236 b8fa 0d3a 827c 9837
00000030: 223a 9127 1cb7 e939 f71e 1c36 e434 8137
00000040: 5f25 6639 38bb dc39 0000 0000 3cff 9937
00000050: 0255 4538 2bec f035 0000 0000 424f 2338
00000060: 23e0 1134 1ecc 0438 c3fd 8738 8a6a 2438
00000070: 0000 0000 bb00 6a37 1a6c 193a 27ff 7437
00000080: 0000 0000 fc60 f039 d916 0436 ff89 2738
00000090: 9751 a039 57fe 013a 0000 0000 23b7 e837
000000a0: 0ca2 0939 e304 8636 2783 6524 d9c2 d838
000000b0: 3209 2e35 ed29 3a36 3ca9 6e38 7e44 e038
000000c0: 0000 0000 a248 8f36 e371 9338 1c2f 9836
000000d0: 0000 0000 35b3 8638 0d0c 3135 f447 b835
000000e0: 3f71 8a37 bd90 2b38 0000 0000 a4a8 e535
000000f0: ae34 f638 ad4c 9e35 0000 0000 457f af38
00000100: 1449 cc32 1d66 0437 f814 b038 5644 e238
00000110: 0000 0000 1a2a f536 016c 5e39 9492 1e37
00000120: 8c0f 9c25 fb11 3939 a693 cc35 0fa0 2c37
00000130: 04dc db38 ccdc 2739 0000 0000 0b03 3337
00000140: b8f3 b538 97dd 8336 2f0c 8b25 e479 9738
00000150: ad7a 1d35 ccea 1836 050e 0738 edb0 8338
00000160: 0000 0000 31fd 3d36 6706 9939 5f94 4737
00000170: e62f 9c26 97ef 7539 1e74 0f36 50d4 6737
00000180: 7cd5 3139 6a4a 7a39 0000 0000 95e3 8e37
0.00022088969 7.3904102e-06 4.732653e-16 0.00018168648 1.0005699e-06 1.3219413e-06 6.558835e-05 0.0001693493
0.0 3.8925336e-06 0.0005416083 1.817779e-05 4.0308612e-15 0.0004457765 2.3263835e-06 1.5402627e-05
0.00021948431 0.0004210116 0.0 1.8357874e-05 4.704763e-05 1.7950127e-06 0.0 3.8936043e-05
1.3585718e-07 3.166135e-05 6.4845684e-05 3.919987e-05 0.0 1.3947657e-05 0.0005852595 1.4602941e-05
0.0 0.00045848626 1.9682832e-06 3.994442e-05 0.00030578367 0.0004958859 0.0 2.7741835e-05
0.00013125705 3.99408e-06 4.976755e-17 0.00010335976 6.483343e-07 2.7740564e-06 5.6901234e-05 0.0001069391
0.0 4.2701877e-06 7.030719e-05 4.5354373e-06 0.0 6.422998e-05 6.5955174e-07 1.3730009e-06
1.6503616e-05 4.0904375e-05 0.0 1.711091e-06 0.000117400064 1.1794233e-06 0.0 8.368356e-05
2.3781958e-08 7.891588e-06 8.39624e-05 0.00010789248 0.0 7.3064703e-06 0.00021211804 9.451662e-06
2.707222e-16 0.00017649673 1.5242156e-06 1.0289265e-05 0.00010483715 0.00016008614 0.0 1.066994e-05
8.676149e-05 3.9299007e-06 2.4120912e-16 7.222945e-05 5.8665574e-07 2.2786435e-06 3.2199565e-05 6.279522e-05
0.0 2.8310571e-06 0.00029187204 1.189587e-05 1.0837657e-15 0.00023454275 2.137625e-06 1.3818106e-05
0.00016959565 0.0002386958 0.0 1.7033695e-05

exp_avg f4 [10]
00000000: a717 c93a 9a03 38bb d3d9 103a 3d02 4b3b
00000010: 74cf b43a 1157 5339 f85b d9ba 3ed9 dfba
00000020: 7d18 3b3a 1c28 11bb
0.0015342132 -0.0028078319 0.00055256224 0.0030976676 0.0013794736 0.00020154963 -0.0016583195 -0.0017078293
0.0007137133 -0.0022149151

exp_avg_sq f4 [10]
00000000: a5c8 f238 266d ab39 c64d 9438 2e62 e639
00000010: 945e b438 75b2 e937 ea02 e438 3de5 1139
00000020: d214 4f38 b434 6739
0.00011576832 0.00032696984 7.0716764e-05 0.00043942168 8.6006854e-05 2.7858865e-05 0.0001087243 0.00013913676
4.9372036e-05 0.0002204951

exp_avg f4 [10, 1]
00000000: db52 7db7 9e2a 9432 0400 0080 eb7b fa31
00000010: e342 9734 36d9 8db7 0400 0000 6c19 0637
00000020: 0000 0000 d9e0 f9b7
-1.5099266e-05 1.7248848e-08 -6e-45 7.2900455e-09 2.8174608e-07 -1.6909657e-05 6e-45 7.992941e-06
0.0 -2.9787816e-05

exp_avg_sq f4 [10, 1]
00000000: f09f 1835 4078 ae32 82a0 402a 3185 7d30
00000010: 1997 9332 09c4 6b35 6095 8428 9c1d 9f35
00000020: 0000 0000 b536 2f35
5.685715e-07 2.031095e-08 1.7108713e-13 9.223014e-10 1.7181764e-08 8.782959e-07 1.4719725e-14 1.1855041e-06
0.0 6.527219e-07

exp_avg f4 [10]
00000000: fdbe 99b9 33fb 9db2 0400 0000 4ce4 03b2
00000010: 4bd3 aeb4 9d1c 84b7 0400 0000 6376 ce39
00000020: 0000 0000 7d9e 0439
-0.0002932473 -1.8391438e-08 6e-45 -7.677112e-09 -3.2563761e-07 -1.574895e-05 6e-45 0.00039379587
0.0 0.00012647542

exp_avg_sq f4 [10]
00000000: 089b 0037 3fef 4832 ba55 fa28 a2a3 1830
00000010: e640 7132 4ce3 d036 384e 0f27 df75 a337
00000020: 0000 0000 ee1a 2f37
7.665491e-06 1.16959304e-08 2.7792754e-14 5.5529814e-10 1.40428025e-08 6.225344e-06 1.988764e-15 1.9486002e-05
0.0 1.0437083e-05

exp_avg f4 [10, 20]
00000000: 0400 0000 0400 0000 0400 0000 0000 0000
00000010: 0400 0000 0400 0000 0000 0000 0400 0000
00000020: 0000 0000 0400 0000 0400 0080 0400 0080
00000030: 0400 0080 0400 0080 0400 0080 0400 0080
00000040: 0400 0000 0400 0000 0400 0000 0400 0080
00000050: a7c0 f93a 6bda 0f3b 87fc 1e3b ac83 ec3a
00000060: 450d b53a 3c12 0e3b fce7 993a 6d67 5c3b
00000070: 59c0 383b 5cbe e53a b8fa b33a 0d5c 53bb
00000080: c3d2 15b9 e99d 4ebb 94e7 b2ba efaf 3aba
00000090: 9205 4f3b ee43 513b e2f3 513b b99e 52bb
000000a0: e24a 2abb 4de1 44bb cfc8 5fbb 1cbc 25bb
000000b0: db60 f7ba d79d 43bb ea94 dbba 3175 98bb
000000c0: 6a48 7dbb 1dc4 1fbb 7d2c 04bb 3c70 933b
000000d0: 2513 a839 294a 903b 4969 013b c0b1 643a
000000e0: 306f 90bb 2200 92bb ff7f 92bb 8bfb 923b
000000f0: a1ee 02bb 9424 19bb 2252 38bb 7a79 0abb
00000100: dbe5 beba a3a7 18bb 01d8 c2ba b20a 73bb
00000110: 0175 44bb 9975 00bb adbb ccba d253 6f3b
00000120: fc8c 4239 5e3d 6a3b 8963 cc3a e983 493a
00000130: 36b2 6abb d421 6dbb a5d3 6dbb c184 6e3b
00000140: d2d1 23ba 0cf3 3aba f160 3aba ae77 10ba
00000150: 5c96 eab9 3db4 32ba d1e9 b4b9 c4ce 89ba
00000160: c171 6dba 5973 0cba 2a74 f1b9 a763 7f3a
00000170: 2e07 d338 7880 793a 8486 e639 ba5e 2c39
00000180: 4382 79ba 7b8b 7cba a2a5 7dba 51ad 7e3a
00000190: acb0 e03a 7664 023b d1a9 1b3b 1092 e13a
000001a0: 0dad a43a 40e6 033b bb4a 973a 82f1 4d3b
000001b0: 92bf 283b 890e da3a 965b ac3a ae2d 48bb
000001c0: 862b 21b9 ef17 43bb 27ff aaba 2395 2bba
000001d0: d991 433b 3ff4 453b 44a9 463b 5f70 47bb
000001e0: 0000 0000 0000 0000 0000 0000 0000 0000
000001f0: 0000 0000 0000 0000 0000 0000 0000 0000
00000200: 0000 0000 0000 0000 0000 0000 0000 0000
00000210: 0000 0000 0000 0000 0000 0000 0000 0000
00000220: 0000 0000 0000 0000 0000 0000 0000 0000
00000230: db4a 57bb 4283 79bb 86df 91bb e5d3 51bb
00000240: ca81 1dbb ff70 7cbb b150 09bb 3b3d c3bb
00000250: a98e a1bb b8a7 4ebb e683 2ebb ffc5 bf3b
00000260: 1482 d539 2d75 bc3b fb58 283b ea5e 9b3a
00000270: f06a bcbb 052c bebb b1c0 bebb 233c bf3b
00000280: 1993 403b 3623 5d3b 108b 733b 2812 343b
00000290: ab55 0b3b 0b96 5a3b fdf5 e73a bc0f a93b
000002a0: 635e 8e3b 79f1 2f3b c582 103b 51a0 a0bb
000002b0: 109a cdb9 6883 9cbb 03a0 0ebb 3af7 63ba
000002c0: a5d5 9c3b 68ce 9e3b fe6b 9f3b 0817 a0bb
000002d0: 0400 0000 0400 0000 0400 0000 0400 0000
000002e0: 0400 0000 0400 0000 0400 0000 0400 0000
000002f0: 0400 0000 0400 0000 0400 0000 0400 0080
00000300: 0400 0080 0400 0080 0400 0080 0400 0080
00000310: 0400 0000 0400 0080 0400 0000 0400 0080
6e-45 6e-45 6e-45 0.0 6e-45 6e-45 0.0 6e-45
0.0 6e-45 -6e-45 -6e-45 -6e-45 -6e-45 -6e-45 -6e-45
6e-45 6e-45 6e-45 -6e-45 0.0019054607 0.0021950256 0.0024259405 0.0018044612
0.0013813159 0.002167835 0.001174211 0.0033630983 0.002819082 0.0017528045 0.0013731336 -0.0032250911
-0.00014288262 -0.0031527227 -0.0013649338 -0.0007121553 0.0031589014 0.0031931358 0.0032036235 -0.0032138063
-0.0025984575 -0.0030041516 -0.003414679 -0.0025289124 -0.001887347 -0.0029848719 -0.0016752754 -0.004652642
-0.0038647898 -0.0024378367 -0.0020168119 0.0044994634 0.0003205772 0.004403372 0.0019746593 0.00087239966
-0.004407786 -0.0044555822 -0.0044708247 0.0044855527 -0.001997866 -0.002336775 -0.0028125127 -0.0021129535
-0.0014564352 -0.0023293279 -0.00148654 -0.0037085232 -0.0029976966 -0.0019601344 -0.0015619897 0.0036518467
0.00018553803 0.0035742144 0.0015593629 0.00076871976 -0.0035811788 -0.0036183493 -0.003628948 0.0036395045
-0.0006249222 -0.0007131554 -0.00071097823 -0.0005510998 -0.00044743984 -0.0006817019 -0.00034506482 -0.0010513891
-0.0009057783 -0.00053577643 -0.0004605365 0.00097423274 0.00010062601 0.00095177395 0.0004396924 0.00016438487
-0.00095180067 -0.00096338213 -0.00096758653 0.0009715157 0.0017142496 0.0019896305 0.0023752342 0.0017209668
0.001256378 0.0020126253 0.0011542657 0.0031424467 0.002574895 0.0016636412 0.0013149853 -0.0030544805
-0.0001537037 -0.0029768904 -0.0013046012 -0.00065453554 0.002984157 0.0030205396 0.0030313293 -0.0030431969
0.0 0.0 0.0 0.0 0.0 0.0 0.0 0.0
0.0 0.0 0.0 0.0 0.0 0.0 0.0 0.0
0.0 0.0 0.0 0.0 -0.0032851014 -0.003807262 -0.004451695 -0.0032017168
-0.002403366 -0.00385195 -0.0020952637 -0.005958227 -0.0049303365 -0.0031533074 -0.002662891 0.0058524604
0.00040723442 0.005751273 0.0025687802 0.0011853848 -0.0057500526 -0.0058035874 -0.0058213104 0.0058360263
0.0029384552 0.0033742911 0.0037161745 0.0027476642 0.002126078 0.0033353593 0.0017697212 0.0051593464
0.004344748 0.002684681 0.00220506 -0.0049019237 -0.00039215432 -0.004776407 -0.0021762855 -0.00086962024
0.0047862106 0.004846383 0.0048651686 -0.004885558 6e-45 6e-45 6e-45 6e-45
6e-45 6e-45 6e-45 6e-45 6e-45 6e-45 6e-45 -6e-45
-6e-45 -6e-45 -6e-45 -6e-45 6e-45 -6e-45 6e-45 -6e-45
