generative_ts/saves/250809_100554/model_LS4.pth (torch, 234379 bytes, 259 tensors)

encoder.latent.encoder.weight f4 [16, 1]
0	0xbe2ac3a5	-0.16676195
1	0x3caed127	0.021339966
2	0xbf0658e9	-0.52479416
3	0x3eee62b6	0.46559685
4	0x3e36c830	0.17849803
5	0x3f133555	0.57503253
6	0x3eb4e42f	0.3533034
7	0xbed03abc	-0.4066981
8	0xbe800bcd	-0.25009003
9	0x3ed628dc	0.41828048
10	0x3e4e2afc	0.20133585
11	0x3f34c258	0.70609045
12	0xbc7d2847	-0.015451497
13	0x3dd44438	0.10364574
14	0xbefb31ee	-0.4906153
15	0xbea63817	-0.32464668

encoder.latent.encoder.bias f4 [16]
0	0x3f194321	0.59868056
1	0x3e010fff	0.12603758
2	0xbf945f7e	-1.1591642
3	0xbf26d49e	-0.6516818
4	0xbf8cca6d	-1.0999275
5	0xbefb4325	-0.49074665
6	0x3e6a28b2	0.22867087
7	0xbea618cd	-0.32440796
8	0xbf944f26	-1.1586654
9	0x3f930f51	1.1489049
10	0xbe783940	-0.24240589
11	0xbcaa5a7f	-0.020795105
12	0xbf2f5006	-0.6848148
13	0xbf31d0a4	-0.69458985
14	0x3f7a729a	0.9783112
15	0xbe9396c9	-0.28825977

encoder.latent.backbone.d_layers.0.linear.weight f4 [16, 16]
0	0xbcf40591	-0.02978781
1	0x3d10ecb1	0.035381977
2	0x3d52806f	0.051392015
3	0x3e1bb06a	0.15204015
4	0x3e9c899b	0.30573735
5	0xbe3e8575	-0.18605597
6	0x3ced7676	0.02898715
7	0xbdd4d66c	-0.1039246
8	0x3e7cd08c	0.2468893
9	0xbdcf3db8	-0.10119194
10	0xbe3ae8df	-0.18252896
11	0xbdc7b55f	-0.09751391
12	0x3eb3139c	0.34975898
13	0x3e2a7c1e	0.1664891
14	0xbce416eb	-0.02784296
15	0xbb8614c6	-0.004091832
16	0xbcd1dd12	-0.02561811
17	0x3ea10353	0.3144785
18	0x3d7b77ed	0.061393667
19	0xbd8c223b	-0.068424664
20	0xbe23c78e	-0.15994093
21	0xbb8aaf2d	-0.0042323084
22	0x3e28b307	0.16474544
23	0xbd1f26d9	-0.038855407
24	0xbd90e327	-0.07074576
25	0x3e03bc1a	0.12864724
26	0x3caf76b1	0.021418901
27	0xbdbad3e0	-0.09122443
28	0xbe8d732c	-0.27626932
29	0x3e376841	0.17910863
30	0x3e086826	0.1332098
31	0x3dce675a	0.100783065
32	0x3d3291ea	0.043596186
33	0xbdc429ea	-0.09578307
34	0xbe1e0827	-0.15432797
35	0x3d74f14e	0.05980044
36	0xbec3ab9c	-0.38216865
37	0xbc94fc6d	-0.018186772
38	0xbd37afa7	-0.04484525
39	0xbe6bb5c3	-0.23018555
40	0xbe8ee385	-0.2790796
41	0x3e83d090	0.25745058
42	0xbb6d71cd	-0.003623116
43	0xbe2ceeb6	-0.16887936
44	0xbe87147a	-0.2638281
45	0x3dfb2bf3	0.12264242
46	0x3e55707d	0.20843692
47	0x3df331a6	0.11874704
48	0xbddbee90	-0.107388616
49	0x3ce4eaa0	0.02794391
50	0x3ccc697c	0.024952643
51	0xbe683925	-0.22678049
52	0xbd9430dc	-0.07235882
53	0x3e122e3e	0.14275452
54	0xbe2ed2f5	-0.17072661
55	0x3c4f6a23	0.012659582
56	0xbdf59dba	-0.119929746
57	0xbd8af8f2	-0.06785764
58	0xbcdeb39a	-0.02718525
59	0x3db13a46	0.08653693
60	0x3ea8e40b	0.32986483
61	0x3da133b6	0.07871191
62	0x3dee4d40	0.11635828
63	0xbd8e3f79	-0.069457
64	0x3d995b95	0.07488171
65	0x3df7593b	0.12077566
66	0x3e568321	0.20948459
67	0x3e24712b	0.16058795
68	0xbbe1a799	-0.0068864343
69	0x3dd56b42	0.104208484
70	0x3b90ca97	0.004418682
71	0x3cfec751	0.0311009
72	0x3e343ba2	0.17600873
73	0xbe29c50d	-0.16579075
74	0x3bd9388c	0.0066290554
75	0x3e14909f	0.14508294
76	0xbddb62f5	-0.10712234
77	0x3d5bdd14	0.053677633
78	0x3d71a6fb	0.058997136
79	0x3dd00570	0.10157287
80	0xbe129975	-0.14316352
81	0x3d9c1240	0.076206684
82	0x3e38f437	0.1806191
83	0x3cc17675	0.023616055
84	0x3e4d7e85	0.20067795
85	0x3e2608bb	0.16214268
86	0xbe4e9fd9	-0.20178165
87	0x3dba1ef5	0.09087936
88	0x3e980bb1	0.2969642
89	0x3dcf50ac	0.10122809
90	0x3e350379	0.17677106
91	0x3d4445e5	0.04791822
92	0xbcb15f64	-0.021651931
93	0x3b1d9b35	0.002404881
94	0x3e88df61	0.26732925
95	0xbc82fe51	-0.015990408
96	0x3e9423cc	0.2893356
97	0xbcadc682	-0.02121282
98	0xbd94c852	-0.072647706
99	0xbc6c94c7	-0.014439768
100	0x3cd7f56c	0.026362143
101	0xbe3699dd	-0.17832132
102	0x3de96e56	0.11397998
103	0xbe32f133	-0.17474823
104	0x3dac80cd	0.08423004
105	0x3ddbfc47	0.107414775
106	0xbea43eab	-0.32079062
107	0x3cf6c4a5	0.030123064
108	0xbe85dbf3	-0.2614437
109	0xbe4e8666	-0.20168456
110	0xbd80fef7	-0.06298631
111	0x3e8ef207	0.27919027
112	0x3ddb0840	0.10694933
113	0x3e257949	0.16159548
114	0xbe3dd88c	-0.18539637
115	0xbdf0d2af	-0.11758935
116	0xbe6672b6	-0.22504696
117	0xbe8628a1	-0.26202872
118	0xbe654305	-0.22388847
119	0xbe6c1c85	-0.23057754
120	0xbe933c66	-0.28757018
121	0x3e7b259a	0.24526063
122	0x3d13ecff	0.03611469
123	0x3cd71598	0.026255414
124	0xbf02e7be	-0.5113486
125	0xbe2b42d4	-0.16724712
126	0xbd3f146b	-0.04665033
127	0x3e124cae	0.14287063
128	0xbdcdbd3d	-0.1004586
129	0xbd8fe462	-0.070259824
130	0xbd8a6666	-0.06757812
131	0x3da79a86	0.0818377
132	0xbe6553f6	-0.2239531
133	0x3e26f006	0.16302499
134	0xbcd4212d	-0.025894726
135	0x3ba11bc8	0.004916642
136	0x3d5b14a2	0.053486474
137	0x3e2d8197	0.16943966
138	0xbe84ec45	-0.2596151
139	0xbbaa765e	-0.0052020987
140	0xbe12c898	-0.14334333
141	0x3dff5004	0.12466434
142	0x3e391041	0.18072607
143	0x3e513a33	0.20432357
144	0xbd60ac28	-0.05485168
145	0xbd9f0540	-0.07764673
146	0x3e450791	0.19241168
147	0xbe794467	-0.243425
148	0xbcb213a3	-0.02173788
149	0x3d4512bc	0.04811357
150	0x3e704182	0.23462489
151	0xbda14c4a	-0.07875879
152	0xbe85b7c7	-0.26116773
153	0xbd61e1a7	-0.05514684
154	0xbde69acb	-0.11259993
155	0x3e5056c3	0.20345597
156	0xbd2f4b08	-0.042796165
157	0xbe034b30	-0.1282165
158	0xbca661bd	-0.020310277
159	0x3e5d214c	0.21594733
160	0x3dfbc301	0.122930534
161	0x3d58141a	0.052753545
162	0xbe2daa22	-0.16959432
163	0x3e82b0fd	0.25525656
164	0x3eb744ba	0.35794622
165	0xbe062d43	-0.13103203
166	0xbdabdee2	-0.08392121
167	0x3e3788a2	0.17923215
168	0x3e8f8e12	0.2803808
169	0xbdab94a1	-0.08377958
170	0xbd3a03ce	-0.045413785
171	0xbdcedc32	-0.10100593
172	0x3e416ab4	0.1888836
173	0xbd88a18f	-0.0667144
174	0x3a83598d	0.0010021195
175	0x3e6337e9	0.22189297
176	0x3cfbd83c	0.030742757
177	0xbe5ae112	-0.2137492
178	0x3e8fa4e5	0.28055492
179	0xbda8315b	-0.08212539
180	0xbe627834	-0.22116166
181	0x3db5a9df	0.08870291
182	0xbe29e781	-0.16592218
183	0x3d42adc2	0.04752899
184	0xbc5018a6	-0.012701189
185	0xbd9f425f	-0.07776331
186	0xbd975bb9	-0.073905416
187	0xbd9852f0	-0.07437694
188	0x3d752e99	0.059858892
189	0x3e1021c6	0.14075384
190	0xbe5aa2bf	-0.21351145
191	0xbdec64af	-0.11542641
192	0x3e9cc629	0.30619934
193	0x3e952452	0.29129273
194	0x3c8946b1	0.016757341
195	0xbdfeaf79	-0.124358125
196	0xbe6a87f8	-0.2290343
197	0x3ba13171	0.004919224
198	0x3e8696bd	0.2628688
199	0xbce3ad07	-0.027792467
200	0xbe955d39	-0.29172686
201	0x3e247396	0.16059718
202	0xbb747990	-0.0037303902
203	0xbe228fb9	-0.15875138
204	0xbefd695e	-0.4949445
205	0xbe963ede	-0.2934484
206	0xbd82057d	-0.06348703
207	0xbde39b04	-0.11113551
208	0xbe393e15	-0.18090089
209	0xbe9686b1	-0.29399636
210	0x3e9e6173	0.30933723
211	0xbdb1c396	-0.08679883
212	0x3d71dee1	0.059050445
213	0x3e4f3915	0.20236619
214	0x3c06b866	0.008222675
215	0xbe11fa9c	-0.14255756
216	0x3e7705d9	0.24123324
217	0xbddcad20	-0.107752085
218	0xbd6ca263	-0.05777205
219	0x3dadbc9e	0.084832415
220	0xbc07347e	-0.008252261
221	0x3dea9301	0.1145382
222	0x3ccb0ad1	0.024785431
223	0x3e8b67b8	0.2722757
224	0xbd2b84ef	-0.041874822
225	0x3d837e34	0.06420556
226	0x3eade3fe	0.33963007
227	0xbdef9143	-0.11697628
228	0x3e3eb48d	0.18623562
229	0x3e4ae176	0.19812569
230	0xbe77cc0e	-0.24198934
231	0x3e300bd8	0.17192018
232	0xbdbe27e2	-0.09284951
233	0xbd593f05	-0.053038616
234	0x3e71c4e9	0.23610272
235	0x3e2f89f6	0.17142472
236	0x3d87cd6e	0.066309795
237	0x3c75c7d1	0.015001253
238	0x3d41f72d	0.047354866
239	0x3e61c18d	0.2204649
240	0x3d8003cb	0.062507235
241	0x3d4480e4	0.047974482
242	0x3e07dea3	0.13268523
243	0x3e68e095	0.22741921
244	0xbd467a59	-0.048456524
245	0xbe084af9	-0.1330985
246	0xba953c01	-0.001138568
247	0x3df224e4	0.118234426
248	0x3e1b8565	0.15187605
249	0x3e194bc3	0.14970307
250	0xbe502425	-0.20326288
251	0xbe334cbf	-0.17509745
252	0x3e30c3d6	0.17262205
253	0xbdd1eb70	-0.10249984
254	0xbe5d80c1	-0.21631147
255	0x3d0c266c	0.03421633

encoder.latent.backbone.d_layers.0.linear.bias f4 [16, 1]
0	0xbe09c3ff	-0.13453673
1	0xbdde515c	-0.10855362
2	0x3e256f3d	0.16155715
3	0x3dd3d84a	0.10343988
4	0xbd06af54	-0.03288205
5	0xbe8eafe0	-0.27868557
6	0x3e7b20a2	0.24524167
7	0x3ecaf9d8	0.3964374
8	0xbe4e9a00	-0.20175934
9	0xbe62033a	-0.22071543
10	0xbe34b83c	-0.17648405
11	0xbe25f32d	-0.16206045
12	0x3f0719c8	0.52773714
13	0xbe909efd	-0.28246298
14	0xbe3480e6	-0.17627296
15	0xbec552bf	-0.38539693

encoder.latent.backbone.c_layers.0.layer.D f4 [1, 16]
0	0x4028d591	2.638035
1	0x3dc53dff	0.096309654
2	0x3f6e67ca	0.9312712
3	0x3f0e008b	0.5546958
4	0xbf558ce5	-0.83418113
5	0xbf1b7dc3	-0.6073877
6	0x405bee40	3.4364166
7	0xbfad36a3	-1.3532299
8	0x3b30a08d	0.0026951164
9	0x3f61c2a5	0.8818763
10	0x3cdfe960	0.027332962
11	0xbd4e658a	-0.050389804
12	0xbfccf9c3	-1.6013721
13	0x3fc7c2ed	1.5606362
14	0x3eec05cc	0.46098173
15	0xbf213284	-0.62967706

encoder.latent.backbone.c_layers.0.layer.kernel.kernel.C f4 [1, 16, 8, 2]
0	0x3e73f68c	0.23824519
1	0x3f30b034	0.69018865
2	0xbe46a07f	-0.19397162
3	0x3f376b02	0.71647656
4	0xbf9a9732	-1.2077391
5	0x3f53e7c7	0.8277554
6	0xc00c1b04	-2.189149
7	0x3fd76222	1.6826823
8	0xbf49c1ec	-0.78811526
9	0xc01ffa18	-2.4996395
10	0x3ff78dc0	1.9340134
11	0xbee16f3a	-0.44030172
12	0xbf2738d4	-0.6532109
13	0xbf436598	-0.76326895
14	0x402bd83a	2.6850724
15	0x3e468f1b	0.19390528
16	0x3f091a40	0.5355568
17	0x3ed7213c	0.42017543
18	0xbeb5056f	-0.35355708
19	0x3fe40e75	1.7816912
20	0x3f1c2c8f	0.6100549
21	0x3e9be606	0.3044893
22	0x3e1fe225	0.15613611
23	0x3ea728e2	0.3264838
24	0x3fb7f554	1.4371743
25	0xbfd93774	-1.6970048
26	0xbfa4b55e	-1.2867849
27	0x3fba55db	1.4557451
28	0xbedf5d90	-0.4362607
29	0x3f41bb04	0.7567599
30	0x3f1a47df	0.60265917
31	0xbef80111	-0.48438314
32	0x3f9e2ed5	1.2358042
33	0x3fb2f067	1.3979615
34	0xbeb9372d	-0.36174908
35	0xbe9c0ba5	-0.30477634
36	0xbd36bf4e	-0.044616036
37	0x3f71664e	0.9429673
38	0x3d5e8ce1	0.05433357
39	0x3ebba290	0.36647463
40	0xbf2ee301	-0.6831513
41	0xbf59a6f3	-0.8502037
42	0xbc3b956c	-0.011449199
43	0xbd696565	-0.056981463
44	0x3da6423d	0.08118103
45	0xbdd89ba3	-0.1057656
46	0x3f0af898	0.54285574
47	0x3eb05f60	0.34447765
48	0xbf8204be	-1.0157697
49	0x3d7a3c19	0.06109247
50	0x3fa50d49	1.2894679
51	0xbf622252	-0.8833362
52	0x3f620055	0.88281757
53	0xbf828992	-1.0198233
54	0x3fb03963	1.3767513
55	0x3f72df55	0.9487203
56	0x3ecb7165	0.3973495
57	0xbe8959d6	-0.26826352
58	0xbf16b96f	-0.588767
59	0xbfc2af25	-1.52097
60	0x3f760372	0.9609901
61	0xbfde4365	-1.7364317
62	0xbdd573e9	-0.10422499
63	0xbf355b32	-0.7084228
64	0xbf39ba6a	-0.7255007
65	0xbe46db97	-0.19419704
66	0xbee60274	-0.44923747
67	0xbf48f84c	-0.7850387
68	0xbfc9492b	-1.5725454
69	0x3aa0846a	0.0012246494
70	0x3e7c665f	0.24648426
71	0x3d38f5f7	0.045156445
72	0x3e8e098a	0.27741653
73	0x3fc63e43	1.5487751
74	0x3fd1a096	1.6377132
75	0x3e2b8698	0.16750562
76	0x3f35d1c4	0.710232
77	0xbfd9e799	-1.7023803
78	0x3eafa158	0.34302783
79	0xbeda0f34	-0.42589724
80	0x400457ca	2.0678582
81	0x3f3e8829	0.74426514
82	0x3d630c0f	0.05543142
83	0xbe4c26b5	-0.1993664
84	0x3ec38b78	0.38192344
85	0x3f2d5d2f	0.6772031
86	0xbf6f54d2	-0.934888
87	0x3fa372de	1.276943
88	0xbf3a3ebb	-0.7275197
89	0xbfd2b162	-1.6460383
90	0x3fa0d4eb	1.2564977
91	0xbf926696	-1.1437557
92	0x3f85bb5d	1.0447804
93	0x3fa758a1	1.3073922
94	0xbf1e6473	-0.61872023
95	0x3e9553a5	0.29165378
96	0x3fb05f8c	1.3779159
97	0x3f227c0a	0.6347052
98	0xbf826035	-1.018561
99	0xbe9a6798	-0.3015716
100	0x3d973ddf	0.07384848
101	0x3f393536	0.7234682
102	0x3fa6bfd7	1.3027295
103	0x3ef95096	0.48694295
104	0xbf98c9e2	-1.193661
105	0xbf08cf49	-0.5344129
106	0x3a57b19a	0.0008228064
107	0xbe10b2eb	-0.14130752
108	0xbe045fe0	-0.12927198
109	0xbed8142a	-0.42202884
110	0xbebbff48	-0.36718202
111	0xbebbd5b7	-0.3668649
112	0x3e001d4f	0.1251118
113	0x3e8370c4	0.2567197
114	0xbec8c3fc	-0.39212024
115	0xbf4c0d1a	-0.7970749
116	0xbf2610e6	-0.64869535
117	0xbf02089a	-0.50794375
118	0xbf930413	-1.1485618
119	0xbf9246b9	-1.1427833
120	0xbfa630e6	-1.2983673
121	0x3d8d5cbf	0.069024555
122	0xbfa99baa	-1.325063
123	0x3f045a6b	0.51700467
124	0xbfb1a188	-1.387742
125	0x3fb0d5a6	1.38152
126	0x3f7bed09	0.9840856
127	0xbe856369	-0.26052406
128	0xbc05f2c0	-0.008175552
129	0xbed0bc5e	-0.40768713
130	0xbf07f26b	-0.53104275
131	0x3f5f64f9	0.8726345
132	0xbd99d761	-0.075117834
133	0x3e9776cb	0.2958282
134	0x3fe3aa95	1.7786433
135	0x3f88129e	1.0630682
136	0x3fa619ec	1.2976661
137	0xbf154712	-0.5831157
138	0xbfc09941	-1.5046769
139	0xbf48c191	-0.7842036
140	0xbed70273	-0.41994056
141	0x3f6950b9	0.911388
142	0xbf355957	-0.70839447
143	0x3e4619fa	0.19345847
144	0xbde302d4	-0.11084524
145	0xc02314b4	-2.5481386
146	0x3f0d8c5b	0.5529229
147	0xbf3d0718	-0.7383895
148	0x3f3bef3f	0.73411936
149	0xbf3dd03f	-0.74145883
150	0xbfa3d359	-1.2798873
151	0xbf730510	-0.949296
152	0xbed7be9c	-0.4213761
153	0xbe76dee3	-0.24108462
154	0xbfeb0ddf	-1.8363608
155	0x3e97e84c	0.29669416
156	0x3fb559b8	1.4168005
157	0xbedb248e	-0.42801327
158	0x3d8e0540	0.06934595
159	0x3ecd8938	0.40143752
160	0x3e1810e2	0.1485019
161	0xbf0eae46	-0.5573467
162	0xbf458bb1	-0.7716628
163	0x3fa0b758	1.2555952
164	0xbf96e190	-1.1787586
165	0xbf5e880f	-0.8692636
166	0xbf37544e	-0.71613014
167	0x3f79c490	0.97565556
168	0x3dc8dd20	0.09807801
169	0x40449a8b	3.0719326
170	0xbf83e28f	-1.0303515
171	0x3fc467b6	1.534415
172	0xbeda827b	-0.42677674
173	0xbf026b6a	-0.5094515
174	0xbeaae240	-0.3337574
175	0xbe922d57	-0.28550217
176	0xbe9ddd0c	-0.30832708
177	0xbe77884e	-0.2417309
178	0xbf7193a1	-0.9436589
179	0xbf721a2b	-0.9457118
180	0xbf4d5f18	-0.80223227
181	0x3f512d68	0.8170991
182	0xbf583254	-0.84451795
183	0x3f5e3ab1	0.86808306
184	0x3f92d898	1.1472349
185	0x3f008689	0.50205284
186	0x3da4751c	0.08030149
187	0xbec5080f	-0.3848271
188	0xbeec5b7a	-0.4616354
189	0x3f7333e8	0.9500108
190	0x3d92c7c2	0.07167007
191	0x3e0283a0	0.12745523
192	0xbf8c8491	-1.0977956
193	0x3e956a78	0.29182792
194	0xbf74dc47	-0.95648617
195	0xbfa62f54	-1.2983193
196	0xbfa790e0	-1.3091087
197	0xbfa5e5a6	-1.2960708
198	0xbf0c5f6e	-0.54833114
199	0x3e3c999a	0.1841797
200	0xbe0c2f63	-0.13689952
201	0xbea4db54	-0.32198584
202	0xbf406db3	-0.7516739
203	0x3f5d5d5e	0.8647059
204	0x3f8c2a86	1.0950477
205	0x3faed7fa	1.3659661
206	0x3f02cc9d	0.51093465
207	0xbdb4bc83	-0.08825018
208	0xbd65d777	-0.056113686
209	0xbde54afc	-0.11195943
210	0x3f572dad	0.8405407
211	0xbdabf238	-0.08395809
212	0x3f52845a	0.822332
213	0xbe6ea9eb	-0.23307006
214	0xbdc739bf	-0.09727811
215	0xbef9953a	-0.48746663
216	0xbbf956e1	-0.0076092337
217	0x3fadef1e	1.3588598
218	0xbf631133	-0.8869812
219	0xbf9494ab	-1.160787
220	0xbf7f5d4a	-0.9975172
221	0x3fb48d58	1.4105635
222	0xbf0e3ace	-0.5555848
223	0xbe9d423a	-0.3071459
224	0xbf20aad6	-0.62760675
225	0xbe4be6c5	-0.1991225
226	0xbf99fbb6	-1.2029941
227	0xbf094024	-0.53613496
228	0xbf3153b5	-0.6926835
229	0xbe9966e9	-0.29961327
230	0xbec47e7a	-0.38377744
231	0xbe9c0612	-0.3047338
232	0xbf88c988	-1.0686502
233	0x3f4eaaab	0.8072917
234	0x3fc222fe	1.5166929
235	0x3db56311	0.08856786
236	0xbe5fb92c	-0.21847981
237	0xbf2928f8	-0.6607814
238	0x3f329a3f	0.6976661
239	0xbeb852a5	-0.36000553
240	0xbfdceb4f	-1.725931
241	0xbf51a7f2	-0.8189689
242	0x3eaf489e	0.3423509
243	0xbf6becbe	-0.92158115
244	0xbd11af75	-0.03556772
245	0x3f7e1459	0.992498
246	0xbfacf94a	-1.3513577
247	0xbf801e51	-1.0009252
248	0x3e9ec1ee	0.31007332
249	0xbf9d93b8	-1.2310705
250	0x3f3260ff	0.69679254
251	0x3ee3fa50	0.4452691
252	0x3fa3ba63	1.2791256
253	0x3eb1570a	0.34636718
254	0x3dded005	0.1087952
255	0x3ebcf424	0.36905015

encoder.latent.backbone.c_layers.0.layer.kernel.kernel.log_dt f4 [16]
0	0xbf7b6d01	-0.982132
1	0xc0e82924	-7.255022
2	0xc0a451c1	-5.1349797
3	0xc09b4caa	-4.8531084
4	0xc0a663b8	-5.1996727
5	0xc09a6cd6	-4.8257856
6	0xc0225244	-2.536271
7	0x3f162271	0.58646303
8	0xc0beb98f	-5.960151
9	0xc0519782	-3.2748723
10	0xc0bd8c28	-5.923359
11	0xc03b243b	-2.9240863
12	0xc078142d	-3.8762314
13	0xc00fac1d	-2.24488
14	0xc0a564f1	-5.168572
15	0xc096f0ef	-4.716911

encoder.latent.backbone.c_layers.0.layer.kernel.kernel.B f4 [1, 16, 8, 2]
0	0xbf1c58fd	-0.61073285
1	0xc12b51ba	-10.707453
2	0xbeb8079d	-0.35943308
3	0xc0833e5e	-4.101363
4	0xbe8d1b93	-0.275601
5	0xc02f279a	-2.736792
6	0xbe2ded83	-0.16985135
7	0xc0055ce9	-2.0837958
8	0xbf2ec1d6	-0.6826452
9	0x3fb68a37	1.426093
10	0x3e826a4f	0.25471732
11	0x3fcfd787	1.6237649
12	0xbee8b4a4	-0.45450318
13	0x3dc7a61f	0.09748482
14	0xbf31588e	-0.6927575
15	0xbe8b7fd0	-0.2724595
16	0xbe3ff84e	-0.18747064
17	0xc125ad88	-10.354866
18	0xbe1c1743	-0.15243249
19	0xc06bf572	-3.6868558
20	0xbe09c50f	-0.13454078
21	0xc012e84d	-2.2954285
22	0xbe2f0239	-0.17090692
23	0xbfe0afc0	-1.7553635
24	0x3e8b0396	0.27151173
25	0x3f9ce3c0	1.2257004
26	0x3d02535c	0.03181778
27	0x3f9566f0	1.1672039
28	0x3e26646a	0.16249242
29	0x3f80a082	1.0048983
30	0xbf4c88df	-0.7989635
31	0xbf124182	-0.57131207
32	0x3d892ea1	0.06698347
33	0xc124f552	-10.309893
34	0xbdf6317d	-0.12021158
35	0xc06cd5cb	-3.700549
36	0x3e1a2f7d	0.15057178
37	0xc00f6c0c	-2.2409697
38	0x3de312da	0.1108758
39	0xbfd9d824	-1.7019086
40	0x3cd927b0	0.026508182
41	0x3fa4cd35	1.2875124
42	0x3e71ea2e	0.23624489
43	0x3f9c1d46	1.2196434
44	0x3ed83dc0	0.42234612
45	0x3f8258af	1.0183314
46	0xbed69b5d	-0.41915408
47	0xbe28b05c	-0.16473526
48	0xbea1a730	-0.31572866
49	0xc12850e3	-10.519748
50	0xbe61e333	-0.22059326
51	0xc0584af5	-3.379575
52	0xbf0833f6	-0.53204286
53	0xbfff6050	-1.9951267
54	0x3e244697	0.16042553
55	0xbfcfe5f0	-1.6242046
56	0x3eab374c	0.33440626
57	0x3fd8e1d0	1.6943913
58	0xbe28ba86	-0.16477403
59	0x3fa6cc99	1.3031188
60	0xbd9eadf5	-0.077480234
61	0x3f98de01	1.194275
62	0xbf7b3be8	-0.98138285
63	0xbd989527	-0.074503236
64	0xbe3ca9cc	-0.18424147
65	0xc12452de	-10.270231
66	0xbe1bacb2	-0.15202597
67	0xc060a945	-3.5103314
68	0xbe6ed2bc	-0.23322576
69	0xc019c70c	-2.4027739
70	0xbe6f2cbc	-0.23356909
71	0xbfc10a68	-1.5081301
72	0x3e89cee4	0.26915658
73	0x3fa813a7	1.3130997
74	0x3e6aeb69	0.22941364
75	0x3f9fb422	1.2476847
76	0x3dc95d8b	0.09832295
77	0x3f7585d0	0.95907307
78	0xbf22aafe	-0.63542163
79	0xbe7f5e1e	-0.24938247
80	0xbe60da1e	-0.21958205
81	0xc12acd0a	-10.675058
82	0xbeb404f6	-0.35160035
83	0xc06b5364	-3.6769648
84	0x3ea6d67b	0.3258551
85	0xc024c0c9	-2.5742667
86	0xbdd5dd9d	-0.1044266
87	0xbffd0266	-1.9766357
88	0xbe89f923	-0.2694789
89	0x3fd19438	1.6373358
90	0xbdc6f759	-0.097151466
91	0x3fb12a16	1.3840969
92	0x3f1ebbb5	0.6200517
93	0x3f866be6	1.0501678
94	0xbf74ef01	-0.9567719
95	0xbf511861	-0.81677824
96	0x40179493	2.3684433
97	0xc1244dd4	-10.269001
98	0xbdb1b121	-0.08676363
99	0xc070ba97	-3.7613885
100	0x3f80d054	1.0063577
101	0xc00dbec2	-2.214768
102	0xbd3363b5	-0.04379626
103	0xbf96a843	-1.1770099
104	0x3d9542c8	0.07288128
105	0x3f17c839	0.5928989
106	0xbec4abb6	-0.38412255
107	0x3f8c8247	1.0977257
108	0x3e3621f2	0.17786387
109	0x3f653c4b	0.89545125
110	0xbf1cdf95	-0.6127866
111	0xbec332e9	-0.3812478
112	0xbf020a6c	-0.5079715
113	0xc120af43	-10.0427885
114	0x3e5f3140	0.21796131
115	0xc06b51f3	-3.6768768
116	0x3f013271	0.5046759
117	0xc00316fa	-2.0482774
118	0x3e985172	0.29749638
119	0xbfe44033	-1.7832092
120	0x3ee36dfe	0.44419855
121	0x40229952	2.540608
122	0x3ed7b0d7	0.42127106
123	0x3fd92756	1.6965129
124	0x3ee372fa	0.44423658
125	0x3f8f8468	1.1212282
126	0xbf3051d6	-0.6887487
127	0xbf5c0b81	-0.85955054
128	0xbe1d8d56	-0.15385947
129	0xc12773fa	-10.465815
130	0x3f166f3c	0.5876348
131	0xc06f5a8d	-3.7399018
132	0x3eed2968	0.46320653
133	0xc022f182	-2.5459905
134	0x3e1921d8	0.14954317
135	0xbf5ffc8e	-0.8749474
136	0x3d834fe9	0.06411726
137	0x3fcf56fb	1.6198419
138	0xbdebe88b	-0.115189634
139	0x3f297f55	0.6620992
140	0x3f25b088	0.6472249
141	0x3f120931	0.57045275
142	0xbf676e90	-0.9040308
143	0xbf475ff6	-0.778808
144	0xbe29a4f2	-0.16566828
145	0xc1280aa9	-10.502603
146	0xbf07210a	-0.5278479
147	0xc07489e5	-3.8209164
148	0xbe79b9e6	-0.24387321
149	0xc01d456d	-2.4573624
150	0x3d1a401a	0.03765879
151	0xbf93d5aa	-1.154958
152	0x3f1c7f4d	0.61131746
153	0x3fa95f6f	1.3232249
154	0x3e70faa6	0.23533115
155	0x3f9cc95a	1.2248948
156	0x3eb2e6ca	0.34941703
157	0x3f51a7af	0.8189649
158	0xbf04e253	-0.51907843
159	0xbefb4742	-0.49077803
160	0xbebcf63d	-0.36906615
161	0xc12746bb	-10.454768
162	0xbe7549ce	-0.23953936
163	0xc048a7bc	-3.1352377
164	0x3e30f90e	0.17282507
165	0xc01fe7c5	-2.498521
166	0xbe964928	-0.2935269
167	0xbfa70754	-1.3049111
168	0xbddbc12b	-0.10730203
169	0x3fc93e15	1.5722071
170	0xbd225375	-0.039630372
171	0x3fa80d74	1.3129106
172	0x3f0afd06	0.54292333
173	0x3f67fca0	0.9061985
174	0xbeb4fe05	-0.35350052
175	0xbe412738	-0.18862617
176	0xbd8b231e	-0.067938074
177	0xc122e46f	-10.18077
178	0xbdbae693	-0.0912601
179	0xc05ea792	-3.4789777
180	0xbd8e9a6d	-0.06963048
181	0xc00ab0c1	-2.1670382
182	0xbdc4c189	-0.096072264
183	0xbfcd14d6	-1.6021984
184	0x3df34ffb	0.118804894
185	0x3f995d9e	1.1981695
186	0x3e6f1ffa	0.23352042
187	0x3f83bf65	1.0292784
188	0x3dd2e86b	0.102982365
189	0x3f64dc1c	0.8939836
190	0xbf2315fb	-0.63705415
191	0xbe9e95e7	-0.3097374
192	0x3f0512fc	0.5198209
193	0xc1263ce1	-10.389863
194	0x402f10f0	2.7354088
195	0xc073bfb2	-3.8085752
196	0x3fd34202	1.6504519
197	0xbfd28097	-1.6445493
198	0xbe89c532	-0.2690826
199	0xbef613dc	-0.48062027
200	0x3ee62f3a	0.44957906
201	0x3e0c85a5	0.13722856
202	0xbe79b7f5	-0.2438658
203	0x3fab7ffc	1.3398433
204	0x3d320911	0.043465678
205	0x3f1d2984	0.6139147
206	0xbf424e79	-0.7590099
207	0xbf2a9258	-0.6662955
208	0x3e28ee08	0.16497052
209	0xc125d4c7	-10.364448
210	0xb68f4350	-4.2695683e-06
211	0xc06d04f9	-3.7034285
212	0x3cda716d	0.026665414
213	0xc01ad329	-2.4191382
214	0xbe547a37	-0.20749746
215	0xbfd8a55f	-1.6925467
216	0x3e7a98de	0.24472377
217	0x3f941e0f	1.1571673
218	0x3c8a37d7	0.01687233
219	0x3f9c52d0	1.2212772
220	0x3e354c08	0.17704785
221	0x3f27a2db	0.6548287
222	0xbf55686d	-0.83362466
223	0xbeb2114b	-0.34778818
224	0xbea39195	-0.31947008
225	0xc1251e69	-10.319924
226	0x3d084ea5	0.033278126
227	0xc072d6ce	-3.7943606
228	0x3d73da7a	0.059534527
229	0xbff0a927	-1.8801621
230	0x3d28d2c3	0.041216623
231	0xbfdbceb5	-1.7172457
232	0x3d9f22a0	0.07770276
233	0x3fb4b2fb	1.411712
234	0x3d84984c	0.06474361
235	0x3f63fca1	0.89057356
236	0x3ef30ea6	0.47472113
237	0x3f3f7eb2	0.74802697
238	0xbf3e1a31	-0.74258715
239	0xbf13c414	-0.57721066
240	0xbc19e2a9	-0.009392419
241	0xc1262a6f	-10.38536
242	0x3cce3c45	0.025175223
243	0xc0668472	-3.6018338
244	0xbdcab6d7	-0.09898155
245	0xc01cbe67	-2.4491212
246	0x3cf5db23	0.03001172
247	0xbfe2f6b6	-1.773154
248	0x3eb33267	0.3499939
249	0x3fa921fa	1.3213494
250	0xbd7914ae	-0.060810737
251	0x3fac0f01	1.3442079
252	0x3ce38fde	0.027778562
253	0x3ecfcaf6	0.40584534
254	0xbf772c17	-0.9655165
255	0xbe2313a1	-0.15925457

encoder.latent.backbone.c_layers.0.layer.kernel.kernel.P f4 [1, 16, 8, 2]
0	0x3eec16ae	0.46111053
1	0xc0d25399	-6.572705
2	0xbd4130fa	-0.04716585
3	0xc002a714	-2.0414476
4	0xbedad5ff	-0.4274139
5	0xbf912e81	-1.1342317
6	0xbf806f23	-1.0033916
7	0xbf54a414	-0.83062863
8	0x3f457db7	0.7714495
9	0x3fa12b47	1.2591332
10	0x3eda5311	0.426415
11	0x3ee48136	0.4462983
12	0x3e048149	0.12939943
13	0x3f8fab0b	1.1224073
14	0xbdbe41d9	-0.09289903
15	0xbecb1cb1	-0.39670327
16	0x3e268754	0.16262561
17	0xc0e3711c	-7.1075573
18	0x3d4c2177	0.049836602
19	0xc01c407a	-2.4414353
20	0x3dfb1b02	0.12261011
21	0xbfb88fd1	-1.4418889
22	0x3d974e3a	0.073879674
23	0xbf8371e8	-1.0269136
24	0xbc732a38	-0.014841609
25	0x3f835593	1.026049
26	0x3e6f5f22	0.23376134
27	0x3f196f16	0.5993513
28	0x3eab231e	0.3342523
29	0x3ec3f49f	0.3827257
30	0xbe82b02d	-0.25525036
31	0xbddb5841	-0.107101925
32	0xbe082270	-0.13294387
33	0xc0e58228	-7.172138
34	0xbba4c667	-0.005028534
35	0xc018583a	-2.380385
36	0xbe2565e4	-0.1615215
37	0xbfbf6c56	-1.4954937
38	0xbe02f5d1	-0.12789084
39	0xbf8f9294	-1.1216607
40	0x3e18f30f	0.1493647
41	0x3fa9efa8	1.3276262
42	0x3dac536a	0.084143475
43	0x3f3d005e	0.73828685
44	0x3e29ea3a	0.16593257
45	0x3f070255	0.52737933
46	0xbf0d3087	-0.5515217
47	0xbede0d8b	-0.43369707
48	0x3e974826	0.29547232
49	0xc0dcea29	-6.903584
50	0x3e80e410	0.25173998
51	0xc029ffa7	-2.6562288
52	0x3e859c9a	0.2609604
53	0xbfd50edc	-1.664516
54	0xbea6eafe	-0.3260116
55	0xbfb9472d	-1.4474846
56	0x3ca30eea	0.019904573
57	0x3f0e077a	0.5548016
58	0x3ef268ff	0.4734573
59	0x3f81d13d	1.014198
60	0x3f1502e8	0.5820756
61	0x3e747ce9	0.23875774
62	0xbd2a331d	-0.04155265
63	0xbf1588a2	-0.5841161
64	0x3cfacb0d	0.0306144
65	0xc0e16e1d	-7.0446916
66	0x3d1e64b2	0.03867025
67	0xc0063392	-2.0968976
68	0xbdb38c6c	-0.08767018
69	0xbfa4a495	-1.2862726
70	0x3eace5a1	0.33768943
71	0xbf92bd8a	-1.1464093
72	0xbc285133	-0.010273266
73	0x3eb0beeb	0.3452066
74	0x3e6fc8a1	0.23416378
75	0x3f1cc8c0	0.6124382
76	0x3ec0f75c	0.3768872
77	0x3f033a87	0.5126118
78	0xbe56ba9e	-0.20969626
79	0xbee014e3	-0.43765935
80	0x3e5e4489	0.21705832
81	0xc0e01dce	-7.0036383
82	0x3ea8529d	0.3287553
83	0xc00c59d9	-2.1929839
84	0xbe0fceb9	-0.14043702
85	0xbfc5f61f	-1.5465735
86	0xbf3f438b	-0.7471244
87	0xbf63edeb	-0.8903491
88	0x3ef14782	0.4712487
89	0x3fa4c52e	1.2872674
90	0x3f353a46	0.70792043
91	0x3eee0cc5	0.46494117
92	0xbda15ea9	-0.07879383
93	0x3e24268d	0.16030331
94	0xbca1d626	-0.019755434
95	0x3de2dd5c	0.11077377
96	0xbea98d99	-0.33115843
97	0xc0e9eadf	-7.309921
98	0xbd644965	-0.055734057
99	0xc01ba675	-2.4320347
100	0xbf2db9c3	-0.67861575
101	0xbfc80597	-1.5626706
102	0xbd9b2be0	-0.07576728
103	0xbfa9900b	-1.3247083
104	0x3dcf4b1e	0.10121749
105	0x3f9ce658	1.2257795
106	0x3ee77878	0.45209098
107	0x3f524671	0.82138735
108	0x3ea8ba08	0.3295443
109	0x3f206ca4	0.6266577
110	0xbec6ab76	-0.3880269
111	0xbd833453	-0.064064644
112	0x3eb3448b	0.35013232
113	0xc0be4767	-5.946216
114	0xbbd1879c	-0.0063943397
115	0xbfddf5cd	-1.7340637
116	0x3df590c4	0.119905025
117	0xbfa99874	-1.324965
118	0xbe9f20e8	-0.31079793
119	0xbf92fd69	-1.1483585
120	0xbde1ad90	-0.110194325
121	0x3ec89a8c	0.3918041
122	0x3d542803	0.05179597
123	0x3ed5ad38	0.41733718
124	0x3f0bd8e3	0.5462782
125	0x3ecede29	0.4040387
126	0xbeb9d468	-0.36294866
127	0xbe1388bf	-0.14407633
128	0x3d43962a	0.04775063
129	0xc0de8c5d	-6.954634
130	0xbf15fc99	-0.5858856
131	0xc0122724	-2.283639
132	0xbef3edb5	-0.47642294
133	0xbfdaa162	-1.70805
134	0xbe98f86c	-0.2987703
135	0xbfbbf347	-1.4683617
136	0x3f3d1e7d	0.73874646
137	0x3f1c1d62	0.60982335
138	0x3eca9992	0.3957029
139	0x3f8d010b	1.1015943
140	0xbde4ca9b	-0.111714564
141	0x3f3dc7ad	0.74132806
142	0xbda8128a	-0.08206661
143	0x3d54a8c5	0.051918764
144	0x3c61a79b	0.01377287
145	0xc0ddfe19	-6.937268
146	0x3e5ccdfa	0.21562949
147	0xc00a8cde	-2.1648479
148	0x3d375c7a	0.044765927
149	0xbfabcfd6	-1.3422801
150	0xbca1c5d3	-0.01974765
151	0xbfb4e4eb	-1.413236
152	0xbe214a82	-0.15751079
153	0x3ec25085	0.37952057
154	0x3e6a75ba	0.22896472
155	0x3f24cd7f	0.6437606
156	0xbcc99a86	-0.024609815
157	0x3f108976	0.5645975
158	0xbe9a7c5b	-0.30173
159	0xbe26807e	-0.16259953
160	0x3e950eb8	0.29112792
161	0xc0dc54cf	-6.8853526
162	0x3e4e1308	0.20124447
163	0xc03830c6	-2.877977
164	0xbf1ad11c	-0.60475326
165	0xbfcb3fb2	-1.5878813
166	0x3e397ac8	0.18113244
167	0xbfe79e66	-1.8095214
168	0x3eb330ab	0.34998068
169	0x3f3af5eb	0.7303149
170	0x3ec074de	0.37589163
171	0x3ee9fde0	0.45701504
172	0xbc9ffc6e	-0.019529548
173	0x3eac7748	0.33684754
174	0xbf2c948c	-0.67414165
175	0xbf06adef	-0.5260915
176	0xbd40f3dc	-0.047107562
177	0xc0e73190	-7.2248
178	0xbd3e3216	-0.046434484
179	0xc01d373a	-2.4564958
180	0xbda282f0	-0.079351306
181	0xbfc51890	-1.5398121
182	0xbdb578b4	-0.08860913
183	0xbf9340cd	-1.1504151
184	0x3de1aa32	0.1101879
185	0x3f68801f	0.908205
186	0x3dbef8f5	0.093248285
187	0x3f48fc17	0.7850966
188	0x3e96a6e9	0.29424217
189	0x3f0ad679	0.5423351
190	0xbea9b3af	-0.331449
191	0xbec685e8	-0.38774037
192	0x3e1df1e3	0.15424304
193	0xc111be99	-9.109033
194	0xbf8e002f	-1.1093806
195	0xc0620934	-3.5318117
196	0xbfb5e0e7	-1.420926
197	0xc03c37a4	-2.940896
198	0x3f9c3aab	1.2205404
199	0xbfb030a2	-1.3764842
200	0xbe918161	-0.2841902
201	0x3ef23c5b	0.47311673
202	0x3f440316	0.7656721
203	0x3ef48508	0.47757745
204	0x3ec73b07	0.38912222
205	0x3fca8ac8	1.5823603
206	0xbe88e988	-0.2674067
207	0x3ecc6577	0.39921162
208	0xbe8c4723	-0.27398023
209	0xc0e3e120	-7.121231
210	0x3972305c	0.00023096934
211	0xc0029b45	-2.040727
212	0xbe38d368	-0.18049395
213	0xbfbed15e	-1.4907644
214	0x3d8a2b5a	0.0674655
215	0xbf86d567	-1.0533875
216	0xbd574fe8	-0.05256644
217	0x3f882882	1.0637362
218	0x3e9ded94	0.3084532
219	0x3f189e6c	0.5961673
220	0xbecf2d94	-0.4046446
221	0x3f48d1c1	0.7844506
222	0xbe582574	-0.21108037
223	0x3d0e9167	0.034806635
224	0x3dcf9d6f	0.1013745
225	0xc0dbdb38	-6.87051
226	0xbf0cf355	-0.55058795
227	0xc0248c42	-2.5710607
228	0xbec5d66e	-0.3864016
229	0xbfe45ec4	-1.784142
230	0xbe668bbb	-0.2251424
231	0xbfa4148a	-1.2818768
232	0x3ea5b12e	0.3236174
233	0x3f4268f9	0.75941426
234	0x3e07d2ff	0.13264082
235	0x3f6c512c	0.9231136
236	0x3d4296ee	0.04750722
237	0x3d476901	0.048684124
238	0xbe69b4f4	-0.22822934
239	0xbddf6606	-0.10908131
240	0xbf3de199	-0.7417236
241	0xc0da7c91	-6.827706
242	0xbeaeaac0	-0.34114647
243	0xc0129f3d	-2.2909691
244	0xbcf26a42	-0.029591683
245	0xbf93497b	-1.15068
246	0xbe702a04	-0.23453528
247	0xbfa3ad89	-1.2787334
248	0xbd43b60d	-0.04778104
249	0x3f4b7e61	0.79489714
250	0x3ea74d25	0.32676044
251	0x3f901105	1.1255194
252	0x3ec42f67	0.38317415
253	0x3f6bc081	0.9209061
254	0xbde4c274	-0.111699015
255	0xbeb00a65	-0.3438293

encoder.latent.backbone.c_layers.0.layer.kernel.kernel.inv_w_real f4 [16, 8]
0	0xbf8340db	-1.0254167
1	0xbf5df9b1	-0.86709124
2	0xbf58b978	-0.84658
3	0xbf4fcf7f	-0.8117599
4	0xbe9d0f2f	-0.30675647
5	0xbf1cbed5	-0.61228687
6	0xbf6a5559	-0.9153648
7	0xbf401df1	-0.75045687
8	0xbf4ae7a8	-0.7925973
9	0xbf4d236f	-0.8013219
10	0xbf3f20dd	-0.7465952
11	0xbf3f3130	-0.7468443
12	0xbf24e892	-0.64417374
13	0xbf4e00c7	-0.80469936
14	0xbf50a479	-0.81500965
15	0xbf691ebf	-0.9106254
16	0xbf3f366a	-0.74692404
17	0xbf4651c6	-0.77468526
18	0xbf38c539	-0.7217594
19	0xbf439e16	-0.76413095
20	0xbeb3d189	-0.351208
21	0xbf585433	-0.8450348
22	0xbf605a1e	-0.8763751
23	0xbf2f4d93	-0.68477744
24	0xbf703f00	-0.9384613
25	0xbf12fe16	-0.57418954
26	0xbf3a1906	-0.7269443
27	0xbe9c204c	-0.3049339
28	0xbf580de2	-0.84396183
29	0xbf0c7966	-0.5487274
30	0xbf8ae654	-1.085154
31	0xbf676518	-0.9038863
32	0xbf50520f	-0.8137521
33	0xbf870946	-1.0549705
34	0xbf560e31	-0.83615404
35	0xbf29c5e7	-0.663176
36	0xbf68ac55	-0.9088796
37	0xbf551890	-0.83240604
38	0xbf5c8ed9	-0.8615547
39	0xbf1bf83b	-0.60925645
40	0xbf5dade7	-0.8659348
41	0xbf4a59ba	-0.7904316
42	0xbf06c57b	-0.5264508
43	0xbf1bb4d7	-0.60822815
44	0xbe694163	-0.2277885
45	0xbf611582	-0.87923443
46	0xbf7c289c	-0.98499465
47	0xbf8fb849	-1.1228114
48	0xbf109659	-0.5647941
49	0xbf3baccd	-0.7331055
50	0xbf2709ed	-0.6524952
51	0xbe4202b2	-0.1894634
52	0xbe6aa091	-0.22912814
53	0xbf1087ed	-0.56457406
54	0xbece6429	-0.4031079
55	0xbf3285d3	-0.6973545
56	0xbf8f6ce3	-1.1205105
57	0xbf49b499	-0.78791195
58	0xbf07afda	-0.53002703
59	0xbe7ce347	-0.24696074
60	0xbf7e0469	-0.9922548
61	0xbf5e278c	-0.86779094
62	0xbf3fce18	-0.7492385
63	0xbf1aaed4	-0.60423017
64	0xbf48b235	-0.7839692
65	0xbf55d525	-0.8352836
66	0xbf447b36	-0.76750505
67	0xbe1a4a48	-0.15067399
68	0xbf786057	-0.97022
69	0xbe857edf	-0.26073357
70	0xbf6488bd	-0.89271146
71	0xbf88f15e	-1.069866
72	0xbf78aacb	-0.9713561
73	0xbf80dcaf	-1.0067347
74	0xbf6732b2	-0.9031173
75	0xbec1c623	-0.3784648
76	0xbf83c725	-1.0295149
77	0xbf363972	-0.71181405
78	0xbf55b284	-0.8347552
79	0xbf3d54c5	-0.73957473
80	0xbf761ef7	-0.96141
81	0xbee33454	-0.4437586
82	0xbf05181e	-0.51989925
83	0xbe9371be	-0.28797716
84	0xbedefb72	-0.43551213
85	0xbf770f7a	-0.9650799
86	0xbf713d63	-0.94234294
87	0xbf277b0f	-0.6542215
88	0xbf29fd5c	-0.6640222
89	0xbf2e3857	-0.6805472
90	0xbf31b658	-0.6941886
91	0xbf301da8	-0.6879525
92	0xbf2e92cb	-0.6819274
93	0xbf32f163	-0.69899577
94	0xbf4445b4	-0.7666886
95	0xbf147b79	-0.58000904
96	0xbf25f28c	-0.6482322
97	0xbd6c4377	-0.057681527
98	0x3f8a126f	1.0786875
99	0xbf8d2737	-1.1027592
100	0xbfbf5b8e	-1.4949815
101	0xbf6f71dc	-0.9353311
102	0xbe16d961	-0.14731361
103	0xbf66b151	-0.90114313
104	0xbf59ab37	-0.8502688
105	0xbf815109	-1.0102855
106	0xbf3ddf42	-0.7416879
107	0xbf47f272	-0.7810432
108	0xbedbea89	-0.42952374
109	0xbc2b4493	-0.010453361
110	0xbee8d984	-0.4547845
111	0xbf721a6c	-0.94571567
112	0xbf5711a2	-0.8401128
113	0xbf13a20d	-0.57669145
114	0xbeeea216	-0.46608037
115	0xbe94310c	-0.2894367
116	0xbf459bb9	-0.7719074
117	0xbeff6e5f	-0.49888894
118	0xbf52c76b	-0.8233554
119	0xbf5ed87d	-0.87049085
120	0xbf67b241	-0.9050637
121	0xbf48ead6	-0.7848333
122	0xbf498039	-0.7871128
123	0xbedf1eac	-0.43578088
124	0xbf2661b4	-0.64992833
125	0xbe5ea8d6	-0.21744093
126	0xbefb0d4e	-0.49033588
127	0xbf7b312f	-0.98121923

encoder.latent.backbone.c_layers.0.layer.kernel.kernel.w_imag f4 [16, 8]
0	0xc2a2dbf1	-81.42957
1	0xc1ca2c41	-25.271608
2	0xc1503f3e	-13.01544
3	0xc0e53979	-7.1632657
4	0xc0960f92	-4.6894007
5	0xc00c7731	-2.1947749
6	0xbed6085b	-0.4180325
7	0x3e0c3f36	0.13695988
8	0xc2a22278	-81.06732
9	0xc1cbeed6	-25.49162
10	0xc15b8d90	-13.722061
11	0xc105c1a2	-8.359774
12	0xc0a38e84	-5.111147
13	0xc02db5f3	-2.7142303
14	0xbf95171f	-1.1647681
15	0xbdfc8d0d	-0.12331591
16	0xc2a1cb15	-80.896645
17	0xc1cb9de9	-25.452105
18	0xc15bcf2d	-13.73808
19	0xc1040623	-8.251498
20	0xc09f414e	-4.976722
21	0xc0317861	-2.7729723
22	0xbf9bd5c4	-1.2174611
23	0xbe18a234	-0.14905626
24	0xc2a2532e	-81.16246
25	0xc1ce0999	-25.754686
26	0xc160df26	-14.05448
27	0xc100eab7	-8.057303
28	0xc09550e7	-4.666126
29	0xc020901c	-2.5087957
30	0xbf785433	-0.9700348
31	0xbe7fe70b	-0.2499048
32	0xc2a20b19	-81.021675
33	0xc1cd41a3	-25.65705
34	0xc1551f1f	-13.320098
35	0xc11754c6	-9.458197
36	0xc0a3c894	-5.1182346
37	0xc02691a3	-2.602639
38	0xbf95b1cd	-1.1694885
39	0xbf028540	-0.50984573
40	0xc29f8c0d	-79.77354
41	0xc1ce2b5e	-25.771175
42	0xc156da0f	-13.428237
43	0xc10063e3	-8.024386
44	0xc098e160	-4.7775116
45	0xc023689d	-2.55326
46	0xbfa06fac	-1.253408
47	0xbd177b13	-0.036982607
48	0xc2a14047	-80.62554
49	0xc1cbddb0	-25.483246
50	0xc15a9a4a	-13.662668
51	0xc10618a1	-8.381013
52	0xc0a63bbc	-5.194792
53	0xc0208961	-2.508385
54	0xbfa137a2	-1.2595103
55	0xbe605e71	-0.21911027
56	0xc2a2c4e6	-81.38457
57	0xc1cbbdb4	-25.467628
58	0xc16371a2	-14.215242
59	0xc100913d	-8.035459
60	0xc098938d	-4.7680116
61	0xc01f983b	-2.4936664
62	0xbf7d484d	-0.9893845
63	0xbe4d01a6	-0.2002016
64	0xc2a1d259	-80.910835
65	0xc1cacb67	-25.349318
66	0xc15835f9	-13.513177
67	0xc1004e76	-8.0191555
68	0xc096fc06	-4.7182646
69	0xc01d5ac4	-2.458665
70	0xbfa0613b	-1.2529672
71	0xbdca9d7d	-0.0989332
72	0xc2a12ccd	-80.5875
73	0xc1c99d8f	-25.201933
74	0xc15579f8	-13.342278
75	0xc105534e	-8.332838
76	0xc0a2b939	-5.08511
77	0xc037cf35	-2.872022
78	0xbfa7cff8	-1.3110342
79	0xbe1dfa89	-0.15427603
80	0xc2a1da93	-80.9269
81	0xc1cefd9c	-25.873833
82	0xc158caf5	-13.54955
83	0xc1099bbf	-8.600524
84	0xc09a520d	-4.822516
85	0xc0288696	-2.6332145
86	0xbfa76ee9	-1.3080722
87	0xbe13f636	-0.14449391
88	0xc2a29f08	-81.31061
89	0xc1cd3ae3	-25.653753
90	0xc15cc00c	-13.796886
91	0xc1052571	-8.321641
92	0xc0a2cfc7	-5.0878634
93	0xc03db669	-2.9642584
94	0xbfa13d28	-1.2596788
95	0xbf405e5a	-0.7514397
96	0xc2a1b8e3	-80.86111
97	0xc1c59e37	-24.702253
98	0xc149ed77	-12.620475
99	0xc106da31	-8.428269
100	0xc0a60fea	-5.1894426
101	0xc0323ef5	-2.7850926
102	0xbf9d96fe	-1.2311704
103	0x3e3571e5	0.17719229
104	0xc2a1dd3d	-80.932106
105	0xc1cbce24	-25.475655
106	0xc15a4a03	-13.643069
107	0xc1079f44	-8.476383
108	0xc0a63d90	-5.195015
109	0xc02c5c32	-2.6931272
110	0xbf87c7f0	-1.0607891
111	0xbdae880a	-0.08522041
112	0xc2a2121a	-81.035355
113	0xc1cb40e4	-25.406685
114	0xc15996bb	-13.599299
115	0xc102f05d	-8.183682
116	0xc09d7ec1	-4.921723
117	0xc0355352	-2.8332105
118	0xbfa37873	-1.2771133
119	0xbe567ae5	-0.20945318
120	0xc2a1c3de	-80.88255
121	0xc1cc3562	-25.526066
122	0xc15751a6	-13.457434
123	0xc1029e1d	-8.163602
124	0xc0905756	-4.510661
125	0xc0231d52	-2.5486646
126	0xbf781a1e	-0.9691485
127	0xbe41722b	-0.18891208

encoder.latent.backbone.c_layers.0.layer.output_linear.0.weight f4 [32, 16, 1]
0	0xbfea258f	-1.8292712
1	0x3ebc732d	0.36806622
2	0x3d7a49cb	0.06110553
3	0x3e49ecee	0.19719288
4	0xbe13ed4e	-0.14445993
5	0xbf1cafc1	-0.6120568
6	0xbe280ea7	-0.1641184
7	0xbf9514fe	-1.1647031
8	0x3ef128f4	0.47101557
9	0x3e46f5ec	0.19429749
10	0x3dd64d7b	0.10463997
11	0x3df57449	0.1198507
12	0x3ed2987e	0.41131967
13	0x3eb26c50	0.3484826
14	0x3e7ad796	0.24496302
15	0x3e2a8ec6	0.16656026
16	0xbdbb4689	-0.09144313
17	0x3e95adf3	0.29234275
18	0x3e3e5a90	0.18589234
19	0x3e6ff4c1	0.2343321
20	0xbdb6f17a	-0.08932777
21	0x3bc996be	0.006152003
22	0xbdbfc9ec	-0.093646854
23	0x3e36ef11	0.17864634
24	0x3f0664a6	0.5249733
25	0x3d4c398e	0.049859576
26	0xbe1896b8	-0.14901245
27	0x3e50d65c	0.20394272
28	0x3efe6510	0.4968648
29	0x3e4b5342	0.19855979
30	0xbde0f572	-0.10984315
31	0x3e91c823	0.28473005
32	0x3d0926c6	0.033484243
33	0xbe67071c	-0.22561306
34	0x3ead793c	0.33881557
35	0xbe8d9507	-0.2765276
36	0x3e51000d	0.20410176
37	0x3be61e9f	0.0070226933
38	0x3e9a7713	0.3016897
39	0xbdb7c141	-0.08972407
40	0x3ec08389	0.37600353
41	0x3dcb23ad	0.09918914
42	0x3e16f545	0.14742
43	0x3e640957	0.22269188
44	0x3da7b3e1	0.08188606
45	0xbc5d3706	-0.013501888
46	0xbd3c46b7	-0.045965876
47	0x3ebe62e1	0.37184814
48	0x3d9b33c1	0.07578231
49	0x3db58d23	0.0886481
50	0xbe7455e4	-0.2386089
51	0xbe8d4761	-0.2759352
52	0x3e8b03bd	0.2715129
53	0x3daeec21	0.08541132
54	0xbe5d29dc	-0.21598
55	0x3f0cf137	0.55055565
56	0xbe408e30	-0.1880424
57	0x3bac3434	0.0052552465
58	0x3d9ba952	0.07600655
59	0xbe85cbb3	-0.26131973
60	0xbf05f539	-0.52327305
61	0xbec0ce49	-0.37657383
62	0x3a332561	0.0006833878
63	0x3d0157cd	0.031577874
64	0x3dd0a2ff	0.10187339
65	0x3cd65896	0.026165288
66	0x3e1ba280	0.15198708
67	0x3ec23a6b	0.37935194
68	0xbd5214b9	-0.051289294
69	0xbf87a8c0	-1.0598373
70	0x3e4e5379	0.2014903
71	0x3e4af3a7	0.19819508
72	0x3e9bf4c3	0.30460176
73	0x3e3bb0cf	0.18329166
74	0x3e8c3ceb	0.27390227
75	0x3ee34aff	0.44393155
76	0x3f1f3c39	0.6220127
77	0x3e9a7ebc	0.30174816
78	0xbec5bc38	-0.38620162
79	0x3e889f71	0.26684144
80	0xbd3145c9	-0.043279443
81	0xbdb020f1	-0.08600033
82	0xbe16a93f	-0.14713
83	0xbdac0038	-0.08398479
84	0x3e90286c	0.2815584
85	0x3d70e953	0.058816265
86	0xbea276d9	-0.317313
87	0x3e0882dc	0.13331169
88	0x3d732a01	0.05936623
89	0x3e0a0d49	0.1348163
90	0x3e688725	0.22707804
91	0xbddd3763	-0.1080158
92	0x3e600ce6	0.2187992
93	0xbe8ea1ce	-0.27857822
94	0x3df5e156	0.1200587
95	0xbde3bd43	-0.11120083
96	0x3ef3654a	0.47538215
97	0x3d6916fc	0.056906685
98	0x3e0ae992	0.13565663
99	0xbe4c90ae	-0.19977066
100	0x3e145c0b	0.14488237
101	0x3ee0ae3f	0.4388294
102	0xbeab87ed	-0.3350214
103	0x3eb44fdb	0.35217175
104	0xbe011bb9	-0.12608232
105	0x3d27cd80	0.040967464
106	0x3dc1f2bd	0.09470127
107	0xbded3562	-0.115824476
108	0xbf332411	-0.6997691
109	0xbd3b06c4	-0.04566075
110	0x3d3854a7	0.045002606
111	0x3b20ce7a	0.0024537132
112	0x3ea2ffd6	0.31835812
113	0xbec23134	-0.37928164
114	0xbd52cbf8	-0.05146405
115	0xbe9a5bf7	-0.3014829
116	0x3e94357c	0.28947055
117	0x3e4c620c	0.19959277
118	0x3e2a3ce1	0.16624786
119	0x3f2628d8	0.6490607
120	0x3ce2c8c7	0.027683629
121	0xbea66063	-0.32495412
122	0xbe90a10f	-0.28247878
123	0x3dffde9b	0.124936305
124	0xbedd3bb8	-0.43209624
125	0xbe9155e8	-0.28385854
126	0xbec76098	-0.38940883
127	0xbea912d9	-0.33022192
128	0x3efcff84	0.49413693
129	0x3e0c33c2	0.13691619
130	0x3e3a216d	0.18176813
131	0xbe73a9af	-0.23795198
132	0x3d802c87	0.06258493
133	0x3f029e1d	0.5102251
134	0xbca29b65	-0.019849489
135	0x3ed52944	0.41633046
136	0xbefb6d76	-0.4910695
137	0xbe196e29	-0.14983429
138	0xbe388ac5	-0.18021686
139	0xbde312cf	-0.11087572
140	0xbeaabbcf	-0.33346412
141	0xbe2adfb6	-0.16686901
142	0xbddaae95	-0.1067783
143	0xbebd96ea	-0.370292
144	0x3ebdc0f0	0.37061262
145	0xbe0e1586	-0.13875398
146	0xbe439e37	-0.19103323
147	0xbd806989	-0.06270129
148	0xbd4d37a7	-0.050101902
149	0x3d5775ec	0.052602693
150	0xbb8dd9b2	-0.00432893
151	0xbec96961	-0.3933821
152	0xbe6afe36	-0.22948536
153	0x3db36130	0.087587714
154	0xbd8347a3	-0.06410148
155	0xbdfe1818	-0.12406939
156	0xbd3d25da	-0.046178676
157	0xbd072572	-0.032994695
158	0xbe281632	-0.16414717
159	0xbe562066	-0.20910797
160	0xbea6c25b	-0.32570156
161	0x3e22b1b2	0.15888098
162	0x3e954b36	0.29158944
163	0xbe37436f	-0.17896818
164	0xbc4f71e7	-0.012661434
165	0xbea58eda	-0.3233555
166	0xbdb4d64b	-0.08829936
167	0x3ef3c44f	0.4761071
168	0x3ead0b7a	0.33797818
169	0xbcbb3d07	-0.022856249
170	0x3e081d71	0.13292481
171	0x3e5ab27e	0.21357152
172	0x3f54b713	0.8309185
173	0x3c32b03b	0.010906274
174	0x3e65c4ff	0.2243843
175	0x3e5fd368	0.21857989
176	0xbda8647b	-0.0822229
177	0x3e8f2385	0.27956787
178	0x3e4b8f97	0.19878994
179	0x3e463f06	0.19359979
180	0xbe1c9538	-0.15291297
181	0xbe8f7e9c	-0.28026283
182	0xbe5e83b8	-0.21729934
183	0x3ec70aa3	0.38875303
184	0xbe959963	-0.29218587
185	0x3ee5c9e9	0.44880608
186	0xbe4f6ab1	-0.20255543
187	0x3dd4d0e6	0.10391407
188	0xbe1bcb00	-0.15214157
189	0x3e40e470	0.18837142
190	0xbd9f35ae	-0.077739105
191	0xbd63266d	-0.055456568
192	0xbefaa3db	-0.48953137
193	0xbcf9e6fc	-0.03050565
194	0x3ea11cfd	0.3146743
195	0x3e401a5c	0.18760055
196	0xbd9ea5bd	-0.07746456
197	0xbf725144	-0.9465525
198	0x3e922497	0.2854354
199	0xbe88cfdc	-0.26721084
200	0x3e605495	0.21907265
201	0xbce00b83	-0.02734924
202	0x3e2e6fa1	0.1703477
203	0x3e2367f2	0.1595762
204	0x3e95b79d	0.29241648
205	0x3dd86012	0.10565199
206	0x3d0e4ea7	0.034742977
207	0x3ee72644	0.45146382
208	0xbeec0580	-0.46097946
209	0x3ea9ec3b	0.33188042
210	0xbee5c049	-0.44873264
211	0x3debd4df	0.11515211
212	0x3dc8c7cd	0.09803734
213	0xbdeedc4b	-0.11663111
214	0xbed4a16c	-0.41529405
215	0x3e1a8dab	0.15093105
216	0xbe8b7775	-0.27239576
217	0xbd31af45	-0.04338004
218	0x3de5066b	0.11182865
219	0x3de21772	0.11039628
220	0x3ed8b6c5	0.42326942
221	0xbe8c22a7	-0.27370188
222	0xbe88b2d4	-0.26698935
223	0xbe5c21e4	-0.21497303
224	0x3ed05d5e	0.40696234
225	0x3eca02dd	0.3945531
226	0xbe842cea	-0.25815517
227	0xbd829e7c	-0.06377885
228	0xbe61c45e	-0.22047564
229	0x3c520c1a	0.012820268
230	0xbe9cea5a	-0.30647546
231	0xbe82df56	-0.25561017
232	0x3c97f48e	0.01854923
233	0xbe4aba76	-0.19797692
234	0x3f0249c9	0.5089384
235	0xbd0a9200	-0.033830643
236	0xbead548f	-0.33853576
237	0x3d126af8	0.035746545
238	0x3f29a9d3	0.66274756
239	0x3dd0827a	0.101811364
240	0xbe4a9489	-0.19783224
241	0x3e578e43	0.21050362
242	0x3b8fc3ff	0.004387378
243	0xbdd0ec41	-0.10201312
244	0x3ed799c5	0.42109504
245	0xbe4ec66a	-0.20192876
246	0xbe84ff29	-0.25975922
247	0x3e03161b	0.12801401
248	0x3cad6928	0.021168306
249	0x3e18bb61	0.1491523
250	0xbe0e6cb3	-0.13908653
251	0xbbf12285	-0.0073588514
252	0x3d87d329	0.066320725
253	0x3eb8015d	0.3593854
254	0xbe22789b	-0.1586632
255	0xbe183c43	-0.14866738

encoder.latent.backbone.c_layers.0.layer.output_linear.0.bias f4 [32]
0	0xbe404991	-0.18778063
1	0x3d4cd431	0.05000705
2	0x3eab2f6a	0.33434612
3	0xbbd3137c	-0.0064415317
4	0xbe26db43	-0.16294579
5	0xbe3eefc0	-0.18646145
6	0xbd2d9aa8	-0.04238382
7	0x3e142a9d	0.1446938
8	0xbe5683d2	-0.20948723
9	0x3eb11720	0.34587955
10	0xbbeae957	-0.0071689296
11	0xbe61eaa7	-0.22062169
12	0x3dd01f2f	0.10162198
13	0xbe9fbea1	-0.31200126
14	0xbedb6fab	-0.42858633
15	0xbe0dffc4	-0.13867098
16	0x3e963d95	0.29343858
17	0x3e527959	0.20554103
18	0x3e257602	0.16158298
19	0x3cb72204	0.022355087
20	0xbe343749	-0.17599215
21	0x3e4ffa1b	0.20310251
22	0x3f0c28e1	0.54749876
23	0x3e8712ee	0.2638163
24	0xbe01ff5f	-0.12695073
25	0xbe4e0b69	-0.2012154
26	0xbe018aa5	-0.12650545
27	0x3db71416	0.08939378
28	0xbe6fc779	-0.23415937
29	0x3cc90486	0.02453829
30	0xbd0b5a1f	-0.034021493
31	0x3d1ecc9d	0.038769353

encoder.latent.backbone.c_layers.0.norm.weight f4 [16]
0	0x3fe699fa	1.801574
1	0x3f8bee32	1.0932066
2	0x3f8a1549	1.0787746
3	0x3fa81860	1.3132439
4	0x3f7d4f32	0.9894897
5	0x3f97301c	1.1811557
6	0x3f8f6b33	1.120459
7	0x3fcd925b	1.6060289
8	0x3f995a35	1.1980654
9	0x3f13000c	0.57421947
10	0x3fa7701b	1.3081087
11	0x3f7e7e15	0.99411136
12	0x40019cae	2.025188
13	0x3f8d75de	1.1051595
14	0x3fb09f7c	1.3798671
15	0x3f901a08	1.1257944

encoder.latent.backbone.c_layers.0.norm.bias f4 [16]
0	0xbe5e7b6d	-0.2172677
1	0xbd6f2661	-0.05838621
2	0x3e64f7c6	0.22360143
3	0x3dbac412	0.09119429
4	0x3da39bd7	0.079887085
5	0xbf20eaea	-0.6285845
6	0x3e313547	0.1730548
7	0x3e535b57	0.20640312
8	0x3ecbceb6	0.39806145
9	0x3e0774a1	0.13228084
10	0xbd1adb49	-0.037806783
11	0xbcfc91af	-0.030831186
12	0xbe096f80	-0.1342144
13	0x3dbd2baa	0.09236844
14	0xbe700971	-0.23441102
15	0xbe7fcf88	-0.2498151

encoder.latent.backbone.c_layers.1.layer.ff.0.0.weight f4 [16, 16]
0	0x3db0b05e	0.08627389
1	0x3d532c19	0.051555727
2	0xbef30182	-0.47462088
3	0xbd9770d7	-0.07394569
4	0x3e3b26c4	0.18276507
5	0x3e8157f7	0.25262424
6	0xbee5d4c0	-0.44888878
7	0xbeb3eb29	-0.3514035
8	0x3e68f826	0.22750911
9	0x3dbe6204	0.09296039
10	0xbe5dcc0c	-0.21659869
11	0x3eea6ac8	0.45784593
12	0xbe9d3588	-0.30704904
13	0x3ed46fdb	0.4149159
14	0x3edcc7a7	0.43121073
15	0x3f0b0772	0.54308236
16	0xbe4a6bf9	-0.19767751
17	0xbd919290	-0.07108033
18	0xbe7d2df9	-0.24724568
19	0xbde72ad0	-0.11287463
20	0xbe0469a3	-0.12930922
21	0x3a9e6120	0.0012083389
22	0xbdce71cf	-0.10080301
23	0xbd9e68b3	-0.077348135
24	0x3f078282	0.52933514
25	0x3e8908e5	0.26764598
26	0x3dd27920	0.10277009
27	0x3e725d17	0.23668323
28	0xbda64f8c	-0.08120641
29	0x3eb4d502	0.35318762
30	0x3e41aad5	0.18912823
31	0x3c85e55e	0.016344722
32	0xbe70f355	-0.23530324
33	0x3e5ddf2a	0.21667162
34	0x3ebcaa00	0.3684845
35	0xbe08634b	-0.13319127
36	0x3e163e5d	0.14672227
37	0xbd736c34	-0.059429362
38	0x3bbd8528	0.0057836957
39	0x3eb72f64	0.35778344
40	0xbe887759	-0.26653555
41	0xbe4662f2	-0.19373682
42	0xbe000aa7	-0.12504064
43	0xbe793a74	-0.24338704
44	0x3e0dd941	0.13852407
45	0x3dc983a3	0.09839561
46	0x3cb98b33	0.022649383
47	0xbdc28ee8	-0.094999135
48	0xbdcf38cb	-0.10118254
49	0x3e2c9f92	0.16857746
50	0x3e44a2e2	0.1920276
51	0x3f0b3097	0.5437102
52	0xbe967b10	-0.29390764
53	0x3aac289b	0.001313466
54	0x3da78828	0.081802666
55	0xbc36bc42	-0.011153283
56	0x3d88e9f8	0.06685251
57	0x3e495c49	0.1966411
58	0xbdea827e	-0.11450671
59	0x3e091a62	0.1338897
60	0xbc25291c	-0.010080602
61	0x3ea7b407	0.32754537
62	0xbd9c933b	-0.076452695
63	0x3e5f1bc9	0.21787943
64	0xbe6012a9	-0.21882118
65	0xbe0db556	-0.13838705
66	0x3eb4f89a	0.35345918
67	0x3d584d17	0.052807894
68	0x3dd56d68	0.10421258
69	0xbe4aae48	-0.19793046
70	0xbe750043	-0.23925881
71	0x3ef4a43f	0.4778156
72	0xbe78a16b	-0.24280326
73	0x3e9c6d76	0.30552262
74	0xbe09b53f	-0.13448046
75	0xbe3d2b1b	-0.18473475
76	0x3e9456ea	0.2897256
77	0x3d19336b	0.03740255
78	0xbec34774	-0.38140452
79	0xbd9bd2a1	-0.07608534
80	0x3e1b4e03	0.15166478
81	0x3e5ccf06	0.21563348
82	0xbf095e4d	-0.53659517
83	0xbd594a4f	-0.05304938
84	0x3de589da	0.11207934
85	0x3e590360	0.21192694
86	0xbe4a005f	-0.19726704
87	0xbf12541f	-0.5715961
88	0xbeca1e5e	-0.39476293
89	0xbef38e07	-0.47569296
90	0xbd1bec88	-0.03806737
91	0x3e30bd69	0.17259754
92	0xbea52d2e	-0.32261032
93	0x3e4ade20	0.19811296
94	0x3f20d27a	0.6282116
95	0x3ee1c6c5	0.44096962
96	0x3ea422ff	0.3205795
97	0xbeb201da	-0.34767038
98	0xbe392a06	-0.18082437
99	0xbe0ebdb9	-0.13939561
100	0xbe8b5032	-0.27209622
101	0xbe3082f2	-0.17237452
102	0x3d6edb04	0.05831434
103	0xbc7a4d47	-0.015277213
104	0xbe3dcfca	-0.18536296
105	0x3e302bfe	0.17204282
106	0xbd2668ea	-0.040627398
107	0x3deb7297	0.11496466
108	0xbdde7c6e	-0.10863577
109	0xbd7afb07	-0.061274555
110	0xbe9bc7f1	-0.3042598
111	0xbe4c0a14	-0.1992572
112	0xbe8e1687	-0.27751562
113	0xbe8cef28	-0.27526212
114	0x3ecb4666	0.39702147
115	0x3e53fdce	0.20702288
116	0xbe3c3680	-0.18380165
117	0x3d4f58ac	0.050621673
118	0xbca1003f	-0.019653438
119	0x3d0b9a7a	0.034082867
120	0xbe7fe579	-0.2498988
121	0xbe393b35	-0.18088992
122	0x3e276acf	0.16349338
123	0xbde99d3c	-0.11406943
124	0x3dde87c1	0.10865737
125	0x3e41857b	0.18898575
126	0x3d5ab476	0.053394757
127	0xbe61f711	-0.22066905
128	0xbe39aff9	-0.18133534
129	0x3dc77629	0.09739334
130	0xbdcce777	-0.10005086
131	0xbdb8e7af	-0.09028565
132	0x3c384ded	0.011249048
133	0xbe5a6184	-0.21326262
134	0xbf0c523d	-0.54812986
135	0x3e46200b	0.19348161
136	0x3e8f66eb	0.28008208
137	0xbcae2e46	-0.0212623
138	0xbe495685	-0.19661911
139	0x3c926baa	0.017873604
140	0x3d12e47a	0.035862423
141	0x3e55ba64	0.20871884
142	0xbe2d5a95	-0.16929086
143	0xbe6c379c	-0.23068088
144	0xbe7a1df1	-0.24425484
145	0xbe547e0f	-0.20751213
146	0x3e6ae77e	0.2293987
147	0x3d4c8a6a	0.04993669
148	0xbe683ed3	-0.22680216
149	0xbe5e4c9c	-0.21708912
150	0x3c01fd3a	0.007933909
151	0x3e2c207e	0.1680927
152	0x3d9a186c	0.07524189
153	0xbdd3f663	-0.10349729
154	0x3e3178d1	0.17331244
155	0x3d7bb9ec	0.061456606
156	0xbe5bcbdb	-0.21464483
157	0x3d3d41bc	0.046205267
158	0x3d8924c8	0.066964686
159	0xbe98fa7d	-0.29878607
160	0x3ea78245	0.32716575
161	0x3e3ac0e3	0.18237643
162	0xbf15d428	-0.5852685
163	0xbeac2f5e	-0.33629888
164	0x3cc00256	0.023438614
165	0x3f174282	0.5908586
166	0xbec2bb4e	-0.38033527
167	0xbedd74b9	-0.43253115
168	0xbe0f85e3	-0.14015917
169	0xbe8f5dff	-0.280014
170	0x3ea87898	0.32904506
171	0x3eab1512	0.33414513
172	0xbef0fc8c	-0.47067678
173	0x3e960b69	0.2930558
174	0x3f677b21	0.90422255
175	0x3f0534fd	0.5203398
176	0xbe46d3f4	-0.19416791
177	0xbd718859	-0.058967922
178	0x3eedb257	0.46425125
179	0x3e684069	0.2268082
180	0x3d40ec88	0.047100574
181	0xbf02552f	-0.5091123
182	0x3bf2d091	0.007410117
183	0x3ecd53f0	0.40103102
184	0xbe0f2c7d	-0.13981815
185	0x3e144a0a	0.14481369
186	0x3e66b4e2	0.22529939
187	0xbe4ad42e	-0.19807503
188	0x3f04df4b	0.5190322
189	0xbe309b66	-0.1724678
190	0xbe6285fd	-0.22121425
191	0xbcd984ee	-0.026552644
192	0x3e5e3360	0.21699286
193	0xbf04cd87	-0.5187611
194	0xbe7e6bd0	-0.24845815
195	0x3ef49eb5	0.47777334
196	0xbeff582d	-0.4987196
197	0x3eb16cdf	0.34653375
198	0xbe6a2de2	-0.22869065
199	0xbe7bf0be	-0.24603555
200	0x3e5314db	0.20613424
201	0x3ebeaef9	0.3724287
202	0xbdda08e9	-0.10646231
203	0xbd0f8a67	-0.0350441
204	0x3acb8fb0	0.0015530493
205	0x3e3f0552	0.18654373
206	0xbd4da943	-0.05021025
207	0x3d4f4eb5	0.05061217
208	0x3e11f128	0.1425215
209	0x3c99cfe5	0.01877589
210	0x3e904333	0.2817627
211	0x3cf7f19d	0.030266577
212	0xbe148a2e	-0.14505836
213	0xbe3f36b2	-0.18673208
214	0x3dc7051f	0.09717774
215	0xbeba76da	-0.36418802
216	0x3d620050	0.05517608
217	0xbe9bcf59	-0.3043163
218	0x3de79fde	0.11309789
219	0xbcebebd2	-0.028798971
220	0xbc3e35d0	-0.01160951
221	0x3cff98b8	0.031200752
222	0x3e399ee9	0.18127026
223	0x3e171b9b	0.14756624
224	0xbef258d5	-0.47333398
225	0xbe6bf725	-0.23043497
226	0x3e711c75	0.23546012
227	0xbe5aba8b	-0.21360223
228	0xbda26474	-0.07929316
229	0xbe27aaa4	-0.16373688
230	0xbf1b88df	-0.60755724
231	0x3f2473a7	0.6423897
232	0x3eca5b46	0.3952276
233	0x3eb83e17	0.3598487
234	0xbe47d08b	-0.19513147
235	0x3b2b5e18	0.0026148614
236	0xbd8f89c1	-0.07008696
237	0xbd400e4c	-0.046888635
238	0xbe850aa4	-0.2598468
239	0xbef0f6ed	-0.4706339
240	0x3c1659ae	0.009176655
241	0xbd4a7af2	-0.049433656
242	0x3e875710	0.2643361
243	0x3c96de26	0.018416476
244	0xbe809f10	-0.25121355
245	0xbe9c8d54	-0.30576575
246	0xbec29930	-0.38007498
247	0x3e5c7cd2	0.2153199
248	0x3df43f7c	0.11926171
249	0xbd49270b	-0.0491095
250	0xbdf90eb8	-0.121610105
251	0xbea8c0bc	-0.32959545
252	0x3e809f99	0.25121763
253	0x3d9553a4	0.07291344
254	0xbe5e1b2b	-0.21690051
255	0x3cc7258a	0.024309892
