generative_ts/saves/250911_121213/model_LS4.pth (torch, 247755 bytes, 247 tensors)

encoder.latent.encoder.weight f4 [16, 1]
00000000: 0fac 11be 7706 1cbf 921a be3e 9cdf 6cbe
00000010: f7af 0f3f 4f8f a2be 174a 66bf 2b86 b3be
00000020: 60d5 63bf e21f 1cbf 4c6d 09be 160e c2bc
00000030: e2cf 16bf 7ba1 7d3e e033 003f 4883 25be
-0.14225791 -0.60947365 0.37129647 -0.23132175 0.56127876 -0.3174996 -0.899568 -0.350633
-0.8899746 -0.6098615 -0.134206 -0.023688357 -0.58910954 0.24768631 0.50079155 -0.16163361

encoder.latent.encoder.bias f4 [16]
00000000: b126 4d3d a31d 16bc efee 99be f558 70be
00000010: 7fb1 7c3f 58d3 7f3f d9a5 84bf 065b 6a3f
00000020: 5a71 9dbe d52f 10bf ff41 ea3e 44a4 88be
00000030: fbd7 053e 5579 f13e 0353 0fbf b238 65bf
0.050085727 -0.009162339 -0.30065104 -0.23471434 0.9870834 0.9993186 -1.0363113 0.9154514
-0.30750543 -0.56322986 0.45753476 -0.26687825 0.13070671 0.47162881 -0.5598604 -0.89539635

encoder.latent.backbone.c_layers.0.layer.D f4 [1, 16]
00000000: 6b84 65bc 8c89 0f3f 0b1e 48bf 8ab6 27be
00000010: 1ba6 5fbf df21 533f 02eb d2bd 3a7c 2dbf
00000020: 5a21 923f d09c 4dbf 6c40 c3be 43f9 fbbe
00000030: 27ee c73f f6e4 19bf 5aba 9abe 36b5 61c0
-0.014008622 0.56069255 -0.7817084 -0.16378227 -0.8736283 0.8247356 -0.102987304 -0.6776768
1.1416428 -0.803174 -0.38135087 -0.4921361 1.5619553 -0.6011499 -0.302203 -3.5266852

encoder.latent.backbone.c_layers.0.layer.kernel.kernel.C f4 [1, 16, 8, 2]
00000000: 4e64 75be 39d7 363f b606 3e3f 350e 023f
00000010: 5a3f ecbe 0b65 b03d 2055 3a3e 79c1 8c3e
00000020: 5224 82bf 39ef 923f 0c0a 253f c820 0bbc
00000030: 2869 84bf 0d5a acbe 374d ec3d 1b6d 70be
00000040: 1e73 c7bf 8c29 84bf 0c79 99ba 049b d03e
00000050: 5873 a0be ee9b 093f 3b45 08bf 4d34 3cbe
00000060: 0042 b6bf fa8f 0b3f ea4b 6d3e 209b 8fbf
00000070: da63 4fbf 35a9 a23f 7ef7 f63e fea1 7a3e
00000080: 89fa 933f 07c7 b83e 81ca 5a3f 0b5f 52be
00000090: 938e 9d3e 501b 81be 1ee5 9dbf fafa dc3e
000000a0: a9ef 1bbf de04 1abf b376 2c3f 6586 e0be
000000b0: 6653 963d 4fe0 833f 26c1 463f 7399 38bf
000000c0: 6397 353e 3893 753e 6f23 e3bf 4823 763e
000000d0: 6230 29bf 0455 30bf 1c76 b63c aaab 0dbf
000000e0: 067d 5d3e db8b 58bf eb1e aa3f 3e54 773e
000000f0: 7364 19be bfee 723f a252 083f 76a8 8cbd
00000100: 0167 45be 0498 cfbe 4b53 2e3e bcea e6bd
00000110: 1eb8 cbbe e703 813e 21bb ff3e 663f 16bc
00000120: 5862 e7be 88c1 213f 9236 1e3f 9a15 b43f
00000130: 7266 103c 720d 17bf 359f de3f df14 04bf
00000140: 5d6e 8f3f 37fc adbf b472 30bf 9019 91be
00000150: 83f7 7ebe 1ab2 ff3d 7872 dcbd 54d0 183f
00000160: bcbd a13e 3800 b83f 35ee efbe c7b5 c6be
00000170: 2440 18bf c817 0ebe 4ee1 94be 70de 953e
00000180: 30cb b43f 66c3 183e 72cb d4bf d20e dbbe
00000190: c732 f1bc 9eeb a5bf 42eb d5be 5bbf f1bd
000001a0: ed17 6ebf 67e8 183f ad9d 76be 6dbe 423f
000001b0: 948e e93f 9b3d dd3d 9daf 213f 49cd 45be
000001c0: 60ef 86bf 7a7b 11bf 727f 42bf 7878 5c3e
000001d0: 505b af3f 7e86 0cbd fa69 e03e f6b6 473d
000001e0: c7ab 8b3d c13d b23f 6cf0 a4bf 7412 c03f
000001f0: 660f a23f 9469 6cbe a46c acbc 1015 c3be
00000200: dace 473e 3aa8 ff3e c05a ebbe 401f 2a3e
00000210: d461 8bbf 0e1b 523f d3ca 9fbf aebd 2f3e
00000220: ca6c 78bf d64b a1bd 62f0 cf3f 8718 563f
00000230: ed6c 713f 2b6d 03bf 9b80 57bf a224 133f
00000240: 5b3e 913f dc35 c0bf 74fd 073f 8b11 863f
00000250: 7ab8 293f dcdf c7be c462 7d3d 79f6 0440
00000260: bf6a dabe cfc7 9dbf 311c 60bf 4a78 123f
00000270: 315d 013f 8d67 a93f 1c6f 65bf 9d66 0ac0
00000280: 6156 593e 415e 5fbf 842b febc 613a 2abf
00000290: d9d8 96be 7b8a fabe f50f 0abf 102f 463f
000002a0: 730a cdbe ffdc 96bc 1a2e ba3d bc26 e83e
000002b0: 4d71 983e 17a7 963f 3f5c a6be 80fa 9abd
000002c0: f0a0 8b3f 4ccb b3bb 4933 6bbf 1d7a b83e
000002d0: 68c7 30bf 03b5 263e 47cb 80be 7e6c cebf
000002e0: 4203 1a3f 71d4 fcbc 3522 463f b48c 1bbe
000002f0: 563a 6a3d 3748 ecbe 58d8 74be 245f aabf
00000300: 085c 5a3f 38da 1e3e 6a63 383f 33e8 0bbe
00000310: 5998 1ebe c520 e8be a2c7 bcbe ccaa b0be
00000320: 1849 ab3f 4a68 71bf 030d 32bd 57ee 7b3f
00000330: 3df0 9fbe feba 25be f735 40bf 83ff 44bd
00000340: 0b1a 063e a637 16be 245c 3cbf f4bb 53bd
00000350: 3243 943f 39d2 2bbf f19a d13e d545 c3bd
00000360: fb20 133f 3666 173d 7ff2 3abf 1ad5 c03e
00000370: 5c67 863b 6e4e cbbf 46ef acbe 073c 313e
00000380: 6207 21bf fb2b c1be bcf5 9ebf 8546 95be
00000390: a36f b03e fc7c 1dbf b895 103f 63f3 00bf
000003a0: f79c 803e efd3 60be 3da3 753f d311 283f
000003b0: 3e66 a9bd 5177 8abf bf47 6fbf 742d f9be
000003c0: e3c6 b6be e66f dd3e 4425 903f 443f 97bf
000003d0: d9b0 9e3e 3d3a b9bd 3d4a af3e 98be 063e
000003e0: e1c7 46bf 779b 2940 f0e9 05bf 2ba7 b9bf
000003f0: e089 3bbe f5a8 7abe 7004 41bd ada4 cabe
-0.23964044 0.71422154 0.7422899 0.5080293 -0.46142083 0.086130224 0.18196535 0.27491358
-1.0167334 1.1479255 0.64468455 -0.008491702 -1.0344591 -0.33662453 0.11538165 -0.2347912
-1.5582006 -1.0325179 -0.0011709048 0.40743268 -0.31338 0.53753555 -0.5323064 -0.18379326
-1.4238892 0.54516566 0.2317349 -1.1219215 -0.81011736 1.2707888 0.48235697 0.24475858
1.1560832 0.36089346 0.85465246 -0.20544069 0.30772838 -0.2521615 -1.2335546 0.4316023
-0.6091257 -0.60163677 0.6736862 -0.43852535 0.07340126 1.0302829 0.7763847 -0.72109145
0.1773353 0.23981941 -1.7745188 0.24036896 -0.6608945 -0.68879724 0.022273116 -0.55340064
0.21629724 -0.845884 1.3290685 0.2415323 -0.14979725 0.9489555 0.5325109 -0.06868069
-0.19277574 -0.40545666 0.17023961 -0.11275241 -0.39788908 0.2519829 0.49947456 -0.009170389
-0.45192218 0.6318593 0.6180202 1.4069092 0.008813487 -0.5900489 1.7392336 -0.51594347
1.1205555 -1.3592595 -0.68925023 -0.28339815 -0.24899106 0.12485142 -0.10764021 0.59692883
0.31590068 1.4375067 -0.46861425 -0.3881056 -0.5947287 -0.1387626 -0.29078144 0.2927127
1.4124508 0.14918289 -1.6624587 -0.42784745 -0.029443158 -1.296253 -0.4178105 -0.11804076
-0.9300526 0.5972962 -0.24083586 0.76071817 1.8246636 0.10802766 0.6315859 -0.19316591
-1.0541801 -0.56829035 -0.75975716 0.2153033 1.3699741 -0.03430795 0.43830854 0.04875847
0.06819873 1.3925096 -1.2885871 1.5005631 1.2660949 -0.2308715 -0.021047898 -0.38102007
0.19512501 0.49933034 -0.45967674 0.16613483 -1.088923 0.8207253 -1.2483772 0.17162201
-0.97041 -0.07875793 1.6245234 0.83631176 0.9430683 -0.5133845 -0.8418061 0.5747777
1.1347154 -1.5016437 0.53121114 1.0474104 0.66297114 -0.3903798 0.06186177 2.0775435
-0.42659566 -1.2326602 -0.87543017 0.57214797 0.50532824 1.3234726 -0.89622664 -2.162513
0.21224357 -0.87253195 -0.03102661 -0.6649533 -0.29462317 -0.48933777 -0.539306 0.7741556
-0.40047035 -0.018415926 0.090908244 0.45342052 0.29773942 1.1769742 -0.32492253 -0.0756731
1.0908489 -0.0054868814 -0.9187513 0.36030665 -0.6905427 0.16279988 -0.25155088 -1.6126859
0.6016122 -0.030863019 0.77395946 -0.15190393 0.05718454 -0.46148846 -0.23910654 -1.3310285
0.8529668 0.15512931 0.72026694 -0.13662796 -0.15487804 -0.453375 -0.36871058 -0.34505308
1.3381681 -0.9429976 -0.04346944 0.9841055 -0.31237975 -0.16184613 -0.75082344 -0.048095237
0.13095872 -0.14669666 -0.73578095 -0.051692918 1.1583006 -0.6711765 0.40938523 -0.09534804
0.574722 0.03696271 -0.7302627 0.37662584 0.004101677 -1.588331 -0.337763 0.17308055
-0.6290189 -0.37728867 -1.2418742 -0.29155365 0.34460172 -0.61518836 0.5647845 -0.5037138
0.25119755 -0.21955846 0.95952207 0.656522 -0.08271454 -1.0817662 -0.9346885 -0.4866749
-0.35698614 0.43249434 1.1261373 -1.1816182 0.309943 -0.09044311 0.34236327 0.13158643
-0.7764874 2.6501138 -0.52310085 -1.4504141 -0.18314314 -0.24478514 -0.047123373 -0.39578763

encoder.latent.backbone.c_layers.0.layer.kernel.kernel.log_dt f4 [16]
00000000: c209 acc0 4456 cac0 23ca 5dc0 49ef aec0
00000010: 4c2a 26c0 373b c4c0 8bd0 27c0 72fa b4c0
00000020: 1dec b0c0 6b54 2cc0 85a8 94c0 de18 9fc0
00000030: fa96 cac0 e7c6 88c0 4028 4cc0 4468 c4c0
-5.376191 -6.3230305 -3.4654624 -5.4667096 -2.5963316 -6.1322284 -2.6221035 -5.655572
-5.5288224 -2.6926525 -4.645571 -4.9717855 -6.3309298 -4.27428 -3.1899567 -6.1377277

encoder.latent.backbone.c_layers.0.layer.kernel.kernel.B f4 [1, 16, 8, 2]
00000000: 7b25 9cbd 953a 24c1 49df a1bc e2d5 60c0
00000010: 0454 fbbd 9db6 0dc0 242b 4fbd 8a23 d2bf
00000020: d36f 1a3e f207 9f3f 6207 623e c1d6 8c3f
00000030: 13a6 8b3e de3d 4d3f 4743 1cbf 5d8c c0be
00000040: 1404 63be 5d79 22c1 720f dd39 3f75 5dc0
00000050: 0d6d acba ca8d 0cc0 a453 20be ebbd d2bf
00000060: 17a0 0a3e b584 9d3f d514 193e ce99 883f
00000070: 44a7 a83e 8c16 553f b1c9 13bf 0bd6 89be
00000080: 0acb 19be c7f6 21c1 ba10 19be 7f8e 61c0
00000090: 8657 36be a4ac 0dc0 dc02 c1bc a9ad c5bf
000000a0: af88 4d3e 1a20 963f cc97 803d 15e7 7b3f
000000b0: 1a2c 843e 6cdf 703f a883 3abf 5fd2 00bf
000000c0: 4e49 9dbd 10b2 23c1 7195 54bd 7752 5fc0
000000d0: 5225 8ebd 4ab7 0cc0 117c d6bd b108 d0bf
000000e0: b78b 063e f5ce a23f 14ba 2b3e 3e45 873f
000000f0: 8dea 9b3e 1761 5a3f c0c2 14bf e612 d2be
00000100: e7d4 8bbd 38ae 24c1 2f73 5ebd 209f 63c0
00000110: 9533 a7bd a73d 10c0 5812 8fbd 0b47 d5bf
00000120: cc40 063d 8c61 a43f a5f6 5f3e f0cc 7a3f
00000130: 07d2 8f3e b52e 6c3f b8e3 00bf e740 c9be
00000140: f4ac 6ebd bf5d 23c1 59e1 73bd 79d1 5ec0
00000150: 3b2e d33b c437 0ac0 1e90 c7bd 2f77 ccbf
00000160: 656f ed3d 9fbb a53f fff4 453e 67dc 883f
00000170: ba34 a43e 406f 5b3f ba01 0ebf 9341 c7be
00000180: 8e1e cdbd 8f55 23c1 334b 1dbd e422 5ac0
00000190: c042 d9bd 51f6 0cc0 088b 8dbd 9706 c7bf
000001a0: 7bba 353e acb9 a83f 672b 8b3e f005 8d3f
000001b0: e9d1 823e 70d6 523f ea1a 21bf bcf4 cebe
000001c0: 93f0 b8bd 1950 23c1 003d 03bd 69f7 5ec0
000001d0: 6d4c a1bd 7145 0ac0 8ad8 c1bd 646a ccbf
000001e0: 1761 083e 67c8 a43f 807c 5e3e bbfb 863f
000001f0: 3779 9b3e 0308 5a3f 0418 16bf 65be cabe
00000200: fd93 23be 5922 20c1 dac5 4fbe f855 5bc0
00000210: 67ab 9bbe 5296 10c0 b01c 95be 226e d7bf
00000220: 76e8 05be b83a 943f 1b5a bb3e 3029 8b3f
00000230: 7691 0e3f 011f 813f a43b 35bf c781 0cbf
00000240: 5ce7 3abd 5811 23c1 caac 3abd 533a 5fc0
00000250: d206 71bd 33f1 09c0 078e a7bd 0585 cfbf
00000260: ebfd e53d d705 a73f 9cd2 213e 2f34 863f
00000270: fc43 a03e 56c8 513f 62a2 16bf 5aaa c3be
00000280: bc70 eabd 975a 24c1 bd1f bbbd f67e 62c0
00000290: 71cc 063b 4ade 0dc0 1511 1cbe 88ab c6bf
000002a0: 6587 303e bf12 ab3f 91a6 f53d 8b07 8d3f
000002b0: 8b24 883e 8b57 613f b6f5 0bbf 2d61 bfbe
000002c0: df27 1dbe f8e1 24c1 5ede 2cbd 0c84 5fc0
000002d0: 96c0 14bd 3900 0cc0 dab9 06bd d6f9 d8bf
000002e0: e156 803d d0de a53f 2e26 d93d 40cb 7d3f
000002f0: f174 d03e d4ef 443f e36b f6be b659 03bf
00000300: 228b 2d3c 8814 23c1 8c2f febb d3dd 5cc0
00000310: 076b dfbd 1171 09c0 248e fdbd 6cc8 cfbf
00000320: dd2e 163e 0359 a83f 779e 473e 845c 853f
00000330: e54c 993e e7c8 573f 02c5 13bf 79ed d1be
00000340: d418 0dbd e6c3 23c1 2019 91bd 70f1 62c0
00000350: 41f3 cfbd 5c20 08c0 0b9b e7bd be2f c9bf
00000360: ae4f db3d c40d ad3f 1bbf 7c3e 952f 873f
00000370: bec0 903e 1d0b 513f 890e 10bf 4e06 cebe
00000380: cabb d7bd 8a08 23c1 1a40 c8bd 8a1f 5dc0
00000390: 65bc 3dbd d7d4 08c0 b8c9 83bd 8ff2 c9bf
000003a0: 0761 233e 8da7 a83f ea83 5b3e 9395 833f
000003b0: 7831 8c3e 23de 5f3f 0323 1cbf 6933 c0be
000003c0: 7ab0 83bd 5796 23c1 f682 32bd f20f 5fc0
000003d0: 9125 8abd 8097 0bc0 58e6 b2bd a75d cfbf
000003e0: e2bc 013e aeae a33f adcc 353e 5d16 8a3f
000003f0: 1433 9a3e d1c9 5b3f 2bf1 14bf fc49 ccbe
-0.07624336 -10.264302 -0.019759791 -3.5130544 -0.12271884 -2.2142708 -0.05057825 -1.6417096
0.1508172 1.24243 0.22073129 1.1003038 0.27275142 0.80172527 -0.6104016 -0.3760709
-0.22169524 -10.15463 0.00042163912 -3.4602811 -0.0013155058 -2.196154 -0.15656906 -1.6464208
0.13537632 1.2306124 0.14949353 1.0671937 0.32940114 0.8323753 -0.5772963 -0.26921114
-0.1501886 -10.122748 -0.14947787 -3.5243223 -0.17806825 -2.2136621 -0.023560934 -1.5443622
0.20071672 1.1728547 0.06278953 0.9839948 0.25814897 0.94090915 -0.7285714 -0.50321
-0.076799974 -10.230972 -0.05190033 -3.4894083 -0.06940712 -2.198687 -0.104728825 -1.6252652
0.13139234 1.2719408 0.16770202 1.0568006 0.30452386 0.853044 -0.58109665 -0.41030043
-0.06827717 -10.292534 -0.054309066 -3.5565872 -0.08164135 -2.253763 -0.06985921 -1.6662306
0.03277664 1.2842269 0.21871431 0.9796896 0.28089926 0.9225877 -0.5034747 -0.3930733
-0.05827041 -10.210387 -0.05954108 -3.4815352 0.00644472 -2.1596537 -0.09744285 -1.5973872
0.115935124 1.2947882 0.1933174 1.0692261 0.32071477 0.8571663 -0.55471385 -0.38917217
-0.100155935 -10.208388 -0.038401794 -3.4083796 -0.10608435 -2.202534 -0.06911284 -1.5548886
0.17746918 1.3181663 0.2718155 1.1017437 0.25550774 0.82358456 -0.6293169 -0.40421093
-0.09030261 -10.207055 -0.032040596 -3.4838507 -0.07875905 -2.1604884 -0.0946513 -1.5969968
0.13318287 1.2873658 0.2172718 1.0545572 0.30365917 0.85168475 -0.58630395 -0.39598384
-0.15974422 -10.008386 -0.20290318 -3.427122 -0.30404207 -2.2591748 -0.2912345 -1.6830485
-0.13076958 1.158042 0.36592183 1.0871944 0.55690706 1.0087587 -0.7079413 -0.54885525
-0.045630798 -10.191734 -0.04557494 -3.4879348 -0.058844395 -2.1553466 -0.081813864 -1.6212469
0.11230072 1.3048657 0.15802997 1.0484675 0.31301868 0.81946313 -0.58841527 -0.38215905
-0.114472836 -10.272117 -0.09136913 -3.538999 0.0020568634 -2.2166924 -0.15240891 -1.5521097
0.17239149 1.3365096 0.11994661 1.1017927 0.2659038 0.88024205 -0.546718 -0.37378827
-0.15347241 -10.305168 -0.042204253 -3.4924345 -0.036316477 -2.1875136 -0.032892086 -1.6951244
0.06266571 1.2958622 0.10602985 0.9913826 0.4071422 0.7692845 -0.48129186 -0.51308763
0.010592254 -10.1925125 -0.007757133 -3.451039 -0.10909086 -2.147526 -0.12380627 -1.6233039
0.14666314 1.3152164 0.19494043 1.0418859 0.29941478 0.8429093 -0.57722485 -0.4100149
-0.034447506 -10.235327 -0.0708487 -3.5459862 -0.10153819 -2.126975 -0.11308869 -1.5717695
0.10708557 1.3519826 0.24682276 1.0561396 0.2827205 0.8165758 -0.5627218 -0.40239185
-0.10533865 -10.189585 -0.097778514 -3.45505 -0.046322245 -2.1379907 -0.06434959 -1.5777148
0.15954982 1.3176132 0.2143704 1.0280021 0.27381492 0.8744833 -0.60990924 -0.37539223
-0.064301446 -10.224204 -0.043581925 -3.4853482 -0.067454465 -2.1811218 -0.08735341 -1.6200455
0.1266971 1.2787683 0.17753859 1.0788075 0.30117095 0.8585482 -0.58180493 -0.39900196

encoder.latent.backbone.c_layers.0.layer.kernel.kernel.P f4 [1, 16, 8, 2]
00000000: c9ad bfbd db1f e6c0 4581 b0bd 4d46 21c0
00000010: 7923 9fbd b4b3 bebf c3ee dabd 045e 99bf
00000020: 4be5 203d 4311 723f a95a 213e b509 363f
00000030: d587 763e bc15 223f 9875 c0be b4fd 9fbe
00000040: 6f1f 5bbe a46a e1c0 87fc 90bd 9c58 23c0
00000050: 8170 c8bd 13f9 dbbf abae a9be bdfa 8abf
00000060: 9ece dfbc e981 6a3f de19 0f3e 2413 7a3f
00000070: 7cab 543e 27e6 113f 7275 c6be abe8 97be
00000080: d1d8 773d 48a7 e4c0 5f62 a43d fc47 19c0
00000090: d86e 093e 91ed b9bf cbff 0dbe 7db1 99bf
000000a0: 5a31 073b ad61 623f b94b e03d 4d29 553f
000000b0: c6c0 933e 15a0 ec3e ef90 69be 2c50 2ebe
000000c0: a31f dbbc d3ae e6c0 55e4 9dbd 50a7 1ec0
000000d0: 6076 9dbd f931 c4bf 409a a5bd fd76 8fbf
000000e0: be65 9f3d 8e54 723f ef77 223e da5b 423f
000000f0: 13c5 653e 87fd 153f 6a73 cfbe 2f5b 90be
00000100: 380d 7dbd cb13 e6c0 95f6 95bd 4368 1cc0
00000110: a159 80bd e329 bdbf 394b 0abe aa34 92bf
00000120: d48f 5c3e 95fc 703f faed 593d 6218 533f
00000130: 1722 823e 3adf 0a3f bfad eebe 727d bebe
00000140: 1888 5bbd 123a e7c0 9ebc abbd b77f 1ec0
00000150: fd5e 92bd 04ed c7bf 1486 7abd 549b 9ebf
00000160: f58c d23d 31eb 693f eb96 ea3d 7a7d 3d3f
00000170: 1892 4b3e eafc 143f b975 cfbe 0b42 9cbe
00000180: 3340 99bb 206f e6c0 1713 b2bd 8ee0 1dc0
00000190: e2ca 88bd 3310 bebf 95ac 71bd aac5 85bf
000001a0: 2f78 0d3c b3ba 5e3f 68f0 dd3d 6769 323f
000001b0: b195 8f3e d7c9 213f 3900 b3be d719 78be
000001c0: f707 58bd 2b42 e7c0 e58e 5ebd 8648 1ec0
000001d0: e148 54bd 4990 c4bf 8148 8dbd cf1c 92bf
000001e0: 2018 b13d 9bfd 673f 0cbd f83d 36e5 403f
000001f0: fc60 6c3e b9aa 163f e0a7 ccbe fadf 99be
00000200: 420c 6b3c fd92 e6c0 9483 0d3e 42e7 16c0
00000210: f441 52bd 62e2 aabf 96f3 883d 0aac 75bf
00000220: c2b3 2c3e 9e07 8d3f 08fe 98bd 6a11 173f
00000230: d769 6b3e b3c7 ce3e 7176 04bf 7142 1dbe
00000240: 658d b4bd 87b4 e7c0 19b2 80bd 6543 1fc0
00000250: 820a b8bd ef14 c6bf 10ac 9dbd 3af6 8ebf
00000260: 40e3 d33d 08bf 593f 60c0 2e3e 792e 443f
00000270: c952 533e 0d7a 223f efee c7be 6a85 a2be
00000280: 46fd 92bb d27f e5c0 aa0e 32be 62be 1ac0
00000290: 9311 fcbd 4630 c0bf a786 35bc c0c7 97bf
000002a0: 8d47 533d c2d0 5c3f 1bf7 3d3e 207f 383f
000002b0: bf9f 833e 974a 173f 48bc d9be 66ae a3be
000002c0: 0e20 863d 4344 e4c0 105e 183d b716 1dc0
000002d0: a85a e53c cbb7 c3bf c461 0bbe 93d8 81bf
000002e0: 11ef 823c edd4 703f e6ef 783d 37ef 513f
000002f0: 8582 fd3d b1fc 253f 0437 ffbe ffb1 2abe
00000300: 0443 56bd b590 e8c0 e9c2 83bc fba8 1fc0
00000310: 0355 21bd 0870 bfbf 7297 75bd d121 8ebf
00000320: 8a46 e33d e512 663f 0fd6 f73d 314e 313f
00000330: fe6d 5f3e 0d85 193f 0e34 d4be 69cb 92be
00000340: 7b4c 94bd 08b8 e8c0 d545 a4bd 3bf3 1cc0
00000350: 5900 d13c e3f2 c5bf 3688 91bb b5a5 93bf
00000360: 9c3c 073e 65f2 683f 85ef 413d f816 3b3f
00000370: 8e53 583e 7714 243f 07e0 d7be 645e 98be
00000380: 93dd 90bd d146 e8c0 e1fe 69bc 0346 1cc0
00000390: df10 febc b164 c8bf e6cd 67bd faae 95bf
000003a0: 35c2 f33d f9e7 603f 52b3 c53d bc20 383f
000003b0: 6519 803e a472 103f b477 bfbe 4dee 80be
000003c0: 1bb5 39bd 37cf e6c0 4bf8 56bd a177 1ec0
000003d0: 08c7 88bd 3c7f c5bf 7f29 a0bd 56ad 92bf
000003e0: 5502 aa3d 11bc 6e3f 8c89 0c3e 3019 403f
000003f0: 1af9 653e cb02 1a3f 1f88 cdbe a414 97be
-0.09359319 -7.1913886 -0.08618406 -2.5199158 -0.07770438 -1.4898591 -0.106900714 -1.1981816
0.03928117 0.9455759 0.1575724 0.7110856 0.24075253 0.63314414 -0.37589717 -0.31248248
-0.2139871 -7.0442677 -0.07079416 -2.5522833 -0.097870834 -1.7185386 -0.33141074 -1.0857769
-0.027320202 0.9160448 0.13974711 0.97685456 0.20768541 0.5699181 -0.3876148 -0.296697
0.060509507 -7.14542 0.08026575 -2.3950186 0.1342119 -1.4525625 -0.13867109 -1.200729
0.002062878 0.8843029 0.10951943 0.83266145 0.28858012 0.46215883 -0.22809194 -0.1702277
-0.026748484 -7.208841 -0.077095665 -2.478962 -0.07688594 -1.532775 -0.080860615 -1.1208187
0.07783078 0.9466027 0.15866064 0.75921404 0.22438459 0.5858998 -0.4051774 -0.28194568
-0.061780185 -7.189916 -0.073224224 -2.4438636 -0.06267095 -1.4778408 -0.13505258 -1.1422322
0.21539241 0.9413541 0.053205468 0.8245908 0.25416633 0.54246867 -0.46616933 -0.37205082
-0.053596586 -7.2258387 -0.08385585 -2.476545 -0.07147024 -1.5619206 -0.061163023 -1.2391152
0.10280792 0.913745 0.114545666 0.7401959 0.19879949 0.58198416 -0.40519503 -0.30519137
-0.0046768426 -7.201065 -0.08695047 -2.4668307 -0.06679322 -1.4848694 -0.059002478 -1.0450947
0.008634611 0.8700363 0.108368695 0.6969208 0.28043893 0.6319861 -0.34961107 -0.24228607
-0.05274197 -7.226827 -0.054335494 -2.4731765 -0.051827315 -1.5356532 -0.06898595 -1.1415042
0.086471796 0.90621346 0.12145433 0.7534975 0.23083872 0.5885425 -0.39971828 -0.30053693
0.014346184 -7.205443 0.13819724 -2.3578649 -0.05133243 -1.3350337 0.06687085 -0.95965636
0.16865447 1.101795 -0.074703276 0.59010947 0.22989593 0.40386733 -0.5174323 -0.15357377
-0.08816031 -7.240787 -0.062839694 -2.4884884 -0.08986379 -1.5475138 -0.07698834 -1.1168892
0.10346079 0.85057116 0.17065573 0.7663341 0.20637049 0.63467485 -0.3904948 -0.31742412
-0.004485759 -7.171853 -0.17388406 -2.41787 -0.123080395 -1.5014732 -0.011079467 -1.1857834
0.051581908 0.8625604 0.18551295 0.7206898 0.25707814 0.5909819 -0.4252646 -0.31968993
0.06549083 -7.1333327 0.03719908 -2.4545114 0.02799733 -1.5290464 -0.13611513 -1.0144218
0.015983136 0.940749 0.06077566 0.8200564 0.1237841 0.648387 -0.4984666 -0.16669463
-0.052310005 -7.2676644 -0.016084151 -2.4946887 -0.039387714 -1.4956064 -0.059958883 -1.110407
0.11097439 0.8987258 0.12101375 0.69259936 0.21819302 0.59968644 -0.41445965 -0.28670815
-0.0724115 -7.2724648 -0.08021132 -2.4523456 0.025512861 -1.5464748 -0.0044412864 -1.1534945
0.13206714 0.90994865 0.047347564 0.7308192 0.21125624 0.64093727 -0.42163107 -0.29759514
-0.07073512 -7.2586446 -0.014281959 -2.4417732 -0.031013904 -1.5655729 -0.056592844 -1.1694024
0.119022764 0.8785396 0.09653343 0.7192495 0.25019374 0.5642493 -0.37396014 -0.2518181
-0.04533873 -7.212795 -0.052482884 -2.4760516 -0.06678587 -1.5429454 -0.07820415 -1.1459148
0.08301226 0.93255717 0.13724345 0.75038433 0.22458306 0.6016051 -0.40142915 -0.29507935

encoder.latent.backbone.c_layers.0.layer.kernel.kernel.inv_w_real f4 [16, 8]
00000000: 2603 37bf 719c 2abf 7d15 39bf 2b1d 29bf
00000010: 8526 2abf e0da 38bf f841 2abf 5875 27bf
00000020: 7274 56bf 8bb6 04bf 6ede 06bf 0599 31bf
00000030: c083 31bf c778 00bf 1c76 35bf 921b 2fbf
00000040: 1f7b 3ebf fc02 3fbf 0f42 43bf eede 21bf
00000050: a61a 39bf 4460 19bf 357e 66bf c6db 57bf
00000060: af03 36bf fed8 2cbf ca62 30bf 1272 36bf
00000070: 836b 2abf 82aa 2fbf 85c0 33bf aac2 31bf
00000080: b440 44bf d985 3dbf 40af 43bf 24c6 2ebf
00000090: 0cf8 24bf 1f63 23bf d02c 2fbf cdbe 1cbf
000000a0: a0eb 30bf b6ab 2fbf 0307 2cbf edc7 0abf
000000b0: 6fb4 2dbf a732 35bf a2b2 35bf 2859 2cbf
000000c0: b01c 34bf 0846 2ebf 7772 3ebf 110f 2bbf
000000d0: 8c02 3dbf 2388 41bf 66a2 25bf ca82 3ebf
000000e0: f8bd 2fbf 8c7d 2fbf 962a 31bf b136 30bf
000000f0: ddc6 41bf 53c0 2fbf 5703 34bf 40a1 28bf
00000100: e163 bebe 873a 47bf e014 70bf 1cc6 6abf
00000110: 0608 ffbe c26f 5fbf 5c27 56bf 04e6 47bf
00000120: 0ff1 2fbf c25b 2cbf 1a61 2ebf dc67 39bf
00000130: 9913 3fbf 68bf 2bbf e7c3 20bf dd20 2fbf
00000140: 3850 40bf f349 3dbf cf35 36bf b615 25bf
00000150: 7d7e 3cbf b7f4 34bf d149 26bf 4e59 2bbf
00000160: 5a58 45bf d124 34bf 696f 36bf 5e89 57bf
00000170: 31a7 2dbf 33b4 1dbf 1129 4ebf 976e 56bf
00000180: 3087 25bf 636f 29bf 3ba3 45bf ee20 37bf
00000190: 0881 33bf 7f16 2fbf c73e 32bf e38e 30bf
000001a0: b52e 2ebf cb3c 3cbf aea6 33bf 6b50 36bf
000001b0: e9e6 2ebf a95f 3bbf e24c 24bf e29a 32bf
000001c0: 7073 29bf e536 37bf 9419 29bf 4417 29bf
000001d0: 7c39 3abf 3aeb 39bf 889e 1bbf 428a 3abf
000001e0: 833b 37bf 81ee 2dbf b6d1 2ebf 6e01 2fbf
000001f0: 2d56 25bf b520 30bf fac3 2fbf 552c 2bbf
-0.7148918 -0.6664496 -0.72298414 -0.6606013 -0.66465026 -0.72208977 -0.6650691 -0.6541343
-0.8377143 -0.5184104 -0.5268315 -0.69374114 -0.6934166 -0.5018429 -0.70883346 -0.68401444
-0.7440662 -0.7461393 -0.7627267 -0.6323079 -0.7230629 -0.59912515 -0.90036327 -0.8431972
-0.7109937 -0.67518604 -0.6890074 -0.7126781 -0.665703 -0.6861955 -0.70215636 -0.6943766
-0.7666123 -0.7403236 -0.76439285 -0.6827109 -0.6444099 -0.6382312 -0.68427753 -0.6122864
-0.69109535 -0.68621385 -0.671982 -0.5421131 -0.67853445 -0.70780414 -0.709757 -0.6732354
-0.70356274 -0.6807561 -0.7439341 -0.66819865 -0.7383201 -0.75598353 -0.64700925 -0.7441832
-0.68649244 -0.68550944 -0.69205606 -0.6883345 -0.75694066 -0.6865284 -0.70317596 -0.6587105
-0.37185577 -0.7782368 -0.9378185 -0.9170854 -0.4981081 -0.87279904 -0.8365381 -0.7808535
-0.687272 -0.6732751 -0.68116915 -0.724241 -0.7463928 -0.6708894 -0.62798923 -0.6840952
-0.75122404 -0.7394096 -0.71175855 -0.64486253 -0.73630506 -0.70685905 -0.64956385 -0.66933143
-0.7708794 -0.7036868 -0.7126375 -0.8419398 -0.6783324 -0.6160309 -0.8053141 -0.83762497
-0.64659405 -0.6618559 -0.77202195 -0.7153462 -0.7011876 -0.683937 -0.6962704 -0.6896803
-0.6804002 -0.7353026 -0.7017621 -0.7121646 -0.6832109 -0.7319284 -0.64179814 -0.6976758
-0.6619177 -0.7156814 -0.66054654 -0.66051126 -0.72743964 -0.7262455 -0.60788774 -0.72867215
-0.7157518 -0.67942053 -0.68288743 -0.68361557 -0.6458462 -0.68799907 -0.6865841 -0.6686452

encoder.latent.backbone.c_layers.0.layer.kernel.kernel.w_imag f4 [16, 8]
00000000: 4edd a1c2 32c3 ccc1 e5e9 5cc1 754a 05c1
00000010: 8248 a4c0 4e58 37c0 0271 adbf 1c61 c1be
00000020: 1e12 a2c2 4306 cdc1 9bf7 5cc1 b51f 05c1
00000030: bd58 a4c0 0474 39c0 7b2c adbf 23a0 b3be
00000040: dd16 a2c2 b9e3 cdc1 2410 60c1 44bf 04c1
00000050: 4d62 a5c0 7d9e 38c0 c5c3 9fbf 1af8 42be
00000060: daef a1c2 12a1 ccc1 ddf8 5cc1 2685 05c1
00000070: 8840 a3c0 a1af 37c0 cb2b afbf efd1 b3be
00000080: a1ce a1c2 5a5f ccc1 311d 5dc1 cb19 04c1
00000090: a71c a1c0 e316 3fc0 bce9 a3bf 78d0 8abe
000000a0: 78fb a1c2 0fc7 ccc1 f55f 5dc1 3af8 05c1
000000b0: a978 a2c0 81e3 3ac0 c550 afbf b733 bdbe
000000c0: 8aff a1c2 38c6 ccc1 4d1a 5dc1 c3f9 04c1
000000d0: 8452 a6c0 7087 37c0 69ac a6bf c3e1 cabe
000000e0: 5ef0 a1c2 f100 cdc1 6e96 5dc1 72ec 05c1
000000f0: 9606 a3c0 0846 3ac0 0447 aebf d2d5 bbbe
00000100: 6348 a2c2 a7f1 cec1 23b7 5cc1 5238 06c1
00000110: 889c 9dc0 287f 38c0 3487 99bf e963 71be
00000120: c9db a1c2 8ef7 ccc1 30a1 5cc1 f5a7 05c1
00000130: 6658 a2c0 48a2 35c0 864b b2bf ba49 bfbe
00000140: 67e6 a1c2 9067 ccc1 435f 5cc1 81b7 06c1
00000150: 59cf a3c0 5905 37c0 2d23 acbf d667 b3be
00000160: 783e a2c2 1eeb ccc1 412f 5cc1 0263 04c1
00000170: 7518 a2c0 7e7c 3dc0 65e2 b7bf 97da 6cbe
00000180: 42e0 a1c2 f74c cdc1 bb9d 5dc1 05eb 05c1
00000190: 409d a2c0 e1a8 39c0 35c5 adbf 71c1 b7be
000001a0: 98d2 a1c2 48b0 ccc1 7398 5ec1 3fd0 06c1
000001b0: e92a a1c0 00f2 39c0 e72e b1bf 18ef edbe
000001c0: 53fb a1c2 c94a cdc1 d9c5 5dc1 9f33 06c1
000001d0: a9e2 a1c0 fe9d 3bc0 8e32 abbf e6c4 c5be
000001e0: 6dec a1c2 bffa ccc1 4401 5dc1 a397 05c1
000001f0: c322 a3c0 d423 39c0 4fef aebf ca52 b7be
-80.932236 -25.59531 -13.807103 -8.330678 -5.133851 -2.8647647 -1.3550112 -0.377694
-81.035385 -25.628057 -13.810451 -8.320241 -5.1358323 -2.897706 -1.3529199 -0.35083112
-81.044655 -25.736193 -14.003941 -8.296696 -5.1682496 -2.8846734 -1.2481619 -0.19039956
-80.96846 -25.578648 -13.810758 -8.345007 -5.1016273 -2.8700945 -1.368524 -0.35121104
-80.90357 -25.546558 -13.819627 -8.256297 -5.0347476 -2.985772 -1.2805705 -0.27112174
-80.99115 -25.597197 -13.835927 -8.373102 -5.077229 -2.9201357 -1.3696524 -0.36953518
-80.9991 -25.596786 -13.818921 -8.310977 -5.1975727 -2.8676414 -1.3021365 -0.39625368
-80.96947 -25.62546 -13.849226 -8.370226 -5.094554 -2.9105244 -1.3615422 -0.3668657
-81.14138 -25.867994 -13.794711 -8.38875 -4.925358 -2.882761 -1.1994386 -0.23573269
-80.92927 -25.620876 -13.789352 -8.353505 -5.073291 -2.8380299 -1.3929298 -0.37360936
-80.950005 -25.550568 -13.773257 -8.419801 -5.119061 -2.8597014 -1.3448235 -0.35040158
-81.12201 -25.614803 -13.761537 -8.274172 -5.0654855 -2.9607234 -1.4365965 -0.2313026
-80.938 -25.66258 -13.851008 -8.369878 -5.0816956 -2.9009326 -1.3575808 -0.35889772
-80.911316 -25.586075 -13.912219 -8.425841 -5.036488 -2.9053955 -1.3842438 -0.46471477
-80.99087 -25.661516 -13.860803 -8.387603 -5.0589185 -2.931518 -1.3374803 -0.38626784
-80.96177 -25.622435 -13.812809 -8.349521 -5.0979934 -2.8928118 -1.3666781 -0.3580535

encoder.latent.backbone.c_layers.0.layer.output_linear.0.weight f4 [32, 16, 1]
00000000: 23d5 0d3e 5503 c5bd 6ad8 703e 6efb b1bd
00000010: 1fe8 cfbd 0ca6 54be ec0a 7f3e f27a f13d
00000020: 6a0e 5d3c b881 a1bd 9e67 bcbc 5892 b4bd
00000030: a551 31be 33a6 4a3e 143b babc 39d4 1e3e
00000040: 6195 14be 92ed 17bd 232e 1ebe ea3a 0b3e
00000050: 4940 00be 3638 5b3d a297 9e3d b030 5fbe
00000060: 250e 903d efb0 043e 342e d33d 6c5d 5cbe
00000070: 7640 2d3e d020 d63d 1a17 f8bd 3298 f63c
00000080: 4e7e 4b3e d6fb 3e3c 25fe ae3d f0d2 eebd
00000090: 62d0 013e 1811 773e ba96 333e 94d3 4dbe
000000a0: 1cfb 443d 8453 473d afaa 8cbe 1e99 c8bd
000000b0: 93e1 163e c789 13be 543b 7b3d 40c4 473e
000000c0: 12cf 20be 136c 9dbe 5e7c d53d 3e86 54be
000000d0: dfac 81be cd38 57be 89a6 7dbe a507 193d
000000e0: fb2e 20bc c8cd b43c 3a63 883e d002 1a3c
000000f0: 51a1 92be 908a 2f3e 49e5 f93d d410 62be
00000100: a5ae 9a3e ba09 123e 1dd6 fdbb c35c 69be
00000110: b7a5 203e d03f 7bbd d363 7b3e 5b43 64be
00000120: c68d e7bc 4e06 e5bc 5469 123e 5fbd 85be
00000130: 7eb7 0b3e eddd dbbd 613b 463e fd0e 803e
00000140: b3ea 20bd a87b 9d3b c2c5 25bc 284c f63d
00000150: b229 f1bd eee2 04bd 6d31 6dbe c8f3 8bbc
00000160: b80c 30bd f89f 73be 4f38 603d c419 06be
00000170: c5ab 8f3e 467d 753e 9efd cb3c e7f1 49be
00000180: 42cf d13c cf1e c0bd 5058 92be ae8a 7f3b
00000190: 7096 93be 8f44 47be 51fb 5b3e 2b5f 4cbe
000001a0: c705 c3bd 0682 9bbd e30e 393e d24f c6bd
000001b0: c96c 8ebe 9beb 903d 523d 26be a6b1 9abd
000001c0: 2027 4b3d 6c24 35bd d369 39be 7c10 e8bd
000001d0: 3793 f7bb 1f84 6b3c f541 ea3d 49ca cfbd
000001e0: f47d 803e 3d73 69bb 0d94 053e bcc4 97be
000001f0: ea72 ba3d 9029 58be a635 523e 0983 49be
00000200: 10e5 26bd d5ec d1bd 3c81 53be 8526 6b3e
00000210: e45e 3dbe 5e0c 183e f103 84be daf0 ad3d
00000220: fa97 5abe 9cc7 4ebd 797b 5c3e cf42 c0bd
00000230: 98f3 a7bd b7c8 b6bd f7ad 0abd 658e 26be
00000240: 6ffa 00be 9e99 62be 34d6 153e 1a8b 233e
00000250: c68b a6bd 1418 85be 473b 363e 7872 e33d
00000260: 4b17 e03d ef0c e53d d73a 07be e526 093e
00000270: b54b 1ebe 32e2 613e 977a cdbd cea0 4f3d
00000280: e8f1 003d 68c2 1f3e 96a6 ca3d 28b1 4cbd
00000290: bc91 ee3d c402 b2bd 8979 e6bc 1117 4d3e
000002a0: efa0 443d b88a 5cbe b600 513e ba5e a23d
000002b0: 02c2 123e 659c 0f3d cdd2 f8bd e245 0bbe
000002c0: 20e8 4e3e cbf6 213e ee61 bcbc 6497 40be
000002d0: f955 56be af67 86bd 5059 63be de71 183d
000002e0: fa92 8abe df48 23be c17a 883d 246e 8abe
000002f0: 99ed 31bd 6b53 6bbd bda3 f2bd 1a36 203e
00000300: e46b 103d b53c 32be a423 323c 8a1d f1bd
00000310: dd26 1ebe daab 903d 5c6d cbbd a10a 933e
00000320: c995 70be b478 a0bd 110d 3bbe 691b 4cbe
00000330: 27fe 71be 2b6d 13be 88d0 f73d 4a31 d9bb
00000340: 95aa 353e ab29 9c3d 2593 19be b8e4 283e
00000350: fc3d c23d a493 9c3d d07f ba3d 905c 0bbe
00000360: 660a 01bd 212d 833d 8139 893d 25d8 bd3d
00000370: f096 653e 44d7 17be 77fa 253e db46 5d3e
00000380: c4e1 443e 73c9 9c3d 0936 583e b8a3 08be
00000390: 50b7 a8bd a55a 0c3d f622 d43d 1d13 9bbe
000003a0: ee23 af3d 807e 4dbc b908 50be dd1b 763e
000003b0: b7ac 58bc 7a8e 693d e859 69be 3c6b 4abe
000003c0: be57 bc3d fa10 dabb f486 5a3e f975 0abe
000003d0: c6f3 84bd 8a1f 1b3d bbfc 18be b50b 523c
000003e0: f273 743d f63f 1b3e 1654 4bbe 5c0a ef3c
000003f0: 2ddb 483d 0488 adbd bc46 92bd b689 853e
0.13850836 -0.09619776 0.23520055 -0.086905345 -0.101516955 -0.20766467 0.2490651 0.11791028
0.013492206 -0.0788607 -0.022998627 -0.08816975 -0.17316301 0.19789962 -0.022733249 0.15510644
-0.14510109 -0.0370918 -0.15447287 0.13596693 -0.12524523 0.053520404 0.077437654 -0.21795917
0.07033948 0.1295812 0.10311547 -0.21520013 0.16919121 0.10455477 -0.12113781 0.03010187
0.198724 0.011656722 0.08544568 -0.11661327 0.12677148 0.24127614 0.17537966 -0.20100242
0.04809104 0.04866363 -0.2747397 -0.0979483 0.14734487 -0.14408027 0.061335877 0.19508457
-0.15703991 -0.30746517 0.10424112 -0.20754334 -0.25327203 -0.21017762 -0.2477056 0.037360806
-0.009776826 0.02207078 0.26638204 0.009400085 -0.286387 0.17142701 0.12201936 -0.22076732
0.30211368 0.14261523 -0.0077464716 -0.22789292 0.15688215 -0.061340153 0.24549799 -0.22291319
-0.028265845 -0.027957108 0.14297992 -0.2612104 0.13644215 -0.10735688 0.19358589 0.25011435
-0.039286327 0.0048060007 -0.01011795 0.120262444 -0.11775531 -0.03244298 -0.23163386 -0.017084017
-0.04298088 -0.23791492 0.0547412 -0.13095766 0.28060737 0.2397357 0.024901208 -0.19721185
0.025611524 -0.09380876 -0.28583002 0.0038992572 -0.28825712 -0.19459747 0.21482588 -0.19958179
-0.09522586 -0.075931594 0.18072085 -0.09683193 -0.2781737 0.07076188 -0.1623433 -0.07553415
0.04959786 -0.044224188 -0.18106775 -0.11331269 -0.007555391 0.014374762 0.114383616 -0.10146005
0.25096095 -0.0035621666 0.13044758 -0.29642284 0.09103949 -0.21109605 0.20528278 -0.19678892
-0.040745795 -0.1025025 -0.20654768 0.22963913 -0.18493229 0.14848468 -0.25784257 0.084932044
-0.21347037 -0.05048333 0.21531476 -0.09387743 -0.08200759 -0.08925002 -0.033857312 -0.16265257
-0.12595533 -0.22128913 0.14632493 0.15971032 -0.081321284 -0.25994933 0.1779605 0.111058176
0.10941943 0.111841075 -0.1320604 0.13393743 -0.15458567 0.22058943 -0.10033148 0.050690465
0.0314807 0.15601504 0.09895055 -0.049973637 0.116488904 -0.08691934 -0.028134124 0.2002833
0.04800504 -0.21537292 0.20410427 0.07928224 0.1433182 0.03506126 -0.12149582 -0.13600877
0.20205736 0.158168 -0.022995915 -0.18807751 -0.20931233 -0.06562745 -0.22202039 0.037217967
-0.2706526 -0.15945767 0.066640384 -0.27037156 -0.04343948 -0.0574526 -0.11847637 0.15645638
0.035259143 -0.1740597 0.010872755 -0.11773212 -0.15444513 0.07064028 -0.09932968 0.28719047
-0.23494639 -0.07835522 -0.18266703 -0.19932331 -0.23632108 -0.14397113 0.12100321 -0.00662819
0.17740853 0.07625135 -0.14997537 0.164935 0.09484479 0.07645348 0.091064095 -0.13609529
-0.031504057 0.06405092 0.06700421 0.09269742 0.2242086 -0.14828211 0.16208826 0.2160906
0.19226748 0.07655611 0.21114363 -0.13343704 -0.08238089 0.034266133 0.10358231 -0.3028802
0.08551775 -0.012542367 -0.20315827 0.24034066 -0.013224772 0.057020642 -0.22788203 -0.19767469
0.09196423 -0.006654856 0.21340543 -0.13521565 -0.064918086 0.037871875 -0.14940159 0.012820174
0.059680887 0.15161118 -0.19856295 0.029179744 0.049037147 -0.084732085 -0.07142398 0.26081628

encoder.latent.backbone.c_layers.0.layer.output_linear.0.bias f4 [32]
00000000: bc63 4ebe 4f81 9a3d b154 643e ad71 63be
00000010: 927c cc3d 9328 ea3d aa66 52bd bcef 27bd
00000020: 75ec 0ebe 2471 1e3e 94b9 653c b724 453d
00000030: 89d3 443e 0e12 f13d 5752 aa3d e7fb d5bd
00000040: 5b44 47be be6c 87bd 9054 0abe 9309 febb
00000050: 0c31 23be 1a0e d93c 3d76 cc3d 8d6b 883e
00000060: b2c2 41be ce27 4d3e 15e7 56bd d65c 473e
00000070: 14b6 363d 8c05 bfbd 1e95 82be 00a4 45be
-0.20155233 0.07544195 0.22297932 -0.22211333 0.099846974 0.1143352 -0.05136744 -0.041000113
-0.13957389 0.15472847 0.014021296 0.048130717 0.1922132 0.11771022 0.08316486 -0.10448437
-0.1945967 -0.06612538 -0.1350882 -0.007752606 -0.15936679 0.026495982 0.0998349 0.26644555
-0.18921927 0.20034716 -0.05246647 0.19469008 0.044607237 -0.0932723 -0.25504392 -0.19300842

encoder.latent.backbone.c_layers.0.norm.weight f4 [16]
00000000: 8113 833f d20b 953f 353a 8b3f 64f3 7c3f
00000010: 306b 853f 1a7a 813f 171d 853f 00b6 7b3f
00000020: a58b 8b3f 7131 7b3f 1119 863f 3b9d 8b3f
00000030: 3f7f 8a3f 0308 783f 1b33 7a3f 9bac 843f
1.0240327 1.1644232 1.0877138 0.98808885 1.0423336 1.0115387 1.0399503 0.98324585
1.0901991 0.98122317 1.04764 1.0907358 1.0820082 0.96887225 0.9773423 1.0365175

encoder.latent.backbone.c_layers.0.norm.bias f4 [16]
00000000: 0884 213d cbaa 323e d305 c3bd f786 5d38
00000010: 6203 9abd 0c32 e93c 34b6 c3bc 1c71 cbbc
00000020: e3a6 d03d 8bdd bebc 0f4b 8d3d d713 c9bd
00000030: 181e 3b3d a72c 923d 76ac f63c 1bdd 51bd
0.039432555 0.17447965 -0.09522595 5.28162e-05 -0.075201765 0.028466247 -0.023890592 -0.024834208
0.10188081 -0.023299 0.06899082 -0.09818237 0.045682997 0.07137423 0.030111533 -0.051236253

encoder.latent.backbone.c_layers.1.layer.ff.0.0.weight f4 [32, 16]
00000000: b899 ccbd 9f6d bd3d 3c20 e5bd fd56 2ebe
00000010: 0fb5 f4bc 7a9d 143e dc79 35be 1b47 633e
00000020: 2524 4a3e 7ed8 503e 774c 833e cdc7 833d
00000030: 9668 b03e 100d cabd 423f 5bbe 62e7 f9bd
00000040: 51e9 4dbe 8eb3 993d 19d8 ec3c 39e6 c43d
00000050: 9e8e 663e 3f28 0abe c553 be3c 4f65 80be
00000060: 8316 323e 9fe2 e3bb 24cf eebd be0f 09bd
00000070: a7fc 86bd 92f1 83bb 39a4 c83c f46a 423e
00000080: 8b08 23bd b87b ee3d dd72 b4bd c259 273d
00000090: 3e43 7abd 43a9 953d d0a6 9d3e 7488 5d3e
000000a0: 4e87 f73d 58aa 473d 33b3 103e 0c46 d73c
000000b0: 40d1 f7bd 0dab 443e 5205 9cbd 9446 98be
000000c0: 18ba 2abe dd73 dabd 7653 433d 8b7e 11be
000000d0: 990e 7dbd a0a4 4cbe 8813 073e 4ea8 34be
000000e0: df21 9cbc e884 dbbd a403 293c 9bbc ce3d
000000f0: 68b1 2e3e bbea 2a3e 527b 46be d2da 4f3e
00000100: f077 99bd 8073 923e 3e52 003e bd05 ab3d
00000110: 59bc f53d 3d76 4c3e 3998 073e 7aa9 84bd
00000120: 8bba 8cbb a08f 203e 00c6 6bbd cb14 793d
00000130: 9567 833e fa97 6d3e b37a 76be 82c1 02be
00000140: 6374 143d 413a dabd e5a2 fd3c b31e 71bd
00000150: 74e8 5c3e 5f15 87bd 7bec 5c3e f2f8 7e3d
00000160: 794c 34be bed4 60be cf83 a0bd 4470 3c3d
00000170: 4377 e7bd 289c b3bd ebc0 703e 0e8a 963c
00000180: 2a4b 113e 7fe9 b73e 07f2 fdbd 4d95 743d
00000190: 126c a03c b3f3 c53e b692 b63d 27d1 e3bd
000001a0: a94f a33e d1a0 80bd 8847 15bc d6f4 bfbe
000001b0: 7bde b33e 8467 893c 2008 dfbb a503 063e
000001c0: 9293 d13d 75e2 c4bd 3129 03bd e2f0 583e
000001d0: c895 4abe 4781 713c d76a 72be 8d66 623e
000001e0: d292 4f3d 4d98 65be 7a05 193c 7246 043d
000001f0: 723e cf3c 33fe 01be 91be 8b3e def5 8e3b
00000200: 19a2 25be b54a 513e 43ed 363d 99f6 0f3e
00000210: 2f81 08be 7bf3 203e 222d ecbd 57f0 913c
00000220: a508 0dbc d20b e13d 85f5 07be 8d86 0bbe
00000230: cc51 59be 3598 383d d01c ebbd 40cd 7fbe
00000240: e0de 46be 1099 8a3d 05ab 66be cfeb 843e
00000250: 2bac d53d b03a 2cbe 4761 823e e21a 5c3c
00000260: cf25 043e 5f16 783d 92b1 10be f944 a33d
00000270: 85c3 b2bd 6c68 023e 37c4 8b3e 67ab c2bc
00000280: 6812 36be e3b1 85bc 296a 24be 14a4 74be
00000290: 9b5f 5d3b 1980 c9bd 28d3 eabc 34f3 ba3e
000002a0: ffa3 52bc d5be 9b3e 2784 0b3e 1627 6fbd
000002b0: cc45 00be d624 853e f763 13bd 008b 0bbd
000002c0: f14c 2f3d bebc 993e 761f 98be 7d1b 45be
000002d0: 3ce3 bdbc bc22 3bbe 1c99 293e 41a7 073e
000002e0: 7551 9b3e c742 61bc df32 27be 4539 a1be
000002f0: 0a2f afbd 6618 95be efd8 f73d d70e 96be
00000300: 696a 3bbe a4f9 9d3e 2fbb 7ebe dd68 e13d
00000310: 07a9 183e 37c8 5e3e 5f02 3d3e 4713 e13d
00000320: f4dc 843e 05ed bdbb bb60 b4bd 7a5f 61be
00000330: d249 143e 15db 1f3e b757 85be 78fd 0a3e
00000340: 0850 31bd 7377 0c3e 44c7 f4bd 2c3a a53e
00000350: 8369 2b3e ecdd 293d f5cc adbc eeed 65be
00000360: 36f5 ea39 6ab6 5fbd 1f41 1fbc 44c9 553e
00000370: de37 45be d3aa 51be 9d1d 84bc 6c1f b6bd
00000380: 886e 2d3d 1ca4 4e3e e255 95be b76b 90bd
00000390: 0884 d0bb 091f 90bd c228 0f3c 4243 3e3d
000003a0: a9c7 96bd 2ed2 df3d f153 41be 2ff1 f83c
000003b0: 6bd6 21bd c4e2 2fbe 75f7 99bd 3497 22bd
000003c0: cdf4 2fbe 24de 63be ac31 a13c fb4d 84bc
000003d0: 7204 ecbd 9b17 31be b34a 76be f2c8 be3d
000003e0: 2e8c 7fbd bcaf 23be 4f4d 60be 9247 f93d
000003f0: 4268 5e3e 975d 7a3e 8750 a43d 7a72 cdbc
-0.09990257 0.09249424 -0.11187789 -0.17025371 -0.029871492 0.14513198 -0.17722267 0.22195093
0.1974035 0.20395085 0.25644276 0.06434593 0.34454793 -0.09865773 -0.2141085 -0.12202336
-0.20108534 0.075049505 0.028911637 0.09614224 0.22515342 -0.13491915 0.023233304 -0.25077292
0.173914 -0.0069545056 -0.11660603 -0.03346228 -0.06591158 -0.0040266 0.02449237 0.18986112
-0.03980307 0.11644691 -0.08810971 0.040857084 -0.061099283 0.07307675 0.3079133 0.21634084
0.12086354 0.048746437 0.14130859 0.026278518 -0.12100458 0.19205876 -0.07618202 -0.29741347
-0.16672552 -0.106666304 0.047687016 -0.14208429 -0.0617815 -0.19984674 0.13191044 -0.17642328
-0.01905912 -0.10718709 0.010315809 0.100945674 0.17059863 0.16691105 -0.1938298 0.20298317
-0.074935794 0.28603745 0.12531373 0.08350704 0.11998815 0.1996698 0.13241662 -0.064776376
-0.0042946986 0.15679789 -0.057561874 0.060810845 0.25664964 0.23202506 -0.24070244 -0.1276913
0.036243808 -0.10655642 0.030961463 -0.058867168 0.21573049 -0.06595873 0.21574585 0.06224913
-0.17607297 -0.21956155 -0.078376405 0.046005502 -0.11302044 -0.08770019 0.23511092 0.018376376
0.14188829 0.3592033 -0.12399679 0.059712697 0.019582782 0.3866249 0.08914702 -0.11123877
0.31896713 -0.06280673 -0.009111293 -0.37491482 0.35130677 0.016772993 -0.0068063885 0.13087328
0.10233225 -0.09613506 -0.032021705 0.2118564 -0.197837 0.014740295 -0.23673569 0.22109433
0.050677128 -0.2242138 0.009339685 0.032293744 0.025298331 -0.12694626 0.27293828 0.0043628057
-0.16175117 0.20438655 0.044659864 0.14058913 -0.1333053 0.1571788 -0.11532046 0.017814798
-0.008608018 0.10988583 -0.13277252 -0.13625546 -0.2122261 0.04506703 -0.11480105 -0.2498064
-0.19420958 0.067674756 -0.22526176 0.25961158 0.10433229 -0.16819263 0.25464842 0.013434144
0.12905048 0.06056821 -0.14130238 0.0797214 -0.08728699 0.12735146 0.27298138 -0.023763372
-0.17780459 -0.016320175 -0.16056122 -0.23890716 0.003377891 -0.09838886 -0.02866514 0.36513674
-0.0128564825 0.3041903 0.13624631 -0.058386885 -0.12526625 0.26004666 -0.035984006 -0.034068108
0.042797986 0.3002681 -0.29711503 -0.19248767 -0.023179643 -0.18274969 0.16562313 0.13247396
0.30335584 -0.013748831 -0.16328 -0.31489006 -0.08553894 -0.29120177 0.12101924 -0.29308197
-0.18302311 0.30854523 -0.24876092 0.11006329 0.14908229 0.21756063 0.18457936 0.10990005
0.25949824 -0.005796077 -0.088075124 -0.22009078 0.14481285 0.15610917 -0.26043484 0.13573253
-0.043289214 0.13717441 -0.119520694 0.32270944 0.16739468 0.041471407 -0.021215895 -0.22454044
0.00044814654 -0.054617323 -0.009720116 0.20877558 -0.19259593 -0.2047532 -0.016127402 -0.08892712
0.04234174 0.2017979 -0.29167086 -0.07051795 -0.0063633956 -0.070371695 0.008737745 0.04645086
-0.07362301 0.109287605 -0.18879677 0.030388443 -0.039511126 -0.17176348 -0.07517902 -0.03969498
-0.17183228 -0.22252709 0.019677006 -0.016150465 -0.115242854 -0.17294161 -0.24051933 0.09315671
-0.062389545 -0.15985006 -0.21904491 0.12171854 0.21719459 0.24449764 0.08023172 -0.025079

encoder.latent.backbone.c_layers.1.layer.ff.0.0.bias f4 [32, 1]
00000000: d194 273e 79cf d6bd 2f24 8d3e 0b65 b33d
00000010: b9f7 b8bd 88f1 803d 598e 103e e697 86bd
00000020: e0ca 533e d0ea 453c 6fae 933e 6ed0 603e
00000030: fb1e eb3d 6a2b c4bd 1c13 543e 3953 fa3d
00000040: 3764 d3bb 5a20 123e 0f6e 723d 8c49 473d
00000050: 839d a6bd 7658 443e 0d08 f03d 9cad b63d
00000060: b9a9 14be d963 7cbe aec8 01be dee2 48be
00000070: a1ad 1ebd 90f5 10be 62be 163d e585 753e
0.16365363 -0.10488791 0.27566668 0.08759507 -0.09031624 0.062960684 0.14116801 -0.06571941
0.2068286 0.012079909 0.2884402 0.2195451 0.114805184 -0.09578593 0.20710415 0.12222905
-0.0064511555 0.14270154 0.05918699 0.048654124 -0.08135512 0.1917437 0.117202856 0.08919832
-0.14517869 -0.24647464 -0.1267421 -0.19617793 -0.038739804 -0.14156175 0.036802657 0.23976858

encoder.latent.backbone.c_layers.1.layer.ff.2.weight f4 [16, 32]
00000000: 5735 3b3e 4d17 a3bd 2f00 5d3d fcfb 1cbe
00000010: b028 423d 58e0 153e 53c1 333e 89d5 1a3e
00000020: 5a73 bdbd 7fd7 28be 2ad6 f03d 1e5f debd
00000030: 7a9c f93d f61e a43d 9121 fb3c 41af 07be
00000040: 93f6 26be 0dc0 903d 3193 3fbe 855e 3ebd
00000050: b98d 74bd 8808 2dbd fed9 cdbd 22c1 2f3e
00000060: 6199 623e 6f9e 2fbe 65ea ffbd 32a7 79bb
00000070: 41e3 e33d e2f6 233d 1b4e ccbd d333 473d
00000080: e3c4 0cbe 2755 fcbc 68c8 073e a2e6 213e
00000090: 5245 813d 7dec 1ebe d09e bf3d 7f7f 23be
000000a0: 46bc 98bd e4b6 27be 3b0f 0ebe bc83 d7bd
000000b0: ccbe 10be 5df9 c6bc 94ee f3bd f46d febd
000000c0: 490e 80bc 1db9 9e3d 8783 d43d 7216 f2bd
000000d0: a557 6c3d bd72 2abe bc9d f1bc 77a3 c93d
000000e0: b358 debd f121 0fbe a743 11bd fc06 ad3d
000000f0: ac9f 46bc 7e8e 03be 5c8b 8e3d db81 243d
00000100: 751a 8b3d f701 aebd 4655 873e 053f eebc
00000110: c66b 4c3e 6a30 1a3c 27c8 3a3e ea3b 4f3d
00000120: 68ef 693e 0939 40be 6c3e 583e 3ec8 003e
00000130: 7a1b ae3c b3e1 21be b303 7dbd 6342 b63d
00000140: fae0 b9bd 9fca 94bd c6b6 32be ef6e 65bd
00000150: 2595 1cbe 3b9a 92bc 486a 14be 310b 48bd
00000160: 65b0 143e e863 91bd 29f5 4f3e 96fa 06be
00000170: 6197 a53d 7ed6 2bbd de98 ce3c 4982 213e
00000180: a323 cfbd f477 2e3e 9a49 05be 0106 45be
00000190: 47cf 4fbc ff15 e2bd b353 06be 9988 623d
000001a0: 5efb 27be 085d 213e ca85 2cbe 8238 f9bd
000001b0: 6044 633c 8daf 973d 4872 693c 55d2 cdbd
000001c0: f9a4 09be 3b67 89bd 2e42 9fbd bafe 553e
000001d0: 7983 23be e648 0dbe f65d 743d c1fe 16be
000001e0: 003b bfbc 4ac5 1f3d 809d 1fbe 6e52 a5bc
000001f0: 96fd 52be 6a59 2cbd d300 bf3d 64bf dd3d
00000200: 22e5 133e 890d 55bd 88f9 5e3e 2a8c 25be
00000210: 969e a4bc f5f5 233e 9141 c23d bba2 e9bb
00000220: 8dd1 023e d322 7d3d 2a26 97bd cde8 53bd
00000230: 3a10 ca3c 4d86 72bc 9046 3f3e 645f 7fbd
00000240: 2343 39be 3238 b83c 9cf0 bcbd 25da 4dbd
00000250: 72b7 74bd af43 16bd 9ebc 02bd b87d 173e
00000260: d146 953d 3b72 cdbd bd8b 313e bdc5 943d
00000270: 2bb1 493e fc11 d0bd 23cf ef3d 6310 1a3d
00000280: 98be 3dbe 2adf 0f3e 332e 333d 8b12 23bd
00000290: 72d9 5f3d 1a4e eabd a66c 50bd 5e3b 0b3e
000002a0: 27e1 453d cb1c 973d 834e 00be 7ff7 5a3d
000002b0: 269c ab3d f1fb 1a3e 0551 17bc a636 22be
000002c0: 1d6c adbd 06ce 033e 624c 15bd de18 0f3e
000002d0: edf9 23be 6fcf 07bb bccc aa3d cb93 1f3d
000002e0: 4be9 a13d bd90 fe3c 96e9 f83d c3e9 06bc
000002f0: 5aba 05bd 1ee4 003e 53b3 debc a90e 8dbd
00000300: f8d3 31bd 339b 89bd 0d37 04be c61b cc3d
00000310: 8efa cc3d f81f c03d 2ec3 25be 37f6 d8bc
00000320: ca93 323c 2fa2 ed3c 86a2 8ebc 105c f4bd
00000330: e9ac 39be e940 d0b9 53da 01be d969 efbd
00000340: 0440 df3d 8250 b03d 4abf 433e f6c1 af3d
00000350: 542f abbd accd 34be 537d 223e 7134 083e
00000360: 42ea 6fbe f4f1 493e b9e4 083c 093a 88bd
00000370: 58b8 803d 7fb4 3d3d 10a5 213e e6f3 56bd
00000380: f910 42be 4e7d 81bd 05fe 23be 3b7a a53d
00000390: fe81 0ebd 6f9c bebd e80f 3c3b 8e75 5b3e
000003a0: e075 8abd 5d97 a4bd cc21 b33d 3f06 f0bd
000003b0: af57 5cbc 9707 4c3e 2f53 16be 1bd4 f1bd
000003c0: dbc0 e9bd a0ea 3a3e b87e efbc 44d4 353e
000003d0: 05d4 a7bd ff80 4ebe ea16 10be 2e17 1cbe
000003e0: f321 72bd 602a df3d 5906 49bd d420 073e
000003f0: 4170 87bc 4250 583e 24c6 593e 6b90 4abe
0.18282066 -0.07963429 0.053955253 -0.153305 0.047402084 0.14636362 0.17554216 0.1512052
-0.09250517 -0.16488455 0.117595986 -0.10857986 0.12188049 0.08013718 0.030655654 -0.13250448
-0.16304998 0.07067881 -0.18708493 -0.04647686 -0.05970547 -0.042244464 -0.10051344 0.17163518
0.22128822 -0.17150281 -0.12495879 -0.003809404 0.111273296 0.040030368 -0.09975835 0.048633408
-0.13746981 -0.030802323 0.13260043 0.15810636 0.0631205 -0.155199 0.09356463 -0.15966605
-0.07457785 -0.16378361 -0.13872997 -0.10523173 -0.14135283 -0.024288828 -0.119107395 -0.12423316
-0.015631812 0.07750151 0.10376649 -0.11820687 0.05770077 -0.16645332 -0.029494159 0.098456316
-0.10856762 -0.13977791 -0.03546491 0.08448598 -0.01212303 -0.12847325 0.069601744 0.040162902
0.06792156 -0.084964685 0.26432246 -0.029082784 0.19962987 0.009410957 0.18240415 0.050594248
0.22845232 -0.18771757 0.21117562 0.12576386 0.021253336 -0.15808754 -0.061771106 0.08899381
-0.09076114 -0.072652094 -0.17452535 -0.056013998 -0.15291269 -0.017895808 -0.14493668 -0.048838798
0.14520414 -0.07099134 0.20308365 -0.13181528 0.08085514 -0.041952603 0.025219377 0.15772356
-0.10114219 0.17037946 -0.13016358 -0.19240572 -0.012683696 -0.11039352 -0.13117866 0.05530605
-0.16404483 0.15758145 -0.16847911 -0.12168981 0.013871282 0.074065305 0.014248438 -0.10049883
-0.13441838 -0.06709143 -0.07776295 0.20897952 -0.15968122 -0.1379734 0.05965992 -0.14745618
-0.023343563 0.03900651 -0.15587425 -0.020180907 -0.20604548 -0.04207746 0.09326329 0.108275205
0.14442876 -0.05201486 0.21774876 -0.1616675 -0.02009515 0.16011794 0.09485162 -0.0071299947
0.1277525 0.06180079 -0.07380326 -0.051735688 0.02466594 -0.014802528 0.18679261 -0.06234683
-0.18092017 0.022487734 -0.0922558 -0.050256867 -0.05974526 -0.03668564 -0.03191816 0.14794052
0.07288898 -0.10031553 0.17338462 0.07264278 0.1969649 -0.1015968 0.1170943 0.037613284
-0.18529737 0.14049974 0.04374523 -0.039812606 0.05465073 -0.11440678 -0.050884865 0.13596866
0.048310425 0.07378539 -0.1252995 0.053458687 0.08379392 0.1513517 -0.009235625 -0.15841159
-0.084678866 0.1287156 -0.036449797 0.1397433 -0.16013308 -0.0020723005 0.08339831 0.038959306
0.07905825 0.031074876 0.12153928 -0.008234444 -0.03264842 0.1258702 -0.027185118 -0.06887562
-0.04341504 -0.06719055 -0.12911625 0.09966235 0.10008727 0.093810976 -0.16187736 -0.026484592
0.0108994935 0.029008 -0.017411482 -0.11931622 -0.18132366 -0.00039721213 -0.1268094 -0.11690111
0.10900882 0.08609106 0.1911594 0.08581917 -0.083586365 -0.17656583 0.1586812 0.13301255
-0.23429206 0.19721204 0.008355313 -0.06651694 0.06285161 0.046314713 0.15785623 -0.052478693
-0.18951787 -0.06322728 -0.1601487 0.08079954 -0.03479194 -0.09307181 0.0028696004 0.21431562
-0.06760764 -0.08036683 0.087466806 -0.11719941 -0.01344864 0.1992477 -0.1468017 -0.11808034
-0.114137374 0.18253565 -0.029235229 0.17756754 -0.081947364 -0.20166396 -0.14071241 -0.15243217
-0.059114408 0.10896754 -0.04907832 0.13196117 -0.016533019 0.21124366 0.21266991 -0.19781654

encoder.latent.backbone.c_layers.1.layer.ff.2.bias f4 [16, 1]
00000000: c95b 453e d7b9 13be 9dd7 693d bc58 1dbe
00000010: 8a31 7a3d f232 ba3d ed87 89bd 2beb 963d
00000020: 565d eebb 087c 143b 0d7b 1e3e 58b3 c0bd
00000030: 2f6c febd a284 a0bd a75f 8e3d 8f4d 013e
0.19273295 -0.14426361 0.05709039 -0.1536588 0.0610824 0.09091748 -0.06715379 0.073690735
-0.00727431 0.0022656936 0.15476628 -0.09409207 -0.12422978 -0.07837798 0.06951838 0.12627243

encoder.latent.backbone.c_layers.1.norm.weight f4 [16]
00000000: 1d94 773f 54eb 923f d0c3 813f 34fb 803f
00000010: 7439 793f 1bc8 8e3f 9071 863f 1e44 933f
00000020: af7b 8f3f e840 813f 2d09 8e3f 8356 823f
00000030: 9350 8f3f edd6 773f a959 8d3f 489d 863f
0.9671038 1.1478066 1.0137882 1.0076661 0.9735329 1.1154817 1.0503407 1.1505163
1.120962 1.0097933 1.109655 1.0182651 1.1196464 0.96812326 1.1042987 1.0516748

encoder.latent.backbone.c_layers.1.norm.bias f4 [16]
00000000: 74e6 e7bc 75e6 a43d 2f3a dabb c3cb d43c
00000010: 49ac dd3a acf3 cc3d a178 a03d 490c be3d
00000020: 3959 103e 6e3e 043c 5b4e 9e3d 13a9 9d3c
00000030: f962 f53d 8ade 383d 9d53 dabd db16 a5bc
-0.02830813 0.08051769 -0.006659768 0.025976067 0.0016912307 0.10007414 0.07835508 0.09279687
0.14096536 0.008071525 0.07729789 0.01924566 0.11981768 0.045134105 -0.10660479 -0.0201525

encoder.latent.backbone.c_layers.2.layer.D f4 [1, 16]
00000000: 40b8 a1bf e455 e5be 73aa 97bf 0852 92bf
00000010: dc82 81bf ad9c f53e f003 903f a352 b43e
00000020: bf0b 4f40 ee14 7b3e dc6d be3f 1f8d 793f
00000030: 5d36 973f d688 a3be f222 8ebf d7da 643f
-1.2634354 -0.44792092 -1.1848892 -1.1431284 -1.011806 0.47971097 1.1251202 0.35219297
3.235092 0.24519703 1.4877276 0.9748096 1.1813465 -0.31940335 -1.1104414 0.89396423
