generative_ts/saves/250911_150521/model_VRNN.pth (torch, 17186 bytes, 24 tensors)

phi_x.0.weight f4 [10, 1]
0.17952609 0.5850325 -0.10372027 0.7980529 0.3044001 -1.3676056 1.2428092 0.8868249
0.58038616 0.039629813
00000000: b0d5 373e b1c4 153f 4b6b d4bd 324d 4c3f
00000010: 54da 9b3e b30d afbf 5f14 9f3f f506 633f
00000020: 3094 143f df52 223d

phi_x.0.bias f4 [10]
-0.78557277 0.3307409 1.207862 0.58545655 -0.80406904 0.40121782 0.36185107 0.64241797
-0.49152744 0.6521257
00000000: 4c1b 49bf df56 a93e 399b 9a3f 7be0 153f
00000010: 78d7 4dbf 6c6c cd3e 8b44 b93e 8175 243f
00000020: 7ca9 fbbe b6f1 263f

phi_x.2.weight f4 [10, 10]
-0.019476945 0.047827225 -0.24757282 -0.21844336 0.08597839 0.26408988 -0.08571824 0.24347183
-0.21363723 -0.09052366 -0.1324374 0.2582617 -0.28524378 -0.15062203 -0.26442185 -0.011498728
-0.030289544 0.2588579 -0.08970601 0.2143718 0.30376115 0.13401714 -0.15997526 -0.12509939
0.13778818 -0.24698576 -0.039479613 -0.12614594 0.16478619 -0.16171107 0.14897066 0.18571493
-0.0061141606 -0.13325843 0.2809947 0.115782164 -0.044553857 0.017863538 0.1435435 0.027313456
-0.26077124 0.6093322 0.5248977 0.63678735 -0.10909995 0.26772705 0.15306719 0.5098651
0.27819937 0.43759286 0.30366284 -0.19458823 0.08344343 -0.06770795 -0.1940728 -0.05499691
-0.012153945 -0.29664502 -0.015708875 -0.08274675 0.06561786 -0.05519476 -0.2768019 0.18462138
0.12077012 0.21094769 0.03659386 0.0472604 0.027494818 -0.026924504 -0.107538335 0.02306003
0.22790547 0.041099947 -0.032253273 0.49327654 -0.42158696 0.029040584 0.016088825 0.20587584
0.3105791 0.54598075 0.2563141 0.27108487 0.18757842 -0.5938295 0.6228233 0.5594592
-0.16868521 0.09272994 -0.012554855 -0.3100886 -0.24252637 -0.27469176 0.07218672 0.042062744
-0.1010783 -0.15019315 -0.017727489 -0.23338024
00000000: 1d8e 9fbc 7be6 433d bb83 7dbe 9eaf 5fbe
00000010: 7015 b03d ca36 873e 0b8d afbd ae50 793e
00000020: b8c3 5abe 7864 b9bd ab9d 07be e13a 843e
00000030: 790b 92be a93c 1abe 4d62 87be 2965 3cbc
00000040: c721 f8bc 0689 843e c9b7 b7bd 4884 5b3e
00000050: 9586 9b3e ca3b 093e 8ed0 23be 0e1a 00be
00000060: 5818 0d3e d6e9 7cbe 60b5 21bd 672c 01be
00000070: b6bd 283e 9697 25be c48b 183e 0e2c 3e3e
00000080: 4c59 c8bb e674 08be 8ade 8f3e 331f ed3d
00000090: 1b7e 36bd 8e56 923c 11fd 123e 78c0 df3c
000000a0: cf83 85be 32fd 1b3f b25f 063f 7f04 233f
000000b0: cb6f dfbd 8513 893e a5bd 1c3e 8586 023f
000000c0: 2670 8e3e 2c0c e03e b279 9b3e 2342 47be
000000d0: 64e4 aa3d 77aa 8abd 05bb 46be 7144 61bd
000000e0: 5721 47bc dbe1 97be e6af 80bc 2177 a9bd
000000f0: a862 863d e713 62bd fbb8 8dbe 630d 3d3e
00000100: 5356 f73d ac02 583e 71e3 153d 1f94 413d
00000110: d03c e13c c790 dcbc 0f3d dcbd 63e8 bc3c
00000120: 0d60 693e 6b58 283d 021c 04bd be8e fc3e
00000130: 3fda d7be 85e6 ed3c b6cc 833c 1ed1 523e
00000140: 3904 9f3e 65c5 0b3f 9a3b 833e a3cb 8a3e
00000150: 8f14 403e 3605 18bf 5971 1f3f b838 0f3f
00000160: d1bb 2cbe 32e9 bd3d e1b2 4dbc efc3 9ebe
00000170: d558 78be 66a4 8cbe a2d6 933d fc49 2c3d
00000180: 2402 cfbd 3ccc 19be 3d39 91bc 3bfb 6ebe

phi_x.2.bias f4 [10]
-0.068887554 -0.23792687 0.20988439 -0.21194056 0.09075341 -0.07653703 -0.07710956 0.04099057
0.397663 -0.10170095
00000000: eb14 8dbd 1aa3 73be efeb 563e f206 59be
00000010: ecdc b93d 72bf 9cbd 9eeb 9dbd bae5 273d
00000020: 7c9a cb3e 9648 d0bd

phi_z.0.weight f4 [10, 1]
0.12346951 0.65463454 0.89286274 0.4488872 0.28587314 0.97530437 0.19755766 0.26445565
0.781799 -0.87562704
00000000: 95dd fc3d 2196 273f a792 643f 8bd4 e53e
00000010: f75d 923e 8cad 793f 8e4c 4a3e bb66 873e
00000020: fb23 483f 1829 60bf

phi_z.0.bias f4 [10]
1.0925424 0.89273345 0.8389274 0.742014 0.16984221 0.52623713 0.9767638 0.4212329
-0.41789332 1.0398083
00000000: 6ed8 8b3f 2e8a 643f f2c3 563f a1f4 3d3f
00000010: 1eeb 2d3e 7ab7 063f 310d 7a3f d7ab d73e
00000020: 1df6 d5be 7018 853f

enc.0.weight f4 [10, 20]
-0.17723913 0.06792319 -0.07619979 -0.07792601 0.21116896 -0.16651034 0.06378988 0.4894416
-0.2662439 0.075242445 0.3017705 0.091163635 0.059645254 -0.08292518 0.28409797 -0.015793884
-0.2603288 0.37083602 -0.23196185 -0.3426303 -0.21533227 0.1541735 0.05582914 -0.13984533
-0.12638 -0.04464063 -0.07427003 0.036480717 -0.18069425 0.18336417 0.03632382 0.044628553
0.10861622 0.00450092 0.052584253 0.17227705 0.106213234 -0.19971833 -0.19010948 0.011283168
0.17720935 -0.16361772 0.15624751 -0.21273407 0.39265215 -0.13249874 -0.11729904 -0.2760801
0.4670007 -0.07546681 0.32318988 0.27161327 0.37705994 -0.3322658 0.40452754 -0.3689765
-0.32262453 0.11794667 -0.31498936 -0.42924282 0.0471165 0.17053871 0.021894978 -0.14024557
-0.19198006 0.079881206 -0.029137682 0.09600289 -0.1987268 0.15745018 0.19468953 -0.15107463
-0.098905295 -0.0030780642 0.19406022 0.009227032 -0.097024046 0.09163608 -0.09135488 -0.008628723
0.050463278 -0.12317798 -0.03548621 -0.0855032 0.35305524 0.043813813 0.0460152 -0.2940591
0.17366888 -0.08468467 0.14024968 0.23073456 -0.1777345 -0.011651315 -0.10342892 -0.17654054
0.20097482 -0.23361224 0.18006358 -0.09297809 0.0016484874 0.19921367 -0.005062056 0.06772153
-0.19350877 0.1660565 0.054014187 -0.09499532 -0.01001101 0.20791578 0.03584665 0.10343477
0.0657902 0.13838464 -0.07796605 0.07647931 0.20704046 -0.196173 -0.19806765 -0.094268516
0.21425188 -0.12594774 -0.0598482 0.21594886 0.045034766 0.17652549 0.04453715 0.02934488
-0.09680057 0.1534431 -0.05063935 0.038269628 0.0801154 0.1913132 0.08752073 -0.03172958
0.040437456 -0.0097902985 0.048575107 -0.07112412 0.14515014 0.05456437 0.1308292 -0.0948936
0.45339543 -0.2099216 0.025140777 0.026217172 0.14839698 0.219759 0.16064277 0.30755404
0.34993288 -0.10157999 0.15339558 -0.26075995 -0.4043769 0.14925376 -0.21426527 -0.27129862
-0.19625515 0.09659305 -0.061171725 0.118259005 0.06256212 -0.099217154 0.058988143 0.08361171
-0.26856837 -0.022212131 -0.14497826 -0.074249744 -0.17860582 0.13860367 -0.06982724 -0.034383923
0.050584484 -0.025064634 0.1166091 -0.20850992 0.08670991 -0.07024825 0.06108637 0.20794442
-0.19305386 -0.061103806 -0.0731568 0.09022981 0.024119267 0.21491699 0.04921206 -0.22641033
-0.17993858 0.19785562 0.11010253 -0.15601069 0.069084406 0.04691917 0.07582539 0.038670428
00000000: 2d7e 35be 501b 8b3d a30e 9cbd ac97 9fbd
00000010: ad3c 583e b081 2abe 45a4 823d 1798 fa3e
00000020: 1f51 88be b618 9a3d aa81 9a3e 00b4 ba3d
00000030: 954e 743d add4 a9bd 4a75 913e 2d62 81bc
00000040: d149 85be 38de bd3e 6887 6dbe 3d6d afbe
00000050: 1080 5cbe a8df 1d3e 19ad 643d 9d33 0fbe
00000060: c269 01be 18d9 36bd e31a 98bd ce6c 153d
00000070: ea07 39be d1c3 3b3e 49c8 143d 6ecc 363d
00000080: 2e72 de3d 747c 933b 9662 573d 6569 303e
00000090: 5386 d93d f682 4cbe 0fac 42be 09dd 383c
000000a0: 5e76 353e 678b 27be 59ff 1f3e f6d6 59be
000000b0: b409 c93e c0ad 07be 7b3a f0bd 5f5a 8dbe
000000c0: b71a ef3e 588e 9abd 2579 a53e e510 8b3e
000000d0: 000e c13e be1e aabe 3c1e cf3e 7dea bcbe
000000e0: 0b2f a5be 068e f13d 4946 a1be b7c5 dbbe
000000f0: 3bfd 403d b3a1 2e3e 195d b33c 899c 0fbe
00000100: 6c96 44be c298 a33d 26b2 eebc 2a9d c43d
00000110: 0a7f 4bbe 9f3a 213e b15c 473e 4fb3 1abe
00000120: dc8e cabd 59b9 49bb b9b7 463e fa2c 173c
00000130: 8bb4 c6bd b2ab bb3d 4418 bbbd 7d5f 0dbc
00000140: 95b2 4e3d bd44 fcbd fd59 11bd 4d1c afbd
00000150: a8c3 b43e 1d76 333d 6f7a 3c3d ea8e 96be
00000160: 41d6 313e 286f adbd 9d9d 0f3e ae45 6c3e
00000170: 0800 36be 28e5 3ebc 8bd2 d3bd 0bc7 34be
00000180: 58cc 4d3e 0c38 6fbe 9662 383e 4c6b bebd
00000190: 0f12 d83a abfe 4b3e 9adf a5bb 96b1 8a3d
000001a0: 2a27 46be b70a 2a3e fb3d 5d3d e88c c2bd
000001b0: 3805 24bc e0e7 543e f0d3 123d 9cd5 d33d
000001c0: 03bd 863d b4b4 0d3e aaac 9fbd 2fa1 9c3d
000001d0: 6a02 543e 93e1 48be 3fd2 4abe da0f c1bd
000001e0: d864 5b3e 72f8 00be 6323 75bd b321 5d3e
000001f0: 6076 383d 19c3 343e 966c 363d ac64 f03c
00000200: 613f c6bd 3020 1d3e 356b 4fbd 9dc0 1c3d
00000210: 8b13 a43d 9ce7 433e 123e b33d e0f6 01bd
00000220: bfa1 253d 7d67 20bc b1f6 463d 86a9 91bd
00000230: 3da2 143e e47e 5f3d 17f8 053e 9357 c2bd
00000240: 7223 e83e b0f5 56be 08f4 cd3c 65c5 d63c
00000250: 61f5 173e 8108 613e 8a7f 243e b977 9d3e
00000260: 672a b33e 2b09 d0bd bb13 1d3e 5482 85be
00000270: 7d0a cfbe fad5 183e 5b68 5bbe a7e7 8abe
00000280: 1cf7 48be 94d2 c53d 348f 7abd c731 f23d
00000290: 9220 803d 5d32 cbbd 8d9d 713d 9e3c ab3d
000002a0: cb81 89be 37f6 b5bc 2e75 14be 4010 98bd
000002b0: 72e4 36be 1fee 0d3e 9601 8fbd 28d6 0cbd
000002c0: ad31 4f3d 5954 cdbc c0d0 ee3d a083 55be
000002d0: f794 b13d 51de 8fbd b435 7a3d 62ef 543e
000002e0: e9af 45be fc47 7abd 3bd3 95bd 68ca b83d
000002f0: c595 c53c 3313 5c3e 9692 493d 1cd8 67be
00000300: d241 38be aa9a 4a3e 6f7d e13d 44c1 1fbe
00000310: 207c 8d3d 512e 403d 584a 9b3d e264 1e3d

enc.0.bias f4 [10]
0.052541602 0.079736196 0.057956666 -0.050252665 0.08131569 -0.1256269 -0.1806925 0.12425747
-0.062561445 -0.046168845
00000000: dd35 573d bb4c a33d f863 6d3d bdd5 4dbd
00000010: d788 a63d 57a4 00be 7407 39be b37a fe3d
00000020: 3720 80bd 8b1b 3dbd

enc.2.weight f4 [10, 10]
0.2838936 -0.11134301 0.42545798 -0.1829077 0.22752926 0.20084311 0.17511755 0.03338725
-0.26093537 -0.18821266 -0.056320556 0.14936687 0.50502837 -0.27564734 0.14437142 0.24487548
-0.27813718 0.3889458 -0.09982399 0.016602818 0.49735862 -0.22058609 0.24590784 0.3192333
-0.43633133 0.124450736 0.30231482 0.20424122 0.032311503 -0.2683042 0.59770566 -0.19516957
-0.061616562 0.052165363 0.03761032 -0.058503967 0.10296211 0.45609832 -0.055314254 -0.28321776
-0.15726066 -0.06595385 0.5366934 -0.058032442 0.6120944 -0.09867695 0.22983482 0.2135757
-0.49433988 0.062296834 0.025845135 -0.3054618 -0.11696507 -0.31922257 0.08547612 0.22519375
-0.11593058 -0.2669077 -0.067916706 0.2162707 -0.018108908 0.035683572 0.5106187 -0.0076250886
0.19362694 -0.15321335 0.17577642 -0.05903592 -0.11749511 0.11484593 0.23815896 0.09091971
0.079516925 0.009802915 -0.07834971 0.19978786 0.26026282 -0.15827915 -0.18608662 0.17252333
0.13493522 0.18263564 -0.116969496 0.3423873 -0.13629688 0.26294807 0.19116554 0.18986213
-0.21003833 0.12446269 0.09527838 0.20776129 -0.044331405 -0.27609453 -0.18317263 0.24976812
0.13229768 -0.07283534 -0.23595083 0.15986402
00000000: 805a 913e ce07 e4bd a1d5 d93e 284c 3bbe
00000010: 6efd 683e d1a9 4d3e 0452 333e 12c1 083d
00000020: 5299 85be d2ba 40be 62b0 66bd a1f3 183e
00000030: 8a49 013f a621 8dbe 1ad6 133e a3c0 7a3e
00000040: ff67 8ebe e723 c73e 8570 ccbd a202 883c
00000050: caa5 fe3e 52e1 61be 44cf 7b3e 8c72 a33e
00000060: d266 dfbe 07e0 fe3d 02c9 9a3e 9c24 513e
00000070: 1159 043d 2b5f 89be 3d03 193f 88da 47be
00000080: a661 7cbd 59ab 553d 470d 1a3d dba1 6fbd
00000090: ccdd d23d b885 e93e 3391 62bd eb01 91be
000000a0: f008 21be d012 87bd bd64 093f 6db3 6dbd
000000b0: 38b2 1c3f 2417 cabd d259 6b3e 97b3 5a3e
000000c0: 1e1a fdbe f72a 7f3d 2db9 d33c 7d65 9cbe
000000d0: 628b efbd 2471 a3be 1b0e af3d 3199 663e
000000e0: 036d edbd 20a8 88be ea17 8bbd 1176 5d3e
000000f0: 2259 94bc f028 123d e8b7 023f e1db f9bb
00000100: 2446 463e f6e3 1cbe bcfe 333e a6cf 71bd
00000110: 47a1 f0bd 5834 eb3d f1df 733e 1d34 ba3d
00000120: c5d9 a23d 689c 203c d075 a0bd 3095 4c3e
00000130: 2b41 853e ee13 22be 7e8d 3ebe f5a9 303e
00000140: 752c 0a3e d604 3b3e b48d efbd 634d af3e
00000150: 6991 0bbe 21a1 863e e6c0 433e 386b 423e
00000160: 4a14 57be 4be6 fe3d 5021 c33d 60bf 543e
00000170: d994 35bd 435c 8dbe 9b91 3bbe 37c3 7f3e
00000180: 0b79 073e b22a 95bd 189d 71be 65b3 233e

enc.2.bias f4 [10]
0.30053994 0.37356934 0.24911794 0.36356443 0.38477924 0.16677749 0.37120426 -0.11513763
0.06488433 -0.038537335
00000000: 5fe0 993e 7b44 bf3e c618 7f3e 1e25 ba3e
00000010: c901 c53e b8c7 2a3e 7c0e be3e 47cd ebbd
00000020: 13e2 843d 53d9 1dbd

enc_mean.weight f4 [1, 10]
0.025127012 0.15023887 -0.17319648 -0.14775714 0.17361107 0.20329668 0.038826577 -0.34364104
-0.32576728 0.110913865
00000000: 2ad7 cd3c 38d8 193e 6b5a 31be a64d 17be
00000010: 1ac7 313e 012d 503e 9e08 1f3d b8f1 afbe
00000020: f8ca a6be cf26 e33d

enc_std.0.weight f4 [1, 10]
-0.32165104 -0.21146497 -0.16409273 -0.31093106 -0.26291192 0.0713438 -0.15980977 0.04503628
0.05504779 0.17841056
00000000: 72af a4be 468a 58be ed07 28be 5b32 9fbe
00000010: 649c 86be b31c 923d 2ca5 23be f677 383d
00000020: cb79 613d 42b1 363e

prior.0.weight f4 [10, 10]
-0.22401625 0.4029403 0.44211495 -0.36359763 0.15923107 -0.15923515 0.054924965 0.09265569
0.10113254 -0.3766173 -0.09542516 0.39007393 -0.00257184 0.08594246 0.15352625 0.09493272
0.049624495 -0.5264885 -0.11466426 0.12861873 -0.3032961 -0.019235473 -0.012472528 -0.1589488
-0.1507263 -0.07115152 0.2904541 -0.19604792 -0.244378 0.20491521 -0.18104708 -0.009587602
-0.11555536 -0.18165597 0.13856445 0.14957875 -0.17737527 0.42603463 -0.034568854 -0.37515476
-0.059806757 -0.08130841 0.39773044 -0.03278895 -0.15617347 -0.14526203 -0.2940108 -0.03348075
-0.012877468 -0.30144757 -0.27451614 -0.092746355 -0.22440647 -0.22056842 -0.043358464 -0.228005
-0.2548011 0.18147215 -0.18028924 -0.06824481 0.18271218 -0.2638761 0.016536124 -0.06657545
-0.1802101 -0.14935373 -0.2474245 -0.018414972 0.2954888 0.27085927 -0.041086428 -0.38221443
0.06042735 0.1723992 -0.10238154 0.047110878 -0.13503508 -0.109662004 -0.21789776 0.26625696
0.052852217 -0.116261736 0.03125242 -0.22119306 0.3154578 0.19192746 -0.29451 0.035779122
-0.021154093 -0.15365513 0.1563621 0.12512212 -0.13025644 -0.24632491 -0.14406976 0.24126196
0.2028912 -0.2886349 0.27006724 0.18172534
00000000: 8464 65be 314e ce3e e45c e23e 7829 babe
00000010: 780d 233e 8a0e 23be 00f9 603d 44c2 bd3d
00000020: 941e cf3d fcd3 c0be 446e c3bd c5b7 c73e
00000030: 518c 28bb 9a02 b03d fc35 1d3e 166c c23d
00000040: 0e43 4b3d f3c7 06bf 18d5 eabd a1b4 033e
00000050: a049 9bbe b693 9dbc 9359 4cbc 79c3 22be
00000060: ff57 1abe e3b7 91bd 66b6 943e c9c0 48be
00000070: 3a3e 7abe 4bd5 513e 6864 39be 5115 1dbc
00000080: 4aa8 ecbd 0604 3abe d7e3 0d3e 2c2b 193e
00000090: dda1 35be 3621 da3e 1298 0dbd 4914 c0be
000000a0: eef7 74bd 0685 a6bd 53a3 cb3e b54d 06bd
000000b0: f0eb 1fbe 92bf 14be 9588 96be 1c23 09bd
000000c0: 04fc 52bc 5657 9abe 618d 8cbe cdf1 bdbd
000000d0: cfca 65be b0dc 61be a598 31bd 257a 69be
000000e0: 4a75 82be d6d3 393e be9d 38be efc3 8bbd
000000f0: e718 3b3e c51a 87be c476 873c b658 88bd
00000100: ff88 38be 2ff0 18be d95c 7dbe ffda 96bc
00000110: 4f4a 973e 11ae 8a3e 3e4a 28bd 9cb1 c3be
00000120: ab82 773d 6a89 303e 6aad d1bd 56f7 403d
00000130: a346 0abe 7996 e0bd 9720 5fbe d552 883e
00000140: 917b 583d a21a eebd 8a02 003d 6f80 62be
00000150: af83 a13e a288 443e 04ca 96be 218d 123d
00000160: 594b adbc c557 1dbe 631d 203e 0320 003e
00000170: f261 05be 993c 7cbe 0687 13be 600d 773e
00000180: b6c2 4f3e f4c7 93be 4146 8a3e 3516 3a3e

prior.0.bias f4 [10]
0.25648764 0.387131 0.18027607 0.114597164 0.33934727 0.17512624 -0.028284948 0.022162104
0.117588766 0.47054514
00000000: 5952 833e 0936 c63e 4a9a 383e ebb1 ea3d
00000010: edbe ad3e 4b54 333e d6b5 e7bc 4d8d b53c
00000020: 61d2 f03d 4beb f03e

prior_mean.weight f4 [1, 10]
0.04262097 0.2691608 0.44818178 -0.20403416 0.24398358 0.23920985 0.29032326 -0.021778472
-0.1456464 0.13459067
00000000: 5493 2e3d 72cf 893e 1578 e53e 55ee 50be
00000010: d5d6 793e 6df3 743e 40a5 943e c468 b2bc
00000020: 5424 15be 23d2 093e

prior_std.0.weight f4 [1, 10]
-0.4141374 -0.33043578 -0.081245996 -0.3991343 -0.05832055 0.1767123 0.18540983 0.22176097
-0.37555552 -0.6222199
00000000: d109 d4be e12e a9be 4d64 a6bd 555b ccbe
00000010: 87e1 6ebd 12f4 343e 13dc 3d3e 4f15 633e
00000020: d048 c0be ce49 1fbf

dec.0.weight f4 [10, 20]
0.07150218 0.16631325 0.13021798 0.030615624 0.0824844 -0.2072374 -0.1399825 -0.11873887
-0.117849834 0.18556672 0.18183672 -0.08102717 -0.012071067 0.0025011331 0.039452624 0.17325173
-0.17317297 -0.041011386 0.08885983 0.01939795 0.0061671874 0.11818346 0.12236128 0.034501005
-0.09374251 0.1266588 0.15987772 0.0024337468 -0.16078651 -0.09512287 0.21397582 0.071250044
-0.13422152 -0.0458563 0.19804926 0.0015250968 0.11834678 0.0951967 -0.16392396 0.16930765
-0.058271736 -0.13485348 0.1588154 0.07551732 0.1328308 -0.07939004 -0.12221966 -0.15304664
0.016668374 -0.006647848 0.1164823 -0.045192007 -0.11663712 -0.07479777 -0.12991208 -0.095774926
-0.023492979 -0.07026038 -0.17283507 0.060360983 0.16466475 -0.098178715 -0.059210055 -0.07254323
0.15675361 -0.092631415 0.028026659 -0.12153881 -0.14749907 0.21262787 0.1642738 -0.04070556
-0.080921 -0.07862485 -0.19732676 0.18641582 -0.19535756 0.1714041 -0.116980605 0.16472842
-0.12637699 0.15081587 0.17329499 -0.02021613 -0.15026781 -0.13260335 0.15683168 -0.18743488
-0.09933857 -0.00029329603 0.013063177 -0.1966823 0.22053005 -0.21821761 -0.036379587 0.056697592
0.13198818 0.20467748 0.16791515 0.14689632 -0.21346422 -0.19110344 -0.13380238 0.15504344
0.13580956 -0.18732123 -0.17560597 -0.0011696389 -0.09227038 0.19296943 -0.009912383 0.21864736
-0.08716965 -0.05399886 0.14137807 -0.20124768 0.10531658 0.20905672 -0.08454046 0.13154775
-0.024079757 -0.09322059 -0.15741862 0.07284007 0.0728285 -0.16927172 -0.061970018 -0.06251964
0.19516969 -0.17859736 -0.08183599 -0.2231352 -0.009633748 -0.16224578 0.02954376 -0.1707972
0.0767403 0.14636424 -0.13414434 -0.089369304 -0.1065677 6.613355e-05 -0.18927567 -0.08489274
-0.1515478 0.03814067 -0.08872068 -0.04640347 0.07457602 -0.13013747 -0.21422729 -0.13583753
0.07727665 -0.16651808 -0.000842703 -0.2074298 0.039370894 -0.13367695 0.17007361 -0.1924915
-0.10031088 0.06813694 -0.17332631 -0.13263883 0.107054174 -0.14253804 -0.21877636 0.012815355
0.10639719 0.0051379986 -0.12820058 -0.08438796 0.15794978 -0.076363355 0.08847537 -0.01652366
-0.119481444 0.014543704 -0.14979802 0.046551865 0.11850192 -0.19397914 -0.20730476 -0.06450309
0.06568413 -0.006974251 0.043872457 0.16292383 -0.100570396 0.06086742 0.007042837 -0.091155015
0.20498976 0.10257733 0.2176386 -0.055235058 -0.09082371 -0.08911103 0.11244125 0.11904106
00000000: bc6f 923d 054e 2a3e dd57 053e 9ecd fa3c
00000010: 95ed a83d 0a36 54be 9357 0fbe 5d2d f3bd
00000020: 415b f1bd 3405 3e3e 6833 3a3e 93f1 a5bd
00000030: b9c5 45bc 0dea 233b 1399 213d e768 313e
00000040: 4154 31be 8efb 27bd 24fc b53d 73e8 9e3c
00000050: 1e16 ca3b 2b0a f23d 8d98 fa3d ed50 0d3d
00000060: 13fc bfbd d8b2 013e fcb6 233e 7f7f 1f3b
00000070: 38a5 24be c7cf c2bd 7a1c 5b3e 8beb 913d
00000080: 5e71 09be d1d3 3bbd 6dcd 4a3e c2e5 c73a
00000090: cc5f f23d 7df6 c23d afdb 27be fc5e 2d3e
000000a0: 58ae 6ebd 0817 0abe 81a0 223e d3a8 9a3d
000000b0: cc04 083e 3f97 a2bd 4d4e fabd 42b8 1cbe
000000c0: 1d8c 883c 31d6 d9bb 468e ee3d 411b 39bd
000000d0: 71df eebd 932f 99bd ac07 05be a525 c4bd
000000e0: 5974 c0bc ade4 8fbd adfb 30be 143d 773d
000000f0: e09d 283e ec11 c9bd 3e86 72bd 8c91 94bd
00000100: 0584 203e 8ab5 bdbd 2a98 e53c 57e9 f8bd
00000110: ff09 17be 1fbb 593e 6437 283e e0ba 26bd
00000120: e9b9 a5bd 1106 a1bd 0710 4abe cae3 3e3e
00000130: d00b 48be 8e84 2f3e 8793 efbd 91ae 283e
00000140: f868 01be 7a6f 1a3e 3e74 313e 4c9c a5bc
00000150: cedf 19be 2cc9 07be 7c98 203e eeee 3fbe
00000160: 0572 cbbd 87c5 99b9 ef06 563c 1667 49be
00000170: a1d2 613e 7074 5fbe c302 15bd bc3b 683d
00000180: e927 073e f996 513e f3f1 2b3e fd6b 163e
00000190: 5d96 5abe 9fb0 43be 7e03 09be b5c3 1e3e
000001a0: a911 0b3e 23d1 3fbe 0dd2 33be 924e 99ba
000001b0: 41f8 bcbd c799 453e 8c67 22bc 18e5 5f3e
000001c0: 0086 b2bd e92d 5dbd 6ac5 103e df13 4ebe
000001d0: 38b0 d73d f712 563e 8c23 adbd 74b4 063e
000001e0: e942 c5bc 70ea bebd 5932 21be 2d2d 953d
000001f0: 1c27 953d 9155 2dbe 46d4 7dbd 4c0a 80bd
00000200: 90da 473e 3ae2 36be a199 a7bd 8e7d 64be
00000210: ded6 1dbc c223 26be c105 f23c 76e5 2ebe
00000220: 052a 9d3d 82e0 153e 225d 09be 4107 b7bd
00000230: 2b40 dabd 2eb1 8a38 7bd1 41be 3fdc adbd
00000240: 592f 1bbe 6439 1c3d 30b3 b5bd 9111 3ebd
00000250: 50bb 983d c242 05be 665e 5bbe fe18 0bbe
00000260: 3843 9e3d b783 2abe d7e8 5cba 7a68 54be
00000270: 6043 213d 9ce2 08be c727 2e3e 7e1c 45be
00000280: ca6f cdbd 618b 8b3d 747c 31be 79d2 07be
00000290: 383f db3d 7ef5 11be e906 60be 7ff7 513c
000002a0: c5e6 d93d a85c a83b 0347 03be 98d3 acbd
000002b0: 96bd 213e 6464 9cbd 9332 b53d a05c 87bc
000002c0: b0b2 f4bd b748 6e3c a764 19be 2bad 3e3d
000002d0: 22b1 f23d 78a2 46be b347 54be 321a 84bd
000002e0: 6785 863d 4288 e4bb 9bb3 333d 81d5 263e
000002f0: daf7 cdbd 1e50 793d 99c7 e63b 7baf babd
00000300: d6e8 513e 1014 d23d a7dc 5e3e 283e 62bd
00000310: c801 babd d87f b6bd 9947 e63d cdcb f33d

dec.0.bias f4 [10]
-0.11628625 0.08439393 0.037807867 -0.19642492 -0.0054507004 -0.13457091 0.10017509 -0.19409518
-0.016349435 0.062151145
00000000: 7c27 eebd bad6 ac3d 6cdc 1a3d 9d23 49be
00000010: ca9b b2bb f5cc 09be 9928 cd3d e3c0 46be
00000020: 40ef 85bc 3392 7e3d

dec.2.weight f4 [10, 10]
-0.1429569 -0.17048866 -0.23227526 0.016240632 0.30882064 -0.07207906 0.24906047 0.17195497
0.032159705 0.027211372 0.26899728 -0.11809489 -0.23654003 -0.05482829 0.16404122 0.24347736
-0.2805169 -0.2701282 -0.25141954 -0.13172567 -0.19431432 0.011043307 -0.02095449 -0.24809897
-0.040574268 0.2868758 0.04207364 0.18834013 0.19006467 -0.1784888 0.07306473 -0.28608257
-0.26395276 0.2805162 0.21658072 0.036205795 -0.23199013 -0.16363353 0.106404215 -0.13904814
0.20385611 0.13725409 -0.16944136 -0.26441303 0.08338885 -0.14184773 0.17995083 0.018142197
0.27732736 0.09445757 -0.2852955 0.20611577 -0.12111053 -0.026873492 -0.18794736 0.13329647
0.26814464 -0.29944745 0.28885508 -0.22975191 -0.0035645047 -0.00089534826 0.2908231 -0.08710685
-0.071709365 -0.06535511 0.112389036 -0.07440845 -0.19895546 0.06138528 0.020467063 -0.22442794
-0.23633127 0.10804355 -0.20462069 0.12857628 0.2066963 -0.21671805 0.11611134 -0.06320689
-0.013588779 -0.13579969 -0.0050746202 -0.07052717 0.02555337 -0.28633037 0.1199398 0.119893886
0.09538164 -0.28057396 -0.31483415 -0.17642349 0.24478689 0.2977759 0.1684572 0.016461914
0.27030578 0.0542611 0.14070508 -0.17077994
00000000: 4b63 12be 9494 2ebe 91d9 6dbe 130b 853c
00000010: bd1d 9e3e 309e 93bd b509 7f3e f714 303e
00000020: e5b9 033d 62ea de3c 03ba 893e bcdb f1bd
00000030: 8d37 72be a193 60bd 6cfa 273e 2152 793e
00000040: e99f 8fbe 3e4e 8abe 10ba 80be 18e3 06be
00000050: 55fa 46be fdee 343c c0a8 abbc a80d 7ebe
00000060: 3431 26bd 63e1 923e 6955 2c3d 3cdc 403e
00000070: 50a0 423e c5c5 36be f6a2 953d 6a79 92be
00000080: d124 87be d29f 8f3e 56c7 5d3e 874c 143d
00000090: d28e 6dbe 8c8f 27be 74ea d93d a362 0ebe
000000a0: a8bf 503e 568c 0c3e 0982 2dbe 2561 87be
000000b0: c6c7 aa3d 8840 11be 0845 383e f29e 943c
000000c0: dafd 8d3e f872 c13d 4012 92be 0310 533e
000000d0: cc08 f8bd cc25 dcbc 4675 40be df7e 083e
000000e0: 414a 893e 2d51 99be d0e4 933e 1644 6bbe
000000f0: 779a 69bb ceb5 6aba c4e6 943e 1465 b2bd
00000100: 5cdc 92bd e6d8 85bd 392c e63d 7563 98bd
00000110: fbba 4bbe 226f 7b3d 8baa a73c 70d0 65be
00000120: d300 72be f045 dd3d 1688 51be 80a9 033e
00000130: 32a8 533e 56eb 5dbe c8cb ed3d 9d72 81bd
00000140: 78a3 5ebc 130f 0bbe 0049 a6bb 8d70 90bd
00000150: 4d55 d13c e599 92be ffa2 f53d ed8a f53d
00000160: 7357 c33d 64a7 8fbe f131 a1be 5ca8 34be
00000170: 6aa9 7a3e 1576 983e 0b80 2c3e 23db 863c
00000180: 8565 8a3e e340 5e3d fe14 103e f0e0 2ebe

dec.2.bias f4 [10]
-0.28864676 -0.16361448 0.021114023 0.30425236 0.058525868 0.051145416 -0.15549305 -0.056892406
-0.22344297 0.2061789
00000000: 82c9 93be 8e8a 27be 51f7 ac3c f7c6 9b3e
00000010: d2b8 6f3d db7d 513d 9239 1fbe 0308 69bd
00000020: 3cce 64be 9020 533e

dec_std.0.weight f4 [1, 10]
-0.12786071 -0.020608768 0.20128493 -0.04935212 -0.052345283 -0.039778743 -0.056960527 -0.12732527
0.2949421 -0.1864213
00000000: ebed 02be b8d3 a8bc a31d 4e3e 7325 4abd
00000010: 0268 56bd 09ef 22bd 714f 69bd 8e61 02be
00000020: a702 973e 3ae5 3ebe

dec_mean.0.weight f4 [1, 10]
-0.00089312415 0.00051611353 -0.094625354 -0.036185287 -0.3143985 -0.07069153 -0.09628792 0.02947566
0.023606267 -0.27898973
00000000: 8c20 6aba cb4b 073a f0ca c1bd 0637 14bd
00000010: d7f8 a0be b9c6 90bd 9a32 c5bd f076 f13c
00000020: ee61 c13c bed7 8ebe

rnn.weight_ih_l0 f4 [30, 20]
0.021094836 0.20368361 0.1336782 -0.12163331 0.37297288 -0.24612118 0.22353551 -0.056758396
0.29724878 -0.016764775 0.35183832 -0.1196848 0.36457542 0.328812 0.19368273 0.2713716
-0.076510854 0.24073336 -0.20442541 -0.17210643 0.047365163 0.07859606 0.2463079 0.078914404
-0.12572217 -0.1891775 0.22357452 -0.50169015 0.31385002 -0.2522516 0.14154676 -0.158872
0.08575705 0.05069689 0.11772919 -0.1529447 0.02084178 -0.083278626 0.17165418 -0.148082
-0.2097757 -0.14505197 -0.17175001 -0.16435452 0.2200899 -0.19257373 0.30096775 -0.41335946
-0.10893987 0.26667717 -0.1486823 0.12291731 0.15107875 0.0074686715 -0.24150088 -0.026081303
-0.12234277 -0.23410295 0.15838696 0.2883453 -0.30941975 0.07179652 0.12524734 -0.2683903
0.042756405 -0.05140828 -0.00061448064 -0.11573361 -0.19728607 0.2953612 0.05477592 0.29902998
0.07652604 0.2959921 0.22562473 -0.038050994 0.04543145 0.0868449 -0.20458123 0.31804475
0.21742296 -0.15648271 0.16131803 -0.312466 -0.27588725 0.28048915 0.22961818 -0.044719104
-0.1308948 -0.16201966 0.08621526 0.1914016 0.004192168 0.29141262 -0.052833468 -0.16112937
-0.17049475 -0.1366747 -0.20223781 -0.047307093 0.02491272 0.27603593 -0.024650482 -0.23925374
0.11069873 -0.004711407 -0.11989676 -0.29318 0.06206531 0.13970317 0.17307198 -0.07884432
0.24603185 0.29690656 0.10959682 0.13793106 -0.103471875 -0.12915991 0.23976207 0.369196
0.027842006 -0.1494004 -0.13932468 -0.021230698 0.32935038 -0.151538 0.0043909303 -0.055034734
0.20017663 0.06803844 0.03779746 -0.14727637 0.40749574 0.13046919 -0.08183684 0.33240822
-0.042113278 0.30637223 0.14031519 0.2894873 -0.046487976 -0.31572545 0.1862944 -0.14554033
0.24988134 0.25824726 -0.09968949 0.4155083 -0.028053831 0.26956707 0.2794942 -0.19525646
-0.11963547 0.1511642 0.25141189 0.18383247 0.13146949 0.11312629 -0.24024308 -0.068736844
0.21528767 -0.12984829 -0.0038096502 -0.0008110571 0.11056429 -0.055345006 -0.1770728 0.23558256
0.10862596 0.15674649 -0.06878925 0.11094246 0.07260801 -0.051905353 0.30490273 0.07790282
0.25802934 0.021331217 -0.1703534 0.036556084 0.25930616 0.20378423 -0.124051176 0.23240325
0.34688663 -0.023621988 0.2489975 0.111172624 -0.019645585 -0.16935837 -0.13438897 0.2841326
-0.07721327 0.48025444 0.48462072 0.4781719 0.27707502 -0.04737043 0.43223363 0.29226005
-0.050808877 -0.1967405 0.31486043 0.05621186 -0.23160826 0.17802416 0.19311367 -0.14102839
-0.44461888 0.24843565 -0.20986597 0.03378949 0.13706744 -0.26423013 0.14063148 -0.005127375
0.0035491616 0.26449576 -0.18056722 -0.4422038 -0.043119043 -0.20454675 0.23379755 -0.1959258
-0.054333292 -0.30783153 0.108167686 -0.08789743 0.14253058 -0.18730463 0.24067429 -0.22364374
-0.19615325 -0.2250227 0.014130406 0.010711639 -0.31569716 -0.15163669 -0.08083775 -0.05555261
-0.16511501 -0.16294083 -0.31135494 -0.014231178 -0.30229256 0.3045555 -0.0018541126 -0.009401975
0.07006447 0.021064075 -0.030486941 0.14278749 0.23796049 -0.19826637 -0.16352436 0.011000811
00000000: 14cf ac3c 7092 503e f0e2 083e e31a f9bd
00000010: 4df6 be3e 3107 7cbe 7ee6 643e 7e7b 68bd
00000020: fe30 983e 4856 89bc 2724 b43e 4e1d f5bd
00000030: a1a9 ba3e 0c5a a83e c454 463e 38f1 8a3e
00000040: b9b1 9cbd ce82 763e e554 51be ab3c 30be
00000050: f901 423d f9f6 a03d 2338 7c3e e09d a13d
00000060: 50bd 00be bfb7 41be b8f0 643e c46e 00bf
00000070: f3b0 a03e 1f27 81be a2f1 103e 57af 22be
00000080: 64a1 af3d 8ba7 4f3d 001c f13d 899d 1cbe
00000090: 61bc aa3c fc8d aabd 1dc6 2f3e cfa2 17be
000000a0: 71cf 56be 8188 14be 3cdf 2fbe 8d4c 28be
000000b0: 3f5f 613e 0c32 45be 7218 9a3e daa3 d3be
000000c0: de1b dfbd e989 883e 2c40 18be 12bc fb3d
000000d0: 63b4 1a3e c2bb f43b 024c 77be 75a8 d5bc
000000e0: d98e fabd afb8 6fbe 3130 223e ffa1 933e
000000f0: 446c 9ebe 0e0a 933d d740 003e 746a 89be
00000100: 5721 2f3d 7d91 52bd 1915 21ba be05 edbd
00000110: 5c05 4abe 9539 973e b75c 603d 751a 993e
00000120: afb9 9c3d 478c 973e 2b0a 673e 5cdb 1bbd
00000130: 5416 3a3d bddb b13d be7d 51be c3d6 a23e
00000140: 20a4 5e3e 013d 20be 8e30 253e 8bfb 9fbe
00000150: 1841 8dbe 469c 8f3e 0721 6b3e 612b 37bd
00000160: 4909 06be 7be8 25be a091 b03d c8fe 433e
00000170: 745e 893b 0934 953e e867 58bd 19ff 24be
00000180: 2d96 2ebe 74f4 0bbe 6e17 4fbe 15c5 41bd
00000190: c315 cc3c 9554 8d3e cfef c9bc effe 74be
000001a0: 04b6 e23d 2562 9abb 6f8c f5bd b01b 96be
000001b0: 3238 7e3d 590e 0f3e c839 313e 2179 a1bd
000001c0: c6ef 7b3e 2304 983e 4c74 e03d cd3d 0d3e
000001d0: 10e9 d3bd 7f42 04be 3084 753e 4207 bd3e
000001e0: eb14 e43c 6bfc 18be 21ab 0ebe 00ec adbc
000001f0: 9da0 a83e c72c 1bbe cbe1 8f3b 1a6c 61bd
00000200: 1afb 4c3e bd57 8b3d 82d1 1a3d 9ecf 16be
00000210: 48a3 d03e b799 053e 139a a7bd 6931 aa3e
00000220: f97e 2cbd d2dc 9c3e c9ae 0f3e ae37 943e
00000230: 2d6a 3ebd c4a6 a1be f6c3 3e3e 8608 15be
00000240: e5e0 7f3e fc38 843e 012a ccbd 81bd d43e
00000250: 26d1 e5bc b204 8a3e dd19 8f3e 4ff1 47be
00000260: 7103 f5bd caca 1a3e 0fb9 803e 943e 3c3e
00000270: f09f 063e c2ae e73d 4802 76be e7c5 8cbd
00000280: 5f74 5c3e f3f6 04be 53ab 79bb 1f9d 54ba
00000290: 886f e23d 72b1 62bd 9252 35be 8e3c 713e
000002a0: 4a77 de3d 2782 203e 61e1 8cbd cd35 e33d
000002b0: 82b3 943d b59a 54bd 361c 9c3e 848b 9f3d
000002c0: 6c1c 843e cebe ae3c 1f71 2ebe d5bb 153d
000002d0: c7c3 843e d0ac 503e 8b0e febd 1efb 6d3e
000002e0: 209b b13e e682 c1bc 33f9 7e3e 79ae e33d
000002f0: c7ef a0bc 486c 2dbe 439d 09be d479 913e
00000300: fe21 9ebd e9e3 f53e 3520 f83e f3d2 f43e
00000310: c7dc 8d3e 7f07 42bd ba4d dd3e 1ca3 953e
00000320: f81c 50bd 5776 49be 6335 a13e 683e 663d
00000330: b72a 6dbe f74b 363e 97bf 453e bf69 10be
00000340: 16a5 e3be ea65 7e3e 1be7 56be d966 0a3d
00000350: 685b 0c3e 2c49 87be b301 103e 8a03 a8bb
00000360: 0d99 683b fd6b 873e 9de6 38be 8968 e2be
00000370: 989d 30bd b474 51be a068 6f3e c6a0 48be
00000380: 968c 5ebd 189c 9dbe 0587 dd3d 9103 b4bd
00000390: 89f3 113e c9cc 3fbe 5273 763e dd02 65be
000003a0: 66dc 48be 5a6c 66be 3883 673c df7f 2f3c
000003b0: 0fa3 a1be a646 1bbe 438e a5bd 228b 63bd
000003c0: e913 29be f6d9 26be ea69 9fbe e329 69bc
000003d0: 17c6 9abe b3ee 9b3e b205 f3ba be0a 1abc
000003e0: f67d 8f3d 918e ac3c c0bf f9bc e236 123e
000003f0: eaab 733e 5706 4bbe ee72 27be bf3c 343c

rnn.weight_hh_l0 f4 [30, 10]
0.026800286 0.38992026 -0.122496754 0.16735102 0.268135 -0.25418633 -0.33995238 -0.16688122
-0.13942385 0.016051006 -0.073474795 0.2956226 -0.010074979 0.13357039 0.41517815 -0.00491191
-0.3202032 0.27645552 -0.29843867 -0.102924444 0.020996006 -0.14184316 -0.19648893 0.20575634
-0.24364936 0.09933057 -0.1557981 -0.04637527 -0.14130867 -0.304168 -0.06814919 0.1498062
-0.18147942 0.13233423 0.14278293 0.19777781 0.09434962 0.16655707 -0.26485622 0.052553777
0.15239002 -0.29398435 -0.21990967 -0.23322788 0.1553022 0.17426866 -0.04834268 0.30739743
0.32395837 0.17036793 0.20828284 0.13035612 -0.049630765 -0.27108037 -0.03499586 0.08598351
-0.027601007 0.018547025 -0.13713478 0.10445065 -0.050552603 -0.07839056 0.09936566 0.0066083265
0.09499754 -0.34032655 -0.06410378 0.4214472 -0.12943482 -0.15405387 0.10813983 0.3811908
0.38880277 -0.10928065 0.24765238 -0.038916428 -0.11397802 0.16469285 -0.31967637 0.02046955
0.35177103 0.4076327 0.056690205 -0.2483694 0.19601387 0.07298967 0.046724964 0.013191077
0.0034471466 -0.3035766 -0.19882478 -0.047514413 0.1903537 -0.16605707 0.012036497 -0.29927522
-0.121509254 -0.12887774 -0.45355427 -0.087081335 0.22684118 -0.33682594 -0.06776445 -0.051111147
-0.3212183 -0.06778414 -0.15469489 0.10898225 -0.02107148 0.14542873 -0.21127687 -0.050010256
-0.3966121 0.18207426 -0.13297768 -0.110759504 -0.16691934 -0.050855268 0.028041735 0.13636501
-0.20578459 -0.14521328 -0.27885613 0.13511539 0.03588053 0.37906486 0.16228954 -0.3449759
0.13440382 0.19042121 0.061716124 0.12320627 -0.21096829 0.18911873 0.18625034 0.0068327594
0.2740302 0.14170234 0.32670173 0.14905289 0.15689822 -0.04610627 -0.15957612 -0.059896406
0.06809805 0.17280592 0.082293354 0.012863758 -0.051477224 0.030916842 -0.1155811 0.098849796
0.016447287 0.04995881 -0.13540265 -0.0710771 -0.0998282 0.06930936 0.45335972 0.26202706
-0.43894708 -0.054382153 -0.1573138 -0.10289511 0.02291919 -0.288659 -0.1723697 0.12024732
0.08610585 -0.15880759 -0.08677128 -0.09184978 -0.24357618 0.4649198 -0.19404162 0.48926714
0.101961985 -0.32454237 0.38761538 0.3685856 0.054047465 0.2895773 -0.23926942 0.2772721
0.016356327 -0.033253454 0.1857808 0.014070108 0.12866849 -0.2864207 -0.1652424 -0.07677139
-0.21930467 0.19332387 -0.116216354 0.002795914 0.12549785 -0.14594023 -0.115334705 0.05809145
0.033198096 0.08561012 0.2078867 -0.22309583 0.19306807 0.16427317 -0.016776554 0.22987722
-0.10657203 -0.4122304 0.13166729 0.42390105 -0.08601165 0.08955518 -0.08770504 0.05338866
-0.34056494 0.027622605 -0.42876992 -0.29820248 0.20820332 0.2321114 -0.05629457 0.061143648
0.18741353 0.18131706 0.0044812276 -0.10672052 -0.29500523 -0.3257786 -0.37985888 -0.25971466
-0.10960276 0.009068154 -0.30248713 0.06746392 -0.12254985 -0.3917356 -0.065935455 -0.09837067
0.016229836 -0.05806597 0.057495765 -0.29935753 0.1997868 -0.11920858 0.21991102 0.063416995
-0.04819112 -0.06911543 -0.32091278 -0.35962123 0.07571315 0.23857158 0.15391463 0.23094179
00000000: 468c db3c a1a3 c73e 94df fabd 115e 2b3e
00000010: fe48 893e b624 82be 3d0e aebe e9e2 2abe
00000020: 20c5 0ebe 667d 833c f479 96bd d85b 973e
00000030: 8611 25bc adc6 083e 3b92 d43e 16f4 a0bb
00000040: adf1 a3be 948b 8d3e f4cc 98be 0dca d2bd
00000050: d1ff ab3c 553f 11be 6534 49be cab1 523e
00000060: 387f 79be d36d cb3d 8a89 1fbe fff3 3dbd
00000070: 38b3 10be e8bb 9bbe cd91 8bbd cc66 193e
00000080: bed5 39be a082 073e b035 123e 4486 4a3e
00000090: 603a c13d f08d 2a3e 3c9b 87be a142 573d
000000a0: 210c 1c3e 1e85 96be 0030 61be 4ad3 6ebe
000000b0: 8a07 1f3e 7c73 323e f902 46bd 3263 9d3e
000000c0: dfdd a53e ee74 2e3e 1948 553e 137c 053e
000000d0: a149 4bbd 0ccb 8abe d257 0fbd 1f18 b03d
000000e0: 821b e2bc eeef 973c 0f6d 0cbe 39ea d53d
000000f0: 3f10 4fbd 3b8b a0bd 3980 cb3d a98a d83b
00000100: 128e c23d 483f aebe d848 83bd edc7 d73e
00000110: 908a 04be 4cc0 1dbe 6a78 dd3d 712b c33e
00000120: 2811 c73e 89ce dfbd 9698 7d3e d566 1fbd
00000130: 4f6d e9bd 3ea5 283e 9fac a3be c2af a73c
00000140: 551b b43e 3cb5 d03e fd33 683d 8c54 7ebe
00000150: dcb7 483e 9c7b 953d ad62 3f3d 631f 583c
00000160: 86e9 613b 646e 9bbe b998 4bbe 799e 42bd
00000170: 15ec 423e dd0a 2abe ba34 453c 9a3a 99be
00000180: d8d9 f8bd 87f8 03be 4438 e8be b357 b2bd
00000190: 0e49 683e 7374 acbe 17c8 8abd ec59 51bd
000001a0: ba76 a4be 69d2 8abd 5668 1ebe 1632 df3d
000001b0: 199e acbc 45eb 143e f758 58be 8ed7 4cbd
000001c0: be10 cbbe ad71 3a3e 4d2b 08be e1d5 e2bd
000001d0: e7ec 2abe 9d4d 50bd c8b7 e53c 45a3 0b3e
000001e0: 32b9 52be cab2 14be 3bc6 8ebe b05b 0a3e
000001f0: 76f7 123d ca14 c23e 3b2f 263e aea0 b0be
00000200: 28a1 093e c7fd 423e 0cca 7c3d 9253 fc3d
00000210: 1208 58be 57a8 413e 69b8 3e3e 57e5 df3b
00000220: b04d 8c3e 6b1a 113e 7345 a73e 52a1 183e
00000230: eda9 203e eed9 3cbd ec67 23be ef55 75bd
00000240: fe76 8b3d 09f4 303e 6b89 a83d 83c2 523c
00000250: c8d9 52bd 5145 fd3c c9b5 ecbd c371 ca3d
00000260: 76bc 863c 9ca1 4c3d fea6 0abe df90 91bd
00000270: ba72 ccbd 11f2 8d3d c41e e83e 6928 863e
00000280: acbd e0be d2bf 5ebd de16 21be acba d2bd
00000290: 06c1 bb3c 1dcb 93be af81 30be 3a44 f63d
000002a0: 4458 b03d 759e 22be 24b5 b1bd bd1b bcbd
000002b0: 096c 79be f809 ee3e d9b2 46be 3981 fa3e
000002c0: 72d1 d03d 6b2a a6be 8675 c63e 40b7 bc3e
000002d0: e060 5d3d 7a43 943e 0b03 75be 9cf6 8d3e
000002e0: b4fd 853c c634 08bd 523d 3e3e 4f86 663c
000002f0: acc1 033e bca5 92be 4e35 29be 523a 9dbd
00000300: 6791 60be b1f6 453e d702 eebd a73b 373b
00000310: 8282 003e 5b71 15be 9a34 ecbd 4df1 6d3d
00000320: bafa 073d 5c54 af3d 40e0 543e 3c73 64be
00000330: a3b3 453e 3a37 283e fc6e 89bc ef64 6b3e
00000340: 7042 dabd dd0f d3be cad3 063e 8f09 d93e
00000350: e026 b0bd b568 b73d b39e b3bd 11ae 5a3d
00000360: 875e aebe cd48 e23c bb87 dbbe ffad 98be
00000370: 4033 553e 9cae 6d3e 2395 66bd c371 7a3d
00000380: 55e9 3f3e 2eab 393e 43d7 923b 4a90 dabd
00000390: ed0a 97be 74cc a6be dd7c c2be 52f9 84be
000003a0: 6977 e0bd 9892 143c 98df 9abe 862a 8a3d
000003b0: 6afb fabd 9291 c8be 2b09 87bd 9076 c9bd
000003c0: 6ff4 843c 95d6 6dbd ae80 6b3d 6445 99be
000003d0: e994 4c3e a123 f4bd 5b30 613e c5e0 813d
000003e0: 0d64 45bd 648c 8dbd ae4e a4be 4620 b8be
000003f0: 7f0f 9b3d 1c4c 743e cc9b 1d3e 017c 6c3e
