generative_ts/saves/250911_115800/model_LS4.pth (torch, 247755 bytes, 247 tensors)

encoder.latent.encoder.weight f4 [16, 1]
0	0xbed7f024	-0.421754
1	0x3f56f1d4	0.8396275
2	0x3ce0371f	0.027370034
3	0x3e3ce2e4	0.18445927
4	0xbf0c053a	-0.54695475
5	0x3ef11ad3	0.47090778
6	0x3dc3c3ee	0.09558855
7	0x3f1e21fc	0.61770606
8	0x3f661dd9	0.89889294
9	0xbda71cf1	-0.08159817
10	0xbea80200	-0.32814026
11	0x3f56d435	0.8391755
12	0xbead1834	-0.33807528
13	0xbf0e0a75	-0.55484706
14	0xbed386a9	-0.41313675
15	0x3e02d7b2	0.12777594

encoder.latent.encoder.bias f4 [16]
0	0xbeec4d3b	-0.46152672
1	0x3c0db93a	0.0086501185
2	0x3f76141a	0.9612442
3	0xbe71bd0c	-0.23607272
4	0x3e7ffda2	0.24999097
5	0xbf12cb00	-0.57341003
6	0xbe073dcd	-0.13207169
7	0xbf7397fc	-0.95153785
8	0xbe9d8126	-0.30762595
9	0xbf1b1633	-0.6058075
10	0xbed6420f	-0.41847274
11	0xbf1d7466	-0.61505735
12	0x3e9c0cc5	0.30478492
13	0xbea4cc38	-0.32187057
14	0xbd49bb36	-0.049250804
15	0x3eef3d68	0.46726537

encoder.latent.backbone.c_layers.0.layer.D f4 [1, 16]
0	0xbeb08a71	-0.34480622
1	0xbf31c422	-0.694399
2	0xbf5fb6c0	-0.8738823
3	0xbf7edf05	-0.9955905
4	0xbf660021	-0.89843947
5	0x40097645	2.1478436
6	0xbee544f1	-0.4477916
7	0x3f6892b1	0.90848833
8	0x3df951d7	0.12173813
9	0xbeea6a5f	-0.4578428
10	0x3f484031	0.7822295
11	0xbf095dde	-0.53658855
12	0xbfb50ce7	-1.4144562
13	0xbd80beef	-0.06286418
14	0xbffb82d9	-1.9649307
15	0xbf1783c8	-0.5918546

encoder.latent.backbone.c_layers.0.layer.kernel.kernel.C f4 [1, 16, 8, 2]
0	0xbe8c6d6f	-0.2742724
1	0x3e573d59	0.21019496
2	0x3fcba81e	1.591068
3	0x3f4edecc	0.8080871
4	0x3f94ff03	1.1640323
5	0xbf09a72b	-0.53770703
6	0x3e4893ee	0.1958768
7	0xbd151dd5	-0.036405403
8	0x3eb8041c	0.35940635
9	0xbf309ae2	-0.6898633
10	0x3f22a83c	0.63537955
11	0xbf47b755	-0.7801412
12	0xbe545f8f	-0.20739578
13	0x3ead0750	0.33794641
14	0xbe876998	-0.2644775
15	0xbedf89a1	-0.4365969
16	0xbebaf73b	-0.36516747
17	0xbc942618	-0.01808457
18	0x3def8d56	0.116968796
19	0xbceb6aed	-0.02873751
20	0x3fc8fe17	1.5702542
21	0x3f81dcf3	1.0145553
22	0x3f69810f	0.9121255
23	0xbf9d2ce2	-1.2279322
24	0x3f57819b	0.8418214
25	0xbec08ee7	-0.37609026
26	0x3f6afa83	0.917885
27	0xbf66c4d0	-0.9014406
28	0x3e04fd4c	0.1298725
29	0xbedccc28	-0.4312451
30	0x3e7a89cb	0.24466626
31	0x3e54ef7f	0.20794486
32	0xbe280b19	-0.16410483
33	0xbe7d3517	-0.24727283
34	0x3b439d5e	0.0029848437
35	0xbe81bc3d	-0.25338927
36	0x3f1107ee	0.56652725
37	0x3ec44722	0.3833552
38	0xbd7d4c89	-0.061840568
39	0xbe213240	-0.15741825
40	0x3e4d717d	0.20062824
41	0x3f7bb80f	0.98327726
42	0xc034626d	-2.8185074
43	0xc00df2d7	-2.2179468
44	0x3f81f80e	1.0153825
45	0x40043622	2.065804
46	0x3f0f11c9	0.55886513
47	0xbe153bbf	-0.14573573
48	0xbede9715	-0.4347464
49	0x3dc92cfe	0.09823035
50	0xbed6a7c6	-0.41924876
51	0xbef23042	-0.47302443
52	0xbe3b2607	-0.18276225
53	0xbf6ae9d9	-0.91763073
54	0xbe852bd8	-0.26010013
55	0x3c310611	0.010804669
56	0x3f8ccd66	1.1000183
57	0x3eb8ea5e	0.36116308
58	0x3e807b66	0.25094146
59	0xbf805753	-1.0026649
60	0x3f29f0c9	0.66383034
61	0xbf97dc04	-1.1864018
62	0xbeab8877	-0.33502552
63	0xbc01bedc	-0.00791904
64	0x3ef5a77f	0.47979352
65	0xbe04940b	-0.12947099
66	0x3f454e14	0.7707226
67	0xbf0f6f00	-0.5602875
68	0x3e8a594a	0.27021247
69	0xbd774d3a	-0.060376383
70	0xbf493c2a	-0.7860743
71	0xbc2e8b3f	-0.010653316
72	0xbf26a59d	-0.65096456
73	0x3fa0792f	1.2536982
74	0xc00a912b	-2.1651103
75	0xbe907260	-0.2821226
76	0xbf0735bb	-0.5281636
77	0x3f96722a	1.175359
78	0xbe38b4c2	-0.18037704
79	0xbe87f620	-0.26554966
80	0xbf1b0c11	-0.60565287
81	0x3ee2796e	0.44233268
82	0x3d91de47	0.07122474
83	0x3e8e4585	0.27787414
84	0xbfaafde3	-1.335873
85	0x3e1f97ca	0.15585247
86	0x3fcfa0b7	1.6220921
87	0x3d577b83	0.052608024
88	0x400db6eb	2.2142894
89	0xbfb757ad	-1.4323632
90	0x3ed47b97	0.41500542
91	0x3e11bd9b	0.14232485
92	0xbe3f08c5	-0.18655689
93	0xbe9b3d6d	-0.30320302
94	0xbd64fa86	-0.05590298
95	0x3deb3fb1	0.114867575
96	0x3c3734fb	0.011182065
97	0xbe94243a	-0.2893389
98	0x3efb7ff3	0.49121055
99	0x3f1b0ba0	0.60564613
100	0x3ebd9dd9	0.3703449
101	0xbcdef6b4	-0.027217247
102	0xbed9909e	-0.42493147
103	0x3f116708	0.5679784
104	0xbdb69178	-0.08914465
105	0x3e0ffe10	0.14061761
106	0xbeda4eb6	-0.42638177
107	0xbf85ad0b	-1.0443434
108	0x3f56e2bb	0.83939713
109	0x3eb2847d	0.34866706
110	0xbf9df45a	-1.2340195
111	0x3e86d375	0.26333204
112	0xbfc32848	-1.5246668
113	0xbe88a1e6	-0.2668602
114	0x3f44df8e	0.7690362
115	0xbe31a1bd	-0.17346855
116	0xbe86df21	-0.2634211
117	0x3efbcfad	0.49181882
118	0xbee01b56	-0.43770856
119	0x3f4953a3	0.78643245
120	0xbf86f1df	-1.0542563
121	0xbf47ec10	-0.7809458
122	0xbf6bf611	-0.9217234
123	0xbeaec2fe	-0.34133142
124	0xbfd3d655	-1.6549784
125	0x400fcb7d	2.246795
126	0x3f72850f	0.9473428
127	0xbf853eeb	-1.0409826
128	0xbe145ed6	-0.14489302
129	0x3f0e314d	0.5554398
130	0xbee39156	-0.4444682
131	0x3e1b4b91	0.15165545
132	0x3e9072d7	0.28212616
133	0x3d8da1cd	0.06915627
134	0x3bde1da7	0.006778437
135	0xbf778d2e	-0.966998
136	0xbf862b8a	-1.0482037
137	0x3f18e19c	0.5971925
138	0xbf4fedd4	-0.8122227
139	0x3f3baf8c	0.7331474
140	0x3f65ac51	0.8971606
141	0x3fbecb51	1.4905797
142	0xbefac32b	-0.48977026
143	0xbecef824	-0.4042369
144	0x3e10fefc	0.14159769
145	0x3e0719b1	0.13193394
146	0xbf46abf2	-0.7760612
147	0x3f8d3672	1.103224
148	0xbea02b8a	-0.31283218
149	0xbd1627dd	-0.03665911
150	0xbf138e35	-0.57638866
151	0x3e987370	0.29775572
152	0xbe17d122	-0.14825872
153	0xbf16c144	-0.5888865
154	0x3f9d22e5	1.2276274
155	0xbed40686	-0.41411227
156	0x3e62b45f	0.22139119
157	0x3fc4478a	1.5334332
158	0x3e216e46	0.15764722
159	0x3f383a5f	0.7196407
160	0x3dafae09	0.085781164
161	0xbfb3743f	-1.401985
162	0x3e16589d	0.14682241
163	0x3f0a1b9e	0.5394839
164	0xbe9b7ccb	-0.30368647
165	0x3f8bdf50	1.0927525
166	0xbeb7e1e3	-0.35914525
167	0xbfab3fc8	-1.337884
168	0x3f12cc4e	0.57342994
169	0x3f023f3d	0.50877744
170	0x3d6ae3fc	0.05734633
171	0x38eee8fd	0.00011392122
172	0x3ef5b0a9	0.47986344
173	0xbe546646	-0.20742139
174	0xbe67e67d	-0.22646518
175	0xbe351a41	-0.17685796
176	0xbf4d1b78	-0.8012004
177	0xbe98b76c	-0.2982744
178	0xbfa7a6e9	-1.3097812
179	0xbdc255af	-0.09488999
180	0xbf0312fe	-0.51200855
181	0xbfd3be90	-1.654253
182	0xbf1dd026	-0.61645734
183	0x3f9abd94	1.2089105
184	0x3e982a77	0.29719898
185	0xbed5dfdd	-0.41772357
186	0xbd8d2e0b	-0.068935476
187	0x3e45f1b5	0.19330485
188	0x3ef4e37b	0.47829804
189	0x3eded877	0.43524525
190	0x3ecc54e3	0.39908513
191	0xbdca255c	-0.09870407
192	0xbd66f16b	-0.056382578
193	0xbfb77214	-1.4331689
194	0x3f00f1f2	0.5036918
195	0xbe55734e	-0.20844766
196	0x3d881712	0.06645025
197	0x3e877095	0.2645308
198	0xbdc17574	-0.094462305
199	0x3ef90059	0.48633078
200	0x3e330aa6	0.17484531
201	0x3e05d0b6	0.13067898
202	0xbfd028ec	-1.6262488
203	0xbf26b25f	-0.6511592
204	0x3e3d1fea	0.18469205
205	0xbc360bb0	-0.011111185
206	0x3f91b99b	1.1384767
207	0xbe81e3c7	-0.25369093
208	0xbf6fb8b3	-0.93641204
209	0x3d9f6660	0.07783198
210	0xbf47618e	-0.7788323
211	0xbfec8680	-1.8478546
212	0x3f241e63	0.64108866
213	0x3de0fc05	0.10985569
214	0x3f8b1080	1.086441
215	0x3e8e49e0	0.27790737
216	0xbf82c9a9	-1.0217792
217	0x3e4ae8ad	0.19815321
218	0x3fb5f3a0	1.4214973
219	0xbf4777eb	-0.77917355
220	0xbf11d200	-0.5696106
221	0x3f76c46e	0.9639348
222	0x3e83077c	0.25591648
223	0x3cb7ff49	0.022460597
224	0x3f12a9f3	0.5729057
225	0xbec89267	-0.39174196
226	0x3f146f9c	0.579828
227	0xbe9b6f09	-0.3035815
228	0xbeda4f49	-0.42638615
229	0xbec9add6	-0.3939044
230	0x4026331d	2.5968697
231	0xc0079653	-2.11855
232	0xbf7ee9f3	-0.9957573
233	0xc00a3e88	-2.1600666
234	0xbfb3b85a	-1.4040635
235	0x3ec38451	0.38186887
236	0xbf083c26	-0.5321678
237	0x3fbf2372	1.4932692
238	0x3e50cca5	0.20390566
239	0xbe335b87	-0.17515384
240	0x3fceedde	1.6166341
241	0xbfcd9883	-1.6062168
242	0xbf3a2404	-0.72711205
243	0x3f06f609	0.5271917
244	0xbf3fecf1	-0.7497092
245	0xbf853ef5	-1.0409838
246	0xbedda465	-0.43289486
247	0xbed5da50	-0.41768122
248	0xbf0aa992	-0.54164994
249	0x3e1764d6	0.1478456
250	0x3be3c360	0.0069507807
251	0xbe144367	-0.14478837
252	0xbfb8bdcc	-1.4432921
253	0xbca06af1	-0.019582244
254	0xbf9b9a2e	-1.2156427
255	0x3f743857	0.9539847

encoder.latent.backbone.c_layers.0.layer.kernel.kernel.log_dt f4 [16]
0	0xc0b7dbdd	-5.745589
1	0xc0921094	-4.5645237
2	0xc0b461e6	-5.6369505
3	0xc069c9c9	-3.652941
4	0xc0729607	-3.790407
5	0xc0cb4488	-6.3521156
6	0xc0706cbc	-3.7566366
7	0xc0b7786c	-5.73345
8	0xc09aab0d	-4.83338
9	0xc09677f3	-4.7021422
10	0xc0da5191	-6.822457
11	0xc0472fde	-3.1122966
12	0xc01b4af6	-2.4264503
13	0xc0c369a7	-6.106647
14	0xc0c93427	-6.2876163
15	0xc08536db	-4.162946

encoder.latent.backbone.c_layers.0.layer.kernel.kernel.B f4 [1, 16, 8, 2]
0	0xbe99c775	-0.30034986
1	0xc1281e95	-10.507466
2	0x3e2ac80d	0.16677876
3	0xc061e0f9	-3.5293562
4	0x3e1e580d	0.15463276
5	0xbffb137a	-1.9615319
6	0xbdc962ff	-0.09833335
7	0xbfc25eac	-1.5185142
8	0xbc64c793	-0.013963598
9	0x3fbe5d90	1.4872303
10	0x3dc24259	0.09485311
11	0x3f9bfddc	1.2186847
12	0x3ed5bcd1	0.41745618
13	0x3f3bd2ed	0.7336872
14	0xbf2894ba	-0.6585194
15	0xbed3edc0	-0.41392326
16	0x3d83902e	0.064239845
17	0xc124850e	-10.282484
18	0x3cd7d3ba	0.026346076
19	0xc0693408	-3.6438007
20	0xbe3f28d4	-0.18667918
21	0xc0060aa8	-2.0944004
22	0xbe30a55f	-0.17250584
23	0xbfdf37fc	-1.743896
24	0xba503f24	-0.0007943979
25	0x3f96410e	1.1738603
26	0x3daa103e	0.08303879
27	0x3f6eb1b0	0.9323988
28	0x3eb6be98	0.35692286
29	0x3f3d6a95	0.73990756
30	0xbf1a7a5c	-0.60342956
31	0xbed5f884	-0.41791165
32	0xbd885243	-0.06656315
33	0xc123e45e	-10.243254
34	0xbd944860	-0.07240367
35	0xc05efda5	-3.4842312
36	0xbd66630b	-0.0562468
37	0xc00d1d17	-2.2049005
38	0xbe426487	-0.1898366
39	0xbfce88ba	-1.6135476
40	0x3e1a1476	0.15046868
41	0x3f9dbbbe	1.2322919
42	0x3e28ee76	0.16497216
43	0x3f8993c6	1.0748222
44	0x3ea1b1e2	0.31581026
45	0x3f3cc521	0.73738295
46	0xbf12c97e	-0.573387
47	0xbeccd0a4	-0.4000293
48	0xbd9b66ed	-0.07587991
49	0xc12251c6	-10.144964
50	0xbd8d95d5	-0.06913344
51	0xc05b67eb	-3.4282176
52	0xbd86e700	-0.065870285
53	0xc007b050	-2.1201363
54	0xbddcc364	-0.10779455
55	0xbfbc050d	-1.4689041
56	0x3e2c2a8a	0.16813102
57	0x3f997b72	1.1990798
58	0x3e811deb	0.25218138
59	0x3f90423b	1.1270212
60	0x3eecca73	0.46248206
61	0x3f6d13d0	0.92608356
62	0xbf2c29cd	-0.6725128
63	0xbe8a887e	-0.2705726
64	0x3ddd2e22	0.10799815
65	0xc1274b0e	-10.455824
66	0x3e2a9ca8	0.16661322
67	0xc065dbfb	-3.5915515
68	0x3e23be72	0.15990618
69	0xc0199d36	-2.4002204
70	0xbea6abf5	-0.32553068
71	0xbfe8b246	-1.8179405
72	0x3cef40f5	0.029205779
73	0x3f879d49	1.0594875
74	0xbd232618	-0.03983125
75	0x3f654e52	0.8957263
76	0x3eeb9e64	0.4601928
77	0x3f22cffd	0.63598615
78	0xbf4684c2	-0.7754632
79	0xbeddf74b	-0.43352732
80	0xbe9dac9f	-0.30795762
81	0xc1289166	-10.535498
82	0xbdb1d097	-0.086823635
83	0xc060151b	-3.5012882
84	0xbe81098f	-0.25202605
85	0xc01ae95b	-2.420493
86	0x3d63f844	0.055656686
87	0xbfb4e52a	-1.4132435
88	0xbe2073bc	-0.15669149
89	0x3fbb166c	1.4616218
90	0x3ea5e8ba	0.3240412
91	0x3fa12b35	1.2591311
92	0x3e39d1f3	0.18146496
93	0x3f3986e5	0.7247146
94	0xbef84a58	-0.4849422
95	0xbea2e3f9	-0.31814554
96	0xbd10ba63	-0.035334002
97	0xc122f626	-10.185095
98	0xbdf3802f	-0.118896835
99	0xc05c10a7	-3.4385164
100	0xbd604588	-0.05475381
101	0xc0091269	-2.1417487
102	0xbe0401b8	-0.1289128
103	0xbfc6314c	-1.5483794
104	0x3dbf3f0c	0.09338197
105	0x3fa09719	1.2546111
106	0x3e345693	0.1761115
107	0x3f8b0ab6	1.0862644
108	0x3eaab03a	0.33337575
109	0x3f4999ec	0.7875049
110	0xbf1c68ee	-0.6109761
111	0xbed75bcb	-0.4206222
112	0xbd9ab935	-0.07554857
113	0xc122a579	-10.165399
114	0xbe141d64	-0.14464337
115	0xc06741c9	-3.6133902
116	0xbe2aa90f	-0.16666053
117	0xc005f306	-2.092958
118	0xbe455f8b	-0.19274728
119	0xbfc42092	-1.532244
120	0x3e511dab	0.20421474
121	0x3fb7a968	1.4348574
122	0x3e81cbdb	0.25350842
123	0x3f99ca29	1.2014819
124	0x3e484ca9	0.19560494
125	0x3f6a8b04	0.9161837
126	0xbf0dc34d	-0.5537613
127	0xbef53d45	-0.47898307
128	0xbe1b1ddf	-0.15148114
129	0xc124ceed	-10.300519
130	0xbce29736	-0.027659994
131	0xc05635d6	-3.347036
132	0xbe390598	-0.1806854
133	0xc0130945	-2.2974408
134	0x3ded5d20	0.11590028
135	0xbfdebb5c	-1.7400928
136	0x3e6486cf	0.2231705
137	0x3fb60ddb	1.4222978
138	0x3e70786b	0.23483436
139	0x3f97091b	1.1799654
140	0x3e44b0a7	0.19208013
141	0x3f6a5d41	0.91548544
142	0xbefa710b	-0.4891437
143	0xbe98f0b8	-0.29871154
144	0xbe299507	-0.16560756
145	0xc12401fd	-10.250485
146	0xbce5b3dc	-0.028039865
147	0xc05ed110	-3.4815102
148	0xbd79ab97	-0.060954656
149	0xc01062e5	-2.256036
150	0xbd231162	-0.0398115
151	0xbfcd438a	-1.6036236
152	0x3e2a4939	0.16629495
153	0x3f9a555a	1.2057297
154	0x3dd26e44	0.10274938
155	0x3f821e4f	1.01655
156	0x3e815412	0.25259453
157	0x3f6bc173	0.92092055
158	0xbf23bb4f	-0.63957685
159	0xbea81498	-0.32828212
160	0xbeab8109	-0.33496884
161	0xc11f860d	-9.970227
162	0x3e44f182	0.19232753
163	0xc05e61b8	-3.4747143
164	0x3e032eb1	0.1281078
165	0xc019a785	-2.4008496
166	0xbe55a7eb	-0.20864837
167	0xbfc1b9c9	-1.5134822
168	0x3e3a61b3	0.18201332
169	0x3fb13abb	1.3846048
170	0x3e33e79c	0.1756882
171	0x3f93e315	1.1553675
172	0x3ec605aa	0.38676196
173	0x3f4f465a	0.8096672
174	0xbf00375a	-0.5008446
175	0xbeddec3f	-0.43344304
176	0xbde28952	-0.11061348
177	0xc126df8f	-10.42958
178	0x3e0367a6	0.12832507
179	0xc0621ee1	-3.5331347
180	0x3e080d41	0.13286306
181	0xc017573f	-2.3647
182	0xbea2eb04	-0.31819928
183	0xbfb5c347	-1.4200219
184	0x3ea73d1c	0.3266381
185	0x3f8eb818	1.1149931
186	0x3ea1d906	0.31610888
187	0x3fa2a34b	1.2706083
188	0x3df49767	0.1194294
189	0x3f7fe849	0.99963814
190	0xbf3ae870	-0.7301092
191	0xbf2d4735	-0.6768678
192	0xbc04aeb7	-0.008098296
193	0xc1270c3d	-10.440488
194	0x3e3a2ad0	0.18180394
195	0xc06e44bf	-3.722946
196	0xbdde5c8a	-0.10857494
197	0xc01ba85b	-2.4321506
198	0xbe6a27bc	-0.2286672
199	0xbff066d5	-1.8781382
200	0x3ead923d	0.33900633
201	0x3fc7203a	1.555671
202	0xbdb76055	-0.08953921
203	0x3f9fd514	1.2486901
204	0x3efd8173	0.49512824
205	0x3f92d3b2	1.1470854
206	0xbebdeecc	-0.3709625
207	0xbd8ea3b6	-0.06964819
208	0x3e5d0792	0.21584919
209	0xc123c4a6	-10.23551
210	0x3e295177	0.16534983
211	0xc06afd7d	-3.6717217
212	0xbe4f970d	-0.20272465
213	0xc01bb55b	-2.432944
214	0xbe52b3dc	-0.20576423
215	0xbfe6017e	-1.7969205
216	0x3e312dff	0.17302702
217	0x3fb37d90	1.4022694
218	0x3e130833	0.14358597
219	0x3f8401ac	1.031301
220	0x3e9f8257	0.3115413
221	0x3f50fd05	0.8163608
222	0xbebb01b7	-0.36524746
223	0xbf1fc5bd	-0.624111
224	0xbe32cae0	-0.17460203
225	0xc12642dd	-10.391324
226	0xbdd87ec8	-0.105710566
227	0xc06f5cd5	-3.740041
228	0x3d84cb56	0.06484096
229	0xc006a9c1	-2.104111
230	0x3e44274f	0.1915562
231	0xbfd82472	-1.6886122
232	0x3e3886ba	0.18020144
233	0x3fb473ce	1.4097841
234	0x3dfa579d	0.12223742
235	0x3f8f1b3e	1.1180189
236	0x3e8563ea	0.2605279
237	0x3f569747	0.8382458
238	0xbf0fe3cc	-0.56206965
239	0xbee8aa2f	-0.4544234
240	0xbd9bb850	-0.07603514
241	0xc12300d1	-10.187699
242	0xbdc90aa0	-0.0981648
243	0xc06034b4	-3.5032167
244	0xbdd55c5d	-0.104180075
245	0xc008d2ea	-2.1378732
246	0xbdfd81a8	-0.123782456
247	0xbfc85784	-1.5651708
248	0x3ddb09db	0.10695239
249	0x3fa12b4f	1.2591342
250	0x3e66c950	0.22537732
251	0x3f8958fb	1.073028
252	0x3e8d8c5e	0.27646154
253	0x3f506022	0.8139669
254	0xbf1db57b	-0.6160504
255	0xbee055cc	-0.43815458

encoder.latent.backbone.c_layers.0.layer.kernel.kernel.P f4 [1, 16, 8, 2]
0	0x3cc62420	0.024187148
1	0xc0e057d1	-7.01072
2	0xbe6b1c7d	-0.22960086
3	0xc02d3151	-2.706135
4	0x3e437f43	0.19091515
5	0xbfdd8bc0	-1.7308273
6	0x3df6e380	0.12055111
7	0xbfa608f1	-1.2971479
8	0x3e853246	0.26014918
9	0x3f4c952f	0.79915136
10	0x3e8b37cd	0.2719101
11	0x3f217f4b	0.6308486
12	0x3dcce997	0.10005491
13	0x3f2be7a4	0.6715033
14	0xbeb0e4e1	-0.3454962
15	0xbe241fef	-0.16027807
16	0xbe3046a9	-0.17214455
17	0xc0eb215f	-7.3478236
18	0xbe335b9e	-0.17515418
19	0xc0258628	-2.5863132
20	0x3db3af04	0.08773616
21	0xbfc28350	-1.5196323
22	0xbe0fc8f2	-0.14041498
23	0xbf7f35fa	-0.99691737
24	0x3e0f61e4	0.14002186
25	0x3f860bf5	1.0472399
26	0x3d989ebd	0.07452152
27	0x3f5cb8ea	0.86219656
28	0x3dd81ebb	0.10552736
29	0x3f2bce36	0.6711153
30	0xbeccc8c5	-0.39996925
31	0xbe4ee652	-0.20205048
32	0xbd2eb28d	-0.042650748
33	0xc0e7c458	-7.2427177
34	0xbd04794a	-0.032342233
35	0xc01f5294	-2.4894152
36	0xbd9c9da3	-0.07647254
37	0xbfc714ef	-1.5553263
38	0xbd2ad364	-0.041705504
39	0xbf8fe367	-1.1241273
40	0x3d74cfa5	0.059768338
41	0x3f69a98c	0.91274333
42	0x3e1676f8	0.1469382
43	0x3f43216c	0.7622287
44	0x3e54284d	0.20718499
45	0x3f174fcf	0.59106153
46	0xbece7106	-0.40320605
47	0xbe94be87	-0.2905161
48	0xbd3d5df6	-0.046232186
49	0xc0e8780d	-7.2646546
50	0xbd777744	-0.060416475
51	0xc021b2dd	-2.526542
52	0xbd916a31	-0.071003325
53	0xbfd42f5f	-1.6576957
54	0xbb995a8c	-0.0046799835
55	0xbf9b8554	-1.2150064
56	0xbc35dffd	-0.011100766
57	0x3f738af9	0.9513393
58	0x3e0c04f0	0.13673759
59	0x3f209645	0.62729293
60	0x3e4dc569	0.20094837
61	0x3ef288c7	0.47369978
62	0xbe97947a	-0.29605466
63	0xbe84178d	-0.25799218
64	0xbe64f8d2	-0.22360542
65	0xc0e9b246	-7.303012
66	0xbe7c2563	-0.24623637
67	0xc029f01c	-2.65528
68	0xbe916a0a	-0.28401214
69	0xbfda62f1	-1.7061445
70	0x3d2c8a91	0.042124335
71	0xbf67cbb8	-0.90545225
72	0xbdbf8d4c	-0.09353122
73	0x3f902205	1.1260382
74	0x3ea64a4d	0.32478562
75	0x3f7c5604	0.9856875
76	0xbbdb86d9	-0.0066994247
77	0x3f480fa8	0.7814889
78	0xbe87f1d0	-0.26551676
79	0xbdf1ad9e	-0.11800693
80	0x3e18766d	0.14888926
81	0xc0df9673	-6.9871154
82	0x3e5a3f09	0.21313109
83	0xc013ebfd	-2.3112786
84	0xbe3c8e11	-0.18413569
85	0xbfaf173d	-1.3678967
86	0x3e7789bb	0.24173634
87	0xbfa320ac	-1.2744346
88	0x3e91c2dd	0.2846898
89	0x3f4ca877	0.79944557
90	0x3d072ee0	0.033003688
91	0x3f162228	0.5864587
92	0x3e87aea9	0.26500443
93	0x3f35d023	0.71020716
94	0xbec94ab6	-0.39314812
95	0xbebbca23	-0.36677656
96	0xbd8a2540	-0.06745386
97	0xc0e87700	-7.2645264
98	0xbd874f39	-0.066069074
99	0xc01e85c4	-2.4769144
100	0xbdf707e9	-0.120620556
101	0xbfc8994f	-1.5671786
102	0x3c9f17dc	0.019420557
103	0xbf908ab7	-1.1292332
104	0x3dc0bb25	0.09410695
105	0x3f749cea	0.9555193
106	0x3e1c3626	0.15255031
107	0x3f3006c0	0.687603
108	0x3e3bc688	0.18337452
109	0x3f1b5eac	0.6069133
110	0xbebcba3f	-0.36860844
111	0xbe83c433	-0.25735626
112	0x3d2efa88	0.042719394
113	0xc0e98659	-7.29765
114	0x3af9e276	0.0019064683
115	0xc018bb69	-2.3864386
116	0x3cebf9b8	0.028805599
117	0xbfb9a280	-1.4502716
118	0x3c913e88	0.017730013
119	0xbf918fdc	-1.1372027
120	0x3d025af9	0.03182504
121	0x3f516e62	0.81809056
122	0x3d948d2c	0.07253489
123	0x3f2b7aef	0.66984457
124	0x3e99ff3b	0.30077538
125	0x3f09c25f	0.5381221
126	0xbefcaa62	-0.49348742
127	0xbe604783	-0.2190228
128	0x3d9d9421	0.07694269
129	0xc0e40787	-7.125919
130	0x3d725b3f	0.05916905
131	0xc0286e01	-2.631714
132	0x3d455f18	0.04818639
133	0xbfb4d848	-1.4128504
134	0xbe91dda9	-0.28489426
135	0xbf884615	-1.0646387
136	0x3ebd5e41	0.36985973
137	0x3f494d8a	0.7863394
138	0x3ed06b3e	0.4070682
139	0x3f23837a	0.6387249
140	0x3eaba587	0.33524725
141	0x3f543b8e	0.82903373
142	0xbef3625b	-0.47535977
143	0xbedfd59f	-0.43717667
144	0x3d3091fe	0.04310798
145	0xc0e0052f	-7.000633
146	0xbda76825	-0.08174161
147	0xc01f1f1e	-2.4862742
148	0xbdb62568	-0.088938534
149	0xbfbd33fc	-1.4781489
150	0xbe52b175	-0.20575507
151	0xbf95d6d7	-1.1706189
152	0x3cc8e562	0.02452344
153	0x3f940089	1.1562663
154	0x3e96c050	0.29443598
155	0x3f4f7183	0.8103258
156	0x3e908f08	0.28234124
157	0x3ef3b8d6	0.47601956
158	0xbeac538f	-0.336575
159	0xbebc9d71	-0.36838868
160	0x3d9456ef	0.07243144
161	0xc0e42ea2	-7.1306925
162	0xbe20047f	-0.15626715
163	0xc02735a0	-2.612648
164	0xbe18ca22	-0.14920858
165	0xbfee98c0	-1.8640366
166	0xbd8dc91f	-0.069231264
167	0xbf5880a9	-0.8457132
168	0x3e303115	0.17206223
169	0x3f56a56f	0.8384618
170	0x3e2f3d63	0.17113261
171	0x3f37d5e5	0.7181075
172	0x3e47ee58	0.19524515
173	0x3f2b1a83	0.6683733
174	0xbf0a2ad5	-0.53971606
175	0xbea811ce	-0.32826084
176	0x3ddc6cd8	0.10762948
177	0xc0e2ddeb	-7.0895896
178	0xbe532e35	-0.20623095
179	0xc027f142	-2.6241002
180	0xbe844239	-0.25831774
181	0xbfaf3c0f	-1.3690203
182	0x3e0b9d7b	0.13634293
183	0xbfa7c943	-1.3108295
184	0xbdcf126b	-0.10110935
185	0x3f87057b	1.0548548
186	0x3d9e2cbb	0.077233754
187	0x3f12a48e	0.5728234
188	0x3ec64ec5	0.3873197
189	0x3f42741a	0.75958407
190	0xbe91c098	-0.2846725
191	0xbd9d31d9	-0.07675523
192	0x3e31ad9d	0.17351384
193	0xc0e3c784	-7.118105
194	0xbe52d970	-0.20590758
195	0xc01bc43b	-2.433852
196	0xbe2e14dc	-0.17000145
197	0xbfa94b90	-1.3226185
198	0xbe578d07	-0.21049891
199	0xbf67096c	-0.9024875
200	0xbce2c6a5	-0.027682612
201	0x3f47a4d9	0.7798591
202	0x3ec7d333	0.3902832
203	0x3f75924d	0.9592636
204	0x3e3f0d02	0.18657306
205	0x3ed26aef	0.4109721
206	0xbf0b6b7b	-0.5446088
207	0xbf0edd59	-0.558065
208	0x3e171e3e	0.1475763
209	0xc0eeaca0	-7.4585724
210	0xbe5014ee	-0.20320484
211	0xc03031b7	-2.7530344
212	0xbe0eaea8	-0.13933814
213	0xbfb3bf3c	-1.4042735
214	0xbe437293	-0.19086675
215	0xbf834b13	-1.0257286
216	0x3eda58d6	0.426459
217	0x3f63f9d5	0.8905309
218	0x3d39f505	0.045399684
219	0x3f37077a	0.71495783
220	0x3e6349e0	0.2219615
221	0x3f35318f	0.70778745
222	0xbf227e44	-0.63473916
223	0xbed92ed9	-0.42418554
224	0x3d29428a	0.041323222
225	0xc0e2bd2c	-7.0855923
226	0xbd7592cc	-0.05995445
227	0xc01a2837	-2.4087045
228	0x3e191696	0.14950022
229	0xbfd04f65	-1.6274229
230	0xbe4d76ee	-0.200649
231	0xbf991102	-1.1958315
232	0x3de741e6	0.11291866
233	0x3f465a78	0.77481794
234	0x3ec32150	0.38111353
235	0x3f454e7a	0.7707287
236	0x3e61a5e6	0.22035941
237	0x3f2f504d	0.68481904
238	0xbeda50e6	-0.42639846
239	0xbe9e1190	-0.30872774
240	0xbc4acf5c	-0.01237854
241	0xc0e7b413	-7.2407317
242	0xbb26758a	-0.0025399649
243	0xc01c0781	-2.437958
244	0xbce7964b	-0.028269907
245	0xbfc262ca	-1.5186398
246	0xbd1cf987	-0.038323905
247	0xbf8eb166	-1.1147888
248	0x3d61ba88	0.05510953
249	0x3f6ece6f	0.9328374
250	0x3d9d0acd	0.07668076
251	0x3f37c46c	0.7178409
252	0x3e81a539	0.25321367
253	0x3f1fe5a8	0.624598
254	0xbeb1c199	-0.34718016
255	0xbe8107fb	-0.252014

encoder.latent.backbone.c_layers.0.layer.kernel.kernel.inv_w_real f4 [16, 8]
0	0xbf6f9996	-0.9359373
1	0xbee0b3f4	-0.43887293
2	0xbeff71c3	-0.4989148
3	0xbf27f030	-0.6560087
4	0xbf219b1d	-0.6312731
5	0xbf4382bf	-0.7637138
6	0xbf0c0b0c	-0.54704356
7	0xbf4205e2	-0.75790226
8	0xbf2edb8f	-0.6830377
9	0xbf36ea61	-0.71451384
10	0xbf3efd9d	-0.74605733
11	0xbf5416ef	-0.82847494
12	0xbf0dd31d	-0.5540026
13	0xbf19c9b4	-0.600734
14	0xbf212935	-0.629535
15	0xbf29fd1b	-0.66401833
16	0xbf349500	-0.70539856
17	0xbf2df0fe	-0.6794585
18	0xbf2d3afd	-0.67668134
19	0xbf35cba9	-0.71013886
20	0xbf32f06c	-0.69898105
21	0xbf3019a4	-0.68789124
22	0xbf31d9af	-0.69472784
23	0xbf32cc9b	-0.69843453
24	0xbf24f5f3	-0.6443779
25	0xbf1a870b	-0.6036231
26	0xbf125a2b	-0.57168835
27	0xbf1639f2	-0.5868217
28	0xbf28c904	-0.65931726
29	0xbf5c7321	-0.8611317
30	0xbf565f24	-0.83738923
31	0xbf453488	-0.7703328
32	0xbf64525a	-0.8918816
33	0xbf09ce41	-0.53830343
34	0xbf536a9d	-0.82584554
35	0xbf68ca9d	-0.90934163
36	0xbef496fb	-0.4777144
37	0xbee6f786	-0.4511072
38	0xbf091091	-0.53540903
39	0xbf5dd6d2	-0.86655915
40	0xbf69cee4	-0.91331315
41	0xbf2bab50	-0.6705828
42	0xbf53828d	-0.8262108
43	0xbf0fe07b	-0.56201905
44	0xbf4bde60	-0.7963619
45	0xbf522295	-0.8208402
46	0xbf166765	-0.5875152
47	0xbf1edfc9	-0.6206022
48	0xbf29109f	-0.66040987
49	0xbf307dbc	-0.68941855
50	0xbf2bc39f	-0.6709537
51	0xbf33f8d5	-0.7030156
52	0xbf27e930	-0.6559019
53	0xbf37f226	-0.71853864
54	0xbf385241	-0.7200051
55	0xbf3a4dce	-0.7277497
56	0xbf00b553	-0.5027668
57	0xbf4873c6	-0.78301656
58	0xbf4598ab	-0.7718608
59	0xbf4f07a8	-0.8087106
60	0xbf451ee8	-0.77000284
61	0xbf440ffa	-0.7658688
62	0xbf419331	-0.7561522
63	0xbf44f708	-0.7693944
64	0xbf4e8079	-0.80664784
65	0xbefb2ed2	-0.4905916
66	0xbf4f758a	-0.81038725
67	0xbf279d95	-0.65474826
68	0xbf4622fa	-0.7739712
69	0xbf3bb805	-0.73327667
70	0xbf05742d	-0.52130395
71	0xbef8cccb	-0.48593745
72	0xbf4597e8	-0.77184916
73	0xbf2a9c26	-0.66644514
74	0xbf4cb27a	-0.79959834
75	0xbf244df4	-0.6418145
76	0xbf1fab47	-0.62370723
77	0xbf1e18d9	-0.61756665
78	0xbf2c838a	-0.6738821
79	0xbf2e97fa	-0.6820065
80	0xbf48bffc	-0.78417945
81	0xbf04cf19	-0.51878506
82	0xbeee24d8	-0.46512485
83	0xbf38f78c	-0.72252727
84	0xbf24bd1b	-0.6435105
85	0xbf4b5ce7	-0.7943863
86	0xbf1d3161	-0.6140347
87	0xbf2506f7	-0.6446375
88	0xbf6293af	-0.885066
89	0xbf04eff3	-0.51928633
90	0xbf5c0e06	-0.859589
91	0xbf0129b4	-0.5045426
92	0xbf062a7b	-0.5240857
93	0xbf538bd9	-0.82635266
94	0xbefa4efe	-0.4888839
95	0xbf50d1f8	-0.81570387
96	0xbf62ba40	-0.88565445
97	0xbf5f96ce	-0.87339485
98	0xbf693760	-0.9110012
99	0xbf676393	-0.90386313
100	0xbf653f29	-0.895495
101	0xbeb3e5f8	-0.3513639
102	0xbf5e421c	-0.86819625
103	0xbf0cf9c4	-0.5506861
104	0xbef52025	-0.47876087
105	0xbecf3b3d	-0.40474883
106	0xbf4c1ef8	-0.79734755
107	0xbf39ec1f	-0.7262592
108	0xbf2238de	-0.6336802
109	0xbf30cf31	-0.6906615
110	0xbf179816	-0.5921644
111	0xbf4920ca	-0.7856566
112	0xbf66829d	-0.9004305
113	0xbf410165	-0.7539275
114	0xbf286533	-0.6577942
115	0xbf147b0c	-0.58000255
116	0xbf373670	-0.7156744
117	0xbf280537	-0.6563296
118	0xbf0935cf	-0.5359773
119	0xbf2f8b49	-0.6857191
120	0xbf2d4fd6	-0.67699945
121	0xbf365c06	-0.71234167
122	0xbf31926a	-0.69364035
123	0xbf34f7d2	-0.70690644
124	0xbf2b4a09	-0.66909844
125	0xbf37eacb	-0.7184264
126	0xbf28b37f	-0.6589889
127	0xbf3c0e58	-0.73459387

encoder.latent.backbone.c_layers.0.layer.kernel.kernel.w_imag f4 [16, 8]
0	0xc2a155ce	-80.66759
1	0xc1cb5bb4	-25.419777
2	0xc1620038	-14.125053
3	0xc107c2df	-8.485076
4	0xc09ebd85	-4.9606347
5	0xc0338c02	-2.8054204
6	0xbfc41fc6	-1.5322196
7	0xbec049ee	-0.37556404
8	0xc2a1b158	-80.846375
9	0xc1cbcdaf	-25.475431
10	0xc15fb594	-13.981831
11	0xc103c0df	-8.234588
12	0xc0a1c3d8	-5.0551567
13	0xc0420972	-3.0318265
14	0xbfbb317c	-1.4624476
15	0xbe9614cd	-0.29312745
16	0xc2a1e9cf	-80.95666
17	0xc1cd1e33	-25.639746
18	0xc15cfb2d	-13.811322
19	0xc10611dc	-8.37936
20	0xc0a3d503	-5.1197524
21	0xc038e0ff	-2.8887327
22	0xbfafb643	-1.3727497
23	0xbeb709e9	-0.35749748
24	0xc2a1e9dc	-80.95676
25	0xc1cce32b	-25.610922
26	0xc15cf903	-13.810794
27	0xc1072e4a	-8.448801
28	0xc0a74d5d	-5.2281938
29	0xc03562ab	-2.8341472
30	0xbfa30423	-1.2735637
31	0xbede66c0	-0.43437767
32	0xc2a17095	-80.71989
33	0xc1cb3480	-25.400635
34	0xc1595a24	-13.584507
35	0xc10313f5	-8.192372
36	0xc0a7be2a	-5.2419634
37	0xc02bed01	-2.6863406
38	0xbfbc8f10	-1.4731159
39	0xbe7d3979	-0.24728955
40	0xc2a1dc15	-80.92985
41	0xc1cd7b17	-25.685102
42	0xc158a1da	-13.539515
43	0xc109003c	-8.562557
44	0xc09dd8f0	-4.9327316
45	0xc038c97c	-2.8872976
46	0xbfa15cb1	-1.2606412
47	0xbe9b55a5	-0.3033878
48	0xc2a1f2fd	-80.97459
49	0xc1cd5cf2	-25.670383
50	0xc15d6ed9	-13.839562
51	0xc106d199	-8.426171
52	0xc0a3b115	-5.1153665
53	0xc037c975	-2.871671
54	0xbfb4e17e	-1.4131315
55	0xbec9134b	-0.39272532
56	0xc2a2063a	-81.01216
57	0xc1cd07a3	-25.628729
58	0xc15e8d98	-13.909569
59	0xc106f702	-8.435305
60	0xc0a21f8e	-5.066352
61	0xc03a0ff4	-2.9072237
62	0xbfa5f344	-1.2964864
63	0xbe8ea7bf	-0.27862355
64	0xc2a229c0	-81.08154
65	0xc1cd9d6d	-25.701868
66	0xc15e4fdc	-13.894497
67	0xc1035472	-8.208117
68	0xc09e5d98	-4.948925
69	0xc032a03e	-2.7910304
70	0xbfa40a27	-1.2815598
71	0xbe8ad866	-0.27118224
72	0xc2a1fbfe	-80.99217
73	0xc1cbd0d6	-25.47697
74	0xc15c604a	-13.773508
75	0xc103c059	-8.23446
76	0xc0a53c3e	-5.163604
77	0xc0344f5e	-2.8173442
78	0xbfa654a3	-1.2994579
79	0xbee21f39	-0.44164446
80	0xc2a27fe9	-81.249825
81	0xc1cc7703	-25.558111
82	0xc15c38a3	-13.763827
83	0xc1055f60	-8.335785
84	0xc0a09a64	-5.0188465
85	0xc032266f	-2.7835958
86	0xbfb97274	-1.4488053
87	0xbe61a029	-0.22033753
88	0xc2a18dfa	-80.7773
89	0xc1cb746c	-25.431847
90	0xc159f180	-13.62146
91	0xc108b6aa	-8.544596
92	0xc0a8432c	-5.2581997
93	0xc02a7996	-2.663671
94	0xbf9997b1	-1.1999418
95	0xbe45dd71	-0.19322754
96	0xc2a16ab4	-80.708405
97	0xc1cab3c5	-25.337778
98	0xc15885c1	-13.532655
99	0xc1016360	-8.086761
100	0xc09fd2e0	-4.9944916
101	0xc028aa1c	-2.6353827
102	0xbf98c92d	-1.1936394
103	0xbdd68c8a	-0.104760244
104	0xc2a1db79	-80.92866
105	0xc1cb7980	-25.434326
106	0xc15a4c64	-13.64365
107	0xc103e377	-8.243033
108	0xc0a1f0f6	-5.060664
109	0xc03604df	-2.8440473
110	0xbfba04c6	-1.4532707
111	0xbe022bd3	-0.1271203
112	0xc2a1cb03	-80.89651
113	0xc1cbcb94	-25.474403
114	0xc15f5edd	-13.96066
115	0xc10496b1	-8.28679
116	0xc0a0e597	-5.028026
117	0xc0371927	-2.8609102
118	0xbfb00ca4	-1.3753858
119	0xbeb2151d	-0.34781733
120	0xc2a205e4	-81.011505
121	0xc1cd9b47	-25.700819
122	0xc15dc3b2	-13.860277
123	0xc106454d	-8.391919
124	0xc0a3f42d	-5.1235566
125	0xc03f69de	-2.9908366
126	0xbfae8cf8	-1.363677
127	0xbea09eb5	-0.31371084

encoder.latent.backbone.c_layers.0.layer.output_linear.0.weight f4 [32, 16, 1]
0	0x3c9ec7f5	0.019382456
1	0x3e755e85	0.23961838
2	0xbe06a689	-0.13149466
3	0xbcffa5e7	-0.031207038
4	0x3e3e0c5c	0.18559402
5	0xbe215d25	-0.15758188
6	0xbe869800	-0.26287842
7	0xbe2ab0c5	-0.16668995
8	0xbe2fac1f	-0.17155503
9	0xbe9cd151	-0.30628446
10	0xbcf1a55b	-0.029497793
11	0xbe634cbb	-0.22197239
12	0x3cf2d5ea	0.029643018
13	0xbd60b52a	-0.05486027
14	0x3ce8a405	0.028398523
15	0xbc73cad9	-0.014879906
16	0x3e2d4fb5	0.16924937
17	0xbde42d55	-0.11141459
18	0x3e1fe335	0.15614016
19	0x3e265280	0.16242409
20	0x3e127681	0.14303018
21	0xbc63355c	-0.013867702
22	0xbde7979a	-0.113082126
23	0xbe90bcc6	-0.28269023
24	0xbcc604e8	-0.024172261
25	0x3d36638c	0.04452853
26	0x3debc9fa	0.11513133
27	0xbdb53a96	-0.08849065
28	0x3d5ec190	0.054383814
29	0x3deab0eb	0.11459526
30	0xbcd1699f	-0.02556306
31	0xbe02cf40	-0.12774372
32	0xbe8bf674	-0.27336466
33	0x3e1d2888	0.15347493
34	0x3e850919	0.25983503
35	0xbe02e7ad	-0.1278369
36	0xbe89865d	-0.26860324
37	0xbe186ef0	-0.1488607
38	0xbe0e16f7	-0.13875948
39	0xbde61091	-0.112336285
40	0xbe858828	-0.2608044
41	0xbe3ac3f4	-0.18238813
42	0x3e12aec2	0.14324477
43	0x3d4a0d92	0.049329348
44	0x3d88168e	0.06644927
45	0x3d7a440a	0.061100043
46	0xbd2d9f21	-0.042388085
47	0x3d1d05ad	0.03833549
48	0xbe040a88	-0.12894642
49	0xbdbbdb55	-0.09172694
50	0xbe25874c	-0.16164893
51	0xbe073503	-0.13203816
52	0xbe85a0c8	-0.2609923
53	0xbdea8c4e	-0.11452542
54	0xbe84e612	-0.2595678
55	0xbe5ccbd5	-0.21562131
56	0xbe49bf37	-0.19701849
57	0x3dc2f9d1	0.09520305
58	0x3e23ba2a	0.15988985
59	0x3e7409f2	0.23831919
60	0xbe8a686b	-0.2703279
61	0x3e3ea9c3	0.18619446
62	0xbe19b6a0	-0.15011072
63	0x3e69eb40	0.22843647
64	0x3e38789d	0.1801476
65	0x3e508e45	0.20366772
66	0xbdb48540	-0.08814478
67	0x3cc6d953	0.02427355
68	0xbe19ae0e	-0.15007803
69	0x3cfc4004	0.030792244
70	0xbd23b500	-0.039967537
71	0x3e593306	0.2121087
72	0xbd602f21	-0.054732446
73	0x3d8fb427	0.07016783
74	0x3dd0aba9	0.101889916
75	0xbd072c57	-0.03300127
76	0xbe0cd8bf	-0.13754557
77	0x3e4cf0cf	0.20013736
78	0x3e5ca1d5	0.21546109
79	0x3e06ccec	0.13164109
80	0xbd740197	-0.05957183
81	0xbe111d7c	-0.14171404
82	0x3cff2f2f	0.031150429
83	0xbdce181d	-0.10063193
84	0x3e2df4eb	0.1698796
85	0x3b5fc2f4	0.00341433
86	0x3d932ea8	0.07186633
87	0xbdc362b8	-0.095403135
88	0x3d9f0310	0.07764256
89	0xbd426051	-0.047455136
90	0xbc22af98	-0.00992956
91	0xbe66ec2d	-0.22551031
92	0x3e8475db	0.25871167
93	0xbe41c851	-0.18924071
94	0xbdcae71c	-0.09907362
95	0xbe043d44	-0.12913996
96	0xbe487bbd	-0.19578452
97	0xbe9e052f	-0.3086333
98	0xbbe21609	-0.0068995995
99	0x3dc168f7	0.094438486
100	0x3e4da474	0.20082265
101	0xbd194f22	-0.037428983
102	0xbe257ec7	-0.16161643
103	0x3e80f983	0.25190362
104	0xbe6430a7	-0.22284184
105	0x3dffce45	0.12490515
106	0xbe833237	-0.25624248
107	0xbdef4246	-0.116825625
108	0x3dd4c5d8	0.10389298
109	0x3e507b85	0.20359619
110	0x3d32fc75	0.043697793
111	0xbe254622	-0.16140035
112	0xbe304c1b	-0.17216532
113	0x3e87315e	0.26404852
114	0x3e4ac3c2	0.19801238
115	0x3e295e59	0.16539897
116	0x3df81c43	0.121147655
117	0xbe801ce1	-0.25022033
118	0x3d8f1e3c	0.069881886
119	0xbdecdcc5	-0.11565546
120	0xbe0ec1af	-0.13941072
121	0x3c8f5d0b	0.017500421
122	0x3e3fbcb9	0.18724336
123	0x3d26a57a	0.040685154
124	0x3e508340	0.20362568
125	0xbe70fab9	-0.23533143
126	0x3d2b2d2c	0.041791126
127	0x3e8be218	0.27320933
128	0xbd7bbdeb	-0.061460417
129	0x3bfd5a78	0.007731732
130	0xbe0bf33d	-0.13667007
131	0xbe2ccb4b	-0.16874425
132	0xbc9b5f1a	-0.018966246
133	0x3dcf35ef	0.10117709
134	0x3e18491d	0.1487164
135	0xbc22a2a0	-0.009926468
136	0x3e96584b	0.29364237
137	0x3ea743e3	0.3266898
138	0x3e763af3	0.24045925
139	0x3e8e0446	0.27737635
140	0xbe3ee0a9	-0.18640389
141	0xbe430c41	-0.19047643
142	0xbe313fd7	-0.17309509
143	0xbc142d79	-0.009044045
144	0x3d6c2762	0.057654746
145	0xbe8c6a7b	-0.27424988
146	0x3d8bd228	0.068271935
147	0xbd6f8768	-0.058478743
148	0x3d16538c	0.03670077
149	0x3bad322c	0.005285522
150	0xbe0ba550	-0.1363728
151	0xbe25bf0e	-0.16186163
152	0xbdeb4f33	-0.114897154
153	0xbe7748e7	-0.24148904
154	0x3cf048d4	0.029331602
155	0xbe5833af	-0.21113466
156	0x3e47d467	0.19514619
157	0x3e3d99e9	0.18515743
158	0x3e9fa2ad	0.311788
159	0xbdfc239d	-0.1231148
160	0xbdb5fd9d	-0.088862635
161	0xbd3a367b	-0.045462113
162	0x3e65dbf4	0.22447187
163	0x3e530141	0.20605947
164	0x3e84c80d	0.25933877
165	0x3dd1111b	0.10208341
166	0xbda0b638	-0.078472555
167	0xbe0f5f4c	-0.14001197
168	0xbdc41885	-0.09574989
169	0xbd99ac32	-0.07503547
170	0xbcce1c36	-0.025159936
171	0x3d3a345d	0.045460094
172	0x3e3f49f3	0.18680553
173	0xbd10bc54	-0.035335854
174	0x3c9a27f7	0.018817885
175	0xbd0e22d3	-0.03470118
176	0x3e8c9663	0.27458486
177	0x3d9e049f	0.07715725
178	0xbd412986	-0.04715874
179	0x3dc3da5e	0.095631346
180	0x3d0bd56c	0.03413908
181	0xbd31e1d1	-0.043428246
182	0xbe798d9a	-0.24370423
183	0xbd912c3f	-0.070885174
184	0x3ebd35f8	0.36955237
185	0xbe2ebae5	-0.17063482
186	0x3e3f26f0	0.18667197
187	0x3e893494	0.26797926
188	0xbdaac257	-0.08337849
189	0xbe299f33	-0.16564636
190	0xbd0fb029	-0.03508011
191	0x3dcf9c4b	0.101372324
192	0xbe7b46f1	-0.24538781
193	0xbd9671ee	-0.07345949
194	0xbe475eb1	-0.19469716
195	0xbbac04f7	-0.0052496153
196	0x3dfcdd7b	0.123469315
197	0xbcd36972	-0.025807116
198	0xbdeb05ee	-0.114757404
199	0x3df4c501	0.11951638
200	0x3e2819d4	0.16416103
201	0x3e2bbef0	0.16772056
202	0xbd82b480	-0.06382084
203	0xbde4ba0b	-0.111682974
204	0xbd584486	-0.052799724
205	0x3e0bb5ce	0.13643572
206	0x3e6fdb0e	0.23423406
207	0x3e6e9456	0.23298773
208	0x3e9839a9	0.2973149
209	0xbe871273	-0.26381263
210	0x3e99942e	0.29995865
211	0xbe42de0c	-0.19030017
212	0xbcf1215f	-0.029434858
213	0xbe2e7064	-0.17035061
214	0x3d683566	0.05669155
215	0x3e4583a6	0.19288501
216	0x3e07dfea	0.1326901
217	0xbe0f6cbe	-0.14006326
218	0xbe90a0d7	-0.2824771
219	0xbe9eeab5	-0.31038442
220	0x3e68985c	0.2271437
221	0xbca9096f	-0.020634381
222	0xbe5c7d17	-0.21532093
223	0xbc23d992	-0.010000603
224	0xbe998768	-0.2998612
225	0xbe45a4af	-0.19301103
226	0xbe1e7c84	-0.15477186
227	0xbde29c02	-0.110649124
228	0xbe7024b1	-0.23451497
229	0x3e886bd1	0.26644757
230	0xbd273d67	-0.040830042
231	0xbe88ba75	-0.26704755
232	0x3bacc142	0.0052720616
233	0x3d4bcb4e	0.049754433
234	0xbe8071ca	-0.25086814
235	0xbd9048d7	-0.07045143
236	0xbc87df9a	-0.016586114
237	0x3eb3c8ca	0.35114127
238	0x3d424d19	0.047436807
239	0x3e82834a	0.2549079
240	0xbce9ee2c	-0.028555952
241	0x3d39a67a	0.04532478
242	0x3d9572e4	0.07297304
243	0xbc886fa0	-0.01665479
244	0xbd496fa8	-0.04917875
245	0x3eb9af98	0.3626678
246	0xbe54a75b	-0.20766966
247	0xbe38652a	-0.18007341
248	0xbe98e169	-0.29859474
249	0xbe7d8827	-0.24758969
250	0xbdaed04b	-0.085358225
251	0x3d02a203	0.031892788
252	0xbe9f0bae	-0.31063598
253	0x3dad9c04	0.08477023
254	0xbe112ec1	-0.14177991
255	0xbdbfa6a1	-0.09357954

encoder.latent.backbone.c_layers.0.layer.output_linear.0.bias f4 [32]
0	0x3e29f35d	0.16596742
1	0x3e32c1b7	0.17456709
2	0x3dfca7fa	0.123367265
3	0x3e4472f2	0.19184473
4	0x3dffee03	0.12496569
5	0x3e6aa6ba	0.22915164
6	0x3dd6ecce	0.10494386
7	0x3e49487e	0.1965656
8	0x3e99c493	0.30032787
9	0xbbc634b6	-0.006048764
10	0xbe925b43	-0.28585252
11	0x3e25a6c4	0.16176897
12	0x3e0974de	0.13423488
13	0x3e3b8b79	0.18314923
14	0xbde3c855	-0.11122195
15	0x3cd04159	0.025421785
16	0xbe14c81e	-0.14529464
17	0xba9ae737	-0.0011818175
18	0x3e33bded	0.1755292
19	0x3e8f9401	0.28042606
20	0xbd800499	-0.06250877
21	0xbe14cd42	-0.14531425
22	0x3ea16604	0.31523144
23	0xbcca0e24	-0.024664946
24	0xbdc3bacd	-0.09557114
25	0x3e1e9af3	0.15488796
26	0xbc9abf76	-0.018890124
27	0x3da50c77	0.08059018
28	0xbe1484f1	-0.14503838
29	0x3df04c8e	0.11733352
30	0x3e8e2e5d	0.27769747
31	0x3e5d97b0	0.21639895

encoder.latent.backbone.c_layers.0.norm.weight f4 [16]
0	0x3f846333	1.0342773
1	0x3f8629fb	1.0481561
2	0x3f756179	0.95851856
3	0x3f6655fe	0.89974964
4	0x3f89971c	1.074924
5	0x3f86c496	1.0528743
6	0x3f8295fb	1.020202
7	0x3f8a1dc6	1.0790336
8	0x3f92d6c7	1.1471795
9	0x3f8a6567	1.0812196
10	0x3f91349d	1.1344181
11	0x3f9b899f	1.2151374
12	0x3f90a5cd	1.1300598
13	0x3f9313b3	1.1490387
14	0x3f82a671	1.0207044
15	0x3f80385a	1.0017197

encoder.latent.backbone.c_layers.0.norm.bias f4 [16]
0	0x3d89260e	0.066967115
1	0xbcf7f3cc	-0.030267619
2	0xbd03760e	-0.032095008
3	0x3e00b6d2	0.1256974
4	0xbd808849	-0.06275994
5	0xbcb706e4	-0.022342153
6	0x3d928f34	0.0715622
7	0xbd62ead0	-0.055399716
8	0xbe22c7f4	-0.15896589
9	0xbda745ca	-0.08167608
10	0x3e152fcb	0.14569013
11	0xbe0eadad	-0.1393344
12	0xbd65ad2f	-0.056073364
13	0x3dddef34	0.1083664
14	0x3c41bdff	0.011825084
15	0xbd09fa28	-0.033685833

encoder.latent.backbone.c_layers.1.layer.ff.0.0.weight f4 [32, 16]
0	0x3da5abf0	0.08089435
1	0xbe1042f4	-0.1408804
2	0xbda25160	-0.07925677
3	0xbe8d6d04	-0.27622235
4	0x3d3d2e29	0.0461866
5	0xbde0230d	-0.109441854
6	0x3e5f4110	0.21802163
7	0x3e807b24	0.2509395
8	0x3e224f88	0.15850651
9	0xbe671ab0	-0.22568774
10	0xbe40e453	-0.18837099
11	0x3e3ae954	0.1825307
12	0x3dd11563	0.10209157
13	0xbe519cfe	-0.20470044
14	0xbe6c90fd	-0.23102184
15	0x3daec035	0.08532754
16	0xbda541ca	-0.08069189
17	0x3ea323fd	0.31863394
18	0x3e7bbdc5	0.2458411
19	0x3e66e6e2	0.22549012
20	0xbca42372	-0.020036433
21	0xbd93ab0a	-0.072103575
22	0x3e230296	0.15918955
23	0xbe407d2b	-0.18797748
24	0xbe482c9c	-0.19548267
25	0xbc592f96	-0.013255974
26	0xbe953f28	-0.29149747
27	0xbbbc6db9	-0.0057503846
28	0xbdcffc37	-0.10155528
29	0xbe569dfc	-0.20958704
30	0x3e3dcdfe	0.18535611
31	0x3d06c8f2	0.03290648
32	0xbba1999b	-0.0049316413
33	0xbe613d1a	-0.21995965
34	0x3e563203	0.20917515
35	0x3c52aff4	0.012859333
36	0x3e8d4fe2	0.27600008
37	0xbeb1d3ba	-0.34731847
38	0xbedc82cd	-0.43068543
39	0x3d88edad	0.06685958
40	0x3dfe2ebd	0.12411258
41	0xbe7d490b	-0.24734895
42	0xbe08f632	-0.13375166
43	0xbcc22433	-0.023698902
44	0xbc1be282	-0.009514453
45	0xbd85c596	-0.06531827
46	0x3e9aa829	0.3020642
47	0x3d1694e5	0.03676309
48	0xbdc49264	-0.09598234
49	0x3d530922	0.05152238
50	0x3e8716fa	0.26384717
51	0x3ddf289a	0.10896416
52	0x3e459f28	0.19298995
53	0xbe280cea	-0.16411176
54	0xbe2dc2f3	-0.16968898
55	0x3e789d96	0.24278864
56	0xbdbc0ee1	-0.091825254
57	0x3ccee424	0.02525527
58	0x3d194ad1	0.037424866
59	0x3e0555d4	0.13021022
60	0xbe3725f1	-0.17885567
61	0xbddd7e4d	-0.108151056
62	0xbe4e9fc9	-0.2017814
63	0xbbdd0f52	-0.006746211
64	0x3e2bd4f3	0.16780452
65	0x3e097d28	0.1342665
66	0x3d5695b2	0.052388854
67	0x3bacfb21	0.0052789603
68	0xbdf73805	-0.12071232
69	0xbdfb0f2c	-0.12258753
70	0x3d8114db	0.06302806
71	0xbe079378	-0.13239849
72	0xbe4a4f9c	-0.19756931
73	0xbdc615cf	-0.096721284
74	0xbdf92f76	-0.121672556
75	0x3e42710a	0.18988433
76	0xbaaf2e87	-0.0013365307
77	0xbe387002	-0.18011478
78	0xbda773f8	-0.08176416
79	0x3e3ef620	0.18648577
80	0xbdad2a7b	-0.08455368
81	0x3eab8413	0.33499202
82	0x3e7c7630	0.2465446
83	0xbd9b0a7b	-0.07570358
84	0xbe137b43	-0.1440249
85	0xbe4787a1	-0.19485332
86	0xbdf33b41	-0.11876536
87	0xbda2c5c3	-0.07947876
88	0x3d0eb3a1	0.034839276
89	0xbd600c01	-0.054698948
90	0x3ca4877f	0.02008414
91	0x3e8eb51d	0.27872553
92	0x3e626816	0.22110018
93	0xbe6f49d6	-0.2336801
94	0xbe3c4a8e	-0.18387815
95	0xbd121b95	-0.035670836
96	0xbd06ccd8	-0.032910198
97	0xbddb97e6	-0.10722332
98	0xbd8b804a	-0.068115786
99	0xbe0be92e	-0.1366317
100	0x3e67acdf	0.22624539
101	0x3e07fd81	0.13280298
102	0x3e964b17	0.29354164
103	0xbe34ec43	-0.17668252
104	0x3dcb3679	0.09922499
105	0xbcc28cbc	-0.023748748
106	0xbe1dc955	-0.15408833
107	0x3e841bf7	0.25802585
108	0x3dfccb79	0.12343497
109	0x3e09414f	0.1340382
110	0xbe8b6c50	-0.27231073
111	0xbd7dfb31	-0.062007133
112	0x3e1b542e	0.15168831
113	0xbc292f3b	-0.010326202
114	0xbe1742ec	-0.14771622
115	0xbe8a1e44	-0.26976216
116	0xbe4438c8	-0.19162285
117	0xbd974059	-0.0738532
118	0xbe7ab781	-0.24484064
119	0x3dc42253	0.09576859
120	0xbe809d27	-0.25119898
121	0xbe0600d3	-0.13086252
122	0x3d0daa8f	0.034586485
123	0x3e633351	0.22187544
124	0x3ddb8087	0.10717874
125	0xbde78d1d	-0.11306212
126	0x3e8ad063	0.2711211
127	0x3e321143	0.17389397
128	0x3e2622a2	0.16224149
129	0xbe32b508	-0.1745187
130	0x3d4b57c5	0.04964425
131	0xbe59ce68	-0.21270144
132	0x3e5f18a9	0.21786751
133	0xbe50ff57	-0.20409904
134	0x3e0fb060	0.14032125
135	0xbdc07f9d	-0.0939934
136	0xbea25e5a	-0.3171261
137	0x3e913594	0.2836119
138	0x3ea1c85e	0.3159818
139	0xbe68659b	-0.2269501
140	0xbdc9e515	-0.09858147
141	0x3e7f1150	0.24908948
142	0x3c196540	0.009362519
143	0x3df756c5	0.12077097
144	0xbe8846bc	-0.26616466
145	0x3c39de6d	0.011344534
146	0x3cef0959	0.029179262
147	0x3c683e5c	0.014175024
148	0xbb84af83	-0.004049243
149	0xbb90303c	-0.0044002812
150	0x3ea4c346	0.32180232
151	0x3df944ed	0.1217135
152	0x3e853eb7	0.2602441
153	0xbe235d1a	-0.15953484
154	0x3cd337f9	0.025783526
155	0xbc84861b	-0.016177228
156	0x3cbdc352	0.023164425
157	0xbe63f16f	-0.22260068
158	0xbdd36e27	-0.10323744
159	0xbe674724	-0.22585732
160	0xbe807c05	-0.2509462
161	0x3e6cb40e	0.2311556
162	0x3e43e54f	0.19130443
163	0x3e62bba6	0.22141895
164	0x3dbdc482	0.092659965
165	0x3daaecf6	0.08345978
166	0xbdb249a3	-0.08705451
167	0x3de0be81	0.10973836
168	0x3e3c4623	0.1838613
169	0x3e2c1161	0.16803505
170	0x3e66d85a	0.22543469
171	0xbd890a39	-0.06691403
172	0x3c7830c0	0.015148342
173	0xbe6f4bd8	-0.23368776
174	0xbe5b2b01	-0.21403123
175	0x3e486847	0.19571029
176	0x3e86b8f2	0.26312977
177	0xbe16d449	-0.14729418
178	0xbe002884	-0.12515455
179	0xbe1c44a6	-0.15260562
180	0x3e53ac44	0.20671183
181	0x3dfdba83	0.1238909
182	0x3c880ef4	0.016608693
183	0xbd857770	-0.065169215
184	0xbd830006	-0.06396489
185	0x3d226e31	0.039655868
186	0x3ea8d2fb	0.32973465
187	0x3cf5f201	0.030022623
188	0xbe3947bc	-0.1809377
189	0x3e96e211	0.2946935
190	0xbb8cb6c0	-0.0042942464
191	0x3d495a7f	0.04915857
192	0x3d86dd1a	0.065851405
193	0x3ea6c933	0.32575378
194	0xbdb29c76	-0.08721249
195	0x3e303355	0.17207082
196	0xbcdbe63f	-0.026843188
197	0x3e9d307e	0.3070106
198	0x3d6eb326	0.058276318
199	0x3e7f90c8	0.24957573
200	0xbdbbb116	-0.09164636
201	0xbdc9276f	-0.098219745
202	0xbb330917	-0.002731865
203	0x3e37de23	0.17955832
204	0xbd1d0699	-0.03833637
205	0xbde97178	-0.113985956
206	0x3c080405	0.00830174
207	0x3e0bceba	0.13653079
208	0xbe081524	-0.13289315
209	0x3d6739de	0.05645167
210	0x3dd9a453	0.106270455
211	0x3e9503e5	0.29104534
212	0x3e24b8ea	0.16086164
213	0x3db0c36f	0.08631026
214	0x3e7003fc	0.2343902
215	0xbafab6df	-0.0019127986
216	0x3cd7e921	0.026356282
217	0xbe8cf7cc	-0.27532804
218	0xbe516c43	-0.20451455
219	0x3e23a94e	0.15982553
220	0x3e9144fe	0.2837295
221	0x3e3d4e9c	0.18487018
222	0x3e4f3911	0.20236613
223	0x3e43d1ed	0.19123049
224	0x3e4c0214	0.19922668
225	0xbe3af757	-0.18258415
226	0xbe83553e	-0.25650972
227	0xbe5e7912	-0.21725872
228	0xbdd69385	-0.10477356
229	0x3e7ed485	0.24885757
230	0x3e836cb6	0.25668877
231	0xbe203108	-0.15643704
232	0xbdb3c64f	-0.08778059
233	0xbc972e8b	-0.01845481
234	0x3e25e991	0.1620238
235	0xbdaa28e9	-0.08308584
236	0xbd87f43f	-0.06638383
237	0xbe50b63c	-0.20382017
238	0xbe577d03	-0.21043782
239	0x3e335daf	0.17516206
240	0xbdeecbf9	-0.116599984
241	0xbd835795	-0.06413189
242	0xbcbc3079	-0.022972332
243	0x3d97da69	0.07414705
244	0x3ddc41b1	0.10754717
245	0xbe4ad0fd	-0.19806285
246	0x3dd511e9	0.10403807
247	0x3da4522f	0.08023488
248	0xbe737beb	-0.2377774
249	0x3e1e7195	0.15473016
250	0x3e0b651e	0.13612792
251	0xbe2e0018	-0.16992223
252	0xbded99ed	-0.11601625
253	0xbd0f795d	-0.03502785
254	0x3e60d40d	0.21955891
255	0xbe495fa3	-0.19665389

encoder.latent.backbone.c_layers.1.layer.ff.0.0.bias f4 [32, 1]
0	0x3e8203dd	0.25393572
1	0xbd355a2c	-0.044275448
2	0x3e7faaa7	0.24967442
3	0x3df7f2da	0.12106867
4	0x3d738509	0.059453044
5	0xbd06a727	-0.032874253
6	0x3d8e24b1	0.06940592
7	0x3e4e1186	0.20123872
8	0x3e8864a1	0.26639274
9	0xbe722951	-0.23648573
10	0x3e793176	0.24335274
11	0x3ddc47c5	0.107558765
12	0x3e821b04	0.25411236
13	0x3e81a5c5	0.25321785
14	0x3e4b9baf	0.19883607
15	0xbd009bef	-0.03139871
16	0xbe7edb2a	-0.24888292
17	0xbbb78cf7	-0.005601521
18	0xbe2284e7	-0.1587101
19	0xbd721d68	-0.059110075
20	0x3e8161f6	0.2527005
21	0xbe755f6d	-0.23962183
22	0xbe180bcc	-0.1484825
23	0x3e724b64	0.23661572
24	0xbe4a9806	-0.19784555
25	0x3d8a1ce3	0.06743791
26	0xbd9db099	-0.07699699
27	0xbe2c82b2	-0.16846731
28	0x3d3be5ba	0.04587338
29	0x3e567138	0.20941627
30	0xbcc35d2e	-0.023848142
31	0x3ca43f4e	0.020049717
