generative_ts/saves/250809_113715_VRNN/model_VRNN.pth (torch, 17186 bytes, 24 tensors)

phi_x.0.weight f4 [10, 1]
00000000: 96b0 28bf 73fd 983f 3e8b f13e 93af 52bf
00000010: bd26 8c3c 9c7c 0c3c e695 81bf a0d0 cb3e
00000020: 3a61 fabe 5004 f9bd
-0.6589445 1.1952347 0.47176546 -0.82299155 0.017108316 0.008574631 -1.012387 0.39807606
-0.48902303 -0.12159026

phi_x.0.bias f4 [10]
00000000: 963d 343f d944 293f 2ccf 4cbf 9752 a0be
00000010: c689 ae3d 1eb5 96be 9eea 17bf eef3 11bf
00000020: 3ec9 58bf 9b8c 8ebf
0.7040647 0.6612068 -0.8000362 -0.3131301 0.08522372 -0.29435056 -0.5934237 -0.5701283
-0.8468207 -1.1136659

phi_x.2.weight f4 [10, 10]
00000000: 626b 2dbe df16 56bd 57cc 99be 1b8b a0be
00000010: 5a6e 88bd 702a 1c3e fa11 463d 072e 8c3c
00000020: 34a7 ee39 263c 9d3e 9d2c d83e 1cdc d53d
00000030: 394d c4be 7009 a13e c68c ed3d b04f a5be
00000040: 8281 fa3e 21a1 30be 0923 bc3e 7180 f83d
00000050: 6675 b63d dce7 0b3f b9a6 153f c92e 41be
00000060: 37f7 ac3d 809d 32be 69b1 97bd ea97 423e
00000070: f47e 4fbd 2896 edbd 654a 9fbe 08b6 58be
00000080: 7c82 213e 861f c1bd 5416 a53d 012b babe
00000090: 743b 91be 48bf d13d da86 143e 31d0 64be
000000a0: 807f 5bbe 5933 43be 581f 4cbe 9211 49be
000000b0: 3a80 3a3d d0b7 47be 07a7 a4bd bfa0 2b3e
000000c0: 68ce 8c3c 81b4 8abc 9f8a 9dbd b3ba 76bc
000000d0: ad95 73be 3fb6 be3d 04a3 21be f970 913b
000000e0: 2775 62be 34eb f3bc 62de 9dbd 8931 a33d
000000f0: aad8 853e 0a4c ba3e 0097 073e 06df dabd
00000100: 1e38 a2ba 9321 663e 517b 4ebd 8cb4 c23c
00000110: d436 90be 3217 6d3e 6b50 77bd e9e0 e0be
00000120: 6263 79bd b3ac 253e fad7 febe 1a69 80bc
00000130: 80d9 c7be 8a16 6bbe 29d7 19be 5e05 1c3e
00000140: 5717 a13e f443 e1bd 27a6 95bd fdeb 513e
00000150: 8fec 813d a765 10be fc8f e33e 4063 69be
00000160: 3051 b13e 5d56 abbc 728e a0be 7d51 9c3e
00000170: 674b fb3e 7bc5 483e f268 00be 5b9e d33d
00000180: 1643 913d 44d7 af3e b779 1fbd d258 213c
-0.16935495 -0.052267905 -0.3003871 -0.3135613 -0.06661673 0.15250564 0.048356988 0.017111791
0.00045519473 0.30709952 0.42221537 0.10442373 -0.38340166 0.31452513 0.11599116 -0.3228736
0.48926932 -0.17248966 0.3674548 0.12133873 0.08909111 0.54650664 0.58457524 -0.18865503
0.0844559 -0.17442894 -0.07406885 0.19003263 -0.05065818 -0.11600906 -0.31111446 -0.2116319
0.15772432 -0.09429841 0.080608994 -0.36360934 -0.28365672 0.10241562 0.14504567 -0.22345044
-0.21435356 -0.19062556 -0.19933832 -0.19635609 0.045532443 -0.19503713 -0.080396704 0.16760539
0.017188266 -0.016931774 -0.076924555 -0.015059161 -0.23787566 0.093121044 -0.15784842 0.004438516
-0.22115003 -0.02977524 -0.07708432 0.079684325 0.26141864 0.36386138 0.13241196 -0.106870696
-0.0012376343 0.22473745 -0.050410572 0.023767732 -0.2816683 0.2315338 -0.060379427 -0.43921593
-0.060885794 0.16179161 -0.49774152 -0.015675116 -0.39033127 -0.22957817 -0.15023483 0.15236422
0.3146312 -0.10999289 -0.07307082 0.20500179 0.06343948 -0.14101277 0.4444579 -0.22791767
0.34632254 -0.020915205 -0.31358677 0.3053092 0.49080965 0.19606583 -0.12540033 0.10332938
0.07092874 0.34343922 -0.038934436 0.009847837

phi_x.2.bias f4 [10]
00000000: 621a c73d eea5 8dbe e67e ea3d 2881 583c
00000010: ef0e 29be 1401 4bbe a73b a3be ae3a b93d
00000020: d1c8 993e 1fb3 eabe
0.09721829 -0.27665657 0.11449985 0.013214387 -0.16509603 -0.1982463 -0.3188145 0.090443954
0.30036023 -0.45839784

phi_z.0.weight f4 [10, 1]
00000000: 8661 a4be 6689 ebbc 2007 c9be e778 263f
00000010: 1713 10bf 1b3d c3be 94c9 343f 0d71 84bf
00000020: 028b aa3e 20f5 c83d
-0.32105654 -0.02875204 -0.39263248 0.6502823 -0.5627913 -0.38132557 0.70620084 -1.0347
0.3330918 0.09812379

phi_z.0.bias f4 [10]
00000000: 0d25 04bf 3ab2 8abf 03d9 57be d18d 3e3e
00000010: 45b2 1a3b 7fbe 71be 6fa3 923c c9ca a2be
00000020: 666d 0b3e 2572 da3e
-0.51619035 -1.083564 -0.21078877 0.18608786 0.0023604792 -0.23607825 0.017900197 -0.31795338
0.13615951 0.4266521

enc.0.weight f4 [10, 20]
00000000: f840 573e 0d15 ed3d fccd 733e 22b6 9b3a
00000010: dc39 a9bd 0419 64be 88b1 a43e 7132 733d
00000020: bad3 d3be 4b77 cd3e 774b 9d3e c759 923e
00000030: 1828 fa3d 58e3 3cbe c08e c9bd f0a0 d8bd
00000040: bbdc 53bc aacc 83be 8d22 003c 4b33 25be
00000050: 7587 debd dc24 f33e da0e b8be 4f4c cc3d
00000060: a81c 553e 5b68 2e3e f8a8 81bd 1507 a6bd
00000070: 09e3 853e 4661 323e 2562 a2bd eb4b 98bd
00000080: dd9f 4cbe 61a9 0e3c 494f 813e 580f 8b3e
00000090: 4aab 283e 3b29 503e 145c 743c ff76 aa3e
000000a0: d280 12bd 8144 733e 1df2 a9bd 18de fb3c
000000b0: db83 5d3e a1aa e3bd 43f6 833d b9a3 893e
000000c0: 0426 6e3e e91d c3bd 3ecb 0f3b d2a2 4f3d
000000d0: 45a3 5abe abaf 47bc e362 f23d f681 d13e
000000e0: 6a94 cabd 397b 89be 8eb0 b1bc 79ac 1e3c
000000f0: 64b2 2cbe 06e8 e4bd c248 d63e 8b0a ca3d
00000100: 7108 533e ee32 0c3d e755 583e 83ff 02be
00000110: eed9 d4bd 4516 7c3e 861e 0e3e 0278 593e
00000120: 71b4 023b 18d0 573d 7040 84be 510f 8fbe
00000130: 44c0 303d 4ceb a8bd d2f2 abbd 6193 53be
00000140: 17fe 14bc 5a43 983d 4657 0e3f e189 243e
00000150: d4b5 8ebc d93d 1d3d 5dbb ca3e 874c 80bd
00000160: 8e71 b5be 14f1 693e 0213 0abd 25ce c83e
00000170: 1049 683e be42 65be 35f0 e6be f914 f93b
00000180: 9f7e 933e 307c f53d 9353 e3bd 87db 10be
00000190: c999 31be cc43 e43e 8c7e 43be b754 01be
000001a0: 8b27 d1bd f721 adbd ad3f 473c 6a34 c83c
000001b0: d101 b53e 25c5 aebd b41c 5cbe dae8 e1bd
000001c0: d66a acbd 78ce ccbc 0d43 9c3e 7773 e93e
000001d0: 6a42 853c a4a6 cc3c de03 c33c 82c8 d63d
000001e0: 1580 913e c695 a4bd 09c3 393e b523 eabd
000001f0: d727 f93b 14a5 473d 36ba 963e 8be3 45be
00000200: 091c 61be af1c 023e 0773 363e 7181 96bc
00000210: 3301 073e 0211 a23e 140d c63d 629f 59be
00000220: 8be2 cb3c fbf2 a13e 68fc 9a3e 9867 0bbf
00000230: 1e97 a0be 1985 233e 4b24 bdbc d4f4 69be
00000240: 7802 c33d 5ba9 91bd 5e24 b9be be2f 63bd
00000250: e6da 663e 0fa8 2e3e d109 b4be 33d2 293e
00000260: 57d4 bdbd 7c33 cebd 3aa0 383e ecea 123f
00000270: 05f6 bf3e c953 12bd 5e80 b13e 3d24 d23e
00000280: c99c 70be e77c 913e 5cc8 81be 283d 9abd
00000290: 9a67 26be 0533 193e bd83 8ebe db0d 433c
000002a0: 256c cdbd ed34 2ebe 776c 24bc 6317 963d
000002b0: cae7 163e dda2 bd3c 1530 db3e cf75 073e
000002c0: a508 b6be abb9 30bd 1395 cfbd 0d29 a23e
000002d0: 3896 a8bd 08d9 8dbe 80a3 83bd 6997 103e
000002e0: 58b1 253e fe4a 55bb 606a fd3d b618 eabd
000002f0: 00fe e93d 4a20 67be 2bfd 49bd ed3f f6bd
00000300: 0083 86be 050d e6bd b137 213e cb97 79bd
00000310: 1d20 8ebe 34b1 b13d 64f8 e93d cda6 95bd
0.21020877 0.11576281 0.23809046 0.0011879841 -0.08262989 -0.22275168 0.32166696 0.059374277
-0.41372472 0.40130076 0.30721638 0.2858412 0.122146785 -0.184461 -0.098416805 -0.105775714
-0.012931044 -0.25742084 0.007820738 -0.16132848 -0.1086568 0.4748906 -0.3594883 0.09975492
0.20811713 0.17031996 -0.06331056 -0.081068195 0.26149777 0.1741992 -0.07928876 -0.07436355
-0.19982858 0.008707375 0.25255802 0.27160144 0.16471592 0.20328228 0.014914531 0.33293912
-0.035767384 0.23756601 -0.082981326 0.030745551 0.2163233 -0.11116529 0.06443455 0.26882723
0.2325669 -0.09527189 0.002194121 0.050692387 -0.21351345 -0.012187879 0.118352674 0.40919465
-0.09891589 -0.26851824 -0.021690633 0.009684675 -0.16864926 -0.111770675 0.41852385 0.09865292
0.20608689 0.034228258 0.21126519 -0.12792782 -0.10393129 0.2461787 0.13878831 0.21237186
0.0019943977 0.052688688 -0.25830412 -0.27941373 0.04315211 -0.08248004 -0.08395924 -0.2066169
-0.009093783 0.07434721 0.5560192 0.16068222 -0.017420687 0.03838906 0.39596072 -0.062645964
-0.35438198 0.2284587 -0.033709534 0.39219776 0.22684121 -0.22388741 -0.45105138 0.007601377
0.28807542 0.119865775 -0.11099925 -0.14146243 -0.1734382 0.44582975 -0.19091243 -0.12629972
-0.1021262 -0.08453744 0.012161178 0.024439055 0.35352948 -0.08533696 -0.21495324 -0.11030741
-0.08418815 -0.025000796 0.30519906 0.45595905 0.01626702 0.024981804 0.023805555 0.104874626
0.2841803 -0.080363795 0.18140806 -0.11432592 0.007603626 0.048741415 0.29438943 -0.19325082
-0.21983351 0.12706254 0.17817317 -0.01837227 0.13184051 0.316536 0.09670463 -0.21252206
0.024888298 0.31630692 0.30270696 -0.54454947 -0.31365293 0.15968741 -0.023088595 -0.22847301
0.09521955 -0.0711238 -0.36160558 -0.055465452 0.2254444 0.17056297 -0.3516374 0.16584091
-0.09269016 -0.100684136 0.18029872 0.5738971 0.37492386 -0.035724435 0.3466825 0.41043273
-0.23497309 0.28415605 -0.25348175 -0.07531196 -0.16250458 0.14960869 -0.27834883 0.011905159
-0.100303926 -0.17012377 -0.010035626 0.073286794 0.14736858 0.023148948 0.4281012 0.13228534
-0.3555347 -0.043145817 -0.101358555 0.31671944 -0.08231777 -0.27704644 -0.064276695 0.14120258
0.16180933 -0.003254592 0.12373805 -0.114304945 0.114254 -0.22570911 -0.049313705 -0.120239116
-0.2627182 -0.11232952 0.15743901 -0.060935777 -0.27758875 0.08676377 0.1142433 -0.07307205

enc.0.bias f4 [10]
00000000: 8ac3 193e b3a6 283e 8a1d 573e 0ae6 38be
00000010: 7e4c 943d ac09 113e 50da ecbd 1b58 0c3f
00000020: 0392 da3d 66b4 c1bd
0.15015998 0.1646984 0.21007362 -0.18056503 0.07241152 0.14163846 -0.11565077 0.5482194
0.10672381 -0.094582364

enc.2.weight f4 [10, 10]
00000000: 3e46 b43e c0c8 87be fad6 713e 6899 8f3e
00000010: 2d3c 0c3f bed4 b7be 50f0 193e 1693 023f
00000020: 9fb8 a3bd 73e0 bb3e 785d e7be d671 a03e
00000030: bde0 d3bc b510 81be 5b71 553e e35c 573e
00000040: 46c7 e43d 3510 c43e 45b9 413d 3d19 ffbd
00000050: 039e cfbe 26f0 e23e 0949 ac3e 10ac 273d
00000060: 390a 6fbd 2fdc 3a3e bc0f 3dbd d22c 5fbd
00000070: 9b40 84be 862b ba3d 8180 9dbe 34ad d43e
00000080: 6a13 d53e 7f96 39be 72cf 13bd d948 8a3e
00000090: 8a12 ccbc 091b 9e3e aa20 7e3e 2c8f f13d
000000a0: fb68 3cbd 966c 653e 7483 09bd 2bb8 82be
000000b0: 75fe 983d e6af 223e 6965 ecbd 0198 b63e
000000c0: d454 debe fb37 3e3e 576d ecbd fae2 7e3e
000000d0: 5642 0d3e 1d38 b2be d4b8 fcbd 2b80 f53e
000000e0: 56fd b23d 9818 bc3e 3135 2a3e 35d5 30be
000000f0: a791 dc3e c29c cbbd 9892 183d 3932 093f
00000100: ba65 d93e f1ea efbd a018 983e 4d27 cd3b
00000110: 6696 dcbe fb58 b13c 854f 293e 6580 aebe
00000120: 04b3 a9be 9536 8a3e 9b96 1a3f fe6b 493d
00000130: c563 f0bd f097 1fbf c081 87bd 2a1e bb3e
00000140: 681f 423e 90be 15be 99a8 9cbd 9ccb 81be
00000150: a167 dfbc 66f9 00be 216f c03c f8e8 2f3d
00000160: 0b4e 383e ca0d 1d3d 9245 803d 6edd 86be
00000170: 9f0d 613d c46d 3a3e 97d4 7dbe 369e a9be
00000180: cb15 e8be 7cee 353e 73d4 a83d df04 753e
0.3520984 -0.26520348 0.23617163 0.28046727 0.5477932 -0.35904497 0.15033078 0.51005685
-0.07994198 0.3669468 -0.45188498 0.3133685 -0.025864 -0.2520806 0.20844023 0.21031527
0.11170821 0.38293615 0.047295827 -0.12455986 -0.4055024 0.44323844 0.3364947 0.040935576
-0.05835936 0.18248056 -0.046157584 -0.054486103 -0.2583054 0.09090333 -0.30762103 0.41538393
0.41616374 -0.18123816 -0.036086507 0.27008703 -0.024911184 0.3088 0.24817148 0.11794886
-0.045998555 0.22404703 -0.03357263 -0.25531134 0.07470409 0.15887412 -0.1154278 0.35662845
-0.43424094 0.18576042 -0.115442924 0.24891272 0.13794836 -0.34808436 -0.12339941 0.47949347
0.08739726 0.36737514 0.16621853 -0.17268832 0.43079874 -0.099420086 0.037249178 0.5359226
0.42460424 -0.117147334 0.29706287 0.0062607885 -0.43083495 0.021648875 0.1653424 -0.34082332
-0.3314439 0.26994768 0.60386056 0.049175255 -0.117377795 -0.62341213 -0.06616545 0.3654645
0.18957293 -0.14623475 -0.07649345 -0.25350654 -0.027271094 -0.12595138 0.02349049 0.042946786
0.17998521 0.03834323 0.062632695 -0.26340812 0.05494463 0.18205935 -0.24788128 -0.33128518
-0.45329127 0.17766756 0.082436465 0.2392764

enc.2.bias f4 [10]
00000000: 6544 283f 0e2b e0bc c0d7 c13e 7e61 2d3d
00000010: ce67 743e 83dc 973e cf42 ea3d c5a9 813b
00000020: 54e0 7ebe 0249 0cbe
0.6572936 -0.02736428 0.37859917 0.042329304 0.23867723 0.29660425 0.11438524 0.0039570057
-0.24890262 -0.13699725

enc_mean.weight f4 [1, 10]
00000000: 4665 a73e 9c17 91be 617c 7dbe 9d77 a6be
00000010: 2194 e2bd 10bd b1be 0b50 bb3e 4919 8a3e
00000020: acbe 733c 5c8b 54be
0.32694453 -0.28338325 -0.24754478 -0.32513133 -0.110634096 -0.34714556 0.36584505 0.26972416
0.014877003 -0.20756286

enc_std.0.weight f4 [1, 10]
00000000: 25d3 0ac0 3cdd 0b3d e706 a1bd 49d6 bf3e
00000010: 9ee6 a6bf b375 2fbe 4357 3f3f e8b1 ab3f
00000020: 8585 423e 8769 b9be
-2.1691372 0.034146532 -0.07862645 0.37468174 -1.3039129 -0.17134742 0.74742526 1.3413668
0.18996246 -0.36213323

prior.0.weight f4 [10, 10]
00000000: 3e05 ec3e c3ac f5be b039 243f 7456 b5bf
00000010: 8b0a 2f3f 80b2 1cc0 fc7d 10bf 7f5b 5cbd
00000020: 5624 e43d a28e 6cbf 829c b33e f1b3 72bf
00000030: eccf 51be e52c a5bf e8d8 c93e b744 fbbf
00000040: d55c e5bd 7f7a eebe e527 a9be 8cb8 91bf
00000050: 0748 1c3f 613b 25bd c486 ae3f 400b dbbe
00000060: f390 973f fc5d 89bf 9b95 573d e07e b3bf
00000070: 3c3b 97bf f608 3dbf 352f 3dbd 8655 acbe
00000080: d16d 583f a0aa 9dbf f49b 8b3f ddd9 85be
00000090: 67f0 24be 27f0 78bf 0ff0 87bf cf45 01be
000000a0: ea24 993d eca6 3dbd 313a d93e a6ac 94bf
000000b0: 03b5 053e f0e5 aabd 7cb9 c1be f64a 16bf
000000c0: ad12 dbbf 79ae a6bb 123c 963e 5787 6f3d
000000d0: f42c 053f e35f d0bf a9c9 5dbd 0247 80bd
000000e0: 84a0 28bd 78b4 7bbf 80f1 d2bf 17af 71be
000000f0: 06b2 5ebe f3e2 463f 28e4 1d3f d904 69bf
00000100: 4d4d 133f f2ba 08be a86c 88be 232a e7bf
00000110: 6c86 2bc0 df71 7abd 3ce2 7b3f 672d 91bf
00000120: 047e 5e3e 4955 8dbf 4733 823f 785d 76c0
00000130: c441 a9be ca3b 18be 70fd e13e 6742 0ebf
00000140: e14e f3be c6d0 89bf 67c3 1dbf bad9 a5bf
00000150: ff69 cebe ab54 8bbf 12ec 043f a66d b43d
00000160: ef4d 55be 0a11 81bf d14d 2cbf d736 273f
00000170: 5a5e b83d 1d24 c5bf 5692 d93e 2270 393f
00000180: 2c10 81bf c713 50bf 93e0 9dbf 84db 893e
0.4609775 -0.4798337 0.64150524 -1.4167008 0.6837546 -2.4483948 -0.56442237 -0.053798195
0.11139743 -0.9240514 0.35080343 -0.9480582 -0.20489472 -1.2904326 0.394233 -1.9630345
-0.11199347 -0.46577832 -0.3303825 -1.1384444 0.61047405 -0.04033983 1.3634877 -0.4278202
1.184111 -1.0731807 0.05263291 -1.4023094 -1.1814952 -0.738418 -0.0461876 -0.33659
0.84542567 -1.2317696 1.0906968 -0.2614278 -0.16107331 -0.97241443 -1.0620135 -0.12624286
0.07477744 -0.046301767 0.4242721 -1.1615188 0.13057332 -0.08344638 -0.37836826 -0.5870813
-1.7115074 -0.0050867167 0.29342705 0.05847868 0.5202172 -1.6279262 -0.054147396 -0.06263544
-0.041168705 -0.9832225 -1.647995 -0.23601948 -0.21747598 0.7769005 0.61676264 -0.9102302
0.57539827 -0.13352564 -0.26645398 -1.8059734 -2.6800795 -0.061143752 0.9839208 -1.1341981
0.21727759 -1.1041652 1.0171899 -3.8494549 -0.33057988 -0.14866558 0.4413867 -0.5557007
-0.47521117 -1.0766838 -0.61626285 -1.295707 -0.40315244 -1.0885214 0.51922715 0.08809976
-0.2083051 -1.0083325 -0.6730624 0.65318054 0.09002371 -1.5401646 0.42494458 0.72436726
-1.008306 -0.8128018 -1.233416 0.2692529

prior.0.bias f4 [10]
00000000: 3d55 0d3f f0ba 7f3f f1e1 913f b7f8 d73e
00000010: 85d8 f43e c310 5a3e d66a e3be 72d8 cb3f
00000020: 590d 413f 3a31 7ebe
0.5520819 0.9989462 1.1397077 0.42181942 0.4782144 0.21295457 -0.44417447 1.5925429
0.7541099 -0.24823466

prior_mean.weight f4 [1, 10]
00000000: c6a2 04c0 6a48 debf e73c 0040 3c40 d53f
00000010: 7365 913f 5191 9e3f 40e3 e83f a1b0 3bc0
00000020: 29a0 03c0 79a5 bb3f
-2.072435 -1.7365849 2.0037172 1.6660228 1.1359085 1.2388097 1.8194351 -2.9326556
-2.0566504 1.4659873

prior_std.0.weight f4 [1, 10]
00000000: 41f0 fb3e 7a7b 7a3f 48df 923f ac77 813f
00000010: 9647 273f bb98 4c3f 48ec 8d3f bcb1 1c40
00000020: 0f7a d53e 217b ee3d
0.49206737 0.9784466 1.147439 1.0114646 0.65343606 0.7992055 1.1087732 2.448348
0.41694686 0.11644579

dec.0.weight f4 [10, 20]
00000000: 92d1 533d a6dd dcbd 2d5b d73d 3d93 bbbd
00000010: 6470 0dbe ffbe 2cbe 49e8 473e 21ae 5bbe
00000020: 6449 e13c 464a 40be f481 6aba 907c 7cbd
00000030: e692 4fbe 2613 033e fdc2 0bbc 367c 183d
00000040: 817c 6bbc b299 29be a247 40be c729 053d
00000050: 56c0 d2bd 9e6c 153e 04b8 223d a2cf 3ebe
00000060: e337 993d 7aef c33c 00a1 dfbd 6cfc e33d
00000070: c346 c93d 2b08 2b3d 8390 013e 6871 2ebb
00000080: 5279 ed3a 0712 c6bd 516f 03be 373d 673d
00000090: 7ce3 e93d cf9c 1ebe 48af 1a3e c4af 633e
000000a0: 3be4 6bbd 13c1 493e 4ef4 cf37 dc7a 193e
000000b0: e2d8 af3d 7000 c23d 9e59 e9bd a17b 2ebe
000000c0: e320 b13c 1139 f03d fc72 43bd c286 3fbe
000000d0: 5be0 443e 7fb6 5dbe a347 c63b 751a 02bc
000000e0: 6b5d f1bd f3e6 933d 2d6b 103e 0bd4 353e
000000f0: 8f9f 4e3d 11bc 0c3e d162 bdbd 85b9 4c3d
00000100: 3128 3b3e ed07 12be 4ae5 5b3d b9d2 383d
00000110: 6fe9 a93d 9944 ff3d 673a dd3d 118d 903d
00000120: bbaf 0bbe a3ea d8bd 1f89 1a3e 778b 0f3e
00000130: 1561 bd3b 4432 a5bd 2e76 603e bcc4 21be
00000140: e1d9 22be 6c51 e63c 49af a43d 0e82 81bd
00000150: 8881 4b3d 8bed 7e3c 92db 323d bf6a 5f3e
00000160: 984a 53bc f462 79bd 1ce6 0bbe 362a 0d3e
00000170: f1be dabd d0ac acbd eb4b 773d 7d1f 53be
00000180: 73cd 3c3d d473 53be 32ca 18bd 1a8a 293e
00000190: c2d8 283d 021f 903c 0d70 bcbd 308e 473e
000001a0: 7930 2bbd fd4b 7eb9 7327 033e 90e5 1e3e
000001b0: 91f7 193e 5a85 0dbe dd76 133e 567f 61bd
000001c0: ec97 1abe 2660 fb3d 1590 bcbd c466 b93d
000001d0: 2ae3 8d3d fe5d 063e 795b 14be ecc4 2d3e
000001e0: 5944 12be 35cd 333e 3e63 5e3e 5fe2 093d
000001f0: 05e9 c3bd 09af 593d 12cf 5bbe 4714 f4bd
00000200: be40 3bbe ecee 24be ab67 643d cf05 41be
00000210: 0437 f83b 11fc 42be 51f6 91bd 0c2a 2cbe
00000220: b173 2ebe e6e1 cfbd cfe2 02be c05f 0bbe
00000230: d21c 9a3d b44c b23d ac03 4c3d 1d33 33bd
00000240: d580 61be fea2 5c3d afd3 90bc 3f3e 43be
00000250: 7ab9 d23c c6de 58bc d7a7 3dbe 7f7e b23d
00000260: 2ea3 293d b1fc 5bbe 9519 5a3d 74be 3dbe
00000270: 5069 70bd 6f87 b7bd c7e9 a7bc 3a07 d7bd
00000280: 5e04 623e 68dc 813c 23bf 2d3e 26ff 1cbe
00000290: 4b65 47be 16be 9cbd 265e 6b3d 1c90 1a3e
000002a0: 41a1 c23d 925e 1f3d 6413 70bd cdb3 12be
000002b0: 0d64 7c3d 5c07 0fbd 2908 f43b ac92 e4bd
000002c0: ea72 07be cb4e 813d 60b0 46be 9451 013e
000002d0: ea71 3fbc b620 293e fbb0 253d 3b11 053e
000002e0: ec6d 51bd 385c 07be bbfb ba3d c403 4e3e
000002f0: b5d6 63be c388 eb3d c7b4 3d3e cd54 14be
00000300: 83b4 32be f792 893c bd65 01be 0c06 9e3a
00000310: 03fc 013e 58ca 793d a49d 093e ed1e d43d
0.051713534 -0.107844636 0.10515437 -0.09158943 -0.13812405 -0.16869734 0.19522204 -0.21453144
0.027500816 -0.18778333 -0.0008945756 -0.06164223 -0.20270881 0.12800273 -0.008530376 0.03722783
-0.014372946 -0.16562536 -0.18777326 0.032510545 -0.102905914 0.14592215 0.039726272 -0.18633893
0.07481363 0.023917902 -0.1091938 0.1113213 0.0982795 0.041755836 0.12652783 -0.0026617888
0.0018117821 -0.09671407 -0.12835433 0.056454863 0.11420342 -0.15489505 0.15105927 0.22235018
-0.057590704 0.19702558 2.4790086e-05 0.14988273 0.08586289 0.0947274 -0.11394046 -0.17039348
0.021622127 0.117296346 -0.04771708 -0.1870375 0.1922621 -0.21651648 0.00605102 -0.007940878
-0.11785396 0.072217844 0.14103384 0.17756669 0.050445136 0.13743617 -0.09247363 0.049981613
0.1827705 -0.14260836 0.053685464 0.045122836 0.08296477 0.12464256 0.10802155 0.07058156
-0.13641255 -0.105916284 0.1509137 0.14018045 0.0057793953 -0.08066228 0.21920082 -0.15797704
-0.15903427 0.028114997 0.080412455 -0.06323634 0.049684078 0.015559564 0.04366643 0.21818064
-0.0128962025 -0.060885385 -0.13661999 0.13785633 -0.106809504 -0.08431399 0.060375135 -0.2061748
0.04609437 -0.20649654 -0.037302203 0.16556588 0.04122234 0.01759291 -0.092010595 0.19487834
-0.041794274 -0.00024251635 0.12808017 0.15517259 0.15035845 -0.13820401 0.14400811 -0.055053078
-0.15097016 0.12274198 -0.09207169 0.09052804 0.06928094 0.13121793 -0.14488019 0.16969651
-0.14283885 0.17558749 0.21717545 0.03366315 -0.09565929 0.053145442 -0.2146571 -0.1191793
-0.18286416 -0.16106766 0.055762928 -0.18849872 0.0075749177 -0.19041468 -0.07127059 -0.16812915
-0.1703632 -0.101505086 -0.12781833 -0.13610744 0.07525028 0.08706036 0.04980819 -0.043749917
-0.22021802 0.05386638 -0.017679064 -0.19066714 0.025723208 -0.013236707 -0.18521057 0.087155335
0.041415386 -0.21483113 0.053247053 -0.18529683 -0.058694184 -0.08961379 -0.020497216 -0.10499425
0.22071978 0.015852168 0.16967444 -0.15331706 -0.19472234 -0.076534435 0.057462834 0.15094036
0.09503413 0.03890855 -0.058612242 -0.14326401 0.061618853 -0.034919128 0.007447262 -0.11160788
-0.1322743 0.06313857 -0.19403219 0.12628776 -0.011684874 0.16516384 0.040451985 0.12994854
-0.05113022 -0.13218772 0.09130045 0.20118624 -0.22249873 0.115006946 0.18525992 -0.14485474
-0.17451672 0.016793711 -0.12636466 0.0012056245 0.12693791 0.060983986 0.13439041 0.10357461

dec.0.bias f4 [10]
00000000: cef8 fd3d 534a 413e 2f35 d3bd dc72 aebd
00000010: f738 76bc efcf 1d3e 436b 343e 40bd da3d
00000020: c2af 8cbd 6cf0 213e
0.12400971 0.18876009 -0.10312878 -0.085180014 -0.01502823 0.15411352 0.17619042 0.10680628
-0.06869461 0.1581437

dec.2.weight f4 [10, 10]
00000000: 95e5 23be 5d2e 8d3e db44 97bc 6174 1cbe
00000010: 46ca 95be 2483 5a3e 2d2b 70be 4765 9e3e
00000020: ad6b 68be 60ad e8bd bd02 19bd fca9 363d
00000030: dc93 4dbe 16c8 fa3c 07f2 323e c084 ad3c
00000040: 37ed 7f3d d577 3e3e dff3 81bd ad8c 7abd
00000050: 2493 67bd 1af8 58be 2b76 073b 1a36 f93d
00000060: 2fed 233e c01e 9dbd 93d5 963e 9ca7 af3d
00000070: 8e9b 4bbe 8cec acbd 3ffc 57be fcba 253e
00000080: 6644 9dbe 3ee6 37be 5b10 8a3e 9ae6 28be
00000090: 94fd 8e3c 211d 90bd 151f b33d 2c1d 913b
000000a0: 167c cfbd b8a0 373e 4602 633e 35f1 8d3e
000000b0: 64e2 163d 3e8f 36be 6102 ecbd f518 473b
000000c0: 61a2 3abe 29b2 5fbc 91ff 9d3d bd56 9fbe
000000d0: 0ad7 82be 2210 7c3d 3a45 933c 7602 f0bd
000000e0: b364 8dbe aba5 943e 9a94 7abe 5b5c 9d3d
000000f0: ccc9 0ebe 0dec d93d 17cd 9e3e 8b93 6abe
00000100: ad5a 593e f8ce 96be 49f6 0e3e 0a4d a0be
00000110: 5fb3 d33d 4b83 783e 8354 8d3e 0d0a d3bd
00000120: 6119 013e bd4e 17bb c4f0 123e becb 03be
00000130: 6701 17be 8872 83be 79ec 003e 0761 893e
00000140: 7897 8dbe adc4 f2bd 001b 0b3d 9934 15bd
00000150: 6927 113d 7a7b 7bbe 019a 2b3d 2ba5 e1bc
00000160: adce 84bd 21e1 7f3e 5ec8 b73a c6a5 95be
00000170: 32fe 97be 0472 833e 8c86 91be 027e 463d
00000180: 0062 3e3e 70ad 52bc 6802 2dbe 9d5f 83bc
-0.16005547 0.27574435 -0.01846545 -0.1527877 -0.29255885 0.21339089 -0.2345397 0.30936643
-0.22697325 -0.11361194 -0.037356127 0.044595703 -0.20075935 0.030612987 0.17475139 0.021181464
0.062482085 0.186004 -0.06345343 -0.061169315 -0.05653681 -0.21188393 0.0020669799 0.12168522
0.16008447 -0.07671881 0.2945982 0.08576891 -0.19883558 -0.08443555 -0.21092318 0.1618461
-0.30716246 -0.17958924 0.26965603 -0.16494218 0.0174549 -0.07036806 0.08746163 0.0044285264
-0.101310894 0.17932403 0.22168836 0.2772309 0.036836997 -0.1782808 -0.11523891 0.0030379866
-0.18226005 -0.013653317 0.07714761 -0.31120864 -0.25554687 0.061538823 0.017977346 -0.117192194
-0.2761589 0.29032645 -0.2447075 0.07683631 -0.13944167 0.10640726 0.31015846 -0.22907846
0.21225996 -0.2945478 0.13961138 -0.31308776 0.10336947 0.24268834 0.2760354 -0.103046514
0.12607338 -0.0023087703 0.14349657 -0.1287069 -0.14746629 -0.25673318 0.12590207 0.26831838
-0.27654624 -0.11853919 0.033961296 -0.036427114 0.035437975 -0.24558821 0.041894916 -0.027544579
-0.06484733 0.24988224 0.0014021506 -0.29228038 -0.29686123 0.25672925 -0.28422964 0.048460014
0.18592072 -0.012858734 -0.16895449 -0.016036803

dec.2.bias f4 [10]
00000000: ad92 8b3d 6e9b 8b3c 040d c6bd dba8 78be
00000010: cd27 83bc b90d 813e 9c86 87be 2af8 2a3e
00000020: fef9 ca3c 1099 bfbc
0.068150856 0.017041888 -0.09670451 -0.24283163 -0.01601019 0.25205782 -0.26469886 0.1669623
0.024777409 -0.023388416

dec_std.0.weight f4 [1, 10]
00000000: a7ef fd3d 071f 743e 3bb8 8e3e 2f97 87be
00000010: 0b6b 49be 950c 09be 979a 303e 3461 28bd
00000020: e7d4 a13d 289b 8dbe
0.12399226 0.23839961 0.27874932 -0.2648253 -0.1966974 -0.13383706 0.17246471 -0.041108325
0.07901936 -0.27657437

dec_mean.0.weight f4 [1, 10]
00000000: 3dd2 6c3e 774e db3d 1bee 523e e158 b13d
00000010: 63f5 2bbe b757 973e a08c 7a3e ec49 0e3d
00000020: 8453 063e 84e9 81bc
0.23127075 0.10708325 0.20598643 0.086595304 -0.16792826 0.2955911 0.24467707 0.034738466
0.13117796 -0.01585842

rnn.weight_ih_l0 f4 [30, 20]
00000000: a285 73be 2b32 0ebe 86cc 503d ae91 4dbe
00000010: c6ff cf3c 7479 b9bc 5ce2 a4be 4a2f 78bd
00000020: 0c2b 83be 2ae4 8c3e 9216 083f 7a23 b3be
00000030: 8fa6 adbe 5dca eebd 7962 9e3e 9465 ff3e
00000040: 4bee 0abe 5d59 ff3e a325 c7be 1d65 a3be
00000050: 2f0a 85bd 1efe 14bd 270c 15be 4888 08be
00000060: 9f65 9c3e 9ed1 963e 7d07 113e 8ed7 4cbe
00000070: 7979 213f b4a6 4c3e b915 5b3d 383b ff3c
00000080: 7afc 4c3e 6685 9fbe 3c42 3e3e a008 393e
00000090: 44be 2cbd 5663 7c3d 9be6 2b3e c6a5 423f
000000a0: 2d5c 58be 14a4 f3be 0cd1 273e 9a6c 523e
000000b0: d0ce 1fbe 6ab7 68be 324d 07bd eb9b 85bd
000000c0: 0ee7 aebe 1e04 07bf a789 1abe 4b01 823e
000000d0: 28e3 8ebd bbb8 bebe aca9 f03d 485b 6cbe
000000e0: 6b79 e0be 345a 893e 79b6 89bd 6f06 6dbe
000000f0: b0db 133c ec39 e2bc 0fec 3cbe 5a46 80be
00000100: 5e62 0e3e 3d71 2d3e 45db abbe 040b d3bd
00000110: 257a e13e f4c0 b6be 5680 12be c714 5d3e
00000120: f3cb 813e 8884 2dbd f47d 3b3d 91d0 e43d
00000130: a070 283e 3301 ac3d 487c 033e d299 0d3f
00000140: 12c5 663e a35f 0bbf 3fbc 55be e57b abbd
00000150: 8b2d 1f3e 0b37 1b3e f1c6 64be 802c 943e
00000160: 30a9 e7be 6c63 d8bd 7e9d 613d cabd a1be
00000170: 1f7c 043d b971 abbc 146d 3e3e bfd1 8dbe
00000180: 10db 7abe 7a62 6d3d 4237 91be efe4 69be
00000190: 07ca 63be f2c8 e43c fd57 7bbc f128 973c
000001a0: ab1c 9e3e f219 5a3e ef88 aa3c 1a15 6cbe
000001b0: 224d a4bd e66b b2bd 6292 8cbd 1122 9ebd
000001c0: b442 11bf 83ae 34bd 7181 babd 16f8 82be
000001d0: a21a c0bb c97f 26bf 81ff b73d d03c 133e
000001e0: 1603 643e 1b31 b43e c39c 1dbf f762 063e
000001f0: c00d 0d3e 2247 95be 593f 50be 8509 bbbe
00000200: d172 09be 2e40 2abf 7504 1f3e 648c 943d
00000210: 1b7c e3bf b2c2 10bf 0d1c b8bd 14e6 733e
00000220: 7f56 77bf e2de 34bf 18bf 44be 850d a23e
00000230: 174e 80be e24e da3d 1cf3 0cbf 9efe 31be
00000240: 1ad3 993e 4db6 783c f7fe 66be f38b d8bc
00000250: c018 81be 29c3 34be 13da 373f c6c4 793e
00000260: ae09 aa3d 7e31 1cbf b886 4bbd e351 8bbe
00000270: 981d 0fbf c5f4 cf3c fc01 14bf 78d8 47bf
00000280: d2e5 1f3e cb18 153d b74e 7dbd 47f9 88be
00000290: 9006 be3d 4245 5cbe 69eb c4bd b634 253e
000002a0: 24d3 82be be02 883e 6fa4 32be 7d72 9dbe
000002b0: 6b24 01bf 1428 9e3e 6326 f63d f1da 80be
000002c0: 6883 5e3d 0d4e 9b3d 21ee 6dbd 82a1 2bbe
000002d0: a5be b33e 543b 71be 7821 f2bd 0700 37be
000002e0: 2363 883e ade5 68be e9bc 0bbe 8fdd 373e
000002f0: 481e 87be 37e3 f2bb f862 c6be 6dfa ffbd
00000300: 64b6 d7be 5266 c8bd f980 a8be 8199 8abd
00000310: 909d acbd 84c5 c9be 4147 223b 16d4 cebe
00000320: 4250 9bbe 5eee 61bd d81a b53c 0419 45be
00000330: e983 653c b490 65be 094b 63bd fdb8 553e
00000340: 1a54 9e3b a0c0 31be 8dff b3bd c7f7 c6be
00000350: 7cdf fb3e 3742 20bc 6c37 a8be 7ef2 c3bd
00000360: ac34 ccbd 7712 85be 6964 0bbe 8a7b 403e
00000370: 571a c13d a5b7 52be 94b1 87be b968 cc3e
00000380: d105 98bd 5c58 423e dfd5 83be f5c3 bd3d
00000390: e345 873e f7ac 223e 8eb3 19bd 088f 65be
000003a0: 37b7 86bc bf6e 8fbb a804 80bd f2bd b2bd
000003b0: f39c ffbe 8850 213e 8c71 b4be a957 7fbe
000003c0: 6e80 1d3e 3562 fcbe 3998 69be 97ad 4dbe
000003d0: a46b 6fbe e221 22be 91e9 863e d9ad 78be
000003e0: 9dcb c6be e16d 18be 566f 8bbd 38b9 31be
000003f0: be87 583e baf6 b7be be79 b53e 35b4 ac3e
-0.23781446 -0.13886325 0.0509763 -0.20075104 0.025390517 -0.022640921 -0.32203948 -0.060591973
-0.2561878 0.27517825 0.5315944 -0.34988004 -0.33916137 -0.116596915 0.30934504 0.49882185
-0.13567464 0.49872866 -0.38895902 -0.3191308 -0.06496083 -0.036375158 -0.14555417 -0.13333237
0.3054628 0.294568 0.14163013 -0.20004103 0.6307598 0.19985467 0.053487513 0.031156167
0.20018187 -0.31156462 0.18579954 0.18069696 -0.04217364 0.06161817 0.16787188 0.760342
-0.21128912 -0.4758612 0.16388339 0.2054924 -0.15606236 -0.22726217 -0.033032604 -0.065238796
-0.34160656 -0.5274066 -0.15091573 0.2539161 -0.0697692 -0.37250313 0.11751112 -0.23081696
-0.43842635 0.26826632 -0.06724257 -0.23146985 0.009024546 -0.02761551 -0.18449424 -0.25053674
0.13904712 0.16937728 -0.33565727 -0.103048354 0.440385 -0.35694087 -0.14306769 0.21589957
0.25350913 -0.04236272 0.045774415 0.111725934 0.16449213 0.08398666 0.12840378 0.55312836
0.22536114 -0.54442805 -0.20872591 -0.083732404 0.15544717 0.15157716 -0.22341515 0.289402
-0.45246267 -0.10565838 0.055081837 -0.3159011 0.032344934 -0.02092825 0.18596298 -0.27699086
-0.24497628 0.057955243 -0.2836247 -0.22841237 -0.22245036 0.02792785 -0.015340802 0.01845214
0.30881247 0.2129896 0.020817248 -0.23054925 -0.080225244 -0.08711986 -0.06863858 -0.077213414
-0.56742406 -0.04411174 -0.0910672 -0.255799 -0.00586255 -0.65038735 0.089842804 0.14378667
0.22266802 0.35193714 -0.61567324 0.1312369 0.13774776 -0.29155833 -0.20336665 -0.365307
-0.13422705 -0.6650418 0.15529044 0.0725334 -1.7772249 -0.5654708 -0.08989725 0.23818237
-0.9661636 -0.7065259 -0.19213521 0.3165094 -0.25059578 0.10659577 -0.55058455 -0.17382285
0.3004387 0.015180183 -0.22558199 -0.02643392 -0.25214195 -0.17652573 0.7181713 0.2439147
0.083026275 -0.6101302 -0.049689025 -0.27210912 -0.5590453 0.02538527 -0.5781553 -0.7806468
0.15615013 0.036400598 -0.061842646 -0.26752684 0.092785954 -0.21510795 -0.096152134 0.16133389
-0.25551713 0.26564592 -0.17445539 -0.3075141 -0.50446194 0.30889952 0.120190404 -0.2516704
0.054324538 0.075832464 -0.058088426 -0.16760829 0.35106388 -0.23557788 -0.1182279 -0.17871104
0.26638135 -0.22743864 -0.13646282 0.17955612 -0.2639029 -0.00741234 -0.38747382 -0.12498937
-0.4213134 -0.09785141 -0.32910898 -0.0676756 -0.0842849 -0.39408505 0.002476171 -0.40396184
-0.3033467 -0.055158965 0.022107527 -0.19247824 0.014008501 -0.22418481 -0.05549148 0.20871349
0.004831803 -0.17358637 -0.08788977 -0.38860914 0.49193943 -0.009781412 -0.32854784 -0.09567736
-0.09970984 -0.2599065 -0.13612522 0.18797126 0.09428852 -0.20577867 -0.2650267 0.39923647
-0.074229844 0.18979019 -0.25749108 0.092658915 0.26420507 0.15886293 -0.037524752 -0.22417843
-0.016444786 -0.0043772156 -0.06250888 -0.087276354 -0.4992443 0.15753376 -0.3524288 -0.24935783
0.15381023 -0.49293676 -0.22811975 -0.2008575 -0.23380905 -0.15833238 0.26350072 -0.24285068
-0.3882722 -0.14885665 -0.06808345 -0.17355812 0.21145532 -0.35930425 0.35444444 0.33731237

rnn.weight_hh_l0 f4 [30, 10]
00000000: c1c3 16bf 02f3 afbe 780a 4abe 1e05 8b3c
00000010: 5b18 283f 42bc 543d 6908 a5be 114b d03e
00000020: 50e2 133d 7563 68be 1576 0cbf 9deb 6abe
00000030: 431c e1be 1ce0 ebbe 3844 9cbe 0f98 4e3f
00000040: 68fe 643f b2d5 093f a70a 1a3f fbb0 df3e
00000050: 8188 103e 1b7b 82bd 74df 9ebe 8b97 e9bc
00000060: 2d26 9e3d 0339 0a3a 0d40 c13d fac1 393e
00000070: 9ee9 c03e 24c6 4e3d eee8 e3be 4158 953e
00000080: 751f 16bf 7650 25bf d654 bbb9 873b ca3d
00000090: ec7d dc3e 60a7 103d 1533 923d cb6e 8a3c
000000a0: 2ede d73e 8d60 8bbe b056 1a3f 665b a73e
000000b0: bc47 803c 1327 5cbf ce39 22be b549 ebbe
000000c0: 6416 f0be 3531 80bf c5b9 5abd aeb8 403e
000000d0: a916 003f e528 36bd 5583 73bd f958 e5bd
000000e0: 0bd5 cf3d a246 0fbe d5a9 94be 20b9 463e
000000f0: 1859 7d3d 1b33 da3d a6df 1cbf e5a3 333f
00000100: 8b6a 67bd 95ec 763e 46d4 24bf ed07 263f
00000110: 6384 983e efe4 893e 4162 f43e 0c01 75bd
00000120: 69a1 303f 46f9 fd3e 9625 7e3e 97fe dbbe
00000130: 815f 14bf 517c babe 4fe8 ccbe 4c5f fe3c
00000140: ef13 21be 8f5e 34bd a171 e5be f4d9 483e
00000150: 1244 823e 751f 413e c955 83bd 038d 80be
00000160: 5ee4 fc3c e2fe 8b3e 14ff 7dbc 3f6c b1be
00000170: 08ac 833a a5e8 45be e022 9c3e 29d5 21be
00000180: e20e 78be 170b 13be bd49 eabd a166 5a3a
00000190: 19e1 80bf d4b8 9a3d 35a5 81bf 8873 613e
000001a0: 9f3a a0bf ea03 e13e 2083 863f 02df 3a3e
000001b0: e6d2 1bbe 2fbd 7abd 78cd 803d de20 80bd
000001c0: b906 8b3e ccd9 90bc 39be 323e 60c7 93be
000001d0: eeb8 89be f3a9 b1be 908a cfbe 8c08 c6bc
000001e0: 68b6 fdbe 8f09 4bbf 75a5 87be 5d80 8a3e
000001f0: 2fef 64bf 225a 94be cf4c 9f3f 9861 2c3f
00000200: 4e53 953e 61f4 1fbf 426e 29be 03cf 743e
00000210: 726a adbe 5f72 073f ab73 92be bfd5 0e3f
00000220: 7c81 153f 08c6 e7be 25f8 6fbe 5fe8 d5be
00000230: 7c15 443f 9d08 543e 82a4 df3e 7059 7b3e
00000240: c32f b9be 59e6 d53e 85a3 edbc b6f4 213f
00000250: af38 bbbb 4613 453f 8888 02be eb49 86be
00000260: 43c3 a4be 18cf 5cbe 37e2 9bbe b5fe 8d3e
00000270: d4e6 413d 1ab7 f7bc 2f3d c7be 3b34 aabe
00000280: ce07 803f 1664 67bf 0c74 2b3f 6456 853e
00000290: df25 6a3f 2c8e 28bf 16db 69bf 4fde 22bf
000002a0: 4766 3ebe b118 71bf fa8d 803e f3dd 623d
000002b0: bebe acbd 5c45 36be 7116 02bf 67b2 d9bd
000002c0: 81b6 cf3d 7a1e 683e 8803 9ebc 4ce8 a73e
000002d0: 483f bebe e549 a7be 79f0 9f3d 7863 3dbd
000002e0: 15a3 cd3e 9102 c53d 916d 5f3d 6a66 9a3e
000002f0: 992f 1abe a9c4 cd3d d0dc 07bf 517c 05bf
00000300: 6129 4abf 48f6 423f 40e1 66bd fee8 ddbd
00000310: 2ea9 b93e 00c6 663e cc92 afbe 1f8c 41bf
00000320: 65df 6dbe a375 a83d a270 b0be 38cb 2a3e
00000330: 5bb0 943d 2de8 fe3d 5b08 99be 3885 41be
00000340: d250 a7bd 766c 9cbe 7cb8 21bf 89bb 42bf
00000350: 11f0 1abf db22 6cbe 50db 3fbe 78cd 273f
00000360: 3263 033f 9f61 28bd 69c9 c13e cba4 1abd
00000370: 8714 39be 56c1 20be 10b0 3ebe b66d b83d
00000380: b5a8 8abe 6428 bc3e 735d c63e 2b41 cb3e
00000390: 7dba 80be 9a76 4e3d 39cd 92be a756 25be
000003a0: dc89 d5bc 0ba7 f7be cd97 25bf fb58 a0bd
000003b0: 9903 07bd 5491 0cbc 2f01 a5be 5073 b4bd
000003c0: e24f 793e a637 cf3d f0ef 12bd 5497 033e
000003d0: e184 df3d ca25 f33c 0d70 98be fe90 abbc
000003e0: d3a6 85be 077b a13e 231b 9abe bf1a 11be
000003f0: 0325 783e b63a 9fbd 0b72 8bbe 9a9e f83b
-0.58892447 -0.34365088 -0.19730556 0.016970214 0.65662163 0.05193735 -0.3223298 0.4068227
0.0361045 -0.2269419 -0.5486768 -0.22941442 -0.43966874 -0.4606942 -0.30520797 0.80700773
0.89450693 0.538417 0.60172504 0.43689713 0.14114572 -0.06371137 -0.31029856 -0.028514644
0.07722125 0.00052727776 0.09436045 0.18140402 0.37678236 0.05048193 -0.4451365 0.29168895
-0.5864175 -0.645759 -0.00035730627 0.09874635 0.4306482 0.03531587 0.071386494 0.016898533
0.42161697 -0.272221 0.60288525 0.3268692 0.015659206 -0.8599712 -0.15842363 -0.45954672
-0.46892083 -1.0015017 -0.05339982 0.1882045 0.50034577 -0.044472594 -0.05945142 -0.11198611
0.101480566 -0.13991788 -0.29035822 0.19406557 0.061852545 0.10654279 -0.6127876 0.7017196
-0.05649809 0.24113686 -0.64386404 0.64855844 0.29788503 0.26932475 0.47731212 -0.05981545
0.6899629 0.49604243 0.24819025 -0.42967674 -0.5795823 -0.3642297 -0.40020987 0.0310513
-0.1573026 -0.04403549 -0.44813254 0.19614393 0.2544256 0.18859656 -0.064128466 -0.25107583
0.030870613 0.27342898 -0.01550271 -0.34652898 0.0010045776 -0.19327028 0.30495358 -0.1580397
-0.24224427 -0.14359699 -0.11439846 0.0008331333 -1.0068694 0.075547844 -1.0128542 0.22016728
-1.251789 0.439483 1.0508766 0.18249133 -0.1521717 -0.061215576 0.0628919 -0.06256269
0.27153566 -0.017681979 0.17455377 -0.2886305 -0.26898903 -0.34699973 -0.40535402 -0.024173997
-0.49553227 -0.7931146 -0.2649342 0.27051058 -0.89427465 -0.28975016 1.2445315 0.67336416
0.2916512 -0.6248227 -0.16545966 0.23907094 -0.33870274 0.5290889 -0.28603873 0.557949
0.584007 -0.45268273 -0.23434503 -0.41778848 0.7659528 0.2070641 0.43680197 0.24545836
-0.36169252 0.41777304 -0.029008636 0.63264024 -0.0057135443 0.76982534 -0.12747395 -0.2622827
-0.32180223 -0.21563375 -0.30446026 0.2773339 0.047339275 -0.030238677 -0.38913867 -0.33242974
1.0002382 -0.90387094 0.6697395 0.26042473 0.91464037 -0.6584194 -0.91349924 -0.63620466
-0.18593703 -0.941783 0.2510832 0.05538745 -0.08434819 -0.17799896 -0.5081549 -0.10629731
0.10142232 0.22667876 -0.019288793 0.32794416 -0.37157655 -0.32673565 0.078095384 -0.04623744
0.40163484 0.0961963 0.05454785 0.3015626 -0.1505722 0.100472756 -0.5307131 -0.52142817
-0.7896939 0.76157045 -0.05636716 -0.10835455 0.36261886 0.22536469 -0.34291685 -0.7560443
-0.2322975 0.082255624 -0.34460932 0.16679084 0.072602 0.12446628 -0.29889187 -0.18898475
-0.08169712 -0.305515 -0.63172126 -0.76067406 -0.6052256 -0.23060171 -0.18736005 0.65547895
0.51323235 -0.041108724 0.37848976 -0.037754815 -0.18074237 -0.15698752 -0.1862185 0.09005301
-0.27081838 0.36749566 0.3874317 0.39698157 -0.2514228 0.050406076 -0.28672197 -0.16146336
-0.026066713 -0.4836963 -0.64684755 -0.07829472 -0.032962415 -0.008579571 -0.32227466 -0.088110566
0.24346879 0.10118036 -0.035873353 0.12850696 0.109140165 0.029681105 -0.29772988 -0.020943161
-0.2610384 0.31539175 -0.3009883 -0.14170359 0.24232869 -0.0777487 -0.27235445 0.007587266
