generative_ts/saves/250911_141419/model_LS4.pth (torch, 247755 bytes, 247 tensors)

encoder.latent.encoder.weight f4 [16, 1]
0.57894313 0.88596123 -0.8116636 0.44223407 -0.056234296 -0.50464034 0.06319058 0.11987592
-0.09315318 -0.7544745 -0.85795593 0.51770216 0.016857905 0.43672144 0.7916338 -0.42829525
00000000: 9e35 143f 5bce 623f 30c9 4fbf 816c e23e
00000010: ef55 66bd 1c30 01bf 106a 813d 8281 f53d
00000020: 18c7 bebd 3e25 41bf 00a3 5bbf 2188 043f
00000030: 9719 8a3c f499 df3e 83a8 4a3f 8449 dbbe

encoder.latent.encoder.bias f4 [16]
-0.07638683 -0.02282408 0.062431835 0.2132318 0.93576247 0.59570056 -0.8411761 -0.37931883
0.2846437 0.38067567 0.6049187 -0.41356868 0.39730552 0.007254846 0.93786055 0.60224617
00000000: b370 9cbd 91f9 babc 86b8 7f3d 7059 5a3e
00000010: 218e 6f3f d57f 183f 5157 57bf 1436 c2be
00000020: d2bc 913e ece7 c23e f4db 1a3f 46bf d3be
00000030: a16b cb3e 0fba ed3b a117 703f ce2c 1a3f

encoder.latent.backbone.c_layers.0.layer.D f4 [1, 16]
-1.1206663 -1.6173854 -1.4459748 -0.4923829 -1.4132308 -0.3622362 2.0902395 -1.0841211
-0.54982233 0.7075768 -0.8895289 -1.4827185 0.010925661 -0.29969984 0.22085181 0.30323547
00000000: fe71 8fbf 7c06 cfbf b415 b9bf 9d19 fcbe
00000010: bfe4 b4bf 0677 b9be 7cc6 0540 7bc4 8abf
00000020: 28c1 0cbf c123 353f 2ab8 63bf b8c9 bdbf
00000030: 8b01 333c 4272 99be fa26 623e ae41 9b3e

encoder.latent.backbone.c_layers.0.layer.kernel.kernel.C f4 [1, 16, 8, 2]
0.5858691 0.010318571 1.1412756 0.36308718 0.77396894 1.5507694 0.32117352 1.1179265
0.18308657 0.09700494 -1.0621299 -1.1544658 0.80753195 0.26096228 0.22747163 0.48849526
-1.5201334 0.33728725 -0.8151278 0.504142 -0.10112719 -1.595589 -1.447019 1.7880139
-1.4316304 -0.9008254 -0.4907558 -0.6959994 -0.39068934 -0.59792614 -0.2632892 -0.44691715
-0.1137574 -0.56054705 -0.9758263 -0.7446123 -1.1946911 -0.4591576 1.2896928 1.6821184
-2.4683027 0.8319847 -0.39189643 -0.51766175 -0.06741502 -0.40838835 0.36989775 -0.39797896
-0.24213067 -0.077613614 -1.0640057 -0.023066951 0.5202201 -0.47117114 -1.0349203 -0.22560285
0.08501445 0.11982676 0.10381286 1.2811444 -1.0709245 -1.4410405 0.50123125 -0.6543772
-1.0206531 -0.06332948 -0.24941106 -0.76118726 -0.3676081 -0.98030645 -0.9791649 2.4167957
-1.711293 2.9600022 -0.6474744 -0.6772845 0.048392437 0.24031171 0.42798892 0.028020933
0.27136663 0.2895418 -0.34788188 1.3481746 0.21370071 -0.35570157 0.29158372 -0.1765688
-1.0068823 -0.06973638 0.43175003 0.6492233 -0.93857276 -0.8736852 -0.3689171 -0.09399761
-0.040153723 -1.3650279 0.79536337 1.4150409 -0.9130957 -0.20561239 -0.38738483 0.08900149
-0.053369246 2.2999809 -1.5858012 -0.98696893 0.88470155 1.6756557 0.5952185 0.4091281
-0.09053858 1.0159312 -0.42291808 0.2614278 -0.60393614 0.72228175 0.3492666 0.31437567
-0.18974467 0.8770946 0.029957933 0.31239256 1.346066 1.3995095 -0.6058258 -0.004051846
0.78191215 -0.3890937 0.79733443 -0.36578643 0.9903937 0.362991 0.038541928 -1.7586765
1.2228405 -0.7250105 0.22582553 -0.7780908 -0.44689795 -0.46312988 -0.45131826 0.26172534
0.15910362 1.519078 0.63187605 -0.14576505 -0.6599473 -0.18558179 0.13350911 0.813834
0.7078206 -0.30984375 -0.23504071 -1.0639886 0.29778942 -0.01788831 0.029362189 -0.06395982
-0.8166452 -0.2808082 -1.4371874 -0.6501226 -0.6924834 -0.2941711 -1.3997934 1.0218927
0.5917336 -0.11334516 -1.2570478 -0.17434584 -0.9237827 -0.43495917 -0.020505888 0.57967746
-1.54919 0.11923993 -0.07978006 -0.30620486 0.860997 0.6156001 0.691112 0.4531617
-0.8654023 -0.8611724 0.37227717 1.3306956 -0.018389167 -0.39188734 0.6458134 0.3962816
0.026565872 0.17379269 0.37491682 0.8870688 0.8914049 0.21235552 0.46226797 -0.8602575
-1.0677503 0.49666342 -0.040707268 -0.045516342 -1.2084634 0.6719671 0.5458764 -0.57543117
-0.3538285 0.07922658 -0.10137073 -0.31929907 -0.5782334 -0.8041145 0.4399314 -1.010531
-0.18416409 0.044783127 0.8994112 -0.9027451 1.6268855 -0.2677409 -0.21013388 -0.91106963
1.3603876 0.44912887 -0.5639045 0.44630203 0.81458235 -0.3872057 1.188624 -0.92007697
-0.44706696 -0.39879212 1.5688595 -0.5611992 -0.8526099 1.0918622 0.44348776 -0.78586286
0.13664061 1.2151606 0.71649873 -0.07672786 -1.054882 0.41441914 -0.06278667 -0.64298457
0.6747334 0.08291644 0.087127805 -0.66908556 0.027136754 0.569952 0.5682821 -0.080253005
00000000: 84fb 153f 390f 293c 5215 923f 90e6 b93e
00000010: d422 463f 9d7f c63f db70 a43e 3718 8f3f
00000020: 0c7b 3b3e 87aa c63d dff3 87bf 89c5 93bf
00000030: 6aba 4e3f d99c 853e 53ee 683e 0d1c fa3e
00000040: bb93 c2bf eab0 ac3e 37ac 50bf 730f 013f
00000050: c61b cfbd 433c ccbf eb37 b9bf a4dd e43f
00000060: aa3f b7bf 7e9c 66bf 5844 fbbe 042d 32bf
00000070: 6f08 c8be b011 19bf d8cd 86be 53d2 e4be
00000080: a4f9 e8bd 0380 0fbf c1cf 79bf e99e 3ebf
00000090: a3eb 98bf b416 ebbe a714 a53f a84f d73f
000000a0: acf8 1dc0 f3fc 543f a6a6 c8be 7b85 04bf
000000b0: e310 8abd 4718 d1be 3d63 bd3e e6c3 cbbe
000000c0: 1af1 77be e3f3 9ebd 5731 88bf e7f6 bcbc
000000d0: 252d 053f 583d f1be 4578 84bf 6f04 67be
000000e0: 0e1c ae3d bb67 f53d d69b d43d 8afc a33f
000000f0: 0e14 89bf 0474 b8bf b150 003f 4485 27bf
00000100: c3a4 82bf e3b2 81bd 9d65 7fbe 2bdd 42bf
00000110: 2137 bcbe 5df5 7abf 8daa 7abf c8ac 1a40
00000120: a60b dbbf ad70 3d40 e2c0 25bf 8462 2dbf
00000130: 2637 463d 4614 763e 5d21 db3e 288c e53c
00000140: 91f0 8a3e d33e 943e 931d b2be fc90 ac3f
00000150: 5cd4 5a3e 841e b6be 764a 953e 74ce 34be
00000160: 85e1 80bf f2d1 8ebd 570e dd3e 8033 263f
00000170: 4e46 70bf d5a9 5fbf b4e2 bcbe d281 c0bd
00000180: 3b78 24bd 3cb9 aebf ef9c 4b3f 0f20 b53f
00000190: a4c0 69bf 0e8c 52be 4e57 c6be 6a46 b63d
000001a0: b699 5abd e332 1340 89fb cabf ffa9 7cbf
000001b0: cd7b 623f e37b d63f 3d60 183f 3d79 d13e
000001c0: 4b6c b9bd 090a 823f b888 d8be ddd9 853e
000001d0: 8f9b 1abf 75e7 383f 12d3 b23e d9f5 a03e
000001e0: 6d4c 42be 4689 603f 576a f53c ebf1 9f3e
000001f0: e44b ac3f 2123 b33f 6617 1bbf 59c5 84bb
00000200: 652b 483f 4a37 c7be 1c1e 4c3f 5c48 bbbe
00000210: 718a 7d3f f5d9 b93e 24de 1d3d 501c e1bf
00000220: 0a86 9c3f 4a9a 39bf cf3e 673e f530 47bf
00000230: cfcf e4be 5c1f edbe 3013 e7be dd00 863e
00000240: 0fec 223e 2671 c23f a1c2 213f 6f43 15be
00000250: 4ef2 28bf 2709 3ebe 9db6 083e 6d57 503f
00000260: bb33 353f d7a3 9ebe 83ae 70be c730 88bf
00000270: db77 983e 818a 92bc f988 f03c 5efd 82bd
00000280: a90f 51bf 18c6 8fbe c2f5 b7bf 6f6e 26bf
00000290: 9846 31bf 989d 96be 6e2c b3bf 61cd 823f
000002a0: da7b 173f 8221 e8bd f1e6 a0bf b787 32be
000002b0: 067d 6cbf f8b2 debe f7fb a7bc be65 143f
000002c0: dc4b c6bf 1034 f43d ba63 a3bd e2c6 9cbe
000002d0: 4d6a 5c3f f897 1d3f b7ec 303f cf04 e83e
000002e0: 018b 5dbf cb75 5cbf 1d9b be3e 3c54 aa3f
000002f0: e1a4 96bc 75a5 c8be 0754 253f 6ce5 ca3e
00000300: aca0 d93c b6f6 313e 19f5 bf3e f116 633f
00000310: 1d33 643f ba73 593e 63ae ec3e d639 5cbf
00000320: 0bac 88bf ab4a fe3e aabc 26bd 586f 3abd
00000330: eeae 9abf 0906 2c3f 8ebe 0b3f 754f 13bf
00000340: 0229 b5be 8c41 a23d 759b cfbd 2b7b a3be
00000350: 1b07 14bf 73da 4dbf b03e e13e 1459 81bf
00000360: 8395 3cbe 836e 373d d03f 663f 4e1a 67bf
00000370: c93d d03f 5615 89be 562d 57be dc3b 69bf
00000380: 2e21 ae3f 38f4 e53e 0c5c 10bf b381 e43e
00000390: 7888 503f d33f c6be d524 983f 2a8a 6bbf
000003a0: f6e5 e4be 7b2e ccbe 63d0 c83f c0aa 0fbf
000003b0: a444 5abf 24c2 8b3f d410 e33e 4f2e 49bf
000003c0: 84eb 0b3e 628a 9b3f 766c 373f 7f23 9dbd
000003d0: 6006 87bf bf2e d43e 4c96 80bd a39a 24bf
000003e0: 54bb 2c3f 18d0 a93d 1070 b23d 3149 2bbf
000003f0: e64d de3c 60e8 113f f07a 113f b05b a4bd

encoder.latent.backbone.c_layers.0.layer.kernel.kernel.log_dt f4 [16]
-5.0205064 -6.625012 -6.293296 -5.409979 -6.2698636 -2.7226684 -5.0838623 -4.7633343
-4.6447444 -3.777181 -6.677744 -4.998174 -5.0203433 -3.7672296 -5.3761725 -5.6127224
00000000: fda7 a0c0 1900 d4c0 ae62 c9c0 8c1e adc0
00000010: b9a2 c8c0 3340 2ec0 00af a2c0 3c6d 98c0
00000020: bfa1 94c0 55bd 71c0 14b0 d5c0 0bf1 9fc0
00000030: a7a6 a0c0 4a1a 71c0 9b09 acc0 6c9b b3c0

encoder.latent.backbone.c_layers.0.layer.kernel.kernel.B f4 [1, 16, 8, 2]
-0.1928983 -10.357549 0.039044693 -3.6761353 0.029824637 -2.2892773 0.015749132 -1.7252563
0.23101346 1.4398073 0.07452622 1.1789341 0.4065528 0.9586489 -0.48834997 -0.5102281
0.13860217 -10.216852 0.1733158 -3.3132946 0.1353011 -2.4238622 -0.28840724 -1.3836992
0.36614716 1.5304711 0.42475486 1.2221119 0.5594497 0.95418745 -0.34196383 -0.6928665
-0.034092043 -10.545422 0.13600835 -3.3644755 0.13904786 -1.9965047 -0.3097326 -1.5378382
0.39869425 1.5055234 0.39248428 0.9886046 0.5285497 0.69408774 -0.59843534 -0.68320334
-0.053792328 -10.307392 0.005201405 -3.4249213 -0.07489813 -2.2447467 -0.041946597 -1.548538
0.04891163 1.3050632 0.13562724 1.088026 0.32538265 0.8918012 -0.48746726 -0.4089334
-0.051244292 -10.140686 0.035543423 -3.6423123 0.04161806 -2.3165913 -0.21179983 -1.4845371
0.010297622 1.4161834 0.3053628 1.2681365 0.18358524 0.7925241 -0.71804905 -0.6361736
-0.23933575 -10.334114 -0.17635354 -3.6104913 -0.20284052 -2.0508826 -0.13276452 -1.4963334
0.017231489 1.2054167 0.3068144 0.9591744 0.19580413 0.9534103 -0.71375126 -0.31773204
0.0044084527 -10.199128 0.0039401525 -3.5778835 -0.1617548 -2.2534025 -0.21773295 -1.7003261
0.19873615 1.2076241 0.1017118 1.0183043 0.38537234 0.77075064 -0.50452995 -0.51478446
-0.0077672987 -10.1621065 -0.14150706 -3.4374535 -0.17642307 -2.238191 -0.030150322 -1.559026
0.18285365 1.2224885 0.24541262 0.99817055 0.3693314 0.7673597 -0.63646346 -0.46298936
-0.07311792 -10.174268 0.05982575 -3.3838685 0.056410998 -2.165118 -0.2229944 -1.4784385
0.2560151 1.4250705 0.084526375 1.197668 0.17770074 1.0796658 -0.72419745 -0.5454918
0.11539024 -10.207012 0.05533653 -3.458003 -0.09213223 -2.0449102 -0.094127975 -1.642587
0.18511699 1.2858495 0.15983035 1.1398147 0.37563574 0.7805806 -0.49846792 -0.2969335
0.02954271 -10.273843 -0.02296162 -3.4124963 -0.064871475 -2.1620224 -0.18463376 -1.6062696
0.1506183 1.3080134 0.17049973 1.0403521 0.27414677 0.8102013 -0.54066354 -0.45209947
-0.10434864 -10.250335 -0.107222065 -3.482018 -0.033343945 -2.2395701 -0.048616014 -1.6851267
0.07973379 1.3590348 0.2249828 0.99457324 0.26756832 0.8850796 -0.5392631 -0.35492742
-0.0476723 -10.239602 -0.06353133 -3.5060134 -0.06360121 -2.3100066 0.025475757 -1.6049504
0.09532235 1.2831546 0.14917958 1.0894808 0.26595014 0.8205667 -0.40983474 -0.37603596
-0.34391564 -10.376977 -0.2885526 -3.6163309 -0.018785277 -2.3086581 -0.36580414 -1.720868
0.27037376 1.4190658 0.0017554251 0.9558707 0.14247507 0.74522096 -0.4873472 -0.5956656
-0.180801 -10.077559 -0.11445821 -3.382617 -0.24645947 -2.3138342 -0.28552008 -1.7617172
0.27792263 1.1922655 -0.121283 0.90519786 0.17644428 1.0351994 -0.49154738 -0.6215039
-0.025967618 -10.250023 -0.04589744 -3.4720728 -0.07898915 -2.1992776 -0.11874327 -1.6001495
0.1395581 1.3248383 0.14589706 1.0842165 0.34341717 0.82680494 -0.5389386 -0.36891565
00000000: 2287 45be 85b8 25c1 54ed 1f3d cd45 6bc0
00000010: cc52 f43c 8583 12c0 5304 813c 33d5 dcbf
00000020: cb8e 6c3e 9b4b b83f 34a1 983d 50e7 963f
00000030: b027 d03e 046a 753f 0209 fabe 4f9e 02bf
00000040: baed 0d3e 3a78 23c1 b279 313e 050d 54c0
00000050: 5f8c 0a3e 8f20 1bc0 1daa 93be 0e1d b1bf
00000060: a477 bb3e 7ae6 c33f 7879 d93e 2a6e 9c3f
00000070: 1838 0f3f a145 743f e215 afbe b35f 31bf
00000080: 19a4 0bbd 0cba 28c1 c645 0b3e 9153 57c0
00000090: 9062 0e3e 778d ffbf 4595 9ebe e2d7 c4bf
000000a0: a721 cc3e feb4 c03f b3f3 c83e 3115 7d3f
000000b0: 084f 073f bcaf 313f 0f33 19bf 6ae6 2ebf
000000c0: 5855 5cbd 14eb 24c1 8c70 aa3b e931 5bc0
000000d0: 3164 99bd eea9 0fc0 32d0 2bbd 7e36 c6bf
000000e0: 9057 483d 500c a73f dee1 0a3e 7044 8b3f
000000f0: 8e98 a63e 154d 643f 4f95 f9be b85f d1be
00000100: 89e5 51bd 4040 22c1 fb95 113d a51b 69c0
00000110: b377 2a3d 0843 14c0 0ee2 58be 5005 bebf
00000120: 5bb7 283c 7f45 b53f 8358 9c3e 4c52 a23f
00000130: c5fd 3b3e dce2 4a3f 10d2 37bf 46dc 22bf
00000140: 6e14 75be 8858 25c1 0696 34be 4a12 67c0
00000150: 6db5 4fbe a941 03c0 6cf3 07be da87 bfbf
00000160: 0d29 8d3c 184b 9a3f c716 9d3e 748c 753f
00000170: e180 483e b312 743f 67b8 36bf c6ad a2be
00000180: c874 903b a12f 23c1 651c 813b 0bfc 64c0
00000190: 0da3 25be bf37 10c0 63f5 5ebe 49a4 d9bf
000001a0: 7d81 4b3e 6d93 9a3f 474e d03d cc57 823f
000001b0: 864f c53e ea4f 453f e028 01bf eac8 03bf
000001c0: d384 febb fd97 22c1 3ae7 10be 3dff 5bc0
000001d0: 40a8 34be 853e 0fc0 cffd f6bc 2a8e c7bf
000001e0: fd3d 3b3e 817a 9c3f 724d 7b3e 1b88 7f3f
000001f0: 0119 bd3e af71 443f 45ef 22bf f10c edbe
00000200: d9be 95bd cdc9 22c1 d80b 753d 4d91 58c0
00000210: 380f 673d 4b91 0ac0 a558 64be 793d bdbf
00000220: 6914 833e b668 b63f 2a1c ad3d 2f4d 993f
00000230: 2ff7 353e 7d32 8a3f 0165 39bf 5aa5 0bbf
00000240: b851 ec3d ec4f 23c1 8fa8 623d ec4f 5dc0
00000250: d3af bcbd cfdf 02c0 2bc6 c0bd 4a40 d2bf
00000260: 4f8f 3d3e b796 a43f 91aa 233e 73e5 913f
00000270: 5453 c03e 21d4 473f 3037 ffbe ab07 98be
00000280: 8e03 f23c a961 24c1 021a bcbc 5766 5ac0
00000290: 56db 84bd 935e 0ac0 a210 3dbe 3e9a cdbf
000002a0: af3b 1a3e fc6c a73f 7b97 2e3e 422a 853f
000002b0: f75c 8c3e 5a69 4f3f ed68 0abf 9579 e7be
000002c0: bdb4 d5bd 5f01 24c1 3e97 dbbd 62d9 5ec0
000002d0: a993 08bd 1e55 0fc0 9621 47bd 3bb2 d7bf
000002e0: 784b a33d daf4 ad3f e461 663e 5a9c 7e3f
000002f0: b7fe 883e 9494 623f 260d 0abf 0cb9 b5be
00000300: 0844 43bd 69d5 23c1 b71c 82bd 8662 60c0
00000310: 5a41 82bd 26d7 13c0 89b2 d03c 046f cdbf
00000320: 5d38 c33d 693e a43f 88c2 183e 1b74 8b3f
00000330: 9e2a 883e a910 523f dcd5 d1be c987 c0be
00000340: b615 b0be 1908 26c1 2bbd 93be f771 67c0
00000350: 95e3 99bc 0ec1 13c0 ae4a bbbe 6745 dcbf
00000360: 6e6e 8a3e f3a3 b53f 4b16 e63a f1b3 743f
00000370: fce4 113e cdc6 3e3f 9285 f9be 8a7d 18bf
00000380: e623 39be af3d 21c1 1169 eabd cc7c 58c0
00000390: df5f 7cbe dc15 14c0 b02f 92be f37f e1bf
000003a0: e04b 8e3e 289c 983f 3963 f8bd 0cbb 673f
000003b0: cfad 343e 6a81 843f 19ac fbbe e11a 1fbf
000003c0: 0bba d4bc 1800 24c1 f4fe 3bbd 7136 5ec0
000003d0: 10c5 a1bd f7c0 0cc0 ac2f f3bd b3d1 ccbf
000003e0: 52e8 0e3e 4d94 a93f 0a66 153e 9bc7 8a3f
000003f0: 60d4 af3e 7da9 533f e1f7 09bf 83e2 bcbe

encoder.latent.backbone.c_layers.0.layer.kernel.kernel.P f4 [1, 16, 8, 2]
0.07944056 -7.0832725 0.032812547 -2.5239344 -0.17397247 -1.4823054 -0.18499698 -1.0494355
-0.010724674 0.7974249 0.234095 0.86424226 0.12653565 0.49031407 -0.49129802 -0.3553904
-0.23010479 -7.433861 0.1430736 -2.6899018 -0.28312021 -1.6734896 0.15341315 -1.3752508
-0.15419836 0.6764943 -0.0960078 0.50286454 -0.010467155 0.3332402 -0.6180584 -0.24797088
0.030929865 -7.179524 -0.23145013 -2.6488786 -0.05356962 -1.7281039 0.1451087 -0.92671376
0.2717017 0.6974111 -0.06553501 0.49561086 0.022038706 0.6643348 -0.54777896 -0.002091087
-0.020984247 -7.2501683 0.03441221 -2.5386305 -0.14568785 -1.512153 -0.0010058655 -1.194893
0.09413834 0.9837115 0.15720104 0.8389961 0.21702288 0.55065525 -0.4345341 -0.29627964
0.10341617 -7.2736797 -0.15792671 -2.250991 -0.18027952 -1.5757904 0.055343535 -1.2837361
0.21256898 0.7677225 0.0032920674 0.6157487 0.36589658 0.6361246 -0.2587517 -0.10928336
0.14137618 -7.0681124 -0.107151896 -2.3413696 0.076165535 -1.5936391 0.04697927 -1.2014352
0.19092697 1.0221297 0.013450158 0.7550935 0.32750243 0.5389567 -0.2759402 -0.2679146
-0.088349275 -7.2896857 -0.12410586 -2.5064163 0.07055883 -1.445781 -0.13391386 -1.0351026
0.011583613 0.995917 0.20982043 0.8240395 0.14032742 0.5087208 -0.47784337 -0.34483916
-0.1100305 -7.2708206 -0.108977705 -2.3817973 -0.11961698 -1.4566473 -0.13660128 -1.1976955
0.023885181 0.9756039 0.061491817 0.80786616 0.15383953 0.5343592 -0.3424846 -0.22784139
0.103597134 -7.2448335 0.056379396 -2.5793757 -0.19097278 -1.6364877 0.061075088 -1.2547901
0.06375935 0.77688944 0.25836378 0.6156787 0.34801635 0.6879407 -0.24142347 -0.15267885
-0.22683759 -7.2729607 -0.11171868 -2.572713 -0.024175508 -1.5665983 -0.097063564 -1.0655376
-0.07343539 0.8882259 0.1837171 0.59384346 0.120236985 0.5683137 -0.3882949 -0.4645112
-0.036441818 -7.297797 0.006609182 -2.4836612 -0.0016779633 -1.5287454 -0.051370963 -1.1016158
-0.042732596 0.878018 0.18213382 0.7826804 0.277487 0.6329354 -0.4486093 -0.23109864
0.028928097 -7.185178 -0.0007097311 -2.435755 -0.1139967 -1.570238 -0.1277434 -1.1793983
0.14418794 0.9487995 0.081889905 0.7291284 0.26550296 0.5519704 -0.44531757 -0.3297614
-0.061230727 -7.1521716 -0.06406096 -2.3648574 -0.08645406 -1.5352209 -0.08238488 -1.1643635
0.22498915 0.93204445 0.15862398 0.7235448 0.24877305 0.6256348 -0.38196513 -0.3209147
0.1780396 -6.9860444 0.07686719 -2.2625284 -0.12333003 -1.2529597 -0.078474626 -0.98481065
-0.09318623 0.778114 0.07571858 0.8843296 0.5054225 0.71243805 -0.49631292 -0.046317067
0.17369014 -7.125233 0.093693495 -2.6756928 0.20065968 -1.3734621 -0.12148715 -0.9667803
-0.08384138 0.78831166 0.014188028 0.9252328 0.34440053 0.395048 -0.49618632 -0.055242997
-0.06966664 -7.251148 -0.03285612 -2.4868655 -0.098870754 -1.5179636 -0.05054724 -1.107734
0.17369811 0.8871865 0.15868421 0.76312745 0.18653977 0.5925007 -0.44938087 -0.32379282
00000000: bbb1 a23d 2baa e2c0 7366 063d 2488 21c0
00000010: d725 32be 2fbc bdbf d96f 3dbe e753 86bf
00000020: 8bb6 2fbc 0a24 4c3f 9ab6 6f3e fb3e 5d3f
00000030: 9092 013e 720a fb3e 6a8b fbbe bbf5 b5be
00000040: 97a0 6bbe 30e2 edc0 e381 123e 5a27 2cc0
00000050: 22f5 90be e834 d6bf 5618 1d3e 3808 b0bf
00000060: 2de6 1dbe bb2e 2d3f bd9f c4bd bbbb 003f
00000070: 6e7e 2bbc 769e aa3e 1339 1ebf 14ec 7dbe
00000080: a160 fd3c a9be e5c0 4301 6dbe 3a87 29c0
00000090: d16b 5bbd 8232 ddbf 6097 143e 1d3d 6dbf
000000a0: 7c1c 8b3e 8989 323f 3837 86bd b5c0 fd3e
000000b0: 848a b43c d811 2a3f 3e3b 0cbf 9e0a 09bb
000000c0: 28e7 abbc 6101 e8c0 d1f3 0c3d ec78 22c0
000000d0: 322f 15be 3b8e c1bf 3fd7 83ba 41f2 98bf
000000e0: 9acb c03d 84d4 7b3f 4ff9 203e 73c8 563f
000000f0: 3f3b 5e3e bef7 0c3f 417b debe f7b1 97be
00000100: dbcb d33d fcc1 e8c0 8ab7 21be 3d10 10c0
00000110: 329b 38be 80b3 c9bf e7af 623d 7751 a4bf
00000120: afab 593e 7689 443f babf 573b b5a1 1d3f
00000130: cc56 bb3e 10d9 223f 1a7b 84be f4cf dfbd
00000140: ebc4 103e fa2d e2c0 7472 dbbd 00d9 15c0
00000150: adfc 9b3d 5efc cbbf 566d 403d a1c8 99bf
00000160: 5c82 433e 25d5 823f 0d5e 5c3c cf4d 413f
00000170: 66ae a73e 11f9 093f 0948 8dbe 1a2c 89be
00000180: 77f0 b4bd 1b45 e9c0 372b febd 2069 20c0
00000190: 2681 903d 5a0f b9bf b720 09be 3e7e 84bf
000001a0: 32c9 3d3c 6bf4 7e3f 2bdb 563e 41f4 523f
000001b0: feb1 0f3e 873b 023f e3a7 f4be c28e b0be
000001c0: ac57 e1bd 90aa e8c0 b42f dfbd 5e6f 18c0
000001d0: bff9 f4bd 6b73 babf 35e1 0bbe 164e 99bf
000001e0: dbaa c33c 2dc1 793f d8de 7b3d 51d0 4e3f
000001f0: 1c88 1d3e c4cb 083f 245a afbe 414f 69be
00000200: bc2a d43d add5 e7c0 15ee 663d 7e14 25c0
00000210: 5e8e 43be 6e78 d1bf df29 7a3d f69c a0bf
00000220: 4394 823d 3ae2 463f 4248 843e 1f9d 1d3f
00000230: 332f b23e e21c 303f b737 77be d857 1cbe
00000240: 1d48 68be 18bc e8c0 c3cc e4bd 54a7 24c0
00000250: b70b c6bc 4b86 c8bf 43c9 c6bd 8963 88bf
00000260: 4b65 96bd c662 633f 5620 3c3e 2006 183f
00000270: cf3e f63d 027d 113f 97ce c6be 69d4 edbe
00000280: 0444 15bd 8e87 e9c0 d691 d83b 4ef4 1ec0
00000290: 1bef dbba eead c3bf 5c6a 52bd bf01 8dbf
000002a0: 6008 2fbd cac5 603f 4a81 3a3e be5d 483f
000002b0: c712 8e3e 0e08 223f 1eb0 e5be 1fa5 6cbe
000002c0: 9efa ec3c faec e5c0 3f0d 3aba 69e3 1bc0
000002d0: 1a77 e9bd 8ffd c8bf 2acf 02be 86f6 96bf
000002e0: 01a6 133e 86e4 723f e5b5 a73d 29a8 3a3f
000002f0: 01f0 873e ef4d 0d3f aa00 e4be 7cd6 a8be
00000300: 12cd 7abd 97de e4c0 6532 83bd d359 17c0
00000310: d40e b1bd 1e82 c4bf 67b9 a8bd dd09 95bf
00000320: 8e63 663e 779a 6e3f 536e 223e 3b3a 393f
00000330: 5dbe 7e3e 9a29 203f ef90 c3be ee4e a4be
00000340: 0350 363e ad8d dfc0 8c6c 9d3d 44cd 10c0
00000350: 7494 fcbd fc60 a0bf 4eb7 a0bd 8d1c 7cbf
00000360: 6cd8 bebd 7b32 473f 5812 9b3d 6d63 623f
00000370: 5e63 013f 5762 363f ba1c febe f7b6 3dbd
00000380: d4db 313e e901 e4c0 60e2 bf3d 8d3e 2bc0
00000390: bb79 4d3e 9bcd afbf 41ce f8bd ea7e 77bf
000003a0: 08b5 abbd cbce 493f e774 683c 0fdc 6c3f
000003b0: 4455 b03e bb43 ca3e 220c febe 7b46 62bd
000003c0: 62ad 8ebd 6809 e8c0 2494 06bd ce28 1fc0
000003d0: c07c cabd a24c c2bf 9f0a 4fbd 3aca 8dbf
000003e0: ebdd 313e a81e 633f 1d7e 223e 525c 433f
000003f0: 4804 3f3e 20ae 173f 4015 e6be 2cc8 a5be

encoder.latent.backbone.c_layers.0.layer.kernel.kernel.inv_w_real f4 [16, 8]
-0.8281284 -0.59685147 -0.64285296 -0.7110235 -0.80004734 -0.57680666 -0.7873223 -0.67541
-0.5040903 -0.4760398 -0.46130827 -0.560646 -0.92723024 -0.96082383 -0.9831834 -0.9608027
-0.7167146 -0.4782294 -0.47636816 -0.8937383 -0.82341737 -0.93799806 -0.97101253 -1.0876884
-0.7453816 -0.6270198 -0.71677154 -0.6530868 -0.6759585 -0.6543801 -0.6908304 -0.68221307
-0.63090724 -0.71075916 -0.61316437 -0.50016147 -0.8031499 -0.8279282 -0.6219132 -0.9190725
-0.8256098 -0.8154244 -0.6140782 -0.616815 -0.60083306 -0.78971124 -0.7105402 -0.97379893
-0.64030534 -0.70431715 -0.7703277 -0.7782302 -0.5590736 -0.6150661 -0.7813663 -0.6596137
-0.63936275 -0.71286905 -0.77298915 -0.6320376 -0.6280748 -0.6379044 -0.7521386 -0.7449718
-0.6716518 -0.59744287 -0.59532547 -0.588223 -0.8091036 -0.82007957 -0.5798963 -0.85395586
-0.5987745 -0.6514458 -0.64741856 -0.8510902 -0.73401225 -0.85080403 -0.77116007 -0.540315
-0.6010324 -0.67542905 -0.712566 -0.7350523 -0.73237395 -0.6523989 -0.6479109 -0.76004356
-0.7324772 -0.7258457 -0.6518676 -0.6433743 -0.64891315 -0.7313454 -0.7184509 -0.6533913
-0.7167021 -0.76197565 -0.69128835 -0.6627725 -0.66464233 -0.70976853 -0.6538672 -0.65321106
-0.8550875 -0.8419129 -0.92449874 -0.83071095 -0.8109186 -0.52820045 -0.5229452 -0.921369
-0.7893681 -0.53658813 -0.8423631 -0.8398353 -0.8264703 -0.4942849 -0.8934671 -1.0374342
-0.6708429 -0.6797685 -0.7023896 -0.74694645 -0.7137518 -0.64280814 -0.7344131 -0.64890116
00000000: 3900 54bf 42cb 18bf 0392 24bf a305 36bf
00000010: e7cf 4cbf 9aa9 13bf f48d 49bf abe7 2cbf
00000020: 100c 01bf 7dbb f3be 9930 ecbe 7f86 0fbf
00000030: f65e 6dbf 8df8 75bf e8b1 7bbf 2af7 75bf
00000040: 9c7a 37bf 7cda f4be 87e6 f3be 09cc 64bf
00000050: 7bcb 52bf a420 70bf 4794 78bf 6039 8bbf
00000060: 54d1 3ebf 5f84 20bf 577e 37bf b230 27bf
00000070: 9e0b 2dbf 7485 27bf 43da 30bf 84a5 2ebf
00000080: 2383 21bf 50f4 35bf 57f8 1cbf 950a 00bf
00000090: 3b9b 4dbf 1af3 53bf b435 1fbf 5648 6bbf
000000a0: 2a5b 53bf a7bf 50bf 3b34 1dbf 96e7 1dbf
000000b0: 32d0 19bf 842a 4abf f6e5 35bf e34a 79bf
000000c0: 0deb 23bf 214e 34bf 3234 45bf 183a 47bf
000000d0: 731f 0fbf f974 1dbf 9f07 48bf 72dc 28bf
000000e0: 47ad 23bf 967e 36bf 9ee2 45bf 37cd 21bf
000000f0: 83c9 20bf b44d 23bf 288c 40bf 79b6 3ebf
00000100: 5ff1 2bbf 04f2 18bf 4067 18bf c895 16bf
00000110: 6a21 4fbf bcf0 51bf 1574 14bf da9c 5abf
00000120: 4949 19bf 27c5 26bf 39bd 25bf 0ce1 59bf
00000130: 3ae8 3bbf 4bce 59bf bf6a 45bf 1552 0abf
00000140: 42dd 19bf ebe8 2cbf ba6a 36bf 632c 3cbf
00000150: dc7c 3bbf 9d03 27bf 7ddd 25bf 3792 42bf
00000160: a083 3bbf 06d1 39bf cce0 26bf 2eb4 24bf
00000170: 2c1f 26bf 7439 3bbf 66ec 37bf a744 27bf
00000180: ca79 37bf d610 43bf 46f8 30bf 75ab 29bf
00000190: 0026 2abf 64b3 35bf d763 27bf d738 27bf
000001a0: 04e7 5abf 9b87 57bf f3ab 6cbf 79a9 54bf
000001b0: 5d98 4fbf 2538 07bf bddf 05bf d7de 6bbf
000001c0: 0714 4abf d75d 09bf 1ca5 57bf 72ff 56bf
000001d0: 8f93 53bf e912 fdbe 43ba 64bf a5ca 84bf
000001e0: 5cbc 2bbf 4f05 2ebf cecf 33bf e237 3fbf
000001f0: 70b8 36bf 138f 24bf 7f02 3cbf 631e 26bf

encoder.latent.backbone.c_layers.0.layer.kernel.kernel.w_imag f4 [16, 8]
-81.04382 -25.466652 -13.701688 -8.230916 -5.1149974 -2.7859662 -1.2822708 -0.26514614
-80.71081 -25.738867 -13.579686 -8.559356 -4.8090277 -2.7729032 -1.2451241 -0.069061406
-80.735634 -25.407406 -13.900547 -8.414509 -4.809472 -2.8902264 -1.4246708 -0.051236477
-80.91001 -25.693068 -13.741187 -8.431717 -5.0719357 -2.8938432 -1.3608379 -0.35786316
-81.020134 -25.501928 -13.697332 -8.454515 -4.945803 -2.9310343 -1.1681743 -0.35747245
-81.075455 -25.545822 -13.947808 -8.452785 -4.964185 -2.982661 -1.2335012 -0.38778812
-80.84546 -25.543634 -13.870157 -8.256663 -5.1534753 -2.7876506 -1.4189048 -0.2608477
-80.90364 -25.691463 -13.760116 -8.280152 -5.1506414 -2.9575682 -1.4264643 -0.27486962
-80.97728 -25.612816 -13.693373 -8.45962 -4.9272375 -2.746109 -1.213519 -0.14122027
-80.949974 -25.58671 -13.886555 -8.337592 -5.276467 -2.7907107 -1.4887117 -0.40967062
-80.95198 -25.686432 -13.893468 -8.337622 -5.0478296 -2.9312658 -1.2789278 -0.3001742
-81.071686 -25.68429 -13.773057 -8.3010025 -5.0340343 -2.9491997 -1.338952 -0.32671452
-80.95546 -25.61556 -13.8022785 -8.344691 -5.002476 -2.8627226 -1.3937619 -0.37064186
-80.90186 -25.544382 -13.723183 -8.25936 -5.017588 -2.920815 -1.1977986 -0.12624626
-81.11971 -25.71518 -13.719753 -8.134503 -5.1354566 -2.9960294 -1.101455 -0.09591436
-80.92969 -25.628 -13.802821 -8.37128 -5.0394907 -2.863764 -1.4102725 -0.30603567
00000000: 7016 a2c2 b4bb cbc1 1d3a 5bc1 d5b1 03c1
00000010: 0fae a3c0 454d 32c0 7321 a4bf 3cc1 87be
00000020: ef6b a1c2 33e9 cdc1 6546 59c1 1ff3 08c1
00000030: 8ee3 99c0 3f77 31c0 3a60 9fbf 1170 8dbd
00000040: a578 a1c2 5e42 cbc1 a468 5ec1 d4a1 06c1
00000050: 32e7 99c0 78f9 38c0 9d5b b6bf 57dd 51bd
00000060: edd1 a1c2 678b cdc1 e7db 5bc1 50e8 06c1
00000070: 4c4d a2c0 ba34 39c0 f02f aebf d739 b7be
00000080: 4f0a a2c2 f303 ccc1 4628 5bc1 b245 07c1
00000090: 0544 9ec0 1196 3bc0 bc86 95bf a106 b7be
000000a0: a226 a2c2 d85d ccc1 392a 5fc1 9b3e 07c1
000000b0: 9bda 9ec0 ebe3 3ec0 5ee3 9dbf 2a8c c6be
000000c0: e0b0 a1c2 5d59 ccc1 2aec 5dc1 4b1b 04c1
000000d0: 45e9 a4c0 de68 32c0 ac9e b5bf d48d 85be
000000e0: aace a1c2 1e88 cdc1 6f29 5cc1 817b 04c1
000000f0: 0ed2 a4c0 cc48 3dc0 6296 b6bf b6bb 8cbe
00000100: 5ef4 a1c2 0ce7 ccc1 0e18 5bc1 9b5a 07c1
00000110: eeab 9dc0 40c0 2fc0 9754 9bbf 0c9c 10be
00000120: 63e6 a1c2 95b1 ccc1 542f 5ec1 c766 05c1
00000130: d1d8 a8c0 019b 32c0 1b8e bebf 59c0 d1be
00000140: 6ae7 a1c2 d07d cdc1 a54b 5ec1 e666 05c1
00000150: d287 a1c0 dc99 3bc0 e8b3 a3bf 6fb0 99be
00000160: b424 a2c2 6d79 cdc1 715e 5cc1 e8d0 04c1
00000170: cf16 a1c0 b0bf 3cc0 c762 abbf 2047 a7be
00000180: 32e9 a1c2 abec ccc1 22d6 5cc1 db83 05c1
00000190: 4914 a0c0 d936 37c0 ca66 b2bf c5c4 bdbe
000001a0: c1cd a1c2 e55a ccc1 2892 5bc1 5726 04c1
000001b0: 1590 a0c0 a2ee 3ac0 7751 99bf b346 01be
000001c0: 4b3d a2c2 b0b8 cdc1 1c84 5bc1 ed26 02c1
000001d0: a955 a4c0 f2be 3fc0 7afc 8cbf bf6e c4bd
000001e0: 00dc a1c2 2506 cdc1 5bd8 5cc1 c3f0 05c1
000001f0: 8243 a1c0 e947 37c0 cf83 b4bf b5b0 9cbe

encoder.latent.backbone.c_layers.0.layer.output_linear.0.weight f4 [32, 16, 1]
-0.03851708 0.14450043 0.122416 0.072942026 0.011076258 0.15321262 -0.022093205 -0.080845155
-0.022070665 0.27748093 0.14239554 0.2284996 -0.19684502 0.16480231 0.1459132 -0.067597575
-0.020693699 -0.034449026 -0.30987257 0.29773515 -0.040600803 -0.08694965 0.036174722 0.065654635
-0.16366604 0.11392132 -0.02059698 -0.10575273 0.07032629 -0.23572983 0.508809 -0.1861788
-0.035936464 -0.24445654 0.0014044839 -0.14745578 -0.036079686 0.18990107 0.15847234 -0.25863567
-0.18465827 0.02428116 0.027373595 -0.14183299 -0.16729237 0.18634045 -0.12199065 0.111304104
-0.18193015 -0.08898648 0.13922852 -0.14283642 -0.12240721 0.020101057 -0.23040368 0.022620346
0.06671133 0.12041863 -0.02736008 -0.09930099 -0.047014043 -0.021045791 0.41623256 -0.10634977
-0.06666738 0.14688775 -0.18497837 -0.07347299 -0.13608192 -0.14582002 -0.13033096 -0.20391524
-0.17478651 0.2991565 -0.25689214 0.16340896 -0.010549424 0.10795963 -0.40819338 -0.09603722
0.089084126 -0.22996381 0.108771384 0.24620241 0.20155591 -0.1011103 0.117176406 0.13440302
-0.19361971 0.034631472 0.02324248 -0.16522928 -0.057223137 -0.058710452 -0.21357009 -0.040796697
0.13812597 0.24756908 -0.08389565 0.19673921 0.20544462 0.12559845 -0.046093475 -0.08362
0.16302174 0.057144653 -0.3154201 -0.16034915 -0.21204588 0.008219083 -0.07931041 -0.19748853
0.05498801 -0.25233418 -0.27753353 -0.20692524 0.35750324 0.23670201 0.3403477 0.20326756
0.07899951 -0.068720415 -0.16650507 -0.29486644 0.07676882 -0.22487868 0.05468979 -0.2156791
0.12639612 0.13169336 -0.07836945 -0.0023751436 0.043883096 0.359697 0.036162443 0.04172601
0.009857365 0.105893426 -0.05899958 -0.25465754 0.03408947 0.2593583 -0.14755656 0.14164977
0.04168336 -0.25525904 -0.15381756 -0.025497403 -0.24865724 -0.030511891 0.018937172 0.20327935
0.24139224 0.18272638 0.26219964 -0.20799877 -0.1856757 -0.051845793 -0.2519332 0.07349782
0.17827635 -0.09901653 0.12326927 -0.20908882 0.15655576 -0.15515073 0.045633893 0.14035372
0.20499887 0.02754333 -0.13987464 0.18483508 0.16311944 -0.12263245 -0.11128267 -0.26879543
0.16724084 -0.049353138 0.14929065 0.09901056 -0.0240822 0.065665334 -0.325295 -0.1800901
-0.13660236 -0.15764104 0.11982321 -0.12632482 -0.016391318 -0.034594756 -0.056279056 -0.0039073974
0.117296465 -0.010580856 0.07509098 0.09955964 -0.16121545 0.07303302 0.06524906 0.036724117
-0.22145535 0.26490706 0.17905536 0.17011644 0.14779224 0.074730664 -0.39644253 0.2393415
-0.13173425 0.10123747 -0.21363863 -0.10863579 0.21167834 0.09886739 0.1887378 -0.11353563
-0.27173775 -0.11189003 0.097028226 -0.11953162 0.027920958 0.18338524 0.18181254 0.0856493
0.11197384 0.0579643 -0.18864426 0.12911159 0.17558688 -0.18374328 0.118530184 -0.084247775
0.09091913 -0.045873985 0.08925883 -0.13116713 -0.25193095 -0.06729625 0.4301552 0.2389885
0.033250354 -0.23947571 0.16643186 -0.3077953 -0.039041147 -0.11804805 -0.11694407 0.043858957
-0.16448209 -0.29850367 -0.056066196 0.054425105 -0.20777889 -0.38633302 -0.123508476 0.019573929
00000000: 16c4 1dbd ecf7 133e 3db5 fa3d a162 953d
00000010: 3179 353c c5e3 1c3e cffc b4bc 2592 a5bd
00000020: 8acd b4bc fb11 8e3e 23d0 113e cdfb 693e
00000030: be91 49be f0c1 283e 456a 153e 9970 8abd
00000040: d585 a9bc 6c1a 0dbd 9ea7 9ebe be70 983e
00000050: 074d 26bd a812 b2bd f22b 143d f075 863d
00000060: 1298 27be 954f e93d ffba a8bc e394 d8bd
00000070: 3b07 903d 2963 71be 4e41 023f a8a5 3ebe
00000080: 1d32 13bd d152 7abe a916 b83a a6fe 16be
00000090: 4bc8 13bd 6d75 423e 9346 223e e56b 84be
000000a0: 0f17 3dbe 49e9 c63c 973e e03c ab3c 11be
000000b0: b14e 2bbe 08d0 3e3e 3cd6 f9bd 68f3 e33d
000000c0: e64b 3abe 8b3e b6bd ec91 0e3e b643 12be
000000d0: a2b0 fabd f9aa a43c f1ee 6bbe 4e4e b93c
000000e0: f39f 883d 0b9e f63d 3f22 e0bc 515e cbbd
000000f0: cc91 40bd 3968 acbc 6f1c d53e e9cd d9bd
00000100: e888 88bd be69 163e f86a 3dbe 0279 96bd
00000110: 0f59 0bbe d851 15be 7b75 05be 28cf 50be
00000120: 3cfb 32be 0a2b 993e 5e87 83be ae54 273e
00000130: 7ed7 2cbc f019 dd3d b9fe d0be 29af c4bd
00000140: bd71 b63d a27b 6bbe 88c3 de3d 7c1c 7c3e
00000150: ac64 4e3e eb12 cfbd 2ffa ef3d f2a0 093e
00000160: 3f44 46be bbd9 0d3d 0367 be3c dd31 29be
00000170: cf62 6abd 5f7a 70bd 1eb2 5abe 701a 27bd
00000180: e570 0d3e c082 7d3e 7cd1 abbd 0176 493e
00000190: 1360 523e e19c 003e 83cc 3cbd f640 abbd
000001a0: 2cef 263e 8310 6a3d be7e a1be 9132 24be
000001b0: 8e22 59be 55a9 063c 7f6d a2bd 6f3a 4abe
000001c0: 1c3b 613d f231 81be e018 8ebe 36e4 53be
000001d0: aa0a b73e 0362 723e 0e42 ae3e 5f25 503e
000001e0: 7fca a13d 4abd 8cbd 4e80 2abe bcf8 96be
000001f0: f938 9d3d 9946 66be 6702 603d fbda 5cbe
00000200: fc6d 013e a0da 063e 2a80 a0bd 4ca8 1bbb
00000210: c3be 333d 352a b83e 121f 143d e5e8 2a3d
00000220: c980 213c a7de d83d 8ba9 71bd 7962 82be
00000230: 66a1 0b3d 9cca 843e 1119 17be a30c 113e
00000240: 2cbc 2a3d 50b1 82be 5a82 1dbe eedf d0bc
00000250: 01a0 7ebe 13f4 f9bc 2122 9b3c 7628 503e
00000260: 872f 773e a01c 3b3e 083f 863e a1fd 54be
00000270: c521 3ebe 415c 54bd 63fd 80be 0686 963d
00000280: 138e 363e 2ec9 cabd 9974 fc3d 611b 56be
00000290: 2750 203e d5df 1ebe 9bea 3a3d e3b8 0f3e
000002a0: 39eb 513e 8da2 e13c 4c3b 0fbe 6845 3d3e
000002b0: c808 273e b926 fbbd 2be8 e3bd 8e9f 89be
000002c0: 2f41 2b3e 8426 4abd a6df 183e 0cc6 ca3d
000002d0: 0948 c5bc 8c7b 863d 118d a6be 8a69 38be
000002e0: 7de1 0bbe a76c 21be df65 f53d 4b5b 01be
000002f0: 1647 86bc 3bb3 0dbd de84 66bd a009 80bb
00000300: 2139 f03d 545b 2dbc 4dc9 993d ede5 cb3d
00000310: aa15 25be 5692 953d 4da1 853d 076c 163d
00000320: 31c5 62be e6a1 873e 4a5a 373e 0133 2e3e
00000330: d956 173e 640c 993d 84fa cabe f015 753e
00000340: 58e5 06be 9755 cf3d 16c4 5abe 717c debd
00000350: 35c2 583e fc7a ca3d 7b44 413e 5e85 e8bd
00000360: 3621 8bbe 9a26 e5bd bcb6 c63d fecc f4bd
00000370: 7eba e43c 57c9 3b3e 112d 3a3e e668 af3d
00000380: 8a52 e53d f96b 6d3d f62b 41be d435 043e
00000390: 0ccd 333e 3327 3cbe f4bf f23d 198a acbd
000003a0: cf33 ba3d 5ce6 3bbd 55cd b63d ad50 06be
000003b0: 18fd 80be 9ed2 89bd 4d3d dc3e 67b9 743e
000003c0: 8631 083d 1f39 75be 1d6d 2a3e 5897 9dbe
000003d0: 9ce9 1fbd 2dc3 f1bd 5f80 efbd 73a5 333d
000003e0: fe6d 28be 79d5 98be aba5 65bd dcec 5e3d
000003f0: fdc3 54be 71cd c5be 03f2 fcbd 8159 a03c

encoder.latent.backbone.c_layers.0.layer.output_linear.0.bias f4 [32]
0.118760005 -0.19169451 -0.14754924 0.19683978 0.054859962 -0.03245447 0.13796134 0.0051432033
0.04531249 -0.18940698 -0.05162626 -0.00076103315 0.22623046 0.054526333 -0.14426322 0.08430586
0.10426199 0.22785017 0.01470597 -0.21563192 0.12716556 -0.01551287 -0.22538185 -0.028371846
0.01747563 -0.08898627 -0.04946769 -0.17753261 -0.013224891 -0.2242063 0.17203213 0.022684712
00000000: 7238 f33d 914b 44be 2617 17be 5e90 493e
00000010: d7b4 603d faee 04bd bd45 0d3e 5188 a83b
00000020: 9799 393d e7f3 41be 0f76 53bd 1280 47ba
00000030: f5a8 673e 0157 5f3d bdb9 13be 8da8 ac3d
00000040: 4f87 d53d 8e51 693e 4ff1 703c 9dce 5cbe
00000050: b037 023e b129 7ebc 80ca 66be 136c e8bc
00000060: 0d29 8f3c 6f3e b6bd a29e 4abd 1ccb 35be
00000070: 37ad 58bc 5696 65be 3129 303e 4ad5 b93c

encoder.latent.backbone.c_layers.0.norm.weight f4 [16]
0.9629127 1.1043302 1.1101838 1.0520208 1.0950729 1.0084991 1.0362579 0.95939803
0.9947353 1.0118126 1.1120248 0.98296213 0.9760275 1.1456668 1.3650715 1.0103118
00000000: 7281 763f b15a 8d3f 811a 8e3f 9ea8 863f
00000010: 592b 8c3f 8016 813f 19a4 843f 1c9b 753f
00000020: f9a6 7e3f 1383 813f d456 8e3f 68a3 7b3f
00000030: f0dc 793f 36a5 923f aaba ae3f e651 813f

encoder.latent.backbone.c_layers.0.norm.bias f4 [16]
0.066293895 -0.10296769 -0.13694498 -0.06755527 0.09645653 0.115582824 -0.063527256 0.037954807
-0.0029385826 0.01573288 -0.05804091 0.03570643 -0.017081873 -0.098294176 0.38448358 0.059026834
00000000: 18c5 873d b9e0 d2bd 4e3b 0cbe 6b5a 8abd
00000010: 008b c53d b0b6 ec3d 941a 82bd 8076 1b3d
00000020: 3c95 40bb 3ee2 803c 4ebc 6dbd e840 123d
00000030: 49ef 8bbc 754e c9bd 08db c43e 1fc6 713d

encoder.latent.backbone.c_layers.1.layer.ff.0.0.weight f4 [32, 16]
-0.019112062 -0.384889 0.046241593 -0.33866245 0.34211922 0.18999237 -0.000601819 0.11224332
0.25634184 -0.1222324 0.009405556 0.036366038 -0.08846722 -0.0900519 0.061702408 0.14074215
-0.18226925 -0.2117868 0.13004978 0.063740216 0.08488417 -0.011862849 0.22530004 0.010951089
0.0960548 -0.048551355 -0.20864128 0.13363318 0.09664431 -0.13018243 0.12719786 -0.2072125
-0.2200628 0.12788709 -0.05956074 -0.1941074 0.23921998 0.25341588 -0.06505072 -0.20524876
0.051877927 -0.044227958 0.090247124 0.13907607 0.28650767 0.13734208 0.12979712 0.2679713
0.26040164 -0.03958269 -0.16885045 -0.05375314 0.16363984 -0.15184301 -0.09706179 -0.044428747
0.15651575 -0.32304892 0.079341024 0.09655498 0.13601382 0.10257773 0.22803673 -0.039044797
-0.103633784 0.23941259 -0.030399676 0.23004755 -0.20691828 -0.3043292 -0.043573316 -0.20426732
-0.19803266 -0.24568532 -0.0023990048 0.1768283 0.19112206 0.24039838 0.25591415 -0.056231797
0.12546018 0.20750298 -0.27201292 0.13878933 0.077984504 -0.25663802 -0.19484042 -0.18831263
0.18949421 0.035898276 0.0054906067 0.17229454 -0.111516885 -0.050295137 0.28331068 -0.07594708
-0.24808338 0.088201016 0.21647212 -0.19121626 -0.10317779 0.16681497 -0.1345766 0.28155738
0.17070425 0.14895286 -0.1111693 0.16318314 -0.16493757 -0.16178092 0.110383324 -0.001156484
0.080819644 -0.20174234 0.10369697 -0.2523369 0.23557235 -0.103200905 0.1526188 0.134816
0.10370593 0.19685608 0.30016005 -0.25111184 0.019927785 0.15840109 -0.17947511 0.32072747
0.012252517 -0.119159676 -0.26449063 -0.2073654 0.059080813 0.12463443 -0.036205396 -0.11654426
-0.035968613 -0.24739313 0.13754247 0.24815695 0.20167646 0.21319216 -0.19005983 -0.27427593
-0.07228235 0.14994259 0.28138348 -0.079493694 0.045228288 -0.22946788 0.33033055 0.2696859
-0.35448748 0.017928403 0.06835723 0.2898682 -0.07208327 -0.010934726 -0.17340869 -0.27384618
-0.038672537 0.13792726 0.06437984 0.049334623 -0.00414776 -0.05714627 -0.19696292 0.009764597
-0.06221778 0.096756995 -0.034760397 0.09772909 0.14403953 -0.28683594 -0.24952583 0.0399903
0.24839438 0.1531859 0.058590706 0.12602663 0.08822685 -0.14159071 0.23480128 0.30916303
-0.29649502 0.18545294 -0.09773394 0.30060247 -0.23798037 0.029298391 0.2275368 -0.2775137
0.01962777 0.24189043 -0.119373456 -0.031214967 -0.07744101 -0.17907707 -0.18574505 0.14381449
-0.25198314 -0.2656699 -0.29918987 -0.096388645 0.04908346 0.3623365 0.17793344 -0.19253573
-0.21376166 -0.119250715 -0.27662745 -0.1449608 -0.17073907 0.28665087 0.17370035 -0.09752835
0.120753415 0.08809261 -0.12120566 -0.21599789 0.1948822 -0.005631231 0.11711056 0.1136015
-0.089931235 -0.16021758 -0.13748078 -0.07596501 0.27572337 -0.041150503 0.21355377 -0.082359396
0.112333596 0.33788097 0.21694499 0.017557412 0.16326758 0.037584335 -0.07982675 0.24002694
-0.15040469 0.026574679 0.06016654 -0.024472637 0.11237499 0.107539594 -0.2454168 -0.20398757
-0.19181998 -0.002650538 -0.1348178 -0.09279475 0.1128673 0.2437029 0.20980155 -0.16883475
00000000: e690 9cbc 2c10 c5be d367 3d3d 2a65 adbe
00000010: 402a af3e 5c8d 423e 64c3 1dba d3df e53d
00000020: 3d3f 833e fb54 fabd c319 1a3c 8ef4 143d
00000030: 4d2e b5bd 216d b8bd aabb 7c3d b61e 103e
00000040: caa4 3abe a4de 58be c52b 053e 3b8a 823d
00000050: c0d7 ad3d 655c 42bc 0eb5 663e 326c 333c
00000060: 61b8 c43d c9dd 46bd 0fa6 55be 23d7 083e
00000070: 74ed c53d 8b4e 05be 2840 023e 832f 54be
00000080: 2558 61be d5f4 023e f6f5 73bd 17c4 46be
00000090: 15f6 743e babf 813e 5039 85bd bb2c 52be
000000a0: f37d 543d 6028 35bd 7cd3 b83d f569 0e3e
000000b0: 22b1 923e 67a3 0c3e 89e9 043e 8933 893e
000000c0: 5d53 853e 7521 22bd 22e7 2cbe 412c 5cbd
000000d0: 3491 273e bc7c 1bbe 55c8 c6bd ebfa 35bd
000000e0: aa45 203e ab66 a5be 8c7d a23d 9ebe c53d
000000f0: 3547 0b3e 4614 d23d 7682 693e 70ed 1fbd
00000100: f33d d4bd 9328 753e be08 f9bc 9691 6b3e
00000110: 63e2 53be 09d1 9bbe ef79 32bd 742b 51be
00000120: 13c9 4abe ef94 7bbe 9f38 1dbb 7a12 353e
00000130: 80b5 433e fe2a 763e 2e07 833e 5053 66bd
00000140: a278 003e a97b 543e 4745 8bbe ca1e 0e3e
00000150: 57b6 9f3d 0f66 83be 3f84 47be 07d5 40be
00000160: c50a 423e 120a 133d 8cea b33b fb6d 303e
00000170: f762 e4bd 4602 4ebd 190e 913e 258a 9bbd
00000180: 9209 7ebe bca2 b43d deaa 5d3e 32ce 43be
00000190: e14e d3bd 8bd1 2a3e 73ce 09be 4a28 903e
000001a0: 18cd 2e3e 1987 183e bbac e3bd 7b19 273e
000001b0: 65e5 28be e6a9 25be a710 e23d 2a95 97ba
000001c0: c584 a53d 8b95 4ebe 145f d43d 4d32 81be
000001d0: e139 713e ff5a d3bd 1a48 1c3e 350d 0a3e
000001e0: c663 d43d a494 493e 94ae 993e bb91 80be
000001f0: 983f a33c e533 223e 53c8 37be 6436 a43e
00000200: c8be 483c fd09 f4bd 516b 87be 9857 54be
00000210: b9fe 713d 5640 ff3d 1c4c 14bd c2ae eebd
00000220: d353 13bd a054 7dbe efd7 0c3e db1c 7e3e
00000230: 4684 4e3e 0c4f 5a3e 0b9f 42be e56d 8cbe
00000240: c508 94bd 8d8a 193e 7f11 903e 97cd a2bd
00000250: 4c41 393d a1f9 6abe 1621 a93e 4514 8a3e
00000260: 627f b5be 96de 923c e0fe 8b3d 9b69 943e
00000270: 65a0 93bd 9127 33bc 0c92 31be 9135 8cbe
00000280: 1867 1ebd ce3c 0d3e 94d9 833d 1a13 4a3d
00000290: efe9 87bb 3512 6abd a6b0 49be b0fb 1f3c
000002a0: 12d8 7ebd 8828 c63d eb60 0ebd 3026 c83d
000002b0: 197f 133e 29dc 92be b383 7fbe decc 233d
000002c0: 195b 7e3e c4dc 1c3e cffc 6f3d 200d 013e
000002d0: 47b0 b43d 28fd 10be bf6f 703e 9e4a 9e3e
000002e0: 32ce 97be 60e7 3d3e bb28 c8bd 91e8 993e
000002f0: 20b1 73be 2e03 f03c 68ff 683e 4716 8ebe
00000300: 6bca a03c 20b2 773e 127a f4bd 88b6 ffbc
00000310: 6499 9ebd fb5f 37be f333 3ebe 1b44 133e
00000320: ef03 81be e305 88be 6a2f 99be 6967 c5bd
00000330: bd0b 493d 2b84 b93e 2f34 363e 1628 45be
00000340: 56e4 5abe b839 f4bd 1da2 8dbe 9b70 14be
00000350: 39d6 2ebe e7c3 923e 81de 313e f2bc c7bd
00000360: 914d f73d e669 b43d ac3a f8bd 8d2e 5dbe
00000370: 338f 473e 3086 b8bb a9d7 ef3d e7a7 e83d
00000380: de2d b8bd 1410 24be c3c7 0cbe 8b93 9bbd
00000390: 9d2b 8d3e 6e8d 28bd d7ad 5a3e 0bac a8bd
000003a0: 280f e63d bcfe ac3e d426 5e3e 90d4 8f3c
000003b0: 9e2f 273e 08f2 193d 357c a3bd 9fc9 753e
000003c0: b003 1abe 24b3 d93c 3171 763d d77a c8bc
000003d0: dc24 e63d b83d dc3d 8b4e 7bbe 1ee2 50be
000003e0: 756c 44be a6b4 2dbb ad0d 0abe 2d0b bebd
000003f0: f926 e73d 418d 793e 38d6 563e 04e3 2cbe

encoder.latent.backbone.c_layers.1.layer.ff.0.0.bias f4 [32, 1]
0.15194747 0.067530975 0.1175259 0.1517851 -0.13314992 0.29696402 -0.19214407 0.047252428
0.12454349 -0.15229878 0.23049441 0.19004372 -0.037246 -0.16576397 -0.12844555 -0.11022271
-0.019315155 0.012184584 -0.019853642 0.13419376 -0.10173231 0.25636318 -0.026784068 -0.00095719646
0.2875817 0.04411167 -0.12289856 0.06826289 -0.05787927 0.104093 0.14201936 -0.31316698
00000000: 1e98 1b3e ae4d 8a3d 6bb1 f03d 8e6d 1b3e
00000010: 7458 08be ab0b 983e 6ac1 44be c38b 413d
00000020: a810 ff3d 36f4 1bbe ba06 6c3e d29a 423e
00000030: 438f 18bd 08be 29be 3b87 03be 72bc e1bd
00000040: d13a 9ebc d9a1 473c 1ba4 a2bc 176a 093e
00000050: 0859 d0bd 0942 833e 436a dbbc 5eec 7aba
00000060: e93d 933e 70ae 343d 3db2 fbbd 6acd 8b3d
00000070: d012 6dbd b62e d53d 866d 113e 6c57 a0be

encoder.latent.backbone.c_layers.1.layer.ff.2.weight f4 [16, 32]
0.058435187 0.08067056 0.0909921 -0.15306616 -0.1917619 -0.019557863 0.23254164 -0.0361483
0.12829499 0.12580226 0.11068785 0.08367544 -0.044394337 0.19241953 0.12940773 0.025776332
-0.005507329 0.19321148 0.14443254 0.22548385 0.13534105 0.0471967 0.23749575 0.08997949
0.005504178 0.15478364 -0.12100163 0.100709885 -0.15641405 0.107927024 0.017806059 0.089018546
-0.1955069 -0.14890602 0.074787445 0.1176627 0.085773915 -0.20220695 -0.00287953 0.061190054
-0.0648256 -0.062067263 -0.05899631 -0.13654536 0.0064260582 -0.020168886 -0.03958153 -0.11056979
-0.023447638 -0.099853635 -0.017647024 0.1564811 -0.09760414 -0.083195746 0.102731496 -0.17163898
-0.22730388 -0.0028935855 0.008749993 -0.14681843 0.09171225 0.015410893 -0.09209087 0.10157899
0.12628408 0.112651944 -0.09595325 -0.22327164 -0.016813917 -0.10093739 -0.022516197 -0.10830087
0.11094264 0.014857427 0.0961004 0.12426754 0.018659914 -0.15916547 0.21939908 0.03791505
-0.005912395 -0.08873496 0.107243836 -0.15631333 -0.06288427 -0.14760545 -0.17691977 -0.029046353
-0.10772249 0.09106177 0.071790725 -0.1549824 -0.034029935 0.009864983 0.0895901 0.077878736
0.22961022 0.101377875 0.11201149 -0.052465554 -0.19752523 0.11880709 0.1155339 -0.048441906
-0.062991396 0.088408396 0.242409 0.11537419 0.0081351455 0.12860638 0.113393374 0.16271889
-0.0758107 -0.0024621452 0.015275662 0.07778753 -0.03679397 -0.01967973 0.20852385 0.15298434
0.16004431 0.113392934 0.013959714 0.15145425 -0.17787917 0.1349494 0.11890451 -0.15194781
0.14743714 -0.036967285 0.054012023 -0.20675702 -0.17544772 0.081603445 -0.009178705 -0.006806198
-0.097897045 0.13736492 -0.190264 0.028059838 -0.12048927 0.03756196 0.20916353 -0.18997489
-0.19143943 -0.10716865 0.11382276 0.14065711 0.006046379 0.057948645 0.019570721 -0.18382828
-0.0740804 0.21531215 -0.0024200194 0.0027891248 -0.15167579 0.20203888 -0.29481125 0.23252858
0.080423996 0.01948549 -0.020835921 -0.21604234 -0.10173191 -0.20960838 0.16464004 -0.083948344
-0.026889754 0.081077345 -0.2041607 0.07634999 0.007771125 0.07937723 0.10290765 -0.118038066
-0.23713765 -0.009486306 0.05242824 -0.023276387 0.021076845 0.06570785 -0.120841034 0.042176187
-0.10429395 -0.05808878 0.07783026 -0.01020802 -0.11280543 0.13676734 0.09078142 -0.06013427
-0.02974114 -0.043006208 -0.1430553 -0.09383076 0.07095382 -0.18628229 0.039500307 0.1539072
-0.075465836 -0.14430684 -0.07589526 0.06744813 0.030356338 0.15527539 -0.06852445 -0.14510587
-0.15203083 0.082047164 -0.06061327 0.13895793 0.12131531 -0.073584065 0.19186811 -0.1162919
0.0817062 -0.07551477 0.04014907 0.022058498 0.055111356 0.14317861 0.049012456 0.19282414
-0.0706715 -0.12442568 -0.20712344 0.07384409 -0.030111432 -0.09868941 -0.08199893 -0.120267764
-0.23629425 0.14985321 -0.01409597 -0.14539352 -0.0916763 0.07840053 -0.25083873 0.005587499
0.10259248 -0.04175623 -0.116728395 0.00758238 0.03196677 -0.19479401 -0.14716479 -0.14566639
-0.18500175 -0.2501568 -0.1089603 -0.15230535 0.09004339 -0.15925005 0.06867535 0.15181834
00000000: bc59 6f3d 9b36 a53d 115a ba3d 60bd 1cbe
00000010: 3b5d 44be d037 a0bc 651f 6e3e 3d10 14bd
00000020: c35f 033e 4fd2 003e 50b0 e23d 075e ab3d
00000030: d6d6 35bd a009 453e 7683 043e e328 d33c
00000040: d376 b4bb 3bd9 453e 20e6 133e 3de5 663e
00000050: d896 0a3e 5451 413d 1632 733e 2b47 b83d
00000060: 645c b43b 9a7f 1e3e b4cf f7bd fc40 ce3d
00000070: 012b 20be d808 dd3d 03de 913c 5b4f b63d
00000080: f632 48be d27a 18be 292a 993d 24f9 f03d
00000090: 3caa af3d 570f 4fbe 7fb6 3cbb 6ca2 7a3d
000000a0: 49c3 84bd 3e3a 7ebd 1da6 71bd 8cd2 0bbe
000000b0: af91 d23b 3839 a5bc 3e20 22bd 6a72 e2bd
000000c0: 4315 c0bc 1080 ccbd 7e90 90bc 953c 203e
000000d0: aee4 c7bd 8862 aabd e464 d23d 21c2 2fbe
000000e0: 59c2 68be 4fa2 3dbb 215c 0f3c 9257 16be
000000f0: a2d3 bb3d f87d 7c3c 239a bcbd a508 d03d
00000100: 9d50 013e 10b6 e63d 2383 c4bd 52a1 64be
00000110: 57bd 89bc 43b8 cebd e373 b8bc d9cc ddbd
00000120: e535 e33d 916c 733c 49d0 c43d fb7f fe3d
00000130: addc 983c 46fc 22be 27aa 603e d04c 1b3d
00000140: c4bc c1bb adba b5bd a8a2 db3d 9a10 20be
00000150: 78c9 80bd e225 17be 752a 35be 9ef2 edbc
00000160: 9c9d dcbd 987e ba3d 0407 933d b5b3 1ebe
00000170: f962 0bbd bda0 213c 047b b73d e37e 9f3d
00000180: f11e 6b3e 349f cf3d 4866 e53d 1fe6 56bd
00000190: 0e44 4abe 2251 f33d 0a9d ec3d 056b 46bd
000001a0: a201 81bd 760f b53d 113a 783e 4e49 ec3d
000001b0: 4649 053c 64b1 033e c93a e83d c89f 263e
000001c0: a442 9bbd f15b 21bb c546 7a3c 124f 9f3d
000001d0: 46b5 16bd 6337 a1bc 4787 553e eda7 1c3e
000001e0: a8e2 233e 8e3a e83d 49b7 643c d316 1b3e
000001f0: f525 36be 2d30 0a3e 3584 f33d 3598 1bbe
00000200: c3f9 163e 026b 17bd b63b 5d3d 1db8 53be
00000210: 91a8 33be b51f a73d 4762 16bc 8706 dfbb
00000220: 3f7e c8bd 64a9 0c3e 91d4 42be bfdd e53c
00000230: 14c3 f6bd 92da 193d f72e 563e c788 42be
00000240: b308 44be 3d7b dbbd e81b e93d 6b08 103e
00000250: b420 c63b 8f5b 6d3d c752 a03c 7b3d 3cbe
00000260: 77b7 97bd ca7a 5c3e 3099 1ebb c0c9 363b
00000270: e650 1bbe 48e3 4e3e 80f1 96be f91b 6e3e
00000280: 56b5 a43d 09a0 9f3c 18b0 aabc 343a 5dbe
00000290: d258 d0bd 94a3 56be 6697 283e 1ced abbd
000002a0: e747 dcbc e10b a63d 810f 51be 625d 9c3d
000002b0: eca4 fe3b 8790 a23d 3fc1 d23d f1bd f1bd
000002c0: 36d4 72be 746c 1bbc ffbe 563d 1fae bebc
000002d0: 59a9 ac3c d691 863d 817b f7bd f0c0 2c3d
000002e0: 1198 d5bd 80ee 6dbd 7965 9f3d 8a3f 27bc
000002f0: 8906 e7bd bd0c 0c3e 9ceb b93d 5a4f 76bd
00000300: b1a3 f3bc 4727 30bd 177d 12be 572a c0bd
00000310: 3d50 913d c9c0 3ebe 13cb 213d d999 1d3e
00000320: d58d 9abd 2cc5 13be f96e 9bbd 3f22 8a3d
00000330: dbad f83c 8300 1f3e 8c56 8cbd a296 14be
00000340: f8ad 1bbe 5808 a83d 9f45 78bd fd4a 0e3e
00000350: 2974 f83d 3eb3 96bd 1379 443e 732a eebd
00000360: 9555 a73d 7da7 9abd 5a73 243d 06b4 b43c
00000370: 72bc 613d 6a9d 123e 49c1 483d b173 453e
00000380: 38bc 90bd e4d2 febd 2b18 54be 923b 973d
00000390: 40ac f6bc ac1d cabd 0eef a7bd f24e f6bd
000003a0: 1ff7 71be 1f73 193e c9f2 66bc 0ae2 14be
000003b0: c9c0 bbbd 7590 a03d ef6d 80be 5717 b73b
000003c0: 021c d23d 9508 2bbd 4c0f efbd 9d75 f83b
000003d0: 96ef 023d 1578 47be 5eb2 16be 9229 15be
000003e0: 1971 3dbe 8d14 80be 9426 dfbd eff5 1bbe
000003f0: ab68 b83d 7212 23be a9a5 8c3d 4476 1b3e

encoder.latent.backbone.c_layers.1.layer.ff.2.bias f4 [16, 1]
-0.017744659 0.078821115 -0.033220347 0.13383879 0.044334307 0.04437771 0.13352302 0.044365812
-0.051994484 -0.009904469 0.10145916 0.02805295 0.20551579 -0.031342316 -0.005516588 -0.14572439
00000000: 3f5d 91bc f76c a13d 0f12 08bd 090d 093e
00000010: e497 353d 67c5 353d 42ba 083e edb8 353d
00000020: 2bf8 54bd 5b46 22bc d2c9 cf3d 4dcf e53c
00000030: bb72 523e cd60 00bd 7fc4 b4bb c638 15be

encoder.latent.backbone.c_layers.1.norm.weight f4 [16]
1.12116 1.1159784 1.0881733 1.0106722 1.0723058 1.1299664 1.0349078 1.0503604
1.1201569 1.1129392 1.0725152 1.0131421 0.9787891 1.0778759 1.0577716 1.1547873
00000000: 2c82 8f3f 61d8 8e3f 4349 8b3f b55d 813f
00000010: 5141 893f bda2 903f dc77 843f 3672 863f
00000020: 4d61 8f3f cb74 8e3f 2e48 893f a4ae 813f
00000030: ec91 7a3f d6f7 893f 0f65 873f 12d0 933f

encoder.latent.backbone.c_layers.1.norm.bias f4 [16]
0.06150955 -0.016262647 -0.06999155 -0.09324495 0.09375906 0.007384661 -0.050413202 -0.065767124
0.12560539 -0.03165802 0.05557446 -0.011876737 0.021669643 0.042351812 0.048737798 0.045392793
00000000: 70f1 7b3d 3e39 85bc bb57 8fbd 35f7 bebd
00000010: c004 c03d 07fb f13b 137e 4ebd eab0 86bd
00000020: b39e 003e d7ab 01bd 0ca2 633d a596 42bc
00000030: 8984 b13c 1879 2d3d 49a1 473d cbed 393d

encoder.latent.backbone.c_layers.2.layer.D f4 [1, 16]
-0.41048807 -0.6224288 -2.001089 0.3662853 -0.014408045 0.3652132 -1.2076249 0.5088225
0.4160384 0.18659492 1.3810151 1.2099081 0.32081044 1.19032 2.1454306 -0.4331425
00000000: 7e2b d2be 7e57 1fbf d811 00c0 bf89 bb3e
00000010: b90f 6cbc 39fd ba3e 7493 9abf 3142 023f
00000020: fc02 d53e bd12 3f3e 1ac5 b03f 45de 9a3f
00000030: 4441 a43e 685c 983f bc4e 0940 dbc4 ddbe
