generative_ts/saves/250911_152014_continued3/model_VRNN.pth (torch, 17186 bytes, 24 tensors)

phi_x.0.weight f4 [10, 1]
000000 b0 d5 37 3e 26 6e 15 3f 96 68 de bd 6a 9e 56 3f
       0.17952609 0.583712 -0.10859792 0.8383547
000010 54 da 9b 3e 18 49 a3 bf 45 6f 9f 3f 9a 88 6e 3f
       0.3044001 -1.2756681 1.2455832 0.9317719
000020 77 1f 13 3f e3 ea 5b bc
       0.57469887 -0.013422701

phi_x.0.bias f4 [10]
000000 4c 1b 49 bf 38 8a b9 3e 06 98 a1 3f b6 84 19 3f
       -0.78557277 0.36238265 1.2624519 0.59968126
000010 78 d7 4d bf ab b4 fb 3e d4 0a be 3e 63 69 26 3f
       -0.80406904 0.49161276 0.37117636 0.6500456
000020 2e 94 fe be 85 bb 3f 3f
       -0.49722427 0.7489551

phi_x.2.weight f4 [10, 10]
000000 1d 8e 9f bc 7b e6 43 3d bb 83 7d be 9e af 5f be
       -0.019476945 0.047827225 -0.24757282 -0.21844336
000010 70 15 b0 3d ca 36 87 3e 0b 8d af bd ae 50 79 3e
       0.08597839 0.26408988 -0.08571824 0.24347183
000020 b8 c3 5a be 78 64 b9 bd ab 9d 07 be e1 3a 84 3e
       -0.21363723 -0.09052366 -0.1324374 0.2582617
000030 79 0b 92 be a9 3c 1a be 4d 62 87 be 29 65 3c bc
       -0.28524378 -0.15062203 -0.26442185 -0.011498728
000040 c7 21 f8 bc 06 89 84 3e c9 b7 b7 bd 48 84 5b 3e
       -0.030289544 0.2588579 -0.08970601 0.2143718
000050 95 86 9b 3e ca 3b 09 3e 8e d0 23 be 0e 1a 00 be
       0.30376115 0.13401714 -0.15997526 -0.12509939
000060 58 18 0d 3e d6 e9 7c be 60 b5 21 bd 67 2c 01 be
       0.13778818 -0.24698576 -0.039479613 -0.12614594
000070 b6 bd 28 3e 96 97 25 be c4 8b 18 3e 0e 2c 3e 3e
       0.16478619 -0.16171107 0.14897066 0.18571493
000080 4c 59 c8 bb e6 74 08 be 8a de 8f 3e 33 1f ed 3d
       -0.0061141606 -0.13325843 0.2809947 0.115782164
000090 1b 7e 36 bd 8e 56 92 3c 11 fd 12 3e 78 c0 df 3c
       -0.044553857 0.017863538 0.1435435 0.027313456
0000a0 cf 83 85 be 7d 51 25 3f ca f8 07 3f 87 89 2c 3f
       -0.26077124 0.64577466 0.53113997 0.6739735
0000b0 cb 6f df bd ac c8 9a 3e 1c 70 1c 3e e9 0c 0c 3f
       -0.10909995 0.30231225 0.15277141 0.547072
0000c0 08 46 a2 3e b5 d5 e4 3e b2 79 9b 3e 23 42 47 be
       0.31694055 0.44694296 0.30366284 -0.19458823
0000d0 64 e4 aa 3d 77 aa 8a bd 05 bb 46 be 71 44 61 bd
       0.08344343 -0.06770795 -0.1940728 -0.05499691
0000e0 57 21 47 bc db e1 97 be e6 af 80 bc 21 77 a9 bd
       -0.012153945 -0.29664502 -0.015708875 -0.08274675
0000f0 a8 62 86 3d e7 13 62 bd fb b8 8d be 63 0d 3d 3e
       0.06561786 -0.05519476 -0.2768019 0.18462138
000100 53 56 f7 3d ac 02 58 3e 71 e3 15 3d 1f 94 41 3d
       0.12077012 0.21094769 0.03659386 0.0472604
000110 d0 3c e1 3c c7 90 dc bc 0f 3d dc bd 9a fb ee 3b
       0.027494818 -0.026924504 -0.107538335 0.007293177
000120 e0 48 87 3e 56 49 ea 3c 02 1c 04 bd 73 70 00 3f
       0.26422787 0.028599422 -0.032253273 0.50171584
000130 32 43 d9 be c3 4f 84 3c b1 25 3f 3c d5 d9 74 3e
       -0.42434078 0.016151315 0.011666701 0.23911221
000140 39 04 9f 3e a6 8e 13 3f 05 f7 80 3e 39 cc 98 3e
       0.3105791 0.5763954 0.2518846 0.2984331
000150 8f 14 40 3e 18 3b 0f bf 78 b9 21 3f 4a 4d 16 3f
       0.18757842 -0.55949545 0.6317363 0.58711684
000160 80 1e 05 be f9 26 ba 3d e1 b2 4d bc ef c3 9e be
       -0.12999916 0.09089465 -0.012554855 -0.3100886
000170 d5 58 78 be 66 a4 8c be a2 d6 93 3d fc 49 2c 3d
       -0.24252637 -0.27469176 0.07218672 0.042062744
000180 24 02 cf bd 3c cc 19 be 3d 39 91 bc 3b fb 6e be
       -0.1010783 -0.15019315 -0.017727489 -0.23338024

phi_x.2.bias f4 [10]
000000 eb 14 8d bd 1a a3 73 be ef eb 56 3e f2 06 59 be
       -0.068887554 -0.23792687 0.20988439 -0.21194056
000010 7f 21 ca 3d 72 bf 9c bd 9e eb 9d bd 3a 8d 99 3d
       0.0986967 -0.07653703 -0.07710956 0.0749764
000020 c5 2a ca 3e 96 48 d0 bd
       0.39485756 -0.10170095

phi_z.0.weight f4 [10, 1]
000000 f7 07 c6 3d 9c 0e 3b 3f b1 01 58 3f 9e 61 c2 3e
       0.09669488 0.7306917 0.8437758 0.379651
000010 79 72 80 3e ac d1 77 3f e0 57 cd 3d bb af 60 3e
       0.25087336 0.9680431 0.100265265 0.21942036
000020 6c 9f 32 3f da d2 67 bf
       0.6977451 -0.9055611

phi_z.0.bias f4 [10]
000000 11 f2 89 3f cf 10 5b 3f 9f 08 5b 3f 7b cc 42 3f
       1.0776998 0.8557252 0.8556003 0.7609326
000010 ea e4 70 3e 2a f1 fe 3e 6b 58 89 3f fa 47 d8 3e
       0.23524824 0.4979337 1.0730108 0.42242414
000020 e7 2f 00 bf 15 35 82 3f
       -0.50073093 1.0172449

enc.0.weight f4 [10, 20]
000000 2d 7e 35 be 50 1b 8b 3d a3 0e 9c bd ac 97 9f bd
       -0.17723913 0.06792319 -0.07619979 -0.07792601
000010 2c 20 5e 3e b0 81 2a be 45 a4 82 3d df d8 01 3f
       0.2169196 -0.16651034 0.06378988 0.50721544
000020 70 3a 85 be b6 18 9a 3d 9b 92 95 3e 91 6a a8 3d
       -0.26021147 0.075242445 0.29213414 0.08223451
000030 3a a2 e8 3d 92 17 96 bd 69 3a 8d 3e 69 b4 ad bb
       0.11359067 -0.073287144 0.27583626 -0.0053010476
000040 43 67 80 be fd 94 b1 3e 47 96 64 be 15 ab aa be
       -0.25078782 0.34683982 -0.22322951 -0.3333365
000050 10 80 5c be a8 df 1d 3e 19 ad 64 3d 9d 33 0f be
       -0.21533227 0.1541735 0.05582914 -0.13984533
000060 c2 69 01 be 18 d9 36 bd e3 1a 98 bd ce 6c 15 3d
       -0.12638 -0.04464063 -0.07427003 0.036480717
000070 ea 07 39 be d1 c3 3b 3e 49 c8 14 3d 6e cc 36 3d
       -0.18069425 0.18336417 0.03632382 0.044628553
000080 2e 72 de 3d 74 7c 93 3b 96 62 57 3d 65 69 30 3e
       0.10861622 0.00450092 0.052584253 0.17227705
000090 53 86 d9 3d f6 82 4c be 0f ac 42 be 09 dd 38 3c
       0.106213234 -0.19971833 -0.19010948 0.011283168
0000a0 5e 76 35 3e 67 8b 27 be 59 ff 1f 3e f6 d6 59 be
       0.17720935 -0.16361772 0.15624751 -0.21273407
0000b0 dd eb cb 3e c0 ad 07 be 7b 3a f0 bd 50 6d 89 be
       0.39828387 -0.13249874 -0.11729904 -0.2684121
0000c0 64 49 ec 3e 58 8e 9a bd bc 51 a8 3e fa 43 8c 3e
       0.46149743 -0.07546681 0.32874858 0.27395612
0000d0 40 b4 9f 3e 09 cf ac be d7 0a d1 3e 38 1d c0 be
       0.31192207 -0.33751705 0.40828583 -0.37522292
0000e0 36 e4 a7 be 97 4f 10 3e 57 2d a3 be 0d 59 de be
       -0.327913 0.14092861 -0.3187053 -0.43427315
0000f0 3b fd 40 3d b3 a1 2e 3e 19 5d b3 3c 89 9c 0f be
       0.0471165 0.17053871 0.021894978 -0.14024557
000100 ef 02 61 be c2 98 a3 3d 26 b2 ee bc 4c 9a 05 3e
       -0.21973775 0.079881206 -0.029137682 0.13047141
000110 5f d4 89 be 9f 3a 21 3e 0e 90 46 3e 9e 30 1d be
       -0.2691984 0.15745018 0.1939089 -0.15350577
000120 8a 56 dd bd 2f 7b 49 bb f8 7f 44 3e be d7 15 3c
       -0.10807522 -0.003074359 0.19189441 0.009145675
000130 90 af c4 bd aa d6 b9 3d 69 69 ba bd d4 84 d5 bb
       -0.096037984 0.09074147 -0.09102137 -0.0065160785
000140 95 b2 4e 3d bd 44 fc bd fd 59 11 bd 4d 1c af bd
       0.050463278 -0.12317798 -0.03548621 -0.0855032
000150 84 32 b5 3e 1d 76 33 3d 6f 7a 3c 3d 7b f2 97 be
       0.35390103 0.043813813 0.0460152 -0.29677185
000160 26 ae 2b 3e 28 6f ad bd 60 b4 16 3e 3d 51 71 3e
       0.16765651 -0.08468467 0.14717245 0.23566146
000170 a5 81 74 be 73 c8 96 bc c6 eb c8 bd 8e a5 3c be
       -0.2387758 -0.018406129 -0.09810595 -0.18422529
000180 31 e5 46 3e 9e 5a 57 be 48 b9 32 3e 08 b6 cb bd
       0.19423367 -0.21030661 0.17453492 -0.09946829
000190 0f 12 d8 3a ab fe 4b 3e 9a df a5 bb 96 b1 8a 3d
       0.0016484874 0.19921367 -0.005062056 0.06772153
0001a0 2a 27 46 be b7 0a 2a 3e fb 3d 5d 3d e8 8c c2 bd
       -0.19350877 0.1660565 0.054014187 -0.09499532
0001b0 38 05 24 bc e0 e7 54 3e f0 d3 12 3d 9c d5 d3 3d
       -0.01001101 0.20791578 0.03584665 0.10343477
0001c0 03 bd 86 3d b4 b4 0d 3e aa ac 9f bd 2f a1 9c 3d
       0.0657902 0.13838464 -0.07796605 0.07647931
0001d0 6a 02 54 3e 93 e1 48 be 3f d2 4a be da 0f c1 bd
       0.20704046 -0.196173 -0.19806765 -0.094268516
0001e0 d8 64 5b 3e 72 f8 00 be 63 23 75 bd b3 21 5d 3e
       0.21425188 -0.12594774 -0.0598482 0.21594886
0001f0 60 76 38 3d 19 c3 34 3e 96 6c 36 3d ac 64 f0 3c
       0.045034766 0.17652549 0.04453715 0.02934488
000200 61 3f c6 bd 30 20 1d 3e 35 6b 4f bd 9d c0 1c 3d
       -0.09680057 0.1534431 -0.05063935 0.038269628
000210 8b 13 a4 3d 9c e7 43 3e 12 3e b3 3d e0 f6 01 bd
       0.0801154 0.1913132 0.08752073 -0.03172958
000220 bf a1 25 3d 7d 67 20 bc b1 f6 46 3d 86 a9 91 bd
       0.040437456 -0.0097902985 0.048575107 -0.07112412
000230 3d a2 14 3e e4 7e 5f 3d 17 f8 05 3e 93 57 c2 bd
       0.14515014 0.05456437 0.1308292 -0.0948936
000240 bb d3 01 3f b0 f5 56 be 08 f4 cd 3c c4 46 f5 3d
       0.507137 -0.2099216 0.025140777 0.11976388
000250 3b 25 11 3e 81 08 61 3e e0 35 bc 3d 26 b0 6f 3e
       0.14174359 0.219759 0.09189963 0.23407039
000260 a8 31 8b 3e 0a 1d 03 bd 9b 77 ac 3d 05 cb 43 be
       0.27186322 -0.032010116 0.084212504 -0.19120415
000270 5c bf ab be 3e b0 c4 3d c6 a6 13 be e8 47 4f be
       -0.33544433 0.09603928 -0.14419088 -0.20242274
000280 1c f7 48 be 94 d2 c5 3d 34 8f 7a bd c7 31 f2 3d
       -0.19625515 0.09659305 -0.061171725 0.118259005
000290 5b 76 be 3d 5d 32 cb bd 8d 9d 71 3d dc 45 ea 3d
       0.09299918 -0.099217154 0.058988143 0.11439106
0002a0 af 54 7b be 37 f6 b5 bc 38 f7 16 be 26 9d 94 bd
       -0.24544023 -0.022212131 -0.14742744 -0.07256536
0002b0 3e f5 33 be a5 f1 0f 3e 08 39 94 bd b1 fa 04 bd
       -0.17574021 0.14057024 -0.0723744 -0.03246564
0002c0 09 47 5a 3d 89 42 e1 bc 6d fe f3 3d 8b df 52 be
       0.0532904 -0.027497547 0.11913762 -0.20593087
0002d0 f7 94 b1 3d 51 de 8f bd b4 35 7a 3d 62 ef 54 3e
       0.08670991 -0.07024825 0.06108637 0.20794442
0002e0 e9 af 45 be fc 47 7a bd 3b d3 95 bd 68 ca b8 3d
       -0.19305386 -0.061103806 -0.0731568 0.09022981
0002f0 c5 95 c5 3c 33 13 5c 3e 96 92 49 3d 1c d8 67 be
       0.024119267 0.21491699 0.04921206 -0.22641033
000300 d2 41 38 be aa 9a 4a 3e 6f 7d e1 3d 44 c1 1f be
       -0.17993858 0.19785562 0.11010253 -0.15601069
000310 20 7c 8d 3d 51 2e 40 3d 58 4a 9b 3d e2 64 1e 3d
       0.069084406 0.04691917 0.07582539 0.038670428

enc.0.bias f4 [10]
000000 25 7b a3 3d bb 4c a3 3d ca 9c 39 3d 8b 00 51 bd
       0.07982472 0.079736196 0.04531554 -0.05102591
000010 e8 5f 7f 3d 57 a4 00 be 74 07 39 be 53 ca 4f 3e
       0.062347323 -0.1256269 -0.1806925 0.20292024
000020 a8 af 04 bd 8b 1b 3d bd
       -0.03239408 -0.046168845

enc.2.weight f4 [10, 10]
000000 b2 98 99 3e ce 07 e4 bd ee 9e cf 3e 0b 52 5e be
       0.2999931 -0.11134301 0.4055094 -0.21710984
000010 cb 19 82 3e d1 a9 4d 3e 04 52 33 3e b1 87 0b 3d
       0.25410303 0.20084311 0.17511755 0.034064952
000020 70 bc 71 be d2 ba 40 be 64 75 4c bd a1 f3 18 3e
       -0.2360704 -0.18821266 -0.04991664 0.14936687
000030 23 35 01 3f 2c 8c b1 be 29 5a 1a 3e a3 c0 7a 3e
       0.50471705 -0.34677255 0.15073456 0.24487548
000040 ff 67 8e be 24 5f c6 3e ba ac 1c be a2 02 88 3c
       -0.27813718 0.38744462 -0.15300265 0.016602818
000050 b7 88 fc 3e 52 e1 61 be 6e 95 77 3e 32 a1 c9 3e
       0.49323055 -0.22058609 0.24178097 0.39380795
000060 2f 10 e0 be 07 e0 fe 3d 02 c9 9a 3e 3f 24 53 3e
       -0.43762347 0.124450736 0.30231482 0.20619296
000070 8d 5e ca 3d 2b 5f 89 be fe 4d 18 3f 88 da 47 be
       0.098813154 -0.2683042 0.59494007 -0.19516957
000080 7e 9d 8b bd 05 5b 03 3e 90 fc 1f 3d db a1 6f bd
       -0.068171486 0.1282769 0.03905922 -0.058503967
000090 cc dd d2 3d 0a ae ea 3e d6 09 7b 3c eb 01 91 be
       0.10296211 0.45835906 0.015322169 -0.28321776
0000a0 69 54 1a be d0 12 87 bd 50 40 09 3f d1 f0 03 be
       -0.15071262 -0.06595385 0.5361376 -0.12884833
0000b0 85 65 1e 3f 24 17 ca bd d2 59 6b 3e 00 35 59 3e
       0.61873657 -0.09867695 0.22983482 0.21211624
0000c0 16 e5 0b bf f7 2a 7f 3d 2d b9 d3 3c 7d 65 9c be
       -0.5464643 0.062296834 0.025845135 -0.3054618
0000d0 62 8b ef bd 24 71 a3 be 1b 0e af 3d 31 99 66 3e
       -0.11696507 -0.31922257 0.08547612 0.22519375
0000e0 03 6d ed bd 20 a8 88 be ea 17 8b bd 11 76 5d 3e
       -0.11593058 -0.2669077 -0.067916706 0.2162707
0000f0 3b 49 17 bc f0 28 12 3d db 54 01 3f 11 e4 94 bd
       -0.009233768 0.035683572 0.50520104 -0.07270063
000100 ae 94 52 3e f6 e3 1c be bc fe 33 3e d1 04 76 bd
       0.2056453 -0.15321335 0.17577642 -0.060063187
000110 25 19 0e be 58 34 eb 3d 4e 77 6e 3e 1d 34 ba 3d
       -0.1387678 0.11484593 0.23287699 0.09091971
000120 17 96 b1 3d 2e e6 a9 3d a8 56 ae bd 30 95 4c 3e
       0.086712055 0.082958564 -0.08512622 0.19978786
000130 2b 41 85 3e dd f0 1d be e5 3f 35 be f5 a9 30 3e
       0.26026282 -0.15423913 -0.17700155 0.17252333
000140 67 e2 04 3e d6 04 3b 3e fd 6f f4 bd 81 19 d5 3e
       0.1297699 0.18263564 -0.119354226 0.4162102
000150 c1 89 0f be 21 a1 86 3e e6 c0 43 3e 1b 2e 44 3e
       -0.14017393 0.26294807 0.19116554 0.19158213
000160 9a 3d 17 be 4b e6 fe 3d 50 21 c3 3d 60 bf 54 3e
       -0.14769593 0.12446269 0.09527838 0.20776129
000170 d9 94 35 bd 43 5c 8d be 9b 91 3b be 37 c3 7f 3e
       -0.044331405 -0.27609453 -0.18317263 0.24976812
000180 0b 79 07 3e b2 2a 95 bd 18 9d 71 be 65 b3 23 3e
       0.13229768 -0.07283534 -0.23595083 0.15986402

enc.2.bias f4 [10]
000000 3d 6a ae 3e 9a 3c b6 3e f8 04 90 3e 24 2c ce 3e
       0.34065428 0.3559311 0.2812879 0.40268052
000010 21 70 bc 3e b8 c7 2a 3e 2e 2c be 3e aa 45 e6 bd
       0.36804298 0.16677749 0.3714308 -0.11243756
000020 d9 80 ba 3d 53 d9 1d bd
       0.09106607 -0.038537335

enc_mean.weight f4 [1, 10]
000000 80 4c d5 3c f0 0d 19 3e 9c a2 33 be e1 d0 19 be
       0.026037455 0.14946723 -0.175425 -0.15021087
000010 23 88 30 3e 01 2d 50 3e 3d 0d 19 3d e3 04 ac be
       0.17239432 0.20329668 0.03736614 -0.33597478
000020 eb d1 b0 be cf 26 e3 3d
       -0.34535155 0.110913865

enc_std.0.weight f4 [1, 10]
000000 a5 49 a5 be a8 74 4d be 8b 00 33 be 61 cb ba be
       -0.3228275 -0.20064032 -0.17480676 -0.3648329
000010 d1 f9 82 be b3 1c 92 3d ac 1c 12 be 99 c5 e7 bc
       -0.2558122 0.0713438 -0.1426875 -0.028292464
000020 6a 04 11 bd 42 b1 36 3e
       -0.0354046 0.17841056

prior.0.weight f4 [10, 10]
000000 12 35 2e be a3 72 f9 3e 7c 3d 0d 3f 9c 8e d6 be
       -0.17012432 0.48720273 0.5517194 -0.41905677
000010 04 86 62 3e 38 78 59 be 33 36 8b ba 57 8d b9 3d
       0.22121435 -0.21237266 -0.0010621011 0.090601616
000020 60 e3 22 3d c2 aa de be dd 73 a0 bd c3 e8 dd 3e
       0.039767623 -0.43489653 -0.07834599 0.43341646
000030 dd 7b f6 3d 31 c8 89 3d 32 e2 35 3e 56 d6 9f 3d
       0.12035344 0.067276366 0.17762068 0.07804553
000040 32 87 f6 3c 18 da 15 bf 0b ae 10 be f4 38 df 3d
       0.030093763 -0.5853591 -0.14128892 0.10899535
000050 a0 49 9b be b6 93 9d bc 93 59 4c bc 79 c3 22 be
       -0.3032961 -0.019235473 -0.012472528 -0.1589488
000060 ff 57 1a be e3 b7 91 bd 66 b6 94 3e c9 c0 48 be
       -0.1507263 -0.07115152 0.2904541 -0.19604792
000070 3a 3e 7a be 4b d5 51 3e bc 15 25 be 79 46 29 bc
       -0.244378 0.20491521 -0.16121572 -0.010331743
000080 7d d1 71 be d3 d8 4c be 12 e3 1c 3e 42 16 05 3e
       -0.2361507 -0.20004587 0.15320995 0.12996772
000090 f7 fb 47 be 58 99 ff 3e 25 2a 35 bd a0 6e c9 be
       -0.1952971 0.4992168 -0.044229645 -0.39342213
0000a0 a0 72 7d bd 10 1b 6c bd f9 76 05 3f 4f 6a 04 bd
       -0.061876893 -0.057642996 0.5213466 -0.032327946
0000b0 0a 63 1b be 71 a5 12 be c1 b7 96 be 2e e8 cc bd
       -0.15174499 -0.14320923 -0.29437068 -0.10005222
0000c0 eb 43 b4 bc 57 7e 9a be e0 9a 91 be 38 ad a3 bd
       -0.022005042 -0.30174515 -0.28438473 -0.07992023
0000d0 68 88 d5 bd 06 48 59 be 1a f5 42 bd a2 83 5f be
       -0.10426408 -0.21218881 -0.04759703 -0.21827558
0000e0 e4 fd 7c be f2 e0 ea 3d 82 3d 39 be f1 ce 76 bd
       -0.24706227 0.11468686 -0.1808987 -0.06025595
0000f0 e7 18 3b 3e c5 1a 87 be c4 76 87 3c b6 58 88 bd
       0.18271218 -0.2638761 0.016536124 -0.06657545
000100 ff 88 38 be 2f f0 18 be d9 5c 7d be ff da 96 bc
       -0.1802101 -0.14935373 -0.2474245 -0.018414972
000110 4f 4a 97 3e 11 ae 8a 3e 3e 4a 28 bd 9c b1 c3 be
       0.2954888 0.27085927 -0.041086428 -0.38221443
000120 ab 82 77 3d 6a 89 30 3e 6a ad d1 bd 56 f7 40 3d
       0.06042735 0.1723992 -0.10238154 0.047110878
000130 a3 46 0a be 79 96 e0 bd 97 20 5f be d5 52 88 3e
       -0.13503508 -0.109662004 -0.21789776 0.26625696
000140 07 d9 9e 3d 51 00 e1 bd e2 ea af bd 66 6c 7a be
       0.077562384 -0.109863885 -0.08589722 -0.24455413
000150 63 c8 ab 3e ce 7d 2b 3e 44 97 a2 be e3 4b e0 3d
       0.3355132 0.1674721 -0.31756032 0.10951974
000160 ef 70 15 bd 38 4e 35 be 9f 80 22 3e 29 f5 05 3e
       -0.036484655 -0.1770562 0.15869378 0.13081802
000170 9f eb 00 be 3b 8b 7e be ec 03 11 be ee 17 75 3e
       -0.12589882 -0.248578 -0.14161652 0.2393491
000180 fe 44 4d 3e 83 22 95 be 19 1e 89 3e fa 37 37 3e
       0.2004585 -0.29127893 0.26780775 0.17892447

prior.0.bias f4 [10]
000000 66 f0 9e 3e f3 18 ce 3e c6 4d 0c 3e e6 d1 0b 3e
       0.31042784 0.4025341 0.13701543 0.13654289
000010 ff b9 ab 3e 1e 3c 27 3e d6 b5 e7 bc c1 76 49 bb
       0.3354034 0.16331527 -0.028284948 -0.003074095
000020 7e db 13 3e ab 35 0b 3f
       0.14439198 0.54378766

prior_mean.weight f4 [1, 10]
000000 b3 6b c2 3d 55 75 c6 3e db 1c c2 3e 92 95 86 be
       0.09493198 0.38761392 0.3791264 -0.26285988
000010 67 89 a3 3e af 4f 3f 3e 40 a5 94 3e 9e 9b bd bc
       0.31940767 0.1868274 0.29032326 -0.023145493
000020 ac 2c 27 be 30 35 7e 3d
       -0.16325635 0.062062442

prior_std.0.weight f4 [1, 10]
000000 0e 02 f6 be cc 01 ac be 46 50 34 be 70 01 f4 be
       -0.48048443 -0.3359512 -0.17608747 -0.47657347
000010 ec 77 ec bd d7 b4 d9 3d 13 dc 3d 3e 54 b6 51 3e
       -0.11546311 0.106301956 0.18540983 0.20479709
000020 20 50 e3 be e1 86 38 bf
       -0.44397068 -0.7208081

dec.0.weight f4 [10, 20]
000000 bc 6f 92 3d 05 4e 2a 3e dd 57 05 3e 9e cd fa 3c
       0.07150218 0.16631325 0.13021798 0.030615624
000010 95 ed a8 3d 0a 36 54 be 93 57 0f be 5d 2d f3 bd
       0.0824844 -0.2072374 -0.1399825 -0.11873887
000020 41 5b f1 bd 34 05 3e 3e 68 33 3a 3e 93 f1 a5 bd
       -0.117849834 0.18556672 0.18183672 -0.08102717
000030 b9 c5 45 bc 0d ea 23 3b 13 99 21 3d e7 68 31 3e
       -0.012071067 0.0025011331 0.039452624 0.17325173
000040 41 54 31 be 8e fb 27 bd 24 fc b5 3d 73 e8 9e 3c
       -0.17317297 -0.041011386 0.08885983 0.01939795
000050 1e 16 ca 3b 2b 0a f2 3d 8d 98 fa 3d ed 50 0d 3d
       0.0061671874 0.11818346 0.12236128 0.034501005
000060 13 fc bf bd d8 b2 01 3e fc b6 23 3e 7f 7f 1f 3b
       -0.09374251 0.1266588 0.15987772 0.0024337468
000070 38 a5 24 be c7 cf c2 bd 7a 1c 5b 3e 8b eb 91 3d
       -0.16078651 -0.09512287 0.21397582 0.071250044
000080 5e 71 09 be d1 d3 3b bd 6d cd 4a 3e c2 e5 c7 3a
       -0.13422152 -0.0458563 0.19804926 0.0015250968
000090 cc 5f f2 3d 7d f6 c2 3d af db 27 be fc 5e 2d 3e
       0.11834678 0.0951967 -0.16392396 0.16930765
0000a0 58 ae 6e bd 08 17 0a be 81 a0 22 3e d3 a8 9a 3d
       -0.058271736 -0.13485348 0.1588154 0.07551732
0000b0 cc 04 08 3e 3f 97 a2 bd 4d 4e fa bd 42 b8 1c be
       0.1328308 -0.07939004 -0.12221966 -0.15304664
0000c0 1d 8c 88 3c 31 d6 d9 bb 46 8e ee 3d 41 1b 39 bd
       0.016668374 -0.006647848 0.1164823 -0.045192007
0000d0 71 df ee bd 93 2f 99 bd ac 07 05 be a5 25 c4 bd
       -0.11663712 -0.07479777 -0.12991208 -0.095774926
0000e0 59 74 c0 bc ad e4 8f bd ad fb 30 be 14 3d 77 3d
       -0.023492979 -0.07026038 -0.17283507 0.060360983
0000f0 e0 9d 28 3e ec 11 c9 bd 3e 86 72 bd 8c 91 94 bd
       0.16466475 -0.098178715 -0.059210055 -0.07254323
000100 05 84 20 3e 8a b5 bd bd 2a 98 e5 3c 57 e9 f8 bd
       0.15675361 -0.092631415 0.028026659 -0.12153881
000110 ff 09 17 be 1f bb 59 3e 64 37 28 3e e0 ba 26 bd
       -0.14749907 0.21262787 0.1642738 -0.04070556
000120 e9 b9 a5 bd 11 06 a1 bd 07 10 4a be ca e3 3e 3e
       -0.080921 -0.07862485 -0.19732676 0.18641582
000130 d0 0b 48 be 8e 84 2f 3e 87 93 ef bd 91 ae 28 3e
       -0.19535756 0.1714041 -0.116980605 0.16472842
000140 f8 68 01 be 7a 6f 1a 3e 3e 74 31 3e 4c 9c a5 bc
       -0.12637699 0.15081587 0.17329499 -0.02021613
000150 ce df 19 be 2c c9 07 be 7c 98 20 3e ee ee 3f be
       -0.15026781 -0.13260335 0.15683168 -0.18743488
000160 05 72 cb bd 87 c5 99 b9 ef 06 56 3c 16 67 49 be
       -0.09933857 -0.00029329603 0.013063177 -0.1966823
000170 a1 d2 61 3e 70 74 5f be c3 02 15 bd bc 3b 68 3d
       0.22053005 -0.21821761 -0.036379587 0.056697592
000180 e9 27 07 3e f9 96 51 3e f3 f1 2b 3e fd 6b 16 3e
       0.13198818 0.20467748 0.16791515 0.14689632
000190 5d 96 5a be 9f b0 43 be 7e 03 09 be b5 c3 1e 3e
       -0.21346422 -0.19110344 -0.13380238 0.15504344
0001a0 a9 11 0b 3e 23 d1 3f be 0d d2 33 be 92 4e 99 ba
       0.13580956 -0.18732123 -0.17560597 -0.0011696389
0001b0 41 f8 bc bd c7 99 45 3e 8c 67 22 bc 18 e5 5f 3e
       -0.09227038 0.19296943 -0.009912383 0.21864736
0001c0 00 86 b2 bd e9 2d 5d bd 6a c5 10 3e df 13 4e be
       -0.08716965 -0.05399886 0.14137807 -0.20124768
0001d0 38 b0 d7 3d f7 12 56 3e 8c 23 ad bd 74 b4 06 3e
       0.10531658 0.20905672 -0.08454046 0.13154775
0001e0 e9 42 c5 bc 70 ea be bd 59 32 21 be 2d 2d 95 3d
       -0.024079757 -0.09322059 -0.15741862 0.07284007
0001f0 1c 27 95 3d 91 55 2d be 46 d4 7d bd 4c 0a 80 bd
       0.0728285 -0.16927172 -0.061970018 -0.06251964
000200 90 da 47 3e 3a e2 36 be a1 99 a7 bd 8e 7d 64 be
       0.19516969 -0.17859736 -0.08183599 -0.2231352
000210 de d6 1d bc c2 23 26 be c1 05 f2 3c 76 e5 2e be
       -0.009633748 -0.16224578 0.02954376 -0.1707972
000220 05 2a 9d 3d 82 e0 15 3e 22 5d 09 be 41 07 b7 bd
       0.0767403 0.14636424 -0.13414434 -0.089369304
000230 2b 40 da bd 2e b1 8a 38 7b d1 41 be 3f dc ad bd
       -0.1065677 6.613355e-05 -0.18927567 -0.08489274
000240 59 2f 1b be 64 39 1c 3d 30 b3 b5 bd 91 11 3e bd
       -0.1515478 0.03814067 -0.08872068 -0.04640347
000250 50 bb 98 3d c2 42 05 be 66 5e 5b be fe 18 0b be
       0.07457602 -0.13013747 -0.21422729 -0.13583753
000260 38 43 9e 3d b7 83 2a be d7 e8 5c ba 7a 68 54 be
       0.07727665 -0.16651808 -0.000842703 -0.2074298
000270 60 43 21 3d 9c e2 08 be c7 27 2e 3e 7e 1c 45 be
       0.039370894 -0.13367695 0.17007361 -0.1924915
000280 ca 6f cd bd 61 8b 8b 3d 74 7c 31 be 79 d2 07 be
       -0.10031088 0.06813694 -0.17332631 -0.13263883
000290 38 3f db 3d 7e f5 11 be e9 06 60 be 7f f7 51 3c
       0.107054174 -0.14253804 -0.21877636 0.012815355
0002a0 c5 e6 d9 3d a8 5c a8 3b 03 47 03 be 98 d3 ac bd
       0.10639719 0.0051379986 -0.12820058 -0.08438796
0002b0 96 bd 21 3e 64 64 9c bd 93 32 b5 3d a0 5c 87 bc
       0.15794978 -0.076363355 0.08847537 -0.01652366
0002c0 b0 b2 f4 bd b7 48 6e 3c a7 64 19 be 2b ad 3e 3d
       -0.119481444 0.014543704 -0.14979802 0.046551865
0002d0 22 b1 f2 3d 78 a2 46 be b3 47 54 be 32 1a 84 bd
       0.11850192 -0.19397914 -0.20730476 -0.06450309
0002e0 67 85 86 3d 42 88 e4 bb 9b b3 33 3d 81 d5 26 3e
       0.06568413 -0.006974251 0.043872457 0.16292383
0002f0 da f7 cd bd 1e 50 79 3d 99 c7 e6 3b 7b af ba bd
       -0.100570396 0.06086742 0.007042837 -0.091155015
000300 d6 e8 51 3e 10 14 d2 3d a7 dc 5e 3e 28 3e 62 bd
       0.20498976 0.10257733 0.2176386 -0.055235058
000310 c8 01 ba bd d8 7f b6 bd 99 47 e6 3d cd cb f3 3d
       -0.09082371 -0.08911103 0.11244125 0.11904106

dec.0.bias f4 [10]
000000 7c 27 ee bd ba d6 ac 3d 6c dc 1a 3d 9d 23 49 be
       -0.11628625 0.08439393 0.037807867 -0.19642492
000010 ca 9b b2 bb f5 cc 09 be 99 28 cd 3d e3 c0 46 be
       -0.0054507004 -0.13457091 0.10017509 -0.19409518
000020 40 ef 85 bc 33 92 7e 3d
       -0.016349435 0.062151145

dec.2.weight f4 [10, 10]
000000 4b 63 12 be 94 94 2e be 91 d9 6d be 13 0b 85 3c
       -0.1429569 -0.17048866 -0.23227526 0.016240632
000010 bd 1d 9e 3e 30 9e 93 bd b5 09 7f 3e f7 14 30 3e
       0.30882064 -0.07207906 0.24906047 0.17195497
000020 e5 b9 03 3d 62 ea de 3c 03 ba 89 3e bc db f1 bd
       0.032159705 0.027211372 0.26899728 -0.11809489
000030 8d 37 72 be a1 93 60 bd 6c fa 27 3e 21 52 79 3e
       -0.23654003 -0.05482829 0.16404122 0.24347736
000040 e9 9f 8f be 3e 4e 8a be 10 ba 80 be 18 e3 06 be
       -0.2805169 -0.2701282 -0.25141954 -0.13172567
000050 55 fa 46 be fd ee 34 3c c0 a8 ab bc a8 0d 7e be
       -0.19431432 0.011043307 -0.02095449 -0.24809897
000060 34 31 26 bd 63 e1 92 3e 69 55 2c 3d 3c dc 40 3e
       -0.040574268 0.2868758 0.04207364 0.18834013
000070 50 a0 42 3e c5 c5 36 be f6 a2 95 3d 6a 79 92 be
       0.19006467 -0.1784888 0.07306473 -0.28608257
000080 d1 24 87 be d2 9f 8f 3e 56 c7 5d 3e 87 4c 14 3d
       -0.26395276 0.2805162 0.21658072 0.036205795
000090 d2 8e 6d be 8c 8f 27 be 74 ea d9 3d a3 62 0e be
       -0.23199013 -0.16363353 0.106404215 -0.13904814
0000a0 a8 bf 50 3e 56 8c 0c 3e 09 82 2d be 25 61 87 be
       0.20385611 0.13725409 -0.16944136 -0.26441303
0000b0 c6 c7 aa 3d 88 40 11 be 08 45 38 3e f2 9e 94 3c
       0.08338885 -0.14184773 0.17995083 0.018142197
0000c0 da fd 8d 3e f8 72 c1 3d 40 12 92 be 03 10 53 3e
       0.27732736 0.09445757 -0.2852955 0.20611577
0000d0 cc 08 f8 bd cc 25 dc bc 46 75 40 be df 7e 08 3e
       -0.12111053 -0.026873492 -0.18794736 0.13329647
0000e0 41 4a 89 3e 2d 51 99 be d0 e4 93 3e 16 44 6b be
       0.26814464 -0.29944745 0.28885508 -0.22975191
0000f0 77 9a 69 bb ce b5 6a ba c4 e6 94 3e 14 65 b2 bd
       -0.0035645047 -0.00089534826 0.2908231 -0.08710685
000100 5c dc 92 bd e6 d8 85 bd 39 2c e6 3d 75 63 98 bd
       -0.071709365 -0.06535511 0.112389036 -0.07440845
000110 fb ba 4b be 22 6f 7b 3d 8b aa a7 3c 70 d0 65 be
       -0.19895546 0.06138528 0.020467063 -0.22442794
000120 d3 00 72 be f0 45 dd 3d 16 88 51 be 80 a9 03 3e
       -0.23633127 0.10804355 -0.20462069 0.12857628
000130 32 a8 53 3e 56 eb 5d be c8 cb ed 3d 9d 72 81 bd
       0.2066963 -0.21671805 0.11611134 -0.06320689
000140 78 a3 5e bc 13 0f 0b be 00 49 a6 bb 8d 70 90 bd
       -0.013588779 -0.13579969 -0.0050746202 -0.07052717
000150 4d 55 d1 3c e5 99 92 be ff a2 f5 3d ed 8a f5 3d
       0.02555337 -0.28633037 0.1199398 0.119893886
000160 73 57 c3 3d 64 a7 8f be f1 31 a1 be 5c a8 34 be
       0.09538164 -0.28057396 -0.31483415 -0.17642349
000170 6a a9 7a 3e 15 76 98 3e 0b 80 2c 3e 23 db 86 3c
       0.24478689 0.2977759 0.1684572 0.016461914
000180 85 65 8a 3e e3 40 5e 3d fe 14 10 3e f0 e0 2e be
       0.27030578 0.0542611 0.14070508 -0.17077994

dec.2.bias f4 [10]
000000 82 c9 93 be 8e 8a 27 be 51 f7 ac 3c f7 c6 9b 3e
       -0.28864676 -0.16361448 0.021114023 0.30425236
000010 d2 b8 6f 3d db 7d 51 3d 92 39 1f be 03 08 69 bd
       0.058525868 0.051145416 -0.15549305 -0.056892406
000020 3c ce 64 be 90 20 53 3e
       -0.22344297 0.2061789

dec_std.0.weight f4 [1, 10]
000000 eb ed 02 be b8 d3 a8 bc a3 1d 4e 3e 73 25 4a bd
       -0.12786071 -0.020608768 0.20128493 -0.04935212
000010 02 68 56 bd 09 ef 22 bd 71 4f 69 bd 8e 61 02 be
       -0.052345283 -0.039778743 -0.056960527 -0.12732527
000020 a7 02 97 3e 3a e5 3e be
       0.2949421 -0.1864213

dec_mean.0.weight f4 [1, 10]
000000 8c 20 6a ba cb 4b 07 3a f0 ca c1 bd 06 37 14 bd
       -0.00089312415 0.00051611353 -0.094625354 -0.036185287
000010 d7 f8 a0 be b9 c6 90 bd 9a 32 c5 bd f0 76 f1 3c
       -0.3143985 -0.07069153 -0.09628792 0.02947566
000020 ee 61 c1 3c be d7 8e be
       0.023606267 -0.27898973

rnn.weight_ih_l0 f4 [30, 20]
000000 14 cf ac 3c 70 92 50 3e f0 e2 08 3e e3 1a f9 bd
       0.021094836 0.20368361 0.1336782 -0.12163331
000010 11 d9 da 3e 31 07 7c be 7e e6 64 3e ce 6c 01 3b
       0.42743734 -0.24612118 0.22353551 0.001974869
000020 1f ed 96 3e 48 56 89 bc 0d 96 d0 3e 4e c2 8a bd
       0.29477784 -0.016764775 0.4073948 -0.06775342
000030 cc cf d4 3e e7 85 c4 3e 85 d0 5a 3e 0a bc 7a 3e
       0.41564786 0.3838341 0.21368606 0.24485794
000040 e8 51 a5 bc 7b 3c 97 3e 93 27 55 be f8 fb ec bd
       -0.020180658 0.2953833 -0.20815878 -0.11571497
000050 f9 01 42 3d f9 f6 a0 3d 23 38 7c 3e e0 9d a1 3d
       0.047365163 0.07859606 0.2463079 0.078914404
000060 51 14 08 be bf b7 41 be b8 f0 64 3e df a4 07 bf
       -0.13289 -0.1891775 0.22357452 -0.5298595
000070 03 f7 a9 3e 1f 27 81 be 3f b3 00 3e 63 4f 25 be
       0.33196267 -0.2522516 0.12568377 -0.16143565
000080 e6 5c b9 3d d5 43 38 3d c6 5a 06 3e 5e 71 09 be
       0.09050922 0.044986565 0.13120565 -0.13422152
000090 34 74 cb 3b 0f 13 b5 bd 4b 69 5f 3e 68 2a 31 be
       0.006208921 -0.08841526 0.2181751 -0.17301333
0000a0 71 cf 56 be 81 88 14 be 3c df 2f be 8d 4c 28 be
       -0.2097757 -0.14505197 -0.17175001 -0.16435452
0000b0 e1 50 1a 3e 0c 32 45 be 72 18 9a 3e ee 9a 00 bf
       0.15069915 -0.19257373 0.30096775 -0.50236404
0000c0 9c 27 f9 bd e9 89 88 3e f8 17 66 be d7 82 81 3d
       -0.12165758 0.26667717 -0.22470081 0.06323784
0000d0 17 b0 c8 3d 32 f2 7a bd 5a a8 8f be 93 86 bc bc
       0.097992115 -0.06126613 -0.2805813 -0.023013389
0000e0 1e b1 4b be c5 ae 9a be 05 61 8e 3d 0f d4 50 3e
       -0.19891784 -0.30211464 0.06952099 0.20393394
0000f0 44 6c 9e be 0e 0a 93 3d d7 40 00 3e 74 6a 89 be
       -0.30941975 0.07179652 0.12524734 -0.2683903
000100 fa 13 a1 3d 7d 91 52 bd 19 15 21 ba 0e 2b 69 bd
       0.07865138 -0.05140828 -0.00061448064 -0.056925826
000110 21 97 5e be 95 39 97 3e 26 a2 c9 3d 78 62 a6 3e
       -0.21737339 0.2953612 0.098453805 0.32497
000120 80 96 c0 3d 15 e4 a8 3e b6 c2 63 3e cc e7 8e bd
       0.094037056 0.32986513 0.22242245 -0.069778055
000130 48 57 b6 3d d3 bb f5 3d 09 d4 1a be 45 6b be 3e
       0.08903366 0.11998715 -0.15119947 0.37191215
000140 20 a4 5e 3e 01 3d 20 be 8e 30 25 3e 8b fb 9f be
       0.21742296 -0.15648271 0.16131803 -0.312466
000150 69 a6 88 be 46 9c 8f 3e 07 21 6b 3e 7a 43 5c bc
       -0.2668946 0.28048915 0.22961818 -0.013443822
000160 f3 b5 1c be 7b e8 25 be 36 f7 d3 3d 8a c3 47 3e
       -0.15303783 -0.16201966 0.10349886 0.19508186
000170 69 35 c3 3a 94 7e 99 3e 6d 1d 87 bd 5c a8 40 be
       0.0014893237 0.29979384 -0.065974094 -0.18814224
000180 8e dd 1d be 10 f4 03 be a1 24 6e be dc db 98 bc
       -0.15416548 -0.12886071 -0.2325616 -0.018659525
000190 c3 15 cc 3c 95 54 8d 3e cf ef c9 bc ef fe 74 be
       0.02491272 0.27603593 -0.024650482 -0.23925374
0001a0 2e 6e 06 3e 25 62 9a bb 6f 8c f5 bd 0e 80 8e be
       0.13127968 -0.004711407 -0.11989676 -0.27832073
0001b0 02 98 b4 3d 59 0e 0f 3e d4 79 43 3e 6a 78 6d bd
       0.08818056 0.13970317 0.19089442 -0.057976164
0001c0 ee be 88 3e 39 27 a2 3e 49 c9 07 3e 6e 13 26 3e
       0.26708168 0.3167055 0.13260378 0.1621835
0001d0 7b d5 ae bd 97 b9 df bd 86 cd 87 3e b7 0c c5 3e
       -0.08536812 -0.1092407 0.2652399 0.38486263
0001e0 eb 14 e4 3c 6b fc 18 be 21 ab 0e be 00 ec ad bc
       0.027842006 -0.1494004 -0.13932468 -0.021230698
0001f0 93 fc 97 3e c7 2c 1b be cb e1 8f 3b b9 c4 48 bd
       0.29684886 -0.151538 0.0043909303 -0.049015734
000200 88 0c 10 3e bd 57 8b 3d c1 eb 91 3c bc 9a 3e be
       0.1406728 0.06803844 0.017812612 -0.18613714
000210 b3 44 b9 3e 1d b9 c6 3d 42 0e 0b be 18 fa 8b 3e
       0.36185226 0.09703276 -0.13579658 0.27339244
000220 53 6d 83 bd cc 6e 8b 3e 88 f2 f8 3d 4a cb 94 3e
       -0.06417336 0.2723297 0.12155634 0.29061347
000230 2d 6a 3e bd c4 a6 a1 be f6 c3 3e 3e 86 08 15 be
       -0.046487976 -0.31572545 0.1862944 -0.14554033
000240 a4 5c 63 3e fc 38 84 3e 01 2a cc bd f9 61 ce 3e
       0.22203308 0.25824726 -0.09968949 0.40309122
000250 13 9b 4f bd b2 04 8a 3e 88 c6 87 3e be 87 5b be
       -0.050685 0.26956707 0.26518655 -0.214385
000260 1f 88 0f be b4 59 08 3e 31 2a 6a 3e 6d 08 25 3e
       -0.1401677 0.13315469 0.22867657 0.16116495
000270 1f 86 ee 3d 76 7f c2 3d 49 55 a4 be c7 02 8e bd
       0.11646675 0.094969675 -0.32096317 -0.069341235
000280 5f 74 5c 3e f3 f6 04 be 53 ab 79 bb 1f 9d 54 ba
       0.21528767 -0.12984829 -0.0038096502 -0.0008110571
000290 19 37 36 3d 72 b1 62 bd 92 52 35 be 41 84 32 3e
       0.04448614 -0.055345006 -0.1770728 0.17433263
0002a0 7e c8 32 3d 27 82 20 3e 04 83 07 be 02 71 3b 3d
       0.043648235 0.15674649 -0.13233572 0.04576207
0002b0 c0 d7 d5 3b a0 c1 ef bd b8 13 72 3e a5 c9 8a 3c
       0.0065259635 -0.11706853 0.23640335 0.016941855
0002c0 43 71 46 3e 95 80 33 bd 72 44 7c be b5 f2 c2 bc
       0.19379143 -0.043823797 -0.24635485 -0.023797372
0002d0 c7 c3 84 3e d0 ac 50 3e 8b 0e fe bd 1e fb 6d 3e
       0.25930616 0.20378423 -0.124051176 0.23240325
0002e0 8d 71 cc 3e e6 82 c1 bc 33 f9 7e 3e c3 47 3d 3e
       0.39930382 -0.023621988 0.2489975 0.18484406
0002f0 7b 23 db ba 48 6c 2d be 55 d1 96 bd aa 8f a8 3e
       -0.0016718948 -0.16935837 -0.07364146 0.32922107
000300 e6 e5 26 bd 11 d7 07 3f 87 1c 02 3f 34 b3 f8 3e
       -0.040746592 0.5306254 0.5082478 0.4857422
000310 56 8d ac 3e 93 c7 06 3b 8c 99 db 3e 2a 35 ba 3e
       0.3370158 0.0020565733 0.42890584 0.36368686
000320 f8 1c 50 bd 57 76 49 be 63 35 a1 3e 68 3e 66 3d
       -0.050808877 -0.1967405 0.31486043 0.05621186
000330 3e 75 66 be f7 4b 36 3e 97 bf 45 3e 05 83 11 be
       -0.22505662 0.17802416 0.19311367 -0.14210136
000340 7c 76 d7 be ea 65 7e 3e 2a 1e 54 be 56 ce 2c 3d
       -0.42082584 0.24843565 -0.20714632 0.042188965
000350 fb 57 19 3e 93 64 83 be ce f4 23 3e 00 57 41 3c
       0.14974968 -0.2566267 0.16011354 0.011800528
000360 d3 c7 e6 3b 6c 6b 8b 3e b6 ee 32 be ad f0 e2 be
       0.007042864 0.27230394 -0.17473873 -0.44324246
000370 98 9d 30 bd b4 74 51 be a0 68 6f 3e c6 a0 48 be
       -0.043119043 -0.20454675 0.23379755 -0.1959258
000380 91 b1 1c bd 18 9c 9d be 05 87 dd 3d cd b9 30 be
       -0.038255278 -0.30783153 0.108167686 -0.17258377
000390 b4 ba 45 3e c9 cc 3f be c7 4c 70 3e d2 06 50 be
       0.19309503 -0.18730463 0.23466788 -0.20315102
0003a0 8f de 2c be 3d 81 59 be 5b 50 4c 3d 27 39 5f 3d
       -0.16881774 -0.21240707 0.04988132 0.054497864
0003b0 51 78 a3 be e2 6a 0d be c8 8f b4 bd b0 06 ec bd
       -0.31927732 -0.13810304 -0.088164866 -0.11524713
0003c0 e9 13 29 be f6 d9 26 be ea 69 9f be e3 29 69 bc
       -0.16511501 -0.16294083 -0.31135494 -0.014231178
0003d0 b2 63 c5 be b3 ee 9b 3e b2 05 f3 ba 50 71 b4 bd
       -0.38552624 0.3045555 -0.0018541126 -0.08810675
0003e0 4c 29 5c bc 91 8e ac 3c e6 c8 e5 bd c6 1c 78 3d
       -0.01343758 0.021064075 -0.11219959 0.060574315
0003f0 87 01 1f 3e 53 a9 8f be 50 57 7e be 3a 94 91 bd
       0.15527926 -0.28058872 -0.24837995 -0.0710835

rnn.weight_hh_l0 f4 [30, 10]
000000 4d 94 a8 3d 09 0b e5 3e 26 1e 2c be 40 e4 e4 3d
       0.08231411 0.44734982 -0.16808376 0.11176348
000010 53 be a5 3e 55 70 9e be af 6b ca be 6f 6b e1 bd
       0.32371768 -0.30945078 -0.3953528 -0.110068195
000020 2d ef 46 be 23 6e 21 bd 90 c9 bc bd be 42 8e 3e
       -0.19427176 -0.039411675 -0.092181325 0.27785295
000030 04 e3 0f 3d 88 ec 1d 3e ef cd cb 3e b9 93 81 3c
       0.03512861 0.15422261 0.39805552 0.01581751
000040 96 ac 9a be 6f a2 82 3e 0b 65 8f be 90 1e af bd
       -0.30209798 0.25514552 -0.28006777 -0.08550751
000050 88 14 65 bd 9a 5d 5f be 98 9d 2b be df 91 90 3e
       -0.055927783 -0.2181305 -0.16759336 0.2823629
000060 a3 12 a4 be 40 f9 33 3e dc d0 a1 bd 85 84 04 be
       -0.3204547 0.1757555 -0.07901165 -0.12941177
000070 2d 82 86 bd 1e 98 68 be 7f 91 c0 bc 14 c7 44 3e
       -0.06567798 -0.22714278 -0.023506878 0.19216567
000080 2b 01 5c be 9b 18 b5 3d 70 a9 3f 3e 80 84 1d 3e
       -0.2148482 0.08842584 0.18716979 0.15382576
000090 d5 af 4b 3d 5a a4 5e 3e fa ea 9d be 3c 5e 00 3c
       0.049728233 0.21742383 -0.30843335 0.007834967
0000a0 ef f2 2f 3e 63 b5 8e be c9 8e 8c be e9 db 81 be
       0.17182516 -0.27872762 -0.27452686 -0.2536309
0000b0 22 61 31 3e a5 5e 1d 3e e0 86 89 bd 71 b3 a8 3e
       0.1732221 0.15368135 -0.067151785 0.32949403
0000c0 25 87 9c 3e c1 d3 1b 3e 1f f4 65 3e f2 bf 14 3e
       0.30571857 0.15217496 0.22456406 0.14526346
0000d0 73 80 34 bc 78 23 92 be 98 37 94 bc c9 a2 92 3d
       -0.011016953 -0.28542686 -0.018092915 0.07159955
0000e0 80 90 36 bd 75 bb 05 3d aa ca 1d be 37 1d b3 3d
       -0.0445714 0.032649476 -0.15409341 0.08745807
0000f0 a0 56 84 bd 54 49 c9 bd f6 7d 0a 3d 63 c8 8f 3c
       -0.06461835 -0.09828439 0.033811532 0.017551607
000100 ba 26 a0 3d 6e cc a8 be 0f c8 46 bd 72 7e d3 3e
       0.078198865 -0.32968467 -0.048530634 0.41307408
000110 24 6a e8 bd 1c 55 0d be 56 56 c4 3d 5d 19 bd 3e
       -0.1134837 -0.13801998 0.0958678 0.36933413
000120 b7 f8 c5 3e ef 9a c9 bd 96 c8 70 3e 16 0b e5 bc
       0.38666317 -0.09844004 0.23514017 -0.027959388
000130 5c 2b cf bd 83 34 29 3e d3 2c 9d be 14 a7 06 3d
       -0.10115692 0.16523938 -0.3069826 0.032874182
000140 70 27 94 3e 67 0b b0 3e d8 1c 9f 3c bf de 3f be
       0.28936338 0.343837 0.019422933 -0.18737315
000150 2d ed 07 3e b7 1d 09 3e a5 24 e1 3d 72 60 49 bd
       0.13274069 0.13390242 0.109933175 -0.049164243
000160 47 ac 88 3d 35 05 76 be 86 0c 0a be e7 f8 34 3c
       0.06673484 -0.24025424 -0.1348134 0.011045671
000170 ae e5 f0 3d 93 3f 6d be cc 71 98 3d 34 f2 ba be
       0.11762558 -0.23168783 0.0744358 -0.3651291
000180 bd f6 3c be 72 31 80 bd ef 19 04 bf 32 d2 19 be
       -0.18453498 -0.06259431 -0.5160207 -0.1502159
000190 83 f8 8b 3e 9a 57 90 be e3 d3 4d bd 07 c5 d1 bd
       0.27338037 -0.28191835 -0.0502509 -0.10242658
0001a0 78 5d 8c be 04 4d f2 bd 95 ec 4d be fc 70 23 3e
       -0.2741506 -0.11831096 -0.2010978 0.15961069
0001b0 8c d5 89 bd b1 2a c5 3d 58 bb 8b be 0c 43 e0 bd
       -0.06730184 0.09627283 -0.2729137 -0.10950288
0001c0 19 bf ba be 9d b7 76 3e 4a e4 47 be 7e ee 54 bd
       -0.3647392 0.2409348 -0.19520679 -0.051985256
0001d0 b2 0f d6 bd c0 12 eb bd 88 90 b6 3d 54 35 4c 3e
       -0.104522124 -0.11478186 0.08914286 0.19942218
0001e0 4c 41 9d be d4 3f 7d be fd 91 be be 4a c1 72 3e
       -0.3071388 -0.2473138 -0.37220755 0.23706546
0001f0 0c 57 86 bd 3b 21 f6 3e f9 ee 86 3e cc 0e e3 be
       -0.065595716 0.48072228 0.26354197 -0.44347227
000200 6a 5f 71 3e 59 84 95 3e 17 3d a8 bc 9a 58 20 3d
       0.23571554 0.29202536 -0.020536942 0.039146997
000210 63 50 4f be 77 bd 8c 3e b0 96 d4 3d 8d b1 bd 3d
       -0.20245509 0.274883 0.10380304 0.09262381
000220 93 5a b6 3e 63 54 55 3d c8 d3 d0 3e bd 84 6e 3e
       0.35615978 0.05208243 0.40786576 0.23292823
000230 cd c4 5e 3e 8b b3 9a 3c 66 9c 48 be a2 da f7 bd
       0.21754761 0.01888444 -0.19590911 -0.12102248
000240 c2 3d 05 3e 68 ff e6 3d 60 97 aa 3c fc f9 8f 3d
       0.1301184 0.112791836 0.020824134 0.070301026
000250 92 78 e7 bd e1 5e 03 bd 27 63 3a be 84 17 0c 3d
       -0.11302294 -0.032072905 -0.18201886 0.034202114
000260 4b e5 d1 3c 99 01 ef 3d 5a 7d 4e be b4 ad 18 bb
       0.02562203 0.116702266 -0.20165005 -0.0023296895
000270 18 15 08 bd ad eb 79 bc f4 9f 04 3f ae d0 a8 3e
       -0.03322324 -0.015253943 0.5180657 0.3297171
000280 a0 42 be be 7e 67 b6 3c 0b d7 3a be 09 c8 30 be
       -0.37160206 0.022266146 -0.18246095 -0.17263807
000290 df e6 bc 3d 16 36 b6 be 2b 9b 76 be 59 e2 3c 3e
       0.09223723 -0.3558814 -0.2408263 0.1844572
0002a0 20 f7 8e 3c 9a df 6b be f0 84 2d bd 29 4a 4c bd
       0.017451823 -0.23034516 -0.042363107 -0.049875412
0002b0 a9 1e 83 be 6e 93 d9 3e f3 1e 18 be 53 2d e6 3e
       -0.2560933 0.42495292 -0.14855556 0.44956455
0002c0 5b aa 64 3d 1d f2 85 be 8a f6 af 3e a5 a2 a4 3e
       0.055826526 -0.2616128 0.34367782 0.32155338
0002d0 05 3c ef 3d b0 c5 b6 3e 4e 78 93 be 86 db 5b 3e
       0.1168137 0.356977 -0.28802723 0.2147046
0002e0 af bc a6 3d c3 bc be bd 0a 86 f8 3d ed f5 95 3d
       0.08141457 -0.09313347 0.12134941 0.07322297
0002f0 aa 9e 84 3d f8 44 b5 be ff 7a 04 be 80 8e 9e bc
       0.06475575 -0.3540418 -0.12937544 -0.019355059
000300 78 b6 50 be ba 22 1a 3e 95 09 a0 bd c2 4d 14 bd
       -0.20382106 0.1505231 -0.078143276 -0.036206968
000310 65 ca b5 3d 77 64 e4 bd 11 f8 1c be e2 d2 95 3c
       0.08876494 -0.11151975 -0.15329005 0.018289033
000320 05 3d 83 3d e4 d4 e2 3d 48 7a fc 3d 79 35 82 be
       0.06408123 0.11075762 0.12328011 -0.2543142
000330 00 e9 63 3e 87 57 08 3e 6a 02 3f bd 95 a2 8e 3e
       0.22256851 0.13314639 -0.04663316 0.27858415
000340 70 cf 08 be 26 85 e2 be cb fe 00 3e 98 18 d6 3e
       -0.13360381 -0.4424221 0.12597196 0.4181564
000350 7d 83 2f bd d2 9a c7 3d a9 47 bc bd 5a 58 7b 3d
       -0.042850006 0.097463265 -0.091933556 0.061363555
000360 f5 d1 ab be 88 0a 9d 3c 2e df d8 be a7 65 96 be
       -0.33558622 0.01917006 -0.42357773 -0.2937443
000370 d8 9d f9 3d da b8 15 3e d2 de ce bc 20 c7 16 3e
       0.121883094 0.14621297 -0.025252733 0.14724398
000380 a1 36 cf 3d 82 d3 88 3e 27 a4 b9 3d a3 f1 49 be
       0.101178415 0.26723868 0.09064513 -0.19721083
000390 91 d9 56 be 42 28 75 be 29 e2 dc be 5b 48 9e be
       -0.20981432 -0.23941138 -0.43141297 -0.30914578
0003a0 cc 00 ac bd fb 8d 74 3d 2b 3b b5 be 31 d9 f1 3d
       -0.083985895 0.059705716 -0.35396704 0.11809004
0003b0 8d 38 91 bd 13 f0 e4 be b9 3f 79 bc 44 04 3f bd
       -0.07090864 -0.44714412 -0.015212947 -0.046634927
0003c0 eb 34 29 3d 48 c4 15 bd 5c 81 71 3b ff ff a6 be
       0.041310232 -0.03656414 0.0036850786 -0.32617185
0003d0 b9 8e 64 3e 47 a8 15 be 9d 55 48 3e e7 3d bb 3d
       0.2232007 -0.14614974 0.19563909 0.09142666
0003e0 79 cb 93 bd 53 47 be bd 15 a5 ae be 28 4f c1 be
       -0.07216544 -0.09290948 -0.34110323 -0.37755704
0003f0 c1 f3 30 3d 58 88 82 3e 67 3a 08 3e 6e 4b 7e 3e
       0.04320121 0.25494647 0.13303529 0.24833462
