generative_ts/saves/250911_145509_VRNN/model_VRNN.pth (torch, 17186 bytes, 24 tensors)

phi_x.0.weight f4 [10, 1]
0	0xbf5d7a83	-0.86515063
1	0xbf8c6c84	-1.0970616
2	0xbf65120b	-0.89480656
3	0xbe950013	-0.2910162
4	0x3c533401	0.012890817
5	0x3f40a100	0.75245667
6	0xbf76f0e4	-0.9646132
7	0xbd7d70f3	-0.061875295
8	0x3dfeca1a	0.124408916
9	0xbf6e00ad	-0.9296978

phi_x.0.bias f4 [10]
0	0xbe469705	-0.19393547
1	0x3f83dbb7	1.0301427
2	0xbf14a16c	-0.5805881
3	0x3f81414b	1.0098051
4	0xbdec9e19	-0.11553592
5	0xbedd84e9	-0.43265465
6	0x3ee5d243	0.4488698
7	0x3ed5dffb	0.41772446
8	0x3f1d0f68	0.61351633
9	0x3f7155b0	0.94271374

phi_x.2.weight f4 [10, 10]
0	0xbe8ebd42	-0.27878767
1	0xbe89e947	-0.2693579
2	0xbe41507e	-0.18878362
3	0x3b3dbfb3	0.0028953373
4	0xbe0c5fd2	-0.13708428
5	0x3f01bfdf	0.506834
6	0x3dc2558e	0.094889745
7	0xbe8ebc9e	-0.27878278
8	0xbd0caec6	-0.034346364
9	0xbc42dc98	-0.011893414
10	0x3e03d55e	0.12874362
11	0xbe824647	-0.25444242
12	0x3dc723c5	0.09723619
13	0xbe67dd07	-0.22642909
14	0x3da2fd3f	0.07958459
15	0xbe94adf8	-0.29038978
16	0xbdd6edad	-0.10494552
17	0xbe543a1b	-0.2072529
18	0x3d26fc25	0.040767808
19	0x3d816069	0.06317217
20	0x3ebe08e7	0.37116167
21	0xbd82a148	-0.06378418
22	0x3ebc9901	0.36835483
23	0x3db55084	0.08853248
24	0x3de529ad	0.1118959
25	0x3f0c3030	0.5476103
26	0x3e045b92	0.12925556
27	0xbe542bea	-0.20719877
28	0xbd092c02	-0.033489235
29	0x3dfc16c1	0.123090275
30	0x3ea04a41	0.3130665
31	0x3ed14b08	0.40877557
32	0x3d91a131	0.07110823
33	0x3eda548a	0.42642623
34	0xbce82e54	-0.028342403
35	0xbe0274a0	-0.12739801
36	0xbd8b1399	-0.06790847
37	0x3ec7a906	0.38996142
38	0x3e53fda6	0.20702228
39	0x3e888fd1	0.26672223
40	0x3dbfb889	0.09361369
41	0x3ea22832	0.31671292
42	0x3e5990fa	0.2124671
43	0x3f0228a4	0.5084326
44	0x3e28290b	0.16421907
45	0xbd8c9a12	-0.06865324
46	0x3e100d4a	0.1406757
47	0x3e0d83f8	0.13819873
48	0x3e8043ef	0.2505183
49	0x3eb4b7db	0.3529652
50	0xbec1f650	-0.37883234
51	0xbe3b9aba	-0.18320742
52	0xbe8e1f38	-0.27758193
53	0xbd38a75f	-0.045081493
54	0xbdea2093	-0.11431994
55	0x3ed5c98a	0.41755325
56	0x3e67f512	0.2265208
57	0xbec14ee1	-0.37755492
58	0x3e5a7be8	0.21336329
59	0xbc8352a4	-0.016030617
60	0xbe36d51d	-0.17854734
61	0xbea53b4f	-0.3227181
62	0xbc847dd5	-0.016173283
63	0xbeeed08d	-0.46643487
64	0x3c580765	0.013185357
65	0x3e5af3e0	0.21382093
66	0xbd50e315	-0.050997812
67	0xbe335f9d	-0.17516942
68	0x3ecfb93c	0.4057101
69	0x3daaa73b	0.08332678
70	0x3e868a11	0.2627721
71	0x3e5dceaf	0.21660875
72	0x3e8899a4	0.26679718
73	0x3ecf9fb2	0.40551525
74	0x3cf62f57	0.03005187
75	0x3d31d5dc	0.043416843
76	0x3ebe081b	0.3711556
77	0x3d554b78	0.052073926
78	0x3db35eca	0.08758314
79	0xbd1b6b21	-0.037943963
80	0x3e85d267	0.26137087
81	0x3e984a2a	0.29744083
82	0x3dec13c8	0.115272105
83	0xbd8acf9e	-0.06777881
84	0x3d626bc2	0.055278547
85	0xbd5a40ef	-0.05328458
86	0x3dc82f57	0.09774654
87	0x3e8426a7	0.2581074
88	0x3e3e43db	0.18580572
89	0x3e800140	0.25000954
90	0x3d05067d	0.03247689
91	0xbed5e926	-0.4177944
92	0x3e5608e2	0.20901826
93	0x3ceb8bdf	0.02875322
94	0x3e5fb8d6	0.21847853
95	0x3eaf2946	0.34211177
96	0x3d8dcb18	0.06923503
97	0xbad603f1	-0.0016328079
98	0xbe408f2c	-0.18804616
99	0xbeae1f12	-0.3400808

phi_x.2.bias f4 [10]
0	0x3d9f6649	0.07783181
1	0xbdeb9b90	-0.115042806
2	0x3ef1f747	0.4725897
3	0x3e896898	0.2683761
4	0xbbf05209	-0.007333998
5	0xbe12df26	-0.14342937
6	0x3b3dec92	0.0028980118
7	0x3e7cb303	0.24677663
8	0xbc152dd2	-0.009105163
9	0x3d072c89	0.033001456

phi_z.0.weight f4 [10, 1]
0	0x3f7cde7c	0.98776984
1	0xbbf58bee	-0.0074934876
2	0xbdb6632e	-0.08905636
3	0x3f544b03	0.8292696
4	0x3e92a0ab	0.28638205
5	0x3ebc55e7	0.36784288
6	0x3e8639fa	0.26216108
7	0xbf43d8ea	-0.7650286
8	0x3e6cdf6f	0.23132108
9	0x3f544211	0.8291331

phi_z.0.bias f4 [10]
0	0x3f60220a	0.8755194
1	0xbda41954	-0.080126435
2	0xbf655979	-0.8958965
3	0x3e071a44	0.13193613
4	0x3ec681ae	0.38770813
5	0xbf42d518	-0.76106405
6	0x3eadebf4	0.3396908
7	0xbf5c3118	-0.8601241
8	0x3f84ce73	1.0375503
9	0xbf1b9700	-0.6077728

enc.0.weight f4 [10, 20]
0	0xbe2f01ae	-0.17090484
1	0xbe0caf3e	-0.13738725
2	0x3e4ecd1a	0.20195428
3	0x3e97ccd0	0.29648447
4	0x3e81ff08	0.25389886
5	0xbea6bedb	-0.32567486
6	0xbe0ba10f	-0.13635658
7	0x3e8cb01e	0.27478117
8	0x3e34fe18	0.17675054
9	0x3c3c6aa3	0.011500034
10	0xbd87dcd5	-0.06633917
11	0x3c4e4428	0.012589492
12	0xbe225000	-0.1585083
13	0xbdaeff97	-0.08544844
14	0x3ddeb694	0.10874668
15	0xbeb2613f	-0.34839818
16	0xbda64e03	-0.08120348
17	0x3ea46d02	0.32114416
18	0x3bd7f13a	0.0065900357
19	0x3d74683e	0.059669726
20	0x3f0acf9a	0.54223025
21	0x3d35c49a	0.044376947
22	0x3ed119c7	0.4083998
23	0xbe3e36fa	-0.1857566
24	0xbe19c92d	-0.15018149
25	0x3e43f16d	0.19135065
26	0x3ec0c264	0.37648308
27	0x3db3eac0	0.087850094
28	0xbe78f643	-0.24312691
29	0x3ee5fc3a	0.44918996
30	0xbee1ab99	-0.4407623
31	0xbed9875b	-0.4248608
32	0xbee0bf8e	-0.43896145
33	0xbe36f7a3	-0.17867903
34	0xbe72bcba	-0.23704806
35	0xbe6884f9	-0.22706975
36	0x3ee38718	0.44439006
37	0x3ea8816d	0.32911244
38	0x3ebf77cd	0.37396088
39	0xbe8b5e67	-0.2722046
40	0x3e3642e7	0.17798959
41	0xbddc1d6e	-0.10747801
42	0x3ee2fa2b	0.44331488
43	0x3e8f95b9	0.28043917
44	0x3e36ea9d	0.17862935
45	0x3ed6e699	0.41972807
46	0x3e2e6d8e	0.1703398
47	0x3e84094e	0.2578835
48	0x3d15e8fa	0.036599137
49	0x3ecebc76	0.4037816
50	0xbeada82b	-0.33917364
51	0x3dedd98e	0.11613761
52	0xbd73aab4	-0.059488967
53	0x3e81cff3	0.25353965
54	0xbe3ae0d3	-0.18249826
55	0xbe2a4170	-0.16626525
56	0xbe3c5d15	-0.18394883
57	0x3ed2e274	0.41188395
58	0x3e4970ea	0.1967198
59	0xbe05398f	-0.13010238
60	0x3b763866	0.0037570237
61	0x3e05d118	0.13068044
62	0x3e01b0af	0.12665056
63	0xbd0edc95	-0.034878332
64	0x3d2fb9bb	0.042901736
65	0xbdfe1a40	-0.124073505
66	0xbe989397	-0.29800102
67	0x3e90468c	0.28178823
68	0x3d8985c1	0.06714965
69	0xbe191950	-0.14951062
70	0xbd6d959c	-0.058004007
71	0x3c2868bf	0.01027888
72	0x3e27e5f1	0.1639631
73	0x3db464b5	0.08808271
74	0x3dd99ce2	0.10625626
75	0x3de4175a	0.111372665
76	0xbcd8f67b	-0.026484719
77	0x3e3b6ab1	0.18302418
78	0x3d595b24	0.053065434
79	0x3de6f7be	0.11277722
80	0x3e8fe1b2	0.2810188
81	0xbe056d83	-0.13030057
82	0x3ed4972d	0.41521588
83	0xbe98ac43	-0.29818925
84	0xbe16862c	-0.1469962
85	0x3df01078	0.11721891
86	0x3ed59794	0.41717207
87	0xbcdd6cfb	-0.027029505
88	0xbe82f849	-0.25580052
89	0x3da9705d	0.08273385
90	0xbd538f40	-0.051650286
91	0xbe1145b1	-0.14186741
92	0xbe30a4bf	-0.17250346
93	0xbe046164	-0.12927777
94	0xbed3fa16	-0.41401738
95	0xbd5a9f93	-0.053374838
96	0x3e880523	0.2656642
97	0xbe02b3bc	-0.12763876
98	0x3d9926cf	0.07478105
99	0xbe0aaf11	-0.13543345
100	0x3b9ac664	0.004723357
101	0xbe644260	-0.22290945
102	0x3e14730c	0.14497012
103	0xbaf0d0d0	-0.0018372778
104	0x3e2218a0	0.15829706
105	0x3e8e4af0	0.27791548
106	0xbc9d0692	-0.019168172
107	0xbd09d2b6	-0.033648215
108	0xbe54e789	-0.20791449
109	0x3ec3e943	0.38263902
110	0xbcb7052d	-0.022341335
111	0x3e533e78	0.20629299
112	0xbe088346	-0.13331327
113	0xbe71de4d	-0.23619957
114	0x3d6d4a7d	0.057932366
115	0xbdb573e2	-0.088599935
116	0xbd194d53	-0.037427258
117	0xbea976c6	-0.3309843
118	0xbde34d86	-0.11098771
119	0x3e91af23	0.2845393
120	0x3e2e8b78	0.1704539
121	0x3e163d74	0.1467188
122	0x3e6d188b	0.23153894
123	0x3dd39167	0.10330468
124	0xbe29aea9	-0.16570534
125	0x3e205d99	0.15660705
126	0x3e12e88e	0.14346525
127	0x3d36da75	0.04464193
128	0x3c8fe3f4	0.017564751
129	0x3e99c5fe	0.3003387
130	0x3cc505e5	0.024050662
131	0xbe3e0704	-0.18557364
132	0xbe560723	-0.2090116
133	0xbeb4628f	-0.35231444
134	0xbe8ccb15	-0.2749869
135	0x3c92b017	0.017906232
136	0x3de8975f	0.11356997
137	0x3cb0a279	0.021561848
138	0x3bb6cc5c	0.0055785608
139	0x3e025628	0.12728179
140	0xbded3e81	-0.11584187
141	0xbe4cacea	-0.19987836
142	0xbc0f320b	-0.0087399585
143	0x3da13569	0.07871515
144	0x3e5d0589	0.21584143
145	0xbdd7f37f	-0.1054449
146	0xbe2dbfeb	-0.16967742
147	0x3e040b1b	0.12894861
148	0x3eabbc21	0.33541968
149	0xbaf83464	-0.0018936512
150	0xbd188df5	-0.037244756
151	0xbdebd872	-0.11515893
152	0xbe61f82c	-0.22067326
153	0xbc879865	-0.01655216
154	0x3db261e9	0.08710081
155	0xbeab7537	-0.33487865
156	0x3e8078f2	0.25092274
157	0x3ee3f516	0.44522923
158	0x3e042ef6	0.12908539
159	0xbea1addb	-0.31577954
160	0x3d780385	0.06055023
161	0xbd01f31a	-0.03172598
162	0xbdbc5c28	-0.09197265
163	0xbda4db09	-0.0804959
164	0xbd19ed5d	-0.037579883
165	0x3da961b0	0.082705855
166	0xbcc501fd	-0.0240488
167	0x3b7e34d3	0.003878881
168	0x3e7185b1	0.23586155
169	0xbe14355d	-0.14473481
170	0xbd1ada9e	-0.037806146
171	0x3dea7c7e	0.11449526
172	0x3e446dea	0.19182554
173	0x3e34629c	0.17615741
174	0x3dc3b778	0.09556478
175	0xbb4019cc	-0.002931225
176	0xbd8c9db0	-0.06866014
177	0xbda5f085	-0.08102516
178	0xbe0b005f	-0.1357436
179	0xbe0ad950	-0.1355946
180	0xbd401c87	-0.046902206
181	0xbe27e3a5	-0.16395433
182	0x3e44a472	0.19203356
183	0x3e98f693	0.2987562
184	0x3daa7c18	0.0832445
185	0xbded3d2e	-0.11583935
186	0xbeae991d	-0.3410119
187	0x3dbf47a8	0.09339839
188	0x3e27c9ef	0.16385625
189	0x3d4a540b	0.049396556
190	0x3dd587c6	0.10426287
191	0x3d691de2	0.056913264
192	0xbe1a5b26	-0.15073833
193	0xbe181426	-0.14851436
194	0xbdc83445	-0.097755946
195	0xbe01b24a	-0.12665668
196	0x3e083170	0.13300109
197	0x3e9f6a5a	0.31135827
198	0xbdd84826	-0.10560636
199	0xbe8830f1	-0.2659984

enc.0.bias f4 [10]
0	0xbc40af46	-0.011760538
1	0x3eb7aee6	0.35875624
2	0x3e2b2d63	0.16716532
3	0xbe4b8007	-0.19873057
4	0x3e38281d	0.17984052
5	0x3e224eb4	0.15850335
6	0x3e97f12d	0.2967619
7	0x3aad5b15	0.0013225997
8	0x3e67f098	0.22650373
9	0xbe420bef	-0.18949865

enc.2.weight f4 [10, 10]
0	0xbe828969	-0.2549546
1	0x3def257d	0.11677072
2	0xbd328b6d	-0.043589998
3	0x3e828ec6	0.25499552
4	0x3e0dd7f3	0.1385191
5	0x3e509fb6	0.20373425
6	0xbed484b5	-0.41507497
7	0x3d867284	0.06564811
8	0xbe113a1b	-0.14182322
9	0xbe9f2ac8	-0.31087327
10	0xbdfaf72d	-0.12254176
11	0x3eb745b6	0.35795373
12	0x3f122228	0.5708337
13	0xbdc740f5	-0.097291864
14	0x3ee7906b	0.4522737
15	0xbd8f0dc9	-0.06985051
16	0x3e4bb674	0.19893819
17	0x3d1f2836	0.038856708
18	0xbdd8621b	-0.10565587
19	0x3dd4d94d	0.10393009
20	0xbe80817b	-0.25098786
21	0x3ed5718c	0.41688192
22	0x3ea50170	0.3222766
23	0xbcb5fcc4	-0.022215255
24	0x3cb93d15	0.022612134
25	0xbca2bd65	-0.019865701
26	0x3ef10359	0.47072867
27	0x3e0d2c12	0.13786343
28	0xbd3c021e	-0.045900457
29	0xbd9cacea	-0.07650168
30	0x3bfd95b4	0.0077387933
31	0xbe1fc19a	-0.15601197
32	0x3dce60b7	0.10077041
33	0xbe820eda	-0.25401956
34	0x3ec8f076	0.39245957
35	0x3e1fd507	0.15608607
36	0x3e2a085d	0.16604753
37	0xbe033abf	-0.12815379
38	0x3dad7162	0.08468892
39	0xbe6a5e0e	-0.22887442
40	0x3e40f920	0.18845034
41	0x3d1e4416	0.03863915
42	0x3e908e37	0.282335
43	0x3e959188	0.29212594
44	0xbdd3f694	-0.103497654
45	0xbef32674	-0.47490275
46	0xbdb6df74	-0.08929339
47	0xbe1de669	-0.15419926
48	0xbe1fe803	-0.15615849
49	0x3e9d5991	0.30732396
50	0x3eb99845	0.36248985
51	0x3e742d26	0.23845348
52	0xbd158f8f	-0.03651386
53	0x3df624d3	0.120187424
54	0xbe33fe3f	-0.17577456
55	0xbe8c29cb	-0.27375636
56	0xbe21618b	-0.15759866
57	0x3ef53c0b	0.47897372
58	0x3db4718c	0.0881072
59	0x3e6884d0	0.22706914
60	0x3e29663c	0.16542906
61	0x3d2aa8a8	0.04166475
62	0x3ebbcead	0.3668112
63	0x3e326077	0.17419611
64	0xbe9ad8e9	-0.30243614
65	0xbe06c7ff	-0.1316223
66	0xbd7af3ae	-0.061267547
67	0x3ebabac6	0.36470622
68	0xbee34799	-0.44390562
69	0xbdc5d34a	-0.09659441
70	0xbe01c91c	-0.12674373
71	0xbe47e680	-0.19521523
72	0xbd3e6c21	-0.04648984
73	0x3dabd97d	0.08391092
74	0xbbf85a8a	-0.0075791525
75	0xbe6c7600	-0.23091888
76	0xbe2c3513	-0.16817121
77	0xbd8d505f	-0.06900095
78	0x3e7d7797	0.24752651
79	0x3da7bd6b	0.081904255
80	0x3e84c016	0.259278
81	0xbe0974bd	-0.13423438
82	0x3d704f31	0.058669273
83	0xbd9e2e4f	-0.077236764
84	0x3b9e1c24	0.004825132
85	0xbea4d1fb	-0.32191452
86	0x3e4b34c1	0.19844343
87	0x3ee8cd80	0.45469284
88	0xbeaaa1f4	-0.33326685
89	0x3ebeee3e	0.3729114
90	0x3ec87420	0.39151096
91	0xbd346fc9	-0.04405192
92	0xbdfab667	-0.12241822
93	0xbd666d00	-0.056256294
94	0xbc33d7c3	-0.010976735
95	0x3b3a8c5d	0.002846501
96	0xbe17037f	-0.14747427
97	0xbe439825	-0.19101007
98	0xbec892ef	-0.391746
99	0x3e81ff62	0.25390154

enc.2.bias f4 [10]
0	0xbeb2a7bd	-0.348936
1	0x3e8af48a	0.27139693
2	0x3e9e39b6	0.30903405
3	0xbe74f171	-0.23920228
4	0xbe21d252	-0.15802887
5	0xbe0445d2	-0.1291726
6	0xbe348a43	-0.17630868
7	0xbd8dc2d8	-0.06921929
8	0x3e552820	0.20816088
9	0x3a549f20	0.00081108697

enc_mean.weight f4 [1, 10]
0	0xbd95680c	-0.07295236
1	0x3f1e5b56	0.6185812
2	0x3ec80ffd	0.39074698
3	0x3e8e2032	0.27758938
4	0xbec580f5	-0.3857495
5	0xbe8811c9	-0.2657607
6	0xbeb6d87b	-0.35712036
7	0xbe2d8f54	-0.16949207
8	0xbeb9951b	-0.3624657
9	0xbe7cc78e	-0.24685499

enc_std.0.weight f4 [1, 10]
0	0xbd7ae5bc	-0.061254248
1	0xbf0f83c7	-0.5606045
2	0xbdc378d8	-0.095445335
3	0xbd8a41ed	-0.067508556
4	0x3db9b181	0.09067059
5	0xbec1213f	-0.37720677
6	0xbedb8d1f	-0.42881104
7	0xbe535c70	-0.20640731
8	0xbe5b395e	-0.21408603
9	0xbd8786b5	-0.0661749

prior.0.weight f4 [10, 10]
0	0xbe93f872	-0.28900486
1	0x3eedc951	0.46442655
2	0x3c9a5bbe	0.018842574
3	0x3ec9506a	0.39319164
4	0x3dc58c18	0.096458614
5	0xbe9d87f2	-0.3076778
6	0xbecb90a9	-0.39758804
7	0x3edccade	0.43123525
8	0xbe93253d	-0.28739348
9	0x3a7c431b	0.00096230366
10	0xbd3097db	-0.04311357
11	0x3cc910c2	0.024544124
12	0xbe647963	-0.2231193
13	0x3e467c75	0.19383414
14	0x3e646970	0.22305846
15	0x3e6e5cec	0.23277634
16	0x3c9b3329	0.018945294
17	0x3d9729a7	0.073809914
18	0xbe8c2a72	-0.27376133
19	0x3e8fbd25	0.28073993
20	0x3eab8b4a	0.33504707
21	0x3d91e184	0.07123092
22	0x3ddd522d	0.108066894
23	0xbdd41b5d	-0.10356782
24	0xbd1ee8e0	-0.038796306
25	0x3dc4d7c5	0.09611467
26	0xbe631d45	-0.22179134
27	0xbd8ced52	-0.06881203
28	0x3e55814c	0.20850104
29	0xbd79ced3	-0.06098826
30	0x3dd0ea7f	0.102009766
31	0xbf32e1b0	-0.6987562
32	0xbe64020c	-0.22266406
33	0xbe5ec215	-0.21753724
34	0xbe380132	-0.17969206
35	0xbeb272d4	-0.34853232
36	0x3ee41a5e	0.44551367
37	0x3e6adcc0	0.22935772
38	0x3ecc6f15	0.399285
39	0x3d07848c	0.03308539
40	0xbefb828c	-0.49123037
41	0xbf061126	-0.52369916
42	0xbdd59b7c	-0.10430047
43	0xbedd1274	-0.4317814
44	0xbde59a98	-0.11211127
45	0xbe4c9b79	-0.19981183
46	0x3e2205a4	0.15822464
47	0x3ea2c595	0.31791368
48	0x3e2adc36	0.16685566
49	0x3cbc78b2	0.02300677
50	0xbe6521fd	-0.22376247
51	0x3ec9e236	0.39430398
52	0xbd19a934	-0.03751488
53	0x3e8a44ee	0.27005714
54	0xbefb1431	-0.49038842
55	0xbeb870b0	-0.36023474
56	0xbe334973	-0.17508487
57	0xbd98e672	-0.07465829
58	0x3aebe3b1	0.0017996934
59	0x3e649c08	0.22325146
60	0xbe380bed	-0.179733
61	0x3f43751d	0.76350576
62	0x3e2dc954	0.16971332
63	0x3f25fdbf	0.6484031
64	0x3ddc0ade	0.1074426
65	0xbea7c152	-0.3276468
66	0xbee64733	-0.44976196
67	0x3ee8286e	0.45343345
68	0xbcc4ace2	-0.024008218
69	0xbeb87fb2	-0.36034924
70	0x3d42d48e	0.04756599
71	0x3a57e051	0.0008235025
72	0x3eaa3a87	0.33247778
73	0xbd02a22c	-0.03189294
74	0xbe4fa590	-0.20278001
75	0x3e15a292	0.14612797
76	0x3e957436	0.29190224
77	0xbe923a6f	-0.28560206
78	0xbbb82408	-0.0056195296
79	0x3da62bef	0.081138484
80	0x3de6f4e9	0.11277182
81	0x3f389840	0.72107315
82	0x3e6fd50a	0.23421112
83	0x3e8a7a2e	0.2704634
84	0x3e10c63c	0.1413812
85	0xbea983c2	-0.33108336
86	0xbddac358	-0.1068179
87	0x3e446691	0.19179751
88	0x3d9be822	0.07612635
89	0xbe57e85e	-0.21084735
90	0xbe7a29db	-0.24430029
91	0xbdc1bcf7	-0.0945987
92	0x3e25d022	0.16192678
93	0xbe852535	-0.2600495
94	0xbe00633e	-0.12537858
95	0xbd546c81	-0.05186129
96	0xbe38f14e	-0.180608
97	0xbe62aee8	-0.22137034
98	0xbe2cdbd6	-0.16880736
99	0xbc03256d	-0.0080045285

prior.0.bias f4 [10]
0	0x3cb9a71b	0.02266269
1	0xbe750df8	-0.2393111
2	0x3de4ca05	0.11171345
3	0x3e849cd9	0.25900915
4	0x3e7ff5d3	0.24996118
5	0x3e2321e4	0.15930897
6	0xbdfd99b2	-0.12382831
7	0xbd2ec272	-0.042665906
8	0x3e8709ce	0.26374668
9	0xbe2659c3	-0.16245179

prior_mean.weight f4 [1, 10]
0	0xbf36715e	-0.71266735
1	0x3d5a716d	0.053330828
2	0xbd74561f	-0.059652444
3	0x3f28c349	0.6592298
4	0x3f0c1d00	0.5473175
5	0xbeae1599	-0.34000853
6	0xbf31f9d6	-0.69521844
7	0xbe7640e2	-0.24048188
8	0xbf240c1a	-0.64080966
9	0x3db2bd0d	0.08727465

prior_std.0.weight f4 [1, 10]
0	0x3cc01cbf	0.023451207
1	0x3ce35d85	0.027754555
2	0x3d6ac955	0.05732091
3	0x3eaf413a	0.3422945
4	0x3ca13979	0.019680725
5	0x3de4a33d	0.11163948
6	0x3e2189aa	0.15775171
7	0x3dac85ac	0.084239334
8	0x3e41b0a8	0.18915045
9	0xbe9e7879	-0.30951288

dec.0.weight f4 [10, 20]
0	0x3d055da8	0.03256002
1	0x3dace99b	0.08442994
2	0xbd45087e	-0.048103802
3	0x3e11d0f0	0.1423986
4	0xbde49f67	-0.11163216
5	0x3e55bb83	0.20872311
6	0xbe08e24f	-0.1336758
7	0xbc9c88b0	-0.019108146
8	0xbe097ce8	-0.13426554
9	0x3dc951d1	0.09830058
10	0xbd17aa78	-0.037027806
11	0xbdf05ce7	-0.1173647
12	0x3e550336	0.20802006
13	0x3e561640	0.20906925
14	0xbaf76bc1	-0.0018876718
15	0x3e240fd0	0.16021657
16	0x3e5fa72f	0.21841119
17	0x3baf3c38	0.005347755
18	0xbe4e9971	-0.20175721
19	0xbd8eaea9	-0.069669075
20	0xbd6636d7	-0.056204643
21	0x3d6049ab	0.054757755
22	0xbe548c43	-0.2075663
23	0xbe2236b2	-0.15841177
24	0xbe09d70a	-0.13460937
25	0xbe083c96	-0.13304362
26	0x3d4b5c31	0.049648467
27	0xbe29c689	-0.16579641
28	0x3e3e2c9d	0.18571706
29	0x3d77affc	0.060470566
30	0x3dc933d3	0.09824338
31	0xbe5da6cc	-0.21645659
32	0xbdbe8d03	-0.093042396
33	0x3db2a43e	0.08722733
34	0x3cb25154	0.021767296
35	0x3dac0d8d	0.08401022
36	0x3de7aa27	0.11311751
37	0x3d4d2eff	0.050093647
38	0x3e2f930c	0.17145938
39	0x3e1e78f2	0.15475824
40	0x3e285f9f	0.16442727
41	0xbe384e59	-0.17998637
42	0x3d9a14ec	0.07523522
43	0xbe14a5f7	-0.14516436
44	0x3cf14a17	0.029454274
45	0x3e20004b	0.15625112
46	0xbe184c6c	-0.14872903
47	0x3e16dbfb	0.14732353
48	0xbe07746f	-0.1322801
49	0xbd40e2ec	-0.04709141
50	0x3c8da32f	0.017289726
51	0xbdd692e9	-0.1047724
52	0xbdc2c01d	-0.09509299
53	0xbe5da568	-0.21645129
54	0xbde5febe	-0.11230229
55	0xbd761ba5	-0.060084958
56	0x3cfc06c7	0.03076495
57	0xbe103ba9	-0.14085259
58	0x3d9882ba	0.07446809
59	0xbdbbc1ae	-0.09167801
60	0x3e47309b	0.19452135
61	0x3da8186e	0.082077846
62	0x3e41ca0c	0.18924731
63	0x3e43909b	0.19098131
64	0x3dad5820	0.08464074
65	0xbd3fba96	-0.0468088
66	0xbe28665d	-0.16445298
67	0x3ddaaf4a	0.10677965
68	0x3da5a5d4	0.0808827
69	0xbe182153	-0.14856462
70	0xbe093400	-0.13398743
71	0xbcb6e4f9	-0.02232598
72	0xbe1b4732	-0.15163878
73	0x3d3404b8	0.043949813
74	0x3d92e1c3	0.07171967
75	0x3da346e3	0.07972505
76	0xbdbce4db	-0.09223338
77	0x3debc3b2	0.11511935
78	0x3e1cb935	0.15305026
79	0x3db5c44b	0.088753305
80	0xbe2c8f1f	-0.16851471
81	0x3c36dda6	0.011161244
82	0xbdc15fe7	-0.0944212
83	0xbe5940a1	-0.2121606
84	0x3dd32eac	0.10311636
85	0x3dceac11	0.10091413
86	0x3dc988b3	0.098405264
87	0xbe0dee7d	-0.13860507
88	0xbd9be1ae	-0.07611404
89	0x3e0f3961	0.13986732
90	0x3e017f3d	0.12646194
91	0xbe066506	-0.13124475
92	0x3e14ec12	0.14543179
93	0xbd715eaa	-0.05892817
94	0x3e3e1459	0.1856245
95	0x3d51b1fb	0.051195126
96	0xbe4f85cf	-0.20265888
97	0xbd899d0e	-0.06719409
98	0x3da4d6f3	0.08048811
99	0x3ddf73bc	0.109107465
100	0xbd834d05	-0.06411175
101	0xbdbef4f6	-0.09324066
102	0xbd4ff517	-0.050770845
103	0xbd958ed2	-0.073026314
104	0x3cc86904	0.024464138
105	0xbe22f395	-0.15913232
106	0x3e2298bf	0.1587858
107	0x3de4adde	0.11165975
108	0xbdd92e64	-0.106045514
109	0xbe0fd5b7	-0.1404637
110	0x3dc5e67e	0.096631035
111	0xbe19ea7e	-0.15030858
112	0xbc783894	-0.015150208
113	0xbe5f7a7c	-0.21824068
114	0xbde3f449	-0.11130578
115	0x3e561e25	0.20909937
116	0xbe263570	-0.16231322
117	0x3c5b97c1	0.01340288
118	0x3e456861	0.19278099
119	0x3dfd54b1	0.12369669
120	0x3df6c8b1	0.120499976
121	0x3e324497	0.17408977
122	0xbe3a9981	-0.1822262
123	0x3dba55ff	0.09098434
124	0x3a075be6	0.0005163535
125	0x3d982557	0.07428997
126	0x3d9cdcdc	0.07659313
127	0xbe2b8704	-0.16750723
128	0xbe0a79f3	-0.13523082
129	0x3df7958e	0.12089072
130	0x3d9b8b6c	0.07594952
131	0x3b6aadc7	0.0035809146
132	0xbe19e08f	-0.15027069
133	0xbe3788de	-0.17923304
134	0x3e4c780b	0.19967668
135	0x3d6f1a03	0.058374416
136	0xbe1c69b4	-0.15274698
137	0x3ce46ca5	0.027883837
138	0x3d1deeae	0.0385577
139	0x3c1f5503	0.009724858
140	0xbb37789b	-0.002799547
141	0xbe2ed1e8	-0.1707226
142	0xbe3f8714	-0.18703872
143	0x3de1afbf	0.11019849
144	0xbe5884eb	-0.21144454
145	0x3e21817e	0.15772054
146	0x3e4b7030	0.19867015
147	0x3e05560c	0.13021106
148	0x3dfac769	0.12245066
149	0xbe55a535	-0.20863803
150	0x3e4fc77d	0.20290942
151	0x3cd83b26	0.026395392
152	0x3e383898	0.17990339
153	0xbe474ed6	-0.19463667
154	0xbd65a0f1	-0.05606169
155	0xbe1fddfd	-0.15612026
156	0x3e13fe6b	0.14452522
157	0x3dd076e4	0.101789266
158	0x3de72042	0.112854496
159	0xbe428934	-0.18997651
160	0x3e1d4b54	0.15360767
161	0x3df4cb82	0.119528785
162	0xbe33b6f4	-0.1755026
163	0xbe55aa7e	-0.20865819
164	0xbcc4c22b	-0.024018368
165	0xbdd9df52	-0.10638298
166	0x3e02cdf5	0.12773879
167	0xbcb99127	-0.022652222
168	0x3d0c2300	0.034213066
169	0x3d8b30c7	0.06796413
170	0x3cc35b9e	0.023847397
171	0xbaed722a	-0.0018115689
172	0x3c3989c6	0.011324352
173	0xbc85ecd9	-0.01634829
174	0xbdf58a63	-0.11989286
175	0x3ab06c1a	0.0013459951
176	0x3cf31e9b	0.02967768
177	0xbdd590f4	-0.10428038
178	0xbd9facee	-0.077966556
179	0x3d8fe703	0.07026484
180	0x3ded3a0a	0.11583336
181	0x3da07299	0.07834358
182	0x3d2e9fc7	0.042632844
183	0xbe08d122	-0.13361028
184	0xbe177664	-0.14791256
185	0x3dc347b4	0.09535161
186	0xbbcffbaf	-0.0063471417
187	0x3dec2913	0.11531272
188	0xbdf3c6db	-0.11903163
189	0xbe132039	-0.1436776
190	0xbe21b8e7	-0.15793191
191	0xbd5f7ac0	-0.054560423
192	0xbe4713b3	-0.19441108
193	0x3e483e89	0.19555105
194	0xbd112696	-0.03543719
195	0xbcdef9d7	-0.027218742
196	0xbdf6757f	-0.12034129
197	0x3cae56a1	0.021281542
198	0xbdad80e8	-0.084718525
199	0xbdf5f623	-0.120098375

dec.0.bias f4 [10]
0	0xbe261874	-0.16220266
1	0xbe10ed62	-0.14153054
2	0xbcc74286	-0.024323713
3	0xbd2c97cf	-0.042136963
4	0x3d9fa186	0.0779448
5	0x3e374dad	0.17900725
6	0x3e440bf9	0.19145192
7	0xbe17c8e1	-0.14822723
8	0x3db8ff2e	0.09033047
9	0xbe58d683	-0.2117558

dec.2.weight f4 [10, 10]
0	0x3de1f8a7	0.11033755
1	0x3cbe36e3	0.023219531
2	0xbe5d5ed5	-0.21618207
3	0x3e8a1aec	0.26973665
4	0x3e1e8d56	0.15483603
5	0xbcfebc2c	-0.031095587
6	0x3d7d8d6d	0.061902452
7	0xbe54b0d6	-0.20770583
8	0x3e99b75a	0.300227
9	0xbe1e139e	-0.15437171
10	0x3e9d46d6	0.30718106
11	0xbe96dd8d	-0.29465905
12	0xbea10071	-0.3144565
13	0x3e9af79d	0.3026704
14	0xbe699e8e	-0.2281439
15	0xbdd6a589	-0.10480792
16	0xbe4d40c8	-0.20044243
17	0xbe89bb9f	-0.26900956
18	0xbcb07481	-0.021539928
19	0xbdcb31ed	-0.09921632
20	0x3beccdd0	0.007226683
21	0xbe8a1c4b	-0.2697471
22	0xbe5111d6	-0.2041696
23	0xbda98635	-0.08277551
24	0xbe1460b7	-0.14490019
25	0x3e03e92c	0.12881917
26	0xbde7d26d	-0.113194324
27	0xbe997949	-0.29975346
28	0xbd7c27da	-0.061561443
29	0x3e9557bc	0.291685
30	0xbe656bff	-0.22404478
31	0x3d8b3600	0.06797409
32	0x3dfb34de	0.12265943
33	0xbdc0ee27	-0.09420424
34	0x3dc986f5	0.09840194
35	0x3e3d099c	0.18460697
36	0x3e0a116e	0.13483211
37	0x3e6f6e72	0.23381975
38	0x3e9a1306	0.3009264
39	0x3a436b3b	0.0007454638
40	0xbe24a822	-0.16079763
41	0x3e7a3ec4	0.24438006
42	0xbe66e70d	-0.22549076
43	0x3da298bf	0.0793929
44	0x3d5c7008	0.05381778
45	0xbe061f45	-0.13097866
46	0x3e742e9a	0.23845902
47	0x3e915e09	0.28392056
48	0x3e9d4153	0.307139
49	0xbdb6c565	-0.08924369
50	0xbe538f5c	-0.20660156
51	0xbd8906d4	-0.066907555
52	0xbd3c5943	-0.045983564
53	0xbdb01c05	-0.08599094
54	0x3e5e8ebf	0.21734141
55	0xbe28bc17	-0.16478
56	0x3bbdf581	0.0057970886
57	0xbd1fe898	-0.039040178
58	0xbe927cb4	-0.28610766
59	0x3e859819	0.26092604
60	0xbe469501	-0.19392778
61	0xbe4fc72e	-0.20290825
62	0x3cc804c9	0.024416344
63	0xbde67211	-0.11252225
64	0xbe85f390	-0.26162386
65	0xbe7dc37b	-0.24781601
66	0x3daab8ee	0.08336054
67	0xbe8ae75a	-0.27129632
68	0xbd1bbbaa	-0.038020767
69	0x3d5c47ac	0.05377929
70	0xbe528c4d	-0.20561333
71	0x3e699a56	0.2281278
72	0xbe84c70c	-0.2593311
73	0x3e4facad	0.20280714
74	0x3bdf55aa	0.006815632
75	0x3e4b8196	0.19873652
76	0xbdec93ce	-0.11551629
77	0x3e026d3a	0.12736979
78	0x3cbac4b0	0.022798866
79	0x3e8cf152	0.27527863
80	0x3d9218a7	0.07133608
81	0x3c55184b	0.01300628
82	0xbd7c3d3c	-0.061581835
83	0xbe50dcab	-0.20396678
84	0x3da66c24	0.08126095
85	0xbe2b6b2d	-0.16740103
86	0xbe76770c	-0.2406885
87	0x3dfb10b8	0.12259048
88	0x3d0110a0	0.031509995
89	0x3e381427	0.17976438
90	0xbe999e4c	-0.30003583
91	0xbe554b3f	-0.20829485
92	0x3dcb3137	0.09921496
93	0x3e2ca43b	0.16859524
94	0x3e5393ab	0.206618
95	0xbe3bc7c5	-0.18337925
96	0x3e6fe677	0.23427759
97	0x3e77aede	0.241878
98	0xbe717c67	-0.23582612
99	0xbe368009	-0.17822279

dec.2.bias f4 [10]
0	0x3e25caf4	0.16190702
1	0xbe990798	-0.29888606
2	0x3e81d4c3	0.25357637
3	0xbd37fc77	-0.044918504
4	0xbd9d775a	-0.0768878
5	0x3d397888	0.045280963
6	0x3e25b555	0.16182454
7	0xbe360e10	-0.17778802
8	0x3e8bedd0	0.27329874
9	0x3d7d5cba	0.06185601

dec_std.0.weight f4 [1, 10]
0	0x3e99cd50	0.30039454
1	0x3e96e41f	0.29470918
2	0x3ba4d42b	0.005030175
3	0x3d8c6e1e	0.06856941
4	0x3e67e811	0.2264712
5	0xbe960210	-0.2929845
6	0xbe7df8f1	-0.24801995
7	0xbd8a81de	-0.067630515
8	0xbde06d86	-0.1095839
9	0x3da896a6	0.08231859

dec_mean.0.weight f4 [1, 10]
0	0x3def122b	0.11673387
1	0xbe9155c3	-0.28385743
2	0xbdc72383	-0.0972357
3	0xbe36495b	-0.1780142
4	0x3e15636b	0.14588706
5	0xbcabebb6	-0.02098642
6	0x3e6ba35f	0.2301154
7	0x3e2a6954	0.16641742
8	0xbcf58d93	-0.029974734
9	0xbe4e3f0c	-0.20141238

rnn.weight_ih_l0 f4 [30, 20]
0	0xbe6d0521	-0.23146488
1	0xbd922d8b	-0.07137593
2	0x3e7ffbf3	0.24998455
3	0x3de6c741	0.112684734
4	0x3dcfae11	0.101406224
5	0x3db4853c	0.08814475
6	0xbed5de86	-0.41771334
7	0x3ea4701b	0.3211678
8	0xbe255845	-0.16146953
9	0x3d3a2844	0.045448557
10	0x3d3f63f7	0.046726193
11	0xbe48d34c	-0.19611853
12	0xbdd7fcba	-0.10546251
13	0x3d584371	0.052798692
14	0x3e23c2d1	0.15992285
15	0xbeaf4913	-0.3423544
16	0x3e002b8c	0.12516612
17	0x3e433754	0.19064075
18	0xbd29a388	-0.04141572
19	0xbea6fbb3	-0.32613906
20	0x3ea3d6ec	0.3199991
21	0xbe7287b4	-0.23684579
22	0x3e9c3e9e	0.30516523
23	0xbe49a811	-0.19693018
24	0x3e8582f9	0.26076487
25	0xbe12db8b	-0.14341561
26	0xbd84a1d6	-0.0647618
27	0xbe3a6b5d	-0.18205018
28	0x3e4e5dca	0.20152965
29	0x3eb308aa	0.34967548
30	0x3e2f50de	0.17120692
31	0x3e8de231	0.27711633
32	0x3e63b45a	0.22236767
33	0x3e075f3a	0.1321992
34	0x3e65cc5c	0.22441238
35	0xbe858a80	-0.2608223
36	0xbe38d583	-0.18050198
37	0x3e1a9a8b	0.15098016
38	0xbe37aa30	-0.17936015
39	0x3e5486bd	0.20754524
40	0x3ec4b9ea	0.3842309
41	0xb9c35986	-0.00037259998
42	0x3eaebcce	0.34128422
43	0x3e8950b9	0.268194
44	0xbd201942	-0.039086588
45	0x3c9e4740	0.019321084
46	0x3ec55172	0.385387
47	0x3e58ed97	0.21184383
48	0xbe24acd9	-0.16081561
49	0x3e48f2bc	0.19623846
50	0x3cd9c401	0.02658272
51	0xbdd31d1d	-0.10308287
52	0x3e769776	0.24081215
53	0x3e7c8687	0.24660693
54	0x3e69ff82	0.22851375
55	0xbddaa3b9	-0.10675759
56	0xbd957695	-0.07298008
57	0xbe16fa88	-0.14744008
58	0xbd0f5e5e	-0.035002105
59	0x3dfbc8d0	0.12294161
60	0xbe4ead1c	-0.20183223
61	0xbe843b4a	-0.25826484
62	0x3ebd06d7	0.3691928
63	0x3df55878	0.11979765
64	0xbe1ea82e	-0.15493843
65	0x3d3d0445	0.04614665
66	0xbd687d17	-0.05675992
67	0x3e1ad3b6	0.15119824
68	0x3e66374a	0.22482029
69	0x3d060486	0.032719158
70	0xbb92f589	-0.0044848365
71	0xbe331b90	-0.17490983
72	0xbe0f252f	-0.13979028
73	0x3eb80226	0.3593914
74	0x3c57e05d	0.013176051
75	0x3e6cda0f	0.23130058
76	0xbbd74ab0	-0.0065701827
77	0xbe37eb0a	-0.17960754
78	0xbdea6bb6	-0.114463255
79	0xbda9370b	-0.08262452
80	0x3e102076	0.14074883
81	0xbe9580e0	-0.29199886
82	0x3e66ce8b	0.22539727
83	0xbe0573eb	-0.130325
84	0xbe6ecc74	-0.2332018
85	0xbdfb42a7	-0.12268572
86	0xbde216a4	-0.110394746
87	0xbe8660c5	-0.26245704
88	0x3e2b4e22	0.16729024
89	0x3eb1a4ce	0.34696048
90	0xbe3bce1e	-0.18340346
91	0xbd91ac91	-0.071129926
92	0x3e5bbd54	0.21458942
93	0x3e8fa7e3	0.28057775
94	0xbc154703	-0.009111169
95	0x3e978515	0.2959372
96	0x3e64099d	0.22269292
97	0xbcb78931	-0.022404285
98	0xbe730034	-0.23730546
99	0x3ebbc262	0.3667174
100	0x3e9cad85	0.30601135
101	0x3e471bd3	0.19444208
102	0xbe11faa5	-0.1425577
103	0x3e301853	0.17196779
104	0x3d8ac45f	0.06775736
105	0x3e1f5288	0.15558827
106	0x3eeb2321	0.4592524
107	0xbe747194	-0.23871452
108	0xbccf1a87	-0.025281204
109	0x3d080be1	0.033214454
110	0x3ec56c5f	0.38559243
111	0xbe9647a1	-0.29351524
112	0x3d90f98f	0.070788495
113	0x3e837c63	0.25680837
114	0x3e8f237b	0.27956757
115	0x3e3f342e	0.18672249
116	0x3ee9759b	0.45597538
117	0xbe7963da	-0.24354497
118	0x3e46454c	0.19362372
119	0x3d46d67b	0.04854439
120	0xbc782a1e	-0.01514676
121	0xbe996653	-0.2996088
122	0x3f0e8c62	0.5568296
123	0x3ec45213	0.38343868
124	0x3d93368c	0.07188138
125	0xbd9350fc	-0.07193181
126	0x3ebd192c	0.36933267
127	0xbcd877cb	-0.02642431
128	0x3e5054eb	0.20344894
129	0xbe26c09f	-0.16284417
130	0xbd69741f	-0.056995507
131	0x3e53234f	0.20618938
132	0x3cb31e12	0.021864925
133	0x3e1bf53e	0.15230271
134	0xbd3a63aa	-0.045505203
135	0xbe8677e7	-0.26263353
136	0x3e90124e	0.28138965
137	0xbbfbc625	-0.007683533
138	0xbe469fd6	-0.1939691
139	0x3e93fb97	0.28902885
140	0xbe18515c	-0.14874786
141	0x3dc59ee3	0.09649446
142	0xbe12b0ac	-0.14325207
143	0xbe7261a8	-0.23670065
144	0xbdbac799	-0.091201015
145	0xbc3c4e95	-0.011493345
146	0xbe5c5084	-0.2151509
147	0x3e07739b	0.13227694
148	0x3e122c85	0.14274795
149	0xbe9e81cc	-0.30958402
150	0x3e323d13	0.1740611
151	0x3e068947	0.13138305
152	0x3a888895	0.0010416681
153	0xbdbb3d17	-0.09142511
154	0xbd8f7b75	-0.070059694
155	0xbe91f0a6	-0.28503913
156	0xbcc12a76	-0.023579817
157	0x3d08b90b	0.033379596
158	0xbe7ff1fe	-0.24994656
159	0xbe891566	-0.26774138
160	0x3d9e61db	0.07733508
161	0x3d326bdc	0.043559894
162	0xbced67fb	-0.028980246
163	0x3e1b518d	0.15167828
164	0x3e820046	0.25390834
165	0xbe200b50	-0.15629315
166	0xbd414197	-0.047181692
167	0x3da5555d	0.080729224
168	0x3e0a96fd	0.1353416
169	0x3d7b68de	0.061379306
170	0x3d9bf115	0.07614342
171	0xbe032019	-0.12805213
172	0x3ddfe5f3	0.10932531
173	0x3e87976f	0.26482722
174	0xbe12e46d	-0.1434495
175	0x3e622f43	0.22088341
176	0xbd1a1d98	-0.03762588
177	0x3ea2083c	0.31646907
178	0x3eaec1a8	0.34132123
179	0x3e70a4f8	0.2350043
180	0xbe55a51d	-0.20863767
181	0xbe4c4b2e	-0.19950554
182	0xbc16dbcd	-0.009207678
183	0xbdb00c97	-0.08596151
184	0x3e85884a	0.26080543
185	0x3dbb0728	0.09132224
186	0x3e0a55ca	0.13509288
187	0x3ebef386	0.3729517
188	0x3e092d0f	0.13396095
189	0x3a62ff70	0.0008659279
190	0x3e49952c	0.19685811
191	0xbd4fa690	-0.050695956
192	0xbe782337	-0.24232183
193	0x3e1d3707	0.15353023
194	0xbdaa7ffa	-0.08325191
195	0x3e8f08c3	0.27936372
196	0x3e6fa970	0.23404479
197	0xbe24bfa2	-0.16088727
198	0xbe66b096	-0.225283
199	0x3e5f76e5	0.21822698
200	0x3e825cf1	0.25461534
201	0x3defec21	0.1171496
202	0xbe5f52c7	-0.21808921
203	0xbea9eae3	-0.33187017
204	0xbe8690c9	-0.26282337
205	0xbe3e7ce6	-0.18602332
206	0x3e7f06f6	0.24904999
207	0x3d71d94a	0.059045114
208	0xbdfbb828	-0.122909844
209	0x3e1e904e	0.15484735
210	0x3dbc935d	0.09207795
211	0xbd096d40	-0.033551455
212	0xbd82ce57	-0.063870125
213	0x3c93e828	0.018055037
214	0xbe6e2e55	-0.23259862
215	0xbe7c3f4c	-0.24633521
216	0xbe80d0f8	-0.2515943
217	0x3e8d3193	0.27576885
218	0xbe4ca991	-0.1998656
219	0xbeb3866c	-0.35063493
220	0xbe6ca67a	-0.23110381
221	0x3e418154	0.18896991
222	0x3e00e2f0	0.1258657
223	0xbed22cf6	-0.41049927
224	0x3df47f5c	0.119383544
225	0xbeace967	-0.33771822
226	0xbdff2304	-0.124578506
227	0x3e242cd4	0.16032726
228	0xbedf231c	-0.43581474
229	0xbd132b34	-0.035929874
230	0xbc2dd8fb	-0.010610814
231	0x3de9c746	0.114149615
232	0xbe68350e	-0.22676489
233	0xbda16d51	-0.078821786
234	0xbd0ce70c	-0.03440003
235	0xbd86e1e2	-0.065860525
236	0xbe86546e	-0.2623629
237	0xbe0b97c6	-0.13632116
238	0xbdff6a28	-0.124714196
239	0xbec95a56	-0.39326733
240	0xbd961b3f	-0.073294155
241	0xbe2a5b86	-0.16636476
242	0xbea73d3b	-0.32663903
243	0xbf17d800	-0.59313965
244	0xbe12dc05	-0.14341743
245	0xbe8a2a04	-0.2698518
246	0xbecb3e8b	-0.39696154
247	0xbe34ec82	-0.17668346
248	0xbecb2906	-0.39679736
249	0xbde48a6e	-0.11159216
250	0xbde2d7b0	-0.110762954
251	0xbd0e5294	-0.03474672
252	0x3e303748	0.17208588
253	0xbe996aaa	-0.2996419
254	0xbe124cf3	-0.14287166
255	0xbeb0509c	-0.344365

rnn.weight_hh_l0 f4 [30, 10]
0	0xbca4f0ad	-0.020134294
1	0x3ee9d51b	0.456704
2	0xbdead349	-0.11466081
3	0x3e25b033	0.16180496
4	0x3d858720	0.06519914
5	0x3d86546c	0.06559071
6	0xbe986afa	-0.29769117
7	0x3c75f1c7	0.0150112575
8	0x3e92bfe1	0.28662017
9	0xbe838f14	-0.25695097
10	0xbd187663	-0.037222277
11	0x3ca97f8b	0.0206907
12	0xbdd0798b	-0.101794325
13	0x3dcb77d3	0.09934964
14	0x3e22dd91	0.15904833
15	0xbe7ab5f5	-0.24483474
16	0x3d6d3066	0.057907484
17	0x3e58e3a0	0.21180582
18	0x3e2422e9	0.16028942
19	0x3dc9c6ff	0.098524086
20	0x3cac91b9	0.02106558
21	0x3e957b33	0.29195556
22	0x3cd9bb7e	0.026578661
23	0xbdd8fe94	-0.10595432
24	0xbd8ad12e	-0.06778179
25	0xbe35fb08	-0.17771542
26	0x3e948ce4	0.2901374
27	0x3ddcfc1a	0.10790272
28	0x3e477fae	0.194823
29	0xbe48d667	-0.19613038
30	0xbdb78946	-0.0896173
31	0x3e8369ac	0.2566656
32	0x3e023446	0.12715253
33	0xbd03969a	-0.032126047
34	0xbe414101	-0.18872453
35	0x3e0a61cc	0.13513869
36	0xbe355a30	-0.17710185
37	0xbe21c969	-0.15799488
38	0xbe59cd9a	-0.21269837
39	0xbda96eab	-0.08273061
40	0xbdee766a	-0.116436794
41	0x3e67d574	0.2264002
42	0x3e7026ce	0.23452303
43	0x3e203b25	0.15647562
44	0x3e105be2	0.1409755
45	0xbcbc87a5	-0.0230139
46	0xbd74fbbb	-0.05981038
47	0xbb9553a9	-0.004557092
48	0x3e40e89c	0.18838733
49	0x3de2aa08	0.11067587
50	0xbe510c03	-0.20414738
51	0xbe823d40	-0.25437355
52	0xbedc113c	-0.429819
53	0x3d2971c1	0.04136825
54	0xbd5d29a7	-0.0539948
55	0xbebdfbfe	-0.37106317
56	0xbe04a071	-0.12951829
57	0xbe35cc55	-0.17753728
58	0xbd65ea84	-0.056131855
59	0xbeaf178a	-0.34197646
60	0x3d025ac3	0.03182484
61	0xbe2b71f5	-0.1674269
62	0xbe38ec1a	-0.18058816
63	0x3db8bfc2	0.0902095
64	0xbe3fe143	-0.18738274
65	0x3d649625	0.05580725
66	0x3e632fb4	0.22186166
67	0x3ed08cf2	0.40732533
68	0x3e9d2ed0	0.30699778
69	0xbec50ab0	-0.38484716
70	0xbe94777a	-0.28997403
71	0xbdbfa233	-0.09357109
72	0x3dbf2b55	0.09334437
73	0xbe1275cb	-0.14302747
74	0xbe1976c2	-0.14986709
75	0x3e0e2fd5	0.13885434
76	0xbe9bc015	-0.30419984
77	0x3e302ada	0.17203847
78	0xbe10c4e7	-0.14137612
79	0xbe84aaf7	-0.25911686
80	0x3b9105ad	0.0044257254
81	0x3eb7a35e	0.35866827
82	0xbe3cb49e	-0.18428275
83	0xbdc0fcea	-0.094232395
84	0xbe54e018	-0.2078861
85	0xbea38037	-0.31933758
86	0xbdc42218	-0.09576815
87	0x3df69923	0.12040927
88	0x3e8f0a71	0.27937654
89	0x3d39cd71	0.04536194
90	0x3e856620	0.26054478
91	0x3e80c32c	0.25148904
92	0xbe35e629	-0.1776358
93	0x3dc643dc	0.09680912
94	0x3e951628	0.29118466
95	0xbc69a2e1	-0.014260025
96	0xbdaeb996	-0.085314915
97	0xbd174b0c	-0.036936805
98	0x3e02368e	0.12716123
99	0xbd8fe1eb	-0.07025512
100	0xbec82714	-0.39092314
101	0x3e582df3	0.21111278
102	0xbd1b6be1	-0.03794468
103	0x3e2ffcd6	0.17186293
104	0x3e60b9a2	0.21945813
105	0x3e515e26	0.20446071
106	0x3eb61d35	0.35569158
107	0xbe6c7a36	-0.23093495
108	0x3e87c29d	0.26515666
109	0xbdb9d328	-0.09073478
110	0x3ee80c7a	0.4532202
111	0x3d07c25e	0.033144347
112	0x3d5178b4	0.051140502
113	0xbe347c65	-0.17625578
114	0xbe02ead4	-0.12784892
115	0x3ebdafa0	0.37048054
116	0x3e910149	0.28321293
117	0x3e2f8eba	0.1714429
118	0x3e08c9fc	0.13358301
119	0x3c9150df	0.017738758
120	0x3b1e5791	0.002416108
121	0xbe82b81c	-0.2553109
122	0x3d6813a6	0.056659363
123	0x3e232ae9	0.15934338
124	0xbe65db6e	-0.22446987
125	0x3e2f2523	0.1710401
126	0xbe04f370	-0.12983489
127	0xbeb8612b	-0.36011633
128	0x3d888a4d	0.06667004
129	0x3ea90754	0.33013403
130	0xbd70b1ff	-0.0587635
131	0x3e123877	0.14279352
132	0x3d98b1e6	0.074558064
133	0xbc811667	-0.015757753
134	0xbe54de37	-0.20787893
135	0x3b3ac0c3	0.0028496243
136	0x3e20ad0a	0.15691009
137	0xbe9c52c5	-0.30531898
138	0xbdad2156	-0.08453624
139	0x3ef8a4ff	0.48563382
140	0x3da4e8da	0.080522254
141	0x3e93f540	0.28898048
142	0x3dba3b4c	0.09093341
143	0x3e8969e5	0.26838604
144	0x3baff7e1	0.0053701256
145	0xbd75d936	-0.0600216
146	0x3e92d203	0.2867585
147	0xbdb72e03	-0.08944323
148	0xbeb3cb52	-0.3511606
149	0x3ecf09b3	0.40437087
150	0x3e582fd7	0.21112
151	0x3e6ed21a	0.23322335
152	0x3ebb2ca8	0.36557508
153	0x3be7c399	0.0070728776
154	0xbe902029	-0.28149536
155	0x3d29d56e	0.041463308
156	0xbe84314a	-0.25818855
157	0x3e68012e	0.226567
158	0xbe4a03eb	-0.19728057
159	0xbdcd4f03	-0.10024836
160	0xbcfdf203	-0.03099919
161	0xbe55af1a	-0.20867577
162	0x3eba5504	0.36392987
163	0x3d91f1ad	0.07126174
164	0xbe5540b1	-0.20825459
165	0xbdc855d7	-0.09781998
166	0xbd93aec3	-0.072110675
167	0x3d869887	0.06572061
168	0x3e14b812	0.14523342
169	0xbd863da3	-0.06554725
170	0xbd2f125d	-0.042742122
171	0xbd32c58f	-0.043645438
172	0xbe4b91e0	-0.19879866
173	0xbe8187cd	-0.2529892
174	0x3e54dcdd	0.20787378
175	0xbe0b95d9	-0.13631381
176	0xbda97fb6	-0.08276312
177	0x3e4465ea	0.19179502
178	0x3e279065	0.16363676
179	0x3d35e615	0.044408876
180	0xbe0ccad7	-0.13749252
181	0x3e9455e3	0.28971776
182	0x3e2dbfed	0.16967745
183	0x3e9b6637	0.3035142
184	0xbe1369b3	-0.1439579
185	0x3debf46b	0.115212284
186	0x3e155dac	0.14586514
187	0x3d9864cb	0.074411
188	0x3ceb92c5	0.028756509
189	0xbe2004b1	-0.1562679
190	0xbc86c99f	-0.016453562
191	0xbe525ef0	-0.20544028
192	0xbe0b7d2d	-0.1362197
193	0x3e0547f6	0.13015732
194	0x3dc109dd	0.094257094
195	0x3e4275fc	0.1899032
196	0xbe0e8837	-0.1391915
197	0x3c9ccaa1	0.01913959
198	0x3e42b693	0.19014959
199	0xbe9392e8	-0.28823018
200	0x3f01771e	0.50572383
201	0xbeb90a3d	-0.36140624
202	0xbc44b84f	-0.012006833
203	0x3c3c7ecc	0.01150484
204	0xbe15ff98	-0.14648283
205	0x3ef41007	0.47668478
206	0xb9f43509	-0.0004657882
207	0x3d84aa8f	0.06477844
208	0xbd884bd8	-0.06655091
209	0xbd8e4633	-0.06946983
210	0x3ebc788b	0.36810717
211	0xbe207769	-0.15670551
212	0x3dc19f6a	0.09454234
213	0xbdb93273	-0.090428255
214	0xbe2e70f9	-0.17035283
215	0xbe3d8f61	-0.18511726
216	0xbd5d0f78	-0.05396983
217	0xbde8b421	-0.11362482
218	0x3e1571da	0.14594212
219	0x3e88e75e	0.2673902
220	0x3de386bc	0.11109683
221	0x3cb5c0c2	0.02218664
222	0xbdf790d0	-0.12088168
223	0xbe99cc90	-0.3003888
224	0x3d526d2b	0.051373642
225	0x3eab0849	0.3340476
226	0xbe777a70	-0.241678
227	0xbc4f651c	-0.012658384
228	0x3d79c2b3	0.060976695
229	0x3e895816	0.26825017
230	0x3de4fa10	0.11180508
231	0xbe35112f	-0.17682336
232	0x3e40ff1e	0.1884732
233	0xbe0a8642	-0.13527778
234	0x3e405ceb	0.18785445
235	0xbebead9f	-0.37241837
236	0xbe517f2a	-0.20458665
237	0x3e996b86	0.29964846
238	0x3d082d1e	0.033246152
239	0xbdc120f7	-0.09430116
240	0x3e928c4d	0.28622666
241	0x3e57734e	0.21040079
242	0xbe30c16c	-0.17261285
243	0x3cd9f4b7	0.026605947
244	0x3e6a6887	0.22891437
245	0xbd7674cc	-0.06016998
246	0x3e5b8e87	0.21441089
247	0x3dc338f2	0.09532346
248	0x3e5cd435	0.21565326
249	0x3e2a224e	0.16614649
250	0xbd2ae99f	-0.041726705
251	0x3eaf3713	0.34221706
252	0x3ec84253	0.391131
253	0x3e03d39f	0.12873696
254	0x3eaac093	0.33350047
255	0xbe49713f	-0.19672106
