generative_ts/saves/250911_111303/model_LS4.pth (torch, 247755 bytes, 247 tensors)

encoder.latent.encoder.weight f4 [16, 1]
-0.12766819 0.6991607 -0.23823161 0.796646 -0.27603048 0.031878937 -0.6875314 0.5326636
0.37297133 -0.0028993995 0.43748006 -0.46995088 -0.57413256 0.47592497 0.36502486 -0.5981971
00000000: 73bb 02be 32fc 323f fdf2 73be fef0 4b3f
00000010: de53 8dbe 7d93 023d 0f02 30bf a45c 083f
00000020: 19f6 be3e da03 3ebb 63fd df3e 679d f0be
00000030: 5afa 12bf 70ac f33e 8ae4 ba3e 7223 19bf

encoder.latent.encoder.bias f4 [16]
-0.92528886 0.98526746 0.93539184 -0.47696632 0.18852234 -0.45467398 -0.29086748 0.56977934
0.623421 -0.22018385 -0.93625027 0.9724679 -0.6661613 -0.42585272 -0.13341257 -0.9075938
00000000: bbdf 6cbf 7d3a 7c3f d775 6f3f ee34 f4be
00000010: 000c 413e 07cb e8be 95ec 94be 0fdd 113f
00000020: 8598 1f3f e077 61be 19ae 6fbf a8f3 783f
00000030: 8c89 2abf 5e09 dabe 4e9d 08be 1158 68bf

encoder.latent.backbone.c_layers.0.layer.D f4 [1, 16]
-0.422003 1.2581826 -0.6245929 0.68256205 0.81870127 2.8814702 -0.29178584 0.29506972
0.030508934 0.5199995 1.8908136 1.3794278 0.43994716 1.4145677 -0.19278137 -1.6723456
00000000: c710 d8be 210c a13f 52e5 1fbf 63bc 2e3f
00000010: 6896 513f 026a 3840 f464 95be 6113 973e
00000020: dfed f93c b01e 053f 2e06 f23f 1791 b03f
00000030: c140 e13e 8e10 b53f 7b68 45be 6c0f d6bf

encoder.latent.backbone.c_layers.0.layer.kernel.kernel.C f4 [1, 16, 8, 2]
-1.3086724 -0.83957756 -0.8883772 -0.1477849 0.64881396 -0.4537742 -0.5699164 0.1798461
-0.008419408 0.15094271 -0.10399215 -0.55455726 0.11717026 0.13064583 0.2544307 0.51904213
0.11124176 -0.060231138 -0.17167686 -0.053654924 -0.10019285 -0.47258756 -0.54526407 -0.3338242
0.23958609 -1.7252574 -0.4040411 -0.4801632 -0.023052225 -0.20680839 0.18119228 -1.8536552
1.2986209 -0.20146017 -0.68159753 -0.2301904 -0.40224108 0.2512108 -1.6095597 0.80642974
-1.2866298 0.5278466 -0.18246417 0.63373965 0.5867972 0.19721901 1.2999262 -0.9102817
-0.46666172 1.2599221 0.43988457 0.39353064 -1.2492033 0.038147826 0.7955878 -0.6463924
-0.8086613 -0.34611812 -1.103626 0.446414 -0.20694824 1.3604091 0.7794647 -0.13758805
-0.17766465 0.4831476 -0.1473061 0.24703684 -0.6725672 0.8650234 0.22790508 -0.041004114
-1.0994611 0.16243708 -0.9464244 -0.8805624 0.37584275 0.2238493 0.4928794 0.46771288
-0.55928665 -0.40877995 -0.15298809 0.8744392 -0.25461167 0.20995498 -1.053377 0.7889724
0.20313577 -0.12758188 -1.3078493 1.2674266 -0.55288464 -0.05335489 0.35547566 0.19151586
-0.50390965 0.3642323 -0.8715103 0.37493992 0.87183803 0.44036362 0.5280218 0.31253612
0.88053626 0.6992999 0.76462996 -0.57580185 -0.5466497 1.044219 -0.38590533 0.08749308
-0.18002926 0.46389604 0.048928823 0.43158373 -0.007826817 0.76545954 0.3174479 0.39670128
-0.171789 -0.29263127 -0.10294974 -0.80777454 1.1766808 -0.62650204 -0.31207296 1.5732875
-0.54078037 -0.91337395 -0.03614355 1.1794882 0.8193641 0.4170906 0.39899522 -0.054079287
0.65993905 0.049147464 0.57801396 0.5117811 -0.16182242 0.837566 -0.2680822 0.37715662
0.31510282 0.8508819 1.0308627 -0.88005966 0.34251755 0.38657883 -0.63052326 0.16771233
-0.321777 0.13080099 0.36398736 0.0006419512 0.96994746 -1.0394988 0.83013546 0.81180847
-0.7291314 -1.085602 -0.9513689 -0.21908392 0.1652261 -0.66144556 -0.9825357 -0.089775495
1.0329555 0.23939711 0.53205913 -0.22020885 0.5287898 -0.5655448 1.1754783 0.47110772
-0.40885332 0.18040934 0.8673498 0.4219913 -1.0899744 -0.60657114 -0.057493128 0.3865051
-0.04781238 -0.33008504 -0.7908765 0.7986653 -0.89983207 0.45313472 0.033588406 -0.8194794
-0.05552649 -0.009392566 0.37228742 -0.08682235 0.31760895 -1.0018029 -0.3964751 0.08978021
0.71558625 0.24348831 1.0912876 -0.32671204 0.2324651 -0.9889645 -0.7000758 0.5308135
-0.5678405 -0.7872846 0.7003529 -1.0111023 -0.17565975 -0.66283125 1.0491716 -0.69608355
-0.29804334 -0.6593447 0.37034318 -0.6329615 0.82920545 -0.2682341 -0.37609524 -0.028876388
-0.24387933 0.4861066 -0.15432456 0.40537316 -0.585719 0.58501315 -1.2937684 -0.7413094
1.0939553 0.032353535 -0.8147313 -0.2717908 -1.8374357 0.666087 -0.13141434 -0.06524089
1.2089943 0.2794509 -0.86975944 0.042268198 1.0501791 0.49778876 0.28032094 0.50906813
-0.042012576 0.4898701 -0.70647305 0.19480173 0.32589695 -1.3753338 -0.18614897 -0.6396829
00000000: 9482 a7bf 8eee 56bf b06c 63bf ed54 17be
00000010: ac18 263f 1855 e8be 0be6 11bf 9329 383e
00000020: 8ff1 09bc ba90 1a3e d6f9 d4bd 77f7 0dbf
00000030: f6f6 ef3d 05c8 053e be44 823e f2df 043f
00000040: b8d2 e33d edb4 76bd 0fcc 2fbe 44c5 5bbd
00000050: e931 cdbd fff6 f1be 6d96 0bbf 01eb aabe
00000060: 0e56 753e 3cd5 dcbf 7ade cebe f3d7 f5be
00000070: 05d8 bcbc 94c5 53be 788a 393e 9344 edbf
00000080: 3639 a63f 934b 4ebe 2d7d 2ebf 08b7 6bbe
00000090: 8bf2 cdbe b49e 803e 0d06 cebf 2e72 4e3f
000000a0: 49b0 a4bf f420 073f e3d7 3abe c33c 223f
000000b0: 5738 163f c8f3 493e fb63 a63f 3908 69bf
000000c0: 49ee eebe 2145 a13f 8d38 e13e d97c c93e
000000d0: e5e5 9fbf e540 1c3d a4ab 4b3f f979 25bf
000000e0: 6d04 4fbf 6536 b1be 9e43 8dbf 6090 e43e
000000f0: 3dea 53be e321 ae3f 008b 473f e2e3 0cbe
00000100: b9ed 35be 1f5f f73e 69d7 16be 3af7 7c3e
00000110: 5d2d 2cbf 2c72 5d3f f35f 693e eef3 27bd
00000120: 24bb 8cbf e855 263e df48 72bf 8a6c 61bf
00000130: 766e c03e c038 653e b05a fc3e 1078 ef3e
00000140: 692d 0fbf 9b4b d1be e9a8 1cbe 3fdb 5f3f
00000150: 765c 82be 70fe 563e 0fd5 86bf 18fa 493f
00000160: d302 503e d3a4 02be 9b67 a7bf 093b a23f
00000170: d989 0dbf a88a 5abd e800 b63e bc1c 443e
00000180: 3900 01bf a87c ba3e 4d1b 5fbf 20f8 bf3e
00000190: c730 5f3f 5777 e13e 702c 073f bc04 a03e
000001a0: d36a 613f 5105 333f cabe 433f c067 13bf
000001b0: 3cf1 0bbf f8a8 853f 6295 c5be 922f b33d
000001c0: 9759 38be c883 ed3e 9769 483d 8bf8 dc3e
000001d0: 0d3c 00bc 28f5 433f 8888 a23e 6e1c cb3e
000001e0: 75e9 2fbe c4d3 95be 50d7 d2bd 50ca 4ebf
000001f0: 7a9d 963f 7062 20bf 07c8 9fbe 7c61 c93f
00000200: 9570 0abf e0d2 69bf 420b 14bd 78f9 963f
00000210: d8c1 513f e68c d53e 1a49 cc3e 3e82 5dbd
00000220: c4f1 283f da4e 493d b9f8 133f 1604 033f
00000230: c7b4 25be ba6a 563f 1242 89be ac1a c13e
00000240: 2855 a13e 65d3 593f 4ff3 833f 974b 61bf
00000250: 765e af3e a9ed c53e f969 21bf c8bc 2b3e
00000260: f4bf a4be b2f0 053e 8d5c ba3e 9e48 283a
00000270: 7a4e 783f 4c0e 85bf c283 543f aed2 4f3f
00000280: 5ba8 3abf 02f5 8abf ea8c 73bf 8957 60be
00000290: 0831 293e 7f54 29bf 7687 7bbf 37dc b7bd
000002a0: e337 843f 8424 753e 0735 083f 6e7e 61be
000002b0: c55e 073f 8bc7 10bf 1376 963f 0835 f13e
000002c0: 3955 d1be 3abd 383e a30a 5e3f 3e0f d83e
000002d0: 4884 8bbf 3f48 1bbf ea7d 6bbd ffe3 c53e
000002e0: ead6 43bd e800 a9be e276 4abf 5475 4c3f
000002f0: 655b 66bf 4601 e83e ff93 093d 67c9 51bf
00000300: bf6f 63bd 47e3 19bc 759c be3e ebcf b1bd
00000310: a49d a23e 143b 80bf c9fe cabe b0de b73d
00000320: a930 373f 0055 793e 50af 8b3f cd46 a7be
00000330: 550b 6e3e c72c 7dbf 2b38 33bf 65e3 073f
00000340: ff5d 11bf 7c8b 49bf 544a 333f cd6b 81bf
00000350: 26e0 33be 4faf 29bf 414b 863f 8832 32bf
00000360: 2399 98be d0ca 28bf 9f9d bd3e c409 22bf
00000370: cf46 543f fb55 89be 8e8f c0be 2d8e ecbc
00000380: 81bb 79be f7e2 f83e 4207 1ebe 128d cf3e
00000390: aef1 15bf 6cc3 153f 349a a5bf 74c6 3dbf
000003a0: ba06 8c3f 2485 043d 3b92 50bf 2a28 8bbe
000003b0: 1831 ebbf ad84 2a3f 7b91 06be 049d 85bd
000003c0: 53c0 9a3f 3014 8f3e 8ea8 5ebf 6b21 2d3d
000003d0: 456c 863f 2bde fe3e 3a86 8f3e 4a52 023f
000003e0: 6115 2cbd 41d0 fa3e 6bdb 34bf 1b7a 473e
000003f0: f7db a63e f00a b0bf d69d 3ebe 42c2 23bf

encoder.latent.backbone.c_layers.0.layer.kernel.kernel.log_dt f4 [16]
-4.7032466 -2.393978 -3.8829312 -4.917697 -3.8160005 -3.7511933 -3.066645 -4.378391
-5.185633 -2.8951375 -3.1616719 -2.9898312 -4.7926 -2.3381803 -2.538904 -3.5304248
00000000: ff80 96c0 f036 19c0 f281 78c0 c65d 9dc0
00000010: 5a39 74c0 8d13 70c0 e943 44c0 c71b 8cc0
00000020: b5f0 a5c0 ef49 39c0 d558 4ac0 6559 3fc0
00000030: fb5c 99c0 bfa4 15c0 677d 22c0 7bf2 61c0

encoder.latent.backbone.c_layers.0.layer.kernel.kernel.B f4 [1, 16, 8, 2]
-0.00056159584 -10.261029 -0.004354202 -3.4272475 -0.13527153 -2.224721 -0.024953257 -1.5471566
0.027299063 1.3422616 0.24260971 0.99147683 0.22806212 0.9178626 -0.64761436 -0.3357382
-0.03300538 -10.217882 -0.0373081 -3.513384 -0.062030427 -2.140906 -0.12535298 -1.5815564
0.09995816 1.317574 0.15349685 1.0909716 0.28024063 0.87387365 -0.5177277 -0.37523374
-0.08513596 -10.078182 -0.18343289 -3.425321 -0.17460658 -2.1351244 -0.064239256 -1.5944127
0.16530052 1.2812041 0.30352813 1.0773265 0.25815773 0.8048081 -0.65364623 -0.44984007
-0.12443322 -10.082494 -0.21555626 -3.4976354 0.09055959 -2.0161145 -0.09029309 -1.7906448
0.19700877 1.3782966 0.18193634 1.1952009 0.26486173 0.8608688 -0.54954576 -0.4286162
-0.05019837 -10.232194 -0.047914565 -3.4947095 -0.040923137 -2.1810997 -0.06157668 -1.5205297
0.13418138 1.2660698 0.18368977 1.0139916 0.28658703 0.74544704 -0.6020418 -0.3562679
-0.12414263 -10.267991 -0.051373746 -3.5316062 -0.123561546 -2.2165298 -0.136763 -1.6545851
0.16697957 1.3353032 0.14140196 1.018227 0.2645905 0.80484045 -0.54088974 -0.45999944
0.0596073 -10.290223 0.068981685 -3.3763921 -0.2153924 -2.288241 -0.23299985 -1.7182568
-0.017557327 1.4512001 0.024006167 0.9193595 0.15210985 0.9919369 -0.44712594 -0.26192346
-0.0958029 -10.38116 -0.08956239 -3.5698717 -0.06948045 -2.2199402 -0.0043358305 -1.6643018
0.11636529 1.3635219 0.099557556 1.090098 0.32222188 0.8786131 -0.53347135 -0.42796385
-0.12049809 -10.156789 -0.016917735 -3.549998 -0.012941931 -2.124702 -0.023194091 -1.5411977
0.2015817 1.3600001 0.26580745 1.0473304 0.39939627 0.75642204 -0.6413113 -0.5182637
-0.051469818 -10.238318 -0.020975308 -3.4700115 -0.014498151 -2.1817384 -0.099588655 -1.6295369
-0.0050874017 1.2778969 0.1826188 1.0874918 0.29627255 0.8503945 -0.5716936 -0.38927418
-0.103146076 -10.279221 0.020006893 -3.6637561 -0.20050737 -2.2897952 -0.0018430465 -1.5332661
0.032411564 1.2643836 0.10854469 0.9646825 0.25241736 0.7537113 -0.6554892 -0.3724004
-0.06985715 -10.217308 -0.06365271 -3.4915538 -0.088303804 -2.0496147 -0.0967428 -1.6134388
0.12279832 1.2909892 0.17676696 1.0470128 0.3067106 0.82888615 -0.73414016 -0.41461992
-0.15928453 -10.335406 0.027599612 -3.3586717 -0.2539621 -2.0217545 -0.19439341 -1.8123394
0.25125912 1.5135944 0.2459225 1.2369521 0.11009546 0.95243275 -0.57831657 -0.52428395
-0.09251538 -10.164339 -0.05077253 -3.4316232 -0.0969664 -2.099641 -0.052118056 -1.5412819
0.052594505 1.3587452 0.19971783 1.1898056 0.34329358 0.9099056 -0.6186836 -0.44520557
-0.046852715 -10.226621 -0.053099424 -3.4893177 -0.076333486 -2.1735392 -0.10109949 -1.5756404
0.12938304 1.294834 0.17879915 1.0398791 0.30529758 0.8370341 -0.5754684 -0.40434352
-0.112902775 -10.232627 -0.026828485 -3.4508328 -0.12194082 -2.1277492 -0.13927202 -1.5671903
0.089358374 1.3346822 0.23204492 1.1034746 0.3404722 0.79567444 -0.53663987 -0.45842358
00000000: 0f38 13ba 2d2d 24c1 b2ad 8ebb 0658 5bc0
00000010: 9f84 0abe d461 0ec0 c66a ccbc 3a09 c6bf
00000020: 49a2 df3c 3acf ab3f ae6e 783e 6dd1 7d3f
00000030: 1e89 693e 0bf9 6a3f 0eca 25bf e1e5 abbe
00000040: a630 07bd 727c 23c1 61d0 18bd 49db 60c0
00000050: 9e13 7ebd 9b04 09c0 885c 00be 7170 cabf
00000060: ddb6 cc3d 44a6 a83f 472e 1d3e f5a4 8b3f
00000070: b37b 8f3e 2fb6 5f3f cd89 04bf a31e c0be
00000080: c35b aebd 3c40 21c1 d5d5 3bbe 7638 5bc0
00000090: 11cc 32be e1a5 08c0 df8f 83bd b715 ccbf
000000a0: 8a44 293e 7ffe a33f 0a68 9b3e d6e5 893f
000000b0: 402d 843e e707 4e3f 5c55 27bf 7051 e6be
000000c0: d8d6 febd e551 21c1 c8ba 5cbe 42d9 5fc0
000000d0: 4e77 b93d 0508 01c0 95eb b8bd d933 e5bf
000000e0: abbc 493e 066c b03f 854d 3a3e 58fc 983f
000000f0: f59b 873e e661 5c3f 08af 0cbf 9573 dbbe
00000100: ce9c 4dbd 11b7 23c1 1042 44bd 52a9 5fc0
00000110: 059f 27bd 2397 0bc0 d437 7cbd b8a0 c2bf
00000120: d866 093e 930e a23f 2c19 3c3e 7aca 813f
00000130: 89bb 923e 9ed5 3e3f 691f 1abf bf68 b6be
00000140: 7e3e febd b149 24c1 476d 52bd d605 62c0
00000150: d60d fdbd a0db 0dc0 9a0b 0cbe 72c9 d3bf
00000160: b1fc 2a3e 37eb aa3f adcb 103e 4355 823f
00000170: 6878 873e 060a 4e3f c077 0abf 0c85 ebbe
00000180: c926 743d c1a4 24c1 4546 8d3d cf16 58c0
00000190: d38f 5cbe 8a72 12c0 8397 6ebe d7ef dbbf
000001a0: 62d4 8fbc edc0 b93f 95a8 c43c 255b 6b3f
000001b0: afc2 1b3e 94ef 7d3f b1ed e4be d51a 86be
000001c0: 5034 c4bd 3b19 26c1 7d6c b7bd c778 64c0
000001d0: c44b 8ebd 8013 0ec0 9513 8ebb d707 d5bf
000001e0: ed50 ee3d e387 ae3f d5e4 cb3d 5588 8b3f
000001f0: 44fa a43e caec 603f 9491 08bf 141e dbbe
00000200: b4c7 f6bd 3582 22c1 1097 8abc 2b33 63c0
00000210: 650a 54bc 1efb 07c0 8901 bebc f745 c5bf
00000220: 6f6b 4e3e 7c14 ae3f ea17 883e ec0e 863f
00000230: ab7d cc3e e0a4 413f fa2c 24bf eeac 04bf
00000240: 04d2 52bd 27d0 23c1 69d4 abbc ab14 5ec0
00000250: a789 6dbc 9aa1 0bc0 23f5 cbbd aa94 d0bf
00000260: 38b4 a6bb 2092 a33f 6c00 3b3e ee32 8b3f
00000270: 09b1 973e 74b3 593f 835a 12bf f24e c7be
00000280: 403e d3bd b077 24c1 7fe5 a33c fb7a 6ac0
00000290: ce51 4dbe 018c 12c0 6192 f1ba 1042 c4bf
000002a0: fdc1 043d 52d7 a13f ae4c de3d 6ff5 763f
000002b0: d93c 813e 39f3 403f 24ce 27bf 44ab bebe
000002c0: 4411 8fbd 187a 23c1 5a5c 82bd 9e75 5fc0
000002d0: a0d8 b4bd e32c 03c0 1721 c6bd 2a85 cebf
000002e0: b07d fb3d 223f a53f 6602 353e 8404 863f
000002f0: 2c09 9d3e e231 543f 9cf0 3bbf 1049 d4be
00000300: 7c1b 23be d35d 25c1 9518 e23c 7af4 56c0
00000310: 5207 82be 6d64 01c0 110f 47be bdfa e7bf
00000320: 09a5 803e 76bd c13f 1cd3 7b3e 7254 9e3f
00000330: bb79 e13d a2d2 733f 8e0c 14bf 7937 06bf
00000340: b478 bdbd 22a1 22c1 dbf6 4fbd b79f 5bc0
00000350: 5296 c6bd 8560 06c0 be79 55bd ba48 c5bf
00000360: 566d 573d 5deb ad3f d582 4c3e 8d4b 983f
00000370: 2dc4 af3e 93ef 683f 0c62 1ebf fcf1 e3be
00000380: a2e8 3fbd 3da0 23c1 c87e 59bd fb50 5fc0
00000390: bb54 9cbd 441b 0bc0 400d cfbd 96ae c9bf
000003a0: fd7c 043e 1fbd a53f 2017 373e c21a 853f
000003b0: f74f 9c3e de47 563f e651 13bf 1d06 cfbe
000003c0: 9239 e7bd d7b8 23c1 69c7 dbbc 72da 5cc0
000003d0: 1cbc f9bd 0b2d 08c0 539d 0ebe b199 c8bf
000003e0: 8601 b73d ded6 aa3f 2f9d 6d3e a83e 8d3f
000003f0: 5f52 ae3e 52b1 4b3f 3b61 09bf 7fb6 eabe

encoder.latent.backbone.c_layers.0.layer.kernel.kernel.P f4 [1, 16, 8, 2]
-0.11330837 -7.2871885 -0.122584455 -2.5259252 -0.10569593 -1.4745357 -0.20129496 -1.2036812
0.16571037 0.8788912 0.06592274 0.8580045 0.29628977 0.6717445 -0.33581924 -0.348223
-0.07484068 -7.2522545 -0.07749039 -2.4897463 -0.01632698 -1.5620898 -0.03643213 -1.0860113
0.11867838 0.87924886 0.15890157 0.76283014 0.24561138 0.56781197 -0.37991795 -0.3182047
-0.004077483 -7.229714 0.07407339 -2.3713596 -0.03549165 -1.5685483 -0.20605478 -1.1601503
0.0073542628 0.88731486 0.026051173 0.70412743 0.3055241 0.6285947 -0.28689688 -0.22859319
0.083503954 -7.274527 -0.015633972 -2.3177807 0.019894578 -1.6801105 -0.16879463 -1.07716
0.09790607 0.7458876 0.21895912 0.71938443 0.23758033 0.6458992 -0.4638225 -0.29938456
-0.070297435 -7.234047 -0.0850263 -2.477439 -0.07581834 -1.5460054 -0.063390836 -1.207859
0.039395016 0.9135626 0.10999102 0.7726905 0.24798143 0.6071241 -0.37315783 -0.32498384
0.019972302 -7.162341 -0.08779351 -2.4197311 0.0071825613 -1.4872899 -0.015663845 -1.0947723
-0.0009909163 0.8673501 0.08872794 0.7877729 0.25579384 0.63056546 -0.43664607 -0.29181728
-0.0014536433 -7.2794747 -0.10917266 -2.5884414 0.0917467 -1.3952994 0.075598516 -0.9974294
0.23885682 1.0475942 -0.018692499 0.896218 0.37715244 0.45024434 -0.3859707 -0.4304401
-0.013667691 -7.183541 -0.024436604 -2.4305856 -0.08497788 -1.5082386 -0.048293937 -1.129278
0.06915808 0.8983552 0.18441872 0.74561405 0.23369707 0.5711695 -0.43866 -0.27348703
0.036642287 -7.3320465 -0.109286055 -2.336877 -0.13544782 -1.5939127 -0.18757352 -1.2107221
-0.027239434 0.8334304 0.038634755 0.6648935 0.12805523 0.6915948 -0.49482456 -0.16849871
-0.05974162 -7.22048 -0.037361775 -2.4865923 -0.20442368 -1.5413619 -0.07398771 -1.1265349
0.09061066 0.9538649 0.13564394 0.7403558 0.2759209 0.5941446 -0.4075423 -0.3489127
-0.08309854 -7.0488935 -0.12244317 -2.4855092 -0.08116347 -1.4126772 -0.14835978 -1.2406899
0.17182669 1.0248941 0.1674212 0.8373386 0.18640001 0.676714 -0.3363916 -0.10406823
-0.03930438 -7.2988925 -0.05489029 -2.472513 -0.037053417 -1.533027 -0.073669985 -1.1397129
0.09638987 0.9334458 0.008844026 0.76205957 0.19977653 0.6069107 -0.37401265 -0.26484704
0.044435244 -7.1082625 0.095536076 -2.6351922 0.1165135 -1.5665104 -0.050164897 -0.986878
0.041412115 0.7318246 0.29355493 0.6259079 0.37569237 0.67074734 -0.6002075 -0.20467106
0.04366431 -7.211538 -0.046029873 -2.5447297 0.012821854 -1.5503988 -0.07838719 -1.2452259
0.19599359 0.88026845 0.16092426 0.6695993 0.20628133 0.44939986 -0.3840381 -0.18993361
-0.05306906 -7.2294145 -0.05604132 -2.4661984 -0.06619815 -1.5313423 -0.06588447 -1.1297504
0.08819116 0.9058291 0.13224393 0.75726634 0.23580174 0.599272 -0.4098511 -0.2879795
-0.05035209 -7.192827 -0.0888201 -2.5010924 -0.009608614 -1.4909177 -0.023734843 -1.1776794
0.12885697 0.85400796 0.059262164 0.70437294 0.17582627 0.6471159 -0.453269 -0.23106158
00000000: 380e e8bd a630 e9c0 8f0d fbbd c2a8 21c0
00000010: 1c77 d8bd 96bd bcbf 4420 4ebe 3a12 9abf
00000020: fbaf 293e 04ff 603f 8002 873d 2fa6 5b3f
00000030: 4bb3 973e 73f7 2b3f 80f0 abbe 494a b2be
00000040: 1246 99bd 7812 e8c0 48b3 9ebd 0158 1fc0
00000050: 29c0 85bc 8ff2 c7bf db39 15bd 6b02 8bbf
00000060: a70d f33d 7416 613f 18b7 223e d648 433f
00000070: 8d81 7b3e 205c 113f 9b84 c2be baeb a2be
00000080: 689c 85bb d159 e7c0 cab3 973d 5bc4 17c0
00000090: b15f 11bd 31c6 c8bf 0600 53be ce7f 94bf
000000a0: 07fc f03b 1127 633f 4569 d53c b241 343f
000000b0: a86d 9c3e 95eb 203f 26e4 92be 5514 6abe
000000c0: 1f04 ab3d edc8 e8c0 d112 80bc 8556 14c0
000000d0: f4f9 a23c dc0d d7bf 80d8 2cbe 61e0 89bf
000000e0: fa82 c83d 7df2 3e3f d236 603e 9429 383f
000000f0: 4248 733e a659 253f 257a edbe ef48 99be
00000100: 1af8 8fbd 507d e7c0 4522 aebd 5c8e 1ec0
00000110: a546 9bbd 81e3 c5bf 0ed3 81bd 209b 9abf
00000120: ab5c 213d 3ddf 693f f942 e13d 0bcf 453f
00000130: d8ee 7d3e 7c6c 1b3f 8b0e bfbe 4864 a6be
00000140: f49c a33c e631 e5c0 15cd b3bd e0dc 1ac0
00000150: b15b eb3b 845f bebf 7751 80bc 8021 8cbf
00000160: a2e1 81ba a80a 5e3f ffb6 b53d 7cab 493f
00000170: 69f7 823e bd6c 213f 1390 dfbe 1369 95be
00000180: 2d88 beba 75f1 e8c0 ea95 dfbd 06a9 25c0
00000190: b2e5 bb3d 2c99 b2bf 65d3 9a3d 8857 7fbf
000001a0: e296 743e 9117 863f 0321 99bc 8b6e 653f
000001b0: 201a c13e 6d86 e63e f49d c5be a562 dcbe
000001c0: 73ee 5fbc 91df e5c0 462f c8bc b78e 1bc0
000001d0: e208 aebd f60d c1bf ddcf 45bd 2e8c 90bf
000001e0: c0a2 8d3d 9bfa 653f 43d8 3c3e 90e0 3e3f
000001f0: 494e 6f3e 2a38 123f 0b98 e0be 7e06 8cbe
00000200: 3916 163d 20a0 eac0 5ed1 dfbd 658f 15c0
00000210: d5b2 0abe 5505 ccbf 4613 40be f1f8 9abf
00000220: 3c25 dfbc b25b 553f 7a3f 1e3d 7636 2a3f
00000230: e920 033e 5b0c 313f a559 fdbe ed8a 2cbe
00000240: a1b3 74bd 2c0e e7c0 a908 19bd 5424 1fc0
00000250: 7154 51be 594b c5bf de86 97bd 4c32 90bf
00000260: 1592 b93d 7d30 743f 3fe6 0a3e f587 3d3f
00000270: 8145 8d3e dc19 183f 62a9 d0be afa4 b2be
00000280: 912f aabd 8990 e1c0 7cc3 fabd 9512 1fc0
00000290: 0939 a6bd 9bd2 b4bf a0eb 17be edce 9ebf
000002a0: 56f3 2f3e bb2f 833f 7770 2b3e d35b 563f
000002b0: a5df 3e3e 213d 2d3f 853b acbe b921 d5bd
000002c0: a1fd 20bd 8790 e9c0 a4d4 60bd a73d 1ec0
000002d0: 53c5 17bd 3b3a c4bf 4ae0 96bd 1de2 91bf
000002e0: 0d68 c53d 4ef6 6e3f 89e6 103c 5616 433f
000002f0: 3892 4c3e 805e 1b3f 967e bfbe 089a 87be
00000300: bb01 363d e376 e3c0 6ba8 c33d fda6 28c0
00000310: a19e ee3d 6a83 c8bf b579 4dbd 09a4 7cbf
00000320: c09f 293d db58 3b3f d54c 963e 803b 203f
00000330: c05a c03e 19b6 2b3f 33a7 19bf 4a95 51be
00000340: 59d9 323d ebc4 e6c0 d289 3cbd dadc 22c0
00000350: c112 523c 7873 c6bf 7789 a0bd 9063 9fbf
00000360: 8bb2 483e 4659 613f 54c9 243e dc6a 2b3f
00000370: 6a3b 533e bd17 e63e a4a0 c4be f57d 42be
00000380: f15e 59bd 5d57 e7c0 958b 65bd 32d6 1dc0
00000390: e592 87bd 0603 c4bf 70ee 86bd a99b 90bf
000003a0: 919d b43d 6ae4 673f f46a 073e 35dc 413f
000003b0: 0376 713e e469 193f 01d8 d1be 0d72 93be
000003c0: fe3d 4ebd a42b e6c0 50e7 b5bd e611 20c0
000003d0: 736d 1dbc 64d6 bebf 936f c2bc 33be 96bf
000003e0: 15f3 033e 44a0 5a3f e2bc 723d c951 343f
000003f0: cd0b 343e 63a9 253f e012 e8be 689b 6cbe

encoder.latent.backbone.c_layers.0.layer.kernel.kernel.inv_w_real f4 [16, 8]
-0.6409427 -0.63645804 -0.7486898 -0.62297183 -0.696318 -0.6668665 -0.6228594 -0.75114954
-0.66817164 -0.68023574 -0.66686916 -0.7287945 -0.724103 -0.7099531 -0.6986504 -0.6502542
-0.6472898 -0.6949313 -0.6643741 -0.66665787 -0.71904504 -0.757907 -0.63628215 -0.78469133
-0.6184717 -0.8070599 -0.5505186 -0.73173213 -0.77156687 -0.68302506 -0.64733166 -0.65696454
-0.70134914 -0.6903359 -0.68136483 -0.58538073 -0.6985579 -0.71450335 -0.66318226 -0.7413107
-0.71457916 -0.725838 -0.7264196 -0.7294956 -0.7289888 -0.65798056 -0.66194904 -0.69273335
-0.7129678 -0.57187754 -0.8256958 -0.8280967 -0.5462972 -0.5354587 -0.7969615 -0.54989165
-0.7510699 -0.73438984 -0.7168335 -0.67266273 -0.70081174 -0.645475 -0.7102096 -0.7080518
-0.60825497 -0.805892 -0.6352567 -0.61666846 -0.768844 -0.7916738 -0.70963013 -0.8442229
-0.702866 -0.67440325 -0.684668 -0.7026224 -0.6774186 -0.69357514 -0.68306977 -0.6508592
-0.85823554 -0.642194 -0.81373316 -0.58487934 -0.5832287 -0.6037988 -0.61714506 -0.7563285
-0.70784354 -0.69078135 -0.69512004 -0.7129409 -0.70581263 -0.6825092 -0.6945927 -0.78788024
-0.77262515 -0.5588316 -0.64905393 -0.76591974 -0.78137517 -0.71929824 -0.3147576 -0.7864638
-0.6733889 -0.5788107 -0.65515643 -0.56593376 -0.69930935 -0.73004806 -0.7338399 -0.7263065
-0.7041347 -0.6988971 -0.696738 -0.7015188 -0.6974703 -0.6874128 -0.6894687 -0.6951605
-0.7487771 -0.6565826 -0.7344058 -0.6823745 -0.7566638 -0.74078405 -0.63271385 -0.7133674
00000000: d214 24bf eaee 22bf 22aa 3fbf 157b 1fbf
00000010: e541 32bf c3b7 2abf b773 1fbf 564b 40bf
00000020: 4c0d 2bbf ee23 2ebf f0b7 2abf 4792 3abf
00000030: d05e 39bf 7dbf 35bf c1da 32bf 0f77 26bf
00000040: c9b4 25bf 05e7 31bf 6c14 2abf 17aa 2abf
00000050: 5613 38bf 3106 42bf 63e3 22bf 88e1 48bf
00000060: 2954 1ebf 7a9b 4ebf c9ee 0cbf cc52 3bbf
00000070: 6885 45bf bbda 2ebf 87b7 25bf d42e 28bf
00000080: 9e8b 33bf dbb9 30bf ed6d 2ebf 83db 15bf
00000090: b1d4 32bf b1e9 36bf 50c6 29bf 8ac6 3dbf
000000a0: a9ee 36bf 85d0 39bf a3f6 39bf 39c0 3abf
000000b0: 039f 3abf 6a71 28bf 7e75 29bf f956 31bf
000000c0: 0f85 36bf 9166 12bf cd60 53bf 25fe 53bf
000000d0: 22da 0bbf d213 09bf ab05 4cbf b3c5 0cbf
000000e0: 1e46 40bf f900 3cbf 6682 37bf a033 2cbf
000000f0: 6668 33bf d93d 25bf 4cd0 35bf e242 35bf
00000100: 99b6 1bbf f04e 4ebf 2fa0 22bf fcdd 1dbf
00000110: f6d2 44bf 22ab 4abf 52aa 35bf fe1e 58bf
00000120: 07ef 33bf b1a5 2cbf 6746 2fbf 10df 33bf
00000130: 4e6b 2dbf 248e 31bf a9dd 2ebf b59e 26bf
00000140: 53b5 5bbf d366 24bf d150 50bf a7ba 15bf
00000150: 7a4e 15bf 8f92 1abf 38fd 1dbf bf9e 41bf
00000160: 3c35 35bf 0cd7 30bf 63f3 31bf 4b83 36bf
00000170: 23b0 34bf ecb8 2ebf d4d0 31bf 85b2 49bf
00000180: c3ca 45bf 960f 0fbf 6628 26bf 5113 44bf
00000190: 3408 48bf ee23 38bf e827 a1be b155 49bf
000001a0: 3763 2cbf f02c 14bf 55b8 27bf 09e1 10bf
000001b0: f005 33bf 6ee4 3abf efdc 3bbf 39ef 39bf
000001c0: 2c42 34bf ecea 32bf 6c5d 32bf bc96 33bf
000001d0: 6a8d 32bf 49fa 2fbf 0581 30bf 0af6 31bf
000001e0: dbaf 3fbf cc15 28bf 0502 3cbf 18b0 2ebf
000001f0: b8b4 41bf 06a4 3dbf 89f9 21bf 3f9f 36bf

encoder.latent.backbone.c_layers.0.layer.kernel.kernel.w_imag f4 [16, 8]
-80.90858 -25.560507 -13.803638 -8.289554 -5.015181 -2.963022 -1.2854631 -0.41068542
-80.93531 -25.603664 -13.859791 -8.39121 -5.059694 -2.869316 -1.341484 -0.38059205
-81.00456 -25.759306 -13.856943 -8.248366 -5.212908 -2.8860245 -1.2339633 -0.2529662
-81.10451 -25.672457 -13.902982 -8.222708 -5.0551686 -2.7021253 -1.3943447 -0.26796582
-80.91754 -25.586523 -13.788327 -8.386885 -5.1239476 -2.925247 -1.3302921 -0.41121006
-80.99339 -25.58587 -13.792588 -8.296126 -5.025429 -2.9373322 -1.3086365 -0.29998046
-80.83855 -25.47709 -13.960764 -8.446023 -4.9272256 -2.97338 -1.1993941 -0.34446326
-80.98427 -25.622295 -13.656847 -8.309411 -5.0901747 -2.8657398 -1.3290311 -0.33187053
-81.0222 -25.57072 -13.752675 -8.3344145 -5.0213056 -2.9449449 -1.4456326 -0.22040917
-80.91204 -25.640701 -13.800589 -8.355113 -5.0825267 -2.8903472 -1.3752571 -0.36482486
-80.98166 -25.518726 -13.747662 -8.268357 -5.002004 -2.8353856 -1.469589 -0.3914558
-80.96179 -25.613432 -13.856351 -8.347949 -5.074598 -2.9228318 -1.45084 -0.33323658
-80.974655 -25.747507 -14.024315 -8.262314 -5.0122256 -2.7197595 -1.2551483 -0.23311335
-81.00771 -25.61635 -13.912436 -8.339936 -4.974608 -2.8100529 -1.3333298 -0.31919307
-80.9549 -25.62245 -13.827623 -8.365543 -5.0926485 -2.8931847 -1.399214 -0.337195
-81.012245 -25.588459 -13.875396 -8.40147 -5.0451846 -2.8465939 -1.4153249 -0.2970587
00000000: 31d1 a1c2 eb7b ccc1 b4db 5cc1 03a2 04c1
00000010: 5d7c a0c0 27a2 3dc0 0e8a a4bf 5c45 d2be
00000020: e1de a1c2 4ed4 ccc1 b4c1 5dc1 6542 06c1
00000030: 03e9 a1c0 e0a2 37c0 bfb5 abbf f6dc c2be
00000040: 5602 a2c2 0f13 cec1 0ab6 5dc1 4ff9 03c1
00000050: 24d0 a6c0 a0b4 38c0 82f2 9dbf c984 81be
00000060: 8235 a2c2 3161 cdc1 9d72 5ec1 3690 03c1
00000070: f1c3 a1c0 9fef 2cc0 e379 b2bf d132 89be
00000080: c8d5 a1c2 33b1 ccc1 fd9c 5cc1 ae30 06c1
00000090: 61f7 a3c0 3f37 3bc0 0347 aabf 208a d2be
000000a0: 9efc a1c2 ddaf ccc1 71ae 5cc1 efbc 04c1
000000b0: 50d0 a0c0 40fd 3bc0 6781 a7bf 0a97 99be
000000c0: 56ad a1c2 15d1 cbc1 4a5f 5fc1 e922 07c1
000000d0: d5ab 9dc0 dc4b 3ec0 bf85 99bf 7d5d b0be
000000e0: f2f7 a1c2 76fa ccc1 7282 5ac1 59f3 04c1
000000f0: b6e2 a2c0 4868 37c0 b11d aabf efea a9be
00000100: 5e0b a2c2 d690 ccc1 f50a 5cc1 c359 05c1
00000110: 89ae a0c0 fa79 3cc0 7d0a b9bf f1b2 61be
00000120: f7d2 a1c2 2820 cdc1 36cf 5cc1 8bae 05c1
00000130: 0fa4 a2c0 73fb 38c0 6d08 b0bf 53ca babe
00000140: 9cf6 a1c2 5a26 ccc1 6cf6 5bc1 314b 04c1
00000150: 6b10 a0c0 f576 35c0 7e1b bcbf e56c c8be
00000160: 70ec a1c2 4fe8 ccc1 9db3 5dc1 3391 05c1
00000170: 1b63 a2c0 ad0f 3bc0 20b5 b9bf fc9d aabe
00000180: 06f3 a1c2 e5fa cdc1 9863 60c1 7032 04c1
00000190: 2764 a0c0 8a10 2ec0 b3a8 a0bf 44b5 6ebe
000001a0: f303 a2c2 49ee ccc1 5699 5ec1 6170 05c1
000001b0: fd2f 9fc0 e8d7 33c0 8daa aabf 466d a3be
000001c0: e9e8 a1c2 c7fa ccc1 f23d 5dc1 44d9 05c1
000001d0: faf6 a2c0 f029 39c0 7219 b3bf d3a4 acbe
000001e0: 4506 a2c2 2ab5 ccc1 9f01 5ec1 6c6c 06c1
000001f0: 2772 a1c0 982e 36c0 5e29 b5bf 1418 98be

encoder.latent.backbone.c_layers.0.layer.output_linear.0.weight f4 [32, 16, 1]
0.065639295 0.11220447 -0.08565511 0.015764784 -0.18010445 0.122476965 0.030492015 0.16824073
0.26245874 0.2617462 0.069190465 -0.17645447 -0.26320878 -0.2947021 -0.09389923 -0.0113176955
-0.033458803 -0.095138095 -0.07015293 -0.019620879 -0.1067081 0.20012093 -0.3530749 -0.2459533
0.03078428 -0.094045386 -0.090407036 -0.080905505 0.11660337 -0.18547422 0.21304314 -0.010439185
-0.1011629 -0.14135398 -0.0029994908 -0.20417249 -0.15227535 0.2651222 -0.09997572 0.20204185
-0.17269926 0.15264489 -0.16239353 0.018194534 -0.17955846 -0.057731993 0.22356957 -0.26407376
-0.25272402 0.14302464 0.24318051 -0.082372956 -0.22296767 0.22147204 -0.15001051 0.055151757
0.14358976 -0.0088673625 0.009817125 0.016140651 0.015058033 -0.071031466 -0.1472965 0.013572863
-0.027969977 -0.060355052 0.054675024 -0.0035803132 -0.0057861344 0.029842677 0.27015796 0.19629918
0.09380001 0.0057248925 0.26750353 0.2361907 -0.058987867 -0.059389107 -0.09164211 0.25837955
0.17265138 -0.16127789 0.13587919 0.10367695 0.2655719 0.26369604 0.084686816 -0.2499371
-0.16739947 0.26990643 0.06565295 -0.04681568 0.15420882 0.0743708 0.004353498 -0.23008546
0.18033946 -0.14961205 -0.2228754 -0.12116072 -0.056925744 -0.17839658 0.044358987 0.054721337
-0.13352104 0.05827851 0.2291674 -0.23902094 -0.05382264 0.26259363 0.14458893 -0.114360146
-0.05648485 0.18100233 0.017607829 0.14461724 0.12312671 0.13876118 0.029447434 0.07619929
-0.23955253 -0.083837606 0.0821387 0.16805233 0.2194017 0.033587974 -0.011278716 -0.032805484
0.14829965 0.13328466 -0.15407911 -0.20874412 0.10079658 -0.10813488 -0.035973705 -0.045859102
0.100200325 0.10729285 -0.33155942 0.11588579 0.05378499 -0.04936657 -0.11853808 -0.24905047
0.19662444 0.1707825 0.2975022 0.1224831 0.0070287124 -0.16968393 -0.20981136 0.098120764
0.02291087 -0.026164038 0.059657864 0.02305363 -0.18920225 -0.075283535 -0.24926205 -0.14592938
0.15229918 0.11028031 -0.08734657 -0.20908816 -0.061014336 0.0888845 -0.23101354 -0.15382437
-0.21741718 -0.17147376 0.031923592 0.1492879 0.32887235 0.027114162 -0.12013111 -0.15696692
0.25068215 0.16782199 -0.22547385 -0.0033806025 0.054998405 -0.20144314 0.31259438 0.25344834
0.16299249 -0.023820853 0.15532929 -0.11070688 0.22150406 -0.056474235 -0.11461048 -0.06043166
0.039937545 0.23976699 0.19687983 0.08585972 -0.15503088 -0.15982229 0.13388918 -0.022620928
0.04644151 0.16224657 0.078912064 0.08493376 -0.28451398 -0.07090509 0.06106367 0.19838944
0.031827535 -0.19314855 0.37729576 0.1920151 -0.14726521 -0.031088961 -0.028747713 -0.20637885
0.08165795 -0.18596567 0.06088657 0.15412806 -0.07516778 -0.27647868 -0.115145296 0.05380007
0.23315793 0.16897081 -0.19284613 -0.18330885 -0.0013321601 -0.21987225 0.055437822 -0.125413
0.13810483 0.010957602 -0.13165016 0.0977275 -0.021412505 -0.14588657 0.14561597 0.13993874
-0.15310915 0.10337571 -0.25109726 0.17474647 -0.23678249 0.062348925 0.08976527 -0.1583608
0.12374719 -0.039691612 0.050602145 0.028982084 -0.2933024 0.12360211 0.10323879 -0.09042342
00000000: e56d 863d 75cb e53d f26b afbd 2625 813c
00000010: 4d6d 38be 34d5 fa3d 64ca f93c 4c47 2c3e
00000020: fe60 863e 9903 863e bbb3 8d3d 7bb0 34be
00000030: 4dc3 86be 32e3 96be 3d4e c0bd db6d 39bc
00000040: 190c 09bd c3d7 c2bd 57ac 8fbd f7bb a0bc
00000050: c789 dabd 80ec 4c3e 3cc6 b4be 2fdb 7bbe
00000060: 502f fc3c de9a c0bd 5327 b9bd c9b1 a5bd
00000070: bfcd ee3d f4ec 3dbe fb27 5a3e 1e09 2bbc
00000080: 7f2e cfbd 19bf 10be 1b93 44bb 9812 51be
00000090: 12ee 1bbe 19be 873e 12c0 ccbd 0fe4 4e3e
000000a0: 13d8 30be f14e 1c3e 7d4a 26be b40c 953c
000000b0: 2cde 37be 6278 6cbd 6cef 643e ad34 87be
000000c0: 0b65 81be 0d75 123e 5004 793e 27b3 a8bd
000000d0: a351 64be 91c9 623e 5b9c 19be cfe6 613d
000000e0: 3209 133e 6a48 11bc 02d8 203c 6639 843c
000000f0: f8b5 763c f278 91bd e5d4 16be b760 5e3c
00000100: 4b21 e5bc dc36 77bd ebf2 5f3d b0a3 6abb
00000110: 9d99 bdbb a178 f43c 2552 8a3e a702 493e
00000120: 381a c03d e197 bb3b 39f6 883e fadb 713e
00000130: 439d 71bd fe41 73bd dcae bbbd 534a 843e
00000140: 86cb 303e 0826 25be ea23 0b3e 9554 d43d
00000150: 0af9 873e 2b03 873e 4870 ad3d 83ef 7fbe
00000160: c46a 2bbe 2d31 8a3e 0e75 863d ccc1 3fbd
00000170: ebe8 1d3e b84f 983d caa7 8e3b 869b 6bbe
00000180: e8aa 383e e733 19be 7339 64be 1d23 f8bd
00000190: f82a 69bd 98ad 36be c5b1 353d 7b23 603d
000001a0: bdb9 08be 72b5 6e3d dcaa 6a3e e8c1 74be
000001b0: 2175 5cbd ac72 863e 1f0f 143e a735 eabd
000001c0: a85c 67bd ad58 393e 4b3e 903c 8b16 143e
000001d0: db29 fc3d 6917 0e3e bf3b f13c 600e 9c3d
000001e0: 424d 75be 0db3 abbd 5638 a83d e915 2c3e
000001f0: d7aa 603e 8b93 093d 5dca 38bc 0b5f 06bd
00000200: dddb 173e c67b 083e eac6 1dbe 05c1 55be
00000210: 706e ce3d d275 ddbd 2a59 13bd c1d6 3bbd
00000220: d435 cd3d 5bbc db3d 28c2 a9be 8755 ed3d
00000230: a64d 5c3d 9a34 4abd 18c4 f2bd 1607 7fbe
00000240: eb57 493e 9ce1 2e3e 3552 983e 6bd8 fa3d
00000250: 1d51 e63b a0c1 2dbe cad8 56be 8af3 c83d
00000260: 94af bb3c f755 d6bc ce5b 743d f7da bc3c
00000270: 3cbe 41be 412e 9abd 8d3e 7fbe 836e 15be
00000280: 51f4 1b3e a5da e13d c2e2 b2bd 351b 56be
00000290: 2bea 79bd 1409 b63d d08e 6cbe 2384 1dbe
000002a0: 9ca2 5ebe d196 2fbe 50c2 023d edde 183e
000002b0: f561 a83e 851e de3c 4d07 f6bd f0bb 20be
000002c0: 6959 803e 87d9 2b3e 9ee2 66be 198d 5dbb
000002d0: 0246 613d 1c47 4ebe 5f0c a03e fbc3 813e
000002e0: 81e7 263e f323 c3bc a40e 1f3e 4aba e2bd
000002f0: f6d1 623e 8751 67bd e6b8 eabd 3087 77bd
00000300: 8d95 233d 7a85 753e de9a 493e 39d7 af3d
00000310: 6ac0 1ebe 74a8 23be 3f1a 093e 864f b9bc
00000320: 7439 3e3d f723 263e a69c a13d c0f1 ad3d
00000330: d1ab 91be b036 91bd e61d 7a3d 9a26 4b3e
00000340: 975d 023d bcc8 45be e92c c13e 9b9f 443e
00000350: b1cc 16be 47ae febc 5380 ebbc fa54 53be
00000360: 493c a73d c96d 3ebe 3264 793d bfd3 1d3e
00000370: 91f1 99bd 9d8e 8dbe 4cd1 ebbd 765d 5c3d
00000380: f4c0 6e3e af06 2d3e 7579 45be 51b5 3bbe
00000390: e09b aeba 3126 61be c512 633d 446c 00be
000003a0: 5a6b 0d3e 8487 333c 4dcf 06be 5b25 c83d
000003b0: 4769 afbc 4a63 15be 5a1c 153e 1a4c 0f3e
000003c0: a5c8 1cbe a5b6 d33d d28f 80be bdf0 323e
000003d0: 1c77 72be 9661 7f3d dbd6 b73d 5529 22be
000003e0: 2b6f fd3d ac93 22bd 3244 4f3d d66b ed3c
000003f0: bb2b 96be 1a23 fd3d dc6e d33d ea2f b9bd

encoder.latent.backbone.c_layers.0.layer.output_linear.0.bias f4 [32]
-0.08605313 0.05692531 -0.009564584 0.074180186 -0.055299744 0.02348337 0.07479132 -0.095093794
-0.20359011 -0.11761039 0.07352235 -0.008951059 0.013455785 -0.015534148 0.20768344 0.11614502
0.05092943 0.0015695767 -0.1516844 0.12971267 0.11459036 0.21160355 0.06882427 0.12540506
0.18803129 -0.05969404 -0.068122625 0.20581795 -0.15361668 -0.094621345 0.18960318 -0.04537043
00000000: a03c b0bd 842a 693d c6b4 1cbc c8eb 973d
00000010: fc81 62bd 3260 c03c 312c 993d 89c0 c2bd
00000020: ed79 50be b7dd f0bd e392 963d 76a7 12bc
00000030: a775 5c3c f082 7ebc f8aa 543e 71dd ed3d
00000040: 619b 503d 41ba cd3a 2853 1bbe 66d3 043e
00000050: 5aae ea3d 9aae 583e bdf3 8c3d 2f6a 003e
00000060: 468b 403e bd81 74bd e083 8bbd f1c1 523e
00000070: b14d 1dbe d6c8 c1bd 5627 423e 58d6 39bd

encoder.latent.backbone.c_layers.0.norm.weight f4 [16]
1.049874 1.0262934 0.9911286 0.950409 1.0499772 1.0408131 1.1757092 1.0469825
1.0258206 1.006457 1.1018637 1.004734 1.1777245 0.9860248 0.98654467 1.0446208
00000000: 4562 863f 955d 833f 9bba 7d3f 014e 733f
00000010: a765 863f 5d39 853f a47d 963f 8603 863f
00000020: 174e 833f 95d3 803f df09 8d3f 209b 803f
00000030: adbf 963f 1f6c 7c3f 318e 7c3f 22b6 853f

encoder.latent.backbone.c_layers.0.norm.bias f4 [16]
-0.053007964 0.027704341 0.06467032 -0.03724469 0.0184048 -0.03789785 -0.14887671 0.0478363
0.044857964 -0.026679745 0.09879708 0.11413729 0.06359125 0.0056889127 -0.008547861 -0.038171005
00000000: e11e 59bd 37f4 e23c df71 843d e38d 18bd
00000010: aac5 963c c73a 1bbd 2373 18be ffef 433d
00000020: fcbc 373d 7b8f dabc 2056 ca3d d0c0 e93d
00000030: 213c 823d 0f6a ba3b 540c 0cbc 3359 1cbd

encoder.latent.backbone.c_layers.1.layer.ff.0.0.weight f4 [32, 16]
0.034393538 0.12607796 -0.002103766 0.08258515 0.13011053 -0.16183506 -0.25058588 0.16453394
-0.19993818 0.107018255 -0.15870987 -0.15809843 0.09447779 0.28336552 0.11113667 -0.30621165
-0.12851717 -0.111158624 -0.09307096 -0.023919333 0.030481394 0.109224446 -0.036433022 -0.077722244
0.31261098 -0.2957401 0.083682664 -0.13747649 -0.065029874 0.23349299 -0.01889824 -0.31342506
0.036677025 0.054685473 -0.191834 -0.015884144 -0.28146026 -0.14788668 -0.20934929 -0.058264393
0.270992 0.16765094 -0.11890784 -0.26192492 -0.3553439 0.03534205 -0.12415688 -0.22858731
-0.1390478 0.3452907 -0.32868654 0.11886707 -0.18360995 -0.17931679 -0.3828367 0.29575568
0.26494852 -0.25604826 0.09884127 -0.036422603 0.016762977 0.30110803 0.16673842 -0.21174993
-0.16793065 0.17849398 0.101690054 0.0083155995 -0.079039425 -0.038177103 -0.066294424 -0.12071187
-0.16411102 -0.16626868 -0.13952197 -0.16688268 -0.2389272 0.20902097 -0.07387343 -0.19385996
-0.1410762 -0.027780365 0.060438987 0.06346828 0.0033415053 -0.23170109 0.09393051 0.13265264
-0.08565456 0.12269641 -0.16666204 -0.014061644 -0.07811961 0.05759311 0.30862305 -0.20224622
0.26418224 0.12384651 0.06342948 0.13184154 0.017867764 0.13539024 0.17063601 0.08643987
-0.18791047 -0.13601206 -0.09089991 -0.15155877 0.029974801 0.20292486 -0.23317955 -0.01688053
-0.072503544 -0.097816415 0.0491985 -0.1166527 0.04086126 -0.14624214 0.08362406 0.1548222
0.1961923 0.013430322 -0.0861601 0.19246855 -0.021834405 -0.029556204 -0.06988511 -0.15457183
0.04964254 -0.014928779 -0.025492297 -0.14007676 -0.13737613 -0.040899806 -0.17219767 0.009154637
-0.16170144 0.22077303 -0.06592672 -0.09844415 0.08303724 0.116449796 -0.15788573 0.08055791
-0.13254978 0.19312438 0.06597777 0.081429385 -0.2060196 -0.14283784 -0.10784708 -0.1901108
0.004353057 -0.09533119 0.28282523 0.0139828455 -0.22118832 0.16872734 0.13247585 -0.09356992
-0.120270334 -0.08015044 -0.05548362 0.034874927 0.06259904 -0.2683359 -0.18524341 0.19770512
0.25108644 -0.18198146 0.098180465 0.11621762 -0.12949282 -0.037098054 -0.1823383 -0.18285155
-0.24296595 0.2845343 0.1637001 0.20843457 -0.21036741 -0.31989264 -0.16262269 0.021922337
0.30914444 -0.3088911 -0.17728746 0.14126648 -0.04587799 0.012054018 0.20566235 0.105038635
-0.16355234 -0.03624566 0.17512101 -0.11092379 0.09471065 0.21242362 0.16755499 0.0717039
0.22609648 -0.22653057 -0.17452492 -0.19807978 -0.08278459 -0.0028051597 0.07038233 -0.13326775
-0.06984294 0.026187835 0.0042592906 0.1318236 0.113257185 -0.030814994 -0.10434481 -0.11227047
-0.23062216 -0.10396789 0.20316532 -0.11503648 -0.09679345 0.002555076 -0.1658713 -0.14353952
-0.053999156 0.0042756116 -0.22244357 0.03484167 0.09441172 -0.08812795 -0.21644592 -0.099263445
0.15370995 -0.22532704 -0.10553709 0.25490165 -0.14858727 -0.19026352 0.061596718 0.08739743
-0.009625583 0.13392486 -0.37917888 0.018658789 -0.1964394 0.13971634 -0.019170957 0.20220985
-0.09850702 -0.348196 0.2035425 -0.040180475 -0.09717316 -0.011595426 0.093148194 -0.12095503
00000000: 3de0 0c3d 951a 013e 56df 09bb 6722 a93d
00000010: b23b 053e 17b8 25be cb4c 80be 967b 283e
00000020: 98bc 4cbe 632c db3d d784 22be 8ee4 21be
00000030: 927d c13d 4915 913e 9f9b e33d c6c7 9cbe
00000040: 019a 03be 22a7 e3bd fd9b bebd 7af2 c3bc
00000050: 1eb4 f93c 11b1 df3d cb3a 15bd d72c 9fbd
00000060: 8c0e a03e 3f6b 97be d161 ab3d a3c6 0cbe
00000070: 622e 85bd c918 6f3e 7bd0 9abc 4079 a0be
00000080: a63a 163d e0fd 5f3d 2270 44be 771f 82bc
00000090: 8f1b 90be 9b6f 17be a95f 56be a5a6 6ebd
000000a0: 77bf 8a3e b0ac 2b3e f485 f3bd 061b 86be
000000b0: a3ef b5be d3c2 103d f645 febd cb12 6abe
000000c0: 8c62 0ebe f1c9 b03e 9a49 a8be 9470 f33d
000000d0: 3f04 3cbe d29e 37be 2c03 c4be 4a6d 973e
000000e0: 55a7 873e c218 83be 4b6d ca3d de2f 15bd
000000f0: 8352 893c d52a 9a3e 7abd 2a3e f9d4 58be
00000100: 03f6 2bbe 20c7 363e e042 d03d 273e 083c
00000110: 6cdf a1bd 985f 1cbd 5fc5 87bd c937 f7bd
00000120: b80c 28be 5642 2abe d9de 0ebe 4be3 2abe
00000130: 55a9 74be 9809 563e f44a 97bd 3a83 46be
00000140: 4876 10be a693 e3bc df8e 773d a8fb 813d
00000150: 28fd 5a3b 0d43 6dbe a45e c03d 18d6 073e
00000160: a86b afbd 4148 fb3d 74a9 2abe cf62 66bc
00000170: 2dfd 9fbd c1e6 6b3d d703 9e3e a219 4fbe
00000180: e542 873e 3da3 fd3d 51e7 813d 7801 073e
00000190: 6b5f 923c bda3 0a3e 35bb 2e3e 6307 b13d
000001a0: 9a6b 40be bf46 0bbe bb29 babd 3932 1bbe
000001b0: b78d f53c 89cb 4f3e 9fc6 6ebe 0a49 8abc
000001c0: bd7c 94bd f953 c8bd 5e84 493d 9ce7 eebd
000001d0: 235e 273d 80c0 15be 1743 ab3d b689 1e3e
000001e0: a2e6 483e da0a 5c3c b574 b0bd 7a16 453e
000001f0: 11de b2bc da1f f2bc ed1f 8fbd 1448 1ebe
00000200: fa55 4b3d d697 74bc 39d5 d0bc 4870 0fbe
00000210: 54ac 0cbe 8e86 27bd 9654 30be 55fd 153c
00000220: 1095 25be 5312 623e 9704 87bd 169d c9bd
00000230: 6e0f aa3d 3b7d ee3d ccac 21be 8cfb a43d
00000240: 21bb 07be 66c2 453e 5a1f 873d 73c4 a63d
00000250: cdf6 52be 1544 12be eede dcbd 68ac 42be
00000260: 17a4 8e3b 003d c3bd 78ce 903e 4e18 653c
00000270: 317f 62be dcc6 2c3e c0a7 073e 96a1 bfbd
00000280: 4b50 f6bd ea25 a4bd cb42 63bd 03d9 0e3d
00000290: ed33 803d 5363 89be 73b0 3dbe 3673 4a3e
000002a0: 678e 803e 5959 3abe d712 c93d 8103 ee3d
000002b0: c499 04be 21f4 17bd e4b6 3abe 703d 3bbe
000002c0: 11cc 78be 7bae 913e 00a1 273e df6f 553e
000002d0: 8e6a 57be f8c8 a3be 9086 26be 7996 b33c
000002e0: 2e48 9e3e f926 9ebe d88a 35be 29a8 103e
000002f0: 8fea 3bbd 377e 453c 2799 523e 7f1e d73d
00000300: 447a 27be 5476 14bd ec52 333e 032c e3bd
00000310: a8f7 c13d 9485 593e 8993 2b3e 7fd9 923d
00000320: d685 673e a1f7 67be a9b6 32be 6dd5 4abe
00000330: f88a a9bd c5d6 37bb 9c24 903d 5777 08be
00000340: d109 8fbd df87 d63c 8591 8b3b c4fc 063e
00000350: 62f3 e73d ba6f fcbc bbb2 d5bd 0fee e5bd
00000360: 3728 6cbe 1eed d4bd 920a 503e 3f98 ebbd
00000370: a53b c6bd 1073 273b 2bda 29be 06fc 12be
00000380: 382e 5dbd 6e1a 8c3b 3fc8 63be 24b6 0e3d
00000390: ef5a c13d 6d7c b4bd 00a4 5dbe a24a cbbd
000003a0: 2466 1d3e 22bc 66be d423 d8bd 7882 823e
000003b0: 4327 18be 71d4 42be d74c 7c3d 6cfd b23d
000003c0: 9fb4 1dbc 9923 093e bc23 c2be 51da 983c
000003d0: 6927 49be cd11 0f3e 690c 9dbc 1910 4f3e
000003e0: 0cbe c9bd bf46 b2be 726d 503e 4894 24bd
000003f0: b902 c7bd befa 3dbc 7bc4 be3d 45b7 f7bd

encoder.latent.backbone.c_layers.1.layer.ff.0.0.bias f4 [32, 1]
-0.07519337 -0.07924597 0.29072902 0.3075701 0.22150259 0.09884821 -0.27427918 -0.05255651
-0.13542274 -0.14650266 -0.101947844 0.104621075 -0.17308998 -0.032094564 -0.037218887 -0.04842023
0.20920518 0.1234502 0.046449058 0.07889917 0.20383783 0.0021680112 -0.028819455 0.03338591
0.12257148 0.06752537 -0.2185632 0.15142359 0.055074397 -0.17653899 -0.09208521 -0.17293335
00000000: fbfe 99bd b64b a2bd 6fda 943e d479 9d3e
00000010: 93d1 623e ee70 ca3d 526e 8cbe 7f45 57bd
00000020: 42ac 0abe cb04 16be 08ca d0bd 9343 d63d
00000030: 803e 31be 9775 03bd d572 18bd 4b54 46bd
00000040: e239 563e 75d3 fc3d 5e41 3e3d e395 a13d
00000050: ddba 503e 3115 0e3b c716 ecbc aabf 083d
00000060: c206 fb3d be4a 8a3d 08cf 5fbe c90e 1b3e
00000070: b195 613d a3c6 34be 2c97 bcbd 7115 31be

encoder.latent.backbone.c_layers.1.layer.ff.2.weight f4 [16, 32]
-0.19185796 0.13179961 -0.06769772 0.12890743 0.016511025 -0.032289468 -0.1763621 -0.04602523
-0.16128585 -0.20979284 0.019776475 0.08689544 -0.08965843 -0.1579352 -0.10073179 0.12082534
-0.049587455 0.06673221 -0.163431 0.0385193 -0.038820975 -0.18612105 0.014185836 -0.15685578
-0.16277514 0.0787661 0.14528917 -0.047575604 0.16964997 -0.009839343 -0.09587651 0.036195353
0.0005734785 -0.06349117 -0.11780517 0.014652405 0.06261974 0.010953451 -0.031038592 0.087145746
0.09570662 0.008671495 0.019242004 0.099584974 -0.12302367 0.18848369 -0.037865907 0.11449602
0.06036961 -0.14230578 0.07290559 -0.07093827 -0.12307112 0.08762988 -0.06372476 -0.04839172
-0.15155633 -0.064397976 0.023970988 0.11436323 -0.14833988 -0.15156335 0.086562596 -0.007820236
-0.10151867 -0.1167268 0.1355831 -0.031786904 0.090116136 -0.08964243 0.20911035 0.032003805
-0.035995062 -0.07106892 -0.10086092 -0.15326618 -0.055898692 0.082665026 -0.004836698 0.107839175
-0.07444201 0.08809872 0.05785213 0.12542939 0.02131884 -0.005573964 0.041507065 -0.021094456
0.018685618 -0.019711778 0.20382193 -0.18646276 0.14004485 -0.13408627 -0.14258699 0.051973477
-0.20203447 -0.19656624 -0.1065206 -0.07693074 0.043855 -0.25844228 0.22609375 0.09128775
0.094535746 0.07920838 -0.16342191 -0.25935507 -0.07106698 -0.12619087 -0.11776522 0.04719504
-0.22302663 -0.19889708 0.10834709 -0.2382097 -0.15208937 0.049886663 -0.26807278 -0.22935344
0.25451684 0.1781611 -0.0119837485 0.024028728 -0.04540789 0.02833088 -0.16615449 -0.1210814
0.24720697 0.06978902 0.21190393 0.22969863 -0.05461001 -0.089686796 -0.050690573 -0.1591002
-0.024962623 0.11205703 0.114749745 0.040709097 -0.119829156 0.11813144 -0.07820026 0.15645447
0.22320133 -0.09352171 0.09855434 0.0803528 0.27187347 0.276116 0.042997096 0.114488624
-0.18367752 0.17462407 -0.010648988 -0.086073905 0.21345694 -0.22227041 0.0306449 -0.03271206
-0.123287216 -0.15894118 -0.10873449 -0.12298859 -0.07850919 -0.10538654 0.19409747 0.029748691
0.11406789 -0.13188215 0.02564545 0.10319668 -0.12697597 -0.0072901077 0.19484739 0.0715307
-0.04992413 -0.11306937 0.056159664 0.10351783 -0.12842225 -0.21139702 0.10911255 0.13659944
0.082683705 -0.052753955 0.047678474 0.10209145 -0.0009657095 -0.10173293 0.12220168 0.10211593
0.21364082 0.1431028 0.19098751 -0.066666186 0.19885005 0.04249653 0.02762489 -0.1921514
-0.15091068 0.13179329 0.20947173 0.0025275198 -0.061048903 -0.04066658 -0.21942925 -0.016270164
-0.1288559 0.05950892 0.07674283 -0.05902484 -0.058326866 0.12884606 0.11041507 0.095477626
0.10240959 0.0626515 0.08227217 0.083918884 0.09002772 -0.1996275 0.24684925 0.010228559
0.056504577 -0.14050482 -0.07082464 -0.11107407 0.10731553 0.021216892 -0.07622838 -0.09112278
0.10191936 0.111620314 0.065376505 -0.07696963 -0.1341683 -0.06811239 0.059991162 -0.10231092
-0.12764376 -0.1581758 -0.007543875 0.13910855 -0.096120894 0.057823423 -0.17299132 -0.19575994
0.16084 0.012358467 0.03398075 -0.11372269 -0.24042076 0.043288387 0.029694555 -0.117521025
00000000: 6a76 44be 7af6 063e 1aa5 8abd 4f00 043e
00000010: 2142 873c f641 04bd 4498 34be f484 3cbd
00000020: 1e28 25be efd3 56be 4602 a23c 3df6 b13d
00000030: d79e b7bd c4b9 21be 784c cebd 4773 f73d
00000040: 371c 4bbd e6aa 883d 755a 27be 6ac6 1d3d
00000050: be02 1fbd 8496 3ebe b56b 683c cd9e 20be
00000060: 87ae 26be 1f50 a13d afc6 143e a3de 42bd
00000070: b9b8 2d3e 3235 21bc e75a c4bd 9441 143d
00000080: 7e55 163a a907 82bd d643 f1bd a410 703c
00000090: c73e 803d 1a76 333c a544 febc 7879 b23d
000000a0: d501 c43d e312 0e3c 68a1 9d3c 35f3 cb3d
000000b0: d5f3 fbbd de01 413e 4819 1bbd e47c ea3d
000000c0: 2046 773d 9bb8 11be 874f 953d 1548 91bd
000000d0: b60c fcbd 4b77 b33d 2182 82bd 6536 46bd
000000e0: 9531 1bbe 16e3 83bd ce5e c43c 4537 ea3d
000000f0: 69e6 17be 6c33 1bbe bb47 b13d 7220 00bc
00000100: 05e9 cfbd 760e efbd 4cd6 0a3e fc32 02bd
00000110: cf8e b83d 7396 b7bd 0621 563e 6c16 033d
00000120: 8f6f 13bd 958c 91bd 2c90 cebd cff1 1cbe
00000130: 07f6 64bd 484c a93d 2a7d 9ebb c9da dc3d
00000140: 0d75 98bd 1a6d b43d 5bf6 6c3d 9070 003e
00000150: d9a4 ae3c cda5 b6bb 5003 2a3d 48ce acbc
00000160: 9512 993c 987a a1bc b2b6 503e 18f0 3ebe
00000170: eb67 0f3e e94d 09be 5302 12be 24e2 543d
00000180: 20e2 4ebe a948 49be 7927 dabd dd8d 9dbd
00000190: 4da1 333d 8c52 84be 1f85 673e 12f5 ba3d
000001a0: f59b c13d 0138 a23d 1358 27be 30ca 84be
000001b0: 918b 91bd 2e38 01be e42e f1bd 964f 413d
000001c0: 1861 64be adab 4bbe 14e5 dd3d 3eed 73be
000001d0: 51bd 1bbe f555 4c3d d640 89be a1db 6abe
000001e0: 0850 823e dd6f 363e 7c57 44bc e5d7 c43c
000001f0: a0fd 39bd 2916 e83c 6724 2abe 86f9 f7bd
00000200: d323 7d3e 8ced 8e3d 58fd 583e 1e36 6b3e
00000210: bfae 5fbd b6ad b7bd eba0 4fbd 2aeb 22be
00000220: 6a7e ccbc 287e e53d ea01 eb3d 95be 263d
00000230: fd68 f5bd e5ee f13d 7527 a0bd 9a35 203e
00000240: e48e 643e 4f88 bfbd dcd6 c93d 0290 a43d
00000250: 0033 8b3e 145f 8d3e b91d 303d 0379 ea3d
00000260: f615 3cbe a7d0 323e 1879 2ebc 8447 b0bd
00000270: 7594 5a3e db9a 63be 030b fb3c 15fd 05bd
00000280: 027e fcbd 7ac1 22be 30b0 debd 71e1 fbbd
00000290: 6dc9 a0bd e6d4 d7bd 7dc1 463e 87b3 f33c
000002a0: 6d9c e93d 1d0c 07be 6816 d23c c858 d33d
000002b0: fd05 02be dbe1 eebb 1386 473e b07e 923d
000002c0: 3f7d 4cbd ea90 e7bd ad07 663d 2801 d43d
000002d0: 1f81 03be 7678 58be 6776 df3d b9e0 0b3e
000002e0: 1356 a93d 8814 58bd 814a 433d 5215 d13d
000002f0: ab27 7dba 5b59 d0bd e044 fa3d 2822 d13d
00000300: a9c4 5a3e 8a89 123e 3b92 433e 4888 88bd
00000310: 599f 4b3e d710 2e3d 984d e23c 56c3 44be
00000320: 5488 1abe d2f4 063e c27f 563e bfa4 253b
00000330: 6a0e 7abd 0092 26bd 10b2 60be 0249 85bc
00000340: cdf2 03be a0bf 733d 582b 9d3d 08c4 71bd
00000350: 27e8 6ebd 39f0 033e 4c21 e23d c689 c33d
00000360: 1ebc d13d 6e4f 803d 507e a83d aadd ab3d
00000370: 7460 b83d 276b 4cbe 0dc6 7c3e b095 273c
00000380: 5871 673d 7fe0 0fbe 820c 91bd cd7a e3bd
00000390: 3fc8 db3d 0ccf ad3c a01d 9cbd 959e babd
000003a0: 19bb d03d 3199 e43d 1ee4 853d 41a2 9dbd
000003b0: 6a63 09be 827e 8bbd 4bb9 753d 6388 d1bd
000003c0: 0cb5 02be d6f8 21be 9c32 f7bb 7972 0e3e
000003d0: 08db c4bd 41d8 6c3d a324 31be 4b75 48be
000003e0: 3eb3 243e 2b7b 4a3c 662f 0b3d 71e7 e8bd
000003f0: dc30 76be 2a4f 313d ff41 f33c ddae f0bd

encoder.latent.backbone.c_layers.1.layer.ff.2.bias f4 [16, 1]
0.13664743 -0.11392413 -0.026991738 0.085302696 0.11302386 -0.16941524 0.15858148 0.17812355
-0.20363016 -0.04739494 0.16838335 0.041348625 0.17301086 -0.05188772 0.011814721 0.0029331336
00000000: 4eed 0b3e 0e51 e9bd c71d ddbc 2eb3 ae3d
00000010: 0e79 e73d 307b 2dbe 2f63 223e 0566 363e
00000020: 6d84 50be 3221 42bd af6c 2c3e 2d5d 293d
00000030: c229 313e 3888 54bd 8892 413c d139 403b

encoder.latent.backbone.c_layers.1.norm.weight f4 [16]
1.0922056 1.0358186 0.9828438 1.1184905 1.0911024 1.0662117 1.0825126 1.00261
1.1238513 1.1804711 0.97118324 1.0308969 1.0932025 1.1225101 1.1549866 1.1085106
00000000: 65cd 8b3f b495 843f a79b 7b3f b22a 8f3f
00000010: 3ea9 8b3f a079 883f c68f 8a3f 8655 803f
00000020: 5cda 8f3f ad19 973f 779f 783f 6ef4 833f
00000030: 0fee 8b3f 69ae 8f3f 9ad6 933f ade3 8d3f

encoder.latent.backbone.c_layers.1.norm.bias f4 [16]
-0.09374037 0.038640495 -0.02308309 -0.006219023 -0.08235727 -0.07394377 -0.065377235 -0.006160519
0.1243247 -0.04565227 -0.029260172 0.027222488 -0.039544806 0.089720316 0.12509651 -0.085398346
00000000: f3fa bfbd 7f45 1e3d c018 bdbc f2c8 cbbb
00000010: eeaa a8bd d56f 97bd 80e4 85bd 2ede c9bb
00000020: f39d fe3d e0fd 3abd 07b3 efbc b201 df3c
00000030: bcf9 21bd 49bf b73d 4d19 003e 54e5 aebd

encoder.latent.backbone.c_layers.2.layer.D f4 [1, 16]
1.0872116 -2.1228049 1.0177797 1.6362072 0.03745129 0.83279765 -0.55671465 -0.29863897
1.784297 -2.4355662 0.16605213 1.6258105 -0.7645571 -0.8885865 -1.0274705 0.06399372
00000000: c029 8b3f 09dc 07c0 9b46 823f 3d6f d13f
00000010: 8666 193d 3a32 553f da84 0ebf 35e7 98be
00000020: d863 e43f 51e0 1bc0 9209 2a3e 8f1a d03f
00000030: 04ba 43bf 687a 63bf 2784 83bf 240f 833d
