experiments/experiment_19421.ckpt (torch, 220654 bytes, 29 tensors)

encoder_z0.GRU_update.update_gate.0.weight f4 [100, 42]
0	0xbd05caff	-0.032664295
1	0xbe17fcad	-0.14842482
2	0xbae56113	-0.0017500244
3	0x3da88740	0.08228922
4	0x3d896ebb	0.06710573
5	0xbc385d21	-0.011252672
6	0xbb897616	-0.004194985
7	0xbcdbfbb8	-0.026853427
8	0x3de1194f	0.10991155
9	0xbe8dcf64	-0.2769729
10	0x3d5b449d	0.05353223
11	0xbe2fa75c	-0.17153686
12	0x3cc3b171	0.023888322
13	0x3df9a991	0.12190545
14	0x3c944c77	0.018102868
15	0xbd28fffb	-0.041259747
16	0x3ce4663f	0.027880786
17	0xbd6c03a7	-0.05762067
18	0xbd0276a6	-0.031851433
19	0xbe0b6522	-0.13612798
20	0x3d78f7e0	0.060783267
21	0xbab3c8a4	-0.0013716412
22	0xbda3e9be	-0.08003567
23	0x3deef3a5	0.11667565
24	0xbacfe2d7	-0.001586045
25	0x3c26ec54	0.010188181
26	0xbe1e72ae	-0.15473434
27	0x3d8a49c9	0.06752355
28	0x3d26e21b	0.040742975
29	0xbc8122e3	-0.015763706
30	0xbd5eb3d0	-0.0543707
31	0xbd84db5c	-0.06487152
32	0xbe458acf	-0.19291233
33	0xbc47faed	-0.012205821
34	0xbda77379	-0.081763215
35	0xbd7a9dc9	-0.061185632
36	0x3baed68c	0.0053356346
37	0x3d46e55c	0.048558578
38	0x3d9b3a33	0.0757946
39	0xbc89402c	-0.016754232
40	0x3e6bb36e	0.23017666
41	0x3e0d3956	0.13791403
42	0x3c7093ee	0.014683707
43	0x3e0fb4ed	0.14033861
44	0x3ddffd9b	0.10937043
45	0xbe01dcc1	-0.12681867
46	0xbdc7ac18	-0.09749621
47	0xbd193e04	-0.03741266
48	0xbd1e54d4	-0.038655117
49	0xbc89c843	-0.016819125
50	0xbe1beb57	-0.15226494
51	0xbd38eca4	-0.045147553
52	0x3d8cb521	0.06870485
53	0x3c0f9ca3	0.008765372
54	0xbd747f3d	-0.059691656
55	0x3dcaf409	0.09909827
56	0x3d160796	0.03662833
57	0xbd397e90	-0.045286715
58	0x3d0e876f	0.03479713
59	0xbdcec30b	-0.10095795
60	0x3c120e0f	0.008914485
61	0xbe424b9d	-0.18974157
62	0x3dc32fdc	0.09530613
63	0xbda23477	-0.07920163
64	0xbe0dc0cb	-0.13843076
65	0xbb007516	-0.0019601039
66	0xbdbf6bd1	-0.09346736
67	0xbd8cb256	-0.068699524
68	0xbd6852b4	-0.056719497
69	0xbcd59ad7	-0.02607481
70	0xbd43da28	-0.047815472
71	0xbe3a014b	-0.18164556
72	0xbe2d0d68	-0.16899645
73	0xbd836449	-0.06415612
74	0x3d022587	0.03177407
75	0x3e6e515c	0.23273224
76	0x3d689a97	0.056788053
77	0x3d051942	0.03249479
78	0x3df2ed05	0.11861614
79	0xbe4ad2ec	-0.19807023
80	0x3d1533a1	0.03642619
81	0xbe56096b	-0.2090203
82	0xbdfb9b39	-0.12285466
83	0x3d3eb7bb	0.046561938
84	0xbd3bb06e	-0.045822553
85	0xbd7d81c7	-0.061891343
86	0xbd425b1e	-0.047450177
87	0xbcecf6b7	-0.028926237
88	0xbe038b22	-0.12846044
89	0xbd9bc770	-0.07606399
90	0xbc5be153	-0.013420421
91	0x3dc76665	0.09736327
92	0xbd79a08f	-0.060944136
93	0xbd810dc6	-0.06301455
94	0x3df96c05	0.12178806
95	0xbd8176e5	-0.063215055
96	0xbdb7c032	-0.08972205
97	0xbdb58219	-0.08862705
98	0x3e481616	0.19539675
99	0x3dac1e54	0.08404222
100	0xbdd3c7d0	-0.103408456
101	0x3e3a461a	0.18190804
102	0xbd10d203	-0.035356533
103	0x3d38701c	0.04502879
104	0xbdb6816b	-0.08911403
105	0x3dd6b18e	0.104830846
106	0xbdb50397	-0.08838575
107	0xbdb6d7de	-0.08927892
108	0x3c87b0bd	0.016563768
109	0xbc36ce8a	-0.011157641
110	0x3da836f0	0.082136035
111	0x3cfd64fc	0.030931942
112	0xbe190952	-0.14944962
113	0xbca1d85f	-0.019756494
114	0xbb17fd90	-0.0023191907
115	0x3d6afa8b	0.057367843
116	0xbe416f4e	-0.18890116
117	0x3b7e25e1	0.0038779902
118	0xbdd65dd9	-0.10467119
119	0x3d0b59c1	0.034021143
120	0xbe3361f3	-0.17517833
121	0xbe46a308	-0.19398129
122	0x3c58f88e	0.013242854
123	0xbd9108b4	-0.07081738
124	0xbe35c3ea	-0.17750517
125	0x3db43e85	0.08800987
126	0x3df01f9c	0.11724779
127	0x3d10b80d	0.035331775
128	0xbd5c5452	-0.05379135
129	0xbdafd162	-0.085848585
130	0xbe218026	-0.15771541
131	0xbcb67a37	-0.022275073
132	0x3d9d1cf3	0.07671537
133	0xbcf26bfc	-0.029592507
134	0x3b56270e	0.0032677087
135	0x3d80a343	0.0628114
136	0xbbbba884	-0.0057268757
137	0xbc77dbdf	-0.015128105
138	0x3d88153b	0.066446744
139	0xbd3810c7	-0.044937875
140	0x3cdafa1c	0.02673059
141	0xbcc56156	-0.024094265
142	0xbe32bbcf	-0.17454456
143	0xbb741cca	-0.0037248605
144	0x3db2ec30	0.087364554
145	0xbe29ecf4	-0.16594297
146	0xbd35f472	-0.044422574
147	0x3d8d5544	0.06901029
148	0xbe00fe2c	-0.12596959
149	0x3dae88ea	0.08522208
150	0xbd15f9ea	-0.03661529
151	0x3be49ef0	0.0069769546
152	0x3d0fcc7d	0.035107125
153	0xbdcb1ec6	-0.09917979
154	0x3d01e68f	0.03171402
155	0x3e09dbdc	0.13462776
156	0xbe5b7486	-0.21431169
157	0x3cb63052	0.022239838
158	0x3c282a56	0.010264
159	0x3e1d0e09	0.15337385
160	0xbdbcb753	-0.09214654
161	0x3d62f059	0.055404995
162	0xbc0d6315	-0.00862958
163	0x3d56faf2	0.052485414
164	0x3d708ccc	0.058728024
165	0x3c5f6391	0.013634578
166	0xbd104b1e	-0.035227887
167	0x3cb2658e	0.02177694
168	0xbdbe0356	-0.0927798
169	0x3e840cd2	0.2579103
170	0x3c0a9e50	0.008460596
171	0xbde83d1a	-0.11339779
172	0xbd376884	-0.04477741
173	0x3a02ee15	0.00049945834
174	0xbdaa6fc2	-0.08322097
175	0xbdba0447	-0.09082847
176	0x3da70343	0.08154919
177	0x3e07f537	0.13277136
178	0xbdd9d098	-0.10635489
179	0xbd7c9111	-0.061661784
180	0xbcd18e52	-0.025580559
181	0xbe3b29c9	-0.18277659
182	0xbe2baf3b	-0.16766064
183	0xbbffe79c	-0.0078095924
184	0xbe05fb12	-0.13084057
185	0xbc4734bd	-0.01215857
186	0xbe391150	-0.1807301
187	0x3d94b1bb	0.07260462
188	0xbc6016c9	-0.013677307
189	0xbd535b44	-0.05160071
190	0x3c7ed281	0.015553118
191	0xbe0dc19d	-0.13843389
192	0xbb7513ac	-0.0037395759
193	0xbd836ff0	-0.06417835
194	0x3d28d774	0.041221097
195	0x3c100e01	0.008792401
196	0xbd24c8ee	-0.040230684
197	0x3da80b44	0.08205274
198	0xbe1eed6d	-0.15520258
199	0xbdcb6db2	-0.09933032
200	0xbc32507d	-0.010883448
201	0x3dafc781	0.08582974
202	0xbbc6c8d0	-0.006066419
203	0xbdfbe5d4	-0.122996956
204	0x3d89d563	0.067301534
205	0x3cb6013a	0.022217382
206	0xbcd1a63a	-0.025591958
207	0xbe87f29a	-0.26552278
208	0xbd18ff17	-0.037352648
209	0xbda74fe3	-0.08169534
210	0x3d7eb4c8	0.062184125
211	0xbded104a	-0.115753725
212	0xbdbc16bb	-0.09184023
213	0x3d6c1518	0.057637304
214	0xbcfbf4ed	-0.030756438
215	0x3e01d1ba	0.1267766
216	0xbde9af9b	-0.11410447
217	0xbcfbb2cb	-0.030724904
218	0xbc2afd51	-0.010436372
219	0xbe4013bf	-0.18757533
220	0x3e5e495b	0.2170767
221	0xbc3214df	-0.010869234
222	0x3d874941	0.06605769
223	0x3d1e1ffc	0.03860472
224	0xbd71a53a	-0.058995463
225	0x3d9ee2f7	0.07758134
226	0x3c71564c	0.014730047
227	0x3d19344d	0.037403394
228	0xbd18b405	-0.037281055
229	0xbd4ef175	-0.05052324
230	0x3c89d449	0.016824858
231	0xbe2738d0	-0.16330266
232	0x3b84a60b	0.004048114
233	0x3cc153ca	0.023599524
234	0xbd48d1ae	-0.04902809
235	0x3d24a39f	0.040195104
236	0xbc867210	-0.016411811
237	0xbdcdb7b1	-0.10044802
238	0xbdb2338f	-0.0870124
239	0xbcf12bc1	-0.029439809
240	0xbdb36f52	-0.08761467
241	0xbdac84ed	-0.08423791
242	0x3c882dc1	0.01662338
243	0xbe3cc83b	-0.18435757
244	0xbda751cb	-0.08169898
245	0xbe053c35	-0.13011248
246	0xbd02fd3d	-0.031979788
247	0x3b8a3ec0	0.004218906
248	0x3d9a15dc	0.075237006
249	0xbd607775	-0.054801423
250	0x3d9f7202	0.07785417
251	0xbc9222f9	-0.017838942
252	0x3da808aa	0.082047775
253	0x3e210579	0.15724744
254	0xbd9618bc	-0.073289365
255	0xbd911cf4	-0.070856005

encoder_z0.GRU_update.update_gate.0.bias f4 [100]
0	0xbc84902f	-0.016182033
1	0xbbd91d7e	-0.00662583
2	0xbc857f96	-0.01629619
3	0xba56ad49	-0.00081892736
4	0xbc2fdb26	-0.010733401
5	0xbc8c8e07	-0.017157568
6	0xb933b3a8	-0.00017137697
7	0x3c6ef4e7	0.014584756
8	0x3c763bfe	0.015028952
9	0xbc6928f2	-0.0142309535
10	0x3b292e8c	0.0025815098
11	0x3b8e23b7	0.0043377536
12	0x3c81ad95	0.01582984
13	0xba31518f	-0.00067641673
14	0xbc731aee	-0.0148379635
15	0xbc09fb51	-0.008421735
16	0xbc4b9fe5	-0.012428259
17	0x3c899b84	0.016797788
18	0x3c85e7cc	0.01634588
19	0x3c2b1329	0.01044158
20	0x3ca0131b	0.01954036
21	0x3c7e9821	0.0155392
22	0xbc7271f9	-0.014797681
23	0xbc923286	-0.017846357
24	0x3c2d3154	0.010570843
25	0xbc602395	-0.013680358
26	0xbc8281bf	-0.015931008
27	0x3c74ba01	0.014936925
28	0x3c289231	0.010288761
29	0x3c933a97	0.017972274
30	0x3c890d7f	0.016730068
31	0x3c703bc7	0.0146626895
32	0xbca01eea	-0.019545991
33	0xbc75308e	-0.01496519
34	0x3c88c883	0.016697174
35	0x3ca81c8b	0.020521423
36	0x3c982cb3	0.018576002
37	0x3c5b2516	0.013375541
38	0x3c9e097e	0.019291636
39	0x3b307335	0.0026924137
40	0xbb1114b2	-0.002213758
41	0x3c501ba7	0.012701905
42	0xbcb17117	-0.02166037
43	0x3a5c34ca	0.00084002
44	0x3c640845	0.013917987
45	0x3c1e4fa6	0.009662544
46	0xbc5dde78	-0.01354181
47	0x3c455471	0.012044058
48	0x3c9c34b4	0.0190681
49	0x3c03eed6	0.008052548
50	0x3cbc1b24	0.02296216
51	0xbc28aaea	-0.010294655
52	0xbc53bc3e	-0.012923298
53	0xbc894f5c	-0.016761474
54	0x3bbc8ce2	0.005754099
55	0xbc490543	-0.012269321
56	0xbc08fb3e	-0.008360682
57	0xbc448e3c	-0.011996802
58	0x3cb9ff0c	0.022704624
59	0xbc5a4b58	-0.013323627
60	0x3cd938c4	0.026516326
61	0x3c6668d9	0.014063084
62	0x3cb963b9	0.02263056
63	0x3c65d3b5	0.014027526
64	0xbc875fe5	-0.016525218
65	0xbc13a427	-0.009011305
66	0x3c25cb66	0.010119295
67	0xbc8c4d1a	-0.017126609
68	0x3c098dc3	0.008395615
69	0x3c164d88	0.009173758
70	0xbc8aecc1	-0.016958596
71	0xbcc4759f	-0.023981867
72	0xbc616387	-0.013756639
73	0xbcd5e7ab	-0.026111444
74	0x3c8a31d7	0.016869469
75	0x3c8d5cb0	0.01725611
76	0xbca6e673	-0.020373559
77	0x3c702844	0.014658038
78	0xbc27443b	-0.0102091385
79	0x3c71c9b1	0.01475756
80	0xbc8b7435	-0.017023185
81	0xbbda25fd	-0.0066573606
82	0xbb653c81	-0.003497869
83	0x3cb20432	0.021730516
84	0xbc863295	-0.016381541
85	0xbcb70d28	-0.02234514
86	0x3cac9bae	0.021070328
87	0x3c9733d2	0.018457327
88	0x3c286579	0.010278099
89	0x3bd92099	0.0066262004
90	0xbc63a7e9	-0.013895013
91	0xbc80a730	-0.015704721
92	0xbc84e434	-0.016222097
93	0x3c575556	0.013142904
94	0xbc2e3092	-0.010631697
95	0x3c6f3c1b	0.014601733
96	0xbc8ab9cd	-0.0169343
97	0x3c82c7b4	0.015964366
98	0x3cabab27	0.020955635
99	0xbb11c8a4	-0.0022244835

encoder_z0.GRU_update.update_gate.2.weight f4 [20, 100]
0	0xbd0f4abb	-0.034983378
1	0xbe4613d0	-0.19343495
2	0x3c118d23	0.008883747
3	0xbd00134c	-0.031268403
4	0xbb8fa851	-0.0043840786
5	0xbe162002	-0.14660648
6	0x3d90ac38	0.07064098
7	0xbdbfd48e	-0.093667135
8	0xbdf7335b	-0.12070342
9	0xbd39e92c	-0.045388386
10	0x3d1dab8e	0.038493685
11	0xbd6395fa	-0.05556295
12	0xbc023de4	-0.007949326
13	0x3c0c14f7	0.00854992
14	0xbd702ffd	-0.058639515
15	0x3dc3510f	0.09536945
16	0x3e410d4e	0.18852732
17	0xbe209257	-0.15680824
18	0xbdb05127	-0.086092286
19	0x3d363932	0.04448814
20	0xbdd96732	-0.10615386
21	0x3c83c9b2	0.016087387
22	0x3da4e107	0.08050733
23	0xbc7be4cc	-0.015374374
24	0xbb7fd2b7	-0.0039035508
25	0x3ddad83b	0.10685774
26	0x3cebf31a	0.028802443
27	0xbd861c27	-0.065483384
28	0xbda73cec	-0.08165917
29	0xbc894051	-0.016754301
30	0xbda87b8c	-0.0822669
31	0xbe551cdc	-0.2081179
32	0x3de29c51	0.11064971
33	0x3ded5eaf	0.11590325
34	0xbd955821	-0.072922
35	0xbddca3e4	-0.10773447
36	0xbae5bd61	-0.0017527753
37	0x3d06b7e3	0.03289021
38	0xbe79b3e0	-0.24385023
39	0x3ca3d223	0.019997662
40	0x3d175658	0.03694758
41	0x3c8a87f9	0.01691054
42	0x3aa5c8a3	0.0012648295
43	0x3c9b2f59	0.018943476
44	0x3cb6ff88	0.022338644
45	0x3cc61f32	0.024184797
46	0x3b858e38	0.0040757917
47	0xbe705441	-0.2346964
48	0xbdaf350e	-0.08555041
49	0x3c9b73fd	0.018976206
50	0x3d26f32a	0.040759243
51	0x3cd4cf67	0.025977803
52	0xbcb0f2bc	-0.02160012
53	0xbc9c1e94	-0.01905755
54	0xbe1aae06	-0.15105447
55	0x3e409735	0.18807681
56	0x3dbb4854	0.09144655
57	0x3dd9f411	0.10642255
58	0xbe119de2	-0.14220384
59	0x3e96a490	0.29422426
60	0xbdb4a5ff	-0.08820724
61	0x3db59e4f	0.088680856
62	0xbdec285f	-0.11531138
63	0x3c3fb309	0.0117004
64	0x3d194d83	0.037427437
65	0xbd8c38ab	-0.06846746
66	0xbe188020	-0.14892626
67	0x3c26ad00	0.010173082
68	0xbda95353	-0.08267846
69	0xbdc730fc	-0.0972614
70	0xbdab86eb	-0.08375343
71	0x3e25029a	0.16114274
72	0xbe3f17aa	-0.18661371
73	0xbccfc07f	-0.025360344
74	0xbe282f71	-0.16424347
75	0xbd69c68b	-0.05707411
76	0x3e318c87	0.17338763
77	0xbca55718	-0.020183131
78	0x3d858a4f	0.06520521
79	0xbe056cad	-0.13029738
80	0x3dc6a5f6	0.09699623
81	0xbdda7bc5	-0.106681384
82	0xbe1761c1	-0.14783384
83	0xbd7b787f	-0.06139421
84	0xbda23fde	-0.07922338
85	0xbb2b764a	-0.0026163035
86	0xbdfc72fc	-0.12326619
87	0xbdd2a81e	-0.10285972
88	0xbd4a4351	-0.049380604
89	0xbcbf62de	-0.023362573
90	0x3d702e0d	0.058637667
91	0x3dda4e13	0.10659423
92	0x3e3a61e9	0.18201412
93	0xbdd51d5a	-0.10405989
94	0x3d2ca21f	0.0421468
95	0xbd59dc4f	-0.05318862
96	0x3cc3e5c7	0.023913277
97	0x3cdfe007	0.027328504
98	0xbd0cf542	-0.034413584
99	0xbd63bb5c	-0.0555986
100	0x3d02b7c7	0.031913545
101	0xbe06d57a	-0.13167372
102	0x3d0c1a3d	0.03420471
103	0x3e34e62d	0.1766593
104	0x3d600bd5	0.054698784
105	0x3da090d1	0.078401215
106	0xbd093534	-0.033498004
107	0x3dbbae25	0.09164075
108	0x3e1f7c10	0.1557467
109	0xbc06d917	-0.008230469
110	0x3d6d4bd4	0.057933643
111	0x3d538784	0.05164291
112	0xbd0c4d8b	-0.03425364
113	0x3e05e058	0.13073862
114	0xbe8170ac	-0.25281274
115	0x3d1a1f8a	0.037627734
116	0xbdce14c3	-0.10062554
117	0xbe579b93	-0.2105544
118	0x3e528be5	0.20561178
119	0xbd4c4454	-0.04986985
120	0xbc879ea4	-0.016555138
121	0xbda91671	-0.082562335
122	0xbdcbf208	-0.09958273
123	0x3de26f27	0.11056357
124	0xbcc2789c	-0.023739152
125	0xbd0ea8b1	-0.034828845
126	0x3dbec8de	0.09315656
127	0xbdf276a0	-0.11839032
128	0xbd9e6d10	-0.07735646
129	0xbd2d075b	-0.042243343
130	0x3d4f4198	0.050599664
131	0x3dddec50	0.10836089
132	0xbc6df4fd	-0.014523742
133	0xbcf52f34	-0.029929735
134	0xbd96865c	-0.07349846
135	0xbea8bd68	-0.32957006
136	0x3d0f428a	0.034975566
137	0x3e02c2f2	0.12769678
138	0xbc9b34c5	-0.01894606
139	0x3d6da81a	0.058021642
140	0x3e23c89a	0.15994492
141	0x3cb6b290	0.022301942
142	0x3d99b46f	0.07505118
143	0xbdc7498f	-0.09730827
144	0x3d9596ea	0.07304175
145	0x3d38b3ba	0.045093276
146	0x3d96150a	0.07328232
147	0xbe270d6c	-0.16313714
148	0xbd861412	-0.06546797
149	0x3dc16d27	0.09444647
150	0x3e399757	0.18124138
151	0x3c2ca55f	0.010537474
152	0x3d897441	0.06711627
153	0x3d56d144	0.052445665
154	0x3e499582	0.19685939
155	0x3d9ec180	0.07751751
156	0xbd2de0aa	-0.042450584
157	0xba7e9b62	-0.0009712485
158	0x3db590b1	0.08865488
159	0xbde35dca	-0.11101873
160	0x3e2e9484	0.17048842
161	0x3e3df1ef	0.18549322
162	0x3d75a2ce	0.059969716
163	0xbdd2feae	-0.103024825
164	0x3e051198	0.12994993
165	0x3d176789	0.036963973
166	0xbdc46168	-0.09588891
167	0xbae64f79	-0.0017571292
168	0xbe19c8d9	-0.15018024
169	0xbbca13e8	-0.006166924
170	0x3df1cda8	0.11806804
171	0xbdd8b8e4	-0.1058214
172	0x3e261d0e	0.16222021
173	0x3d840b46	0.06447463
174	0x3d820022	0.063476816
175	0x3d7c63e5	0.061618704
176	0xbd22f3b3	-0.03978319
177	0x3d5ae038	0.053436488
178	0xbd44b488	-0.04802373
179	0xbd523101	-0.051316265
180	0x3e1cfbfa	0.15330496
181	0xbc34b135	-0.011028578
182	0x3c3a160d	0.011357796
183	0xbda1f199	-0.07907409
184	0x3d865c09	0.06560523
185	0x3d680ded	0.056653906
186	0x3ca6fbcf	0.020383744
187	0xbcbd680b	-0.0231209
188	0xbcb97da1	-0.022642912
189	0x3e4471e9	0.19184078
190	0x3e161993	0.14658193
191	0x3c041be0	0.008063287
192	0x3be4fb57	0.00698797
193	0xbe402d4e	-0.18767282
194	0xbebcb3a2	-0.368558
195	0x3c2ff5a0	0.010739714
196	0xbcde62db	-0.027146747
197	0x3d6b1759	0.057395313
198	0xbddafbf3	-0.10692587
199	0xbdba30de	-0.09091352
200	0xbdc1d9c9	-0.09465367
201	0x3b0a4507	0.0021098272
202	0xbd20f6dd	-0.039297927
203	0xbd358933	-0.044320296
204	0x3d8a2f62	0.06747319
205	0x3c6f9ffa	0.014625544
206	0xbdc954ed	-0.098306514
207	0x3c9e8fa5	0.019355604
208	0xbc502a91	-0.012705461
209	0xbd3ad446	-0.045612596
210	0xbd561f8d	-0.052276183
211	0xbdad834c	-0.084723085
212	0x3d64e261	0.055879954
213	0x3cf10ede	0.029426035
214	0xbe107021	-0.14105274
215	0x3e5db400	0.21650696
216	0x3e02f22e	0.12787697
217	0x3d1df47b	0.038563233
218	0x3c128b87	0.008944399
219	0xbe3e7e93	-0.18602972
220	0x3e7211a7	0.23639546
221	0x3d228def	0.03968614
222	0x3e315684	0.1731816
223	0xbd37e66a	-0.044897474
224	0xbd1975d6	-0.037465893
225	0xbb9e4848	-0.004830394
226	0x3e04542f	0.12922738
227	0x3c8e20a7	0.017349554
228	0xbd04f5d6	-0.03246101
229	0xbd19d2c5	-0.03755452
230	0x3ca1b95a	0.019741703
231	0xbd9e5020	-0.077301264
232	0xbd6fdfdc	-0.0585631
233	0x3d797d8d	0.06091075
234	0xbce481ab	-0.027893862
235	0x3e098622	0.13430074
236	0xbda26ab8	-0.07930511
237	0x3c1b2c11	0.0094709555
238	0xbc77169f	-0.015081077
239	0x3ba8b0cd	0.0051480294
240	0x3e05978b	0.1304609
241	0xbd834fdc	-0.06411716
242	0xbd27ad0e	-0.040936522
243	0x3c112dfe	0.008861063
244	0x3ccccb73	0.024999356
245	0xbe01fe27	-0.12694608
246	0x3ba73849	0.0051031453
247	0x3dc3efa1	0.0956719
248	0x3d365724	0.044516698
249	0x3c8e6b59	0.017385172
250	0x3ce4d125	0.02793176
251	0x3e27cd1b	0.16386835
252	0x3c35833d	0.011078653
253	0xbe1372a7	-0.14399205
254	0xbe13e961	-0.14444496
255	0x3e80c6fd	0.25151816

encoder_z0.GRU_update.update_gate.2.bias f4 [20]
0	0xbc9406fd	-0.018069739
1	0xbc970de6	-0.018439244
2	0x3cab9219	0.020943688
3	0xbc9c3ddc	-0.019072466
4	0x3c1bd2b5	0.009510686
5	0xbcc46b04	-0.02397681
6	0xbc8220a4	-0.015884705
7	0xbc899d6f	-0.016798703
8	0x3c4c5f1e	0.01247385
9	0xbc898a98	-0.01678972
10	0x3c61d0f6	0.01378273
11	0x3c391c71	0.011298285
12	0x3b8e5831	0.0043440093
13	0x3c5a8e42	0.013339581
14	0x3b0ea58d	0.0021766156
15	0x3cb73911	0.022366079
16	0x3c4710fa	0.012150044
17	0x3c64f1b2	0.01397364
18	0xbc9307c8	-0.017948046
19	0x3cc0b964	0.023525901

encoder_z0.GRU_update.reset_gate.0.weight f4 [100, 42]
0	0x3bfbbbb7	0.0076822895
1	0xbd637030	-0.055526912
2	0x3c4c90a2	0.012485655
3	0xbd3bcae4	-0.04584779
4	0x3de48b82	0.111594215
5	0xbc2fda69	-0.010733225
6	0x3d49148b	0.049091857
7	0xbcba6a65	-0.022755811
8	0xbdcc4a61	-0.09975124
9	0xbd19a331	-0.037509147
10	0xbdfb90df	-0.12283491
11	0x3da22e01	0.07918931
12	0xbe2c985f	-0.16855
13	0xbde5619d	-0.11200259
14	0x3daed41e	0.08536552
15	0xbb346cb3	-0.002753061
16	0x3cade7cf	0.021228699
17	0x3c9637dd	0.018337185
18	0x3d242bed	0.040080953
19	0xbba04e4b	-0.0048921457
20	0x3d126791	0.0357433
21	0xbdaa675d	-0.08320496
22	0xbdd4a419	-0.10382862
23	0x3d9e7d41	0.07738734
24	0xbe4f1e65	-0.20226438
25	0xbc05ab58	-0.008158527
26	0x3c43bc17	0.0119467
27	0x3af90c98	0.0019000946
28	0x3c11ea4b	0.008905957
29	0xbc800b5d	-0.015630418
30	0xbe320fc8	-0.17388833
31	0xbe3006ce	-0.17190096
32	0xbdc16297	-0.09442633
33	0xbd377f99	-0.04479942
34	0x3d423785	0.04741623
35	0xbc88cd70	-0.016699523
36	0xbe023d17	-0.12718616
37	0x3de8e40f	0.11371624
38	0x3db7b8c6	0.089707896
39	0x3d3dd71e	0.04634773
40	0x3c8000a6	0.01562531
41	0xbdedeb45	-0.1161714
42	0xbe098f64	-0.13433605
43	0x3d52ca06	0.051462196
44	0x3d4318a6	0.04763093
45	0x3d4f351c	0.05058776
46	0xbd4f9522	-0.050679334
47	0xbdadfafd	-0.08495138
48	0x3dcd3dac	0.100215286
49	0x3d94341e	0.07236503
50	0xbe6fc9e6	-0.23416862
51	0xbd758504	-0.059941307
52	0x3d45259b	0.048131566
53	0x3df5ad3d	0.11995933
54	0x3dee6cdb	0.11641856
55	0x3d1cc8ab	0.03827731
56	0x3c11d1ae	0.008900089
57	0x3bb0a77c	0.0053910594
58	0xbc7953c1	-0.015217722
59	0x3dade443	0.08490803
60	0xbddb72c6	-0.10715251
61	0x3d7d23ec	0.061801836
62	0x3d9ccea6	0.076566026
63	0xbd789bab	-0.06069533
64	0xbcd2bc1c	-0.025724463
65	0xbd9e3ea7	-0.07726794
66	0xbc8c43ac	-0.017122112
67	0x3defc3fb	0.11707302
68	0x3d7cacee	0.061688356
69	0x3e2103b5	0.1572407
70	0xbd8bba97	-0.068226986
71	0xbd404335	-0.046939094
72	0xbb4bd945	-0.0031104845
73	0x3e49b110	0.1969645
74	0xbd11974e	-0.035544686
75	0xbe25d4f7	-0.16194521
76	0x3d040762	0.032233603
77	0x3dc6c156	0.09704845
78	0x3e2283bb	0.15870564
79	0xbdd81ebe	-0.105527386
80	0xbd1fd4ce	-0.039021306
81	0x3e0d9085	0.13824661
82	0x3d38fdaa	0.045163788
83	0x3ccf4acd	0.025304222
84	0x3d8e9c8e	0.06963454
85	0xbd54eb0a	-0.051981963
86	0xbe725d48	-0.23668396
87	0x3d8f03c3	0.06983139
88	0x3bb923be	0.0056500128
89	0xbd12276b	-0.035682123
90	0xbddc505a	-0.10757513
91	0x3c2ca77d	0.010537979
92	0xbd93dd29	-0.07219917
93	0xbe2ed1e9	-0.17072262
94	0xbe04382e	-0.12912056
95	0xbd5f3b2d	-0.054499794
96	0x3e95bd00	0.29245758
97	0x3d8352ea	0.06412299
98	0xbe00d3bf	-0.12580775
99	0x3d8c1369	0.0683964
100	0x3e4781b0	0.19483066
101	0x3b0d9106	0.0021601333
102	0x3e0c8158	0.13721216
103	0xbd384c5b	-0.044994693
104	0xbd80eab2	-0.062947646
105	0xbb37c4f5	-0.002804098
106	0x3d3a6b5d	0.045512546
107	0xbe2131fe	-0.15741727
108	0x3c3df5fd	0.011594293
109	0x3d6e4ad0	0.058176816
110	0x3dc6181d	0.09672568
111	0xbc0282d1	-0.007965759
112	0xbd0e7173	-0.034776162
113	0x3e8009ba	0.2500742
114	0x3d3ba436	0.0458109
115	0x3ca6903d	0.02033245
116	0x3da722e4	0.08160952
117	0xbe058c46	-0.13041791
118	0xbd894b4f	-0.06703817
119	0x3cefeb80	0.0292871
120	0xbe083c03	-0.13304143
121	0xbd770b64	-0.060313597
122	0x3bbfa6fa	0.0058487626
123	0xbdfc4141	-0.12317134
124	0xbc19643d	-0.009362278
125	0xbe610f35	-0.21978457
126	0xbe0e35a0	-0.13887644
127	0xbe0af7a6	-0.13571033
128	0xbcca24c3	-0.024675732
129	0xbda3f1ae	-0.08005081
130	0x3d1c56a8	0.03816858
131	0x3d9455b7	0.07242911
132	0xbde15898	-0.11003226
133	0xbdf123e1	-0.117744215
134	0x3d1e2300	0.038607597
135	0xbd7a672e	-0.061133556
136	0x3e9f2cde	0.31088918
137	0x3d0ae00f	0.033905085
138	0x3e140fc2	0.14459136
139	0xbdb6aaea	-0.08919318
140	0xbb8a03e2	-0.0042118886
141	0x3d825663	0.06364133
142	0x3d750328	0.059817463
143	0xbe57cd2d	-0.21074362
144	0xbe084f7a	-0.13311568
145	0x3e2b4d82	0.16728786
146	0xbe702f00	-0.23455429
147	0xbd3e43f9	-0.046451543
148	0xbe31aff5	-0.17352279
149	0x3d33492a	0.043770947
150	0x3d94fc6a	0.07274707
151	0xbdb7c7d3	-0.0897366
152	0x3c3e80f3	0.011627424
153	0xbe174923	-0.14773993
154	0xbd5993f8	-0.05311963
155	0xbe0429be	-0.12906548
156	0xbc9d0dd8	-0.01917164
157	0xbda9b73a	-0.08286901
158	0xbe4a02e0	-0.19727659
159	0x3db0ec20	0.08638787
160	0x3d3441c0	0.044008017
161	0xbcf4a88e	-0.02986553
162	0xbd96b045	-0.073578395
163	0xbe345989	-0.1761228
164	0x3ddacd55	0.10683695
165	0x3cc33f3e	0.023833867
166	0xbd2904c4	-0.04126431
167	0xbe04defd	-0.12975688
168	0x3da840ad	0.08215461
169	0xbe06c2db	-0.13160269
170	0x3db31471	0.08744133
171	0x3cd0c044	0.025482304
172	0x3dd8d0d5	0.105867065
173	0xbcc907b7	-0.024539812
174	0xbe370b32	-0.17875364
175	0xbdd8cc12	-0.10585798
176	0x3d8d9206	0.069126174
177	0x3cfe3d70	0.031035155
178	0x3e041a57	0.12900673
179	0xbb03772f	-0.0020060053
180	0x3cce60db	0.025192669
181	0x3d411e99	0.04714832
182	0x3df4707c	0.11935517
183	0xbbfe491b	-0.0077601797
184	0x3d3485a9	0.04407278
185	0xbd7284d1	-0.059208695
186	0xbd2bc39c	-0.041934595
187	0xbd3a5db5	-0.045499522
188	0xbe22ffb6	-0.15917858
189	0x3d0385f0	0.032110155
190	0xbc88d457	-0.016702814
191	0x3bef1cba	0.0072971256
192	0xbde1aa98	-0.11018866
193	0x3d3826b6	0.044958793
194	0x3dd759c9	0.10515172
195	0x3e6e9a64	0.23301083
196	0xbc95a8e1	-0.018269004
197	0x3cdf84d3	0.027285015
198	0xbd4d034a	-0.050051965
199	0x3d655024	0.05598463
200	0x3d435f90	0.047698557
201	0xbe3080ee	-0.17236683
202	0x3db9d4e8	0.09073812
203	0x3dfeaba7	0.12435084
204	0x3de895dd	0.11356709
205	0x3d767f8a	0.060180224
206	0x3e2d912a	0.16949907
207	0x3d8d8b27	0.06911307
208	0xbcfcf806	-0.030879986
209	0x3d655ca6	0.05599656
210	0xbd49e134	-0.049287036
211	0x3c106aa1	0.008814485
212	0x3c97c860	0.018528163
213	0xbd3a735e	-0.04552018
214	0xbd0f2208	-0.034944564
215	0x3daf8b69	0.08571512
216	0xbbca0139	-0.0061646965
217	0xbd539da8	-0.051664025
218	0xbd6cbc6c	-0.05779688
219	0x3e1953ab	0.14973323
220	0x3d6df3bd	0.058093775
221	0x3d7974bf	0.060902353
222	0xbe5f5e12	-0.21813229
223	0x3d78dd5e	0.060757987
224	0xbda26745	-0.07929853
225	0x3dc60376	0.09668629
226	0x3e12bd6d	0.14330073
227	0x3d12248c	0.035679385
228	0xbd850dc9	-0.0649677
229	0x3d90bf9b	0.07067796
230	0xbd72a872	-0.059242673
231	0xbe701efa	-0.23449317
232	0xbd2c8ef9	-0.042128537
233	0xbdabb08f	-0.08383285
234	0xbdab3605	-0.08359913
235	0xbdc441a7	-0.09582835
236	0x3e0a2269	0.13489689
237	0x3bb81626	0.0056178747
238	0xbc9d7e25	-0.01922519
239	0xbe128872	-0.14309862
240	0x3badf6bb	0.0053089536
241	0x3db886b0	0.090100646
242	0xbcb08e5f	-0.021552263
243	0xbe06b1f2	-0.13153818
244	0xbe03f6d4	-0.12887126
245	0x3d84847e	0.064705834
246	0x3d0a37e0	0.033744693
247	0x3c3fff68	0.011718608
248	0xbd5bdae1	-0.053675536
249	0xbbc764a7	-0.0060849967
250	0x3dde9fed	0.10870347
251	0xbb45fb33	-0.003020954
252	0x3d129c14	0.03579338
253	0x3ddd040e	0.10791789
254	0x3dd8249f	0.1055386
255	0x3cb7e146	0.022446286

encoder_z0.GRU_update.reset_gate.0.bias f4 [100]
0	0xbc92fdcc	-0.017943285
1	0xbc91613a	-0.017746557
2	0x3c5c6c5a	0.013453567
3	0xbcb4cf20	-0.022071421
4	0x3c91d5c0	0.01780212
5	0xbca1a0f8	-0.019730076
6	0xbcb7bfec	-0.022430383
7	0xbcb56827	-0.02214439
8	0xbbba7213	-0.0056898682
9	0xbc9162de	-0.017747339
10	0xbc993693	-0.01870278
11	0x3c7bbe7e	0.015365241
12	0x3cacf0f3	0.021110987
13	0xbc902ea5	-0.017600367
14	0xbcc44b55	-0.023961702
15	0xbc45fac2	-0.012083711
16	0xbc9344a7	-0.017977072
17	0xbc20d8fa	-0.009817356
18	0x3cb4a375	0.022050599
19	0x3c9905c6	0.01867951
20	0xbc98b1ce	-0.018639471
21	0x3c5b117e	0.01337087
22	0xbcb5e50c	-0.022203945
23	0xbc934b17	-0.017980142
24	0x3c9dced8	0.01926367
25	0x3ca20867	0.019779397
26	0xbc47b75e	-0.012189714
27	0xbc8d7819	-0.017269181
28	0xbbed5c9d	-0.0072437064
29	0x3c731bc6	0.014838165
30	0x3c931ad6	0.017957132
31	0x3cadd401	0.021219255
32	0x3c894edd	0.016761238
33	0xbc904cea	-0.0176148
34	0xbc13c67e	-0.009019492
35	0xbc1c9e65	-0.009559249
36	0x3cd2ca65	0.025731275
37	0x3c935a11	0.017987283
38	0x3ca321e4	0.019913621
39	0xbc9e315e	-0.01931065
40	0xbc95537c	-0.018228285
41	0xbc38810d	-0.011261237
42	0x3c2f0838	0.010683112
43	0x3c87be8b	0.01657035
44	0x3cb2dc85	0.021833668
45	0xbbd1bff3	-0.006401056
46	0x3c977cf3	0.018492198
47	0xbcc778f2	-0.024349663
48	0xbcbd4a17	-0.023106618
49	0x3c9e547d	0.019327397
50	0xbc9cb6e1	-0.019130172
51	0x3c77471b	0.015092636
52	0xbc7eb088	-0.015545018
53	0x3ccaa341	0.024736049
54	0xbc95dc53	-0.018293535
55	0x3c129c6a	0.008948425
56	0xbc5ca46f	-0.013466938
57	0x3cba8057	0.022766275
58	0xbc9a6447	-0.018846644
59	0x3cb4b393	0.022058284
60	0xbc729489	-0.014805921
61	0xbca4c312	-0.020112548
62	0xbc6dcdce	-0.0145144
63	0x3cc1653e	0.023607846
64	0x3cbcc852	0.023044739
65	0x3b98e120	0.004665509
66	0x3c9776ee	0.018489327
67	0x39ab9858	0.00032729167
68	0xbc717568	-0.0147374645
69	0x3c9fcfc9	0.01950826
70	0xbc99e4ed	-0.018785918
71	0xbc50033d	-0.012696085
72	0x3c941cb7	0.018080099
73	0xbc145836	-0.009054234
74	0x3ca6d658	0.020365879
75	0xbc985878	-0.018596873
76	0xbc8dbe9e	-0.017302807
77	0xbca53a3c	-0.02016937
78	0x3c5bd81d	0.013418225
79	0x3caa0c4b	0.020757815
80	0xbc528f19	-0.0128515
81	0x3cb74aee	0.022374596
82	0x3c50063c	0.012696799
83	0x3c7f17b7	0.015569619
84	0xbca3964b	-0.019969126
85	0xbc854779	-0.016269432
86	0xbcb07e19	-0.021544503
87	0x3c6835ed	0.014173013
88	0x3caeb036	0.021324258
89	0xbc9e5653	-0.019328272
90	0x3c5a3f22	0.013320716
91	0xbc7fc141	-0.01561004
92	0x3c92a11e	0.017899092
93	0xbcb30500	-0.02185297
94	0xbc52b7a6	-0.012861168
95	0x3cb6c6de	0.022311624
96	0xbc4d8ae1	-0.012545318
97	0x3c60e9d0	0.01372762
98	0xbca0fec3	-0.01965273
99	0xbc9eb458	-0.019373104

encoder_z0.GRU_update.reset_gate.2.weight f4 [20, 100]
0	0xbe25e20f	-0.16199516
1	0xbd31ef34	-0.043441013
2	0xbd6259c1	-0.055261377
3	0xbccd0c6c	-0.025030337
4	0xbdb09ebf	-0.086240284
5	0xbdf53843	-0.11973622
6	0xbd94ba8b	-0.07262143
7	0x3c934a3e	0.017979737
8	0xbd9b1940	-0.075731754
9	0x3cd61c51	0.02613655
10	0x3e18f319	0.14936484
11	0x3d2e70dc	0.0425881
12	0x3cf48a06	0.029850971
13	0x3d9c852c	0.07642588
14	0xbd3768e9	-0.044777784
15	0x3b842a99	0.0040333983
16	0xbbb53331	-0.005529784
17	0x3dbf3fb0	0.09338319
18	0x3e2e4156	0.17017111
19	0xbde84d6d	-0.11342893
20	0x3e164339	0.14674081
21	0x3e375050	0.1790173
22	0xbe672725	-0.22573526
23	0x3e5c6f2c	0.21526784
24	0xbe2bbfb9	-0.16772355
25	0x3e855cc9	0.26047352
26	0x3e094240	0.13404179
27	0x3df243a4	0.11829308
28	0xbbb5688e	-0.0055361455
29	0xbda1043a	-0.07862134
30	0x3c563bb8	0.0130757615
31	0xbdadf213	-0.084934376
32	0xbc4b7657	-0.012418351
33	0xbdff56e3	-0.12467744
34	0x3e23548e	0.15950224
35	0xbc7f7655	-0.015592177
36	0xbd26146f	-0.04054683
37	0x3dc28c1e	0.094993815
38	0x3d6f8e7c	0.058485493
39	0xbe35956e	-0.17732784
40	0xbde0e0b7	-0.10980361
41	0xbaa24e9e	-0.0012383049
42	0xbd0b4be7	-0.034007933
43	0x3db04f3e	0.08608864
44	0x3c957385	0.01824356
45	0x3b84b416	0.004049788
46	0xbd9d81a2	-0.07690741
47	0xbdef303d	-0.116791226
48	0xbd92fd68	-0.0717724
49	0x3de8eb33	0.11372986
50	0xbe0b33a1	-0.13593914
51	0x3cf57113	0.029961145
52	0x3d467d0e	0.048459105
53	0x3daa9960	0.08330035
54	0xbda3e54a	-0.08002718
55	0xbc86da60	-0.016461551
56	0xbbc5ba37	-0.0060341614
57	0x3e853077	0.26013538
58	0xbdaca373	-0.08429613
59	0x3d828854	0.06373659
60	0xbe31c98a	-0.17362037
61	0x3d7fb9d6	0.062433086
62	0x3dee997f	0.11650371
63	0x3d84c28d	0.0648242
64	0x3b9555f5	0.004557366
65	0xbdf11698	-0.117718875
66	0xbda957aa	-0.08268674
67	0xbd0ecbbc	-0.034862265
68	0xbd4b278e	-0.04959827
69	0x3e10e99b	0.14151613
70	0xbe5702c6	-0.20997152
71	0xbcdb14ec	-0.026743375
72	0x3dc3deee	0.09564005
73	0xbd5a1548	-0.05324295
74	0xbb8bd402	-0.0042672167
75	0xbcebec8c	-0.028799318
76	0x3bf69b42	0.0075258324
77	0x3d3ceffe	0.046127312
78	0x3ced3265	0.028954694
79	0x3dd72634	0.105053335
80	0x3de5a897	0.112137966
81	0x3de3ea4d	0.11128674
82	0x3e3217a4	0.1739183
83	0x3d57c76f	0.05268043
84	0x3d145e3a	0.036222674
85	0xbd830870	-0.06398094
86	0x3ab6d132	0.0013947843
87	0xbe121947	-0.14267455
88	0x3c316d72	0.010829316
89	0x3c9e4b51	0.019323023
90	0x3c376b2a	0.0111949835
91	0xbd9b0e46	-0.07571082
92	0x3b75e0cc	0.0037518023
93	0xbcdf8254	-0.027283825
94	0x3d4efd9b	0.050534826
95	0x3e3e8872	0.18606737
96	0x3e1e90fb	0.15484993
97	0xbd8757ba	-0.066085294
98	0x3e019597	0.1265472
99	0x3da7364a	0.08164652
100	0xbcd0ece4	-0.025503583
101	0xbd834fb6	-0.06411688
102	0xbd7bffbf	-0.061523195
103	0x3dd72b01	0.10506249
104	0xbdbf17f9	-0.09330744
105	0xbddd46cc	-0.10804519
106	0xbd820a29	-0.06349594
107	0x3d63ff78	0.055663556
108	0x3c8e749c	0.017389588
109	0xbd08c44e	-0.033390336
110	0x3e2a2274	0.16614705
111	0xbbc997aa	-0.006152113
112	0x3c656c00	0.0140028
113	0xbde39c4a	-0.11113794
114	0x3d83d87f	0.06437778
115	0xbdc62a85	-0.09676079
116	0x3d4c5746	0.049887918
117	0x3d822cc1	0.063561924
118	0x3cd19d41	0.02558768
119	0xbb9ce0af	-0.0047875266
120	0xbda3fef0	-0.0800761
121	0xbe120d81	-0.14262964
122	0xbccbe229	-0.024888115
123	0xbdbbecdb	-0.09176036
124	0x3d043fed	0.032287527
125	0xbd150259	-0.036379192
126	0x3e96031a	0.2929924
127	0x3c36befe	0.0111539345
128	0x3d22c784	0.039741054
129	0xbd1a1afb	-0.037623387
130	0xbd91219e	-0.0708649
131	0x3cea9ea3	0.028640097
132	0xbc91fcf6	-0.017820816
133	0xbd7c7f7e	-0.061645024
134	0x3db4144d	0.087929346
135	0x3d9d965d	0.07694695
136	0x3e108ac0	0.14115429
137	0xbd65c35d	-0.056094516
138	0x3e2009b8	0.15628707
139	0x3dc1ca88	0.09462458
140	0x3dc07c49	0.093987055
141	0xbcd7f8b5	-0.02636371
142	0x3e13e343	0.14442162
143	0xbd0c5d9d	-0.034268964
144	0xbe82fc87	-0.25583288
145	0xbd828d9b	-0.06374665
146	0x3b8b7918	0.004256379
147	0xbd976998	-0.07393187
148	0x3db67198	0.08908385
149	0x3d8be514	0.068308026
150	0xbd218161	-0.039430026
151	0x3d766524	0.06015505
152	0x3db25161	0.08706928
153	0x3db6179e	0.08891223
154	0xbdd11e0f	-0.10210811
155	0x3c064a35	0.008196403
156	0xbe2466f9	-0.16054906
157	0xbca35812	-0.019939456
158	0x3e136d1b	0.14397089
159	0xbd7009d0	-0.058603108
160	0x3d24be61	0.040220622
161	0x3c50f355	0.012753327
162	0x3dcb8020	0.09936547
163	0xbde8cf6b	-0.11367687
164	0xbd51d748	-0.0512307
165	0x3d250090	0.04028374
166	0x3dec653b	0.11542746
167	0xbe034b4b	-0.1282169
168	0xbcd406a9	-0.025882082
169	0xbb929951	-0.004473843
170	0x3e56d86b	0.20980994
171	0xbd9b4dcc	-0.07583198
172	0x3d80b312	0.06284155
173	0x3cee7a03	0.029110914
174	0xbd89bc59	-0.067253776
175	0x3e691526	0.22761974
176	0xbdd36c8d	-0.10323439
177	0x3ce3c27a	0.027802695
178	0x3b8b20d6	0.0042458577
179	0xbd4bf38e	-0.04979282
180	0xbcf1a1a4	-0.029496022
181	0xbdbd9ff0	-0.09259021
182	0xbba880da	-0.0051423134
183	0x3a23ea14	0.0006252837
184	0x3e1abbe5	0.15110739
185	0x3d93f77b	0.072249375
186	0x3d9c1e94	0.0762302
187	0xbcc2a83e	-0.023761865
188	0x3d4480de	0.04797446
189	0x3d0973af	0.03355759
190	0xbe27091e	-0.16312072
191	0xbe395170	-0.18097472
192	0xbdc0f91a	-0.09422512
193	0x3a6700d4	0.0008812074
194	0xbc882348	-0.016618386
195	0xbd3a0071	-0.045410577
196	0x3de6186e	0.11235128
197	0x3d8320d9	0.064027496
198	0x3cb800af	0.022461263
199	0xbb796afd	-0.0038058155
200	0xbe2c21ca	-0.16809765
201	0x3cbd61f9	0.023118006
202	0x3df58e78	0.119900644
203	0xbdcdc058	-0.10046452
204	0xbb97ff73	-0.004638606
205	0x3df652bb	0.12027498
206	0x3d633f14	0.055480078
207	0xbc9001fa	-0.017579067
208	0x3d94b3b7	0.072608404
209	0xbe0114f6	-0.12605652
210	0xbda50806	-0.08058171
211	0x3cc2bbd7	0.02377121
212	0x3e04352e	0.12910911
213	0x3cc13da8	0.02358897
214	0xbd56ec19	-0.052471254
215	0xbd9534f4	-0.07285491
216	0xbd41e87f	-0.047340866
217	0xbd9f0bb1	-0.07765902
218	0xbce8ed87	-0.028433574
219	0x3df9f821	0.1220553
220	0xbe13b143	-0.14423089
221	0xbdbee57f	-0.09321117
222	0xbd951c18	-0.07280749
223	0xbe194a93	-0.14969854
224	0xbd289a56	-0.04116281
225	0x3d141a3c	0.03615783
226	0x3d5fe035	0.05465718
227	0xbd8c6976	-0.068560526
228	0x3d9c0888	0.07618815
229	0x3ceeb56d	0.029139245
230	0x3c7b2a98	0.015329979
231	0xbda63a75	-0.081166185
232	0x3d84c30a	0.06482513
233	0x3bd4c98a	0.006493752
234	0xbc9fc6fe	-0.019504067
235	0xbd40f84f	-0.047111806
236	0xbd77135b	-0.060321193
237	0xbd0134a7	-0.031544354
238	0x3c829ee0	0.015944898
239	0xba4ff1af	-0.0007932437
240	0xbe3c2ba9	-0.1837603
241	0x3ca9f014	0.020744361
242	0x3c3294ac	0.010899704
243	0x3cdeda1f	0.027203618
244	0x3d3bde63	0.04586638
245	0xbcda0c7d	-0.026617283
246	0x3e31ebe4	0.17375141
247	0xbd34fcdd	-0.04418646
248	0x3d64f602	0.055898674
249	0xbd0ed252	-0.034868546
250	0xbe098a1b	-0.1343159
251	0x3e321880	0.17392159
252	0xbe163cb7	-0.14671598
253	0x3e445fe9	0.19177212
254	0xbc5f4da7	-0.013629354
255	0xbc5234a7	-0.012829936

encoder_z0.GRU_update.reset_gate.2.bias f4 [20]
0	0x3cc38d4c	0.023871087
1	0xbc92f765	-0.017940233
2	0x3ca34ac6	0.019933116
3	0xbae10ebd	-0.001717053
4	0xbc23c680	-0.009996057
5	0x3c946262	0.018113319
6	0x3cb4b875	0.022060612
7	0xbc906e16	-0.017630618
8	0xbcaf2480	-0.02137971
9	0xbc9237b0	-0.01784882
10	0x3c997265	0.018731305
11	0xbc971370	-0.018441886
12	0xbc892be0	-0.016744554
13	0xbcac33b0	-0.02102074
14	0x3cbc5669	0.022990422
15	0xbc84fef0	-0.016234845
16	0x3c82b31a	0.015954543
17	0x3c22a4c7	0.009926981
18	0xbc9677f9	-0.018367754
19	0x3bdb4879	0.006691989

encoder_z0.GRU_update.new_state_net.0.weight f4 [100, 42]
0	0x3bc9a870	0.0061541125
1	0xbe929552	-0.28629547
2	0xbdc71d0f	-0.09722339
3	0xbd0ecda0	-0.034864068
4	0x3df427e0	0.11921668
5	0x3d55d2a0	0.05220282
6	0x3cc451fc	0.023964874
7	0x3d383867	0.044975664
8	0xbdc91473	-0.098183535
9	0xbe2f1eac	-0.17101544
10	0x3db978f4	0.09056273
11	0x3be0eb4d	0.0068639875
12	0xbe45ff9f	-0.19335793
13	0x3e348086	0.17627153
14	0x3d474a86	0.048655055
15	0x3cedcf91	0.02902964
16	0xbdd2fa31	-0.103016265
17	0x3e26e9eb	0.1630017
18	0xbd61970b	-0.055075686
19	0xbce0d8ec	-0.027447186
20	0x3d6cc1ab	0.057801884
21	0xbdebac50	-0.115074754
22	0xbeb6003e	-0.3554706
23	0xbd59a9d5	-0.05314048
24	0x3d043064	0.03227271
25	0x3de1699d	0.11006472
26	0x3d69f680	0.057119846
27	0xbbc1d088	-0.0059147514
28	0xbe01b9a7	-0.12668477
29	0x3da46632	0.08027305
30	0x3c4d41e2	0.012527915
31	0xbd286f6e	-0.041121893
32	0x3dd24630	0.102672935
33	0x3ae82c32	0.0017713367
34	0x3debcf23	0.115141176
35	0x3c338d93	0.010959047
36	0xbdf35554	-0.118815094
37	0xbd88ae6b	-0.066738926
38	0xbd37d5d7	-0.044881668
39	0xbdbffead	-0.093747474
40	0x3d3179ab	0.043328922
41	0x3a5f77e6	0.0008524641
42	0xbce4c4fa	-0.027925957
43	0xbcd7a5ea	-0.026324231
44	0x3d76cfb8	0.06025669
45	0x3d486bb8	0.048930854
46	0xbda480d5	-0.08032385
47	0xbbc7581c	-0.0060835015
48	0x3d18a13a	0.037263133
49	0x3b912693	0.0044296472
50	0xbcf00565	-0.029299447
51	0xbd336efb	-0.04380701
52	0xbdca61c4	-0.098819286
53	0x3e00b40d	0.12568684
54	0x3e14a28a	0.14515129
55	0x3d5a4724	0.0532905
56	0x3b9b1ac2	0.0047334144
57	0xbda62e49	-0.08114297
58	0xbd0dbe7f	-0.0346055
59	0x3c61a924	0.013773236
60	0xbe21c91a	-0.1579937
61	0x3dea634b	0.1144472
62	0x3d21e389	0.039523635
63	0x3cb65977	0.022259457
64	0x3d8e3ae5	0.06944827
65	0x3dc622ca	0.09674604
66	0xbe210622	-0.15724996
67	0x3d0f5da7	0.035001423
68	0x3e03b028	0.12860167
69	0x3dcd3f4a	0.10021837
70	0xbd0a2c0b	-0.03373341
71	0xbb3863aa	-0.0028135576
72	0x3e0bae52	0.13640717
73	0x3dac5036	0.084137365
74	0x3e532b2d	0.20621939
75	0x3db5937f	0.08866023
76	0x3e34d477	0.17659174
77	0x3df15a32	0.117847815
78	0xbdd81324	-0.10550526
79	0xbd75a544	-0.059972063
80	0xbe116fa2	-0.14202741
81	0xbd108990	-0.03528744
82	0x3db221fc	0.08697888
83	0xbdb868eb	-0.090043865
84	0xbc89fefd	-0.01684522
85	0xbb8c31b6	-0.004278387
86	0xbd17cbb2	-0.037059493
87	0xbdd47164	-0.1037319
88	0x3dcea267	0.100895695
89	0x3dd5e4be	0.1044402
90	0x3e12967e	0.1431522
91	0x3d54dcae	0.05196827
92	0x37739d10	1.4520498e-05
93	0xbdd540fe	-0.10412787
94	0xbe184514	-0.14870101
95	0x3a8180fc	0.0009880359
96	0xbdbf56ae	-0.09342705
97	0xbad8925a	-0.0016523108
98	0x3d5a63c8	0.053317815
99	0x3d3e623c	0.046480402
100	0xbd92129a	-0.07132454
101	0x3d7ee661	0.062231425
102	0x3d9cb940	0.07652521
103	0xbd4b0f4f	-0.049575146
104	0xbdcda820	-0.10041833
105	0x3d2d066e	0.04224246
106	0x3ce4ca68	0.027928546
107	0xbcdfd3e5	-0.027322719
108	0x3c95e615	0.018298188
109	0xbcb10211	-0.02160743
110	0x3dd0c81a	0.10194416
111	0xbd2f0396	-0.04272803
112	0xbe01a090	-0.12658906
113	0x3c72104e	0.014774395
114	0xbdebda73	-0.11516275
115	0x3e4b7dde	0.19872233
116	0x3d90b408	0.07065588
117	0xbdb867a3	-0.09004142
118	0xbd399573	-0.04530854
119	0xbe135174	-0.1438654
120	0xbddcd1bd	-0.10782192
121	0x3c20d848	0.0098171905
122	0xbdf96766	-0.12177925
123	0x3d39e774	0.045386747
124	0xbd1812a8	-0.037127167
125	0xbcd69373	-0.026193356
126	0xbd8dfd45	-0.06933073
127	0xbbd5ba9b	-0.0065224892
128	0x3e24d5e8	0.16097224
129	0x3e0d0dc8	0.13774788
130	0xbd0c24bc	-0.03421472
131	0x3d270b74	0.040782407
132	0x3e62423f	0.22095583
133	0x3db338fa	0.08751102
134	0x3dad6aa7	0.08467608
135	0x3d981759	0.07426328
136	0xbdefc32a	-0.117071465
137	0xbd4e800c	-0.050415084
138	0xbe08f2ab	-0.1337382
139	0x3d39736e	0.045276098
140	0x3b8ec419	0.0043568728
141	0x3d773096	0.06034907
142	0x3d565493	0.05232675
143	0x3db9be4d	0.090695
144	0xbc63f162	-0.013912531
145	0xbd064095	-0.032776434
146	0x3d589c4e	0.05288344
147	0x3da8e68e	0.082471
148	0x3cc43c04	0.023954399
149	0x3d565f42	0.05233694
150	0x3d930c63	0.07180097
151	0xbdde6f94	-0.108611256
152	0x3ca11e6d	0.019667828
153	0x3e2e9f6d	0.17053004
154	0x3d964795	0.07337872
155	0x3cde33ff	0.027124403
156	0xbd935258	-0.0719344
157	0x3e575adf	0.21030758
158	0x3db53360	0.0884769
159	0xbb038824	-0.002007016
160	0x3df07785	0.117415465
161	0x3e136213	0.14392881
162	0x3dfc1ee0	0.123105764
163	0xbd8ac40c	-0.06775674
164	0x3e024bcd	0.12724228
165	0xbd25e1f0	-0.040498674
166	0x3d947004	0.07247928
167	0xbdef0779	-0.11671347
168	0xbd6c022b	-0.057619255
169	0xbddf5238	-0.10904354
170	0xbdf4c3eb	-0.11951431
171	0xbe636717	-0.22207294
172	0xbd7f9267	-0.06239548
173	0x3cba77bc	0.022762172
174	0xbc8e82af	-0.0173963
175	0x3e3f3049	0.18670763
176	0xbe0b7dee	-0.13622257
177	0x3da1eb70	0.07906234
178	0x3d8fe5aa	0.07026227
179	0x3d889af8	0.06670183
180	0xbcf2efa4	-0.029655285
181	0x3d7a2ff8	0.061080903
182	0x3d520bbb	0.05128072
183	0x3c8271a8	0.015923336
184	0xbdaf8d45	-0.08571867
185	0xbbe919d8	-0.0071136765
186	0x3bffa4c2	0.007801623
187	0x3c4321d5	0.011909922
188	0xbda7cbcb	-0.08193167
189	0x3d04d358	0.032428116
190	0xbe787a27	-0.24265347
191	0xbdb86b91	-0.09004892
192	0xbd9583d9	-0.073005386
193	0xbe485025	-0.19561823
194	0xbda49e59	-0.08038015
195	0x3d95288a	0.07283123
196	0x3cbdd4e6	0.023172807
197	0xbd92c211	-0.071659215
198	0x3d6db5ec	0.058034822
199	0x3e0f3725	0.1398588
200	0xbd8483e4	-0.06470469
201	0x3e22e0e3	0.159061
202	0xbe148c8e	-0.14506742
203	0xbd876c1d	-0.06612418
204	0x3dc94bf6	0.098289415
205	0xbe49e9d2	-0.19718102
206	0x3d58e6a0	0.052954316
207	0x3dd02ae9	0.101644345
208	0x3b3f6803	0.0029206283
209	0xbdb63dc2	-0.08898498
210	0x3e2f96de	0.17147395
211	0x3cea0be7	0.028570129
212	0xbdb6949e	-0.08915065
213	0x3d181d4b	0.03713731
214	0x3e6ef061	0.23333885
215	0x3d45c5bc	0.048284277
216	0xbd9dd52e	-0.077066764
217	0xbd84ccd3	-0.064843796
218	0x3e6d9e37	0.23204885
219	0xbddc0cf0	-0.10744655
220	0x3d06d30e	0.03291612
221	0x3e047619	0.12935676
222	0xbd68cd66	-0.05683651
223	0xbd9c6134	-0.076357275
224	0x3cd160cb	0.02555885
225	0xbe451011	-0.1924441
226	0xbda0ffeb	-0.078613125
227	0x3c13043c	0.0089731775
228	0xbbed684c	-0.007245099
229	0xbd935662	-0.071942106
230	0xbc24347d	-0.01002228
231	0x3d46d1f1	0.04854006
232	0x3d6974d4	0.05699618
233	0xbd23aff9	-0.039962742
234	0xbe1a751a	-0.15083733
235	0xbda03c69	-0.07824022
236	0xbdd01c99	-0.101617046
237	0xbc7eed1d	-0.015559462
238	0x3dcb5659	0.09928579
239	0x3decc4fe	0.11561011
240	0xbe12d19a	-0.14337769
241	0xbcd04f41	-0.025428416
242	0x3e28db47	0.16489898
243	0xbc2eadfd	-0.010661599
244	0x3d63e209	0.055635486
245	0x3db2c6c1	0.087293155
246	0x3bbb2d7d	0.0057122097
247	0x3d4ca9ba	0.04996655
248	0x3d714b26	0.058909558
249	0xbb344a15	-0.0027509977
250	0x3d7e8809	0.062141452
251	0x3d9c05ee	0.076183185
252	0x3c50ba53	0.012739736
253	0xbd1544aa	-0.036442436
254	0x3bb2b39c	0.00545354
255	0xbbbc5769	-0.005747725

encoder_z0.GRU_update.new_state_net.0.bias f4 [100]
0	0xbc804061	-0.015655698
1	0x3c750647	0.01495511
2	0xbc9673f0	-0.01836583
3	0x3c6828d4	0.01416989
4	0xbc9fc39d	-0.019502455
5	0xbc639769	-0.013891079
6	0x3cc0da58	0.023541614
7	0x3cce4afc	0.02518224
8	0xbc5a5b6e	-0.013327463
9	0x3c0208ea	0.007936696
10	0xbbf9c19d	-0.0076219575
11	0x3cc9838a	0.024598856
12	0xbc95de58	-0.018294498
13	0xbc83986b	-0.01606389
14	0xbc431ec7	-0.011909193
15	0x3c99126d	0.018685544
16	0x3cbe3939	0.023220645
17	0x3c599b94	0.013281722
18	0x3c76dad6	0.015066823
19	0x3c4f3df9	0.012649053
20	0x3c95f7c1	0.018306615
21	0x3c6cd109	0.014454135
22	0x3cce96e7	0.02521844
23	0xbc726b0e	-0.014796032
24	0xbcc6a686	-0.024249326
25	0x3c81e9b8	0.015858516
26	0xbc2a824e	-0.010407044
27	0xbc95f31c	-0.0183044
28	0xbca90274	-0.020631053
29	0x3c23bea6	0.009994185
30	0xbc768c87	-0.015048153
31	0xbc8b4308	-0.016999736
32	0x3c887ab2	0.016660068
33	0xbcaf8b50	-0.021428734
34	0x3cd9d18f	0.026589183
35	0xbc857b2f	-0.01629409
36	0x3c9aa233	0.01887617
37	0x3c9c9075	0.019111851
38	0x3c7733d5	0.015088041
39	0x3cc5c5fd	0.02414226
40	0xbc89689c	-0.016773514
41	0x3c2a196d	0.010382039
42	0x3c8c9dad	0.01716503
43	0x3ce1850e	0.027529266
44	0xbc95b911	-0.018276723
45	0xbcd65e1c	-0.026167922
46	0xbc98a2c2	-0.018632296
47	0xbc61a3ad	-0.0137719335
48	0xbc56dcab	-0.013114135
49	0x3c7b4729	0.01533679
50	0xbc9beb4a	-0.019033093
51	0xbc8a68f8	-0.016895756
52	0xbc97dad6	-0.018536966
53	0x3ca3ff18	0.0200191
54	0x3afb8596	0.0019189592
55	0x3c9115a5	0.017710516
56	0x3c821d44	0.015883096
57	0xba25a1cc	-0.000631836
58	0x3b83bbb3	0.004020178
59	0x3c90cd21	0.017675938
60	0x3c889640	0.016673207
61	0xbcabb89b	-0.02096205
62	0x3cbd84a5	0.023134539
63	0xbcd02a78	-0.025410876
64	0xbcb50851	-0.022098692
65	0x3c154709	0.009111174
66	0x3c9d2e2b	0.019187054
67	0x3c985cd0	0.018598944
68	0xbc2be9f9	-0.010492795
69	0xbc0c6da2	-0.00857106
70	0x3c8d2a07	0.017231954
71	0xbca7d5b8	-0.020487651
72	0x3c7f81b6	0.01559489
73	0x3c86737d	0.016412491
74	0xbc0fbd92	-0.008773224
75	0x3ca1e27f	0.019761322
76	0xbc870ace	-0.016484644
77	0xbca84841	-0.020542266
78	0x3b3050bb	0.0026903588
79	0xbc9f862f	-0.019473163
80	0xbc9a70bd	-0.018852586
81	0xbb489d95	-0.0030611504
82	0x3c9be07a	0.019027937
83	0xbc850bfb	-0.016241064
84	0x3ca9a3f9	0.020708071
85	0x3ce166b3	0.027514791
86	0xbc95e141	-0.018295886
87	0x3c639b4e	0.013892008
88	0x3cb8a6fe	0.022540566
89	0xbcb1ee62	-0.021720115
90	0x3c92a349	0.017900126
91	0x3c30479c	0.0107592605
92	0xbca7de88	-0.020491853
93	0xbcb44693	-0.022006309
94	0x3c9ee171	0.019394608
95	0xbca984fd	-0.020693297
96	0xbcb308a2	-0.021854702
97	0xbcb47658	-0.022029087
98	0x3c95d754	0.018291153
99	0x3cc9ada6	0.024618935

encoder_z0.GRU_update.new_state_net.2.weight f4 [40, 100]
0	0xbdd2b89f	-0.1028912
1	0x3e22423a	0.15845576
2	0xbd8f3edf	-0.069944136
3	0x3e154e20	0.14580584
4	0x3e13d87c	0.14438051
5	0xbc95e3a7	-0.01829703
6	0x3daf5c2d	0.08562503
7	0xbdfac51c	-0.12244627
8	0xbd538fab	-0.051650684
9	0x3c252f7c	0.010082122
10	0xbd960bf7	-0.07326501
11	0xbcd8142d	-0.026376808
12	0xbe1f24e5	-0.15541418
13	0x3d0dee72	0.034651227
14	0x3a72f7c3	0.0009268487
15	0x3d93b2f3	0.07211866
16	0xbc742990	-0.014902487
17	0xbe0d419d	-0.1379456
18	0x3d94547e	0.07242678
19	0x3dc461bd	0.095889546
20	0x3e83bac5	0.2572843
21	0xbdba7974	-0.091051966
22	0x3db65c88	0.08904368
23	0xbd1a5d1a	-0.037686445
24	0x3d86b603	0.06577685
25	0x3dcb2b05	0.09920315
26	0x3d7d633c	0.061862215
27	0x3df2da0e	0.11857997
28	0x3ce81b2a	0.028333265
29	0xbdb34490	-0.08753312
30	0xbd810cac	-0.06301245
31	0x3e1624ca	0.14662471
32	0x3bbcd0d4	0.005762199
33	0x3da46316	0.08026712
34	0xbd43daf1	-0.04781622
35	0xbd93bf76	-0.07214253
36	0x3de5e8eb	0.11226066
37	0x3dfe5bb4	0.12419835
38	0xbd9c9789	-0.076460905
39	0xbd348d99	-0.04408035
40	0x3dc0202c	0.09381136
41	0x3ddf68e2	0.10908677
42	0x3db1ef95	0.08688275
43	0x3e2e8c0e	0.17045614
44	0xbe29481e	-0.16531417
45	0x3e0dc54e	0.13844797
46	0xbc4fc919	-0.012682223
47	0xbd382d52	-0.044965096
48	0x3d140c78	0.036144704
49	0x3d96d7b2	0.07365359
50	0xbde51cf5	-0.11187164
51	0x3dec64f3	0.11542692
52	0x3dc50230	0.09619558
53	0x3da070c2	0.07834007
54	0xbe27657b	-0.16347305
55	0x3e260791	0.16213824
56	0x3dab3752	0.08360161
57	0xbcefe9d0	-0.029286295
58	0x3e6c5474	0.23079091
59	0x3de89605	0.11356739
60	0x3e2c99b9	0.16855516
61	0xbd2a75d3	-0.041616272
62	0xbd4cedaf	-0.05003136
63	0xbd689f97	-0.05679282
64	0x3ea99733	0.33123168
65	0xbc164864	-0.009172533
66	0xbd1b7741	-0.037955526
67	0xbd450523	-0.048100602
68	0x3cf9203a	0.030410875
69	0xbcc6f3c3	-0.024286157
70	0x3bfc4e0d	0.007699734
71	0xbdd0b6d5	-0.101911224
72	0x3d37a794	0.04483755
73	0xbd9382ef	-0.07202708
74	0x3dc682f7	0.09692948
75	0xbd9bc128	-0.07605201
76	0xbe010e85	-0.12603195
77	0xbd9f486d	-0.07777486
78	0xbdd44754	-0.10365167
79	0xbe4a2fc5	-0.19744785
80	0xbe3209a7	-0.17386495
81	0xbdb2d6f2	-0.08732404
82	0x3e2a3609	0.16622175
83	0x3d85dbd3	0.06536069
84	0xbc343d29	-0.01100091
85	0x3d979050	0.07400572
86	0xbc25ebaf	-0.010126992
87	0x3e110390	0.14161515
88	0x3cdbd079	0.026832806
89	0xbd093f3d	-0.033507574
90	0xbc20d819	-0.009817147
91	0xbe685510	-0.22688699
92	0x3d8fbf5b	0.0701892
93	0x3d415cc7	0.04720762
94	0xbdb12c26	-0.08650999
95	0xbce74d07	-0.028234972
96	0xbe204b24	-0.15653664
97	0xbdc33868	-0.09532243
98	0x3e1a2386	0.15052614
99	0xbd89a664	-0.067211896
100	0x3d60d1b6	0.054887496
101	0x3db141ee	0.08655153
102	0xbddedec9	-0.10882337
103	0x3d517042	0.051132448
104	0xbd42bc19	-0.047542665
105	0xbcceda90	-0.025250703
106	0x3deaa923	0.114580415
107	0xbdc4a3d7	-0.096015625
108	0xbcf91449	-0.03040518
109	0x3e2eb94a	0.1706287
110	0xbd533da8	-0.05157247
111	0x3cbdad11	0.023153814
112	0x3d905115	0.07046715
113	0x3dbbbbc0	0.0916667
114	0x3dd8c95d	0.10585282
115	0xbb546f47	-0.003241496
116	0xbd6aa79c	-0.05728875
117	0x3d4d422f	0.050111946
118	0x3d4c8bd1	0.049938027
119	0xbc54cc98	-0.012988232
120	0x3e363c11	0.17796351
121	0x3e0895ee	0.13338444
122	0xbd3efaeb	-0.046626013
123	0xbea49fb8	-0.32153106
124	0x3da35688	0.07975489
125	0x3d2cf95f	0.042230006
126	0x3d1074c4	0.035267606
127	0xbccaab98	-0.024740025
128	0xbd60364d	-0.054739285
129	0xbd4a4d05	-0.049389858
130	0x3d670a9c	0.056406602
131	0x3c2131b9	0.009838515
132	0xbd4fb158	-0.050706238
133	0x3bf0d64f	0.0073497663
134	0x3ca9f377	0.020745976
135	0x3da43df6	0.080196306
136	0x3da85e4c	0.08221111
137	0x3dfd604e	0.12371884
138	0xbdd391d4	-0.10330549
139	0x3d2ae7c5	0.04172494
140	0xbd041745	-0.032248754
141	0xbdc47d8a	-0.09594257
142	0xbcd5840b	-0.02606394
143	0xbc4bf118	-0.012447618
144	0x3d0416e5	0.032248396
145	0x3df650a7	0.12027102
146	0x3d91b314	0.071142346
147	0xbc712838	-0.014719062
148	0x3e310baa	0.17289606
149	0x3ce7378b	0.028224727
150	0xbdf0c9eb	-0.11757263
151	0x3c2dfc47	0.01061923
152	0xbdcb4048	-0.0992437
153	0xbdcb8df7	-0.09939187
154	0xbdb18e03	-0.08669665
155	0xbdbe5d36	-0.09295122
156	0xbd8e5386	-0.069495246
157	0x3c686762	0.014184805
158	0x3ddea281	0.10870839
159	0xbdea7839	-0.11448712
160	0xbe516e8e	-0.2045233
161	0xbdbe1ce5	-0.09282855
162	0x3d85c38b	0.065314375
163	0x3dbcc4ac	0.092172
164	0xbcfef467	-0.0311224
165	0xbc70a30f	-0.014687314
166	0xbda54776	-0.08070271
167	0x3d8955df	0.06705832
168	0x3df2bb5d	0.11852143
169	0x3d47ac1f	0.04874813
170	0x3d6d5df7	0.05795094
171	0x3e09c809	0.13455214
172	0xbe29ac55	-0.16569646
173	0x3dd9755d	0.106180884
174	0xbdd325bd	-0.103099324
175	0xbba73d66	-0.005103755
176	0x3de26d02	0.11055948
177	0x3e3b720b	0.18305223
178	0xbd8c8ddf	-0.06862997
179	0x3d165805	0.036705036
180	0x3d271366	0.040789984
181	0xbcb1b11e	-0.021690901
182	0xbdf41890	-0.119187474
183	0xbc8ff97e	-0.017575022
184	0x3ce8e6f5	0.028430441
185	0x3d33a041	0.043854002
186	0xbd92ddad	-0.071711875
187	0x3e219b06	0.15781793
188	0x3e42d549	0.19026674
189	0xbcb0ebc5	-0.021596799
190	0xbd08fcce	-0.03344422
191	0x3e0c5d2d	0.13707419
192	0xbd1fd399	-0.039020155
193	0xbe0a98c9	-0.13534845
194	0xbc9e19d1	-0.01929942
195	0xbb3f5abf	-0.0029198376
196	0xbcaf1b8e	-0.021375444
197	0xbdfd2b52	-0.12361778
198	0xbe1d5702	-0.15365222
199	0x3e0229e7	0.12711297
200	0x3d937bef	0.07201373
201	0xbd9314d0	-0.07181704
202	0xbe595087	-0.21222125
203	0xbe016cc4	-0.12639147
204	0xbe15a8cc	-0.14615172
205	0xbdbb4a9b	-0.09145089
206	0x3e9baa6a	0.30403453
207	0xbd112863	-0.035438906
208	0xbc7299ab	-0.014807145
209	0xbe2754ff	-0.16341017
210	0xbca02467	-0.019548608
211	0x3e2598d3	0.16171579
212	0xbd749165	-0.05970897
213	0x3cfd1aa7	0.030896498
214	0xbe2e957a	-0.17049208
215	0xbde77680	-0.11301899
216	0x3e82d097	0.25549766
217	0x3d11f737	0.035636153
218	0xbdd7b1a0	-0.10531926
219	0x3d8003ff	0.06250762
220	0x3ccd8f3b	0.025092712
221	0x3c75ad6f	0.014994963
222	0x3d8ba12d	0.06817851
223	0x3e0256d3	0.12728433
224	0xbdc56de2	-0.09640099
225	0xbe26a51c	-0.16273922
226	0x3db86691	0.09003938
227	0x3d11b8e6	0.035576724
228	0xbc98be5f	-0.018645464
229	0xbe6a1ac2	-0.2286177
230	0x3de7e496	0.11322896
231	0x3e413a15	0.18869813
232	0x3c87ff8e	0.01660135
233	0x3d0d1e8e	0.034452967
234	0x3dfa78f6	0.12230103
235	0x3d030d6e	0.03199523
236	0x3dbc60f1	0.091981776
237	0xbdf63967	-0.120226674
238	0x3da5c60b	0.08094414
239	0xbdd3829b	-0.103276454
240	0xbd984a33	-0.074360274
241	0xbd4e06f3	-0.050299596
242	0xbd8a8a4e	-0.06764661
243	0x3e243b1c	0.16038173
244	0xbd6e8898	-0.058235735
245	0xbdd42942	-0.10359432
246	0xbc62a077	-0.013832203
247	0x3ba1b7bb	0.0049352325
248	0x3d7b041a	0.06128321
249	0xbda626d9	-0.08112878
250	0xbc60bf31	-0.013717459
251	0x3c96d52d	0.018412197
252	0x3cd501e2	0.026001874
253	0x3ca6b14f	0.02034822
254	0xbe2453e1	-0.16047622
255	0xbb07339c	-0.0020630127
