generative_ts/saves/250809_105652/model_LS4.pth (torch, 234379 bytes, 259 tensors)

encoder.latent.encoder.weight f4 [16, 1]
00000000: 77ef 5dbc ee25 a4be 54ac 353f 0f83 9abc
00000010: 71bd cf3e ca27 e9bd 8717 78bf e4db d23d
00000020: 76cf 2d3f e6ec e13b f8d4 d8bb 5940 4bbc
00000030: 2716 453f 705d 9b3c 85e0 97bc 92b0 55bd
-0.013545862 -0.32060188 0.70966077 -0.018861322 0.4057422 -0.11384542 -0.969109 0.10295847
0.67894685 0.0068946956 -0.0066171847 -0.012405478 0.76986927 0.018965453 -0.018539676 -0.052170344

encoder.latent.encoder.bias f4 [16]
00000000: 2a8c efbc 2c2d 453f 6e58 2cbe 0bc7 863f
00000010: a9e0 283f 9eac c53f 05b0 c7be 0c56 95bf
00000020: 10d7 55be f170 d3bf 85c5 963f 8786 4dbf
00000030: a735 c63c 5ccf 753f 8bb3 c3bf 9789 d23f
-0.02924164 0.7702205 -0.16830608 1.0529493 0.65967804 1.5443304 -0.3900148 -1.1666884
-0.20882821 -1.6518842 1.1779028 -0.802834 0.024195505 0.9601953 -1.5289167 1.6448239

encoder.latent.backbone.d_layers.0.linear.weight f4 [16, 16]
00000000: 8521 9e3d c708 bb3c 2d5b 30bd 6913 5d3c
00000010: e6a8 0ebe 0767 803e 0e40 563d 2444 71bc
00000020: 395b ee3c 0d48 55bd 5df5 4e3d 17c5 92bd
00000030: b93f 7e3d 48e8 d6be 9d3a f7bb b133 3dbc
00000040: 1641 5c3e 85c4 0c3c ce52 2dbd 4b3a 3cbd
00000050: 06f2 8d3c c397 0ebd f4e5 b8be 9f3f 7ebe
00000060: 317e f1bb dbb5 e1bd 09b4 bdbd 546e 4b3e
00000070: 08e2 c03e 8a25 2abe 8067 ca3d 2f59 d13d
00000080: 356d 173e 9c45 a2be e366 9e3e 63b6 36be
00000090: ad05 583e c7fe 78be 659f acbe a6ed 9b3d
000000a0: 01ce d93e 9d4f b83e 3aa4 93be b7ae 1c3c
000000b0: 43bc 8c3e a28c c3be ad15 3c3e 71f3 94be
000000c0: e27c 4b3e e678 263c 1e14 2f3e 1ae6 c13d
000000d0: 453c 213d 28ee 483e cfec bdbe 237e 8dbe
000000e0: d78c 78bc 68ca 2abe 3e8d 47be 08ff 76bd
000000f0: 8354 223e eada 5a3e 6f67 febd af31 033e
00000100: 43a9 c0bd 3b5d 91be bdb2 47be 48e1 bbbe
00000110: d987 23be dd1a 64be cb8c 973e 3ec3 b13e
00000120: a701 5b3c 47b9 ff3e 5556 b6be a227 5ebd
00000130: a6aa 763d e625 65be 9270 f23e 82c8 a7be
00000140: 39e4 25be 1f45 943e da4c 38be 8ca0 283f
00000150: 50ab 943d ce63 f73e 852e 13bd b22a e1be
00000160: 7e06 19be 67ae 03bf 7c93 263f c918 05bf
00000170: 9882 fe3d 775c 223f 0c40 1abf 4236 b43e
00000180: 3e70 00be dcb8 41be 9907 64bc f909 18bf
00000190: fa4f 28bc 83a7 68bf acc8 bcbb 96c6 523f
000001a0: fffa 61be 4247 5a3f 669f 6fbf 3f5a 0e3f
000001b0: 9f99 8f3d f87a 67bf a1e0 633f ae08 97bf
000001c0: 5952 babd 7654 8a3e d6d2 b5bd 535c 4fbe
000001d0: 67c1 bcbd 89a1 6cbe 65bd 523e 7811 e13e
000001e0: 3921 843d 8578 703e b5f8 eebe 2f4e 053f
000001f0: dbab 0c3e eebe 9bbe c362 473e 60b6 283d
00000200: 71bc 4ebd 07b1 0c3e 2b6e 3dbe 73bc 213e
00000210: 4dbf 0e3e 2dad 1c3f c688 23be b309 5dbe
00000220: bdf0 1dbe 68b1 59bf 87cf 023e f337 5abe
00000230: 7246 17be b4ce 083f f777 b2be 8961 523f
00000240: 005e 4d3d df6f 223e 589c a9bd a1c9 78bd
00000250: 76e1 5fbe 7cc2 123e 798e 8e3e 1dd0 06be
00000260: 97ec 21be cbc1 d6be 30b6 993d a5c0 913d
00000270: 424d 9d3d e6f8 f43e 01d5 a5be 61b8 5d3e
00000280: 1e24 ec3e d1b5 893b f1af 87bd 6304 af3e
00000290: 7979 993d efc6 c23e 8fa9 243e 541e 25be
000002a0: c45c 91bd 01a9 c43c 5db1 933e 8026 6f3c
000002b0: 12ec 1cbd 7e9e ab3e 382d cdbe 92be e93e
000002c0: f079 60be e69c 3f3d 8763 eabd f2f9 cabe
000002d0: 02f8 1abe 1622 dfbb 4a70 55be 948e 813e
000002e0: f0aa bfbd 4674 933e 928d 14be 2d63 d4bb
000002f0: 08f4 6a3e add8 b8be d4c3 593e 3725 17bd
00000300: b91e 213e e58c 17bc 9897 efbd 1f9b 77be
00000310: b869 86be 3081 7cbe e66d 9b3e 6d6a 8a3e
00000320: 0477 4ebe 5052 7b3e c058 3abe 7530 4a3d
00000330: a276 60be 66ec 0abf 48b5 db3e a32c 78be
00000340: 2dbd 933c 8df6 863e 52a1 b4bc 41c3 3b3d
00000350: 8b17 87bd 8ed4 013e 4e20 8ebd 8454 183e
00000360: 4f1a e7bd 7e26 40be 822a ed3d cbb2 e5bd
00000370: ef3b 05be 8d89 c83e d863 96be 9c4d 273d
00000380: 874e db3b b561 5abd 5190 f6bd d55d f93d
00000390: 60cd de3d 9f8e c03e 98fc 803d 5c53 52bc
000003a0: 33a2 573d 2a83 363e 974b 823e cc8c 9a3d
000003b0: f6ff de3d f850 23bd 477d 12be e0cc 84bd
000003c0: b266 db3d ac05 a13e 5704 bfbe 4b3b 7c3c
000003d0: 9bf9 02bf 461a 183e 3bd9 d93e 1057 4abe
000003e0: f2d8 08bf 2b8c 923e f1fc 2cbe 6dbf 1fbc
000003f0: 23bc e5be 5b88 5bbe cec8 a9bd 7d9c 12be
0.07721237 0.022831334 -0.043055702 0.013493397 -0.13931617 0.25078604 0.05230718 -0.014725719
0.029096233 -0.052070666 0.050526965 -0.07166498 0.06207249 -0.41974092 -0.007544829 -0.011547969
0.21509203 0.008591776 -0.042315297 -0.04595403 0.01732732 -0.0348127 -0.3611294 -0.24828957
-0.0073697795 -0.11021014 -0.092628546 0.19866306 0.37672448 -0.16615883 0.09883022 0.102220885
0.14787753 -0.31693733 0.3093787 -0.17843013 0.21095915 -0.2431594 -0.33715358 0.07613687
0.4253998 0.3599824 -0.28836232 0.00956314 0.27487382 -0.38193232 0.18367644 -0.2909198
0.19871858 0.01016066 0.17097518 0.094677165 0.039364118 0.196221 -0.37094733 -0.27635297
-0.015170298 -0.16678774 -0.19487473 -0.06030181 0.15852551 0.21372572 -0.12422072 0.12811922
-0.09407284 -0.28391442 -0.19501777 -0.36695313 -0.1596979 -0.22275873 0.29599604 0.3471927
0.013367093 0.49946043 -0.3561274 -0.054237016 0.060221337 -0.22377738 0.4735151 -0.32770163
-0.16200341 0.28958985 -0.17998067 0.65869975 0.07259238 0.48318332 -0.035933036 -0.43977886
-0.14943883 -0.5143799 0.65068793 -0.51990944 0.124272525 0.6342234 -0.6025398 0.35197645
-0.12542817 -0.18918175 -0.013917827 -0.5939022 -0.010272974 -0.908806 -0.0057612266 0.8233427
-0.22068404 0.8526498 -0.936026 0.55606455 0.07011723 -0.9042201 0.8901463 -1.1799524
-0.09097738 0.27017564 -0.088781044 -0.20250063 -0.09216576 -0.23108496 0.20580061 0.4395864
0.06451649 0.23483475 -0.46674123 0.52072424 0.13737433 -0.30419105 0.19471268 0.04118955
-0.05047268 0.13739406 -0.18499057 0.15794544 0.13940163 0.61201745 -0.15970144 -0.21585731
-0.15423866 -0.85036325 0.12774478 -0.21310405 -0.14772967 0.53440404 -0.3485715 0.82180077
0.050138474 0.15862988 -0.08281773 -0.060739163 -0.2186335 0.14332002 0.27843073 -0.13165326
-0.15812908 -0.41944727 0.07505453 0.07116822 0.076807514 0.47846144 -0.32389072 0.21652366
0.46121305 0.0042025824 -0.06625355 0.34183034 0.07493872 0.380424 0.16080306 -0.1612485
-0.07097772 0.024006369 0.28846255 0.014596581 -0.03831107 0.33519357 -0.40073562 0.45653206
-0.21921515 0.04678049 -0.114447646 -0.39643818 -0.1513367 -0.0068094833 -0.20843616 0.2530409
-0.093587756 0.28799647 -0.1450713 -0.0064815492 0.22944653 -0.3610281 0.21266109 -0.036900725
0.15734376 -0.0092499005 -0.11698836 -0.24180268 -0.26252532 -0.24658656 0.30357283 0.2703432
-0.20162588 0.24543118 -0.18197918 0.04936262 -0.21920255 -0.54266965 0.42911744 -0.24235778
0.018034542 0.26359978 -0.02204958 0.045840506 -0.06596287 0.1267874 -0.069397554 0.1487599
-0.11284315 -0.18764684 0.11580373 -0.11215743 -0.13011144 0.39167443 -0.2937305 0.0408455
0.006692711 -0.053315837 -0.12039245 0.121761 0.10879016 0.3760881 0.062981784 -0.012837257
0.05264492 0.17823473 0.25448295 0.07546386 0.108886644 -0.03987214 -0.14305602 -0.06484389
0.10712947 0.3144964 -0.37308 0.015394996 -0.5116212 0.14853773 0.42548546 -0.19759774
-0.5345603 0.28622565 -0.16893364 -0.009750229 -0.448701 -0.21438734 -0.082902536 -0.14317508

encoder.latent.backbone.d_layers.0.linear.bias f4 [16, 1]
00000000: 68ab 03bf d7a2 f9bd 4a5f 30bf 9d9d d33e
00000010: 5812 abbf 28a1 293e ad3f 8cbf 7019 393f
00000020: f3f8 b13f 8549 2e3e 8a0a 103f 960a 41be
00000030: da65 c4be 74ab 3b3e 5729 ab3e 1bb9 26be
-0.5143342 -0.12189262 -0.688954 0.41331187 -1.3364973 0.16565382 -1.0956932 0.7230444
1.3904098 0.17020233 0.5626608 -0.18851694 -0.38358957 0.18327123 0.33429977 -0.1628155

encoder.latent.backbone.c_layers.0.layer.D f4 [1, 16]
00000000: c25c e53f 8827 95bf 597e 3dbf c68d 833f
00000010: c805 883f 2e21 b73f e478 8940 9c63 f43f
00000020: abaa 2040 5e39 89bf 3f31 bdbf d1e9 d53f
00000030: cd62 8bbf 9c63 d5bf 2f8f 743f 0591 24bf
1.7918932 -1.1652689 -0.74020916 1.0277641 1.0626764 1.4307001 4.296007 1.9092898
2.5104167 -1.0720632 -1.4780654 1.671198 -1.0889527 -1.6671023 0.9553098 -0.6428378

encoder.latent.backbone.c_layers.0.layer.kernel.kernel.C f4 [1, 16, 8, 2]
00000000: bf49 36c0 7e6f 493f 9651 b1bf 047c 8dbe
00000010: 2965 1cbd 0539 0f3f 9fb3 0bbf 722c c83e
00000020: 1368 e83d f3cc 8fbf 8db4 42bd 2535 6ebe
00000030: 9f45 303d 2e6a 6ebe d048 44be 12df b03d
00000040: 2bdf 5940 d17f 9b3e 7a90 993f 137f d13f
00000050: da75 aebe 048d ae3f fc5a 473e 4dac 813f
00000060: 0990 d73f 058f 033f e2bc 1dbf a197 dd3e
00000070: 3d2a 10bf a787 21bf 9abe cb3e 280d 333e
00000080: 3b22 133e 2419 ca3d bded 223f 422a ba3e
00000090: cd36 8f3f 60e4 72bf c4f6 8f3f df5e 6cbe
000000a0: 7e51 cc3e 1b01 b8be fe8c 42be 5f04 ed3e
000000b0: 82ec 0cbf f83e 023f 88bd 7a3e f2da 7ebd
000000c0: f5be d13e fad4 0c3f ae19 763f de39 ad3f
000000d0: e636 4e3e 6cab a23f 19d8 923d a00c 673f
000000e0: f620 f23e 6eba 8bbf 0d63 cebe 1f9f 5abd
000000f0: 753d 3abf cea1 4fbd 0c3d dcbd 9cb5 94bd
00000100: 0b2b 33c0 cb50 10bf ebbb e3bf 1514 8b3e
00000110: e246 9ebf 54ae 503f 162d b0bf 4fc7 463f
00000120: 7e13 8fbf 7c0b 943e fecf fc3f 9add 5fbf
00000130: 16af a2bf 2134 c53f b95f 14bf 5d8d 02bf
00000140: 277e 0bc0 a297 713f 28df ffbd f2bd cc3f
00000150: 8ad7 5c3f 72e8 c03f 2e63 29bf 4d4e a43e
00000160: 19c0 043f f131 f03e 8e99 42bf d0a1 57bf
00000170: edd3 203f 46d6 073d 6ff0 273e 2153 d93e
00000180: 1113 86c0 d58e 773e bee1 0dc0 2822 153e
00000190: d449 3d3e 4989 213f 3309 27be c2e7 b8bc
000001a0: 2b14 f43d 9750 1bbf a042 c7bd 4bd5 39be
000001b0: cb79 02bf 69f1 40be c3fe 62be 3c5d bb3e
000001c0: e0d3 05c0 ef7a 8c3e cc7b a1bf 83bf b4bf
000001d0: 2c2b b8bf 23ca 413f efdd 16be 2218 513f
000001e0: 4cde a7be 4442 81be 210b 08be 5128 4bbf
000001f0: 0273 f1be 5119 403d f366 54be 6a1c bb3e
00000200: 9d7a 21bf b051 be3c b131 a7bf a1c5 d7be
00000210: 00d1 04bf 4888 de3c ff8e fabe 8ed4 e43c
00000220: 98ae b0bf 919c 873e 44ab 183e 7ae4 1bbe
00000230: 2075 eb3d af2b 943c e955 88bc b40f 6dbd
00000240: d314 b03d 391b 0f3e da7b 4f3d 3316 e73e
00000250: 3671 e9bf ec3e 90bf 435d 93bf a0da 173f
00000260: 886b bb3f e767 30be 735c 323f 73a1 8ebe
00000270: 8822 b9be b641 3b3f 86c0 843e 8844 e1bf
00000280: b8b7 77bf 2e88 55bf fb47 f1be d648 12bf
00000290: 2e09 ccbe e9b2 74be 10b6 53be befe 0fbf
000002a0: 38aa 2c3f 9cb0 933e 784e ab3e adf6 a33c
000002b0: 499a 823e 59b4 18bd 38d1 0cbe e121 9ebd
000002c0: 3e78 fabe f0b6 b3bf a794 a13e 8d41 a63e
000002d0: e333 3e3f 7aa6 adbe bc40 1140 cf66 073e
000002e0: e33f d33d 476c 1c3f 2acd 1e3e 8f7a 913e
000002f0: 55c5 cd3d 118f b43e 5a27 173f d954 85be
00000300: 642d b73e 3154 0b3f 983c 11be 89f6 82bf
00000310: 74c3 9cbf 3b38 f3be cbba 963f 1bd5 de3e
00000320: 2006 dcbe b491 ebbe aefd 8bbe 83b3 5fbd
00000330: 2330 243e 1749 5d3f d451 c8be 2a60 46bf
00000340: 2839 863f 4d20 09c0 5afe 0540 9ed2 febf
00000350: dd2a 4fbf 4210 22c0 db86 48bf 7374 013f
00000360: 8bb0 e9bf 60d9 80bf af13 cbbf 5815 a63f
00000370: bdc1 48bf 0205 623f 8c99 f93e 0479 c4be
00000380: 3904 623d 0ef7 013e e910 4e3f c3a0 54bf
00000390: ed9c b6be d97f c63e 2b83 893e a305 ba3d
000003a0: fce5 703e 3654 953f e1fe 013f 6a9f 113e
000003b0: aab9 a2bf 4953 a33f fbe6 bcbf 63fe 123f
000003c0: b3b5 90be 70fa f73e 4289 7dbe 49af d7be
000003d0: de5e 993d 459a 89bc 767c 95be 7686 f0bc
000003e0: 04fb 92bf 69e7 8cbb a014 27bf c340 20be
000003f0: cb3a 203f 8dc1 babf 6a60 803e 82e1 a53f
-2.848251 0.7868575 -1.3853023 -0.2763368 -0.03818241 0.5594638 -0.54570955 0.3909641
0.113479756 -1.123442 -0.047535468 -0.2326246 0.043035146 -0.23282692 -0.19168401 0.08636297
3.404246 0.30370954 1.1997216 1.6366905 -0.3407429 1.3636785 0.19468302 1.0130707
1.6840831 0.51390105 -0.6161634 0.43279746 -0.5631445 -0.63097614 0.39793855 0.17485487
0.14368527 0.098680764 0.6364401 0.36360365 1.1188599 -0.9487972 1.1247182 -0.23083065
0.39905924 -0.35938343 -0.18999097 0.46292397 -0.5504838 0.5087733 0.24486363 -0.06222052
0.40966 0.55012476 0.96132934 1.3533285 0.2013813 1.2708564 0.071701236 0.9025364
0.47290772 -1.0916269 -0.40309945 -0.053374406 -0.72750026 -0.05069142 -0.10753831 -0.07261202
-2.7995021 -0.5637328 -1.7791723 0.2716376 -1.2365382 0.81516004 -1.3763759 0.7764787
-1.1177824 0.28915012 1.9750974 -0.8744751 -1.2709682 1.5406533 -0.5795856 -0.50996953
-2.1795747 0.94372 -0.124937356 1.5995467 0.86266387 1.5070937 -0.6616696 0.3209099
0.5185562 0.46913102 -0.76015556 -0.8423128 0.62823373 0.03316333 0.16400312 0.42446235
-4.1898274 0.2417558 -2.2169032 0.14563811 0.18485194 0.63100106 -0.16312103 -0.022571448
0.11917909 -0.60669845 -0.097295046 -0.18147771 -0.5096709 -0.1884209 -0.22167496 0.3659457
-2.0910568 0.2743754 -1.2615905 -1.4120945 -1.4388175 0.7569906 -0.14733098 0.8167745
-0.32786787 -0.2524587 -0.13285495 -0.7935839 -0.47158056 0.046899144 -0.20742397 0.36545116
-0.6307772 0.023232311 -1.306204 -0.42142966 -0.5188141 0.027164593 -0.48937222 0.027933385
-1.3803282 0.26486638 0.14909083 -0.15223876 0.11496949 0.018087236 -0.016642528 -0.057876304
0.08597722 0.13975228 0.050655223 0.45134124 -1.8237674 -1.1269202 -1.1512836 0.5931797
1.4642191 -0.17227136 0.69672316 -0.2785755 -0.36159158 0.7314714 0.25928134 -1.7599039
-0.9676471 -0.8341092 -0.4712523 -0.5714239 -0.39850754 -0.23896374 -0.2067492 -0.5624808
0.67447233 0.2884568 0.33458304 0.020015085 0.25508335 -0.037281368 -0.13751686 -0.07721306
-0.48919863 -1.4040203 0.31558725 0.32471886 0.7429792 -0.33916074 2.269576 0.13222812
0.1031492 0.6110272 0.15507951 0.28413817 0.10047404 0.352654 0.5904442 -0.26041296
0.35776818 0.5442534 -0.14183271 -1.0231487 -1.2247148 -0.47503838 1.1775755 0.43521962
-0.42973423 -0.460096 -0.2734198 -0.054614555 0.16033988 0.8643965 -0.3912493 -0.77490485
1.0486193 -2.1425965 2.0936494 -1.9908025 -0.8092478 -2.5322423 -0.78330773 0.5056831
-1.8257002 -1.0066338 -1.5865382 1.2975264 -0.7842062 0.8828889 0.4874996 -0.38373578
0.05517981 0.126919 0.8049455 -0.830578 -0.356666 0.38769415 0.26857886 0.09083106
0.23525232 1.1666324 0.5077954 0.14220968 -1.271291 1.2759792 -1.475799 0.57419413
-0.28263626 0.48433256 -0.24759391 -0.4212592 0.074887976 -0.016797194 -0.2919652 -0.029360991
-1.1482854 -0.004300047 -0.65265846 -0.15649705 0.6258971 -1.4590317 0.25073558 1.2959445

encoder.latent.backbone.c_layers.0.layer.kernel.kernel.log_dt f4 [16]
00000000: 0bfc c4c0 788d abc0 e10a 7fc0 5d9c 31c0
00000010: 692c 86c0 c75f abc0 6697 9bc0 b95a ddc0
00000020: 78ed c6c0 5e89 37c0 01cb 2dc0 9934 d9c0
00000030: d332 abc0 6f38 9fc0 0bb6 a3c0 55ed fbbf
-6.155767 -5.361019 -3.985039 -2.7751687 -4.192921 -5.3554416 -4.8622313 -6.9173245
-6.216488 -2.8677592 -2.7155154 -6.7876706 -5.349954 -4.975639 -5.115972 -1.9681803

encoder.latent.backbone.c_layers.0.layer.kernel.kernel.B f4 [1, 16, 8, 2]
00000000: 0265 46bf 9e1d 1bc1 cebd 02bf 8fc4 4cc0
00000010: b0ef b9be 087e 86bf 4cde 38be 3f97 b0bf
00000020: 9c50 8d3d dcd1 a23f f933 a33e e987 163f
00000030: 75d6 c53e af0b 033f e42c 1fbf 2666 53bd
00000040: 4fb5 05bf 3f2b 20c1 7459 c53f 1f8b 60c0
00000050: b716 fb3e d292 2bc0 8fb4 9cbd e333 debf
00000060: d514 1c3f 60cf d53f 4a17 ddbe c570 963f
00000070: ec17 8e3f e2b9 303f 7142 8fbf eaa5 48be
00000080: aab5 d33d cdad 2ac1 4a1c cd3c 3fe9 7ec0
00000090: b3b0 c13e 3a6b 08c0 0a73 e93d e6f5 d2bf
000000a0: 8caf 233e 8dc3 9a3f 3631 d8bd 069d 6c3f
000000b0: 12a7 c1bd 5168 373f f495 21bf 45bd cbbe
000000c0: ec53 243e b97c 20c1 beab 003f 362f 5fc0
000000d0: 3e34 5c3f 3e90 0dc0 28af 5f3f f3e8 c9bf
000000e0: 6bc9 7fbe e7b9 aa3f 1574 a9be 57ea 4a3f
000000f0: 7623 753e 123e 383f cee3 fdbe 0055 dabe
00000100: 38ae e1be eccd 2ec1 b702 853f 0936 5ec0
00000110: 5cdb 7dbe 00b6 cdbf 4cc9 4e3d 3396 bdbf
00000120: c94e 1b3f d471 c93f d19a fdbe 3c47 193f
00000130: 72e1 b13e b99f 9c3f c787 34bf 139b 9cbe
00000140: 49b5 fcbe 04c4 2ac1 7fbf c23e 7045 78c0
00000150: 5b54 fb3e 8592 14c0 b430 1ebf 499a 01c0
00000160: ff54 0f3f 1521 753f c668 60be ebe5 e33e
00000170: a3ca 003f ce8d 623f 065f 14bf 3c2b 58be
00000180: cb46 47bf a1b3 2fc1 eecf 01bf 3c99 7fc0
00000190: c8f9 6e3e 8e26 f7bf 0121 1dbf 9407 41bf
000001a0: 3515 30be 2442 ae3f f750 783d 97a5 2b3f
000001b0: ef64 ac3d b42f 0b3f 3571 bbbe e9f5 0cbf
000001c0: ef21 e4bd bef6 25c1 b152 50be fe86 73c0
000001d0: 0011 393e df48 14c0 e616 073e 7681 d2bf
000001e0: d390 25bd 3b11 823f accd 9ebc ba1d 813f
000001f0: 3f80 943e db66 193f 43bb 43bf 3d2c 06bf
00000200: 86ea a23e f5f7 1ec1 0557 543e bfc5 3fc0
00000210: dae6 df3e 7260 e7bf dcc2 2a3d ae45 b4bf
00000220: 41c3 1e3f b29a b73f 7580 9e3e b20c 5f3f
00000230: f440 183f b288 2c3f da3f 06bf c4f5 793e
00000240: 3750 99be 9548 2ac1 70c7 9dbe c43d 36c0
00000250: 6ea2 033f 6f82 1fc0 a216 b03e 375a 95bf
00000260: c743 adbe cafd 4a3f 4d73 8c3d 5496 1e3f
00000270: 54ca 943e 8a29 863f 04ea ec3e 966d 2bbf
00000280: d646 853e f629 24c1 f75e 25bf 4438 65c0
00000290: aad3 9dbe dc8e 03c0 1c94 b4be c4f8 e4bf
000002a0: 932a b0bd 0ca2 9f3f ddb2 3d3f e442 893f
000002b0: 9d1e ef3e 8b47 653f 7b51 10bf b4c0 8fbe
000002c0: 94de 5c3e 886a 16c1 34cc eebe 13f2 17c0
000002d0: 8a7e d8be 9852 04c0 d3bc c3be ec65 e8bf
000002e0: 4f62 f23d 5924 a53f 6759 183e 594f c83e
000002f0: c0ba 943e 0560 113f f581 4fbf e6f3 03bf
00000300: ceda 253e ad5b 1dc1 0227 5b3f 883a 64c0
00000310: 08cb 9e3e 09d2 53bf 588e acbe 57fb d2bf
00000320: 98ce 9b3e 4010 903e f773 4d3e e366 063f
00000330: cae1 3a3d 7bb8 b03e fc2f 76be 3328 163e
00000340: 4db5 14be f148 2ac1 3e82 5ebe c355 86c0
00000350: 3f9c d23b cd60 a9bf 2b60 efbe 561b bcbd
00000360: b8fc e73e a0c2 da3f c247 45bf c880 ac3f
00000370: b569 413d c15b 893f a02f acbe 52c6 2abf
00000380: d987 da3e 6efe 19c1 6a9f 27be e74b 55c0
00000390: 1d71 0a3e 7b0e d7bf af57 20be 693a 91bf
000003a0: 8a6a e13c 546e b03f fef5 8cbd 8d4c 723f
000003b0: 668d 413e 2a51 4e3f 5a8b 24bf 85e4 c3be
000003c0: 2fed 11bf bd32 24c1 f005 d9be 67e5 15c0
000003d0: 0d5a aabe 40e9 c4bf 05f3 c2be 3161 a5bf
000003e0: 675a 6a3d 8e79 183f a9ba 513e 0d0e 933e
000003f0: 6db0 863d 47b4 a13f f058 3d3e d38a 86bf
-0.77497876 -9.694731 -0.5107087 -3.199497 -0.3631568 -1.0507212 -0.1805355 -1.3796157
0.06900141 1.2720294 0.3187559 0.5880113 0.3864018 0.511897 -0.6217787 -0.05161109
-0.5222978 -10.010558 1.5417924 -3.5084913 0.49040768 -2.6808362 -0.07651626 -1.7359585
0.6096929 1.6703911 -0.4318183 1.1753165 1.110105 0.69033635 -1.1192151 -0.19594541
0.10337384 -10.667432 0.025037903 -3.9829862 0.37830123 -2.1315446 0.11398895 -1.6481292
0.15984935 1.2090927 -0.10556261 0.924271 -0.09455694 0.7164355 -0.63119435 -0.3979284
0.16047639 -10.03045 0.5026206 -3.4872565 0.86017215 -2.2119288 0.8737664 -1.5774215
-0.24979179 1.3337983 -0.33096376 0.79263824 0.23939309 0.7196971 -0.49587864 -0.42642975
-0.4407823 -10.925274 1.0391454 -3.472048 -0.2479071 -1.6071167 0.05048494 -1.4811462
0.6066709 1.5737863 -0.49532178 0.5987432 0.34742314 1.2236243 -0.7051968 -0.30587062
-0.4935706 -10.672855 0.38036725 -3.8792381 0.49087796 -2.3214428 -0.61793065 -2.0250418
0.5598907 0.95753604 -0.21914968 0.4451135 0.503092 0.88497627 -0.57957494 -0.21110243
-0.77842396 -10.981355 -0.507079 -3.9937277 0.23337471 -1.9308641 -0.61378485 -0.7540219
-0.1719559 1.3613935 0.06062409 0.67049545 0.08417689 0.54369664 -0.36609808 -0.5506273
-0.11139285 -10.37274 -0.20344044 -3.8051143 0.18072891 -2.3169477 0.13192329 -1.6445758
-0.04042132 1.0161508 -0.019385181 1.0087197 0.29004094 0.5992257 -0.76457614 -0.5241125
0.31819552 -9.935536 0.2073632 -2.9964445 0.43730813 -1.8076308 0.04168974 -1.4083765
0.62016684 1.4344084 0.3095738 0.87128747 0.5947411 0.6739608 -0.5244118 0.24410158
-0.29944012 -10.64272 -0.3081622 -2.8475199 0.51419723 -2.492336 0.34392267 -1.1668156
-0.33840773 0.792935 0.068579294 0.6194813 0.29060614 1.0481427 0.4627229 -0.6696409
0.26030606 -10.260244 -0.6459803 -3.5815592 -0.3082555 -2.0555944 -0.35269248 -1.7888417
-0.086018704 1.2471328 0.7410105 1.0723538 0.46703044 0.8956229 -0.5637433 -0.28076708
0.21569282 -9.401009 -0.4664017 -2.37415 -0.42284042 -2.0675411 -0.3823 -1.8156104
0.11835157 1.2901717 0.14877854 0.39123037 0.2904873 0.5678714 -0.81057674 -0.51544034
0.16196749 -9.834882 0.85606396 -3.5660725 0.31014276 -0.82742363 -0.3370235 -1.6482953
0.30431056 0.28137398 0.20063768 0.5250074 0.045625485 0.34515747 -0.24041742 0.14663772
-0.14522286 -10.642808 -0.21729371 -4.197969 0.0064273174 -1.3232666 -0.46753058 -0.091849014
0.45309997 1.7090645 -0.7706262 1.3476801 0.04721995 1.0731126 -0.33630085 -0.6670886
0.4268177 -9.624617 -0.16369405 -3.3327577 0.13519712 -1.6801294 -0.15658449 -1.134595
0.027516622 1.378367 -0.06882857 0.9464806 0.18901595 0.80592597 -0.64275134 -0.38260284
-0.5700254 -10.262387 -0.42387342 -2.3421266 -0.33271828 -1.5383682 -0.38076034 -1.2920285
0.05721512 0.5956048 0.20481361 0.28721657 0.06576619 1.2633141 0.18490958 -1.0511116

encoder.latent.backbone.c_layers.0.layer.kernel.kernel.P f4 [1, 16, 8, 2]
00000000: 202e 8ebe bda6 cdc0 c75f d43d e589 9dbf
00000010: d959 cebe d093 03c0 b8e0 2cbf 7188 97bf
00000020: 612f d33d ce97 a73f f6e4 1abe 7bcf 3b3f
00000030: 7f98 f7bc e6b0 313f d223 27bf 1def dfbe
00000040: 28a5 cb3e ff32 02c1 9ae2 adbf a25d 4fc0
00000050: 6294 70bf 6847 9bbf 9edc 74bf 485f adbf
00000060: 34c9 22be c3e8 6b3e 50d1 05bf 1963 a63f
00000070: 2d64 9a3f 4f6e 3f3f 8fbc 33bf da44 32bd
00000080: d33d 55be 76c7 e5c0 02d0 44be a3b2 18c0
00000090: bdc9 c2bf 4e20 d6bf b8f3 1cbf faa8 98bf
000000a0: 326c 01bd f8c5 4b3f e81c 433e a12e aa3f
000000b0: c6f3 073f a66c 783f fdcf 3dbf a97e d7be
000000c0: 703e b83d dbc0 ebc0 6067 71bf 2c4f 3cc0
000000d0: 4124 86bf 0075 d6bf 14d7 45bf f858 a1bf
000000e0: b52b 583f b499 7a3f bcef 06bf 8b4c 8a3f
000000f0: 0b53 28bf 5265 223f 0096 fdbe 3360 f93c
00000100: 1d5c 073e b059 bdc0 8c5c 6a3e e350 36c0
00000110: c6f4 883e 36da edbf 51e9 9a3e dcc2 e8bf
00000120: bab5 aebe 3312 573e 3bff 19be 309b b63f
00000130: 6e1f 4d3f 4c15 073e d3bd 4fbf b147 06bf
00000140: df6f 093e 1d76 d5c0 f0e9 e4be 08f4 17c0
00000150: 8ebd 29bf a1fb 00c0 3c88 0c3f b474 8fbe
00000160: c5bb eabe 73c3 403d fffe 553f 7a3d 963f
00000170: c6e6 39be 0820 98be 71c1 77bf 0c23 debe
00000180: 3fd0 cdbc 6b05 c8c0 384b 4cbd 433a 00c0
00000190: 26aa 0bbe 9110 e2bf 7872 1a3e 98df 5fbf
000001a0: 25a9 ef3e e649 743f e9d3 c53d 395e 883f
000001b0: e3d9 3e3e 666f 693f be3e 9fbf 9299 c2bd
000001c0: 75de 943d 07bf e5c0 1047 963d 99af 14c0
000001d0: ff7a 14bf 368e b3bf 12ed 05bf 71ca a2bf
000001e0: a374 c7be dd1f 933f 1a31 e63e 206b b43f
000001f0: 4a5d 463d 94ed 553f 223e dfbe e0fb 18be
00000200: ce04 eebe 41f0 f5c0 5ec6 abbe c56c 37c0
00000210: 8772 efbe 718c fbbf 45fc 08bf d361 aebf
00000220: 0e5f 633e 07e9 3b3f 3f42 6fbc 1b7b 753f
00000230: db87 113f 716d 523f 89bd 14bf e48e c63d
00000240: 107a 373e c230 cfc0 80ad 4e3e 6bf7 ebbf
00000250: fcb0 68bf 1b9f cebf e726 143c 9202 cdbf
00000260: 1ad7 5e3e 5766 ae3f 20f7 043e 4492 7c3f
00000270: 2a06 ea3e c5ba 25be 8e10 38bf 8f04 35be
00000280: 1868 98be 97b2 e7c0 a241 4ebe 96a2 0ac0
00000290: d183 333d 3946 b0bf df3e f7be c131 68bf
000002a0: a49a c23e f41f cd3f b2de 2b3e 1793 ac3f
000002b0: d540 07bd a8d4 843f c1d3 babe 1aae 05bf
000002c0: 6cac 67be 88aa ddc0 58e6 a43e 148c dbbf
000002d0: f77a 8abe 1de9 94bf 1467 aabf 88a4 58bf
000002e0: 60e3 d23e 7abd ec3f 246c 0bbe 3928 ce3e
000002f0: ffa1 903d de2d 203f 00c8 06c0 63f6 18bf
00000300: 03a5 60be 53c8 d0c0 9bd9 86bf b563 19c0
00000310: 865a 42bf d01a 1cc0 97d5 933d 4221 133f
00000320: 86fc 83be a91b c9be abe8 9dbe 730c dfbe
00000330: 19a0 b73f 6976 0b3f 8d95 e9be c276 a1bf
00000340: 27e7 f23d ae26 b4c0 9d5f 52bf 268b eebf
00000350: 94ee 2d3e dc47 24c0 7122 4b3f 4088 82bf
00000360: 36c2 163d eb76 f9be c296 573f c2ff c63e
00000370: 7a23 373f 1ff5 21be 3e25 29bf 2a65 8f3e
00000380: 190d 46bf e2fc 05c1 56c8 eb3c f6dc 20c0
00000390: 8fd0 36be e1fc 38c0 5bf9 f53e caed b6bf
000003a0: 7e06 443e 53b7 3b3f bee8 2f3f 23fc 553f
000003b0: 5af5 543e 2649 213f 4a2c b4be 4fd4 74be
000003c0: 12dc ce3e b1c8 ccc0 4975 c33e d934 02c0
000003d0: b444 a03e fd19 7dbf 3c6b ae3e 2a35 2bbf
000003e0: 41c5 7f3e b842 c03f 52b1 9a3e 12c6 803f
000003f0: 24fd 2c3f 1fe6 883d 20e9 98be a862 52bd
-0.27769566 -6.426604 0.103698306 -1.2307707 -0.40302923 -2.0558968 -0.67530394 -1.1838514
0.10311771 1.3093202 -0.15126404 0.73363465 -0.030224083 0.6941055 -0.6528903 -0.43737116
0.39774442 -8.13745 -1.3584778 -3.24009 -0.93976414 -1.2131166 -0.95649135 -1.3544703
-0.15897065 0.2303801 -0.5227251 1.2998992 1.2061821 0.7477769 -0.7020959 -0.043522693
-0.20824365 -7.1805983 -0.19219974 -2.3859031 -1.5217816 -1.6728609 -0.61309385 -1.1926568
-0.031597324 0.7959895 0.19053996 1.329548 0.53106344 0.97040784 -0.7414549 -0.42088822
0.08996284 -7.367292 -0.9429836 -2.9423323 -1.0479814 -1.6754456 -0.7728131 -1.2605276
0.8444169 0.9789078 -0.52709556 1.0804609 -0.65751714 0.6343585 -0.49528503 0.03044138
0.13218732 -5.917198 0.22886866 -2.848687 0.26749247 -1.8582218 0.3025613 -1.8184466
-0.3412302 0.21003036 -0.15038769 1.426611 0.8012608 0.13191718 -0.81149024 -0.5245314
0.13421582 -6.670668 -0.4470973 -2.3742695 -0.6630486 -2.0153582 0.5489538 -0.28018725
-0.45846382 0.047061395 0.8359222 1.1737511 -0.1815444 -0.29711938 -0.96779543 -0.43386114
-0.025123714 -6.2506614 -0.04987642 -2.003556 -0.13639125 -1.7661306 0.15082729 -0.8745055
0.46808735 0.9542526 0.09659559 1.0653754 0.18637805 0.91185606 -1.2441022 -0.095019475
0.07268993 -7.179569 0.07337773 -2.3232176 -0.5800018 -1.4027774 -0.52314866 -1.271803
-0.38956174 1.1494099 0.44959337 1.4095192 0.04842881 0.8356564 -0.4360209 -0.14939833
-0.4648804 -7.685578 -0.3354978 -2.8660138 -0.46767065 -1.9652234 -0.5350993 -1.3623604
0.22204229 0.73402447 -0.014603197 0.9589097 0.56847924 0.82198244 -0.5810171 0.09695223
0.17917657 -6.474702 0.20183372 -1.8434881 -0.90895057 -1.6142305 0.009042478 -1.6016409
0.21761742 1.3624982 0.12984896 0.98660684 0.45707828 -0.16184528 -0.7190026 -0.1767752
-0.29766917 -7.2405505 -0.20142224 -2.1661735 0.04382688 -1.377143 -0.48290154 -0.9070092
0.38008606 1.6025376 0.1678417 1.3482388 -0.033020813 1.0377398 -0.3648968 -0.5221878
-0.22624367 -6.927067 0.32206988 -1.7152123 -0.2704694 -1.163364 -1.3312707 -0.84626055
0.41189098 1.8495324 -0.13615471 0.40265062 0.07062148 0.6256999 -2.105957 -0.59750956
-0.21937947 -6.5244536 -1.0535158 -2.3967106 -0.7591938 -2.4391365 0.072184734 0.5747262
-0.25778598 -0.39278916 -0.30841574 -0.43564186 1.4345733 0.54477555 -0.4562191 -1.2614367
0.11860495 -5.6297216 -0.82177144 -1.8636215 0.16985542 -2.566886 0.7934943 -1.019783
0.036806308 -0.4872354 0.84214413 0.38867003 0.7153851 -0.15816163 -0.6607245 0.2800687
-0.77363735 -8.374239 0.028782051 -2.5134864 -0.17852996 -2.8904345 0.48041806 -1.4291317
0.19143102 0.73326606 0.6871451 0.83587855 0.20796719 0.6300224 -0.3519004 -0.23909114
0.40402275 -6.3994985 0.3817542 -2.0344756 0.31302416 -0.9886778 0.34066188 -0.66877997
0.2497759 1.5020361 0.3021341 1.0060446 0.6757376 0.06684517 -0.2986536 -0.051363617

encoder.latent.backbone.c_layers.0.layer.kernel.kernel.inv_w_real f4 [16, 8]
00000000: 1c80 acbf c287 aabf 9f0f 18bf 6c85 38bf
00000010: 260f 0e3e 007e 91be b6cb 73bf c40f 663e
00000020: 67d2 efbf b8ab 193f 5d91 90bf 9675 06bf
00000030: 3e48 0bc0 0c00 99bf 17e7 e5be 2282 9abf
00000040: b709 09bf c70b 38bf 33bc 03bf 3923 13bf
00000050: 614b 98be a0d1 b93d 65a9 4f3e b593 1fbf
00000060: 394d 83bf a18b 1f3e 67bc fbbe 662a 05bf
00000070: f3dc 13bf 5d74 03bf 06c9 4bbd ecca 2d3d
00000080: 5d58 bebf aa0c f0be a9f0 7abf a882 02bf
00000090: 4564 98bf 0091 dabe def1 61bf cbd7 353e
000000a0: 5e08 a5bf 9fdb 15bf 8ec4 21bf fca2 d4bf
000000b0: e040 acbf fb2b 8dbf fd05 44bf 204d 4bbe
000000c0: 484d b8bf 43ef 8abf ce7a ad3d 507e b5bf
000000d0: e6e5 45bf 8c1d 43be dd3b 09bf ecc1 2fbf
000000e0: 09b8 2fbf d140 54bf 9c15 4dbf a622 07bf
000000f0: a122 d5be e31a 20bf 2fb7 04bf 5234 4bbf
00000100: f827 78bd c24f 97be 67b6 71be 1c91 11bf
00000110: 80fa efbe ac34 0abf 96bd 0cbf d5c9 dcbe
00000120: 70e9 76bf 4449 6abf 25b4 91be 4bd6 4a3f
00000130: 3bc6 aebe 3a5f ce3e 10dc ddbe e722 a1be
00000140: b522 35bf 8466 6bbf 8c95 57bf 0790 43bf
00000150: 2ac3 dbbd 4eef ad3e e59f 51bf 043c 033f
00000160: 8e8d 14bf 1336 7fbf 808b 9ebf cb89 6cbf
00000170: 1800 4abf 3f27 2c3d e68a ef3b a339 01bf
00000180: acd1 1ebf 86f6 d2be 068e 223f c455 86bf
00000190: 5697 7abf 7a0d a7bf 1270 06bf 14ba cebe
000001a0: be6b 68bf 0561 4cbf 365e 5bbf c4f6 81bf
000001b0: be4a 1ebf d9db 62bf 3f31 94bf cdcd 6fbf
000001c0: 8609 b03e aedd 1fbf 83ac 893f 86ca 9dbe
000001d0: e840 35bf 1d73 6fbe 8423 8fbe 52fc 2fbf
000001e0: 2bd0 74bf ef3b 3fbf c963 25bf f8f2 2dbf
000001f0: 49c4 dcbe 9c0c e5be aea6 d4be 3a03 88be
-1.3476596 -1.332268 -0.59398836 -0.72078586 0.13872966 -0.28416443 -0.95232713 0.22466952
-1.8736085 0.60027647 -1.1294361 -0.5252317 -2.1762843 -1.1953139 -0.4490287 -1.2070963
-0.5353045 -0.7189297 -0.51459044 -0.5747562 -0.2974501 0.09073186 0.20279463 -0.6233476
-1.0257941 0.15580608 -0.49167177 -0.5201782 -0.57759017 -0.5134943 -0.049752258 0.04242985
-1.4870716 -0.46884662 -0.9802347 -0.50980616 -1.19056 -0.4268875 -0.88259685 0.177581
-1.2893178 -0.5853824 -0.63190544 -1.6612239 -1.3457298 -1.1029047 -0.7657164 -0.1985364
-1.4398584 -1.0854267 0.08470689 -1.4179173 -0.7730392 -0.1905424 -0.5360697 -0.68655276
-0.6864019 -0.829114 -0.801111 -0.52787244 -0.41627982 -0.62541026 -0.51842016 -0.7937671
-0.060584992 -0.29553038 -0.23604737 -0.56862044 -0.46870804 -0.5398662 -0.54976785 -0.43122736
-0.9644995 -0.91518044 -0.28457752 0.79233235 -0.34135613 0.40307027 -0.43331957 -0.3147194
-0.70756084 -0.919533 -0.84212565 -0.76391643 -0.10730584 0.33971637 -0.81884605 0.5126345
-0.58028495 -0.99691886 -1.2386322 -0.92397755 -0.78906393 0.042029615 0.007310259 -0.5047857
-0.62038684 -0.41203707 0.6349796 -1.0494924 -0.9788717 -1.3050988 -0.52514756 -0.4037634
-0.907894 -0.7983554 -0.8569063 -1.0153432 -0.618328 -0.8861671 -1.1577529 -0.936734
0.34382266 -0.6244763 1.0755771 -0.30818576 -0.70802164 -0.23383756 -0.27956784 -0.68744385
-0.9563014 -0.74700826 -0.64605385 -0.67948866 -0.43118504 -0.44736183 -0.41533417 -0.26564962

encoder.latent.backbone.c_layers.0.layer.kernel.kernel.w_imag f4 [16, 8]
00000000: 25c0 a1c2 ba00 d1c1 e94f 66c1 0105 19c1
00000010: 9b14 bac0 1740 5ac0 73d1 23c0 f340 4bbf
00000020: 7a0b a1c2 6b83 bec1 e8c3 53c1 3bb2 0ac1
00000030: 937c b7c0 5b5c 95c0 9798 1dc0 1058 ddbf
00000040: c8c0 a1c2 f78f cdc1 16ec 57c1 9543 0bc1
00000050: 3401 c6c0 375b 3ac0 c8b3 afbf d307 a5be
00000060: 0e0f a4c2 443c ccc1 d354 5dc1 22bb 0cc1
00000070: 9e95 b6c0 72ad 84c0 0b59 12c0 7e4a ebbe
00000080: d5bd a0c2 d405 c4c1 2038 62c1 7f7b 02c1
00000090: 7a2e abc0 dc01 80c0 ca89 a9bf ba9a 40be
000000a0: 78f5 a1c2 38c8 c9c1 959b 56c1 601b 05c1
000000b0: a89a abc0 feaa 30c0 45f5 d9bf bdc4 18bf
000000c0: f47d a1c2 42a3 cdc1 57ac 5fc1 2954 0dc1
000000d0: a894 a4c0 0ce5 57c0 0bfe 0bc0 db03 90be
000000e0: a260 a2c2 3e1c cfc1 6f7e 5bc1 1d26 04c1
000000f0: e945 a9c0 30a1 2dc0 b872 e1bf 3d12 bd3e
00000100: b31d a1c2 9e37 d1c1 b2fb 66c1 f3d6 0ec1
00000110: 75c6 afc0 b07e 4ac0 fddf babf 8852 46bf
00000120: fb17 a2c2 754f d3c1 44fe 58c1 1a67 08c1
00000130: 4cac 9cc0 27af 59c0 686b b9bf 40d2 763d
00000140: 321e a2c2 51cf cec1 7c95 6cc1 6dc6 09c1
00000150: 1681 adc0 53ea 72c0 05f0 21c0 63a9 36bf
00000160: 1415 a3c2 8e78 dcc1 a36f 65c1 ff30 0cc1
00000170: f70f b5c0 6d7b 83c0 9826 23c0 b518 54bf
00000180: 5618 a5c2 ca80 cdc1 30af 64c1 1631 0bc1
00000190: bf14 b3c0 ca81 59c0 0422 c7bf e441 7a3e
000001a0: 4796 a1c2 1b50 c9c1 c30e 63c1 fb35 0bc1
000001b0: bd4f a3c0 9bfb 2ec0 c7ae 97bf cf99 27be
000001c0: 1c21 a2c2 766b cfc1 3ecc 5ac1 8b74 09c1
000001d0: ab1c b6c0 60b1 36c0 729e e8bf 6e74 91bc
000001e0: 7fa3 a3c2 0a6c d9c1 b6a4 6ac1 f39a 0dc1
000001f0: e098 bdc0 440a 62c0 a177 91bf 6614 473f
-80.87528 -26.125355 -14.394509 -9.563722 -5.8150153 -3.4101617 -2.5596588 -0.7939598
-80.522415 -23.814169 -13.235329 -8.668513 -5.733957 -4.667524 -2.4624383 -1.72925
-80.876526 -25.695295 -13.495138 -8.7039995 -6.187647 -2.9118173 -1.372674 -0.32232532
-82.0294 -25.529427 -13.833209 -8.795687 -5.705764 -4.1461725 -2.2866848 -0.4595527
-80.370766 -24.502846 -14.138702 -8.15515 -5.3494234 -4.000227 -1.3245175 -0.18809023
-80.97943 -25.222763 -13.412984 -8.319183 -5.362629 -2.7604365 -1.7027975 -0.596752
-80.746 -25.704716 -13.979575 -8.833047 -5.1431465 -3.373355 -2.1873806 -0.2812794
-81.188736 -25.88879 -13.718368 -8.259305 -5.289784 -2.712963 -1.7613134 0.36927977
-80.55801 -26.152157 -14.436449 -8.927478 -5.4929757 -3.1639824 -1.4599606 -0.7746968
-81.04684 -26.413797 -13.562077 -8.525171 -4.8960323 -3.4013155 -1.4485903 0.060259104
-81.058975 -25.851229 -14.786495 -8.610944 -5.4220076 -3.795552 -2.5302746 -0.71352214
-81.54117 -27.558865 -14.339755 -8.761962 -5.658199 -4.1088166 -2.5492306 -0.828502
-82.54753 -25.687885 -14.29277 -8.699484 -5.5962825 -3.3985467 -1.5557256 0.24439198
-80.79351 -25.164114 -14.191104 -8.700679 -5.1034837 -2.7341068 -1.1850213 -0.16367267
-81.06467 -25.927471 -13.674864 -8.590953 -5.6909995 -2.854576 -1.8173354 -0.017755713
-81.81933 -27.177753 -14.665213 -8.850329 -5.9249115 -3.5318766 -1.1364633 0.777655

encoder.latent.backbone.c_layers.0.layer.output_linear.0.weight f4 [32, 16, 1]
00000000: 046d 2dbf 5be8 08c0 7d34 8cbd a827 b63f
00000010: 83be 57be 4188 eabe 038f b13f 20e3 ccbd
00000020: 403f bbbe 2604 573f 6095 0d3c bd8a 6e3f
00000030: 6516 d93d 311b 0d3f 2f8a 16bc 15a1 e43e
00000040: f3f1 6dbe 763a e6be 6a16 f6bb bc47 5e3f
00000050: 78ba a4bf 1549 323e 59f3 373f aa43 c83e
00000060: fd97 583f edba 5b3f bd88 c0bf 5ac6 6a3e
00000070: 8da3 763e c084 cd3d 0a39 0d3f 9bf7 f23e
00000080: a734 0fbf 36c9 3540 a68f 6e3f ac32 e5bf
00000090: b6a6 fe3d ff85 153f 0cac 7fbe be39 dd3e
000000a0: 7780 eb3e 92aa aebf 7f03 36bf 8e22 77bf
000000b0: 5731 95bf fb22 2d3f 1c38 05be 99fa fd3e
000000c0: d8fd 52bd 36ae 0e3f 8a7f 8f3e c3e2 bfbe
000000d0: 4117 e4be d479 cc3e b59c 5e3f a28d 1dbe
000000e0: 590a 7f3e 2485 903e 8188 a9be 0744 1f3f
000000f0: 40a8 353d 74d0 c83e fdca 503e 0761 a63e
00000100: dcc0 aebf 4206 d6be 0803 dfbe deff 8d3d
00000110: 8206 2a3f da90 babf 2d5f a7bf ec56 a23e
00000120: b518 1abf 6fcf 15bf 7534 94be 8cb7 553f
00000130: fdd1 a6be ba02 80bf b2fd e9be 4e04 5f3d
00000140: 6748 b8bf 94c7 1fbe c2af b3be 5880 c8be
00000150: 6003 af3f 0baa b2bf 4520 e4be 95c1 36be
00000160: 6f43 573d d17e 7abe 0c9e ecbe e935 403f
00000170: 5ff7 c3bd 267d 2dbf 6797 f4be 18cb b8bd
00000180: 8fa1 fa3e 86b8 b7bf faa1 d53b e877 1c3f
00000190: 6a2b eebe e7fc 7b3f fa0a 8c3e fb01 683e
000001a0: 64d4 a73e a804 37bf a709 26bf f705 b7be
000001b0: e03b e53e beb0 703d 7a19 263f 61ea 6a3f
000001c0: 1761 4a3f 9069 3abf 72fd 84bc b3ed 713d
000001d0: fc5a acbf 64ea 953e 5b00 533f b6c2 4dbf
000001e0: 8305 7e3e 60c2 b53e f279 183f e36d e2bd
000001f0: c982 b13c d2c7 763f f412 933d 87b8 1f3d
00000200: 6c17 943f a200 0cbf 6780 debd be9e 213e
00000210: c0ff 3bbe 6858 fa3f 5a92 253f ea8e 40be
00000220: 7a02 b03e 340e fd3e 189a acbe d0b6 b4bf
00000230: 5871 173f e09a 7c3f e2b2 ca3e 237c 96bf
00000240: c92a e13d 4207 3740 e008 0ebf 67ba 823f
00000250: 2983 963f b0ff 30bf 3b0f 67be 267c b2be
00000260: 9677 f3be ae06 8f3f 27d4 1b3f 4f39 9abe
00000270: b11f 0b3f 1e74 28bf 9975 e1bd e587 6ebf
00000280: ecd2 26bf 42ed 1940 2998 29be 1ff5 62bf
00000290: fc9a 2dbe 6f4e 14bf e4d0 04c0 e4b4 393d
000002a0: b7fd a63e 777a a2be 8201 f73e e1ec dbbf
000002b0: 8c38 1dbe 1f8c 45be 7f76 73be 59e4 3ebf
000002c0: f105 653f c5a4 8f3e 32c5 23bf f4de 723f
000002d0: d650 03c0 7963 433f cb4d b63f 3b5e 3abf
000002e0: 6f86 df3e 9a2d f83e 9ff5 4b3f d7b6 a8bf
000002f0: a6d2 293f 19ed 263f ca7a 7a3c 7733 89bf
00000300: ae77 d9be 4ebb 30c0 df1f 4fbf ba8d 903f
00000310: 484c 803f 98a5 f8be 8e62 2b3f cbb7 993b
00000320: 0026 e4be 7a1b 113f 787d 3a3e 7396 1f3c
00000330: b04b 613f ea94 49be dfa1 9f3e 976a 21bf
00000340: 37b0 893e 1aa8 473e 37ad ddbe 6715 8c3d
00000350: 28ca 973f d371 f63b 1042 0d3f 5801 2abf
00000360: ea77 02bf 361c 813c 5b86 6e3f 0c61 763f
00000370: 5925 0ebf 764c f03e 5bb8 d6be 0cac 5abf
00000380: 0cab f33e deee 8d3c 836a ce3e d3c6 0cbf
00000390: 9a16 78be 54fb 6f3f 3280 2cbf 8a65 b3be
000003a0: ffb6 9c3e 85cd 07bf 1569 dabd 31a2 c3be
000003b0: c22c 67be fe44 3cbe 1228 59bb e610 873e
000003c0: 2cb2 373e 3cd6 ca3d 714c 76be 0c90 9fbd
000003d0: 4341 863e d141 dfbe 3468 74bf 5334 b2be
000003e0: 354a f1bd aaea 90be 950f a93e cccb b0be
000003f0: 70a6 2b3e 7e3e 8bbf ec27 3bbe 89b8 1dbf
-0.6774447 -2.1391819 -0.06845949 1.4230852 -0.21068768 -0.45807078 1.3871769 -0.10004258
-0.36571693 0.83990705 0.008641571 0.9318045 0.105999745 0.55119616 -0.009188219 0.44654146
-0.23236828 -0.44966477 -0.007509996 0.8682821 -1.2869406 0.17410691 0.71855694 0.39114124
0.84606916 0.858321 -1.5041729 0.22927228 0.24085827 0.10035086 0.5516516 0.47454533
-0.55939716 2.840406 0.9318794 -1.7906089 0.12434141 0.58407587 -0.24967974 0.43208116
0.45996448 -1.3645804 -0.71099085 -0.965371 -1.1655682 0.676315 -0.13009685 0.49605253
-0.051511616 0.55734575 0.28026992 -0.37477693 -0.4454899 0.39936697 0.86957866 -0.1538606
0.24906291 0.28226578 -0.33111957 0.62213176 0.04434991 0.39221537 0.20389934 0.324959
-1.3652606 -0.4180165 -0.43557 0.069335684 0.6641618 -1.4575455 -1.307592 0.3170694
-0.6019395 -0.58519644 -0.28946272 0.83483195 -0.32582083 -1.0000832 -0.45701367 0.054447465
-1.4397095 -0.15603477 -0.3509503 -0.3916042 1.3672905 -1.3958143 -0.4455587 -0.17847283
0.052554544 -0.24462439 -0.4621433 0.7508226 -0.09568667 -0.67769086 -0.4777176 -0.09023112
0.48951384 -1.4353187 0.0065195533 0.6112046 -0.46517497 0.98432773 0.27352124 0.22657005
0.3277923 -0.7149148 -0.6485848 -0.35746738 0.44772243 0.058762304 0.64882624 0.91763884
0.790544 -0.72817326 -0.016234133 0.05906458 -1.3465266 0.29280388 0.8242242 -0.8037523
0.2480679 0.3549986 0.59561074 -0.110561155 0.021668809 0.9639865 0.071813494 0.03899434
1.1569648 -0.54688466 -0.108643346 0.15783212 -0.1835928 1.955823 0.6467644 -0.18804517
0.3437689 0.494249 -0.33711314 -1.411829 0.59157324 0.9867382 0.39589602 -1.1756634
0.10994489 2.859818 -0.5548229 1.0213135 1.1758777 -0.6914015 -0.22564404 -0.34860343
-0.47552174 1.1173913 0.60870594 -0.30121848 0.5434523 -0.6580218 -0.11008758 -0.9317611
-0.6516559 2.405106 -0.1656195 -0.88655275 -0.16953653 -0.5793218 -2.0752497 0.045338526
0.32615444 -0.31734058 0.48243338 -1.7181665 -0.15353602 -0.19291733 -0.23775671 -0.7456718
0.8946219 0.28055397 -0.6397277 0.9487145 -2.0518088 0.7632366 1.424249 -0.72800034
0.43657252 0.4847229 0.79671663 -1.3180798 0.6633705 0.6520553 0.015288064 -1.0718831
-0.4247412 -2.7614322 -0.80908006 1.1293252 1.0023279 -0.48563838 0.6694726 0.0046910993
-0.44560242 0.5668255 0.18211925 0.00974046 0.88006115 -0.19685712 0.31178185 -0.6305327
0.26892254 0.1949772 -0.43296215 0.0684002 1.1858568 0.007520893 0.5517893 -0.664083
-0.50964224 0.015760522 0.9317376 0.9624183 -0.5552574 0.46933335 -0.41937527 -0.8541877
0.47591436 0.017325815 0.40315637 -0.5499088 -0.24227372 0.9374287 -0.6738311 -0.35038406
0.30608365 -0.5304797 -0.10664574 -0.3820968 -0.22575668 -0.18385693 -0.0033135456 0.2638008
0.17939061 0.09904143 -0.24052598 -0.07791147 0.26221666 -0.436049 -0.954715 -0.34805545
-0.11781732 -0.28304034 0.330197 -0.34530485 0.1676271 -1.0878446 -0.18276948 -0.61609703

encoder.latent.backbone.c_layers.0.layer.output_linear.0.bias f4 [32]
00000000: 3f22 7bbd a830 e53e 777a 123f 609a 1c3f
00000010: fa97 27bf de91 fdbe d5a0 fb3e 5902 0c3f
00000020: d66b a03f f444 7a3e 5f81 0dbe 3bd8 7d3f
00000030: b806 21bf 5563 183d 5790 983e 452e 3ebd
00000040: 661c 4c3f dfa8 64bf c273 80be 82a9 b03e
00000050: 0bc7 1b3f de7c 783f 0a4b 2c3f 8408 693e
00000060: e085 803f a788 ec3e 873e 183f e8b3 be3e
00000070: e7e2 d4bc 61c6 8fbe 91bf 21bf 8940 4fbe
-0.061311956 0.44763684 0.57218117 0.6117306 -0.6546627 -0.4952535 0.49146143 0.5469108
1.2532909 0.24440366 -0.13818882 0.99158067 -0.62900877 0.037204105 0.29797623 -0.046430845
0.7973083 -0.89320177 -0.25088316 0.34504324 0.6085059 0.9706553 0.67302 0.22757155
1.0040855 0.46198007 0.5947041 0.37246633 -0.025987102 -0.2808104 -0.6318293 -0.20239462

encoder.latent.backbone.c_layers.0.norm.weight f4 [16]
00000000: ebad 1740 c012 0340 66ff 633f d928 b13f
00000010: 7a7e c53f 4cdf dd3f ce5f 5f40 b6a4 ac3f
00000020: bcd9 873f 191e ad3f 140b de3f 346f fd3f
00000030: 6795 9b3f a558 bd3f 8f50 673f c5af 8d3f
2.36999 2.0480194 0.8906158 1.3840591 1.5429223 1.733377 3.4902225 1.3487766
1.0613322 1.352481 1.7347131 1.9799562 1.2154969 1.4792677 0.903573 1.1069266

encoder.latent.backbone.c_layers.0.norm.bias f4 [16]
00000000: ccbb eb3e 121a 313d 4813 d13d e9f2 dcbd
00000010: 96eb 1b3f ede6 7b3e 2807 963e d262 a23e
00000020: 5f87 0f3e 5c91 ba3d f01e ddbe c8d6 d0be
00000030: 511e e2be ebd6 3d3f 9c0b 7b3e 7012 f83e
0.46041715 0.043237753 0.10208756 -0.10788519 0.6090635 0.2459981 0.29302335 0.3171602
0.14016484 0.09109756 -0.43187666 -0.40788865 -0.44163755 0.74156064 0.24516147 0.48451567

encoder.latent.backbone.c_layers.1.layer.ff.0.0.weight f4 [16, 16]
00000000: 36b7 a43e 38c5 cabe 98d5 7f3e 8542 c5be
00000010: 78fc f03e dc24 073f b568 0dbf 3c4d 38bb
00000020: 544e cdbe 6ca0 683e de27 213f d0aa 59bf
00000030: 9ab8 4a3d d041 1b3e 6be7 c6bc 0a7f 14be
00000040: abff 66be 17fe 0cbf e2f8 173e 9512 1a3e
00000050: 34ac 3f3f 413d b9bd ecaf 3d3f 293b 0fbe
00000060: e98a 00bf 3079 51be 2299 12be 72cb 84bc
00000070: 02e9 5b3e 389f f6be 76ce 943d 1993 72bd
00000080: e948 c6be 781a 4b3f 0bfd 09bf ef2d b1bd
00000090: 61e0 5b3f 207f bebe d31d d93f 6514 433e
000000a0: 72d2 63be d680 94bf 72be 5fbe 2752 d0bf
000000b0: 6f04 08bf 8964 88be a0c4 833e 4476 0e3e
000000c0: acaf 3d3f f657 73be 9481 df3e 2980 42be
000000d0: 647a c93e 1b2b 353f e007 03bf a31c 993c
000000e0: 8a01 a9be 0f9a 823f d480 c83e d34c 1cbf
000000f0: 98f6 cb3e 0727 9a3e 2ec7 13be b8f2 c2bd
00000100: bcc4 9dbe 4988 c4bd 489c aa3e 4c1e 56bf
00000110: 2577 7e3f 1117 043f 1149 a53e 13be abbe
00000120: 1ea8 70bf 41cd 693c eb1d f6bd 8372 d6be
00000130: 5097 153f c261 b6bd fc0f 85bf 2426 60be
00000140: 3b0d 6f3f 0d90 86bc 3256 9b3f da06 bb3e
00000150: 0f5c bf3d 5caf 94be 849e 993e b220 9bbe
00000160: 94e7 46be 585f f43e dae5 79be 0e5a 823f
00000170: ae48 92bd ce8e bdbe c7b2 7fbc bdce cdbe
00000180: c00a 133f 3126 37bf afde fcbe d0dd 0abf
00000190: bb91 4ebe 8447 ed3e 16cf 88be 3393 c63c
000001a0: bac5 323d eca4 2d3f 72dc 4e3e 736e 0abf
000001b0: 4c71 29be 2712 053f f372 5a3d 2507 2c3f
000001c0: 7e2f b03e ed30 883f 4a06 a23f fd00 423f
000001d0: 4fa7 e7be ada9 81bd 3f45 84bd 96fa 613e
000001e0: be6d 653e 968b 13be 976a d3be a9c0 ea3e
000001f0: c299 48bf c6e4 9fbe 0813 bd3d 2dea 64bf
00000200: bdec a43c addd e53e 2128 333f 00d8 47bf
00000210: f613 853f f766 893e 7240 603f bbeb 25bf
00000220: 4218 bcbf daf6 97be cb55 063f fd8f 44be
00000230: a787 703e 44ea a5bf 8ae0 ebbf b91b 3ebd
00000240: a8ed 90bd 43c7 e63e 6188 bd3e 7b9a 28bd
00000250: 4221 6a3d be98 503e 6921 b03e bb53 813c
00000260: 0c3b 20be e49d 72bf db20 df3e 0056 64bf
00000270: 7734 293e 2c67 06bf f31c 083d 3177 bcbe
00000280: fc9b e7bd d2cb 41be 0921 db3d ecb3 b8be
00000290: 1224 bf3e 94aa f73e 043f 883e 804b 6abe
000002a0: 668d 18bf 487f 8e3e ff44 893e 517d 90bf
000002b0: a445 983e 6649 2b3e 6083 64be 760d 60be
000002c0: a68c e63e e93a b4be a3d6 6bbe bfac 4ebe
000002d0: 67e1 bebe b371 e83d e193 9bbe 9ce9 833d
000002e0: a615 a63e ff56 103f 9cdd cbbe 2887 a6be
000002f0: 099d 84be 34e0 4e3d 72f1 953e 4d69 923e
00000300: 2e55 ed3d 103f 593c 5fb1 fe3e 98a2 03bf
00000310: 48c0 a03f 312a ce3e 84bf 1b3e c44b fcbe
00000320: 5274 40bf 1e1f 933d ccd3 503d 88d1 48bf
00000330: a8e9 003f ad53 8ebe 1703 54bf 09de 16be
00000340: 5906 923d 7687 a23e 6a62 c73e b0be 2ebf
00000350: 6452 903f e217 373e cb86 2cbc b33a b6be
00000360: 3c1a 6bbf 06c0 503e 032b 523e a856 f2be
00000370: d244 593f 1a5b 24be 7e12 53bf 9ffa a23d
00000380: 274f 48bd ed30 1ebf a53c cebd bda0 13bf
00000390: 2f32 a43e 1449 af3e 0fee 0ebf 45b8 8e3c
000003a0: 131f 563e 57a4 123f c7c4 083e c7b9 92bd
000003b0: 782a f83e 0d48 af3e 6c41 92be d575 223f
000003c0: 7e1d d43e b7e2 1cbf 896a 963e d1da 03bf
000003d0: efb7 a13e 34ff cc3d 902a 83ba c3d6 3cbd
000003e0: 2d9f bdbe 12c9 6a3f a47f b23e ff94 cbbe
000003f0: f67f efbb 6f26 a73e 9c7c a1be beec d83d
0.3217103 -0.3960359 0.24983823 -0.38527313 0.47067618 0.5279062 -0.55237895 -0.0028122207
-0.40098822 0.22717446 0.6295146 -0.85026264 0.049492456 0.15161824 -0.02428027 -0.14501587
-0.22558467 -0.5507521 0.14841035 0.15046151 0.74872136 -0.090448864 0.7409656 -0.13987412
-0.5021196 -0.20456386 -0.14316228 -0.016210292 0.21475604 -0.4816835 0.07265942 -0.059222315
-0.387275 0.79337263 -0.5390174 -0.08651339 0.8588925 -0.37206364 1.6962227 0.19050749
-0.22248247 -1.1601818 -0.21849993 -1.6275071 -0.53131765 -0.26639202 0.2573595 0.13912302
0.7409618 -0.23764023 0.43653548 -0.18994202 0.3935119 0.707689 -0.5118389 0.018690413
-0.33008987 1.0203265 0.39160788 -0.61054724 0.39836574 0.301079 -0.1443145 -0.09518951
-0.3081416 -0.09596307 0.33322358 -0.8363998 0.9940055 0.51597697 0.32282308 -0.33543453
-0.94006526 0.014270128 -0.12017425 -0.4188424 0.5843401 -0.089053646 -1.0395503 -0.2188955
0.93379563 -0.01642611 1.213568 0.36528665 0.09343731 -0.2904004 0.3000375 -0.30298382
-0.19424278 0.47728992 -0.24404088 1.0183733 -0.07142769 -0.37023014 -0.015606589 -0.4019679
0.5743828 -0.7154265 -0.49388644 -0.5424471 -0.2017278 0.46343625 -0.26720494 0.024240112
0.043645598 0.67829776 0.2020128 -0.5407478 -0.16547126 0.51980823 0.05333228 0.671984
0.34411234 1.0639931 1.2658169 0.7578276 -0.45244834 -0.06331191 -0.0645852 0.22068247
0.22405145 -0.14408717 -0.4129226 0.45850113 -0.78359616 -0.31229228 0.092321455 -0.89419824
0.020132417 0.44895688 0.69983107 -0.78063965 1.0396717 0.26836368 0.87598336 -0.6481282
-1.4694903 -0.2968052 0.5247466 -0.19195552 0.23489247 -1.2962117 -1.8427899 -0.046413157
-0.07076579 0.450739 0.3701811 -0.04116295 0.057160623 0.20370767 0.3440049 0.015786996
-0.15647525 -0.9477217 0.43579754 -0.89193726 0.1652392 -0.5250118 0.033230733 -0.36809686
-0.113090485 -0.18925408 0.1069966 -0.3607477 0.37332207 0.48372328 0.26610577 -0.22880363
-0.59590757 0.27831483 0.26810452 -1.1288244 0.29740632 0.16727218 -0.2231574 -0.21880135
0.4502918 -0.35201195 -0.23031096 -0.20183085 -0.37281343 0.113498114 -0.3038626 0.06441042
0.3243839 0.56382746 -0.39817512 -0.3252499 -0.25901058 0.050506786 0.2928577 0.28595963
0.11588512 0.013259664 0.49744698 -0.51419973 1.255868 0.40266564 0.15209776 -0.49276555
-0.7517749 0.071836695 0.050983235 -0.7844472 0.5035653 -0.27798215 -0.82817215 -0.14733137
0.07130117 0.31743973 0.3894227 -0.68259716 1.1275144 0.17880204 -0.010530184 -0.3559166
-0.91836905 0.20385751 0.2052422 -0.47331738 0.84870636 -0.16050377 -0.8245009 0.079579584
-0.04890361 -0.61793405 -0.10070161 -0.5766714 0.32069537 0.34235442 -0.55832 0.017421851
0.20910291 0.5728201 0.13356315 -0.071643405 0.484699 0.34234658 -0.28565538 0.6346105
0.4142875 -0.6128344 0.29378155 -0.5150576 0.31585643 0.10009614 -0.0010007191 -0.04610325
-0.37035504 0.9171306 0.34863007 -0.39762112 -0.0073089553 0.3264651 -0.31540382 0.1059203

encoder.latent.backbone.c_layers.1.layer.ff.0.0.bias f4 [16, 1]
00000000: b020 05bd 13cf 72bf ebb8 49bf 20c0 85bd
00000010: 8f40 60bf 9856 fc3e 182f 9c3e 472a f73e
00000020: 8f2b a7be ce7d 57be f685 bdbd f6db 8c3e
00000030: 04e9 13bf ff0f 53bf 9f7c b33e 3427 dfba
-0.032501876 -0.9484722 -0.7879779 -0.065307856 -0.8759851 0.49284816 0.3050468 0.48274443
-0.3265042 -0.21044084 -0.09254067 0.27511567 -0.5777743 -0.82446283 0.35056016 -0.0017025233
