generative_ts/saves/250925_141706_VRNN_stdY1_dec/model_VRNN.pth (torch, 50146 bytes, 60 tensors)

phi_x.0.weight f4 [10, 1]
00000000: bf6c 153f f0be 6abf f78d eb3e c1ed 2c3f
00000010: 36f5 763f e1b3 303d f502 49bf d943 c73e
00000020: 3d35 2d3f 0e62 08bf
0.5836906 -0.916976 0.46006748 0.67550284 0.9646791 0.043140296 -0.7852014 0.3891895
0.6765936 -0.5327462

phi_x.0.bias f4 [10]
00000000: 5fee 5f3f 7da1 073e d29a cdbd d397 9c3e
00000010: 6b6f 693e 66df 483f 77f6 75bf 44a8 023f
00000020: 27e8 29bf 2fb3 573f
0.874731 0.13245197 -0.10039295 0.30584583 0.22796409 0.7846588 -0.960792 0.51038
-0.6636986 0.8425779

phi_x.2.weight f4 [10, 10]
00000000: d25a 9fbd 8deb 383e 3706 0dbe 9691 313d
00000010: 8075 a33d b079 6dbd 1952 ad3e 4fa0 86be
00000020: 6c81 a33d 4de8 893d 8d52 a0be 5a39 8dbd
00000030: 7a6c 8ebe b51c 0c3e 5ef4 60be 7b7a 46be
00000040: f773 8ebe 2cbb 5f38 3d0c 6c3e 8484 4a3e
00000050: be73 283e 0068 e23a 9957 5d3e 3a16 33bd
00000060: e7a1 6d3e 1d09 cc3e a169 e8be fb6b 19bb
00000070: 6101 b03e f2c6 a2bc 7f93 ac3e f69d 1e3d
00000080: af52 04be f022 5fbd 0b77 563e 73ef 823e
00000090: dc71 2cbe de7a 893e 12e9 2d3e 3da8 813e
000000a0: 1fd9 9f3e 53a6 22be b43d 88be b866 44be
000000b0: 7f54 833c c9a3 b03e 30d5 003d fad4 8d3c
000000c0: 708a 26be 2b95 5e3e 647d 993e 5d37 8c3e
000000d0: a203 ae3e 2d18 623e 4af0 e3bb 2f05 efbb
000000e0: d1ca e2be 50b4 bf3e df26 543e fb8a 34be
000000f0: 8e8a f6bc a826 20b9 81a3 623e 4308 19be
00000100: ed57 7cbe c693 a1bd c6f9 903e ee02 323e
00000110: 0706 273d a410 89be bbaf 463d f0cb bf3a
00000120: e23a 80bd cabd 32be 1e13 c63d c31a 2a3e
00000130: 231b 2c3e 82b7 9cbe 164b 32be b4c4 673e
00000140: bd45 1cbe 58e8 883e 4649 453e 251b c7bd
00000150: 2a34 69bd 6fd1 e03d abe3 9abd b638 0bbd
00000160: bd7d ef3d 4610 6e3e 8526 93be 797d cabb
00000170: 9ef2 9bbe eae9 9dbe 8467 183e c2a3 2e3e
00000180: aae4 2cbe b865 5a3e 5b48 a53d 4834 98be
-0.077809945 0.18058605 -0.13771902 0.043351732 0.07981396 -0.05797738 0.33851698 -0.2629418
0.0798367 0.06733761 -0.3131298 -0.068957046 -0.27817136 0.13682826 -0.21968219 -0.1938266
-0.2782285 5.334166e-05 0.23051544 0.19777113 0.16450402 0.0017273426 0.21615447 -0.04372237
0.23206292 0.39850703 -0.45393088 -0.0023410309 0.34376052 -0.019870255 0.3370628 0.038724862
-0.12922166 -0.05447668 0.20943849 0.2557331 -0.16840309 0.26851553 0.1698344 0.25323668
0.31220338 -0.1588376 -0.26609576 -0.19179809 0.016031502 0.34499958 0.03145331 0.01731347
-0.16263747 0.2173659 0.29978478 0.2738599 0.33987147 0.22079535 -0.006956135 -0.007294319
-0.44295362 0.37442255 0.20717953 -0.17631142 -0.030095365 -0.0001527319 0.22132684 -0.14944558
-0.24642916 -0.07889514 0.28315562 0.1738393 0.040777232 -0.26770508 0.048507433 0.0014632922
-0.06261231 -0.17455211 0.09671615 0.16611771 0.16807227 -0.30608755 -0.17411456 0.2263363
-0.15260978 0.26739764 0.19266233 -0.09721974 -0.056934513 0.10977446 -0.075629555 -0.03398963
0.116939045 0.23248395 -0.28740326 -0.0061795083 -0.3045854 -0.30842525 0.14883238 0.17054656
-0.16884103 0.21327865 0.08070441 -0.29727387

phi_x.2.bias f4 [10]
00000000: 2269 20be 34ee 22be 58bf 0bbe 05bd 2bbe
00000010: ead6 a43d 8476 9c3e 6eb6 8b3d 49c7 a23e
00000020: 458f b73e 4f67 863e
-0.15665105 -0.1591118 -0.1364721 -0.16771324 0.08048804 0.3055917 0.06821905 0.31792668
0.35851493 0.26250693

phi_z.0.weight f4 [10, 1]
00000000: 2cff 4bbf 18bd da3d 4214 423f 389a 463f
00000010: 5aec 773e f632 2a3f dc60 0dbf b475 2e3f
00000020: 0959 73bf 8e2a 2b3f
-0.79686236 0.10680598 0.7581216 0.7757907 0.24211255 0.6648401 -0.5522592 0.6814835
-0.9505773 0.6686181

phi_z.0.bias f4 [10]
00000000: 5a31 653f 31a5 c13e 69c4 113f def0 34bf
00000010: a113 853f cd73 e23e e16c 14bf 6429 213f
00000020: c870 aa3e bf6a d2be
0.8952843 0.37821344 0.56940323 -0.70680034 1.0396615 0.44228974 -0.57978636 0.6295378
0.3328917 -0.41097066

enc.0.weight f4 [10, 20]
00000000: be10 5abe 07be fd3d 5f21 a83d 7a1b 543e
00000010: 34bb 133e 5c38 6f3e 667c 273d b3d0 523e
00000020: 0901 673e bd1d 1d3e 450a 533e 984b 9f3c
00000030: e2a9 7bbe 942e 343e 44da 25be 7ca7 92bc
00000040: 9d0d ca3d 27be ccbd 14ee 0dbe 543f 833e
00000050: 4622 9f3d b366 87bd 52cf 8fbe c386 22bb
00000060: 954a 683e f659 763e 5c7a 29bc ea79 053d
00000070: cbd1 9abd 03d5 0abd 5a3c 5e3e 3e99 bebd
00000080: 2d91 7fbe 5fcb a23e 744d e3bc d8b8 b5bd
00000090: e26f 30be cd1a 1ebb c255 353d cfa1 e93d
000000a0: 1e29 67bd cd21 03be b072 1ebe 9077 54be
000000b0: aa26 0a3b 6902 213e 25f2 0cbe 191e 47be
000000c0: cb18 f43d 6714 51be f887 5dbc 0396 293e
000000d0: 45a7 083e b8f2 31be 4918 bdbd 70fb 3c3e
000000e0: 84cb 30be 040b a3bd c7ca 3c3e 469b 563d
000000f0: 471f 46bc 86da 543e 8f7f aabd f07f ba3d
00000100: 0d0d 24be cd04 5dbe 252d 76bd dbab 823c
00000110: b4db b5bd 4fd4 03be f5c3 343e 4802 a33d
00000120: 0865 8c3d bcc0 013e 3ba2 593d dd65 0fbe
00000130: 8c15 983d 7f70 f1bc 6f71 cbbc a740 8a3c
00000140: 9db9 1c3e 0f1d 4d3e f10c 86be 1f6e 5d3e
00000150: 0123 90bd 3255 d13d 1d61 023e 6352 cbbb
00000160: e10f 943d 064d 773c f085 443e bf73 34be
00000170: e8c2 86be 63a5 463e 3779 7e3c 1f61 0dbb
00000180: dfc5 f3bd c37a 29be 58ad 2e3d 9eeb 903e
00000190: 2d01 0c3d b8b5 dc3d 76f0 2e3e 9bae 1b3e
000001a0: 201d 81bd 06c9 3c3e 8bdd fabc 46c0 a83b
000001b0: f072 8abc 0310 2ebd 1a45 c63e de0b 04be
000001c0: 8f1b 913e 464d 51bd 1e78 a13e 75d6 ae3d
000001d0: df8c 4e3d 3b7e 9b3d e60f 8d3e 5400 473e
000001e0: da89 6d3d 7bc1 abbc cd0a f63d 1f9e d63d
000001f0: bf58 85bd f86a 97be 1df4 5c3e 00e0 933e
00000200: d98e 773e ab13 403e 2f11 8abe c26b 373c
00000210: 10ca 3ebe 1616 36bd ffa9 aabe 20da 73bd
00000220: 7784 993e 2185 0e3e 04ef a2be 508e 24be
00000230: 8d34 04bd d0e5 4abe ed75 3ebe a4d5 53bd
00000240: 40c1 6e3e e02c ac3d a69c 4d3e 99c3 acbd
00000250: 5318 9fbd 8e66 2dbe 33f3 b23e 332a d8bd
00000260: 0116 e9bd b061 573e ec13 923e f359 4dbd
00000270: 1a5d 7dbd f56e 9e3d 3f1f b9bd 1261 ca3d
00000280: cff4 3ebe fb43 febd bf01 83bd 6db0 633e
00000290: 0e88 7d3e 56e4 323e c990 783d 81c3 08be
000002a0: f178 8a3e 4f37 c4bd dc2b cbbd cbcc acbe
000002b0: dbb6 1b3d ba8c d53e 7cb3 5b3d 93dc 10be
000002c0: c4b4 9fbe 8c0f c4be 1f62 733e bada af3e
000002d0: 6bf4 6e3e e70a 39bd 7deb 803e 173c a5bd
000002e0: a15c b03c 0f70 1cbd 82dd d33d d474 ec3d
000002f0: 9ebb 883e f756 17bd 1e3e 21be c147 78be
00000300: 3479 97be f25a 873c 1587 b1be 76d1 1a3e
00000310: a0b0 b23d 9afd cebd 4199 eebd 55c4 b3be
-0.21295449 0.123897605 0.0820949 0.20713606 0.14426881 0.23361343 0.04089012 0.20587425
0.22558989 0.15343376 0.20609386 0.019445226 -0.24576524 0.17595893 -0.16196543 -0.017902128
0.09865878 -0.09997206 -0.13860351 0.25634253 0.07770209 -0.06611385 -0.2808786 -0.0024799563
0.22684701 0.24057755 -0.010344114 0.03258697 -0.07559546 -0.03389455 0.2170271 -0.093065724
-0.24957724 0.31795785 -0.027746893 -0.08873147 -0.1723018 -0.0024124861 0.04427124 0.11407816
-0.056435697 -0.12805863 -0.15473437 -0.20748734 0.0021080174 0.15723576 -0.13764246 -0.19445075
0.119187914 -0.20417939 -0.013521187 0.16561131 0.13345058 -0.17377746 -0.09233148 0.18455291
-0.17265135 -0.079610854 0.18436728 0.052394174 -0.012092418 0.20786485 -0.08325111 0.091064334
-0.16020603 -0.21583863 -0.060101647 0.015951088 -0.08879796 -0.12873958 0.17652877 0.079594195
0.06855208 0.12671179 0.05313323 -0.14003702 0.07425985 -0.029472588 -0.024834363 0.016876532
0.15305181 0.20030616 -0.26181749 0.21624039 -0.070379265 0.10221328 0.12732358 -0.0062048896
0.07229591 0.015094047 0.19191718 -0.17622279 -0.26320577 0.19399028 0.01553183 -0.0021572781
-0.11902975 -0.16550736 0.042645782 0.28304762 0.03418081 0.107768476 0.17083916 0.15203325
-0.06304383 0.1843606 -0.030623218 0.005149874 -0.01690051 -0.04249574 0.38724595 -0.12895152
0.28341338 -0.051099084 0.31536955 0.08536998 0.050427314 0.07592436 0.27551192 0.19433719
0.057992794 -0.020966282 0.12013779 0.10479378 -0.065110676 -0.29573798 0.21577497 0.28881836
0.24175586 0.18757503 -0.26966235 0.011195125 -0.18631768 -0.044454657 -0.33332822 -0.059534192
0.29983875 0.13917972 -0.3182298 -0.16069913 -0.03227668 -0.19814229 -0.18599673 -0.051717415
0.23315907 0.08406997 0.20079288 -0.08435745 -0.07768311 -0.16933653 0.3495117 -0.10554924
-0.1138115 0.21033359 0.28530824 -0.05013461 -0.061856367 0.07736007 -0.09039163 0.09881796
-0.18648075 -0.1241531 -0.063968174 0.2223527 0.24758932 0.17469916 0.060684953 -0.13355829
0.27045396 -0.09580862 -0.09920475 -0.33749995 0.03801618 0.41708928 0.053637967 -0.14146642
-0.311926 -0.3829311 0.23767899 0.34346563 0.23335426 -0.045176413 0.25179663 -0.08068102
0.021528544 -0.038192805 0.10344984 0.11545721 0.2670564 -0.03694817 -0.15746352 -0.24246122
-0.29584658 0.016522858 -0.34673372 0.15118966 0.08725095 -0.101069644 -0.116503246 -0.35110727

enc.0.bias f4 [10]
00000000: 0662 593e 1d1d 453e 4920 39be 6598 27be
00000010: 5109 83bd 1394 89bd 1f73 fdbc a810 bd3c
00000020: 6686 083d 2dc3 e53d
0.21228799 0.19249387 -0.18078722 -0.16366728 -0.06398261 -0.06717696 -0.030938683 0.023079231
0.033331297 0.112188675

enc.2.weight f4 [10, 10]
00000000: 18be 953e 455b 0bbe 4d86 a03d dc76 49be
00000010: aa00 8c3e 8457 c33e f64f 90bd 32d3 ca3e
00000020: 4f86 c73e cda6 1a3d cd12 6c3e b514 66be
00000030: 3413 94bd 6769 5b3e a0c0 9dbd 86a1 75be
00000040: 03be c0bc 5d08 873d becd efbd 1078 80be
00000050: 0e0d 9c3e 61f5 b2ba a865 943e 7161 943e
00000060: 865f 883e 5735 18be e98a cbbc 33f8 5b3e
00000070: 34b1 223d b88c 663e cc6a 833e 6221 91bd
00000080: ef73 093e 6d5a 4fbd a82b babd 969b 13be
00000090: 4933 003f ccb2 9c3d e218 eebc 6eb2 24bd
000000a0: fe07 703e 8dde 913e 04ca 2e3e d4c7 993a
000000b0: 555f a4be 2fb3 1abe f0c3 153e 9847 19be
000000c0: dde3 2e3e 2b90 8f3e 390a eb3a f173 91bd
000000d0: 3a09 9dbd 4a6e b53d a04a 17be 54ec 3abd
000000e0: 3a6d a33e 0cee 0e3e 34f2 aebe 2aa2 0dbd
000000f0: 2ca9 123e b73c 6f3e 8653 f93d 29b7 643e
00000100: f267 723e 1e2e 223e d2b7 5c3e 5e73 c03d
00000110: ce05 013d f68a e4be 1f63 32be b345 1c3c
00000120: 3e3e 62be a3ba 923e 4f71 cdbd 1de4 d2bd
00000130: f8ac c53e fdd0 a4be 9fbc a7be ecdd 7a3e
00000140: 1cbb 1dbe 2007 b13e c859 13be fdba 823e
00000150: f371 b93e e044 52bd f675 2ebe abf2 4fbd
00000160: 7b1b 9c3e 17ae 45be bf83 a03e 74ae bc3e
00000170: 76bb c4bc 66fe 68be 6d2f d13e e327 f6bc
00000180: 8739 893d 4bb3 193e ff9f c73d 9f1a 46be
0.29246593 -0.13609035 0.07838116 -0.19674248 0.27344257 0.38152707 -0.07046501 0.39614254
0.38969657 0.03775673 0.23054047 -0.22468837 -0.07230225 0.21426927 -0.07702756 -0.23987398
-0.023528105 0.06593392 -0.11709164 -0.250916 0.3047871 -0.0013653451 0.28983808 0.28980592
0.2663538 -0.14864098 -0.024846511 0.21481399 0.039719775 0.22514617 0.25667417 -0.070864454
0.13423131 -0.050623346 -0.09090358 -0.1441482 0.50078255 0.0765129 -0.0290646 -0.040209226
0.23440549 0.28490105 0.1706925 0.0011732527 -0.32103983 -0.15107416 0.14625525 -0.14968717
0.1707911 0.2803968 0.0017932124 -0.07102192 -0.076677755 0.088589266 -0.14774561 -0.045635536
0.3191927 0.13957995 -0.3416916 -0.03457848 0.14322346 0.23363005 0.12174134 0.22335495
0.23672464 0.15837905 0.21554497 0.093970045 0.031499676 -0.4463727 -0.17420624 0.009538102
-0.22094056 0.28658018 -0.100313775 -0.102974154 0.38608527 -0.32190695 -0.32761094 0.24498719
-0.15403408 0.34575748 -0.14389718 0.25533286 0.3621975 -0.051335216 -0.17037186 -0.050768536
0.30489716 -0.19304691 0.31350514 0.36851847 -0.02401517 -0.22753295 0.40856495 -0.030048316
0.067004256 0.15009801 0.09747314 -0.19346093

enc.2.bias f4 [10]
00000000: 8fd8 6fbe 45c5 383e 13fd 743e 4eec c53e
00000010: 7675 5c3e 9850 f33c db4c 503e b196 cd3d
00000020: be5e 973d d00b 46be
-0.23422454 0.18044002 0.23924665 0.3865685 0.21529183 0.029701516 0.20341818 0.10038508
0.073911175 -0.19340444

enc_mean.weight f4 [1, 10]
00000000: 7318 d03e 5686 3b3e 8af0 8ebd 22ee bfbe
00000010: daae 59be 4d19 c1be cae6 903e 416a 35be
00000020: 3723 af3e a6b5 903e
0.40643653 0.18312964 -0.06979473 -0.37486368 -0.21258107 -0.37714615 0.28301078 -0.17716314
0.34206554 0.28263587

enc_std.0.weight f4 [1, 10]
00000000: d706 fd3d 9552 3dbe a786 9abe df7f 663c
00000010: cb56 debe f043 e93d 1c62 76be 0e06 5b3d
00000020: f373 72be a895 5c3e
0.1235482 -0.18488534 -0.30180857 0.014068573 -0.43425593 0.11389911 -0.24060863 0.05347257
-0.23677044 0.21541464

prior.0.weight f4 [10, 10]
00000000: fa77 38be d6fd 91be fb55 92be f52c cfbc
00000010: d447 c23e 81c6 c8be e82e 8dbe b22f 903d
00000020: 3dc7 123e c331 d53e a99d 2c3d 9271 46be
00000030: eeb6 c0bd 0b39 463e ac9e 053e 007c e7bd
00000040: a34b f13d 3028 8cbe ee97 d13e 4965 9a3e
00000050: ded6 ee3d 35cf 4fbe ad00 db3c e9ef 943e
00000060: 8f84 a03e 3eea 5e3e 1fd2 c2be b589 99be
00000070: f933 1b3e 2358 563e 2f2a a5bd 6eb7 8dbd
00000080: 30cb 683e 65b4 b2bd 355d 843d 612a efbd
00000090: 088d 94be 948f 50bc 2168 f3bc 7fc5 21be
000000a0: 1a0a c13e 2b6f 563e efda b83c af0a 0abe
000000b0: da8f 62be befd 16be 54f8 8d3d ed09 c0bb
000000c0: 124d 90be 1f6b 073e 8fe2 ecbd 6999 9abe
000000d0: ce80 123e 63c4 73be ac6a 15bd 6573 533e
000000e0: 7737 f43d bbad d83e 9181 bdbe 5d3b 47be
000000f0: 9e4a 29be 8ea3 a43d 40f5 a6be 3976 bdbd
00000100: 0023 b4bd c4e8 96bd de30 4c3a e62b 193e
00000110: fa09 b1be 4b64 91bd 958b 90be 2ad8 e9be
00000120: c336 6cbd b187 2bbe 5a15 efbc a8b4 a4be
00000130: 0941 fa3e d19f 3bbd 8029 85be 6710 30be
00000140: fb43 093e bc82 4dbe abc6 fb3d 4b39 47be
00000150: 7723 ecbd 5512 b3bd afc8 64be 78b6 883e
00000160: c8ea 1ebe 4f96 683e 7e98 7f3e c7a0 4fbe
00000170: 58bf 42be 6610 9e3e a64b 843e 3540 cebe
00000180: 23f8 0a3e 2524 bbbe 3240 a23e bdac db3e
-0.18014517 -0.28513974 -0.28581223 -0.025289992 0.37945426 -0.39213946 -0.2757485 0.07040347
0.14333816 0.41639528 0.042142544 -0.19379261 -0.09409891 0.19357698 0.1304881 -0.11302948
0.11782005 -0.2737441 0.40936226 0.301554 0.116620764 -0.20293887 0.02673372 0.29089287
0.31351134 0.21769044 -0.38050935 -0.29987875 0.15156545 0.20932059 -0.080646865 -0.06919752
0.2273376 -0.08725814 0.0646309 -0.11678005 -0.29013848 -0.012729544 -0.029712738 -0.15797995
0.3770302 0.20940845 0.022565333 -0.13480638 -0.22125188 -0.14745232 0.069321305 -0.0058605582
-0.281838 0.13224457 -0.1156665 -0.30195168 0.14306948 -0.23805384 -0.036478683 0.20649488
0.119246416 0.42320046 -0.37012914 -0.19456239 -0.1653237 0.08039008 -0.32608986 -0.09251065
-0.08795738 -0.07368615 0.0007789264 0.14958152 -0.34577924 -0.070992075 -0.28231493 -0.45672733
-0.057669412 -0.16750981 -0.029184986 -0.3216908 0.48877743 -0.04580671 -0.26008224 -0.17193757
0.13404839 -0.20069402 0.12293752 -0.1945545 -0.11530202 -0.08743731 -0.2234218 0.26701713
-0.1551925 0.22713588 0.24960515 -0.20276175 -0.19018304 0.30871886 0.25838965 -0.4028336
0.13571219 -0.36551014 0.31689602 0.42905226

prior.0.bias f4 [10]
00000000: 27bd 1ebe 1d7a f03e 8823 9d3d 6227 10be
00000010: 9c15 7cba e2ed 3e3e 8125 ad3e 80d2 253d
00000020: d832 94be 057d 893e
-0.15501843 0.46968165 0.07672793 -0.14077523 -0.0009616257 0.18645433 0.33817676 0.04048395
-0.2894504 0.26853195

prior_mean.weight f4 [1, 10]
00000000: 30d4 ee3e 7372 7f3d 38b3 383e e97c e8bd
00000010: 219f c43c d21c 94be d0ce 64be 4097 9fbe
00000020: d753 513e daee b83e
0.4664626 0.062365007 0.18037117 -0.1135195 0.02400166 -0.28928238 -0.22344518 -0.31170082
0.20442139 0.3611973

prior_std.0.weight f4 [1, 10]
00000000: 481e 543e 43ee aebe 57c5 543d 99f9 4abe
00000010: ac34 e83d 2bd5 76bd d3cb 6abe d65a 9abe
00000020: 3972 0d3e a295 8fbe
0.20714676 -0.34166154 0.05194601 -0.19821776 0.11338171 -0.060261887 -0.22929315 -0.30147427
0.13813104 -0.28043848

dec.0.weight f4 [10, 20]
00000000: 6671 c13d 45d7 473e 7101 21be 3d2b c6bb
00000010: 2c74 3c3d 6687 1cbd c737 523e b569 2dbe
00000020: 3d7f e0bd 26f1 30bc 793d 80bd 2ba3 2a3e
00000030: 6081 ab3d a590 553e 612b 2bbe 11c0 163e
00000040: 79a0 bc3d 1d12 4f3e 7694 d5bd 7a58 f3bd
00000050: 8270 d13d fa10 f3bd e46b 42be 384c 32be
00000060: 022e 123e a3e1 c93d 9836 4ebe 5d83 16be
00000070: 081b 67bd fcbf d9bd 66d8 493d 0e63 05be
00000080: 818b 5abe f57e b13d c174 8c3c 27eb 3fbe
00000090: 026c 603e 18c2 12be 5737 503e d265 07bd
000000a0: b81e 06be 70d4 1abe eb56 7ebd 78d7 f93d
000000b0: 4aaf 0f3d 40fb a1bd 2c57 52bd 9034 89bd
000000c0: 9a6c d6bd b458 12bd 65de 40bd 9bd8 30bd
000000d0: 5a9d 5e3d f19c 353d 8563 123d cda7 2ebd
000000e0: 5f25 8b3d 96e0 07be 87b5 4e3e d28a 8bbd
000000f0: fefe 2bbe a1f1 11be 658e 59be 30ad babc
00000100: 2e44 db3d 140f 013e eb8b 62bd 72dc 46bc
00000110: ef12 013d 24a9 9ebd 00ec c53d 765e 2d3e
00000120: 0192 8c3d cb42 2339 0f43 ca3b fc78 913c
00000130: a0ed df3c 67ab c4bd 539e eabd 004e a2bc
00000140: bc8a 19be d31d b1bd f053 1ebe c3bb 483e
00000150: d23e e6bd 7613 4abd fd32 efbd e62e 183c
00000160: 8bbb 093e f656 373e f936 95bc 8f6b 23be
00000170: 1dfd 4dbe cb7d c6bd 3759 c53d cbd5 5fbe
00000180: 022f 34be d77e b6bb 1d08 443e 712f 973d
00000190: 4b6d a4bd 5f30 633e c431 6cbd 8eb9 40bd
000001a0: b706 3abe 875b 48be 92b1 973d d8ad 50bd
000001b0: 1eae 55be 9483 813d af06 92bd 56be 94bd
000001c0: dbb0 7b3c 67ae 213d d037 c43d e7b3 16be
000001d0: 3eef cdbd bd28 093e 7f40 cd3d 4b55 4ebe
000001e0: 9826 703d 602c 23bd 7d1c 02be 89ee 003e
000001f0: 37e0 253d 63a5 47be c0fd 093e 8c6c 99bd
00000200: 964c c6bd 8e97 e8bd a291 6b3c 4426 833d
00000210: 89e2 62be 4b5f 3dbb fe78 eabd d03d be3d
00000220: 4f25 31be 212d 50be ccb2 c43d 369d c0bd
00000230: 66e5 5cbe a902 d9bd 3f78 4f3e 4fae 2fbe
00000240: bb8f b43d cac7 44be 0ed1 3cbd d002 10be
00000250: 682f 5bbe 484a 223d e71a 12bd dd73 4e3e
00000260: 1195 503e ed2a 5abe f68f 0a3e f778 acbd
00000270: 6658 84bc 9056 e4bd 4ade eabd 011a 87bd
00000280: f8cd a83c de13 87bd 6248 70bd eaea 4fbd
00000290: 2757 06be 04ba 04be a228 2c3e e085 043d
000002a0: 385c 9d3d 3839 683d 1545 13be e912 44be
000002b0: 190b 4f3e 4bd3 19be 85e8 64bc 81e4 4a3d
000002c0: 9058 43be 2a2b 8d3d c52f 213e 59c0 f73d
000002d0: 73d6 08be 24d6 f9bc 3559 8bbd ce9c 61be
000002e0: e9c2 6bbd fd96 dc3d 1773 16be a59e 3c3e
000002f0: 06d3 43bd 1d2d 193e d528 38be cad8 b03d
00000300: 4a64 3b3e afb2 bbbd 1a43 b23d 1e63 393d
00000310: 94f2 f03d 6721 34be c622 b8bc 42f1 3f3c
0.09445457 0.19515713 -0.15723206 -0.006047635 0.046009228 -0.038215064 0.2052909 -0.16934855
-0.10961769 -0.010799682 -0.06261725 0.16663806 0.08374286 0.20855959 -0.16715766 0.14721705
0.09210295 0.20221753 -0.10428707 -0.1188211 0.10226537 -0.118684724 -0.1898647 -0.17411888
0.14275363 0.0985749 -0.20138013 -0.14698549 -0.056422263 -0.10632321 0.04927864 -0.13026068
-0.21342279 0.08666793 0.017145516 -0.18742047 0.21916202 -0.14331853 0.2033361 -0.033056088
-0.13097656 -0.15120101 -0.06209461 0.121993005 0.035079278 -0.0790925 -0.051352665 -0.066994786
-0.10469933 -0.035729125 -0.047087092 -0.04317532 0.05434928 0.044339124 0.03573944 -0.042640496
0.06794237 -0.13269266 0.20186435 -0.06813587 -0.1679649 -0.1425233 -0.21245725 -0.02278766
0.107063636 0.12603408 -0.055309217 -0.012137519 0.031512197 -0.07747105 0.09664154 0.16930565
0.068637855 0.00015569774 0.006172545 0.017757885 0.027334988 -0.09603005 -0.11455979 -0.019812584
-0.14994329 -0.08648267 -0.15461707 0.19602875 -0.11242451 -0.049334966 -0.11679647 0.009288525
0.13450448 0.17904267 -0.01821469 -0.15958999 -0.20116086 -0.09691962 0.09636157 -0.218589
-0.17596057 -0.0055693197 0.1914372 0.073820956 -0.080286585 0.22186421 -0.057664648 -0.04705196
-0.18166624 -0.19566165 0.07406916 -0.05094704 -0.20867202 0.06323925 -0.07130181 -0.07262866
0.01536199 0.039472964 0.09580958 -0.14717065 -0.100553975 0.13394447 0.10022067 -0.20149724
0.058630556 -0.03983724 -0.1270618 0.12590994 0.04049703 -0.19496684 0.13475704 -0.07491407
-0.09682576 -0.11357032 0.014377983 0.06403783 -0.22156729 -0.002889591 -0.11448859 0.092891335
-0.17299388 -0.20329715 0.09604415 -0.094049856 -0.21571884 -0.105962105 0.20260714 -0.17156337
0.08816477 -0.19216838 -0.046097808 -0.14063573 -0.21404803 0.03962162 -0.035670187 0.20161386
0.20369364 -0.21305437 0.13531479 -0.0842151 -0.016155433 -0.11149323 -0.114681795 -0.06596757
0.020606026 -0.06595586 -0.05866278 -0.05076114 -0.13119183 -0.12961584 0.16812375 0.032354236
0.07683605 0.056695193 -0.14381821 -0.19147839 0.20219077 -0.15022008 -0.013971453 0.049534325
-0.19076753 0.068929985 0.15740879 0.12097234 -0.13363056 -0.030497618 -0.06804124 -0.22032472
-0.057558928 0.10770986 -0.14692341 0.18419893 -0.04780867 0.14958616 -0.17984326 0.08635099
0.18299976 -0.091649406 0.08704205 0.04526054 0.11765018 -0.17590867 -0.022477519 0.011715235

dec.0.bias f4 [10]
00000000: 8de2 c43d 6f91 143e 7e50 70ba c92b 20bd
00000010: b302 063e 095b 343e 518e d9bd db7b 3e3e
00000020: 6c47 593d c533 efbd
0.09613524 0.14508604 -0.00091672677 -0.039104257 0.13086967 0.17612852 -0.10622848 0.18601935
0.05304663 -0.11679796

dec.2.weight f4 [10, 10]
00000000: 79ce 6abb 53aa 803d 4de3 89bd 6712 26be
00000010: b9e6 a03c d944 9fbe acb9 f6bc 71ad 963e
00000020: 9659 9d3e 5e18 223e 1cfb ffbd 63cc bf3d
00000030: 96c0 25bd 7b64 9dbe 0f1c 933e 9ed9 8e3e
00000040: d309 4bbe 7442 223e 87ea 8bbe db33 723e
00000050: d563 983c c91a 083e 67ba 3f3e 19c3 553e
00000060: a6e9 8a3e e0ae c8bd e3ad e53c d78c eb3d
00000070: 0cc2 40be a783 75be 9b01 a2bd ac84 2d3c
00000080: 17c9 24be 9e61 1e3c bf02 873c 7a65 e63d
00000090: 2790 e03d 7185 ea3d e8f1 213e d35d 92be
000000a0: c059 333e 4b83 873c 1643 913e cdde 923e
000000b0: aa7a a2bd bc63 953d 52e7 68bc d58d 8b3e
000000c0: 825e 93bd 1246 4cbd 0b21 9fbe 8372 693e
000000d0: 25e7 f53b 880b 46be 7376 8dbe c75d c73d
000000e0: e764 b2bd cd7f e2bd 6c94 23bd 27d8 563e
000000f0: a8b9 093c 0109 3bbe baca 453e 569c 6d3e
00000100: b6c0 3c3c 72e5 b83d 35be 9abe b154 f83d
00000110: 76e1 9cbd 4d99 63be 918e ecbb 0f26 033c
00000120: fcaa 28be d5df bb3d 06fb a73c 40d7 8d3c
00000130: a5ff 3d3e f5b5 3fbe 344c 43be 20e0 1c3e
00000140: 09af 4dbe a6f2 2d3e 05ec 74be ca5d 47be
00000150: 71e7 9c3e 14b3 45be b91c a53d c010 97be
00000160: 48be 11be 10f7 34be 4db3 243e 1454 7bbe
00000170: a0f5 aa3d ed33 8e3e 12a8 283e 5e8e cc3c
00000180: 81e8 d43d 7335 9f3e 73d3 84be 960a 9f3e
-0.0035828634 0.06282487 -0.06732807 -0.16217957 0.019641267 -0.31107214 -0.030117832 0.294292
0.3073241 0.15829608 -0.12499067 0.093651555 -0.040466867 -0.30740723 0.28732345 0.27900404
-0.19827966 0.15845662 -0.27327368 0.23652594 0.018602291 0.13291468 0.1872345 0.20875205
0.27131385 -0.0979898 0.028037017 0.115014724 -0.18824023 -0.23976003 -0.079104625 0.0105907135
-0.16092335 0.009666828 0.016480802 0.11249824 0.10964995 0.11451233 0.15814936 -0.28587207
0.17514706 0.016542098 0.28371495 0.28685609 -0.079335526 0.072944134 -0.014215307 0.27256647
-0.0719576 -0.04987151 -0.31079897 0.22797589 0.007504361 -0.19340336 -0.27629432 0.097346835
-0.08710652 -0.11059532 -0.039936468 0.20980893 0.00840608 -0.18265153 0.19315615 0.23204169
0.011520555 0.09028138 -0.3022324 0.121255286 -0.07660191 -0.22226448 -0.0072191437 0.008004679
-0.16471475 0.09173552 0.02050544 0.017314553 0.18554552 -0.18721755 -0.19072038 0.15319872
-0.20086302 0.16987094 -0.2391816 -0.19469371 0.30645326 -0.19306594 0.08062119 -0.29504967
-0.14232743 -0.17672372 0.16084023 -0.24543792 0.083476305 0.2777399 0.16470364 0.02497023
0.10395909 0.31095466 -0.25942573 0.31062764

dec.2.bias f4 [10]
00000000: 2560 9fbe b475 2cbd c758 c4bd b27b 2ebe
00000010: 1ef3 57be b1cf 823e 50f0 31be 64e8 013e
00000020: cb9a e13d a47c ccbd
-0.3112804 -0.042104438 -0.095872454 -0.17039374 -0.21088836 0.2554908 -0.17376828 0.12686306
0.110158525 -0.09984711

dec_std.0.weight f4 [1, 10]
00000000: b34e 9a3d ef6e 3a3e 6cae f23c 1a9e 8fbd
00000010: 9cbb 1cbe eb15 21be 6ff8 d43c 6192 9a3e
00000020: d251 9a3d 8289 5e3e
0.07534542 0.1820638 0.029624186 -0.07012577 -0.15305942 -0.15731017 0.025997369 0.30189803
0.07535137 0.21732143

dec_mean.0.weight f4 [1, 10]
00000000: 4297 3e3e d0e8 0fbd 8503 43be 9592 4ebe
00000010: 2c68 103e 05ac 1b3e a705 2c3e c7c7 81be
00000020: 3d67 c93d ae47 423e
0.18612388 -0.035134137 -0.19044311 -0.20173104 0.14102238 0.15202339 0.16799031 -0.2534773
0.09834144 0.18972656

rnn.weight_ih_l0 f4 [30, 20]
00000000: 400c a73c 8c7e 083e dead 8f3d 2405 a83e
00000010: 5a41 4f3e c18b 733d 03e9 8b3e 0041 93be
00000020: c3d8 cabe 3dee 663e ddab ffbd 3d78 4f3d
00000030: 65ed b4bd 7d79 1b3e ebea 603e b87e 333e
00000040: 4dab 843e effb fabd 4515 40be f313 223e
00000050: 8486 3abe 7282 c8bd 4ac1 9c3c 0293 ad3c
00000060: 976e ae3d d430 b93e 71a8 4f3e 61eb 14be
00000070: 73cd bbbe d686 b33e 3aab 973e db79 5ebe
00000080: c32c 67be 40d8 93bd 18a3 ba3d 4b53 e53b
00000090: e371 3bbe d098 3d3e f249 713e b765 303c
000000a0: 097a 643d ab3f 9e3e 7808 1cbe 0335 9b3d
000000b0: a159 0dbd 81a6 b3bd 772f aebd dcdb c73d
000000c0: d509 debd 69b1 a7bd d85c 1e3e 2ef1 993e
000000d0: c495 893e 837c b53e 23ce 3c3e 27bb b33c
000000e0: 6512 613e 9cf7 1cbe d8ac a93d d945 9ebc
000000f0: a0cf 2fbe 56a6 9d3e f6bf 093e 52ea d3be
00000100: a672 d5be 04b9 e2be e212 10be cb27 b5be
00000110: 9fb5 56bb b888 723e 3aaf 63be c239 673e
00000120: dbb2 10bc 7184 37bc 65d9 70be 958c 5b3e
00000130: 2c93 1cbe 6a55 7cbe a653 b4be 9163 42be
00000140: 2d03 273e df4d 953e ee06 3d3d cc07 8c3e
00000150: 13ed b03d 74e8 923e a8b0 0a3e 1115 cfbe
00000160: 0c33 cabe dd27 31be 6e8c 753d a6c2 dbbd
00000170: 4eaa 63be c3d0 083e 6a1f c7bb 0588 e53c
00000180: fb1a b73e 8cb1 b4bc 3bb3 f73d 4163 ed3e
00000190: 7641 ec3d 19e5 923e d54b d4bd 6e80 5c3e
000001a0: f903 663e 96d7 b43e b493 853e 4f7e d0bc
000001b0: fb75 db3d 8239 9bbe a669 873e b0f3 a13c
000001c0: 3ab8 9fbe da1e 8a3d 3404 00be 37a6 f13c
000001d0: 0ed2 b2bd 5eb1 b4be 35ae a43e b79f ba3d
000001e0: f54d 343e 4bbd 40be 0f1e 023e 9a12 4f3e
000001f0: 5cb3 76be cb8b 673e c304 ddbd 4ddb f1bd
00000200: b1bf 2b3e 690b 3e3e 0756 2fbe 8742 a7bd
00000210: 1984 76bd 3218 b23e 05cf c7bd 0618 e83e
00000220: 82ff e93e 966e ab3e 7d70 ad3e 4975 f83e
00000230: f23d 1c3c f21c 04be 7aba 113f efd3 763e
00000240: 4e31 c2bc 157a 863e f9a8 0e3e 6d10 a3bc
00000250: 96bd bfbd 2892 8b3e b0ec 633d 467b 9d3e
00000260: 2bad e1bd 4ad6 873e 6a55 1d3e eccb 45bd
00000270: 99ce ce3e 71c1 6b3e 5310 0f3e 3b39 31bd
00000280: 308d 263d 55ad 1e3e 0154 dcbd 6f93 1bbc
00000290: 02ad 2fbe 8acb 9dbe e75e 18be 9b2e 6c3e
000002a0: a58e fc3e 17e3 fc3d 3e32 78be d76b bb3e
000002b0: 4134 b7bd bd34 aebd 25dd cdbd 9911 ba3e
000002c0: 9b58 b83c c403 263e 4fec 173d 9f37 263e
000002d0: 1a47 3abe 54c4 603c 0e31 8e3e 2b51 a33e
000002e0: 19e5 03be 2cc3 513e edb2 b0be 4e5f 47be
000002f0: c62f 0cbe 4ddf 053e 9e07 2a3e fedb 083e
00000300: f2e9 20be e55a 3c3e b310 a0be d6f1 ec3d
00000310: 1186 f3bb b43d e9bd 411f c83e f3ed c8bd
00000320: 1a86 bcbe d8fb dc3d 065d 2f3e 3b79 383e
00000330: 20e0 eb3e 3e38 69bd f7d6 b3bd 276f 60be
00000340: 2f6b 823e 4453 5f3e d544 de3e 38aa 863e
00000350: 628b 603d e15d 2abe 982b cbbd 9560 833e
00000360: a215 29be a198 ac3c ea46 0ebe 3386 b93d
00000370: 0aad 373e bf7e 863e f776 debe 50cc 38be
00000380: e153 b9be b9b1 cebe 26d4 a13c dbdb 8bbe
00000390: 6d46 963c 211b 8abe db87 99be a184 7fbd
000003a0: 2386 fbbd 9b74 713d 6b18 5c3e eda1 89bd
000003b0: 5a26 d23d ad5c 0cbe 76cc ea3c 7b0f 3bbe
000003c0: 0cfe 8a3d 30d7 5a3d 183b 8cbe 2afa 71be
000003d0: c03d af3d 4f1d f6bd 2b3c a83d 85f1 9f3e
000003e0: ecbb 0bbe ce88 a83e 4527 7fbe 1820 38be
000003f0: 362d 25be d8b8 26be 6659 fabd 0050 30be
0.020391583 0.13329524 0.070155844 0.32816422 0.20239773 0.05945945 0.2732621 -0.2876053
-0.396185 0.22551818 -0.12483952 0.050651778 -0.08834342 0.15183063 0.21964614 0.17528808
0.25911942 -0.12255084 -0.18758114 0.15827923 -0.18215376 -0.097905055 0.019135136 0.021188263
0.08517187 0.36170065 0.20279099 -0.14542915 -0.36680183 0.3506381 0.29622823 -0.21726172
-0.22575669 -0.07218981 0.09113139 0.0069984547 -0.18305163 0.18515325 0.23563364 0.010766438
0.055780444 0.3090795 -0.15237606 0.075784706 -0.034509305 -0.087719925 -0.08505147 0.09758732
-0.10841719 -0.08188135 0.15465105 0.30066818 0.26872075 0.35446557 0.1843801 0.021939827
0.21979673 -0.1532883 0.082849205 -0.019320415 -0.17169046 0.30790967 0.13452134 -0.4138971
-0.41689032 -0.4428178 -0.14069703 -0.35381922 -0.0032762063 0.23684967 -0.22234812 0.22580627
-0.008831705 -0.01120101 -0.2352043 0.21440347 -0.15290517 -0.24641958 -0.3522007 -0.18983294
0.16309805 0.29160973 0.046149187 0.273497 0.08638968 0.28692973 0.13543952 -0.4044576
-0.3949207 -0.17300363 0.059948377 -0.107304856 -0.22232935 0.13360886 -0.006076743 0.02801896
0.35762772 -0.022057317 0.120947324 0.46364787 0.11535923 0.28690413 -0.10366026 0.21533367
0.22462453 0.3532073 0.2608925 -0.025450854 0.10715862 -0.30317312 0.2644779 0.01976952
-0.3119524 0.06744166 -0.12501603 0.029498203 -0.08731471 -0.3529157 0.3216416 0.091124944
0.17607863 -0.1882221 0.12706779 0.2022194 -0.24091858 0.2261192 -0.10791924 -0.118094064
0.16772343 0.1855904 -0.1712266 -0.08166986 -0.060184572 0.34784085 -0.09756283 0.45330828
0.4570275 0.33482808 0.33874884 0.4852698 0.009536253 -0.12901667 0.56925166 0.24104284
-0.023705151 0.26265016 0.13931645 -0.019905293 -0.093623325 0.27259946 0.055645645 0.30758113
-0.11019357 0.26530677 0.15364614 -0.04829018 0.40391997 0.23023011 0.13971071 -0.04326747
0.04066199 0.15495808 -0.1075821 -0.0094956 -0.17155841 -0.3081935 -0.14879952 0.23064654
0.4932758 0.123480015 -0.24237916 0.36605713 -0.089455135 -0.08506153 -0.100519456 0.3634155
0.022503188 0.16212374 0.037090596 0.16232155 -0.18191186 0.013718683 0.277718 0.31897864
-0.12880363 0.20484608 -0.3451151 -0.1946995 -0.13690099 0.13073464 0.16604468 0.1336517
-0.15714243 0.18394049 -0.3126274 0.11569564 -0.0074317534 -0.11388722 0.39086345 -0.0981101
-0.3682106 0.10790223 0.1712533 0.18014996 0.4606943 -0.056938402 -0.08781236 -0.21917401
0.254724 0.21809107 0.4341189 0.26301742 0.054820426 -0.16637374 -0.09920424 0.25659624
-0.16512159 0.021068873 -0.13894239 0.090587996 0.17937103 0.26268575 -0.43450138 -0.18046689
-0.36196807 -0.40369967 0.01975448 -0.27316174 0.018344129 -0.26973823 -0.29986462 -0.062382344
-0.12281444 0.058949094 0.2149369 -0.06720338 0.10261221 -0.13707228 0.028661948 -0.18267624
0.06786737 0.053427875 -0.27388835 -0.23630586 0.085567 -0.12017309 0.08214601 0.31238952
-0.13645905 0.32916874 -0.24917324 -0.17980993 -0.16130528 -0.1628145 -0.12224083 -0.17218018

rnn.weight_hh_l0 f4 [30, 10]
00000000: 62d2 18be 3532 2a3e c52a b1be a896 7f3e
00000010: 3664 8c3e aa45 a6be 686a 5b3d e25f 9d3d
00000020: c354 1ebd 7c70 16be 7c64 353c d9d3 8a3d
00000030: 7309 97be e85b 8d3c 499a d73e 2fc7 75be
00000040: 920e 263b 0117 583e 449b ce3e e15f 113d
00000050: 841f 67bc d6b2 8c3d 727d c5be a224 493e
00000060: 35d2 2d3d 5b3a abbe c6bb 3d3e af0c 643d
00000070: 334c 7dbe 59fb 303d 7432 ac3d 6b51 abbd
00000080: 1a9a bfbc 5573 e3bd 07da 16be 0c81 cdbd
00000090: 5be4 b2bb 2099 b63e 2ef8 3fbe 6e49 cfbe
000000a0: 6f74 253e cec8 13be ecc5 adbe e31a 813e
000000b0: 6a18 7cbe 70c9 f53d d3f4 45be 12f3 3dbd
000000c0: 22f4 ae3e 5a72 0abe e0b5 d63d 9685 783e
000000d0: b546 0abd ede7 803e 3017 7c3e 98d2 593e
000000e0: a92e 0b3e 7523 4c3e 416c 49be f9cc c33e
000000f0: e0de 3dbe c224 bb3d 04e6 043e 43f9 183d
00000100: 09b7 13be 3b39 833d b1dd 113e 78b1 57bd
00000110: a3bd cabd 426c 84be 9924 763d ae49 943c
00000120: 90f7 cebe 9b50 593e c7cc 523e bfa8 9dbe
00000130: ad59 733e 7f25 cabd 5b5c 7d3c 02aa 24be
00000140: 6413 30be 083a 2e3d 130b a2bc 16fb e93d
00000150: c4e0 09bc 1ae9 943e 8655 5e3e ca5a 653e
00000160: 0ec2 babe 873a 4bbe 1ff3 06be c5fd 4abe
00000170: d387 a5bc 39d0 433e 7175 113e e4d9 77be
00000180: 29c8 55be 7c93 9f3e 1b10 6abe 451e c03d
00000190: ee09 58bd 2046 c1be 12a1 5dbe 3bad 2fbe
000001a0: 0382 f3be 7009 a5be f26b 943e f9e0 b23d
000001b0: 6e80 e1ba 7e2c fa3c e128 b2be 0eff d8be
000001c0: ae3d 603d fa63 cd3e 59c2 483e 3bc1 01be
000001d0: 8da8 503e e784 eabd 9231 553d 8e6d 8bbe
000001e0: 502f 233e a39a a8be 0397 ddbe 9b4a a53e
000001f0: 8af7 8bbe 1adc f7bd 0d4b bb3d e36e 38be
00000200: c7e2 713e 93ed b4bd eda2 93be c489 d2bd
00000210: b678 cbbe 33cc 643e c000 293e 5321 9ebe
00000220: 19c0 c03c 6913 efbd a306 30bd 3bec d53c
00000230: 4376 d8be 58d3 fabe d23e d63b 6a8d a63d
00000240: 321f 8dbd efb5 d8be 8249 e63e 508c 9cbe
00000250: 310f a53d 6708 503e 5142 20bd 5952 84be
00000260: 8910 a53d a84b d93e b35d 8ebe 314c 70be
00000270: da77 8e3e e18c cfbe e3b4 323d b70c 273d
00000280: 35da b9be 4915 58bd 490e 2cbe c1d7 ba3e
00000290: c6ad 3dbd 99dd 21bd 69b6 293e 2926 d7bd
000002a0: e7fe 4f3e 8d14 14be cc60 2e3d f36d e9bd
000002b0: 7dfd a2be 6c69 d03e 2eba 83be 8b79 d0be
000002c0: e6c8 633e 96b3 c3be 732d cf3d ef94 933d
000002d0: 2255 05be 67bc 35be 0523 e1be 1557 f63e
000002e0: d0ae 51be ce20 b8be 2848 bd3e f68f b5be
000002f0: 8b64 aebe 9cbd 843d 1288 ebbe 8700 9ebe
00000300: a3ff f1be 0803 33bc 2ed9 bcbc afe4 89bd
00000310: 95eb 9c3d c9d6 4fbd b9ba c1ba a5c6 60bd
00000320: 5078 eabd c2b0 f0bd 48c9 223e fe5d 723e
00000330: 400d a33e a445 c0bd 431e 0abc 9de3 3d3e
00000340: d8bc e73e fc5f a13d 3825 5fbb 796b a43e
00000350: 753e bc3e 6559 93bd 7e31 82be ac19 0abe
00000360: d744 aa3d e1e7 383e 4689 eebd 00e4 53bd
00000370: cfa7 0e3e 244a 133e 017a 9abd 7066 54be
00000380: 5178 a23e 4c0d be3e a685 4fbe b351 863e
00000390: be04 21be 036b 0bbd 542b 11be f557 833e
000003a0: 72a1 923d 2be9 60be 70b8 6e3d 0f2c 163d
000003b0: a39f 0c3e fecc 9abd bbdf ae3c 203b 98bd
000003c0: 906c 573d 9f78 36be 11b1 e53c b1e1 d4bc
000003d0: fba1 6ebd f67b e93c 7971 b3be f9a7 603e
000003e0: a4a9 8a3e 5f1d 1a3e 4de9 843e 501b b83e
000003f0: 4fb5 69be e1f2 9cbe 4a0c 043d 9950 523e
-0.14924005 0.16620715 -0.34602943 0.24959815 0.27420205 -0.32475024 0.053568274 0.07684304
-0.038655054 -0.14691347 0.011071321 0.06778688 -0.29499397 0.017255738 0.42109898 -0.24001764
0.0025338274 0.21102525 0.40352833 0.035491828 -0.014106635 0.06870048 -0.3857227 0.1964288
0.042436797 -0.3344296 0.18528661 0.05567616 -0.24736099 0.043208454 0.08408061 -0.083651386
-0.023388911 -0.11105982 -0.14731608 -0.10034379 -0.005459351 0.356637 -0.18747017 -0.4048571
0.16157697 -0.1443207 -0.33940065 0.25215825 -0.24618688 0.12001312 -0.19331674 -0.046374388
0.34170634 -0.13520184 0.10483909 0.24269709 -0.033758838 0.25176945 0.2461822 0.21271741
0.13592018 0.19935401 -0.19670202 0.3824232 -0.18542051 0.0913787 0.12978369 0.03734709
-0.14425291 0.064074 0.14244725 -0.05265948 -0.098994516 -0.25863844 0.060093496 0.01810154
-0.4042325 0.21222155 0.20585929 -0.30792806 0.23764677 -0.09870433 0.015463914 -0.16080478
-0.17194897 0.04253581 -0.019780671 0.11424844 -0.008415405 0.29084092 0.21712312 0.22397915
-0.36476177 -0.19846545 -0.13178681 -0.19823368 -0.020206368 0.191224 0.14204957 -0.24204212
-0.20877136 0.3116721 -0.22857706 0.093807735 -0.052743845 -0.37748814 -0.21643475 -0.17155926
-0.4756013 -0.32233763 0.28988606 0.087343164 -0.0017204413 0.030538794 -0.34796813 -0.4238209
0.054746322 0.4011534 0.19605388 -0.12671368 0.20376797 -0.1145113 0.052049227 -0.2723202
0.15936017 -0.32930478 -0.43279275 0.32283482 -0.27337295 -0.12102528 0.09145174 -0.1801105
0.23621665 -0.08834376 -0.2883524 -0.10280183 -0.39740533 0.22343521 0.16504192 -0.308848
0.0235291 -0.11673624 -0.04297508 0.02611362 -0.42277727 -0.48989367 0.0065382505 0.08132441
-0.06890716 -0.42326304 0.44977957 -0.305758 0.08059538 0.20315705 -0.039125744 -0.25844076
0.080597945 0.42440534 -0.27805862 -0.23466565 0.27825814 -0.4053717 0.04362954 0.04078361
-0.3629929 -0.052754674 -0.16802324 0.36492732 -0.0463083 -0.039517973 0.1657349 -0.10505325
0.20312081 -0.14460965 0.04257278 -0.11397924 -0.3183402 0.4070543 -0.2572798 -0.4071773
0.22244605 -0.3822295 0.101160906 0.07206141 -0.13020757 -0.17747651 -0.4397203 0.48113313
-0.20476842 -0.35962528 0.36969113 -0.35461396 -0.34061083 0.064814776 -0.4600225 -0.30859777
-0.47265348 -0.010926016 -0.023052778 -0.06733071 0.07662121 -0.050741944 -0.0014780379 -0.054876942
-0.11448729 -0.11752464 0.15897095 0.23668668 0.31846046 -0.09388283 -0.0084300665 0.18543859
0.45261264 0.07879636 -0.0034049284 0.32113245 0.367664 -0.07194785 -0.25428385 -0.13486356
0.083139114 0.18057205 -0.116472766 -0.05173111 0.13931201 0.14383751 -0.07542802 -0.20742202
0.3173242 0.3711952 -0.20265827 0.26234207 -0.15724465 -0.0340376 -0.14176685 0.25653043
0.071596995 -0.21963947 0.058281362 0.03666311 0.13732772 -0.075586304 0.021346917 -0.07433152
0.052593768 -0.17819451 0.028038533 -0.025986524 -0.058259945 0.028501492 -0.3504751 0.21939076
0.2708255 0.15050267 0.25959244 0.35958338 -0.2282307 -0.30654052 0.032238282 0.20538558

exp_avg f4 [10, 1]
00000000: b94c e6ba 8ebf a53a 1649 903a 53cb 4a39
00000010: 3f42 483a 5fac 19bb 8c79 503b 949c 32bb
00000020: 8cd1 8e3a 0c42 88ba
-0.0017570473 0.0012645589 0.001100811 0.00019339965 0.0007639266 -0.0023448688 0.0031810729 -0.0027253972
0.001089619 -0.001039566

exp_avg_sq f4 [10, 1]
00000000: 28be 0a39 0d8a a637 cdd1 9a37 faca 9237
00000010: c393 4237 a5d1 2238 d3b9 8a38 6ead 0039
00000020: 32a4 c937 c479 e837
0.00013231544 1.9853027e-05 1.8455927e-05 1.7499075e-05 1.15977045e-05 3.8819056e-05 6.614965e-05 0.00012271639
2.4037527e-05 2.7713257e-05

exp_avg f4 [10]
00000000: 3a7e e13a f645 03ba eda8 883a 35e6 783a
00000010: e317 f138 0e8e eb3a 98b1 e1ba 5f18 103b
00000020: 9b9d 923a a013 1ebb
0.0017203756 -0.00050076784 0.001042632 0.0009494753 0.00011496225 0.0017971413 -0.0017219065 0.0021987183
0.0011185886 -0.0024120584

exp_avg_sq f4 [10]
00000000: c630 bd39 01f0 2a37 7cc4 3e37 25f3 2a38
00000010: db7b 6637 36ae 0038 835b 9c37 b5ca f039
00000020: 214b fc36 468f 5538
0.00036085228 1.018867e-05 1.137063e-05 4.0757604e-05 1.3737906e-05 3.0679825e-05 1.8639263e-05 0.00045927396
7.5189314e-06 5.091659e-05

exp_avg f4 [10, 10]
00000000: dc5a a2b9 93fe a2bb ae00 0720 9e23 8720
00000010: ab4e b520 b5e3 efba c0d1 d2ba 5b80 00b9
00000020: dcfd 3620 b2ff 9fbb 0000 0000 0000 0000
00000030: 0000 0000 0000 0000 0000 0000 0000 0000
00000040: 0000 0000 0000 0000 0000 0000 0000 0000
00000050: b2e0 b63b 8be5 003b 8e15 cb3a 85d8 6a3b
00000060: cc3e 9d3b ea8b 823b af71 bc37 4d2a 5b3b
00000070: 619c 033a 2c8d 243b 4866 e6ba 3dbd 843b
00000080: dea1 0bba 7aff d5ba f0aa 08bb b9ac 573a
00000090: dd94 1f3a 83cd 98ba 2a65 c8b9 c571 883b
000000a0: b462 f7ba 45cf b53b 3d7c bdb9 8f9a c2ba
000000b0: dfe0 e9ba 2b45 3d3a 66d3 d63a 916d 9fba
000000c0: a307 b439 cb55 ad3b 2a1c d539 fcda a63b
000000d0: 902d 66b6 13d9 92b9 d511 f7b9 fd0b 393b
000000e0: 722c 9939 f0d1 1239 6313 9db9 e76d c63b
000000f0: 0000 0000 9ed4 c6a2 0000 0000 0000 0000
00000100: 0000 0000 3edd 09a1 7587 98a2 0000 0000
00000110: 0000 0000 b307 9da2 7138 a9ba 1db4 71bb
00000120: 4023 4fb7 727c cfb9 d8b6 84b9 a2ab 17bb
00000130: 7639 88ba c45b 41ba e2e2 7939 ad26 93bb
00000140: 6da6 88bb 9524 7cbb f1d9 0aba 9684 f7ba
00000150: 9201 0abb 8c06 8bbb 9f22 68ba a052 1fbb
00000160: 5cf6 c139 9f8c b1bb a939 9320 4090 a020
00000170: ad9f c61b ec52 291e ec40 961d d0fc da20
00000180: a53c a41c 4512 1120 3f40 b019 6d5e 2c21
-0.00030966743 -0.0049741953 1.143517e-19 2.289346e-19 3.071465e-19 -0.0018302115 -0.0016084239 -0.00012254847
1.5499995e-19 -0.004882776 0.0 0.0 0.0 0.0 0.0 0.0
0.0 0.0 0.0 0.0 0.005580985 0.0019668068 0.0015494095 0.0035834622
0.0047987457 0.003983964 2.2464284e-05 0.0033441961 0.00050205557 0.002510856 -0.001757809 0.0040508793
-0.0005326549 -0.0016326748 -0.002085384 0.0008227337 0.0006087551 -0.0011657927 -0.00038222346 0.004163953
-0.001887402 0.00554839 -0.00036141454 -0.0014847087 -0.0017843506 0.00072200847 0.0016389906 -0.0012163391
0.00034337965 0.0052897683 0.0004064751 0.005092023 -3.4299192e-06 -0.00028009023 -0.00047124797 0.0028235905
0.00029215548 0.00014001853 -0.00029959818 0.006055582 0.0 -5.3893125e-18 0.0 0.0
0.0 -4.6710217e-19 -4.1343103e-18 0.0 0.0 -4.2563087e-18 -0.0012910498 -0.0036881038
-1.2346369e-05 -0.00039574836 -0.0002531323 -0.0023143073 -0.0010393101 -0.000737604 0.00023831011 -0.0044906945
-0.00417023 -0.0038473953 -0.0005296758 -0.0018884118 -0.0021058065 -0.004242724 -0.00088552566 -0.0024310723
0.0003699538 -0.0054183747 2.4940925e-19 2.720051e-19 3.285954e-22 8.963933e-21 3.9771797e-21 3.7097934e-19
1.0868286e-21 1.2288023e-19 1.8223922e-23 5.840084e-19

exp_avg_sq f4 [10, 10]
00000000: 4b3e 0135 9287 0c39 6226 ac2c 28bc b12d
00000010: 5ad1 1e2e 1a30 cb37 2698 6f37 bbdf 9b33
00000020: 6c25 1a2d 2cbf 1e39 0000 0000 0000 0000
00000030: 0000 0000 0000 0000 0000 0000 0000 0000
00000040: 0000 0000 0000 0000 0000 0000 0000 0000
00000050: d86e 313a 9cf2 5738 37a8 2a38 7894 8939
00000060: ed1e c639 d6f7 a639 0bf9 1433 1b38 8339
00000070: 0b2a a537 0f9c 7539 e975 3f3a 3558 3a39
00000080: 759a 2938 d8d7 a039 0b0f e039 3553 bf39
00000090: 0803 8836 368e 8d39 d6a9 c437 7610 e739
000000a0: a953 3a39 c978 2c39 2f72 8537 8ebe b838
000000b0: b0a0 1139 1f22 df38 f64e e937 57ee 8b38
000000c0: 0670 4f37 3c3a 8f39 4d7d 703a 63e7 8739
000000d0: 47bd 3738 486a b139 3860 f439 014b 133a
000000e0: 28f3 b936 0962 af39 cf5f cf37 1504 3f3a
000000f0: 0000 0000 75b4 5033 0000 0000 0000 0000
00000100: 0000 0000 d7c8 8631 949d fa32 0000 0000
00000110: 0000 0000 71fa 3a33 cd58 1139 0834 7039
00000120: 3cb6 ea35 c1eb f937 80a8 0538 2ca6 2039
00000130: f9cc 5838 387b 4738 1b0f c533 8097 c139
00000140: 62e0 c539 a801 ad39 3543 7937 3261 f438
00000150: 5d01 2339 5b74 9939 76fc 5c38 83a3 0e39
00000160: 6893 a136 275f 1c3a 4ce5 2c36 eef6 e335
00000170: 45df a831 8cde f134 1609 a834 fe4a 8c36
00000180: 3a99 9f32 353b 4135 6729 6d2e f35b 0a37
4.8146893e-07 0.00013401944 4.8927954e-12 2.0206128e-11 3.6110982e-11 2.4221885e-05 1.4280935e-05 7.258446e-08
8.762196e-12 0.00015139271 0.0 0.0 0.0 0.0 0.0 0.0
0.0 0.0 0.0 0.0 0.0006768531 5.1485942e-05 4.068782e-05 0.00026241294
0.00037788544 0.0003184664 3.468544e-08 0.0002502807 1.968911e-05 0.00023423157 0.0007303642 0.00017771202
4.043659e-05 0.00030678394 0.00042735817 0.00036492353 4.0534687e-06 0.0002699957 2.3444107e-05 0.00044072018
0.00017769508 0.00016448194 1.5908006e-05 8.809297e-05 0.00013888138 0.00010639824 2.7812534e-05 6.672431e-05
1.2364244e-05 0.00027318473 0.00091739447 0.00025921603 4.380688e-05 0.00033839257 0.00046610995 0.00056187814
5.5417368e-06 0.00033451643 2.4720937e-05 0.000728668 0.0 4.85929e-08 0.0 0.0
0.0 3.922746e-09 2.9175489e-08 0.0 0.0 4.3534275e-08 0.00013861358 0.00022907567
1.7487396e-06 2.9792895e-05 3.18666e-05 0.00015320693 5.168931e-05 4.7560054e-05 9.176275e-08 0.00036924705
0.00037741946 0.00032998365 1.4857204e-05 0.00011652931 0.00015545399 0.00029269126 5.268721e-05 0.00013603088
4.8153343e-06 0.00059651065 2.5763466e-06 1.6984684e-06 4.9148263e-09 4.5051672e-07 3.129905e-07 4.1810554e-06
1.8579716e-08 7.198426e-07 5.3924334e-11 8.24685e-06

exp_avg f4 [10]
00000000: 0c9c 2abb 0000 0000 374f a23b cc75 b03a
00000010: 04cf a83a e87d 7d3b 23a6 bca1 ff82 4dbb
00000020: 22b7 b4bb 68ca 2e21
-0.0026032953 0.0 0.004953291 0.001346284 0.0012879078 0.0038679782 -1.2783352e-18 -0.0031358597
-0.005514995 5.9221376e-19

exp_avg_sq f4 [10]
00000000: b445 5938 0000 0000 98fc 053a a607 243a
00000010: b2b9 4839 e14f 7d3a 1744 1032 d89f 9139
00000020: 603f 0f3a de5d 1a37
5.1801748e-05 0.0 0.0005111187 0.0006257243 0.00019142663 0.0009663087 8.397385e-09 0.00027775648
0.00054644607 9.20097e-06

exp_avg f4 [10, 1]
00000000: 8cc4 06ba 40c8 91ba fc2a 98b9 553b bb3a
00000010: f94c a2ba 4ba1 f3b9 2671 4b3a 59b7 9d3a
00000020: d63d a4b9 5819 923a
-0.0005140982 -0.0011122301 -0.00029023725 0.001428465 -0.0012382559 -0.00046468744 0.0007760696 0.0012032791
-0.0003132659 0.0011146469

exp_avg_sq f4 [10, 1]
00000000: b213 ac36 a9d5 a737 9b09 2a36 a09d ee36
00000010: 93d4 f036 6fd0 8136 0dcd 4435 4e55 0f38
00000020: f52a 2737 9cb6 1637
5.1282923e-06 2.0007445e-05 2.5337565e-06 7.1113027e-06 7.1773043e-06 3.8687645e-06 7.331408e-07 3.4173303e-05
9.963977e-06 8.983214e-06

exp_avg f4 [10]
00000000: 8622 253a b9ac e1ba 0ab2 4cba 8727 a63a
00000010: ca8a b9ba b9eb deba 5e9c f1b9 688d 2b3b
00000020: f390 cbb8 66f4 843a
0.0006299395 -0.0017217613 -0.00078085123 0.0012676575 -0.0014155742 -0.0017007507 -0.00046083605 0.0026176814
-9.706793e-05 0.0010143637

exp_avg_sq f4 [10]
00000000: c26d 9037 8158 a638 622b f737 9d45 9f36
00000010: fd76 1538 8ae0 3e38 50d6 c734 6695 4139
00000020: ca2a 8a38 17c1 6237
1.7217248e-05 7.931982e-05 2.9464896e-05 4.7466733e-06 3.5635185e-05 4.550865e-05 3.722257e-07 0.0001846157
6.588323e-05 1.3515607e-05

exp_avg f4 [10, 20]
00000000: b843 4439 0000 0000 1e7e ce38 e864 cc39
00000010: 9bb5 6739 88ee c439 59c2 a09f c1af 303a
00000020: 0de6 863a 1635 a11c 60c6 b538 4099 1c39
00000030: cbbd 8739 9c49 acb9 7bb5 9db8 a8f9 9739
00000040: 31ca 95b8 cd17 153a 710d 8bb8 8c6d 82b9
00000050: 0323 9239 0000 0000 f427 d3ba 461b d0ba
00000060: 3bcc 81ba bc17 1ebb 4a67 681d 7976 2a3a
00000070: 3121 9e3a a7e1 159e 3b67 4439 68ea 013b
00000080: f6eb 0f3b 4620 edba 10af 1dba d7c5 083b
00000090: bf2e f339 0e5d 323b 6965 3fba 50e7 b9ba
000000a0: 0000 0000 0000 0000 d80a e115 871b 9f16
000000b0: 3655 0016 1688 5717 0000 0000 2e61 5114
000000c0: 0000 0000 0000 0000 7f29 0496 3e8b 9b14
000000d0: 029a 2996 8fef d415 28ad cf95 9f3c 8f95
000000e0: a97d 0996 2082 2895 d1f0 8a15 7a1d dc13
000000f0: 0000 0000 0000 0000 0000 0000 0000 0000
00000100: 0000 0000 0000 0000 0000 0000 0000 0000
00000110: 0000 0000 0000 0000 0000 0000 0000 0000
00000120: 0000 0000 0000 0000 0000 0000 0000 0000
00000130: 0000 0000 0000 0000 0000 0000 0000 0000
00000140: eaf3 a1b7 0000 0000 54e0 92bb 08e6 a4bb
00000150: 158e 38bb ba78 e1bb c8f4 4d1f f54c fdb9
00000160: 4cd3 bdb9 8cf2 a61c 5c14 4036 ed16 8a3b
00000170: 406b 9a3b 40bb 8ebb 334b d4ba d0e5 943b
00000180: a50e 0b3b fd40 bb3b 87c3 2cbb 5d96 8abb
00000190: fb60 8939 0000 0000 50fd 03bb eb62 4abb
000001a0: dc19 31bb 2015 7bbb 95d8 ae1e 1321 41ba
000001b0: 3609 28b9 b1d3 ea99 eb3d bdb9 19b9 1d3b
000001c0: d59d 193b 1715 e0ba 3125 73ba 33fb 163b
000001d0: 1763 903a e414 d63a 2734 84ba e3d7 ccba
000001e0: 75b9 00ba 0000 0000 1635 803a 4394 40b9
000001f0: 60b5 aeba 3ab0 2a3a cb0c 34a0 4d6d caba
00000200: 8115 bfba 9247 041e d992 42b9 cb24 fb39
00000210: bf31 3437 87e7 913a 5c0c f138 9818 6e38
00000220: 2f7c eab9 ec75 0bbb 7b54 623a 77f5 c33a
00000230: c6cb 1239 0000 0000 4536 18bb 8f59 51bb
00000240: eb2f 12bb 6633 88bb 1f8e 619d bb72 63ba
00000250: a946 2aba 05f8 1c9c 337a 503a d9de 303b
00000260: 8d9a 353b 3ab6 e3ba 58b8 5d39 41b9 2a3b
00000270: bb5d 013a 00db 003b 0f3f e4b9 9669 c7ba
00000280: efc2 3238 0000 0000 68e9 eeba 2d2e edba
00000290: 8a76 8eba 22e2 25bb 4908 741e 9515 b639
000002a0: 04f4 423a 66bc 959d 06e8 4eb7 a106 063b
000002b0: 8b07 203b 3f11 2abb 6577 82ba ee0c 1e3b
000002c0: 6d18 893a 0b43 6c3b 8836 c0ba 8e22 24bb
000002d0: 1f46 6a39 0000 0000 889a 243b 874c 343b
000002e0: 4805 b13a 685e 743b fc9a 109f 451c db39
000002f0: aa1b 0a3a 7342 511c 2001 2a39 34e4 13bb
00000300: dc33 27bb 784e 263b 315e 8d3a d414 21bb
00000310: af36 baba c923 5abb 66d8 e03a 67aa 293b
0.00018717244 0.0 9.8463366e-05 0.00038985093 0.0002209753 0.00037561753 -6.808416e-20 0.00067400566
0.0010291949 1.0667809e-21 8.667703e-05 0.0001493441 0.00025890613 -0.0003286124 -7.520147e-05 0.00028986973
-7.142535e-05 0.00056874455 -6.63054e-05 -0.0002487715 0.00027873376 0.0 -0.001610993 -0.0015877269
-0.0009902784 -0.0024123034 3.0758344e-21 0.0006502639 0.0012064335 -7.934658e-21 0.00018730473 0.0019823555
0.0021960712 -0.0018091283 -0.0006015161 0.0020869875 0.000463834 0.002721611 -0.0007301183 -0.0014183316
0.0 0.0 9.0893885e-26 2.5705208e-25 1.0366645e-25 6.964201e-25 0.0 1.0570969e-26
0.0 0.0 -1.0675969e-25 1.5705922e-26 -1.3700308e-25 8.6004075e-26 -8.3879827e-26 -5.7852883e-26
-1.1106423e-25 -3.402998e-26 5.61177e-26 5.5564874e-27 0.0 0.0 0.0 0.0
0.0 0.0 0.0 0.0 0.0 0.0 0.0 0.0
0.0 0.0 0.0 0.0 0.0 0.0 0.0 0.0
-1.9306277e-05 0.0 -0.0044823084 -0.0050323047 -0.002816086 -0.006880847 4.3612917e-20 -0.00048313258
-0.00036206318 1.1047655e-21 2.862208e-06 0.0042141587 0.004712492 -0.004355818 -0.0016196728 0.0045439973
0.0021218446 0.0057145343 -0.002636166 -0.0042293505 0.00026202932 0.0 -0.002014 -0.0030881714
-0.002702347 -0.0038312152 1.8512543e-20 -0.0007367294 -0.0001602516 -2.4280534e-23 -0.00036095022 0.0024066626
0.0023440022 -0.0017096129 -0.00092752563 0.002303791 0.0011015859 0.001633313 -0.0010086343 -0.0015628304
-0.0004910448 0.0 0.0009781446 -0.00018365779 -0.00133292 0.0006511245 -1.5250826e-19 -0.0015443951
-0.0014578552 7.002822e-21 -0.00018555987 0.00047901864 1.07404185e-05 0.0011131623 0.000114940776 5.6766527e-05
-0.00044724482 -0.0021280004 0.00086338044 0.0014950474 0.00013999557 0.0 -0.0023225707 -0.003194425
-0.0022306393 -0.004156518 -2.9851977e-21 -0.0008676459 -0.00064955145 -5.193663e-22 0.00079527794 0.0026988296
0.0027710528 -0.0017373033 0.00021144876 0.0026050361 0.00049349264 0.0019661784 -0.0004353453 -0.0015213962
4.2620053e-05 0.0 -0.001822752 -0.0018095426 -0.0010869068 -0.0025311788 1.2918966e-20 0.00034729825
0.0007436874 -3.963477e-21 -1.2332579e-05 0.0020450728 0.0024418558 -0.002595022 -0.0009953795 0.0024116593
0.001045955 0.0036050703 -0.0014664689 -0.002504501 0.00022342101 0.0 0.0025116522 0.0027511434
0.0013505602 0.0037287716 -3.0621386e-20 0.00041791998 0.00052684045 6.9238183e-22 0.00016212882 -0.002256644
-0.0025513088 0.002537636 0.0010785518 -0.0024579065 -0.0014206971 -0.003328549 0.0017154336 0.0025888921
