generative_ts/saves/250911_141705/model_LS4.pth (torch, 247755 bytes, 247 tensors)

encoder.latent.encoder.weight f4 [16, 1]
-0.40825185 -0.49866924 -0.12278545 0.453252 0.61590034 0.5843809 -0.15884736 -0.28145266
0.38000345 -0.91848737 -0.8512472 -0.15339278 0.089830734 0.6392446 0.22978553 -0.7519823
00000000: 6306 d1be 9351 ffbe f076 fbbd a510 e83e
00000010: a5ab 1d3f fd99 153f e2a8 22be 901a 90be
00000020: d08f c23e fd21 6bbf 56eb 59bf ff12 1dbe
00000030: 2df9 b73d 89a5 233f e64c 6b3e e981 40bf

encoder.latent.encoder.bias f4 [16]
0.92930955 0.27817467 -0.4611187 0.9436698 0.3933381 0.5444775 1.006241 -0.23810078
0.031187398 0.94376594 0.8875231 -0.34874225 -0.61864465 0.4157595 -0.6431109 -0.38005298
00000000: 3be7 6d3f e96c 8e3e c017 ecbe 5894 713f
00000010: 9d63 c93e e162 0b3f 81cc 803f b1d0 73be
00000020: b77c ff3c a59a 713f b734 633f 588e b2be
00000030: 7f5f 1ebf 6ede d43e eaa2 24bf 4e96 c2be

encoder.latent.backbone.c_layers.0.layer.D f4 [1, 16]
-0.35444286 2.1875212 1.77222 -0.49213874 0.29260087 -0.17855823 -0.49772865 -0.5444094
1.236193 -0.9100423 0.23490335 -0.44074455 -0.4067966 -1.0924913 1.0133741 -0.8673078
00000000: 8979 b5be 5900 0c40 1bd8 e23f 9cf9 fbbe
00000010: c8cf 953e f8d7 36be 4ad6 febe 6a5e 0bbf
00000020: 923b 9e3f 88f8 68bf 818a 703e 45a9 e1be
00000030: a547 d0be c1d6 8bbf 3eb6 813f e207 5ebf

encoder.latent.backbone.c_layers.0.layer.kernel.kernel.C f4 [1, 16, 8, 2]
0.16598774 -0.44146192 0.2895864 1.6070681 -1.172538 0.5894329 -0.50152504 -0.02088528
-1.0956182 -0.60706145 -0.81486636 0.17096245 1.5835375 0.039190285 0.74551004 0.33666947
-0.6443129 -0.36804253 -0.7269241 0.048258066 0.46505058 0.039542537 1.7253951 1.0750121
1.0157945 -0.9272502 -0.11826412 0.2516422 1.6567632 -0.53338295 0.374654 -0.60266834
0.6224693 0.21646135 -0.03545023 0.20752591 0.99871767 -1.9263957 -0.3088121 -0.11580378
-0.86896366 -0.2508866 -0.20538898 1.525627 1.0525421 0.12569451 -1.0155151 0.47795063
0.40532213 0.005211709 1.0599035 0.60594404 0.16453251 0.47090065 1.2396368 1.9310149
0.47948182 -0.07560289 1.1646099 0.5669013 -0.42569715 0.19342956 0.06641822 -0.033721507
0.46161708 0.7000786 0.20221879 -0.27952594 0.18466182 -0.72045964 -0.604731 -0.13684326
0.6599592 -0.6370781 0.46588576 -0.60320514 0.50756764 -0.6202739 -0.33974138 -1.4731425
0.14151134 0.6419374 -0.16263832 0.32283604 -0.25701198 0.07096295 0.45566237 -0.3635138
0.24817814 -1.0629921 0.38628823 -0.42697233 0.036568817 -0.13912137 0.3610466 -0.101822905
0.3029793 -0.44510388 0.95316243 0.4026803 0.6888197 -1.107173 -0.16766818 0.98258847
-0.38390446 0.007376375 1.3677 -0.96902424 0.9378135 -1.0413927 -0.67437863 -0.13409509
-0.48796767 0.57740474 0.23537317 0.47172382 -0.012229617 -1.7773834 -0.15210435 -0.51251
0.053061623 -0.048322737 -0.120572224 -0.02172403 0.24833079 0.9651434 -0.040094014 -0.43586984
-0.896475 -0.38546148 0.60754615 -0.48208606 -0.45999324 -0.6757994 -0.678976 -1.1670934
-0.4106037 -0.6951262 -0.7664551 -0.39096093 0.9515404 1.2147455 0.523257 0.349941
0.48371443 -1.08442 0.09364579 0.37774256 0.35052258 0.42739746 -0.8448439 0.8930743
0.5030041 -1.3326511 -0.7040806 0.79849476 -0.26478451 0.3235153 -0.057687204 -0.004465255
1.5494713 0.08834758 0.33796668 0.16090289 0.20489883 -0.049068343 1.1961585 0.006067867
0.16148475 0.6429947 0.13647802 0.71791893 0.42942736 0.09786274 0.0884899 -0.062222213
-0.38961035 0.048250128 -0.05754426 -0.39728874 1.2145969 0.4776939 1.2952437 -0.14371389
0.39785802 -0.36014727 1.3415325 2.926629 0.30197617 -0.3085338 0.07974942 -0.22008345
-0.21981907 -0.65357244 1.3011267 0.57310605 -1.0038815 0.58095235 0.117973596 0.049857162
0.3568165 -0.30199033 0.5920764 -0.68558544 0.0892383 0.40231648 -0.93566465 1.7310803
0.24903129 0.77970487 -0.87570006 0.51299393 0.8671827 0.02947699 -0.37156245 0.30979174
0.43361798 0.9661529 -1.5708079 0.14134146 -1.0546182 -0.5370131 -0.19936703 -0.07589572
0.31786165 0.25908697 0.48493022 -0.17771369 -0.1479556 -0.3838174 0.35285777 0.90621924
0.12832724 0.12819144 -0.65098584 0.27151683 -0.20675614 -1.228526 -0.46813303 0.13254403
-0.37053213 -0.5997323 0.8863271 0.0506511 -0.6837215 -0.36531094 -0.6039562 -0.59885883
0.038994048 1.1240542 -0.0964033 0.4574832 2.0368896 0.45236987 0.8021198 -0.27046028
00000000: b1f8 293e 4c07 e2be ab44 943e 68b4 cd3f
00000010: ba15 96bf 13e5 163f f263 00bf 9b17 abbc
00000020: 383d 8cbf 6168 1bbf 159b 50bf c810 2f3e
00000030: 5bb1 ca3f fe85 203d bfd9 3e3f f15f ac3e
00000040: b1f1 24bf 1270 bcbe b317 3abf 40aa 453d
00000050: 1c1b ee3e 5bf7 213d bfd9 dc3f ff99 893f
00000060: 8e05 823f 4560 6dbf 7534 f2bd 3fd7 803e
00000070: d110 d43f c98b 08bf a6d2 bf3e 7948 1abf
00000080: 265a 1f3f 0ba8 5d3e 4334 11bd ac81 543e
00000090: f6ab 7f3f 2294 f6bf 9f1c 9ebe 882a edbd
000000a0: 6774 5ebf 3574 80be 7d51 52be bf47 c33f
000000b0: b3b9 863f 10b6 003e 66fc 81bf f2b5 f43e
000000c0: 6286 cf3e fcc6 aa3b ebaa 873f 261f 1b3f
000000d0: 367b 283e e419 f13e 6bac 9e3f 7f2b f73f
000000e0: a47e f53e b0d5 9abd f011 953f 7220 113f
000000f0: faf4 d9be 6612 463e 4706 883d 901f 0abd
00000100: 1359 ec3e 5a38 333f 7112 4f3e 061e 8fbe
00000110: fd17 3d3e 0b70 38bf a7cf 1abf a420 0cbe
00000120: 16f3 283f 8d17 23bf 9488 ee3e a76b 1abf
00000130: f4ef 013f 45ca 1ebf 95f2 adbe ef8f bcbf
00000140: 59e8 103e 0256 243f a98a 26be c44a a53e
00000150: 1397 83be 0655 913d 944c e93e 7b1e babe
00000160: 6922 7e3e 2010 88bf 92c7 c53e 1e9c dabe
00000170: 2fc9 153d d575 0ebe 1adb b83e 8788 d0bd
00000180: 1a20 9b3e a8e4 e3be 7402 743f 1d2c ce3e
00000190: 7d56 303f d8b7 8dbf 35b1 2bbe eb8a 7b3f
000001a0: 208f c4be 85b5 f13b cb10 af3f f911 78bf
000001b0: 8c14 703f 5b4c 85bf 14a4 2cbf 3950 09be
000001c0: e6d6 f9be ccd0 133f aa05 713e c985 f13e
000001d0: bb5e 48bc 4d81 e3bf 3ec1 1bbe db33 03bf
000001e0: 2557 593d 10ee 45bd 92ee f6bd 98f6 b1bc
000001f0: 6d4a 7e3e a313 773f 9f39 24bd 552a dfbe
00000200: 637f 65bf 355b c5be 2588 1b3f fcd3 f6be
00000210: 3c84 ebbe 3101 2dbf 5fd1 2dbf 5163 95bf
00000220: a63a d2be caf3 31bf 6736 44bf 082c c8be
00000230: 2798 733f c87c 9b3f 2cf4 053f 772b b33e
00000240: 6ba9 f73e 46ce 8abf 5dc9 bf3d 7967 c13e
00000250: b277 b33e d7d3 da3e b147 58bf 84a0 643f
00000260: e0c4 003f 5094 aabf a03e 34bf 276a 4c3f
00000270: d691 87be cca3 a53e 6b49 6cbd 4651 92bb
00000280: 1355 c63f 93ef b43d f809 ad3e bac3 243e
00000290: 00d1 513e e3fb 48bd b91b 993f f5d4 c63b
000002a0: 425c 253e 4d9b 243f e5c0 0b3e 89c9 373f
000002b0: e7dd db3e 436c c83d 313a b53d b8dc 7ebd
000002c0: 027b c7be eda1 453d 88b3 6bbd 6e69 cbbe
000002d0: e977 9b3f 4b94 f43e 8cca a53f bc29 13be
000002e0: 0cb4 cb3e 3965 b8be 56b7 ab3f e44d 3b40
000002f0: 9f9c 9a3e 24f8 9dbe aa53 a33d 8e5d 61be
00000300: 4018 61be 8650 27bf 528b a63f 14b7 123f
00000310: 307f 80bf 4bb9 143f 249c f13d 0637 4c3d
00000320: a7b0 b63e 7a9e 9abe 5292 173f 8782 2fbf
00000330: 92c2 b63d 6dfc cd3e b887 6fbf 0a94 dd3f
00000340: 0f02 7f3e bd9a 473f e12d 60bf 9253 033f
00000350: afff 5d3f bb79 f13c 6f3d bebe 069d 9e3e
00000360: 2d03 de3e cc55 773f 3c10 c9bf d1bb 103e
00000370: bbfd 86bf b179 09bf df26 4cbe 376f 9bbd
00000380: c3be a23e 0ca7 843e c648 f83e 94fa 35be
00000390: ac81 17be b783 c4be c6a9 b43e fcfd 673f
000003a0: 3768 033e 9e44 033e 02a7 26bf 4104 8b3e
000003b0: e2b7 53be 5740 9dbf 22af efbe 9fb9 073e
000003c0: 63b6 bdbe 0e88 19bf 55e6 623f 8777 4f3d
000003d0: 5f08 2fbf 090a bbbe e09c 1abf d04e 19bf
000003e0: 39b8 1f3d 02e1 8f3f 186f c5bd 3d3b ea3e
000003f0: 665c 0240 069d e73e b957 4d3f c579 8abe

encoder.latent.backbone.c_layers.0.layer.kernel.kernel.log_dt f4 [16]
-3.757712 -4.858464 -5.022934 -6.758325 -3.910468 -6.560558 -5.4830556 -5.0501714
-3.471361 -6.715121 -6.861027 -5.731267 -3.0302713 -3.7842703 -2.8571987 -3.769915
00000000: 5a7e 70c0 8978 9bc0 e0bb a0c0 3344 d8c0
00000010: 1c45 7ac0 17f0 d1c0 3175 afc0 019b a1c0
00000020: c72a 5ec0 45e2 d6c0 888d dbc0 8a66 b7c0
00000030: f7ef 41c0 7c31 72c0 58dc 36c0 4a46 71c0

encoder.latent.backbone.c_layers.0.layer.kernel.kernel.B f4 [1, 16, 8, 2]
-0.16019604 -10.065742 0.07388486 -3.5999134 -0.17680621 -2.2945051 -0.19223422 -1.7584177
0.025887543 1.135283 0.12130361 0.9459526 0.36214897 0.9536256 -0.5280011 -0.21435766
-0.239794 -10.1321 -0.22825222 -3.72354 0.09390812 -2.023363 0.061624613 -1.421526
-0.09129861 1.4511836 0.35407978 0.9401123 0.40007952 0.97920275 -0.76708275 -0.3076099
0.007768301 -10.154154 -0.050178926 -3.5528462 -0.081122376 -2.0741615 -0.192395 -1.5095568
0.023310328 1.194917 0.27695408 0.95574635 0.41521806 0.9513815 -0.695807 -0.51685154
-0.021353712 -10.241959 -0.042176407 -3.419494 -0.06135718 -2.1901188 -0.084157676 -1.6398643
0.14773005 1.2990366 0.18754075 1.0626254 0.31146222 0.8430962 -0.5360881 -0.40880606
-0.07202996 -10.330981 -0.2391158 -3.46801 -0.18770963 -2.146779 -0.14016043 -1.8049544
-0.041412503 1.328735 0.11711148 1.0824972 0.24850327 0.8442132 -0.5889486 -0.45928746
0.037773374 -10.215018 0.085633956 -3.4638884 -0.020956604 -2.1420815 -0.068314284 -1.6422122
0.16143051 1.2425598 0.21560784 1.012975 0.3336538 0.79349726 -0.63537925 -0.460609
-0.20563483 -10.113692 0.13615124 -3.375368 -0.22725886 -2.0179014 0.116391495 -1.7837758
0.22588673 1.1576276 0.33624953 1.2139035 0.17672154 0.98834777 -0.7120914 -0.5403036
-0.084583044 -10.190146 -0.09395014 -3.4650326 -0.04266311 -2.195366 -0.056467652 -1.6336862
0.14652868 1.3106763 0.2029801 1.0842628 0.2826393 0.8639719 -0.55307704 -0.42657575
-0.14537525 -10.394281 -0.19035752 -3.5877934 0.02289464 -2.3233023 0.015766326 -1.7375834
0.2347008 1.2724969 0.28120494 1.1830134 0.20680729 0.75902355 -0.6271182 -0.511289
0.06504305 -10.339199 -0.17509167 -3.4774578 -0.102940165 -2.2448006 -0.13599306 -1.615231
0.111379065 1.3117388 0.20899634 1.026635 0.34163588 0.8036188 -0.6261845 -0.39756697
-0.13328595 -10.431234 -0.09488199 -3.4967434 -0.044589713 -2.0688798 -0.07822769 -1.6046453
0.1423082 1.277291 0.21956995 1.0201199 0.3591101 0.89771545 -0.46551573 -0.3674105
-0.03201231 -10.196029 -0.046926126 -3.449633 -0.041898422 -2.1309621 -0.0607358 -1.5723969
0.09351413 1.3238219 0.21695007 1.0255948 0.27583766 0.87644297 -0.5519717 -0.37493327
-0.022681648 -10.283564 -0.088676564 -3.6422865 -0.05597859 -2.2084072 -0.060185496 -1.6989859
0.08859091 1.4617716 0.1242995 1.0772371 0.30651215 0.91604495 -0.43371987 -0.35066405
-0.07980273 -10.080674 0.104498126 -3.3412848 -0.23539872 -2.3167307 0.03324341 -1.4537884
-0.041150328 1.4664774 0.35279655 1.2311087 0.4746885 1.0093445 -0.40568137 -0.27462777
-0.06276623 -10.356534 -0.04256769 -3.5632548 -0.08037859 -2.2290406 -0.03768834 -1.6177689
0.1160332 1.3850806 0.24193324 1.081735 0.27388462 0.79087126 -0.50703573 -0.53634304
-0.13351029 -10.320938 -0.14159174 -3.5780814 0.025876936 -2.2988086 0.0014234979 -1.6978534
0.011485628 1.364871 0.092895664 1.141003 0.24726573 0.75461155 -0.6159744 -0.48902556
00000000: 6e0a 24be 470d 21c1 f250 973d fb64 66c0
00000010: b00c 35be 2cd9 12c0 0cd9 44be d513 e1bf
00000020: 1d12 d43c f450 913f 076e f83d f329 723f
00000030: 976b b93e cf20 743f 152b 07bf 9380 5bbe
00000040: 8f8c 75be 151d 22c1 f3ba 69be 7b4e 6ec0
00000050: e752 c03d c87e 01c0 176a 7c3d 90f4 b5bf
00000060: c4fa babd 62c0 b93f f249 b53e 33ab 703f
00000070: 39d7 cc3e 08ad 7a3f 895f 44bf 0b7f 9dbe
00000080: 3b8d fe3b 6a77 22c1 6b88 4dbd d561 63c0
00000090: 7d23 a6bd 10bf 04c0 3203 45be 2839 c1bf
000000a0: 4df5 be3c 0af3 983f edcc 8d3e cbab 743f
000000b0: 7697 d43e bd8d 733f 6820 32bf 6250 04bf
000000c0: fbed aebc 10df 23c1 2bc1 2cbd fdd8 5ac0
000000d0: ab51 7bbd e82a 0cc0 dc5a acbd 13e7 d1bf
000000e0: 8c46 173e d546 a63f af0a 403e 1c04 883f
000000f0: fa77 9f3e 27d5 573f 123d 09bf 074f d1be
00000100: 7284 93bd b34b 25c1 c6da 74be e0f3 5dc0
00000110: f436 40be d464 09c0 3786 0fbe bf08 e7bf
00000120: 28a0 29bd fd13 aa3f 25d8 ef3d 458f 8a3f
00000130: a477 7e3e 5b1e 583f 56c5 16bf ba27 ebbe
00000140: 41b8 1a3d b770 23c1 db60 af3d 59b0 5dc0
00000150: 2fad abbc dd17 09c0 5ce8 8bbd 0234 d2bf
00000160: 0a4e 253e 330c 9f3f 4dc8 5c3e 2aa9 813f
00000170: acd4 aa3e a322 4b3f 37a8 22bf f1d4 ebbe
00000180: f091 52be afd1 21c1 3b6b 0b3e 0806 58c0
00000190: 8cb6 68be 4c25 01c0 aa5e ee3d c452 e4bf
000001a0: da4e 673e 242d 943f e628 ac3e 3161 9b3f
000001b0: 7ef6 343e 5c04 7d3f 9f4b 36bf 5651 0abf
000001c0: e039 adbd d70a 23c1 ee68 c0bd 18c3 5dc0
000001d0: 83bf 2ebd e080 0cc0 a04a 67bd a11c d1bf
000001e0: 9d0b 163e 3ec4 a73f 04da 4f3e 20c9 8a3f
000001f0: 19b6 903e 432d 5d3f 7596 0dbf 2368 dabe
00000200: 40dd 14be fa4e 26c1 15ed 42be 689e 65c0
00000210: 8a8d bb3c fcb0 14c0 6228 813c 2269 debf
00000220: 6855 703e 2ee1 a23f 18fa 8f3e fc6c 973f
00000230: 4ac5 533e 5e4f 423f d18a 20bf d6e3 02bf
00000240: 4a35 853d 5c6d 25c1 3b4b 33be ab8e 5ec0
00000250: 4bd2 d2bd d0aa 0fc0 c441 0bbe e4bf cebf
00000260: b51a e43d 0fe7 a73f 2303 563e c768 833f
00000270: e6ea ae3e f6b9 4d3f a14d 20bf e68d cbbe
00000280: 1d7c 08be 56e6 26c1 7d51 c2bd a5ca 5fc0
00000290: b4a3 36bd 8768 04c0 d735 a0bd 0465 cdbf
000002a0: 3eb9 113e 467e a33f f2d6 603e 4a93 823f
000002b0: 47dd b73e aed0 653f 1458 eebe 3b1d bcbe
000002c0: 571f 03bd ef22 23c1 9c35 40bd c9c6 5cc0
000002d0: ae9d 2bbd af61 08c0 1ac6 78bd 4d44 c9bf
000002e0: 5684 bf3d ff72 a93f 2928 5e3e b146 833f
000002f0: 983a 8d3e 915e 603f 044e 0dbf 41f7 bfbe
00000300: ddce b9bc 7a89 24c1 0f9c b5bd 391b 69c0
00000310: ce49 65bd 8b56 0dc0 1185 76bd 5f78 d9bf
00000320: 276f b53d 551b bb3f bc90 fe3d e8e2 893f
00000330: 29ef 9c3e ec81 6a3f 8810 debe 3d8a b3be
00000340: 9d6f a3bd 714a 21c1 1d03 d63d 9cd7 55c0
00000350: 5d0c 71be 5145 14c0 3e2a 083d bd15 babf
00000360: 3f8d 28bd 88b5 bb3f c0a1 b43e f894 9d3f
00000370: 5f0a f33e 3332 813f 78b5 cfbe 039c 8cbe
00000380: 958b 80bd 5db4 25c1 755b 2ebd 5e0c 64c0
00000390: 889d a4bd 9aa8 0ec0 175f 1abd 0d13 cfbf
000003a0: d0a2 ed3d 524a b13f 59bd 773e 4b76 8a3f
000003b0: 9b3a 8c3e 8a76 4a3f 18cd 01bf c74d 09bf
000003c0: ecb6 08be 9022 25c1 6dfd 10be 49ff 64c0
000003d0: defb d33c ae1f 13c0 aa94 ba3a 4353 d9bf
000003e0: 372e 3c3c 18b4 ae3f 1540 be3d 630c 923f
000003f0: 3a33 7d3e 392e 413f 80b0 1dbf 8f61 fabe

encoder.latent.backbone.c_layers.0.layer.kernel.kernel.P f4 [1, 16, 8, 2]
0.08789975 -7.1246033 -0.20224583 -2.387899 -0.06507274 -1.4115218 -0.0039625047 -1.0077049
0.15627256 1.0876728 -0.0018342617 0.8439797 0.19964355 0.5113128 -0.43890357 -0.38510883
0.1356336 -7.015912 0.041995443 -2.2882164 0.16917852 -1.6848807 -0.16933398 -1.308675
0.26877132 0.78573734 -0.014934538 0.8258162 0.42897812 0.48224276 -0.2684658 -0.35880706
-0.11936878 -7.3019433 -0.11791244 -2.521708 0.03475796 -1.6393877 0.043173272 -1.0448996
0.20494606 1.0112095 0.027511252 0.86789304 0.10063135 0.4853866 -0.26827016 -0.17214037
-0.026615923 -7.2655807 -0.039347965 -2.4854412 -0.058790628 -1.5645527 -0.068580985 -1.1469173
0.1104385 0.90417236 0.13362472 0.74750733 0.21528737 0.5928416 -0.41119343 -0.28116798
0.024216557 -7.1147137 0.059554517 -2.3875904 0.015413842 -1.4632452 -0.057443928 -1.0524437
0.13626075 0.898967 0.15301706 0.76950693 0.23053522 0.63424754 -0.42188758 -0.14673638
-0.07385677 -7.320238 -0.11994544 -2.546602 -0.13867962 -1.5962136 -0.1047905 -1.0825384
0.04091018 1.0348332 0.08449178 0.81282586 0.1753897 0.6595169 -0.3030323 -0.22958761
0.10969099 -7.0826354 0.08075884 -2.641429 0.099438876 -1.6679586 -0.23618162 -1.0070992
-0.043669906 1.0609871 0.28405663 0.60583544 0.35595632 0.45485196 -0.27203026 -0.1378457
-0.019238632 -7.20521 -0.023529384 -2.4380238 -0.085692614 -1.5162842 -0.10220265 -1.1246752
0.06800377 0.8920453 0.110215 0.7287338 0.24043716 0.6032179 -0.4316793 -0.2711828
0.065511666 -7.007658 -0.019416334 -2.3263054 -0.1892115 -1.5332462 -0.196836 -1.2248183
-0.021230072 0.7851334 0.066915035 0.6170734 0.25792277 0.7387005 -0.42662033 -0.15546392
-0.07424431 -7.2895155 -0.060938824 -2.3312035 -0.10011419 -1.4824114 -0.0822795 -1.0808575
0.1243464 0.8406777 0.09182427 0.80700964 0.17577063 0.6461406 -0.35854608 -0.26290095
-0.11198951 -7.179446 -0.06982063 -2.4353616 -0.08073363 -1.5480529 -0.27785608 -1.1789868
0.0255681 0.91239476 0.06719576 0.73932475 0.13276786 0.5337079 -0.49154416 -0.35584876
-0.07961786 -7.2565637 -0.0629192 -2.495615 -0.08802042 -1.5693682 -0.094380215 -1.1719726
0.12399831 0.87541175 0.09612134 0.7127938 0.24957281 0.56267464 -0.43087366 -0.3167577
-0.06894147 -7.1415677 -0.16871378 -2.3870938 -0.089510046 -1.5179156 -0.100838184 -1.0391415
0.14517304 0.8995543 0.25485873 0.7647795 0.24412838 0.49209616 -0.5558371 -0.35847673
0.1278417 -7.380894 -0.043958902 -2.6265466 0.12339057 -1.3748999 0.06112954 -1.3096261
0.26035747 1.0503186 0.044851422 0.5768772 0.053094245 0.42132854 -0.5609292 -0.45646197
-0.051999442 -7.1475244 -0.034711637 -2.356711 -0.050954238 -1.3918667 -0.1076681 -1.1749535
0.107186764 0.79562604 -0.04141666 0.72642416 0.2089543 0.67852855 -0.49139792 -0.30708835
0.015403412 -7.1338367 0.021140456 -2.375373 -0.29579443 -1.5746384 -0.17665611 -1.1643003
0.19751263 0.8611585 0.36238983 0.7044388 0.25452897 0.6789236 -0.3875949 -0.2248901
00000000: c904 b43d c0fc e3c0 8819 4fbe 56d3 18c0
00000010: db44 85bd bfac b4bf e6d7 81bb 79fc 80bf
00000020: ea05 203e dd38 8b3f 9c6b f0ba 0e0f 583f
00000030: 5c6f 4c3e 65e5 023f f8b7 e0be fc2c c5be
00000040: 89e3 0a3e 5a82 e0c0 6a03 2c3d 2372 12c0
00000050: 223d 2d3e 2caa d7bf e365 2dbe aa82 a7bf
00000060: 659c 893e 1526 493f feaf 74bc b168 533f
00000070: 05a3 db3e 86e8 f63e 5974 89be 8fb5 b7be
00000080: 9e77 f4bd 85a9 e9c0 147c f1bd aa63 21c0
00000090: 5d5e 0e3d 75d7 d1bf 75d6 303d 45bf 85bf
000000a0: 61dd 513e 506f 813f 475f e13c 3d2e 5e3f
000000b0: cf17 ce3d 9884 f83e b55a 89be 9145 30be
000000c0: a309 dabc a37f e8c0 552b 21bd 7811 1fc0
000000d0: 71ce 70bd 4343 c8bf 3074 8cbd 30ce 92bf
000000e0: 952d e23d d777 673f ebd4 083e a45c 3f3f
000000f0: 4b74 5c3e 78c4 173f f287 d2be 40f5 8fbe
00000100: cd61 c63c bcab e3c0 70ef 733d 48ce 18c0
00000110: 578a 7c3c 9e4b bbbf 534a 6bbd 7ab6 86bf
00000120: f087 0b3e b422 663f 81b0 1c3e 68fe 443f
00000130: 6d11 6c3e 0c5e 223f a601 d8be 1042 16be
00000140: 3842 97bd 643f eac0 f4a5 f5bd 87fb 22c0
00000150: 0802 0ebe ba50 ccbf 679c d6bd 9e90 8abf
00000160: 6f91 273d 6a75 843f 070a ad3d 5b15 503f
00000170: 5c99 333e 19d6 283f 0d27 9bbe 0419 6bbe
00000180: aba5 e03d f3a4 e2c0 e464 a53d 2c0d 29c0
00000190: 9ca6 cb3d ab7f d5bf 98d9 71be a0e8 80bf
000001a0: 37df 32bd 6dce 873f df6f 913e 0818 1b3f
000001b0: e83f b63e 5be2 e83e 8d47 8bbe 6c27 0dbe
000001c0: 569a 9dbc 1591 e6c0 b2c0 c0bc 9508 1cc0
000001d0: 9c7f afbd 9a15 c2bf 9f4f d1bd 5bf5 8fbf
000001e0: 9045 8b3d 155d 643f 67b8 e13d 4c8e 3a3f
000001f0: 2935 763e 7d6c 1a3f 1205 ddbe 79d8 8abe
00000200: fb2a 863d bc3e e0c0 010f 9fbc 30e2 14c0
00000210: a9c0 41be 6941 c4bf 608f 49be d9c6 9cbf
00000220: b0ea adbc 81fe 483f c00a 893d 86f8 1d3f
00000230: 740e 843e 7a1b 3d3f fb6d dabe ef31 1fbe
00000240: 670d 98bd b643 e9c0 fd9a 79bd 7032 15c0
00000250: ab08 cdbd a8bf bdbf 2882 a8bd 8a59 8abf
00000260: 53a9 fe3d a736 573f 5d0e bc3d 2f98 4e3f
00000270: 37fd 333e 7869 253f 5a93 b7be f49a 86be
00000280: c25a e5bd 06be e5c0 1efe 8ebd f7dc 1bc0
00000290: ac57 a5bd 9926 c6bf 2743 8ebe 0ae9 96bf
000002a0: 3174 d13c b492 693f ee9d 893d 6344 3d3f
000002b0: 4cf4 073e 15a1 083f adab fbbe cf31 b6be
000002c0: b00e a3bd c535 e8c0 c8db 80bd 28b8 1fc0
000002d0: 0d44 b4bd 0fe1 c8bf 6a4a c1bd 3303 96bf
000002e0: d3f2 fd3d fc1a 603f 44db c43d a879 363f
000002f0: 0490 7f3e 720b 103f 799b dcbe 112e a2be
00000300: 2f31 8dbd b987 e4c0 4ec3 2cbe 25c6 18c0
00000310: 0b51 b7bd 0f4b c2bf 4084 cebd 9702 85bf
00000320: 3ea8 143e 3149 663f d87c 823e 97c8 433f
00000330: cafc 793e 07f4 fb3e 574b 0ebf 438a b7be
00000340: efe8 023e 4930 ecc0 400e 34bd 5719 28c0
00000350: 32b4 fc3d b8fc afbf f862 7a3d d4a1 a7bf
00000360: 934d 853e d770 863f 20b6 373d 39ae 133f
00000370: 5a79 593d 60b8 d73e 0e99 0fbf 62b5 e9be
00000380: 5efd 54bd 85b8 e4c0 ca2d 0ebd 5ad4 16c0
00000390: 64b5 50bd b028 b2bf 1881 dcbd e064 96bf
000003a0: bc84 db3d 26ae 4b3f 84a4 29bd eff6 393f
000003b0: 1ef8 553e 0cb4 2d3f 8298 fbbe af3a 9dbe
000003c0: 985e 7c3c 6448 e4c0 c02e ad3c 1c06 18c0
000003d0: 5e72 97be c08d c9bf 57e5 34be cb07 95bf
000003e0: c040 4a3e e274 5c3f 298b b93e 1a56 343f
000003f0: 9f51 823e f0cd 2d3f d772 c6be 9749 66be

encoder.latent.backbone.c_layers.0.layer.kernel.kernel.inv_w_real f4 [16, 8]
-0.6309441 -0.75772315 -0.80696464 -0.80026954 -0.5067966 -0.6171334 -0.73572963 -0.66626847
-0.90796113 -0.8649108 -0.54124254 -0.5130507 -0.7665048 -0.62738955 -0.7594885 -0.61920154
-0.6487152 -0.765772 -0.58553445 -0.7791858 -0.58663166 -0.5540252 -0.80369675 -0.8179215
-0.6833772 -0.67502844 -0.688959 -0.6916896 -0.69818395 -0.69165224 -0.6997879 -0.6992098
-0.70391786 -0.719441 -0.7461174 -0.7700907 -0.66120905 -0.5658176 -0.5633055 -0.6965916
-0.60953176 -0.62120235 -0.637435 -0.7552367 -0.6612801 -0.63179415 -0.63762146 -0.7511949
-0.6808772 -0.5273509 -0.56004435 -0.79416543 -0.5636754 -0.81784874 -0.8418128 -0.8504495
-0.71796256 -0.72425705 -0.7071054 -0.7007776 -0.7132522 -0.7127336 -0.66585785 -0.70061374
-0.890316 -0.8272366 -0.617146 -0.5532778 -0.8040905 -0.77949744 -0.4860464 -0.70122826
-0.6178927 -0.7926459 -0.6974971 -0.75070584 -0.7688718 -0.63045317 -0.644747 -0.739272
-0.76458657 -0.7067483 -0.6318476 -0.63391006 -0.74174434 -0.75304615 -0.76062083 -0.6448504
-0.66705984 -0.66323936 -0.65679234 -0.6586708 -0.7259204 -0.7254376 -0.7265443 -0.66464853
-0.72999233 -0.73048633 -0.7259321 -0.8520294 -0.7216416 -0.66815245 -0.8384509 -0.58621705
-0.54422927 -0.52702516 -0.84912014 -0.5136775 -0.5155413 -0.85079414 -0.85840845 -0.5496736
-0.8144001 -0.75387585 -0.83594894 -0.652136 -0.8238078 -0.74113065 -0.5791253 -0.6235522
-0.80252963 -0.788869 -0.5581508 -0.51389307 -0.71689415 -0.7115579 -0.6158763 -0.7271652
00000000: 8d85 21bf 25fa 41bf 3c95 4ebf 77de 4cbf
00000010: 6cbd 01bf 74fc 1dbf c758 3cbf 9290 2abf
00000020: 2470 68bf cb6a 5dbf df8e 0abf 4a57 03bf
00000030: a939 44bf 9a9c 20bf d76d 42bf fe83 1ebf
00000040: 3312 26bf a209 44bf 96e5 15bf b878 47bf
00000050: 7e2d 16bf 98d4 0dbf 12bf 4dbf 4e63 51bf
00000060: cff1 2ebf aace 2cbf 9e5f 30bf 9212 31bf
00000070: 2fbc 32bf 1f10 31bf 4d25 33bf 6aff 32bf
00000080: f633 34bf 492d 38bf 8d01 3fbf aa24 45bf
00000090: ff44 29bf 6cd9 10bf ca34 10bf d453 32bf
000000a0: 460a 1cbf 1e07 1fbf f12e 23bf 3157 41bf
000000b0: a749 29bf 43bd 21bf 293b 23bf 4f4e 40bf
000000c0: f84d 2ebf 7800 07bf 115f 0fbf 6d4e 4bbf
000000d0: 084d 10bf 895e 51bf 0b81 57bf 0fb7 59bf
000000e0: 65cc 37bf e968 39bf dc04 35bf 2966 33bf
000000f0: b297 36bf b675 36bf a975 2abf 6c5b 33bf
00000100: c0eb 63bf c7c5 53bf 48fd 1dbf 9da3 0dbf
00000110: e0d8 4dbf 258d 47bf 13db f8be b283 33bf
00000120: 372e 1ebf d7ea 4abf 2c8f 32bf 422e 40bf
00000130: c8d4 44bf 6165 21bf 240e 25bf ee40 3dbf
00000140: f2bb 43bf 75ed 34bf c4c0 21bf ee47 22bf
00000150: f5e2 3dbf a2c7 40bf 0cb8 42bf ea14 25bf
00000160: 6fc4 2abf 0eca 29bf 8b23 28bf a69e 28bf
00000170: ebd5 39bf 47b6 39bf cffe 39bf 6826 2abf
00000180: c7e0 3abf 2701 3bbf b0d6 39bf 991e 5abf
00000190: 81bd 38bf 0a0c 2bbf b8a4 56bf 5212 16bf
000001a0: 9c52 0bbf 1feb 06bf f05f 59bf 5e80 03bf
000001b0: 84fa 03bf a5cd 59bf a8c0 5bbf 69b7 0cbf
000001c0: 867c 50bf 02fe 40bf c000 56bf 63f2 26bf
000001d0: 11e5 52bf bdba 3dbf 8e41 14bf 1ea1 1fbf
000001e0: 9572 4dbf 52f3 49bf f9e2 0ebf 7f8e 03bf
000001f0: 6086 37bf a928 36bf 12aa 1dbf 8027 3abf

encoder.latent.backbone.c_layers.0.layer.kernel.kernel.w_imag f4 [16, 8]
-81.121956 -25.467789 -13.65532 -8.350967 -5.0328765 -3.0557292 -1.2793036 -0.33262753
-81.11284 -25.63634 -13.98628 -8.251858 -4.9176583 -3.008657 -1.2526562 -0.40914544
-80.881805 -25.559982 -13.911449 -8.455295 -4.951472 -2.984062 -1.2663541 -0.21695445
-80.941055 -25.634197 -13.827324 -8.35958 -5.081995 -2.880868 -1.3675293 -0.344169
-80.93481 -25.696714 -13.888005 -8.310263 -5.0315857 -2.8860128 -1.3869632 -0.274361
-80.93733 -25.63439 -13.800022 -8.315941 -5.1419845 -2.9501276 -1.4193047 -0.2847369
-81.09596 -25.461319 -13.967775 -8.182347 -5.1694164 -2.743183 -1.2217044 -0.39239478
-80.99051 -25.654016 -13.804635 -8.334162 -5.112226 -2.9248662 -1.3519169 -0.3324242
-80.88007 -25.572884 -13.666287 -8.212594 -5.1691427 -2.8260617 -1.4017025 -0.25734484
-80.85077 -25.607569 -13.781466 -8.327334 -5.043851 -2.9423344 -1.4128724 -0.38684565
-80.844604 -25.585655 -13.781203 -8.357304 -5.158479 -2.966602 -1.2996745 -0.3425614
-80.93057 -25.668839 -13.801512 -8.399832 -5.0557036 -2.9300063 -1.3397266 -0.37976846
-80.94144 -25.428389 -13.788745 -8.299263 -4.9924793 -2.736687 -1.295289 -0.30913332
-81.09454 -25.681402 -13.954547 -8.468847 -4.900374 -2.6734674 -1.3111309 -0.2542621
-80.92507 -25.584362 -13.822249 -8.303654 -5.032489 -2.9454997 -1.4114306 -0.24135023
-80.95108 -25.691172 -13.699101 -8.25869 -4.9936585 -2.7903621 -1.322017 -0.28243527
00000000: 713e a2c2 08be cbc1 317c 5ac1 909d 05c1
00000010: 530d a1c0 1191 43c0 38c0 a3bf 284e aabe
00000020: c639 a2c2 3917 cdc1 cec7 5fc1 9c07 04c1
00000030: 755d 9dc0 d68d 40c0 0a57 a0bf 837b d1be
00000040: 7cc3 a1c2 d87a ccc1 4c95 5ec1 e348 07c1
00000050: 7572 9ec0 dffa 3ec0 e417 a2bf 4f29 5ebe
00000060: d2e1 a1c2 d612 cdc1 b83c 5dc1 d7c0 05c1
00000070: b49f a2c0 2460 38c0 330b afbf eb36 b0be
00000080: 9fde a1c2 df92 cdc1 4535 5ec1 d6f6 04c1
00000090: c002 a1c0 6fb4 38c0 0388 b1bf 0c79 8cbe
000000a0: eadf a1c2 3b13 cdc1 e4cc 5cc1 180e 05c1
000000b0: 238b a4c0 e4ce 3cc0 c7ab b5bf 09c9 91be
000000c0: 2231 a2c2 c8b0 cbc1 027c 5fc1 e5ea 02c1
000000d0: dc6b a5c0 4f90 2fc0 cf60 9cbf f8e7 c8be
000000e0: 24fb a1c2 6d3b cdc1 c9df 5cc1 ba58 05c1
000000f0: 5b97 a3c0 0231 3bc0 9d0b adbf 8133 aabe
00000100: 99c2 a1c2 4495 ccc1 1da9 5ac1 c966 03c1
00000110: 9e69 a5c0 32de 34c0 fd6a b3bf b4c2 83be
00000120: 98b3 a1c2 4ddc ccc1 e280 5cc1 c33c 05c1
00000130: 3a67 a1c0 354f 3cc0 01d9 b4bf a210 c6be
00000140: 70b0 a1c2 6caf ccc1 cf7f 5cc1 84b7 05c1
00000150: 4312 a5c0 cfdc 3dc0 bc5b a6bf 3564 afbe
00000160: 74dc a1c2 c859 cdc1 fed2 5cc1 b665 06c1
00000170: 53c8 a1c0 3985 3bc0 297c abbf 0371 c2be
00000180: 04e2 a1c2 576d cbc1 b39e 5cc1 c8c9 04c1
00000190: 64c2 9fc0 e125 2fc0 08cc a5bf b946 9ebe
000001a0: 6830 a2c2 8373 cdc1 d345 5fc1 6680 07c1
000001b0: ddcf 9cc0 171a 2bc0 23d3 a7bf a42e 82be
000001c0: a3d9 a1c2 c6ac ccc1 ef27 5dc1 c4db 04c1
000001d0: 260a a1c0 1183 3cc0 c2a9 b4bf 8424 77be
000001e0: f4e6 a1c2 8587 cdc1 852f 5bc1 9823 04c1
000001f0: 0dcc 9fc0 4b95 32c0 da37 a9bf 5b9b 90be

encoder.latent.backbone.c_layers.0.layer.output_linear.0.weight f4 [32, 16, 1]
-0.1053837 0.011791244 0.059421238 -0.026239516 -0.069849685 -0.20704214 -0.19385298 -0.1340903
0.0975567 0.21690238 0.21701086 0.18567146 0.2345886 -0.23514366 -0.140524 -0.010904014
-0.007852957 -0.058079567 0.000434773 0.13676456 0.2983303 -0.22011253 0.13710462 0.07514441
-0.10498595 -0.13968942 0.045522247 0.1641027 0.21241423 -0.12452461 -0.2009841 -0.10103155
-0.19264708 -0.3229851 -0.022474313 0.11983103 -0.14181413 0.24475642 -0.043022346 0.056639243
0.15829702 -0.1974596 0.11443575 0.066998295 0.16831274 -0.34084606 0.081257515 -0.11794573
0.18915038 0.23278917 0.15607029 0.26407707 0.1923426 -0.16618308 0.17710553 0.03758352
0.17402107 0.16057707 0.0901298 -0.06249587 -0.12006478 0.08683798 -0.101311184 0.17336133
0.098226756 0.23090954 -0.27094135 0.10375631 0.040330466 -0.18889011 0.2119402 0.15360573
0.24047866 -0.09090491 0.113121554 0.19184443 -0.08194007 0.14991693 0.14373282 -0.19397032
-0.075456634 -0.107868165 0.26603833 0.17987843 0.13307601 0.32213628 -0.17437941 -0.02191096
0.1052384 -0.14362757 0.018374586 0.19950444 0.14299066 -0.1223047 -0.16365387 -0.1423289
-0.11981504 0.23112635 -0.05940169 0.17870517 -0.13307135 -0.10966978 0.08209641 0.02666549
-0.13032988 0.20954242 -0.2523787 0.11079793 -0.072265185 -0.06279374 0.055406563 0.1976181
0.07499897 0.125028 -0.013803197 -0.2039971 0.27929437 0.21257205 -0.2509724 0.18997817
-0.3295517 -0.21690445 0.04004545 -0.1968232 -0.07434662 0.07966455 0.18867435 0.08039737
-0.1562036 0.08724274 0.19416235 0.09801656 -0.14065722 -0.05806781 -0.059449553 -0.23411462
0.14796324 -0.3129302 -0.14564937 0.057713035 -0.11574599 0.1250257 0.14574578 -0.26499555
-0.2671704 0.067705184 0.08518832 0.029476933 0.2619241 0.10447568 0.08197075 0.107321255
-0.039065182 0.022909729 0.1270061 -0.005265722 0.1493156 -0.25800705 0.24079809 0.018023398
-0.04170265 0.15326165 -0.26607293 -0.15340863 0.27982804 -0.008320964 -0.08258757 0.17249835
-0.14090566 -0.1298109 0.12108382 -0.189892 0.10090265 0.24929556 0.19101715 -0.074660905
-0.17300908 -0.3050629 0.23958011 -0.2850114 -0.050888773 -0.08494841 0.04430344 0.08228638
0.16390361 0.07083718 -0.033564735 -0.13444501 -0.17765503 0.033756044 0.01807007 0.12383844
-0.123525284 -0.33443975 0.19891411 0.191798 -0.1980616 -0.110919364 -0.08363771 -0.22281542
-0.25707904 -0.057719585 0.1404809 0.055598423 0.20939359 -0.2052281 -0.04340136 -0.16124786
-0.05027608 0.022412192 -0.050586056 0.041616693 0.11554585 0.10364272 -0.06177813 -0.23153482
0.3023269 -0.03273223 -0.16647257 -0.14746492 -0.32340237 -0.056004826 -0.20310137 -0.24359784
-0.013182984 -0.07867532 -0.28258583 -0.18731304 -0.12667735 -0.09846918 0.08716473 0.10414981
-0.047327064 -0.08442255 -0.14504081 -0.13386077 -0.25636402 0.03955082 -0.062397894 -0.24535735
0.1347815 -0.11217962 0.0101465965 0.0809583 0.117030025 -0.28883845 -0.29034 0.1473395
-0.06562129 -0.13472542 -0.101707526 0.17187943 -0.20954476 -0.038615808 -0.23166439 -0.04082435
00000000: 69d3 d7bd 1030 413c af63 733d 41f4 d6bc
00000010: 5a0d 8fbd db02 54be 6581 46be f84e 09be
00000020: cfcb c73d a81b 5e3e 1838 5e3e a920 3e3e
00000030: fe37 703e 80c9 70be 86e5 0fbe c0a6 32bc
00000040: b0a9 00bc d7e4 6dbd 3ff2 e339 020c 0c3e
00000050: c0be 983e 2e65 61be 2765 0c3e 50e5 993d
00000060: e002 d7bd be0a 0fbe 8975 3a3d 8a0a 283e
00000070: 1e83 593e c206 ffbd c7ce 4dbe a1e9 cebd
00000080: 4745 45be 4e5e a5be 0d1c b8bc f969 f53d
00000090: b937 11be 6da1 7a3e 3338 30bd 8dfe 673d
000000a0: 9d18 223e d932 4abe 4a5d ea3d 6736 893d
000000b0: 2d5a 2c3e 6083 aebe 576a a63d 888d f1bd
000000c0: a3b0 413e 4960 6e3e e4d0 1f3e 1c35 873e
000000d0: 75f5 443e e62b 2abe 275b 353e 2df1 193d
000000e0: 9432 323e 516e 243e f995 b83d abfb 7fbd
000000f0: 86e4 f5bd 1cd8 b13d 3d7c cfbd a285 313e
00000100: 1c2b c93d 8d73 6c3e d3b8 8abe 307e d43d
00000110: 8f31 253d 696c 41be da06 593e d24a 1d3e
00000120: 0a40 763e 5a2c babd 46ac e73d de72 443e
00000130: 32d0 a7bd d383 193e b22e 133e 28a0 46be
00000140: 0289 9abd fce9 dcbd 2d36 883e 0d32 383e
00000150: 1445 083e 0cef a43e 8490 32be 9d7e b3bc
00000160: 3b87 d73d 1b13 13be 4d86 963c e44a 4c3e
00000170: 256c 123e e37a fabd e194 27be abbe 11be
00000180: 9661 f5bd 63ac 6c3e 304f 73bd 7dfe 363e
00000190: db43 08be 8d9a e0bd 2a22 a83d 9671 da3c
000001a0: 3275 05be 4a92 563e c837 81be 06ea e23d
000001b0: c5ff 93bd 019a 80bd fef1 623d 665c 4a3e
000001c0: 0f99 993d 5707 003e ce26 62bc 9ee4 50be
000001d0: acff 8e3e 7dac 593e 747f 80be a389 423e
000001e0: 00bb a8be 331c 5ebe b306 243d 058c 49be
000001f0: 0a43 98bd 2b27 a33d d933 413e 60a7 a43d
00000200: d6f3 1fbe 52ac b23d 7fd2 463e e8bc c83d
00000210: 7208 10be 83d8 6dbd 6081 73bd bebb 6fbe
00000220: ad83 173e 6338 a0be 1c25 15be 8164 6c3d
00000230: 3c0c edbd bd06 003e 623e 153e 7fad 87be
00000240: 8fca 88be 04a9 8a3d 3777 ae3d 9c79 f13c
00000250: ea1a 863e 58f7 d53d 48e0 a73d 3fcb db3d
00000260: d002 20bd 2fad bb3c e30d 023e 148c acbb
00000270: 30e6 183e 8019 84be c693 763e cea5 933c
00000280: 66d0 2abd 9ff0 1c3e b63a 88be 2717 1dbe
00000290: 9f45 8f3e a754 08bc ac23 a9bd 68a3 303e
000002a0: 9349 10be 26ed 04be cbfa f73d 0c73 42be
000002b0: 0ca6 ce3d 5647 7f3e 009a 433e d1e7 98bd
000002c0: 4b29 31be 3431 9cbe 7d54 753e 04ed 91be
000002d0: bf70 50bd 6ff9 adbd 8677 353d c385 a83d
000002e0: 59d6 273e 1513 913d 2d7b 09bd f4ab 09be
000002f0: 33eb 35be c743 0a3d af07 943c 029f fd3d
00000300: d3fa fcbd b03b abbe 24b0 4b3e b266 443e
00000310: a9d0 4abe b129 e3bd 3f4a abbd ba29 64be
00000320: dd9f 83be 5f6b 6cbd 3ada 0f3e 2cbb 633d
00000330: 466b 563e 5127 52be a0c5 31bd 291e 25be
00000340: 4aee 4dbd c699 b73c 5333 4fbd 4476 2a3d
00000350: 4da3 ec3d a242 d43d 100b 7dbd 7717 6dbe
00000360: 97ca 9a3e 3b12 06bd c977 2abe 0b01 17be
00000370: ff94 a5be 5165 65bd cef9 4fbe b671 79be
00000380: 71fd 57bc 8720 a1bd 17af 90be fdce 3fbe
00000390: b5b7 01be 36aa c9bd 6c83 b23d 7f4c d53d
000003a0: 06da 41bd bbe5 acbd 9485 14be cc12 09be
000003b0: 2542 83be 0a00 223d ef94 7fbd f53e 7bbe
000003c0: 2904 0a3e 6ebe e5bd e93d 263c 77cd a53d
000003d0: 70ad ef3d a2e2 93be 72a7 94be 2ae0 163e
000003e0: 7464 86bd 76f5 09be 094c d0bd 2901 303e
000003f0: e792 56be 9c2b 1ebd 6e39 6dbe 6f37 27bd

encoder.latent.backbone.c_layers.0.layer.output_linear.0.bias f4 [32]
0.118467584 0.007086965 0.08171024 -0.00043123623 -0.12119932 -0.12034254 -0.15305811 0.010787963
0.10355633 0.27367496 -0.081286505 -0.1561142 -0.2710808 -0.030354226 -0.14048904 0.14027508
0.02941821 0.11993467 -0.015831238 -0.1057634 0.08895252 0.09499861 -0.18687901 -0.017735565
0.04134115 0.0049330336 -0.003271092 0.09925904 -0.08148376 0.2395217 -0.018281374 0.10738142
00000000: 229f f23d c539 e83b b357 a73d 8c17 e2b9
00000010: 5937 f8bd 2676 f6bd 44bb 1cbe ffbf 303c
00000020: 5715 d43d 201f 8c3e 8a79 a6bd 67dc 1fbe
00000030: 1acb 8abe 6da9 f8bc 5cdc 0fbe 45a4 0f3e
00000040: 75fe f03c 4fa0 f53d 83b0 81bc 7b9a d8bd
00000050: bd2c b63d a28e c23d 365d 3fbe 2d4a 91bc
00000060: 5655 293d 49a5 a13b d15f 56bb 5348 cb3d
00000070: f5e0 a6bd 2d45 753e d2c2 95bc caea db3d

encoder.latent.backbone.c_layers.0.norm.weight f4 [16]
1.0692378 1.1440607 1.0720121 0.9554351 1.0961573 1.111557 1.1524733 1.027681
0.979401 1.0880127 1.0161647 0.9735617 1.244477 1.1288877 0.989773 1.0580548
00000000: c9dc 883f 9570 923f b137 893f 6597 743f
00000010: e24e 8c3f 8047 8e3f 3f84 933f 0d8b 833f
00000020: 06ba 7a3f 0044 8b3f af11 823f 573b 793f
00000030: 064b 9f3f 647f 903f c361 7d3f 576e 873f

encoder.latent.backbone.c_layers.0.norm.bias f4 [16]
-0.011397283 0.07319378 -0.10799055 0.067355216 0.09531262 0.049827274 -0.021060593 -0.044841483
-0.03219588 -0.07349412 0.046661735 0.034465685 0.065072045 -0.10248528 0.11885009 -0.06280982
00000000: abbb 3abc 9fe6 953d 262a ddbd 88f1 893d
00000010: 4333 c33d af17 4c3d 4487 acbc b4ab 37bd
00000020: d4df 03bd 1684 96bd 6020 3f3d e42b 0d3d
00000030: 7e44 853d cde3 d1bd ad67 f33d 6fa2 80bd

encoder.latent.backbone.c_layers.1.layer.ff.0.0.weight f4 [32, 16]
0.009798241 0.014735204 -0.057015996 -0.1718371 0.010707234 -0.20405845 0.04043342 -0.18909222
0.024758862 -0.16579622 -0.17780955 0.17725106 0.08861238 -0.031642407 -0.17355236 0.18557265
-0.08482574 -0.1468603 0.1345529 0.06272217 0.12210989 -0.029092453 0.05970594 -0.076336004
0.29643637 0.15139438 -0.13152651 0.033733025 -0.1661919 0.16804957 0.06790034 -0.12109086
-0.07810602 0.04897462 -0.19092098 -0.0920169 -0.17587075 -0.0285121 -0.19512242 0.25537166
0.05801014 0.24472842 0.17564046 -0.00038629494 0.2252045 0.05823479 -0.13714394 -0.16437694
0.044546045 -0.018003497 0.28201026 -0.05430705 0.15330678 -0.06434134 -0.28660843 -0.012051686
0.01736658 0.2413709 0.2889433 -0.13821983 0.07703954 0.15176655 0.02132158 0.13059232
-0.13441676 -0.14277232 0.018859316 -0.2818319 -0.0558997 0.1414634 -0.06184917 -0.027484238
-0.16996971 -0.10949781 0.09554867 0.09398353 -0.14824422 -0.27638417 0.08402767 -0.19413018
0.16773257 -0.22763321 -0.099518724 -0.07029939 0.043482553 0.09449458 -0.13747473 -0.13794623
0.18993963 -0.15272667 0.12489455 -0.26733318 0.0883077 0.03230723 -0.1854942 -0.059932597
-0.08410448 0.18881564 0.0001871654 -0.00714149 -0.0017107351 0.048534818 -0.21612598 -0.040199164
0.20098458 0.009621777 0.21877773 0.21213874 -0.08970039 0.17123184 -0.2564039 0.1128425
0.22110222 -0.081982285 0.105808266 0.28293836 -0.021963727 0.24273013 -0.17978539 0.0079477
0.21424335 0.20789711 -0.22416179 -0.11109911 -0.18420279 0.16234866 -0.23549265 0.019622736
-0.19928463 0.18898709 0.24292116 0.03806331 -0.20953935 -0.049609292 -0.20607974 -0.10187221
-0.045306493 0.034256537 0.014045366 0.28248304 0.29821938 0.118124925 0.2652843 0.009745016
0.026177546 0.13324055 -0.18244942 0.025329482 -0.093151286 0.13340999 -0.04492422 0.06962322
0.122495994 -0.18368693 -0.19987358 -0.18359141 -0.28543794 0.28781286 -0.28157988 -0.081805505
0.028432794 -0.11687442 0.14021088 -0.1652437 -0.23499435 -0.3256686 -0.08191684 0.32005626
-0.2647748 -0.01981045 0.11713653 0.23293781 -0.037236247 0.08759647 0.19709119 0.1733516
-0.14469676 0.089911446 -0.0034911567 -0.0010861816 0.17042845 -0.018751191 -0.13474382 0.050506562
0.19075601 -0.06090062 -0.2215198 -0.20939316 -0.03219357 -0.18147667 0.15833046 -0.20374425
-0.11125604 0.21101238 -0.13456309 -0.09778816 -0.15862627 -0.09646617 0.090301774 -0.12337019
-0.17479126 -0.17357077 -0.12393852 -0.017394163 0.024678178 -0.054025218 0.07248141 0.072789215
-0.21921702 -0.013944215 -0.25125515 0.19680722 0.11683694 -0.16808598 0.0028355292 0.1948353
0.10236238 -0.019884985 0.08405202 0.159345 0.16894858 0.07251683 -0.18759316 0.20494895
0.18983255 -0.078321345 -0.11667756 -0.2082869 -0.22732462 -0.060706116 -0.22678153 0.1624375
0.062857985 0.30334884 0.12653461 0.16512392 0.2008026 -0.243233 0.019117743 0.09419988
0.06888867 0.082321964 0.05608095 0.26237637 -0.17038661 0.082648866 -0.18788053 0.003074464
-0.15688989 0.15376674 0.14818108 0.17535257 -0.21936378 -0.045364283 0.19228286 0.018563641
00000000: cd88 203c ed6b 713c 9b89 69bd 11f6 2fbe
00000010: 656d 2f3c b3f4 50be 849d 253d 64a1 41be
00000020: 19d3 ca3c 7cc6 29be b513 36be 4d81 353e
00000030: 687a b53d 789b 01bd b6b7 31be c206 3e3e
00000040: 1eb9 adbd 8c62 16be 3cc8 093e 7b74 803d
00000050: c014 fa3d 4c53 eebc 378e 743d 0d56 9cbd
00000060: 82c6 973e 2107 1b3e e3ae 06be a42b 0a3d
00000070: 362e 2abe 3015 2c3e 550f 8b3d 7cfe f7bd
00000080: 0df6 9fbd 9c99 483d ca80 43be 5b73 bcbd
00000090: 7617 34be 3592 e9bc 2cce 47be 13c0 823e
000000a0: 0a9c 6d3d 169a 7a3e 18db 333e a187 cab9
000000b0: 029c 663e 9a87 6e3d 766f 0cbe 6e52 28be
000000c0: ea75 363d 127c 93bc a663 903e 1271 5ebd
000000d0: 74fc 1c3e 64c5 83bd 57be 92be 6f74 45bc
000000e0: 5c44 8e3c ef29 773e 60f0 933e 8089 0dbe
000000f0: e8c6 9d3d b168 1b3e 98aa ae3c feb9 053e
00000100: 8ca4 09be e832 12be da7e 9a3c 454c 90be
00000110: 15f7 64bd c8db 103e 8e55 7dbd a026 e1bc
00000120: 8a0c 2ebe 6340 e0bd 05af c33d 707a c03d
00000130: 55cd 17be 3a82 8dbe b316 ac3d 10ca 46be
00000140: 16c2 2b3e ae18 69be 79d0 cbbd 20f9 8fbd
00000150: c31a 323d 6086 c13d 2dc6 0cbe c741 0dbe
00000160: 897f 423e 6164 1cbe b7c8 ff3d e5df 88be
00000170: abda b43d 9654 043d 31f2 3dbe e27b 75bd
00000180: f83e acbd e358 413e d441 4439 2903 eabb
00000190: bf3a e0ba 72cc 463d 2150 5dbe e1a7 24bd
000001a0: e7ce 4d3e a8a4 1d3c 4507 603e e63a 593e
000001b0: d7b4 b7bd 6657 2f3e 5f47 83be f819 e73d
000001c0: 9f68 623e 54e6 a7bd 01b2 d83d 4cdd 903e
000001d0: 46ed b3bc 3f8e 783e a919 38be 1237 023c
000001e0: 9c62 5b3e fbe2 543e ab8a 65be ee87 e3bd
000001f0: a89f 3cbe ba3e 263e fc24 71be dcbf a03c
00000200: 4511 4cbe d585 413e 53c0 783e 46e8 1b3d
00000210: 7c91 56be 1d33 4bbd 9106 53be 61a2 d0bd
00000220: 4d93 39bd 9550 0c3d 891e 663c 9ea1 903e
00000230: 36b0 983e 7beb f13d 58d3 873e 8fa9 1f3c
00000240: 4b72 d63c 3670 083e 05d4 3abe c67f cf3c
00000250: 1ac6 bebd a19c 083e 7502 38bd 9e96 8e3d
00000260: 2edf fa3d 6d18 3cbe a9ab 4cbe 63ff 3bbe
00000270: ec24 92be 355c 933e 3d2b 90be a589 a7bd
00000280: e4eb e83c db5b efbd 7193 0f3e a535 29be
00000290: 5ca2 70be 09be a6be 04c4 a7bd 6ade a33e
000002a0: 9090 87be 8649 a2bc 47e5 ef3d 4087 6e3e
000002b0: 0985 18bd c765 b33d 46d2 493e 1583 313e
000002c0: 632b 14be 7e23 b83d e4cb 64bb 355e 8eba
000002d0: cc84 2e3e 199c 99bc 49fa 09be f8df 4e3d
000002e0: 8b55 433e ee72 79bd 16d6 62be 296b 56be
000002f0: 68dd 03bd 05d5 39be 6121 223e 55a2 50be
00000300: 35da e3bd a113 583e e8ca 09be 2945 c8bd
00000310: ed6e 22be 0e90 c5bd 23f0 b83d 83a9 fcbd
00000320: 7bfc 32be 89bc 31be 7bd3 fdbd 347e 8ebc
00000330: e429 ca3c 8c49 5dbd 2271 943d 8312 953d
00000340: 6d7a 60be 4776 64bc 84a4 80be d587 493e
00000350: 3548 ef3d bb1e 2cbe 49d4 393b e882 473e
00000360: 5ea3 d13d d6e5 a2bc 7723 ac3d 562b 233e
00000370: db00 2d3e b483 943d 6c18 40be 23de 513e
00000380: 7763 423e f166 a0bd a5f4 eebd 2949 55be
00000390: c9c7 68be faa6 78bd 6b39 68be 0456 263e
000003a0: b0bb 803d 8a50 9b3e 4a92 013e 3f16 293e
000003b0: 329f 4d3e 1212 79be d09c 9c3c deeb c03d
000003c0: 8115 8d3d 6b98 a83d 23b5 653d 3256 863e
000003d0: d479 2ebe cf43 a93d c163 40be f27c 493b
000003e0: bea7 20be 0775 1d3e c8bc 173e a08f 333e
000003f0: e6a0 60be e6cf 39bd cce5 443e c712 983c

encoder.latent.backbone.c_layers.1.layer.ff.0.0.bias f4 [32, 1]
-0.019559704 0.057944767 -0.022665355 0.016949825 -0.05923262 0.08034201 0.10298223 0.06611933
-0.30294105 -0.029145189 0.04199802 0.2561517 -0.1334025 0.05861195 -0.20353676 -0.029705644
0.045122437 0.05654195 0.10483037 0.1229689 0.12990943 0.18543042 0.13510488 0.0208189
-0.12193226 0.047797646 -0.033698365 0.13626072 -0.10563287 0.13503683 0.24650443 0.17852384
00000000: ac3b a0bc 7e57 6d3d b2ac b9bc 5cda 8a3c
00000010: e79d 72bd 5a8a a43d 59e8 d23d 9269 873d
00000020: 171b 9bbe e4c1 eebc 1e06 2c3d 5126 833e
00000030: aa9a 08be 1613 703d f16b 50be 4059 f3bc
00000040: 4ed2 383d 8898 673d 4eb1 d63d 1ed7 fb3d
00000050: fa06 053e 79e1 3d3e ef58 0a3e 668c aa3c
00000060: 9fb7 f9bd 77c7 433d 4c07 0abd ee87 0b3e
00000070: 0c56 d8bd 1847 0a3e a86b 7c3e f4ce 363e

encoder.latent.backbone.c_layers.1.layer.ff.2.weight f4 [16, 32]
-0.08836553 -0.037385907 -0.020751236 -0.037298337 -0.1488378 -0.011465663 0.102352135 -0.07352537
0.010538647 -0.073423505 -0.25581455 -0.053689875 -0.19504869 -0.10790743 -0.097810514 -0.043664627
-0.053445894 -0.16253813 -0.06970044 0.06141124 0.027871441 -0.1388891 0.06043291 -0.04965727
-0.14332476 0.15776184 0.12420626 -0.13127433 -0.105996445 -0.17750695 0.014086225 -0.08479156
-0.20971572 0.08701224 -0.22107823 -0.121808335 -0.118813805 0.014044839 -0.10529648 0.14500222
0.11658604 0.19270228 0.09301497 0.15944774 -0.13911363 -0.021442438 0.10341952 -0.0825578
-0.0651849 -0.10278394 0.004880295 -0.10124943 0.026420629 -0.07530163 -0.21444012 0.115105264
0.048180345 0.18156862 -0.024528377 0.117280565 0.04690452 0.06361954 0.018721115 0.042418838
0.07598133 -0.21368499 -0.059217777 0.0022587758 -0.15775913 0.015622846 0.08314518 -0.14097556
0.11737706 -0.14098628 -0.07897939 0.06147031 0.021571342 0.082285054 0.038511015 -0.13028818
0.074647635 0.016816804 0.102443956 -0.021744164 -0.13712429 -0.095328026 0.11050736 0.019910306
-0.09233119 -0.17497349 -0.010889535 0.11636827 0.110435314 -0.064508125 -0.054421015 -0.17744103
0.020806774 0.0986713 0.052277204 0.07155063 0.0031754493 -0.060928963 -0.08879796 -0.16205561
-0.19855511 -0.10560454 -0.08970121 0.10097609 0.08021241 -0.093372546 -0.045598116 -0.10010525
-0.057441395 -0.044685613 0.03939354 -0.10398019 -0.1397488 0.15744598 -0.11949705 -0.06104913
-0.104142435 0.12379908 -0.025730675 -0.022845406 0.0013808965 0.20186673 -0.053722598 -0.16972995
0.08053397 0.10679101 0.10688526 0.21896489 0.006678506 -0.14513642 0.040572867 -0.24645242
-0.042538546 -0.04680357 0.024262462 -0.018908927 -0.03683624 0.13252072 0.26501516 -0.025900703
-0.021935279 0.046037886 -0.25261658 -0.023705147 -0.03528633 0.0022084846 -0.0339584 -0.22303596
0.09181152 0.06179972 -0.06962493 0.2756487 -0.19360495 0.15277666 -0.17640442 -0.06956658
0.13986579 0.030603826 0.01778923 0.10918117 0.17510852 0.043287188 0.017715635 0.07382159
-0.072039396 -0.050883442 -0.102273695 -0.11816567 0.23404197 0.121780604 -0.11591006 0.15303993
-0.12544772 0.087267175 -0.12654173 -0.04891601 -0.11727381 0.07843191 -0.09116744 -0.023755852
0.15878485 -0.088072844 -0.21281554 0.058327 -0.11141074 0.01640583 0.0118944505 -0.2038458
0.07758307 0.22469348 0.091485985 0.24983865 0.03330144 0.1331741 0.22332498 -0.0060405354
0.08476883 -0.12399591 -0.031187473 0.00019601731 -0.19300692 0.10185591 -0.018162478 -0.14676428
0.09883455 -0.009303892 -0.027077986 0.107852355 -0.007851388 0.13455977 0.18051974 0.09276492
-0.042190578 -0.05723098 0.05073175 0.0057764086 -0.13300781 0.132972 0.054833103 -0.06067472
-0.21495853 -0.0003049105 -0.2039884 -0.075956285 -0.03458319 0.03881596 -0.04226625 0.031788107
-0.10690739 -0.08398612 -0.17296876 0.046275564 -0.07831616 0.041271996 -0.08982936 0.1232848
-0.05731802 -0.16537535 0.0176438 -0.18281624 0.023550225 -0.13500284 -0.07443406 0.049531758
-0.21187498 0.16186398 -0.11480192 -0.19612254 -0.05081132 0.09277092 0.102130204 -0.040330105
00000000: fdf8 b4bd f721 19bd 7ffe a9bc 24c6 18bd
00000010: f068 18be 7ada 3bbc ff9d d13d 7894 96bd
00000020: 4aaa 2c3c 105f 96bd 20fa 82be eae9 5bbd
00000030: d8ba 47be 92fe dcbd e150 c8bd aed9 32bd
00000040: 15ea 5abd 6570 26be 1bbf 8ebd 5a8a 7b3d
00000050: a652 e43c f238 0ebe 8088 773d 6c65 4bbd
00000060: bac3 12be 528c 213e da5f fe3d c76c 06be
00000070: aa14 d9bd 62c4 35be e9c9 663c 33a7 adbd
00000080: b8bf 56be 7933 b23d 5562 62be a676 f9bd
00000090: a754 f3bd 531c 663c aea5 d7bd 767b 143e
000000a0: a9c4 ee3d bf53 453e a27e be3d 4546 233e
000000b0: ce73 0ebe 0da8 afbc 9dcd d33d 1014 a9bd
000000c0: a97f 85bd 6380 d2bd e2ea 9f3b dc5b cfbd
000000d0: 1370 d83c be37 9abd 3196 5bbe 4fbc eb3d
000000e0: c158 453d 20ed 393e bcef c8bc cb30 f03d
000000f0: f41e 403d f64a 823d 065d 993c 60bf 2d3d
00000100: 199c 9b3d 3dd0 5abe 578e 72bd f807 143b
00000110: 9c8b 21be f7f6 7f3c 0548 aa3d e65b 10be
00000120: 6263 f03d b55e 10be f2bf a1bd 4bc8 7b3d
00000130: 62b6 b03c 1185 a83d babd 1d3d 446a 05be
00000140: dce0 983d 65c3 893c 23ce d13d d120 b2bc
00000150: 4f6a 0cbe 573b c3bd af51 e23d f01a a33c
00000160: 2318 bdbd 402c 33be 056a 32bc 7d52 ee3d
00000170: e92b e23d d61c 84bd 92e8 5ebd 1ab3 35be
00000180: f872 aa3c 2e14 ca3d 9f20 563d 2389 923d
00000190: 331b 503b a690 79bd b4db b5bd e8f1 25be
000001a0: 0852 4bbe 3147 d8bd 45b5 b7bd 8dcc ce3d
000001b0: 6746 a43d 1b3a bfbd 17c5 3abd fb03 cdbd
000001c0: ab47 6bbd 4308 37bd 1f5b 213d 91f3 d4bd
000001d0: 4f1a 0fbe 8539 213e dfba f4bd a70e 7abd
000001e0: a148 d5bd 5f8a fd3d 23c9 d2bc 4a26 bbbc
000001f0: 33ff b43a 27b6 4e3e 3a0c 5cbd b0cd 2dbe
00000200: feee a43d 3fb5 da3d a9e6 da3d 5538 603e
00000210: 5ed7 da3b a49e 14be bc2f 263d 065e 7cbe
00000220: e63c 2ebd 1ab5 3fbd 12c2 c63c e5e6 9abc
00000230: 99e1 16bd 83b3 073e 11b0 873e b62d d4bc
00000240: 9db1 b3bc 3992 3c3d f656 81be 4c31 c2bc
00000250: 6688 10bd 39bc 103b f717 0bbd 8a63 64be
00000260: ae07 bc3d b421 7d3d 8497 8ebd d421 8d3e
00000270: 6040 46be 7c71 1c3e 5ca3 34be ec78 8ebd
00000280: fa38 0f3e e0b4 fa3c b8ba 913c 619a df3d
00000290: a64f 333e e84d 313d 6120 913c c62f 973d
000002a0: 6489 93bd 286b 50bd df74 d1bd d800 f2bd
000002b0: b3a8 6f3e 1c68 f93d 4162 edbd 80b6 1c3e
000002c0: 5e75 00be 22b9 b23d 2894 01be 275c 48bd
000002d0: 402d f0bd e9a0 a03d ffb5 babd a29b c2bc
000002e0: 7f98 223e 895f b4bd 51ec 59be 4be8 6e3d
000002f0: 502b e4bd 8565 863c f1e0 423c f4bc 50be
00000300: dfe3 9e3d 0c16 663e 015d bb3d b4d5 7f3e
00000310: 1767 083d cb5e 083e 4eaf 643e afef c5bb
00000320: 489b ad3d 91f1 fdbd df7c ffbc ff89 4d39
00000330: 9ba3 45be d599 d03d 7ac9 94bc 6049 16be
00000340: c569 ca3d 5a6f 18bc a7d2 ddbc b2e1 dc3d
00000350: 1ca3 00bc 09ca 093e 2bda 383e 89fb bd3d
00000360: 07d0 2cbd 086b 6abd 18cc 4f3d 0748 bd3b
00000370: 3333 08be d029 083e ad98 603d 0e86 78bd
00000380: 171e 5cbe 65dc 9fb9 56e2 50be f88e 9bbd
00000390: 1aa7 0dbd 7cfd 1e3d 601f 2dbd 3f34 023d
000003a0: 43f2 dabd ea00 acbd b91e 31be 728b 3d3d
000003b0: 3964 a0bd d30c 293d 75f8 b7bd be7c fc3d
000003c0: 4dc6 6abd 2858 29be bb89 903c 2e34 3bbe
000003d0: 67ec c03c 2f3e 0abe e270 98bd d0e1 4a3d
000003e0: c1f5 58be acbf 253e 451d ebbd 59d4 48be
000003f0: 881f 50bd aefe bd3d a429 d13d 2e31 25bd

encoder.latent.backbone.c_layers.1.layer.ff.2.bias f4 [16, 1]
-0.106559835 -0.024345376 -0.21248874 -0.14064038 -0.056147162 0.113218084 0.10296934 0.20290622
-0.012447528 -0.01384812 -0.10550916 0.00038627003 0.016188575 0.12032141 -0.072233394 0.020608021
00000000: 0b3c dabd f46f c7bc a696 59be 0804 10be
00000010: 91fa 65bd e2de e73d 97e1 d23d a6c6 4f3e
00000020: b7f0 4bbc 3ae3 62bc 3015 d8bd 4984 ca39
00000030: e79d 843c 126b f63d 1aef 93bd 27d2 a83c

encoder.latent.backbone.c_layers.1.norm.weight f4 [16]
1.0218164 1.1207668 1.0697389 1.0998055 1.1154913 0.9715082 0.9916554 1.0490103
1.0463442 1.089045 1.0271428 1.0492988 1.0951319 1.1027719 1.0332879 0.99357814
00000000: e1ca 823f 4975 8f3f 34ed 883f 6dc6 8c3f
00000010: 6bc8 8e3f c3b4 783f 21dd 7d3f f845 863f
00000020: 9bee 853f d465 8b3f 6a79 833f 6c4f 863f
00000030: 482d 8c3f a127 8d3f c742 843f 235b 7e3f

encoder.latent.backbone.c_layers.1.norm.bias f4 [16]
0.05092847 -0.09026558 -0.055764504 0.088312455 0.0982086 -0.022155168 0.039369766 -0.027093776
0.049810573 -0.01860581 -0.039967243 -0.08222875 -0.08045516 0.103327535 -0.060620647 0.010240974
00000000: 5f9a 503d 29dd b8bd 5269 64bd 29dd b43d
00000010: 9721 c93d c17e b5bc 3142 213d c4f3 ddbc
00000020: 2c06 4c3d 366b 98bc b1b4 23bd 8c67 a8bd
00000030: adc5 a4bd 639d d33d 5b4d 78bd c2c9 273c

encoder.latent.backbone.c_layers.2.layer.D f4 [1, 16]
-0.65791786 0.416966 -0.73982644 -1.5221881 -0.6150532 -0.7945124 -1.1173259 0.72364146
-1.0124667 2.1167557 -0.2221895 0.08488131 0.5814344 -1.5072885 0.59071904 0.570402
00000000: 4e6d 28bf 917c d53e 4465 3dbf 0fd7 c2bf
00000010: 2074 1dbf 2a65 4bbf 8904 8fbf 9140 393f
00000020: 8298 81bf ed78 0740 a585 63be 41d6 ad3d
00000030: e3d8 143f d4ee c0bf 5d39 173f de05 123f
